MLAgentsProject/results/MoveToGoal4/MoveToGoal.onnx (onnx, 72981 bytes, 7 tensors)

action_model._continuous_distribution.log_sigma f4 [1, 3]
0.007916824 -0.0012310153 0.025465364
00000000: 91b5 013c 055a a1ba bd9c d03c

action_model._continuous_distribution.mu.bias f4 [3]
-0.0018121888 -0.0015155117 0.012808591
00000000: f786 edba 22a4 c6ba 20db 513c

action_model._continuous_distribution.mu.weight f4 [3, 128]
0.0059199654 0.017000407 0.021643499 -0.026205383 0.0063398597 -0.032431994 0.006529877 -0.0012075264
0.022117265 0.014043049 -0.01657544 -0.0018617185 0.03033265 -0.012470784 -0.0025850732 -0.0029920237
-0.0028268718 -0.017197678 0.014441843 0.010951451 -0.013035844 0.046964504 -0.0031453848 -0.013143556
0.0099369455 -0.027862133 -0.011561188 0.010983191 0.012613566 0.001277027 0.006166686 0.014230468
0.020334123 -0.010074498 3.176459e-05 0.005271378 0.01034768 0.006987434 -0.0044108555 -0.0051160026
-0.0052019525 0.015242169 0.031187207 -3.2051586e-05 0.021518858 0.02740577 -0.045776255 -0.0029389602
-0.024057385 -0.013425395 -0.0012094 0.0010544606 -0.013597516 0.0032640463 -0.03298941 0.011944435
0.009595068 0.009528931 -0.024915196 0.00028494152 0.010886113 0.0128716575 -0.0123684835 -0.032244787
0.0056726253 0.03294598 -0.01132203 0.016592171 -0.0003563463 -0.008133337 0.062683634 0.018391091
0.014235259 -0.010927532 0.02121844 -0.03230386 -0.046410833 0.020543667 -0.0378298 -0.011608889
0.01732458 -0.01964073 0.0037387768 -0.041033376 -0.029538486 0.029244084 2.0437485e-05 -0.002912782
0.03968386 -0.027049975 0.020640247 0.0055062906 0.014531772 0.0030427955 -0.012000057 -0.03347403
-0.014956821 0.055544637 0.007398688 -0.006917268 -0.018331096 0.034287497 -0.010172853 0.012020689
0.03596739 -0.023174291 0.010137171 0.010634256 0.05840367 -0.0025542928 -0.015100485 -0.02629498
0.003258596 0.0034706525 0.0132686 -0.0141513385 -0.016955692 -0.0053516254 0.03776472 -0.0058621457
-0.0054010255 0.020985637 0.018283674 -0.016449958 -0.028261159 0.026910394 0.04395933 0.026808992
-0.031006329 0.013880866 0.02925201 0.016637363 0.005482734 0.026189758 -0.00015566644 0.034014102
-0.004720036 0.0016595275 0.01828404 0.00027702452 0.02072531 -0.0033468548 -0.0068474677 -0.020224376
0.00771075 0.012012257 0.01767539 0.016750613 0.007961087 0.002362383 -0.007988427 -0.007825652
-0.015731798 0.017800571 0.015673732 0.011820433 0.008922525 0.020729396 -0.03868339 -0.029495833
-0.015083106 0.017506963 -0.009162374 -0.0016190124 -0.011125659 -0.011755653 -0.003055053 -0.0074035125
0.009098911 0.006042803 0.03394318 -0.008736182 0.007982266 -0.0034091233 -0.0070617963 -0.015228186
0.0006508069 0.0049706823 0.0066646314 -0.02169569 0.014546385 -0.008044883 0.0042698714 -0.011057715
0.03098431 -0.008482935 0.022909349 -9.653617e-05 0.010854328 0.011230017 0.034109805 0.013320163
-0.0101002585 0.042007603 -0.025315542 -0.015273281 -0.016800852 -0.015001931 -0.0013719319 -0.020203052
0.0015044244 0.012778302 0.019324569 0.013461779 -0.007316767 0.017645845 -0.027336413 0.012994305
-0.0054266113 -0.036816802 -0.003600344 -0.014560421 0.02446889 -0.025124026 0.0069604577 0.002527556
-0.017101236 -0.0085579725 -0.0048596505 0.015960615 -0.026028614 -0.03091321 -0.02519949 0.014102258
0.0006382756 -0.0011113446 0.032336805 -0.006130953 0.006157837 0.0030649812 -0.021131419 -0.011078457
0.024763351 0.04518041 0.009777079 -0.00817792 -0.007285342 0.017531 0.009711388 0.0035130938
0.0026043982 0.0014328969 -0.015259097 0.007279775 0.008453879 -0.0070114895 -0.006976004 -0.00013103103
0.0073636686 -0.01234283 -0.006612804 -0.0028284565 -0.017648362 -0.018830849 -0.007836715 -0.0034594974
00000000: 45fc c13b 7044 8b3c b54d b13c acac d6bc
00000010: 99be cf3b 69d7 04bd 94f8 d53b dd45 9eba
00000020: 442f b53c d114 663c 38c9 87bc e804 f4ba
00000030: 2d7c f83c 4252 4cbc 556a 29bb d415 44bb
00000040: 0a43 39bb 25e2 8cbc 7b9d 6c3c b76d 333c
00000050: 4b94 55bc da5d 403d cd22 4ebb 1258 57bc
00000060: 92ce 223c 213f e4bc 236b 3dbc d8f2 333c
00000070: 21a9 4e3c ea61 a73a e911 ca3b e926 693c
00000080: bf93 a63c 820f 25bc f83a 0538 86bb ac3b
00000090: 5189 293c d8f6 e43b f088 90bb 24a4 a7bb
000000a0: 2475 aabb 4aba 793c 507c ff3c 216f 06b8
000000b0: 5148 b03c 1182 e03c e27f 3bbd 929b 40bb
000000c0: fe13 c5bc 30f6 5bbc bb84 9eba d435 8a3a
000000d0: 1ec8 5ebc 9ce9 553b e71f 07bd 97b2 433c
000000e0: a234 1d3c 3c1f 1c3c f41a ccbc 3464 9539
000000f0: ab5b 323c a5e3 523c 2ea5 4abc 1c13 04bd
00000100: 6ee1 b93b 5df2 063d 0980 39bc 4eec 873c
00000110: fed3 bab9 b041 05bc 4760 803d eaa8 963c
00000120: 013b 693c 6409 33bc 4bd2 ad3c 0d51 04bd
00000130: 4919 3ebd 314b a83c 6cf3 1abd 3633 3ebc
00000140: 47ec 8d3c 99e5 a0bc 4406 753b 9d12 28bd
00000150: b2fa f1bc 4a91 ef3c 2a71 ab37 5fe4 3ebb
00000160: 8b8b 223d e997 ddbc bc15 a93c 1d6e b43b
00000170: ab16 6e3c a369 473b e39b 44bc 111c 09bd
00000180: 740d 75bc c682 633d b170 f23b 40aa e2bb
00000190: 182b 96bc 0c71 0c3d 0aac 26bc 6df2 443c
000001a0: 8b52 133d 03d8 bdbc 6016 263c 4d3b 2e3c
000001b0: b038 6f3d ec65 27bb 0668 77bc 9268 d7bc
000001c0: 2b8e 553b e373 633b 8b64 593c 04db 67bc
000001d0: aae6 8abc b05c afbb 2eaf 1a3d 3e17 c0bb
000001e0: 16fb b0bb 12ea ab3c a5c7 953c 10c2 86bc
000001f0: f283 e7bc 3073 dc3c b30e 343d 889e db3c
00000200: fc00 febc 926c 633c e9a1 ef3c 144b 883c
00000210: 82a8 b33b e78b d63c 643a 23b9 5f52 0b3d
00000220: 88aa 9abb 8184 d93a 69c8 953c 9a3d 9139
00000230: 20c8 a93c e856 5bbb b960 e0bb 97ad a5bc
00000240: 76aa fc3b 0fcf 443c fbcb 903c 9538 893c
00000250: 386f 023c 36d2 1a3b e4e1 02bc 2a37 00bc
00000260: f9df 80bc 81d2 913c 3366 803c 7daa 413c
00000270: c82f 123c b2d0 a93c 7972 1ebd 3fa1 f1bc
00000280: 221f 77bc c36a 8f3c c81d 16bc 0b35 d4ba
00000290: 6548 36bc c89a 40bc 4937 48bb 2a99 f2bb
000002a0: 9913 153c b502 c63b 0108 0b3d 3422 0fbc
000002b0: 0dc8 023c 996b 5fbb a466 e7bb a47f 79bc
000002c0: e99a 2a3a 1be1 a23b fb62 da3b 29bb b1bc
000002d0: f653 6e3c afce 03bc 47ea 8b3b 6b2b 35bc
000002e0: cfd2 fd3c 02fc 0abc 63ac bb3c 7673 cab8
000002f0: 5ad6 313c 1bfe 373c b9b6 0b3d d03c 5a3c
00000300: 8e7b 25bc 2a10 2c3d 8a62 cfbc c93c 7abc
00000310: f1a1 89bc a9ca 75bc 65d2 b3ba df80 a5bc
00000320: 1b30 c53a 155c 513c 8f4e 9e3c cb8e 5c3c
00000330: 7dc1 efbb 058e 903c 9df0 dfbc 11e6 543c
00000340: b7d1 b1bb 37cd 16bd c0f3 6bbb d58e 6ebc
00000350: fb72 c83c e7d0 cdbc 8d14 e43b 5aa5 253b
00000360: e417 8cbc bd36 0cbc b43d 9fbb d6bf 823c
00000370: f639 d5bc b33d fdbc 296f cebc 280d 673c
00000380: f351 273a 89aa 91ba 9973 043d 29e6 c8bb
00000390: aec7 c93b dadd 483b cc1b adbc 6b82 35bc
000003a0: 83dc ca3c 180f 393d 0b30 203c affc 05bc
000003b0: e1b9 eebb 2c9d 8f3c 831c 1f3c ef3b 663b
000003c0: 8dae 2a3b 0bd0 bb3a 4b01 7abc 2e8b ee3b
000003d0: 2382 0a3c a3c0 e5bb f796 e4bb 6065 09b9
000003e0: ee4a f13b 9539 4abc 38b0 d8bb a05d 39bb
000003f0: 4c93 90bc 2743 9abc 9165 00bc bcb8 62bb

network_body._body_endoder.seq_layers.0.bias f4 [128]
0.006335787 0.0058658 0.012873905 -0.0076267323 -0.019049814 0.005484123 0.010366923 0.008309586
-0.00014335748 0.01080745 0.013890985 0.0072337855 -0.0055314754 0.01151085 0.020089611 0.0071783457
0.0013141972 -0.01130516 -0.006274951 -0.010182901 -0.0008009075 -0.00087590236 0.010762486 -0.011205219
0.00054926274 0.00850936 -0.0057921447 0.013027471 -0.0019657824 0.0072998274 0.005930848 0.005805893
0.015439662 -0.0052234163 0.00059368793 -0.003398651 -0.0022700594 -0.024748573 0.026912397 0.008353551
0.027855637 -0.0072134887 -0.0071431394 0.0018844963 0.0032310123 -0.011394545 0.00083194417 -0.0073608514
-0.00437748 -0.009757762 0.0006638714 0.016987337 -0.00090173207 0.0021472306 -0.014185303 0.004345962
-0.007417519 0.010188059 0.011246899 -0.013958436 0.0064942464 -0.0013882049 -0.003922825 -0.009096308
0.002083302 0.002429822 -0.0005912578 0.025888925 -0.0060261833 -0.00029558557 -0.005171039 -0.0064328867
-0.014193188 -0.0054778634 0.012558891 0.0023335705 0.007155629 0.008064273 0.013445076 -0.008990586
0.0057984567 -0.01222386 0.0028266772 -0.0061187204 0.00407616 0.012958812 -0.01681477 -0.004094432
-0.0013294221 0.009760208 -0.0027342134 0.0050184214 0.009964544 -0.0056162216 -0.0030954108 -0.0032198124
0.0067204563 -0.013825089 -0.012836722 0.005244358 -0.00875751 -5.0230883e-06 -0.008831444 -0.010751147
0.0004945344 0.009611015 0.004587646 0.021922283 -0.00094390067 0.0032320765 -0.0021187256 0.0026865224
0.008627826 -0.020658676 0.0011477616 0.015611698 -0.004692243 -0.0076143825 -0.0034563541 0.0058661904
0.018640494 0.001716361 -0.019761443 0.009616152 -0.0011044188 0.010451257 0.00028340146 -0.015653715
00000000: 6f9c cf3b e635 c03b 12ed 523c abe9 f9bb
00000010: 5b0e 9cbc 28b4 b33b 07da 293c ee24 083c
00000020: 3b52 16b9 bb11 313c 0497 633c 6409 ed3b
00000030: 6141 b5bb 0198 3c3c f892 a43c 5438 eb3b
00000040: 2441 ac3a 4739 39bc 1b9e cdbb 2fd6 26bc
00000050: fef3 51ba d09c 65ba 2355 303c 1896 37bc
00000060: 66fc 0f3a d86a 0b3c 08cc bdbb 2c71 553c
00000070: 5bd4 00bb 6433 ef3b 8f57 c23b 5c3f be3b
00000080: a3f6 7c3c 3129 abbb b9a1 1b3a e7bb 5ebb
00000090: 47c5 14bb 85bd cabc 6377 dc3c 55dd 083c
000000a0: 8131 e43c 215f ecbb ff10 eabb 3401 f73a
000000b0: 64bf 533b 30b0 3abc d416 5a3a 4c33 f1bb
000000c0: f770 8fbb 05df 1fbc a807 2e3a 0729 8b3c
000000d0: 3762 6cba 8db8 0c3b 7969 68bc 9268 8e3b
000000e0: a90e f3bb d1eb 263c ea44 383c edb1 64bc
000000f0: b0cd d43b 6df4 b5ba 0b8b 80bb ae08 15bc
00000100: 0288 083b a63d 1f3b a4fe 1aba 0315 d43c
00000110: 4a77 c5bb d3f8 9ab9 d271 a9bb f7ca d2bb
00000120: 8c8a 68bc a67f b3bb cfc3 4d3c d1ee 183b
00000130: c479 ea3b 0320 043c bc48 5c3c 404d 13bc
00000140: fb00 be3b 9646 48bc c63f 393b 8c7f c8bb
00000150: 4f91 853b 3251 543c 21bf 89bc 962a 86bb
00000160: 0140 aeba 48e9 1f3c 7d30 33bb 9271 a43b
00000170: 5442 233c 4808 b8bb 60dc 4abb 7d03 53bb
00000180: 4637 dc3b a082 62bc 1d51 52bc ddd8 ab3b
00000190: a97b 0fbc 008c a8b6 c3b1 10bc 9425 30bc
000001a0: a4a3 013a 8577 1d3c f753 963b 5c96 b33c
000001b0: 1a70 77ba 3fd1 533b 51da 0abb 5e10 303b
000001c0: ba5b 0d3c 623c a9bc 7d70 963a 35c8 7f3c
000001d0: 63c1 99bb 1282 f9bb 0084 62bb 2c39 c03b
000001e0: f3b3 983c 85f7 e03a c0e2 a1bc 118d 1d3c
000001f0: 25c2 90ba c03b 2b3c 8095 9439 383c 80bc

network_body._body_endoder.seq_layers.0.weight f4 [128, 6]
-0.33794785 -0.22193818 0.5989236 -0.41158324 0.08187413 -0.08212417 -0.5972511 -0.18467797
0.4061897 0.03649679 0.42300367 -0.1836041 -0.39850327 -0.15482645 -0.106359094 0.22049819
-0.41578335 -0.5877478 -0.57636994 0.7752907 0.34146354 0.29751828 0.412878 -0.35772225
-0.45041615 0.14558956 0.5030147 -0.4339555 -0.0962634 0.024400186 -0.49241075 0.33701536
0.26975313 0.23906127 0.65418816 -0.022199906 0.295021 0.14582655 -0.23102985 0.28558904
-0.08756696 0.13534452 0.09298095 1.156698 -0.34767142 0.3612555 0.34546444 -0.33871144
-0.45965123 0.40427956 -0.2044772 -0.3721234 -1.0759199 -0.007998645 -0.19121194 -0.3286464
0.101778805 0.064647205 0.43759957 0.1949549 -0.79247975 0.2538913 0.82938623 -0.33776498
0.66835666 0.6029021 0.48388138 -0.079716794 -0.7248875 -0.062477414 0.202537 0.46339786
0.40484303 0.45087433 0.11156169 0.03358597 0.19329439 0.3571286 0.31814682 -0.3524184
0.044586398 -0.39970684 -0.14047408 0.5224214 0.2594037 -0.37273633 0.18147102 -0.3248436
0.31703815 -0.5106808 -0.61226255 -0.2781219 0.06457704 -0.2513193 0.4161248 0.024410242
0.7035367 0.2799432 -0.12162463 0.037405267 -0.15715371 -0.09514418 0.8421611 -0.3093322
0.66772306 0.02486785 0.5200104 -0.008170715 0.39906535 0.055793393 0.013903388 -0.02242812
0.333865 0.68241066 -0.2232909 0.17068453 0.19962515 -0.28838715 0.6750508 0.11137893
-0.51404965 -0.6706772 -0.24146622 0.8203092 -0.044342693 -0.45762694 0.1683379 -0.38268968
0.2792564 0.2458885 0.5686296 0.5717118 -0.18561551 -0.1981314 0.8619285 -0.14701782
0.2935506 -0.5491198 0.66301894 0.017049503 -0.35136914 -0.10378683 -0.1260707 -0.007366694
0.08495054 0.17008783 -0.46743038 -0.5355174 0.15003914 -0.036153033 -0.19883224 -0.81619567
-0.5377792 0.3577835 -0.31171873 -0.2711572 0.27585083 0.615749 -0.04553588 0.2725365
-0.35148478 -0.74608403 -0.21129525 0.6862419 -0.23101588 -0.27759886 -0.53182095 0.62822366
-0.0061108316 -0.3492378 -0.61758506 0.9070749 -0.44807455 0.35092768 -0.21063273 -0.3407132
0.4685088 0.09632823 -0.8712979 -0.049991842 -0.45777676 -0.028955586 -0.74432987 0.123161726
0.23919374 -0.13460168 -0.3171834 -0.3417261 -0.87470156 -0.17756362 -0.4807091 -0.44002604
0.36642957 -0.61125576 0.11261714 0.19291122 0.40312895 -0.41404393 -0.38634726 -0.34638765
-0.2528453 0.056504615 0.31071818 -0.044622198 0.2139619 0.10026884 0.3642777 0.17115474
-0.7433173 -0.000805046 -0.11088112 -0.5551929 -0.14224716 -0.0274151 -0.6642581 0.28039634
-0.15650372 0.4477963 -0.032863766 -0.11468287 -0.20229957 -0.3896151 0.19173709 0.22896637
0.77647316 1.0552851 0.6862205 0.13798498 -0.10757848 -0.010775989 -0.16781363 -0.552989
-0.28454423 -0.25101385 0.38359168 -0.4259697 0.24979453 0.20054747 0.025037719 0.19864509
-0.53873944 0.32962593 0.3171241 0.29906222 -0.28638327 -0.41311994 0.5231142 -0.2292256
0.3778645 0.31596524 -0.25998592 -0.30466816 0.40412685 -0.20818591 0.5305501 -0.09484386
00000000: 8007 adbe c343 63be 0f53 193f 0abb d2be
00000010: a0ad a73d b830 a8bd 73e5 18bf 391c 3dbe
00000020: 19f8 cf3e a87d 153d f093 d83e b702 3cbe
00000030: 9f08 ccbe d38a 1ebe ccd2 d9bd 47ca 613e
00000040: 8ee1 d4be a476 16bf fb8c 13bf 7479 463f
00000050: 4fd4 ae3e 5154 983e bf64 d33e 5f27 b7be
00000060: f29c e6be 6e15 153e 92c5 003f 6a2f debe
00000070: bf25 c5bd e6e2 c73c 431d fcbe 478d ac3e
00000080: 151d 8a3e 7acc 743e e078 273f 94dc b5bc
00000090: fe0c 973e 8e53 153e 1793 6cbe ba38 923e
000000a0: 4e56 b3bd c197 0a3e cc6c be3d ae0e 943f
000000b0: fd01 b2be 7bf6 b83e b7e0 b03e 966b adbe
000000c0: 6857 ebbe bbfd ce3e 7962 51be f586 bebe
000000d0: beb7 89bf c00c 03bc 10cd 43be 5744 a8be
000000e0: 6871 d03d c165 843d 0d0d e03e 42a2 473e
000000f0: f4df 4abf 0afe 813e a852 543f 88ef acbe
00000100: 6c19 2b3f cb57 1a3f 4dbf f73e 8f42 a3bd
00000110: 3a92 39bf 51e8 7fbd dc65 4f3e 7c42 ed3e
00000120: 9647 cf3e 00d9 e63e 757a e43d 7191 093d
00000130: f7ee 453e 8fd9 b63e 24e4 a23e 2f70 b4be
00000140: 3aa0 363d 60a6 ccbe 70d8 0fbe 69bd 053f
00000150: 90d0 843e 4cd7 bebe 8ad3 393e e651 a6be
00000160: d352 a23e fabb 02bf 3dbd 1cbf fe65 8ebe
00000170: f840 843d ecac 80be 4f0e d53e fdf7 c73c
00000180: fb1a 343f b754 8f3e 5616 f9bd 4436 193d
00000190: e7ec 20be f4da c2bd df97 573f ca60 9ebe
000001a0: e6ef 2a3f a9b7 cb3c 671f 053f 76de 05bc
000001b0: 4b52 cc3e 9d87 643d 09cb 633c 2dbb b7bc
000001c0: 5af0 aa3e 77b2 2e3f 5fa6 64be edc7 2e3e
000001d0: 896a 4c3e 7ba7 93be 21d0 2c3f a31a e43d
000001e0: c298 03bf 80b1 2bbf ec42 77be c9ff 513f
000001f0: afa0 35bd 144e eabe c560 2c3e e7ef c3be
00000200: b2fa 8e3e 32ca 7b3e b691 113f b45b 123f
00000210: fe11 3ebe f5e2 4abe 59a7 5c3f d78b 16be
00000220: 444c 963e 1d93 0cbf 9cbb 293f 66ab 8b3c
00000230: a8e6 b3be 318e d4bd ad18 01be 4f64 f1bb
00000240: 8cfa ad3d 812b 2e3e 0953 efbe ab17 09bf
00000250: dca3 193e 3415 14bd ae9a 4bbe 33f2 50bf
00000260: e6ab 09bf 662f b73e 9999 9fbe 1ed5 8abe
00000270: 523c 8d3e baa1 1d3f d583 3abd e789 8b3e
00000280: d0f5 b3be 5dff 3ebf c85d 58be 8dad 2f3f
00000290: 6d8f 6cbe 7021 8ebe 6b25 08bf 44d3 203f
000002a0: 5f3d c8bb 4ccf b2be 0e1a 1ebf 1036 683f
000002b0: 076a e5be cbac b33e 1bb0 57be f671 aebe
000002c0: 63e0 ef3e bc47 c53d 610d 5fbf 3fc4 4cbd
000002d0: b761 eabe 4434 edbc 678c 3ebf 373c fc3d
000002e0: 34ef 743e 06d5 09be dd65 a2be b9f6 aebe
000002f0: 71ec 5fbf 3dd3 35be 811f f6be 184b e1be
00000300: a89c bb3e 427b 1cbf d1a3 e63d 858a 453e
00000310: eb66 ce3e 91fd d3be 4fcf c5be b959 b1be
00000320: f074 81be 6271 673d 7416 9f3e c4c5 36bd
00000330: d418 5b3e c059 cd3d 9b82 ba3e 3043 2f3e
00000340: 0b4a 3ebf b909 53ba a415 e3bd 1f21 0ebf
00000350: 3da9 11be a295 e0bc d20c 2abf 1c90 8f3e
00000360: 8342 20be 8e45 e53e 289c 06bd dade eabd
00000370: 9e27 4fbe a17b c7be ba56 443e 2976 6a3e
00000380: f2c6 463f 9513 873f 26ac 2f3f ef4b 0d3e
00000390: 1b52 dcbd c68d 30bc 56d7 2bbe b090 0dbf
000003a0: c8af 91be e384 80be 2166 c43e b318 dabe
000003b0: 23ca 7f3e 515c 4d3e e71b cd3c 9e69 4b3e
000003c0: d4ea 09bf bbc4 a83e 175e a23e af1e 993e
000003d0: d4a0 92be 7584 d3be d0ea 053f 1eba 6abe
000003e0: 7577 c13e 32c6 a13e e01c 85be 77fd 9bbe
000003f0: b7e9 ce3e b02e 55be 22d2 073f 7f3d c2bd

network_body._body_endoder.seq_layers.2.bias f4 [128]
0.0025777973 -0.008399724 -0.0004849252 -0.012116969 0.010827963 0.005396876 0.024807872 -0.0074223895
-0.003482725 0.002358687 0.024401145 -0.010302483 -0.0039443853 -0.003161282 -0.0031537083 0.0023905004
-0.0031033629 -0.0027826813 -0.008044779 -0.0006968058 -0.010999948 0.01900772 -0.013302165 -0.006564985
0.0032456503 -0.007640732 -0.0032332211 -0.008910285 0.032550607 -0.009257082 0.0023494798 0.007239538
-0.010301695 0.022358285 0.014145931 -0.0109544415 0.0041308883 -0.005489573 -0.0016715003 -0.009423125
0.03220074 0.0037885937 -0.007915954 -0.010505425 0.003638602 -0.011326064 -0.004874852 0.011540331
0.0138563095 0.0106961215 -0.008583163 0.008442535 0.005118003 -0.0096317325 0.00077870645 -0.003325663
0.003576603 -0.0045958953 0.0001578155 0.013188578 -0.01238845 -0.013175784 -0.0031216554 0.0049966117
0.00315277 -0.00019550709 0.002133869 0.011477836 0.0067017768 -0.0107240435 0.016784657 -0.00794872
0.005606241 0.016582098 0.006759937 0.0023226205 0.0014708879 -0.007408452 0.0045521506 0.009839206
0.0117908 -0.0024431907 -0.012250097 0.0049833744 -0.0079416735 0.003851834 0.0030727752 -0.0022921627
0.003731416 0.010478951 -0.011582153 0.002281822 0.0004446786 0.019369869 0.011191501 -0.003626277
0.004959811 0.028181594 -0.0064186123 0.0035247223 0.0032103239 0.0026693838 -0.0016726982 -0.0050816755
-0.00092348515 0.0016520666 -0.009659188 0.011085993 0.0061586844 0.02251061 -0.010888636 -0.0014585777
0.0129718995 0.014681527 -0.003394094 -0.003355811 0.0024932683 0.012510151 0.011873309 -0.013766236
0.0055584894 -0.004690706 -0.010824535 -0.001760473 -0.00834829 -0.0031211 0.0037792756 0.002063513
00000000: 43f0 283b ff9e 09bc 8f3d feb9 4086 46bc
00000010: c567 313c 47d8 b03b e139 cb3c 8437 f3bb
00000020: 6e3e 64bb 3494 1a3b e9e4 c73c bfcb 28bc
00000030: e73f 81bb 832d 4fbb 72ae 4ebb f1a9 1c3b
00000040: ca61 4bbb a55d 36bb 40ce 03bc d8a9 36ba
00000050: 2039 34bc 14b6 9b3c 53f1 59bc 161f d7bb
00000060: fab4 543b 1b5f fabb 73e4 53bb 72fc 11bc
00000070: c953 053d 04ab 17bc bbf9 193b a539 ed3b
00000080: 71c8 28bc b928 b73c 56c4 673c 427a 33bc
00000090: 675c 873b e0e1 b3bb 3e16 dbba 7363 1abc
000000a0: ece4 033d 0e4a 783b ebb1 01bc f21e 2cbc
000000b0: 9d75 6e3b f590 39bc 39bd 9fbb a813 3d3c
000000c0: 9305 633c c93e 2f3c 65a0 0cbc 8f52 0a3c
000000d0: ecb4 a73b 6ace 1dbc 1b22 4c3a 5ef3 59bb
000000e0: 7165 6a3b 2a99 96bb 477b 2539 e814 583c
000000f0: edf8 4abc 3edf 57bc b094 4cbb 9eba a33b
00000100: b49e 4e3b 0901 4db9 62d8 0b3b 890d 3c3c
00000110: 949a db3b e6b3 2fbc fa7f 893c 593b 02bc
00000120: 8fb4 b73b 2ed7 873c 7682 dd3b 1b37 183b
00000130: cfca c03a 9ac2 f2bb 352a 953b 9f34 213c
00000140: 332e 413c f01d 20bb a1b4 48bc 934b a33b
00000150: cb1d 02bc 0d6f 7c3b 9d60 493b 1c38 16bb
00000160: c68a 743b e8af 2b3c 12c3 3dbc 9f8a 153b
00000170: c023 e939 8fad 9e3c 8f5c 373c d5a6 6dbb
00000180: e985 a23b 16dd e63c 3953 d2bb 07ff 663b
00000190: 4c64 523b d4f0 2e3b 703e dbba 2f84 a6bb
000001a0: 0a16 72ba 288a d83a 9241 1ebc 06a2 353c
000001b0: cace c93b 2c68 b83c 4066 32bc bf2d bfba
000001c0: 1788 543c ca8a 703c 736f 5ebb 2aed 5bbb
000001d0: 1a66 233b 60f7 4c3c 4488 423c c78b 61bc
000001e0: fd23 b63b 7eb4 99bb 6459 31bc acbf e6ba
000001f0: 44c7 08bc 5e8b 4cbb b9ad 773b 013c 073b

network_body._body_endoder.seq_layers.2.weight f4 [128, 128]
-0.065322295 -0.049757153 0.032387003 -0.024371134 -0.10000365 0.017818948 0.06276161 -0.009922233
0.031724762 -0.14354555 -0.04160155 -0.04845787 -0.13965648 -0.011533587 0.02632196 -0.021027852
-0.1125156 0.09444143 -0.11765663 0.042899 -0.090509996 0.16015983 -0.013351769 0.1292702
-0.11397264 0.00891746 -0.07370802 -0.03787054 0.054049574 0.041075844 0.13417844 0.060586188
-0.13276035 -0.2260922 -0.08399394 0.06328565 -0.09571857 0.024736956 0.04380027 0.025589151
-0.11945438 -0.20308593 0.0583121 -0.051413402 0.056953523 -0.13897605 0.1054773 0.0070343404
-0.060432766 -0.06407577 0.044952847 -0.042709704 0.040169094 -0.003963152 -0.04681466 -0.15926439
0.09077551 0.06358432 -0.116355956 -0.0011825066 -0.0043363674 -0.139846 0.09959257 0.040169813
-0.08820725 0.12460922 -0.053079177 0.10467445 -0.0031799616 -0.06894831 0.09566099 0.019912617
0.14404878 -0.011480413 0.070224866 0.005891576 -0.03688215 0.10466761 0.124604166 -0.040377837
0.03135157 -0.051874913 0.04980141 -0.049080778 0.10482639 -0.091093875 -0.029743133 0.064009756
-0.06355835 -0.03657161 -0.06263827 -0.042543363 0.024804076 -0.02081414 -0.1064141 0.19751225
0.09581285 -0.06257911 0.04366218 0.06454398 -0.035094127 -0.025647286 0.052598815 -0.101061955
0.02602921 0.13357177 -0.20452075 0.13588342 0.040777106 0.07177109 0.07484251 -0.00039755952
0.004174286 -0.039422482 0.0102070505 0.10553474 0.012375079 0.00979716 -0.16599025 0.016373787
-0.049418338 0.04516964 -0.022497797 -0.03196294 -0.074792705 0.13507466 -0.099894166 0.05029445
-0.04031931 0.044387188 0.12984347 0.12639827 0.2643679 0.109257266 0.048492875 -0.015773032
0.039457414 -0.15122846 0.110007405 -0.11410613 0.041035954 -0.061917294 -0.1088963 -0.021796638
-0.06915503 -0.03204234 -0.022601428 0.019152658 -0.07422323 -0.028702512 0.18073797 -0.078965515
-0.08886241 -0.09938341 0.022284666 -0.043772276 0.0064493446 -0.029441215 -0.13839072 -0.07653039
-0.13865171 -0.013631783 0.09257033 -0.084050626 -0.08240184 0.011264167 -0.15142013 0.049325645
0.0675899 -0.07830048 -0.07085357 -0.11595017 0.08265763 -0.1648128 -0.019555587 -0.15163349
0.011568121 0.016744174 0.03321225 -0.055656344 0.045887377 0.092063315 0.019080967 -0.018216671
0.023978548 0.035584465 -0.05111108 0.033237938 -0.062264826 -0.15034829 0.097878836 -0.0092418995
0.16420007 0.06813765 0.016717322 0.008103098 -0.05209942 0.1550746 -0.07972208 -0.004775036
-0.04316766 -0.04920843 -0.2530237 0.034806523 0.07918743 -0.016433408 0.042309094 0.022577018
-0.0052981544 0.04050699 0.036559492 -0.022005694 -0.10237646 0.03120265 -0.16269785 0.0730648
0.063840225 0.046803836 0.018400516 0.21410732 0.03566981 0.034823593 0.11625163 0.13950256
-0.033183556 0.07082153 -0.12863559 0.07795818 -0.010083349 0.0029137635 0.0042296904 0.13758272
0.007897182 -0.03583125 -0.088266455 0.04730909 -0.032687914 -0.04134391 0.07672795 -0.13398173
-0.055162795 -0.0934528 0.10619621 -0.054387823 0.102443196 0.0060253004 0.020028152 0.0074330713
0.015682777 0.0011471643 -0.025875343 -0.16463806 0.050102677 -0.17687985 0.117127806 0.009135456
00000000: b2c7 85bd 28ce 4bbd 3ca8 043d f9a5 c7bc
00000010: b7ce ccbd 0bf9 913c 2989 803d dd90 22bc
00000020: d3f1 013d 9bfd 12be 6366 2abd c27b 46bd
00000030: 1c02 0fbe 5ff7 3cbc 27a1 d73c 9a42 acbc
00000040: 946e e6bd 826a c13d f6f5 f0bd ddb6 2f3d
00000050: 4e5d b9bd f000 243e 61c1 5abc 685f 043e
00000060: 7d6a e9bd 8a1a 123c 3bf4 96bd 241e 1bbd
00000070: 1663 5d3d 253f 283d 1366 093e 3929 783d
00000080: 54f2 07be b784 67be 0405 acbd e89b 813d
00000090: 1908 c4bd 28a5 ca3c e967 333d 57a0 d13c
000000a0: 7fa4 f4bd c2f5 4fbe abd8 6e3d dc96 52bd
000000b0: 1948 693d bd4f 0ebe 7c04 d83d 5380 e63b
000000c0: 5988 77bd 283a 83bd 7a20 383d 5ff0 2ebd
000000d0: 5988 243d 54dd 81bb bbc0 3fbd 3416 23be
000000e0: 83e8 b93d 7f38 823d 084c eebd 56fe 9aba
000000f0: 1618 8ebb ca33 0fbe 30f7 cb3d 1a89 243d
00000100: 01a6 b4bd 1e33 ff3d 8d69 59bd 8f5f d63d
00000110: e766 50bb c634 8dbd e9e9 c33d c91f a33c
00000120: 8681 133e 5818 3cbc 0ed2 8f3d 1f0e c13b
00000130: bd11 17bd f95b d63d 7830 ff3d 3b63 25bd
00000140: 816a 003d ca7a 54bd 90fc 4b3d ed08 49bd
00000150: 38af d63d 6d8f babd dfa7 f3bc 8c17 833d
00000160: e12a 82bd 1dcc 15bd 7e48 80bd f341 2ebd
00000170: eb31 cb3c 6a82 aabc a3ef d9bd a740 4a3e
00000180: 8739 c43d 7a29 80bd 1dd7 323d a22f 843d
00000190: dcbe 0fbd 421a d2bc db71 573d 92f9 cebd
000001a0: 363b d53c 0ac7 083e e36d 51be 0625 0b3e
000001b0: e505 273d b9fc 923d 0847 993d 896f d0b9
000001c0: 73c8 883b 7879 21bd 793b 273c 9922 d83d
000001d0: d8c0 4a3c 4484 203c 59f9 29be 5222 863c
000001e0: e26a 4abd cd03 393d 4d4d b8bc 92eb 02bd
000001f0: eb2c 99bd 0351 0a3e 5095 ccbd 8e01 4e3d
00000200: dc25 25bd 57cf 353d b0f5 043e 8c6e 013e
00000210: 3b5b 873e 46c2 df3d 77a0 463d 7236 81bc
00000220: 199e 213d a2db 1abe 904b e13d 7ab0 e9bd
00000230: 5115 283d fd9c 7dbd 0605 dfbd dd8e b2bc
00000240: 27a1 8dbd d43e 03bd a126 b9bc 09e6 9c3c
00000250: 5902 98bd 8821 ebbc 6013 393e acb8 a1bd
00000260: 7ffd b5bd 8789 cbbd 558e b63c 8f4a 33bd
00000270: 0655 d33b b42e f1bc 4cb6 0dbe f7bb 9cbd
00000280: b7fa 0dbe d857 5fbc 8395 bd3d bc22 acbd
00000290: 4cc2 a8bd 578d 383c e10d 1bbe b009 4a3d
000002a0: 936c 8a3d 015c a0bd ad1b 91bd 4877 edbd
000002b0: 6748 a93d b0c4 28be 0a33 a0bc cf45 1bbe
000002c0: 3788 3d3c 142b 893c 9109 083d e8f7 63bd
000002d0: 67f4 3b3d b18b bc3d b04f 9c3c 213b 95bc
000002e0: a96e c43c 04c1 113d da59 51bd 8124 083d
000002f0: 6709 7fbd e7f4 19be b374 c83d 566b 17bc
00000300: 1024 283e c18b 8b3d c4f2 883c dbc2 043c
00000310: 3466 55bd e0cb 1e3e 5445 a3bd e877 9cbb
00000320: 92d0 30bd c78e 49bd 538c 81be 4991 0e3d
00000330: 052d a23d 5b9f 86bc 4d4c 2d3d 70f3 b83c
00000340: 249c adbb a8ea 253d 68bf 153d 4945 b4bc
00000350: c0aa d1bd b39c ff3c 449a 26be ffa2 953d
00000360: aabe 823d 61b5 3f3d aebc 963c f33e 5b3e
00000370: 821a 123d 2fa3 0e3d 5615 ee3d c2d9 0e3e
00000380: 7beb 07bd e10a 913d 0cb9 03be 8aa8 9f3d
00000390: a234 25bc d7f4 3e3b 3799 8a3b 7ce2 0c3e
000003a0: 2f63 013c cac3 12bd 0bc5 b4bd 2dc7 413d
000003b0: c3e3 05bd 3b58 29bd 8b23 9d3d 8232 09be
000003c0: 62f2 61bd 2e64 bfbd 667d d93d c4c5 5ebd
000003d0: bdcd d13d e26f c53b 1412 a43c 1f91 f33b
000003e0: 2b79 803c 725c 963a 87f8 d3bc e196 28be
000003f0: 7738 4d3d fe1f 35be b4e0 ef3d e1ac 153c
