MLAgentsProject/results/MoveToGoal5/MoveToGoal/MoveToGoal-2252.pt (torch, 149519 bytes, 12 tensors)

network_body._body_endoder.seq_layers.0.weight f4 [128, 6]
00000000: 7e0e b4be aec4 f7be a3dd 58be b80d 87be
00000010: eea3 1abf 201e 29bf c5a5 78be 3c46 3b3f
00000020: a28a fdbe 7862 a23e 33c5 9cbe ee9a df3c
00000030: fdeb ddbe 2945 52bf a72a 22bf 62e9 dd3e
00000040: 6028 273f a88f 48be 7e66 7ebd 20c5 2d3f
00000050: 0322 033f 4ca1 083e 7399 bdbd 4acb 15bf
00000060: 1351 6d3e e9de 20bf 64ba 383f 4bb3 16bf
00000070: 8876 10be cb11 42bf 386a 46be f270 d23e
00000080: eece a5be 7cd3 09bf 93b1 883e bede 043f
00000090: a0e0 2abe 53e6 0fbf 59a8 8f3e 8bee 103e
000000a0: 1927 cc3d 545c 863e 15b9 743e 0234 97be
000000b0: 6e67 713e 9f08 e33e a383 53bf 31d5 c3bd
000000c0: d0af 813e 4325 f3be b70e 1c3f 02ed ffbd
000000d0: 8079 763e 7713 55bd 9c06 fdbd e3ae a3be
000000e0: 98a1 85bf 603e b8be 8f08 d2be a2ec 05bd
000000f0: 3f89 e3be 1735 eb3d d152 153f 48ec fbbe
00000100: 2429 f7be 59fd 623e 7b8a 183e 4e85 2cbf
00000110: a978 413e 11c4 8eba e117 fa3e 39ce 46be
00000120: a44d 53be 3c35 0fbf 8af1 adbe 3aba afbe
00000130: c82e 48be 5fd5 28bf 1257 6e3e 52ac 7b3e
00000140: 5f13 96be 2fec 59bf 2468 12bf a18e b53e
00000150: 54d6 813d 31a0 b8bd 042f dc3d acdd cdbe
00000160: db79 8abd 2d0a 5bbe 4c6b 8f3e 2ea7 cbbd
00000170: 77a9 a7bd 0270 95be b90c 6c3f c7b0 e73e
00000180: c0cb 133e 7c78 ce3e 5435 c3bd fd70 75be
00000190: f705 493e aae6 60bd 3030 133f 82c2 a03c
000001a0: 1d5f 0abe 4702 78bf d40b 1a3d 9b70 33be
000001b0: 22cc 293f bdc5 bcbe da1e 773e a52b eb3e
000001c0: 417d dcbe 8a5a a0bd 86c4 b8bd 0d7b 2abf
000001d0: 672e dc3e a748 dfbd 11b6 513f 8f82 bc3e
000001e0: dec5 8ebe 66e1 e63e 561f f53e de5d c43d
000001f0: 2f9e b3be f011 c0be bd6e 8bbf cf0d 37bf
00000200: 748d 123f ce8a 5f3f 75d0 b33e d021 d33e
00000210: 8119 803e cc71 d93d d90b 6f3e 2756 1d3e
00000220: c1c9 46bf 57bf 5ebe a02d e53b 8169 19be
00000230: 368a 4fbf 8123 79be 8aae 0ebe 4c38 60bf
00000240: d84f 4abf c0f8 cc3e d222 883e 8bdf 023e
00000250: 1461 2dbe 5042 46be d1b3 c63e ed5f f13e
00000260: aa54 f83e 9e11 8f3e 2cb1 0ebd 5239 3f3e
00000270: d1af 54bd 5049 3f3e 32e0 0d3d 7d24 8d3e
00000280: f781 53bd 96cf f73e ce3e 373c 1bbf 3abf
00000290: 4fe0 8e3d c1cb 213d 4351 713d c0d5 64be
000002a0: bdb6 29bf f124 e1bd d78c 083d bded 99be
000002b0: d26f 37bf 42bd 223e 7a4a a23e 93b4 893b
000002c0: 5bdb 4b3f b6ab bfbe 89a9 95bd c58c 6f3c
000002d0: da76 2d3e 1a65 36bf 735d 25bf 9472 da3b
000002e0: 1558 af3e 2a09 193f 61ab dc3c 921e eebe
000002f0: 826c 50be a932 a43e 4b08 23be ce71 eb3e
00000300: 3458 fa3e 35ba 4b3e 7890 fb3c 9474 973e
00000310: 5fe2 51bf fcff 8b3b f8e8 f23e 0514 f63d
00000320: 5416 b3be 0333 963e 22a6 1dbf 906d 483e
00000330: d763 98be 1dab 363e 65b5 60bd 86d8 d4bd
00000340: b25a 56bf 22a5 57bf f08c 3b3f cdff 153f
00000350: 1499 06bf 6995 2a3b 746d a0be 2b12 9bbe
00000360: bda6 9b3e 0334 c03d b48e 063d 49d2 91be
00000370: 1481 1f3e 7b70 18bf bbb6 6abe 11f3 cfbe
00000380: ad4d 103e d351 debe 7167 bc3c 5553 903e
00000390: a58c 92be 13fa d33d 6d2e c8be 3741 26be
000003a0: e9f1 0ebd f0e0 663e 5c5d 463f 32bc 21be
000003b0: b9b6 0c3b df79 083f 25c0 f2bd b77e 503f
000003c0: ac33 843e 4cf9 91be f7d4 523f daef 5bbe
000003d0: a26d 85be 4c86 1b3e 1b20 173f b9a7 313e
000003e0: eaf7 b7be f057 a8be 15b1 853e 8190 b1be
000003f0: 6d56 24bf 5dbd 21bf 6751 09bd 8a04 b03b
-0.35167307 -0.48392242 -0.21178298 -0.26377654 -0.60406387 -0.6606159 -0.24281986 0.73154044
-0.4951983 0.3171575 -0.306192 0.027295556 -0.43344107 -0.8213678 -0.6334633 0.4334212
0.6529598 -0.1958605 -0.062109463 0.67878914 0.5122377 0.1334278 -0.09257784 -0.5851332
0.23175459 -0.62840134 0.7215941 -0.5886733 -0.14107716 -0.758084 -0.19376457 0.41101795
-0.32384437 -0.53838325 0.26697978 0.5190238 -0.1668725 -0.5621082 0.28058127 0.14153497
0.09968395 0.26242316 0.23898728 -0.29531866 0.23574612 0.44342515 -0.82622737 -0.095621474
0.25329447 -0.47489366 0.60959953 -0.124963775 0.24069786 -0.052020516 -0.12354776 -0.31969365
-1.043994 -0.35985088 -0.41022155 -0.032696374 -0.44440648 0.114847355 0.5832949 -0.49203706
-0.48273575 0.22166957 0.14896576 -0.67390907 0.18893684 -0.0010892173 0.48846343 -0.19414605
-0.20635086 -0.55940604 -0.33973342 -0.34321767 -0.19549096 -0.6595058 0.23275402 0.24577454
-0.29311654 -0.8512601 -0.57190156 0.3546038 0.06339708 -0.09014929 0.10751155 -0.40208185
-0.06761523 -0.213906 0.2801155 -0.09943996 -0.0818662 -0.29187018 0.92206913 0.45252058
0.14433193 0.40326297 -0.09531656 -0.23968883 0.19631182 -0.05490748 0.57495403 0.019623999
-0.13512845 -0.96878475 0.037608936 -0.17523424 0.66327107 -0.36869612 0.24132863 0.45931736
-0.4306431 -0.07829769 -0.09021859 -0.6659401 0.43004152 -0.10902529 0.81918436 0.36818358
-0.27885336 0.4509384 0.4787547 0.09588216 -0.35081622 -0.37513685 -1.089317 -0.71505445
0.5724709 0.87321174 0.35119978 0.41236734 0.25019458 0.10617408 0.23344363 0.15364896
-0.776516 -0.21752678 0.0069939643 -0.14981653 -0.8107027 -0.2432995 -0.13933769 -0.875859
-0.7902808 0.4003353 0.26589066 0.12780587 -0.16931564 -0.19361234 0.38809064 0.47143498
0.48502094 0.27943128 -0.034836933 0.1867421 -0.051925484 0.1868031 0.034637637 0.275669
-0.051637616 0.48400563 0.011184407 -0.72947854 0.06976377 0.039500955 0.058915388 -0.22347164
-0.6629446 -0.10993374 0.03333744 -0.30064192 -0.71655 0.15892509 0.31697446 0.0042024343
0.79631585 -0.37435693 -0.07307727 0.014620964 0.1693987 -0.7124802 -0.6459572 0.006666491
0.3424689 0.5977961 0.026937189 -0.46507698 -0.20353892 0.320699 -0.15921132 0.45985264
0.4889542 0.19895251 0.030708537 0.2958113 -0.8198604 0.004272459 0.47443366 0.12015537
-0.34977973 0.29335794 -0.61581624 0.19573045 -0.29763672 0.17838712 -0.05486049 -0.10392861
-0.8373214 -0.8423635 0.7326193 0.58593446 -0.5257733 0.0026028997 -0.31333506 -0.302873
0.3040065 0.093849204 0.032850936 -0.28480747 0.15576583 -0.5954663 -0.22921269 -0.40615132
0.14092131 -0.43421802 0.022998543 0.28188577 -0.28622928 0.10350432 -0.3909792 -0.16235815
-0.034898672 0.22546744 0.77486205 -0.15794447 0.0021471216 0.5331096 -0.11853055 0.8144335
0.25820673 -0.2851051 0.8235621 -0.21478215 -0.26060206 0.15187949 0.59033364 0.17349137
-0.3593133 -0.3287959 0.26111665 -0.3468056 -0.64194375 -0.6317957 -0.033524897 0.005371635

network_body._body_endoder.seq_layers.0.bias f4 [128]
00000000: 0000 0000 0000 0000 0000 0000 0000 0000
00000010: 0000 0000 0000 0000 0000 0000 0000 0000
00000020: 0000 0000 0000 0000 0000 0000 0000 0000
00000030: 0000 0000 0000 0000 0000 0000 0000 0000
00000040: 0000 0000 0000 0000 0000 0000 0000 0000
00000050: 0000 0000 0000 0000 0000 0000 0000 0000
00000060: 0000 0000 0000 0000 0000 0000 0000 0000
00000070: 0000 0000 0000 0000 0000 0000 0000 0000
00000080: 0000 0000 0000 0000 0000 0000 0000 0000
00000090: 0000 0000 0000 0000 0000 0000 0000 0000
000000a0: 0000 0000 0000 0000 0000 0000 0000 0000
000000b0: 0000 0000 0000 0000 0000 0000 0000 0000
000000c0: 0000 0000 0000 0000 0000 0000 0000 0000
000000d0: 0000 0000 0000 0000 0000 0000 0000 0000
000000e0: 0000 0000 0000 0000 0000 0000 0000 0000
000000f0: 0000 0000 0000 0000 0000 0000 0000 0000
00000100: 0000 0000 0000 0000 0000 0000 0000 0000
00000110: 0000 0000 0000 0000 0000 0000 0000 0000
00000120: 0000 0000 0000 0000 0000 0000 0000 0000
00000130: 0000 0000 0000 0000 0000 0000 0000 0000
00000140: 0000 0000 0000 0000 0000 0000 0000 0000
00000150: 0000 0000 0000 0000 0000 0000 0000 0000
00000160: 0000 0000 0000 0000 0000 0000 0000 0000
00000170: 0000 0000 0000 0000 0000 0000 0000 0000
00000180: 0000 0000 0000 0000 0000 0000 0000 0000
00000190: 0000 0000 0000 0000 0000 0000 0000 0000
000001a0: 0000 0000 0000 0000 0000 0000 0000 0000
000001b0: 0000 0000 0000 0000 0000 0000 0000 0000
000001c0: 0000 0000 0000 0000 0000 0000 0000 0000
000001d0: 0000 0000 0000 0000 0000 0000 0000 0000
000001e0: 0000 0000 0000 0000 0000 0000 0000 0000
000001f0: 0000 0000 0000 0000 0000 0000 0000 0000
0.0 0.0 0.0 0.0 0.0 0.0 0.0 0.0
0.0 0.0 0.0 0.0 0.0 0.0 0.0 0.0
0.0 0.0 0.0 0.0 0.0 0.0 0.0 0.0
0.0 0.0 0.0 0.0 0.0 0.0 0.0 0.0
0.0 0.0 0.0 0.0 0.0 0.0 0.0 0.0
0.0 0.0 0.0 0.0 0.0 0.0 0.0 0.0
0.0 0.0 0.0 0.0 0.0 0.0 0.0 0.0
0.0 0.0 0.0 0.0 0.0 0.0 0.0 0.0
0.0 0.0 0.0 0.0 0.0 0.0 0.0 0.0
0.0 0.0 0.0 0.0 0.0 0.0 0.0 0.0
0.0 0.0 0.0 0.0 0.0 0.0 0.0 0.0
0.0 0.0 0.0 0.0 0.0 0.0 0.0 0.0
0.0 0.0 0.0 0.0 0.0 0.0 0.0 0.0
0.0 0.0 0.0 0.0 0.0 0.0 0.0 0.0
0.0 0.0 0.0 0.0 0.0 0.0 0.0 0.0
0.0 0.0 0.0 0.0 0.0 0.0 0.0 0.0

network_body._body_endoder.seq_layers.2.weight f4 [128, 128]
00000000: ce8b 87bc ee61 d33d 5c8e ebbc 4153 adbd
00000010: fad6 81bd 39dd a6bd 37a4 9f3d 3019 14be
00000020: 5eda de3d d15d acbb a74a 2abd 5302 1d3e
00000030: 8596 8a3d c883 5a3b bc2f c83d e774 28be
00000040: 840a c5bd 061d f7bd d7b2 1cbd 2276 cf3c
00000050: 6383 9bbd 5dac 05bb f0b6 09be 106c 8a3d
00000060: 7596 58be 2118 b53c 5b4e 23be 3373 17be
00000070: 61d3 a6bd f54e 3f3d 13f0 063d 70eb 4b3e
00000080: 5400 333c 42d9 4e3e 6a13 e43d 332d a63d
00000090: fa18 2d3d 9cb0 b4bb 6ee2 b4bc ed71 39bd
000000a0: ace6 cc3d 8a84 2c3d 454b f3bb d190 dbbd
000000b0: 3522 553c d6fe 213e 3cf4 ce3c 466a da3d
000000c0: 0685 e2bd 6079 9dbd 2cfc 0e3e 29f6 71bd
000000d0: 8ab4 e0bd b0b9 c93a e31c 213e 3901 9cbd
000000e0: 12d3 293e 3e52 10bd 96d0 d0bc 8158 c4bc
000000f0: dee0 a83d 7144 febd c2e9 d8bd c53e 843d
00000100: 132d a9bd d634 be3c ae79 d8bd f904 0fbe
00000110: 1521 563b 1596 4bbd befa 30bd cf3e b5bc
00000120: 0a19 a2bc bb2e debc 0a85 223e dd8c b6bd
00000130: 4ed7 9bbd 6c18 0ebd 6a88 14be 318b 653b
00000140: 14c1 cd3d 9d60 353d e2c0 023d 4b73 203e
00000150: 7ed9 33be 7ba9 50bc 4cf4 693d 3f5c fdbc
00000160: d137 a9bd 9b71 803e da82 023e b708 a9bc
00000170: ccce d03d fa4a 003c 158a 18bd 9786 0cbe
00000180: 6c92 4bbe 5850 5ebd df10 b83d 54f5 8ebc
00000190: 5815 7cbd a26e 53bd f492 41bd 3aa1 2abd
000001a0: 3f22 b9bd 3d77 1b3e 82c3 58bd 411a 90bd
000001b0: 6eda c53d 388a 3d3d 4c47 9a3d a13f 28bc
000001c0: 65f3 99bd 57ee ddbc 37f4 25bd a59c 90bc
000001d0: 7409 34be 044a 143d 6bbb 61bd e612 f63d
000001e0: e64c 883c ca48 bc3d 9253 893d 4998 efbd
000001f0: 4166 50bc 0aca e1ba ef8d afba 848b aebd
00000200: afd0 4b3d f1dd c8bd 32af eabd 193c 043e
00000210: 4439 1ebe 1aca 993d 8954 bfbd 95e1 313e
00000220: 798a adbc 6a4e eb3c 5207 063e 4733 d5bd
00000230: 750f 0bbe e40c c53d a80b 32bd 2b1e 623d
00000240: a3ba 0e3c 6e72 133e 7323 cd3c 3b02 ecbd
00000250: a8de df3d 2308 f1bd 24bd 4b3e 726d 71bd
00000260: 9a7f 283a fdca 5dbc 6f47 1dbe eb2a 893d
00000270: de54 94bd 8d3f 2dbc 0a60 35bd 8a87 b73d
00000280: 32d3 463e e8e1 0cbe 5415 5dbd 0728 54bc
00000290: 9f9c 1d3d bbbb 6cbc 92d0 77bd 27df 2a3e
000002a0: 345a dcbd 795f fe3d dda0 d2bd 9b1d 3fbb
000002b0: 0555 a2bd 9821 4dbc 5f40 41bd 9260 703c
000002c0: a2a6 9e3d 7eb3 57bd 06ee 723c 1922 063e
000002d0: 585e 8b3d a6b8 8a3d 223e bf3d d351 133e
000002e0: 1ca2 1c3e e62c fabd 621a 10bd 6ff2 bcbc
000002f0: 4f78 3bbd d63f b23d 1383 bd3d 7adb 413d
00000300: 63f7 e2bc a1fb 87bd f2a7 e63b 89e5 7d3d
00000310: 54dc fbbc 7aad 0b3d f8a7 5d3c f4c5 6abc
00000320: df6b 10bc 9252 dcbc 21ba 13be 1abb da3c
00000330: 83a3 933d f3d9 08bd 4472 aebc baa2 8c3c
00000340: d03b 7a3d ac5d a63d fc17 2fbe 9019 253d
00000350: 8e9c d3bd af08 e4bd 9fd2 c4bd 3cdd ad3c
00000360: 8897 773d 4d62 193e de29 443e 69a9 8a3d
00000370: c786 9c3d 8974 b33d 6cba b6bd 6e03 42be
00000380: 30f9 db3b e955 eebd 789f 88bd f1dd ab3c
00000390: 169c 453c df55 77bd 47c4 6ebd 8182 dcbd
000003a0: c065 d7bc 93c5 b43d 0b0d a7bc 5abd 9c3c
000003b0: 1fb3 51bc b361 ac3d 1e7e 02bd bcf0 d93c
000003c0: 4fc3 69bc 5517 27bc d51a 8c3d 46cd 143e
000003d0: 6657 25bc 528d 483d 3b3e a7bd 91cd b23d
000003e0: 0d9c a13c 3e51 863d 647a 213c 50ab 003d
000003f0: dd0f 523c f97d d6bd 08fb 05bc 5a5c 6a3e
-0.016546156 0.10321413 -0.028754406 -0.08463145 -0.06339832 -0.081476636 0.07794993 -0.14462733
0.10881494 -0.005260207 -0.0415751 0.15332918 0.067669906 0.0033342708 0.097747296 -0.16450845
-0.09621146 -0.12066083 -0.038256492 0.025324885 -0.075934194 -0.0020396926 -0.13448691 0.067588925
-0.21151145 0.022106232 -0.15947859 -0.14790039 -0.08145786 0.04670616 0.032943796 0.19914031
0.010925371 0.20200065 0.111365154 0.0811409 0.042260148 -0.0055142175 -0.022080626 -0.045274664
0.10004935 0.042118587 -0.0074247443 -0.10720981 0.013008644 0.15819868 0.025262944 0.10664801
-0.110605285 -0.07689166 0.13963383 -0.059072647 -0.10971935 0.0015390422 0.15733676 -0.07617421
0.16584423 -0.035234682 -0.025490087 -0.023967983 0.08246015 -0.12415398 -0.10591461 0.06457285
-0.0826055 0.023218554 -0.105700836 -0.1396674 0.0032673527 -0.049703676 -0.043207876 -0.022124676
-0.01978733 -0.027121892 0.15871063 -0.08913586 -0.076094255 -0.03469126 -0.14505163 0.0035025591
0.10046592 0.04428159 0.03192223 0.15668981 -0.17563435 -0.01273572 0.057117745 -0.030927775
-0.08262599 0.25086674 0.12745228 -0.020634038 0.101956934 0.007830376 -0.03724106 -0.13723217
-0.19880074 -0.05427584 0.08987593 -0.017450966 -0.061543792 -0.05161918 -0.047259286 -0.041657664
-0.09039735 0.15182205 -0.052920826 -0.070362575 0.09660803 0.046274394 0.0753313 -0.010269077
-0.07517127 -0.027091188 -0.040516105 -0.017652819 -0.17581731 0.0362034 -0.055110376 0.12015323
0.01663823 0.09193571 0.06705393 -0.11698968 -0.012719692 -0.001722635 -0.001339374 -0.08522704
0.049759563 -0.09807957 -0.11459197 0.1291355 -0.15451533 0.07509251 -0.09342296 0.17371209
-0.021184193 0.028723914 0.1308873 -0.10410171 -0.13580115 0.09621599 -0.043468148 0.05520455
0.00871149 0.1439912 0.025041318 -0.11523863 0.1093114 -0.1176913 0.1989637 -0.058942266
0.00064277055 -0.013537166 -0.15359281 0.06697639 -0.0724275 -0.010574234 -0.044281043 0.08961399
0.19416502 -0.13758051 -0.05397542 -0.012948996 0.038479444 -0.014449055 -0.060501643 0.16686688
-0.107593924 0.12420554 -0.102845885 -0.0029161933 -0.079263724 -0.012520216 -0.04718053 0.014671462
0.077466264 -0.05266141 0.014827257 0.13098945 0.06805104 0.067735 0.09338023 0.14386682
0.15296215 -0.12215595 -0.03518141 -0.02306482 -0.045769032 0.08703582 0.09253516 0.04732845
-0.027705854 -0.06639791 0.0070390636 0.06198648 -0.03074471 0.034100987 0.013528816 -0.014329422
-0.008814781 -0.026894841 -0.14426471 0.026700545 0.07208922 -0.033410978 -0.02129472 0.017167438
0.061092198 0.08123335 -0.17098993 0.04030758 -0.10332595 -0.11134469 -0.09610485 0.021223657
0.060447246 0.14978905 0.19156596 0.06770594 0.07642894 0.08762462 -0.08922276 -0.18946621
0.006713055 -0.1163748 -0.06671041 0.020979853 0.01206114 -0.060384627 -0.058292653 -0.10767079
-0.026293635 0.08826747 -0.020391962 0.019133259 -0.012799053 0.08417072 -0.031858556 0.026604049
-0.014267757 -0.010198434 0.06841055 0.1453143 -0.010091638 0.0489629 -0.081661664 0.08730615
0.019727731 0.065584645 0.00985584 0.031413376 0.012821165 -0.10473246 -0.008177526 0.22886792

network_body._body_endoder.seq_layers.2.bias f4 [128]
00000000: 0000 0000 0000 0000 0000 0000 0000 0000
00000010: 0000 0000 0000 0000 0000 0000 0000 0000
00000020: 0000 0000 0000 0000 0000 0000 0000 0000
00000030: 0000 0000 0000 0000 0000 0000 0000 0000
00000040: 0000 0000 0000 0000 0000 0000 0000 0000
00000050: 0000 0000 0000 0000 0000 0000 0000 0000
00000060: 0000 0000 0000 0000 0000 0000 0000 0000
00000070: 0000 0000 0000 0000 0000 0000 0000 0000
00000080: 0000 0000 0000 0000 0000 0000 0000 0000
00000090: 0000 0000 0000 0000 0000 0000 0000 0000
000000a0: 0000 0000 0000 0000 0000 0000 0000 0000
000000b0: 0000 0000 0000 0000 0000 0000 0000 0000
000000c0: 0000 0000 0000 0000 0000 0000 0000 0000
000000d0: 0000 0000 0000 0000 0000 0000 0000 0000
000000e0: 0000 0000 0000 0000 0000 0000 0000 0000
000000f0: 0000 0000 0000 0000 0000 0000 0000 0000
00000100: 0000 0000 0000 0000 0000 0000 0000 0000
00000110: 0000 0000 0000 0000 0000 0000 0000 0000
00000120: 0000 0000 0000 0000 0000 0000 0000 0000
00000130: 0000 0000 0000 0000 0000 0000 0000 0000
00000140: 0000 0000 0000 0000 0000 0000 0000 0000
00000150: 0000 0000 0000 0000 0000 0000 0000 0000
00000160: 0000 0000 0000 0000 0000 0000 0000 0000
00000170: 0000 0000 0000 0000 0000 0000 0000 0000
00000180: 0000 0000 0000 0000 0000 0000 0000 0000
00000190: 0000 0000 0000 0000 0000 0000 0000 0000
000001a0: 0000 0000 0000 0000 0000 0000 0000 0000
000001b0: 0000 0000 0000 0000 0000 0000 0000 0000
000001c0: 0000 0000 0000 0000 0000 0000 0000 0000
000001d0: 0000 0000 0000 0000 0000 0000 0000 0000
000001e0: 0000 0000 0000 0000 0000 0000 0000 0000
000001f0: 0000 0000 0000 0000 0000 0000 0000 0000
0.0 0.0 0.0 0.0 0.0 0.0 0.0 0.0
0.0 0.0 0.0 0.0 0.0 0.0 0.0 0.0
0.0 0.0 0.0 0.0 0.0 0.0 0.0 0.0
0.0 0.0 0.0 0.0 0.0 0.0 0.0 0.0
0.0 0.0 0.0 0.0 0.0 0.0 0.0 0.0
0.0 0.0 0.0 0.0 0.0 0.0 0.0 0.0
0.0 0.0 0.0 0.0 0.0 0.0 0.0 0.0
0.0 0.0 0.0 0.0 0.0 0.0 0.0 0.0
0.0 0.0 0.0 0.0 0.0 0.0 0.0 0.0
0.0 0.0 0.0 0.0 0.0 0.0 0.0 0.0
0.0 0.0 0.0 0.0 0.0 0.0 0.0 0.0
0.0 0.0 0.0 0.0 0.0 0.0 0.0 0.0
0.0 0.0 0.0 0.0 0.0 0.0 0.0 0.0
0.0 0.0 0.0 0.0 0.0 0.0 0.0 0.0
0.0 0.0 0.0 0.0 0.0 0.0 0.0 0.0
0.0 0.0 0.0 0.0 0.0 0.0 0.0 0.0

action_model._continuous_distribution.log_sigma f4 [1, 2]
00000000: 0000 0000 0000 0000
0.0 0.0

action_model._continuous_distribution.mu.weight f4 [2, 128]
00000000: 587a dabc b222 663c 9280 27bd 0fc4 a53a
00000010: feaf 323b b05c 123c 42bd cd3b cf71 a3bc
00000020: abd9 d4bc afb6 42bc 7323 223c 270f bc3c
00000030: d1fc b73b fdc3 95bc 306b 963c 21e9 4a3c
00000040: aef4 37bc 7a09 c93a 2b4c 84bc 5652 88bc
00000050: f5c7 ec3c 9fa9 39bc e105 a9bc 57de 61bc
00000060: 927b 0ebc afa5 0a3d 3014 3f3c 8007 dc3b
00000070: 107c f8bb b32f 4b3c 75f0 7039 1719 54bc
00000080: 0a7a 74bc 8530 d23b c365 8abc c05f 8f3c
00000090: 0f01 753c aeb5 1b3d 97b2 7c3c 42da d4bc
000000a0: 6332 d1bc 0368 d6bc 7a8b e4bc ff1d c4bb
000000b0: 2141 92bc 73fb 1c3c 113c 173d 9a27 cebb
000000c0: a26c e93c 6da8 d3bc eb29 1c3b 6f12 7c3c
000000d0: 4a83 dd3b d7b6 ebbc a520 333c 8ff2 bf3b
000000e0: 2dae 38bc f609 1cbd 23be 3abc 6887 693c
000000f0: 590e 383c 28e2 62bc abf1 01bc e517 5abc
00000100: 2b06 4b3c cd08 b8ba 1ccb beba 48e0 073c
00000110: 4731 853c 1268 9e3c bd55 cabc d1d1 95bc
00000120: 8217 3f3b 9dcc 06bb 55b8 043c a1e5 833c
00000130: 4dde 52bc 6f40 1e3b 92ba 6d3b 7373 c63b
00000140: 1f1e a5bb 12ef 673c eb83 853c 2332 83bb
00000150: 8560 263d f551 7c3c 07b3 d4bb e004 503c
00000160: 5982 233b e2d1 febb d02b 9b3b 7773 2abd
00000170: 3318 313c 4232 6d3b f2c1 bdbb 2b35 c13c
00000180: 822a f2bc daa7 9f3b 8a8b 56bc 5238 da3b
00000190: 0aff dabc 65b3 7dbc 9385 edb9 93b6 933b
000001a0: 830e 9abc a92e 80bc ffee e23a 7de2 41bb
000001b0: b2b7 35bc 7dec 98bc bda4 103b 2b14 6ebb
000001c0: 96ca 30bc 6673 23bc 8264 313c b06c ae3c
000001d0: 1bb8 87bb b315 313d 6baf a93c d89b 6a3b
000001e0: c32b 3abc fd8a d3bb e0cc cb3b 271f ca3b
000001f0: 6334 733c aec8 8f3c 1348 a2bc 70f5 613c
00000200: 23ce 963c 0874 e2ba 8d28 8dbc f52b 343c
00000210: 7f08 f93c 9592 923c 9f32 13bc 86d5 2eba
00000220: d335 673b fe51 18bd eb4e 793b d29d 073c
00000230: 2fc2 583b 339d 1c3c 57bb 69bc 51da bfbb
00000240: 2056 8f3c 103e 623b 9e7b 94bb 7b96 ddbc
00000250: c783 403c 5266 543c 04de a7bb 7dc5 013d
00000260: 403b 733d 37fc 6d3b 0ec7 a2bb c86f 0b3d
00000270: 5f09 40bd d378 893b 80e4 d53b 60c7 acbc
00000280: 2ca6 183c c3ed 5f3c 2b44 953c f6e1 4bbc
00000290: 0c1c 17b8 bd15 d4b9 8ba4 2f3c 85c2 21bd
000002a0: 72b0 00bc eb5b 7abc 4f83 8c3c 3381 793b
000002b0: 123f 4abc a537 9dbb 7f69 2c3c 8beb b8bc
000002c0: 8ec4 913c a300 09bc 9bc2 6eba 2f0c a0bc
000002d0: 3a05 d23c 4574 6f3c a72f 123c 28f0 0db9
000002e0: 57ba c8bc 791b 93bc f98e a1bb 083c 7dba
000002f0: 5c94 0d3c 5742 7eba 11fd 4abc d3fb a23b
00000300: 0142 9539 ffd1 eb3b a21a 0e3c dad6 b03c
00000310: c74c 243c fbe8 e83a 4bdd 283c 2df4 693c
00000320: 80bf 963c 2b06 063d c6a6 c43b 0fdd 3d3c
00000330: 4374 4cbb bcda b43c b791 bbbc ebce 69bc
00000340: 85ba c43b ccf9 c1b9 8add 99bb d20b 42bc
00000350: 29c1 bf3b 996b 28bc abdd 873c 58bd 5a3c
00000360: ec29 013d 8c26 b73c ed3b a9bc cc18 3eba
00000370: 5f23 ec3b 2928 94bc 7690 893b d19a 1a3d
00000380: 15ad 883c 8b83 b5bc 2d8d 9f3b a8c1 deba
00000390: 7345 acbc 6365 9fba 59db 813b caca 70bc
000003a0: d7d2 563c 086b 413d cfd3 ebbb ff96 8f3c
000003b0: add9 08bc a434 9d3c 2e5b 1abc 63db 3e3b
000003c0: 0152 02bd 0beb 14bc 123e 11bd 8ea1 2dbd
000003d0: 6803 0cbd 3976 0ebc 388d 3ebc c46c 893c
000003e0: 7810 6abb c352 efbb 1150 02bd fbf4 51bc
000003f0: 7496 b53b e0d0 a83c 5f48 0a3d 3245 04bc
-0.026669666 0.014046358 -0.0408941 0.0012646931 0.0027265544 0.008933231 0.006278665 -0.01995173
-0.025982698 -0.0118843755 0.009896147 0.022956444 0.005614855 -0.018281931 0.018361658 0.012384684
-0.01122777 0.0015337907 -0.016149601 -0.016640823 0.02890394 -0.011331945 -0.020632686 -0.01378592
-0.008696454 0.033849414 0.011662528 0.0067147613 -0.007583149 0.012401509 0.00022977761 -0.012945435
-0.0149216745 0.0064144754 -0.016894227 0.017501712 0.014953866 0.03801506 0.0154234385 -0.02598298
-0.025536722 -0.026172644 -0.027898539 -0.005985021 -0.017853322 0.009581435 0.03692252 -0.006291342
0.028494183 -0.025837148 0.0023828696 0.015385254 0.0067600356 -0.028773708 0.010933076 0.0058577727
-0.0112719955 -0.038095437 -0.011397871 0.014253475 0.0112338895 -0.013847865 -0.007931153 -0.013311361
0.012391607 -0.0014040709 -0.0014556381 0.008293219 0.016258849 0.019336734 -0.024699086 -0.018288525
0.00291583 -0.0020568736 0.008100589 0.016100707 -0.012870383 0.0024147292 0.0036274535 0.006056243
-0.005038991 0.01415612 0.016298255 -0.0040037795 0.040619392 0.015400399 -0.0064910683 0.012696475
0.002494952 -0.007776485 0.0047354475 -0.041614022 0.010808992 0.0036193286 -0.0057909423 0.023584923
-0.029561285 0.0048723044 -0.013094792 0.006659546 -0.02673294 -0.0154846655 -0.00045303683 0.0045078485
-0.018805748 -0.01564725 0.0017313658 -0.002958446 -0.01109116 -0.018667454 0.0022070848 -0.003632794
-0.010790488 -0.009976244 0.010827186 0.02129206 -0.00414182 0.043233585 0.020713529 0.0035798457
-0.011362973 -0.0064557777 0.0062194914 0.0061682644 0.014844033 0.017551746 -0.019809758 0.013791427
0.01840884 -0.0017277012 -0.01723125 0.010996808 0.030399559 0.017892161 -0.008984237 -0.0006669391
0.0035279884 -0.03718757 0.0038041424 0.008277373 0.0033074727 0.009558964 -0.014265857 -0.0058548828
0.017497122 0.0034521855 -0.004531338 -0.027049294 0.011750168 0.012963848 -0.005122902 0.03168248
0.059382677 0.0036313662 -0.004967577 0.03404215 -0.046883937 0.0041953116 0.0065274835 -0.021091163
0.009316962 0.013667527 0.018220982 -0.01244401 -3.6027326e-05 -0.00040451987 0.010720382 -0.03949215
-0.007854568 -0.015280704 0.017152457 0.0038071394 -0.012344139 -0.004797893 0.010523199 -0.022573253
0.01779392 -0.008361968 -0.0009107978 -0.01953706 0.025637258 0.014615123 0.008922494 -0.00013536273
-0.024502916 -0.017957436 -0.0049303737 -0.00096601294 0.008641329 -0.00096992165 -0.012389437 0.0049738674
0.0002846867 0.0071966643 0.008673342 0.021586824 0.010028071 0.0017769629 0.010306667 0.014279407
0.018401861 0.032720726 0.0060013263 0.011588349 -0.0031197227 0.022076957 -0.02289663 -0.0142705245
0.00600368 -0.00036997942 -0.004695599 -0.0118436385 0.005851884 -0.0102795595 0.016585192 0.013350807
0.03153412 0.022357248 -0.020658458 -0.000725162 0.007206365 -0.018085556 0.0041981293 0.0377453
0.016684094 -0.022157451 0.0048691244 -0.001699497 -0.02102921 -0.0012160953 0.003962916 -0.014696786
0.013111792 0.047221214 -0.0071968804 0.017528055 -0.008352679 0.01919014 -0.009421153 0.0029122464
-0.031816486 -0.009089242 -0.035459585 -0.0423904 -0.034182936 -0.008695179 -0.011630349 0.016775496
-0.0035715383 -0.007303567 -0.03181464 -0.012814756 0.005541617 0.020607412 0.033760425 -0.008073138

action_model._continuous_distribution.mu.bias f4 [2]
00000000: 0000 0000 0000 0000
0.0 0.0

network_body._body_endoder.seq_layers.0.weight f4 [128, 6]
00000000: 7d1c 82bc 2940 9c3d 8a4a 8cbe 84a7 cc3c
00000010: efb0 48bf 2bec 1d3f c1d1 1a3f 80ff 863e
00000020: eaec 973e d258 373e 558c 94bc 4501 00be
00000030: 7df0 253d 9a8a 993e 5830 07bf fa95 ea3e
00000040: adf3 ba3e 809c 943e 2987 013d aa75 4f3e
00000050: a3a9 9abe 79d6 883e de4a 163d f246 353e
00000060: 9ef8 a8be f88c b43e d881 b93d 779c 613f
00000070: 2676 de3e 20df f03d 0c67 1fbf 1bf4 8abe
00000080: 828b 333e 951e d8be 5a75 fb3e 07fc febd
00000090: 49a2 b93e b87e c7be 56fa 973f 70b4 d93d
000000a0: b9c6 8a3e 31b1 97be 0671 203f 8da8 5fbf
000000b0: fad3 dd3e 0214 02bf 8d29 143f dd31 eebe
000000c0: be10 703e 06ee 2f3f fa02 49bf 941d ed3e
000000d0: c7cf 8a3f 52d9 c93e eba7 d0bd 1473 96bd
000000e0: 9104 7b3e 6005 f13e 0235 66bf dd41 81bf
000000f0: 4f3a 2c3f 6e20 953d 62b1 1abf 20d7 47be
00000100: 0b83 28be 66b3 dcbe 7781 88be db50 f8bd
00000110: 8fa0 20bd 3c8f bebd f128 313d d3a8 b8be
00000120: 6a3e 4fbe 8ac6 2a3f 1a8e 01be a8f9 4ebb
00000130: 5d34 943e 955f 7abe 65fd 2ebc b42f 8f3d
00000140: 554e 33be 6af8 48be a347 993c 3ceb 453e
00000150: 7eec 0a3e 2f3b ef3e fc08 a6be d71d 5ebf
00000160: bc25 ad3e 4b33 863e f5ba b1ba f63d 913e
00000170: 88be 04bf 8671 5e3d 20bf 923e bedd 02bd
00000180: 674d ad3e f209 9f3e 47e8 d8bd e43b 7d3e
00000190: 8741 b43d ace1 053f 7a23 d93d 9da3 093e
000001a0: f937 a13e 401e f33d 940c 523f 5bc5 11be
000001b0: 4987 a53d 0306 10bf ffe3 9cbe d9a4 2a3e
000001c0: 3cfd fb3e 4408 e43e b2b8 22bd 04f9 26bf
000001d0: affe 803e cec7 933e d621 ad3e 7003 23be
000001e0: 4eec 9f3e 7af0 343f 527c 4d3e 5eb4 ecbe
000001f0: 6f6b 0b3e 0403 113f 2390 69be 0c9f f63e
00000200: 3c24 083f 97e1 f8be d06f 65be f64e 973d
00000210: bfa4 ddbe 356b 13bf 7d32 5e3e 08f4 fabd
00000220: 669f 8f3e 70aa 953e 80cc 563f 6294 b7be
00000230: d2bb 3a3f a05d d4bd 3a81 47be bff9 e8be
00000240: bb41 78be 6ccb 843e 9aad 17bf 6dbe 32bf
00000250: 538b ba3c ffe3 e53e e2a8 cd3d 3dae 603e
00000260: 2123 b5be ffe6 eebe 2f63 d0be cf6c 10bf
00000270: 3a2f 913e 12f8 dfbd a3b6 d5bc 20ee 1abf
00000280: 2ca8 9abe dec7 c3be 2e4f 2d3e 0f3a c23e
00000290: 6de2 78be fc10 f73d 9afc c1be 6c6f 0bbe
000002a0: 0130 e5bd b955 27bf d9ed 313e 90c3 233f
000002b0: 961c f6be 98b4 39bf 67ac cf3e f999 f03d
000002c0: 4d67 b0be ced7 233e 7c25 cd3e 448a 9cbf
000002d0: 62bf d1be 184a 8bbf 7c02 8dbc 90c5 a73e
000002e0: 7d76 993e 1e47 5e3e 2c3b cb3e 92c5 86be
000002f0: 70af 80bd 8d45 4b3d ee1a 75bd 0869 68bf
00000300: 825a 083e 0ab8 1cbf d44f 023f f116 10be
00000310: 5531 253f 7ae7 bf3e 78a3 f53e 9b8c 563e
00000320: 7042 bdbe 8113 ab3b 6fc4 de3e 0fa6 2a3f
00000330: 2ae6 7d3e ba06 9dbe 907a 33be e265 c1bc
00000340: 4120 1d3d 3cd4 02bf bf1f 82be a9b9 07bf
00000350: b567 98be b250 0e3f f6af 473f 1097 b23e
00000360: 36de 8b3e 2575 3dbf 16f8 43be 655b 803e
00000370: e946 0e3f 8385 8bbd c1b8 af3d e94c 58bd
00000380: f526 023f 72bd 103f 8a73 653e 4c58 b83e
00000390: d98d 19bf 3cf0 12be 559f aebc 5803 063f
000003a0: a1b3 3b3f b514 b53e 33df ad3c 6321 a93e
000003b0: 4479 ca3e d7b0 0c3f 5dbe d5bd cdad c33e
000003c0: 7c93 0c3f 83da 80be b9e1 f2be 1fbb a73d
000003d0: 6097 3cbe 69a9 16bf 5ad9 a73e a206 79bd
000003e0: 344d 48be d84a c8be e935 61bf dc1d b63d
000003f0: 8778 b0be 7251 64be c6c5 9dbe daa9 7a3e
-0.015882725 0.07629425 -0.2740062 0.024982221 -0.7839498 0.6168849 0.6047631 0.26366806
0.2967294 0.17904976 -0.018133322 -0.12500484 0.04051255 0.29988557 -0.5280814 0.45817548
0.36514035 0.2902565 0.03162304 0.20259729 -0.30207548 0.2672613 0.036692493 0.17702845
-0.3300218 0.352638 0.09057969 0.8812937 0.43449515 0.11761308 -0.6226661 -0.27139363
0.17533687 -0.42210832 0.4911297 -0.12450414 0.36256626 -0.38963866 1.1873271 0.10630119
0.27104738 -0.29627374 0.6267246 -0.87366563 0.43325788 -0.5081178 0.578759 -0.46522418
0.23443887 0.6872257 -0.78520167 0.4631163 1.0844659 0.39423615 -0.10188278 -0.07346168
0.2451346 0.47074413 -0.89924634 -1.0098225 0.6727647 0.07281576 -0.60426915 -0.19515657
-0.16456239 -0.4310562 -0.26661274 -0.12124797 -0.03921562 -0.093046635 0.043251935 -0.36066303
-0.20238653 0.66709197 -0.12651864 -0.0031581912 0.289462 -0.24450524 -0.010680531 0.069915205
-0.1751035 -0.19626012 0.018710917 0.19328016 0.13566777 0.4672484 -0.3242873 -0.8676428
0.33817852 0.26211008 -0.0013559746 0.28367585 -0.5185323 0.054307483 0.28661442 -0.03194975
0.33848116 0.31062275 -0.105911784 0.24729878 0.08801561 0.5229747 0.1060247 0.1344132
0.31488016 0.11871004 0.8205044 -0.14235441 0.08082444 -0.56259173 -0.30642697 0.16664447
0.4921664 0.44537556 -0.03972692 -0.6522372 0.25194308 0.28863376 0.33814877 -0.1591928
0.31234974 0.7067944 0.20066956 -0.4623136 0.13615201 0.56645226 -0.2280889 0.48168218
0.5318029 -0.4860961 -0.22405934 0.073881075 -0.43289754 -0.5758546 0.21698947 -0.122535765
0.280513 0.29231596 0.8390579 -0.35855395 0.7294284 -0.1036942 -0.1948289 -0.4550304
-0.24243824 0.2593645 -0.5924927 -0.69821817 0.022771513 0.4490051 0.100419775 0.21941467
-0.35378364 -0.4666061 -0.4070067 -0.5641603 0.28356344 -0.109359875 -0.026088065 -0.605196
-0.3020643 -0.38238424 0.16924736 0.3793492 -0.24305125 0.120637864 -0.37888032 -0.13616723
-0.11190797 -0.6536518 0.17375888 0.6397028 -0.48068684 -0.7254119 0.4056122 0.11748118
-0.34453812 0.16000292 0.4006766 -1.2229695 -0.40966326 -1.0881987 -0.017213099 0.32767916
0.29973212 0.21706817 0.39693582 -0.2632261 -0.06283462 0.049626876 -0.059840135 -0.90785265
0.13315776 -0.6121832 0.5090306 -0.14071251 0.645284 0.3748129 0.4797628 0.20952074
-0.3696475 0.005220831 0.43509242 0.66659635 0.24794832 -0.30669194 -0.17527223 -0.023608152
0.038360838 -0.51105094 -0.25414845 -0.5301767 -0.29766622 0.5559188 0.7800287 0.34880877
0.2731797 -0.74006873 -0.19137606 0.25069728 0.5557695 -0.06812575 0.08580161 -0.052807722
0.50840694 0.5653907 0.22407356 0.36004865 -0.5998207 -0.14349455 -0.02131621 0.5234885
0.73320967 0.3536736 0.021224594 0.33033285 0.39545643 0.54957336 -0.104366995 0.38218537
0.54912543 -0.2516671 -0.47437838 0.081899874 -0.1841712 -0.5885225 0.32783014 -0.06079734
-0.195607 -0.391196 -0.87972885 0.08892414 -0.34466955 -0.22296694 -0.30814952 0.24478856

network_body._body_endoder.seq_layers.0.bias f4 [128]
00000000: 0000 0000 0000 0000 0000 0000 0000 0000
00000010: 0000 0000 0000 0000 0000 0000 0000 0000
00000020: 0000 0000 0000 0000 0000 0000 0000 0000
00000030: 0000 0000 0000 0000 0000 0000 0000 0000
00000040: 0000 0000 0000 0000 0000 0000 0000 0000
00000050: 0000 0000 0000 0000 0000 0000 0000 0000
00000060: 0000 0000 0000 0000 0000 0000 0000 0000
00000070: 0000 0000 0000 0000 0000 0000 0000 0000
00000080: 0000 0000 0000 0000 0000 0000 0000 0000
00000090: 0000 0000 0000 0000 0000 0000 0000 0000
000000a0: 0000 0000 0000 0000 0000 0000 0000 0000
000000b0: 0000 0000 0000 0000 0000 0000 0000 0000
000000c0: 0000 0000 0000 0000 0000 0000 0000 0000
000000d0: 0000 0000 0000 0000 0000 0000 0000 0000
000000e0: 0000 0000 0000 0000 0000 0000 0000 0000
000000f0: 0000 0000 0000 0000 0000 0000 0000 0000
00000100: 0000 0000 0000 0000 0000 0000 0000 0000
00000110: 0000 0000 0000 0000 0000 0000 0000 0000
00000120: 0000 0000 0000 0000 0000 0000 0000 0000
00000130: 0000 0000 0000 0000 0000 0000 0000 0000
00000140: 0000 0000 0000 0000 0000 0000 0000 0000
00000150: 0000 0000 0000 0000 0000 0000 0000 0000
00000160: 0000 0000 0000 0000 0000 0000 0000 0000
00000170: 0000 0000 0000 0000 0000 0000 0000 0000
00000180: 0000 0000 0000 0000 0000 0000 0000 0000
00000190: 0000 0000 0000 0000 0000 0000 0000 0000
000001a0: 0000 0000 0000 0000 0000 0000 0000 0000
000001b0: 0000 0000 0000 0000 0000 0000 0000 0000
000001c0: 0000 0000 0000 0000 0000 0000 0000 0000
000001d0: 0000 0000 0000 0000 0000 0000 0000 0000
000001e0: 0000 0000 0000 0000 0000 0000 0000 0000
000001f0: 0000 0000 0000 0000 0000 0000 0000 0000
0.0 0.0 0.0 0.0 0.0 0.0 0.0 0.0
0.0 0.0 0.0 0.0 0.0 0.0 0.0 0.0
0.0 0.0 0.0 0.0 0.0 0.0 0.0 0.0
0.0 0.0 0.0 0.0 0.0 0.0 0.0 0.0
0.0 0.0 0.0 0.0 0.0 0.0 0.0 0.0
0.0 0.0 0.0 0.0 0.0 0.0 0.0 0.0
0.0 0.0 0.0 0.0 0.0 0.0 0.0 0.0
0.0 0.0 0.0 0.0 0.0 0.0 0.0 0.0
0.0 0.0 0.0 0.0 0.0 0.0 0.0 0.0
0.0 0.0 0.0 0.0 0.0 0.0 0.0 0.0
0.0 0.0 0.0 0.0 0.0 0.0 0.0 0.0
0.0 0.0 0.0 0.0 0.0 0.0 0.0 0.0
0.0 0.0 0.0 0.0 0.0 0.0 0.0 0.0
0.0 0.0 0.0 0.0 0.0 0.0 0.0 0.0
0.0 0.0 0.0 0.0 0.0 0.0 0.0 0.0
0.0 0.0 0.0 0.0 0.0 0.0 0.0 0.0

network_body._body_endoder.seq_layers.2.weight f4 [128, 128]
00000000: 1ca0 a0bd 6055 313e 931a 043d ef3f ac3d
00000010: ceef 82bd 4381 c53d a797 bd3d 13a2 503d
00000020: 8add 23bc 8961 b6bb 2665 4e3b 1343 003d
00000030: 47cc acbd c6d8 abbd 1e65 38bd 3d27 c8bb
00000040: 7e18 723c 30e9 03bd 4bf8 0b3b c431 a43d
00000050: 9db0 923d 8aa0 de3d 9847 e0bd 9ca5 bb3d
00000060: 9058 d6bd 71f2 b2bc 20fd 52bc b559 c4bc
00000070: d09e 3bbd 2e98 16be 5e36 f1bc 085c ce3c
00000080: db1e 673d 22c3 dabc 758b 0c3d b844 ecbd
00000090: 2060 cf3b 822a 20be bffa 89bd bbac 693d
000000a0: bd6d b8bc bb96 cc3b 4e9d 2d3c c62a 363c
000000b0: 61a5 8f3d 63bd ff3c 844a 84be 94c1 0ebd
000000c0: eac8 7abd 3dc5 f03d 0e55 453e 5703 de3c
000000d0: 733a 8fbe 93b5 ea3c 62a7 acbd 50ac 47bc
000000e0: fdde 85bd ac3e 553d d15c fc3d e2e3 53bd
000000f0: 5593 5cbd a595 273d bc47 acbc 4eb0 c6bd
00000100: 5f22 fe3c ea79 093e 20c9 923d 2ba7 28bd
00000110: 285b 203e b613 133d 3703 283d 5461 fd3d
00000120: b461 8dbd 01bd 3dbb 3913 b53a ecb0 66bc
00000130: 4cae 023e 96f4 f4bc 765e 2f3e 83cd b3bc
00000140: 15ce dcbb d09e 0b3e 9b38 993d aba9 773c
00000150: f5db b43d 84c0 133d 8539 17bd 0a6c e2bd
00000160: 3e84 bc3c 5c63 aa3d a1ba 62bd 7d8c fa3d
00000170: ae0a 843d 9997 f03d 9b31 ddbc 6957 77bd
00000180: 6ffb 1cbd 0092 293d 6bd8 9f3d 2928 8cbc
00000190: 6177 b13d 86e4 02bc 2ebb ddbd 14ce 87bc
000001a0: 9593 a5bc 95d0 993d 3445 a3bd d766 34bd
000001b0: 2cbc 20be 3720 89bd e397 263c 970a 58be
000001c0: ccf6 913c 30b3 a33d 99bb ccbc 5ef0 7dbd
000001d0: 7eb6 dc3d 577d 6cbd b249 b1bc 9553 51bd
000001e0: 109c 2d3d 2bc0 8ab8 cf9e 3fbe 5944 0dbe
000001f0: 3bee e63d d26d 87bc 94c7 663e 8865 e63c
00000200: 1878 683d ca36 593e 832d c7bc 70e2 493d
00000210: 2361 82bd a2b9 d13d 4a1e a6bd d28a f53d
00000220: d3ca 163e 8d91 d13d 4a1f bbbc 82f9 0ebb
00000230: b438 99bc 8dbd 033d ff01 8a3d ddb9 ad3d
00000240: b4cd 7c3d 8347 c63d 6e3b 25bd d14d 843d
00000250: ca8c 1d3e f83a 303d 22f6 69bb 713f e13d
00000260: c19d 913d 4bc9 6e3d e239 2dbe d927 643d
00000270: 940e 013e 4357 a9bb 31ed 513c 92f1 c53d
00000280: c282 6c3d f0fe 01be 9290 033d a6ba f0bd
00000290: 1c6e 2a3c 583b a5bd 3362 fabb 308a 8ebc
000002a0: a077 9cbd 1e94 193d 337b 1abc a636 983e
000002b0: 56e3 cf3d 99d1 0c3c 63fa db3c 4fdb 02be
000002c0: ec12 07be 17ef cd3d 91ce 343e 475c 273d
000002d0: a474 27bc eaae babd 3c6d f03d f6ef a83d
000002e0: 55f9 d9bd c78d 083d 114b 533e e5a4 fc3d
000002f0: 0cb6 29be 14a6 533e 01bf 63bc 598b 66bc
00000300: 9b86 85be 8874 d93d 1798 cb3d 5bfc 853d
00000310: e55a 8ebd 9e06 99bd 062c bfbc 82c6 f6bd
00000320: 931a 783d 212a f33d 71ad 8abd 5eba f7bd
00000330: bd95 a8bd 93bd 4a3d aec3 5c3d a824 ef3d
00000340: 1ad2 23bd e564 8239 53d8 f13d 8c42 fc3d
00000350: 73bd 87bd f7f7 933d a239 6f3e c3f8 4bbd
00000360: 5abc 33be fb57 a33d cafa 28bb ec38 46bd
00000370: 7ee2 4f3d 9705 5e3d 5d71 9e3c 2661 99bd
00000380: c0c7 a23d 7643 d6bd 216d 92bd bbb9 c43d
00000390: 3ace a0bd 806a 26bd 198b 253d 476e 87bd
000003a0: 3ab1 1fbe 07c2 b5bd 6612 b0bd 5e58 a83d
000003b0: 6006 fb3c bcad 8dbd 7099 2fbc a0dd 05bb
000003c0: f5b9 983d 310b b73d 1e36 adbc 7ca1 043b
000003d0: e103 723d ba9b f13d 365c 15be 8927 fdbc
000003e0: a605 d0bd ebce 2b3e bb09 aa3d 5b61 123e
000003f0: 5ae9 e6bd 0a52 6b3d 9069 76ba 692c 7abd
-0.078430384 0.17317724 0.032251906 0.08410632 -0.06393395 0.09643795 0.09257441 0.050935816
-0.0100015495 -0.0055658263 0.0031493395 0.031313967 -0.084374 -0.083909556 -0.045018308 -0.006108193
0.014776347 -0.032204807 0.002135771 0.080173045 0.071625926 0.10870464 -0.109511554 0.09162447
-0.10466111 -0.02184412 -0.0128777325 -0.023968557 -0.045805752 -0.1470649 -0.02944487 0.025190368
0.05642591 -0.026704375 0.034312684 -0.115365446 0.0063285977 -0.15641215 -0.06737279 0.057049494
-0.022513265 0.0062435544 0.010596586 0.011118596 0.070139654 0.031218236 -0.258381 -0.03485258
-0.061226763 0.1175637 0.19270727 0.027101202 -0.2797428 0.028651034 -0.08430363 -0.012187079
-0.06536672 0.05206172 0.12322391 -0.051730998 -0.053851444 0.040914197 -0.0210303 -0.09701596
0.031022249 0.13425413 0.07167268 -0.04117505 0.15659773 0.03590747 0.04101869 0.123720795
-0.06903401 -0.0028951766 0.0013814933 -0.014080267 0.12761801 -0.029901784 0.17125878 -0.021948582
-0.006738434 0.13634801 0.074815 0.015116136 0.08831016 0.03607227 -0.03692009 -0.11055763
0.023012277 0.083197325 -0.055353764 0.12233827 0.064473495 0.11747665 -0.027001193 -0.060386095
-0.038325723 0.041399002 0.0780495 -0.017108994 0.08665348 -0.007989055 -0.10826717 -0.016577758
-0.020211974 0.07510487 -0.07972184 -0.04404339 -0.15696782 -0.066955976 0.010168049 -0.2109779
0.017817877 0.07993162 -0.024991797 -0.06199681 0.10776995 -0.05773672 -0.021641586 -0.0511051
0.04238516 -6.616147e-05 -0.18712924 -0.13795604 0.112759076 -0.016531859 0.2253707 0.028124586
0.056755155 0.21212307 -0.024313694 0.049288213 -0.063661836 0.10240485 -0.08111246 0.119893685
0.14725809 0.1023284 -0.022842068 -0.0021816199 -0.018703796 0.03216319 0.06738662 0.08482716
0.06171961 0.096816085 -0.04033988 0.06460155 0.15385738 0.043024987 -0.0035699685 0.109984286
0.07110167 0.058297437 -0.16916612 0.055702064 0.12603217 -0.005167873 0.0128128985 0.096652165
0.057741888 -0.12694907 0.032120295 -0.1175435 0.010402229 -0.080679595 -0.007641101 -0.017399877
-0.07640004 0.03749477 -0.009428787 0.29729193 0.10150783 0.008594894 0.026852792 -0.12778972
-0.13190812 0.100553684 0.17656924 0.040859487 -0.01022068 -0.091153935 0.11739585 0.08248894
-0.106432594 0.033338334 0.20634104 0.12336139 -0.16573352 0.20668823 -0.013900519 -0.014071309
-0.26079258 0.1061793 0.09941118 0.065422736 -0.069509305 -0.07471965 -0.023336422 -0.12049581
0.06057222 0.1187327 -0.067713626 -0.120960936 -0.08231685 0.0494972 0.053897552 0.116769135
-0.03999529 0.00024870705 0.11808839 0.1231738 -0.066279314 0.0722503 0.23361829 -0.049797785
-0.17552319 0.07975765 -0.0025784248 -0.04839413 0.05075311 0.05420455 0.019341165 -0.07489233
0.079482555 -0.10462086 -0.07149721 0.09605738 -0.078518346 -0.04062891 0.040415857 -0.066128306
-0.1559495 -0.088748984 -0.08597259 0.0821998 0.030642688 -0.06917903 -0.010717735 -0.0020426288
0.074573435 0.089376815 -0.02114397 0.0020237854 0.05908573 0.117972806 -0.14585957 -0.03090264
-0.10157327 0.16778152 0.08302637 0.1429495 -0.11274977 0.057451285 -0.00093998853 -0.06107751

network_body._body_endoder.seq_layers.2.bias f4 [128]
00000000: 0000 0000 0000 0000 0000 0000 0000 0000
00000010: 0000 0000 0000 0000 0000 0000 0000 0000
00000020: 0000 0000 0000 0000 0000 0000 0000 0000
00000030: 0000 0000 0000 0000 0000 0000 0000 0000
00000040: 0000 0000 0000 0000 0000 0000 0000 0000
00000050: 0000 0000 0000 0000 0000 0000 0000 0000
00000060: 0000 0000 0000 0000 0000 0000 0000 0000
00000070: 0000 0000 0000 0000 0000 0000 0000 0000
00000080: 0000 0000 0000 0000 0000 0000 0000 0000
00000090: 0000 0000 0000 0000 0000 0000 0000 0000
000000a0: 0000 0000 0000 0000 0000 0000 0000 0000
000000b0: 0000 0000 0000 0000 0000 0000 0000 0000
000000c0: 0000 0000 0000 0000 0000 0000 0000 0000
000000d0: 0000 0000 0000 0000 0000 0000 0000 0000
000000e0: 0000 0000 0000 0000 0000 0000 0000 0000
000000f0: 0000 0000 0000 0000 0000 0000 0000 0000
00000100: 0000 0000 0000 0000 0000 0000 0000 0000
00000110: 0000 0000 0000 0000 0000 0000 0000 0000
00000120: 0000 0000 0000 0000 0000 0000 0000 0000
00000130: 0000 0000 0000 0000 0000 0000 0000 0000
00000140: 0000 0000 0000 0000 0000 0000 0000 0000
00000150: 0000 0000 0000 0000 0000 0000 0000 0000
00000160: 0000 0000 0000 0000 0000 0000 0000 0000
00000170: 0000 0000 0000 0000 0000 0000 0000 0000
00000180: 0000 0000 0000 0000 0000 0000 0000 0000
00000190: 0000 0000 0000 0000 0000 0000 0000 0000
000001a0: 0000 0000 0000 0000 0000 0000 0000 0000
000001b0: 0000 0000 0000 0000 0000 0000 0000 0000
000001c0: 0000 0000 0000 0000 0000 0000 0000 0000
000001d0: 0000 0000 0000 0000 0000 0000 0000 0000
000001e0: 0000 0000 0000 0000 0000 0000 0000 0000
000001f0: 0000 0000 0000 0000 0000 0000 0000 0000
0.0 0.0 0.0 0.0 0.0 0.0 0.0 0.0
0.0 0.0 0.0 0.0 0.0 0.0 0.0 0.0
0.0 0.0 0.0 0.0 0.0 0.0 0.0 0.0
0.0 0.0 0.0 0.0 0.0 0.0 0.0 0.0
0.0 0.0 0.0 0.0 0.0 0.0 0.0 0.0
0.0 0.0 0.0 0.0 0.0 0.0 0.0 0.0
0.0 0.0 0.0 0.0 0.0 0.0 0.0 0.0
0.0 0.0 0.0 0.0 0.0 0.0 0.0 0.0
0.0 0.0 0.0 0.0 0.0 0.0 0.0 0.0
0.0 0.0 0.0 0.0 0.0 0.0 0.0 0.0
0.0 0.0 0.0 0.0 0.0 0.0 0.0 0.0
0.0 0.0 0.0 0.0 0.0 0.0 0.0 0.0
0.0 0.0 0.0 0.0 0.0 0.0 0.0 0.0
0.0 0.0 0.0 0.0 0.0 0.0 0.0 0.0
0.0 0.0 0.0 0.0 0.0 0.0 0.0 0.0
0.0 0.0 0.0 0.0 0.0 0.0 0.0 0.0

value_heads.value_heads.extrinsic.weight f4 [1, 128]
00000000: 9083 1ebd 1c8d 24be 8bc1 f0bd d541 2d3d
00000010: f0d2 333e 17d6 3a3e 48fd fc3d 95bc 49be
00000020: 40ec 97bd b0ba 493e 28af 53be 6e21 44be
00000030: 2a53 9d3c 8f00 13be 331d 1cbb 083b fdbd
00000040: 95c6 20be 167b 333d 2e67 8abc 306c ed3d
00000050: cf10 1e3e 4394 443d 6ca9 14bc 5d08 b6bd
00000060: 6649 6abc 7c6b c73d b90c 223e 169d 40be
00000070: 8d82 473e e72e 15be 97e7 5f3b 318b 803d
00000080: e50a ac3d faee df3d d6f2 2ebe 3ab9 083b
00000090: ad12 0e3e e597 073e 9f9f 943d de45 efbd
000000a0: a6ec 2c3e fe05 673d abd4 2f3e 369c 323e
000000b0: 79f5 9ebc 0674 2bbd 0f16 51bd a847 edbc
000000c0: db5b 45be 7eeb 2a3d a19d 4dbe c834 e13d
000000d0: 9c31 cc3d fb78 dfbd afe2 dc3d 6d88 c43d
000000e0: f4e9 373e 73af ac3c 8868 4abd b111 0bbd
000000f0: adfe 523d e8fc 15be 5f0e 233e 84a5 193d
00000100: 8ad3 0fbe 4419 8b3d 6af1 47bb d0a5 20be
00000110: 83ce 063e 56e4 c23d ce7f 00bd ba06 1e3e
00000120: 0e4d ab3c ea47 1d3e fcd7 1b3e e5d3 52bd
00000130: e74d 293d 694e f03d 0eb7 3e3e fc70 5cbe
00000140: 37d0 bebd fc6a 033e fe38 363e bc07 2bbe
00000150: 21e4 32be 02f6 26be f1e4 1a3d ddbc 33bd
00000160: cf21 623d 4001 d93d 9cd7 b0bd 9e66 ca3c
00000170: f88a 4f3e f255 8c3c 0908 e6bd 6a45 c7bd
00000180: 8198 e0bd 0a6b 02be ecf4 e1bd 4795 43be
00000190: 117c 1fbe c460 45be 2315 173c 92bc c3bd
000001a0: f29f 04be 3f8f d6bd f556 fabb 0a51 173d
000001b0: 2322 b13d 1f07 5abe 84de 373d 48bc 193e
000001c0: 3661 e03d 6913 583e 1ebd c9bd 6534 e4bd
000001d0: d1e8 543e 177a 533c e37a 403e 0cc6 56be
000001e0: 0eed 9a3c b909 c8bd e94c 07bd 8d3c 333e
000001f0: bc29 e8bd 29b4 9dbd 7b9d 343d 1320 803d
-0.038699687 -0.16069454 -0.117556654 0.04229911 0.17560935 0.18245731 0.12352997 -0.19700845
-0.07418108 0.19700122 -0.20672286 -0.19153377 0.019204695 -0.14355682 -0.0023821115 -0.12364775
-0.15700753 0.043818556 -0.016894903 0.11592901 0.154361 0.047992956 -0.009073596 -0.08888314
-0.014299726 0.09737298 0.15825166 -0.18809924 0.19483395 -0.14568673 0.0034165138 0.06276549
0.084005155 0.10934253 -0.17084822 0.0020862357 0.13874312 0.13241537 0.07257008 -0.11683248
0.16887149 0.0564022 0.1717097 0.17442402 -0.01940416 -0.041858695 -0.051046427 -0.028964832
-0.19273321 0.04172849 -0.20079662 0.10996395 0.099704 -0.10911747 0.10785424 0.09596334
0.1796034 0.021079754 -0.049416095 -0.03395242 0.05151241 -0.14647257 0.15923451 0.037511364
-0.1404554 0.067919284 -0.0030508884 -0.15688252 0.13164715 0.09516208 -0.031371884 0.15432253
0.020910766 0.15359464 0.1521911 -0.05147161 0.04133406 0.117337056 0.18624517 -0.21527475
-0.093170576 0.1283378 0.17795178 -0.16702169 -0.17469837 -0.16304782 0.03781599 -0.043881286
0.055208024 0.105959415 -0.08634874 0.024707135 0.20267856 0.017130826 -0.11232001 -0.097300366
-0.10966588 -0.12736145 -0.11033043 -0.19099914 -0.15574671 -0.19275194 0.009221348 -0.09557451
-0.1295164 -0.10476541 -0.0076397606 0.03694252 0.08649089 -0.21291779 0.04488994 0.1501323
0.109560415 0.21101154 -0.09850524 -0.11142806 0.20791937 0.012907526 0.18796878 -0.20973986
0.018911865 -0.097674794 -0.03303233 0.17503567 -0.11336085 -0.077003784 0.044095498 0.06256118
