MLAgentsProject/results/MoveToGoal5/MoveToGoal/MoveToGoal-41292.pt (torch, 439135 bytes, 36 tensors)

network_body._body_endoder.seq_layers.0.weight f4 [128, 6]
0.55223566 -0.32446504 -0.6236154 0.070958525 -0.071749486 -0.2318324 0.39661753 -0.2039267
0.56849635 0.19300517 0.42238033 0.4927798 -0.2511373 -0.3148929 0.47847992 0.8655482
-0.2032682 -0.6816491 -0.41429818 -0.35854688 -0.39573768 -0.35901704 -0.06480171 -0.21284485
0.542566 -0.44553584 0.26435047 -0.15668222 0.110038534 1.1832825 0.0946121 -0.007649798
-0.4487791 -0.010195232 -0.46639863 -0.008818559 0.9191789 0.5925148 0.66805214 -0.07488213
-0.4131802 -0.41342273 0.048464414 -0.1450903 0.32229868 -0.2426 -0.41772026 -0.55654085
-0.7099659 -0.9975336 -0.4268934 0.6606934 -0.19059582 -0.084116876 0.45993203 0.16297986
-0.13907617 -0.33518222 -0.4776083 0.76756036 -0.013083001 0.024328973 0.07663803 0.41542563
-0.08776849 0.022663148 -0.15564817 -0.22162896 0.14081217 -0.56929755 -0.15533373 0.5227425
-0.013934418 -0.02663903 -0.45525408 0.41463283 0.032651536 -0.59082556 -0.18602008 0.72357076
-0.8297666 -0.13718878 -0.20043536 -0.15898861 0.54554814 0.035754748 -0.07119634 -0.64145607
0.6631385 -0.15023209 0.06274702 -0.563685 0.25579074 -0.040134214 -0.0553543 -0.3213495
0.24032156 0.078026876 0.9420969 -0.16430126 -0.6723684 -0.16146873 0.14429075 -0.06529459
-0.019031117 0.22932604 -0.01780007 -0.21074793 -0.20344663 -0.051913496 0.09724838 0.42346847
-0.004634591 0.8963665 0.13485204 1.1065652 -0.0018704904 -0.92218786 -0.78391004 0.28077537
-0.021786025 -0.03766813 0.75528514 -0.231416 0.02040012 -0.1095892 0.18729118 0.47823012
0.5706881 -0.4919677 0.2951043 -0.30142277 -0.29981747 -0.02936026 0.5306098 -0.45446533
0.11141796 -0.42721888 0.480113 -0.07262553 -0.3633147 -0.36667064 -0.7602978 -0.4647001
0.07112091 -0.2469506 0.46899956 0.37227952 -0.09602269 0.34738746 -0.5099467 0.2970859
0.09412165 -0.020152247 -0.20996504 0.28078908 -0.76037264 -0.8773289 -0.40656987 -0.07812921
-0.53020614 -0.41487154 -0.5946168 -0.25853866 0.551006 -0.27225032 1.0048034 0.97246134
-0.19358987 -0.057924066 -0.7394095 -0.17040314 0.5401909 0.28567997 0.07099753 -0.25705826
0.49549404 0.5434996 0.18066956 0.106956795 0.82730997 0.14646518 -0.35724068 -0.2912529
0.61283594 -0.08462477 0.3319154 0.04261552 0.18325874 -0.40327212 -0.24387784 0.80803096
0.18446922 -0.0442943 0.23403767 0.08749808 -0.11531494 0.03971898 0.3336648 0.114433505
-0.16717021 -0.31840953 -0.22018339 0.41036528 0.19669062 -0.62032 -0.19008242 0.33250096
0.35613906 -0.19950657 0.085622825 -0.1032001 0.31589606 -0.4651899 0.2755601 0.80261683
0.7298976 0.122625574 0.61972934 0.42240223 -0.27345246 0.06649283 0.40613592 -0.096612565
-0.6775835 0.32635823 -0.11668025 -0.6693418 -0.24966128 -0.29751757 -0.8625457 -0.26743308
-0.50212705 0.2878836 0.1361889 -0.4875928 -0.99681705 0.6832219 -0.097179145 -0.061302923
0.6795048 -0.05844459 0.018936474 -0.12836167 0.31420392 0.08031029 -0.99330235 0.46680367
-0.45388326 -0.10595767 0.3533765 -0.103416845 0.29494628 -0.68790877 -0.2826713 0.36504918
00000000: 515f 0d3f 4820 a6be 42a5 1fbf b452 913d
00000010: 65f1 92bd 7965 6dbe 7411 cb3e 29d2 50be
00000020: fa88 113f 26a3 453e 3c42 d83e a24d fc3e
00000030: 1195 80be a439 a1be 52fb f43e 9194 5d3f
00000040: 8a25 50be 8e80 2ebf e41e d4be 7593 b7be
00000050: 219e cabe 15d1 b7be c2b6 84bd 00f4 59be
00000060: 9be5 0a3f 461d e4be f258 873e 4e71 20be
00000070: e25b e13d cd75 973f fdc3 c13d 28ab fabb
00000080: 60c6 e5be e709 27bc cdcb eebe b87b 10bc
00000090: 4f4f 6b3f 0daf 173f 7705 2b3f cd5b 99bd
000000a0: 5b8c d3be 25ac d3be 9f82 463d 8d92 14be
000000b0: 5504 a53e 226c 78be 6edf d5be 7679 0ebf
000000c0: 53c0 35bf 5d5e 7fbf c691 dabe 3423 293f
000000d0: 8d2b 43be 7845 acbd 367c eb3e 31e4 263e
000000e0: fc69 0ebe 019d abbe 1389 f4be d67e 443f
000000f0: 155a 56bc 8e4d c73c 66f4 9c3d abb2 d43e
00000100: f7bf b3bd 11a8 b93c 3c62 1fbe b4f2 62be
00000110: 1131 103e 7cbd 11bf ce0f 1fbe 74d2 053f
00000120: 2f4d 64bc 183a dabc 1017 e9be c14a d43e
00000130: 9ebd 053d 5840 17bf 0c7c 3ebe ef3b 393f
00000140: 956b 54bf 377b 0cbe ed3e 4dbe e9cd 22be
00000150: 0ba9 0b3f 9273 123d 63cf 91bd 7736 24bf
00000160: 72c3 293f 71d6 19be 8281 803d a94d 10bf
00000170: 01f7 823e c663 24bd 31bb 62bd ec87 a4be
00000180: db16 763e 8ecc 9f3d 432d 713f 973e 28be
00000190: 5620 2cbf 0f58 25be f4c0 133e 2cb9 85bd
000001a0: 25e7 9bbc 72d4 6a3e 74d1 91bc 4ece 57be
000001b0: 5054 50be 3fa3 54bd 292a c73d dcd0 d83e
000001c0: c4dd 97bb 4678 653f a716 0a3e eea3 8d3f
000001d0: 3e2b f5ba 8114 6cbf 54ae 48bf cac1 8f3e
000001e0: 9b78 b2bc e649 1abd 5e5a 413f 51f8 6cbe
000001f0: 271e a73c 4d70 e0bd 42c9 3f3e 94da f43e
00000200: 9e18 123f 31e3 fbbe e917 973e 1654 9abe
00000210: ad81 99be ee84 f0bc 0bd6 073f aeaf e8be
00000220: 192f e43d 6fbc dabe 5fd1 f53e b2bc 94bd
00000230: 6204 babe 41bc bbbe e0a2 42bf 2ced edbe
00000240: d7a7 913d 9ee0 7cbe b620 f03e 6c9b be3e
00000250: 8ba7 c4bd c5dc b13e de8b 02bf a51b 983e
00000260: dac2 c03d 5316 a5bc 1301 57be 96c3 8f3e
00000270: c8a7 42bf a098 60bf ed29 d0be 3502 a0bd
00000280: 97bb 07bf 0b6a d4be ce38 18bf 2e5f 84be
00000290: bb0e 0d3f 6564 8bbe 669d 803f 3af3 783f
000002a0: 6c3c 46be c941 6dbd f149 3dbf 297e 2ebe
000002b0: f349 0a3f a544 923e 2767 913d 249d 83be
000002c0: 65b1 fd3e ca22 0b3f 7101 393e 2a0c db3d
000002d0: 96ca 533f f8fa 153e 40e8 b6be 1a1f 95be
000002e0: d1e2 1c3f c04f adbd d1f0 a93e 9d8d 2e3d
000002f0: 2ea8 3b3e af79 cebe 1dbb 79be 1edb 4e3f
00000300: 80e5 3c3e f16d 35bd 92a7 6f3e 3232 b33d
00000310: 3d2a ecbd 5fb0 223d 1dd6 aa3e 1d5c ea3d
00000320: ab2e 2bbe 9306 a3be c177 61be 661b d23e
00000330: 4469 493e 4bcd 1ebf f7a4 42be 913d aa3e
00000340: dc57 b63e 734b 4cbe 055b af3d 935a d3bd
00000350: 21bd a13e 5f2d eebe 3716 8d3e 4c78 4d3f
00000360: 92da 3a3f 1e23 fb3d 95a6 1e3f 1b45 d83e
00000370: f601 8cbe 652d 883d 0cf1 cf3e cfdc c5bd
00000380: 1d76 2dbf 6d18 a73e 0ef6 eebd fc59 2bbf
00000390: 35a7 7fbe 3954 98be cccf 5cbf fdec 88be
000003a0: 668b 00bf 7b65 933e 1a75 0b3e c3a5 f9be
000003b0: 672f 7fbf a1e7 2e3f dc05 c7bd c618 7bbd
000003c0: 07f4 2d3f 9863 6fbd aa20 9b3c 3e71 03be
000003d0: 56df a03e b979 a43d 1049 7ebf e400 ef3e
000003e0: 6363 e8be 5600 d9bd c4ed b43e 36cc d3bd
000003f0: 3303 973e ca1a 30bf 4bba 90be bae7 ba3e

network_body._body_endoder.seq_layers.0.bias f4 [128]
-0.0036936365 -0.0033138287 -0.0013268047 -0.0023668355 -7.246592e-05 0.002919637 0.0003916446 0.0007270076
-0.00017172442 -0.00052256556 2.8411154e-05 0.0013320632 0.0021680484 -0.0025668002 0.0011769065 0.0001664388
-1.26162895e-05 0.00036132403 -0.002987025 0.0010502366 -0.0014723801 -0.0025341646 -0.002806215 0.0003807389
-0.0005546769 0.00057656935 -0.0039187735 -0.0010702276 0.0027565253 -0.0011403325 0.0011400018 -9.912348e-06
-0.00016796187 6.217347e-05 -0.00053664 -0.00030080156 0.00033052804 0.0039177807 -0.0015243866 -0.00051066093
-0.0029206171 0.00057354284 -0.00092144415 -4.645458e-06 0.00061108044 -2.4979452e-05 0.00034882166 0.00019721258
0.002192592 0.00020410022 -0.0014884141 -0.0014619067 0.0011538941 -0.0008624076 -0.0006567685 -0.0011465072
0.00054367544 -0.001294661 -0.0010751052 -0.0006790675 0.00020907963 0.00068102503 8.904572e-05 -0.00021036086
-0.00031227918 -0.0019474974 2.9538587e-05 -0.0013737148 -0.0022816455 0.0038055908 0.0004013011 -0.0010689637
0.0018648042 -0.00047768521 -0.0003433611 -0.0015595836 -0.001458189 3.5850942e-05 -7.0701986e-05 -0.00091933965
0.0014497724 0.0017052571 -7.92065e-05 0.007014242 -0.00023171246 0.0010089861 -0.006083399 -0.0004626457
-0.0032109446 -0.00057319255 0.0014100337 0.001237302 -0.0022070515 0.00031735067 0.0004751228 -0.0004388135
-0.0013510085 0.0001191695 -0.0002880574 -0.0020649212 -0.0009915706 0.000879792 -0.0003903825 -0.0022024573
-0.00044362177 0.0015782194 -0.0011801678 -0.00019139808 -1.4478442e-05 -0.00044713396 0.00033824437 0.00015122723
-0.00041697585 6.8732996e-05 -0.0034899488 0.001238886 0.00034630028 -0.0004945861 -0.0005866459 -0.0011643217
-0.002501375 0.0005229358 -0.0015941655 0.00031530712 -0.00034402838 -0.000750879 -0.0025312183 -0.0002106124
00000000: f010 72bb d22c 59bb 2ee8 adba e91c 1bbb
00000010: d8f8 97b8 6157 3f3b a655 cd39 a794 3e3a
00000020: ec10 34b9 c8fc 08ba 7d54 ee37 a098 ae3a
00000030: d115 0e3b c337 28bb 6e42 9a3a 1386 2e39
00000040: 8daa 53b7 1770 bd39 f7c1 43bb 18a8 893a
00000050: e1fc c0ba 3a14 26bb 7ae8 37bb e99d c739
00000060: bd67 11ba ea24 173a 0e69 80bb e146 8cba
00000070: d2a6 343b 3677 95ba 1d6c 953a 364d 26b7
00000080: ec1e 30b9 2163 8238 4dad 0cba e7b4 9db9
00000090: b94a ad39 ba60 803b edcd c7ba e0dd 05ba
000000a0: d367 3fbb cf59 163a 128d 71ba 2ee0 9bb6
000000b0: ea30 203a f78a d1b7 0de2 b639 d9ca 4e39
000000c0: 97b1 0f3b bc03 5639 e416 c3ba 739d bfba
000000d0: 433e 973a 3213 62ba fd2a 2cba 6646 96ba
000000e0: 7185 0e3a 9db1 a9ba 8bea 8cba 7303 32ba
000000f0: 633c 5b39 d186 323a 0fbe ba38 5094 5cb9
00000100: 67b9 a3b9 2b43 ffba a2c9 f737 380e b4ba
00000110: a987 15bb 3867 793b b965 d239 781c 8cba
00000120: 726c f43a d371 fab9 2605 b4b9 f16a ccba
00000130: b420 bfba a85e 1638 d745 94b8 d7ff 70ba
00000140: 4a06 be3a ef82 df3a aa1b a6b8 bad7 e53b
00000150: d7f7 72b9 f53f 843a 4057 c7bb 418f f2b9
00000160: b66e 52bb 4d42 16ba e1d0 b83a f72c a23a
00000170: 2ea4 10bb 1662 a639 e719 f939 8d10 e6b9
00000180: 5314 b1ba a3ea f938 6906 97b9 a153 07bb
00000190: 97f7 81ba d7a1 663a 41ac ccb9 1a57 10bb
000001a0: e895 e8b9 41dc ce3a dcaf 9aba 08b2 48b9
000001b0: 6fe8 72b7 4e6d eab9 6456 b139 c092 1e39
000001c0: 8d9d dab9 bf24 9038 a0b7 64bb 1e62 a23a
000001d0: a38f b539 1ca7 01ba 24c9 19ba 279c 98ba
000001e0: 1cee 23bb a115 093a 51f3 d0ba ce4f a539
000001f0: b55e b4b9 a3d6 44ba cce2 25bb d6d7 5cb9

network_body._body_endoder.seq_layers.2.weight f4 [128, 128]
0.06697638 0.014328835 -0.0073737833 -0.12798262 -0.02386233 -0.006176761 0.060905717 -0.10815236
0.008489229 0.053175595 -0.13512212 -0.024718437 0.102027945 -0.018602952 0.09126866 0.06080166
0.16609907 0.10422306 -0.045641128 -0.017305553 0.23152204 -0.18548554 0.01593967 0.06759526
0.14053638 -0.029064111 -0.106025524 -0.11133153 -4.6312613e-05 -0.1311077 0.011237088 -0.037971236
-0.09188182 -0.15561582 0.0502029 0.1361932 -0.065348536 0.07629866 0.08244259 0.054541457
0.04492986 -0.0015202155 -0.009263991 0.074928515 -0.020790363 0.006058877 0.07369033 0.10374787
-0.06848569 0.030220754 -0.041557923 0.066081375 0.032728005 0.04291566 -0.04102257 0.1268618
-0.07579942 -0.077209994 0.099595204 0.11270185 -0.04712209 0.022877034 -0.029242208 -0.13730527
0.026673932 0.06805829 0.03419815 -0.010355129 0.016376559 -0.06915215 -0.05196797 -0.016862925
-0.07085067 -0.07381734 0.1378144 -0.03459561 0.003793135 -0.006512492 -0.090692006 -0.023142897
0.09475315 0.16839087 0.1644448 0.044110253 -0.07251542 0.09171677 -0.063336775 -0.038825154
-0.034805033 0.009036322 0.08083019 -0.036611527 0.029398171 -0.07859929 -0.059225712 -0.1337073
0.09430097 -0.031503446 -0.10030574 -0.03691511 -0.1326468 -0.04867601 -0.07489906 0.0057801725
0.07398697 -0.09959038 0.11029273 -0.14908494 0.017150216 -0.1797934 0.004169082 0.0034152053
0.24389352 0.015892172 0.1502865 0.00556492 0.09693095 0.013999597 0.021975601 0.046977844
-0.057627857 0.113318555 0.039567776 -0.02804351 -0.0042815167 -0.05839267 0.006666211 0.04351377
-0.09650238 0.2997401 -0.055335727 0.12813519 -0.061115302 0.024628595 -0.029904429 0.04772652
0.041793466 -0.124033324 0.051411178 -0.06765307 -0.18443501 -0.0655404 -0.025975134 0.08108929
0.06765536 -0.12789422 0.06757587 0.065891735 0.105997905 -0.026406258 0.04416326 0.14001952
-0.006681124 0.22720034 -0.0003659959 -0.014737674 -0.009313586 -0.0059024305 0.015639056 -0.025489997
-0.03468767 -0.12377475 -0.121909544 0.07837884 0.12470384 0.029878521 -0.005038541 -0.03800586
-0.11275851 -0.05367992 -0.016450478 0.008233752 0.11305128 0.03579521 -0.095537975 0.07190282
-0.012240953 0.210275 -0.051779438 0.0044684047 -0.004544376 0.09397145 -0.03575593 -0.015081344
-0.06746266 -0.017273586 -0.14944541 0.19632971 -0.17800088 -0.030975576 -0.0032026977 0.013083753
-0.05907935 -0.1581121 -0.0075116563 0.12544693 0.076329984 0.007025965 -0.014942297 -0.0153607605
-0.15725176 0.18550722 0.014349195 0.16970958 0.19602528 0.008555824 -0.0662337 0.16854934
0.103818096 -0.014166191 -0.11593886 0.08021259 0.03303956 0.046805114 0.06014098 0.01784334
-0.1316851 0.060391705 -0.19443926 0.048798997 -0.047617573 0.050655168 -0.02817942 0.03636285
-0.057958744 0.06465513 -0.15017208 -0.014856664 -0.23302414 0.024753682 0.06382059 0.040475767
-0.12165112 -0.23144 -0.010555707 -0.08209405 -0.05799048 -0.004508834 -0.03513509 -0.13997526
0.049048327 0.14805934 -0.052275836 -0.040465567 0.019443376 0.03080629 0.27471995 0.19173865
-0.056905244 -0.042214707 0.08613253 0.024896076 0.118682645 -0.13067575 -0.009196633 0.03404306
00000000: ea2a 893d 7dc3 6a3c c79f f1bb e00d 03be
00000010: ef7a c3bc 6d66 cabb 4678 793d fc7e ddbd
00000020: 6816 0b3c a7ce 593d 745d 0abe 527e cabc
00000030: 07f4 d03d 3865 98bc 10eb ba3d 290b 793d
00000040: e015 2a3e e672 d53d 31f2 3abd 60c4 8dbc
00000050: 1d14 6d3e ecef 3dbe e993 823c 626f 8a3d
00000060: c5e8 0f3e dc17 eebc e923 d9bd c901 e4bd
00000070: ca3f 42b8 1941 06be c31b 383c ba87 1bbd
00000080: 892c bcbd c159 1fbe 8ea1 4d3d 3b76 0b3e
00000090: 74d5 85bd 7942 9c3d a9d7 a83d dd66 5f3d
000000a0: 5f08 383d f841 c7ba ffc7 17bc 1f74 993d
000000b0: 8d50 aabc 8b89 c63b f5ea 963d c379 d43d
000000c0: 3a42 8cbd 8491 f73c a438 2abd ac55 873d
000000d0: cd0d 063d 55c8 2f3d 4807 28bd 0fe8 013e
000000e0: ba3c 9bbd 4620 9ebd 92f8 cb3d 3ad0 e63d
000000f0: 1803 41bd 9e68 bb3c 5b8d efbc c199 0cbe
00000100: 4a83 da3c 2562 8b3d 5c13 0c3d 8fa8 29bc
00000110: 2228 863c a49f 8dbd 5edc 54bd 1e24 8abc
00000120: 281a 91bd 8c2d 97bd 381f 0d3e 20b4 0dbd
00000130: 3f96 783b be66 d5bb bbbc b9bd 2c96 bdbc
00000140: f10d c23d a86e 2c3e 3864 283e f4ac 343d
00000150: f782 94bd 00d6 bb3d b6b6 81bd 2007 1fbd
00000160: b98f 0ebd 150d 143c 4c8a a53d f8f5 15bd
00000170: 6fd4 f03c aaf8 a0bd a996 72bd 91ea 08be
00000180: de20 c13d c209 01bd 196d cdbd 4c34 17bd
00000190: 90d4 07be 7f60 47bd ae64 99bd 9a67 bd3b
000001a0: 7b86 973d 0bf6 cbbd 28e1 e13d b9a9 18be
000001b0: 9c7e 8c3c c31b 38be cb9c 883b a3d1 5f3b
000001c0: 39bf 793e 4d30 823c b4e4 193e ef59 b63b
000001d0: bc83 c63d 915e 653c 2d06 b43c d76b 403d
000001e0: 300b 6cbd 8f13 e83d d211 223d 81bb e5bc
000001f0: f74b 8cbb 272d 6fbd 3b70 da3b 7f3b 323d
00000200: 0aa3 c5bd 8977 993e b7a7 62bd df35 033e
00000210: 0a54 7abd e8c1 c93c 22fa f4bc e27c 433d
00000220: a02f 2b3d 2f05 febd 8794 523d b18d 8abd
00000230: 88dc 3cbe 0c3a 86bd cec9 d4bc 2412 a63d
00000240: e58e 8a3d b4f6 02be 3865 8a3d 3ff2 863d
00000250: 6e15 d93d f051 d8bc 89e4 343d 4761 0f3e
00000260: 55ed dabb 35a7 683e 23e3 bfb9 4976 71bc
00000270: 0398 18bc 2d69 c1bb 7a1d 803c 66d0 d0bc
00000280: a914 0ebd 9e7d fdbd b6ab f9bd 1685 a03d
00000290: ba64 ff3d cdc3 f43c 581a a5bb 08ac 1bbd
000002a0: efed e6bd 7adf 5bbd 27c3 86bc dce6 063c
000002b0: 6e87 e73d 009e 123d 6aa9 c3bd c941 933d
000002c0: 478e 48bc 5452 573e ad16 54bd b26b 923b
000002d0: fde8 94bb 1b74 c03d cf74 12bd be17 77bc
000002e0: dd29 8abd 5681 8dbc 3808 19be a80a 493e
000002f0: dd45 36be 7ec0 fdbc 5ae4 51bb 3d5d 563c
00000300: 30fd 71bd 23e8 21be 5724 f6bb 2975 003e
00000310: e552 9c3d 113a e63b 89d0 74bc b3ab 7bbc
00000320: 9b06 21be 9bf5 3d3e e318 6b3c 59c8 2d3e
00000330: daba 483e ba2d 0c3c 89a5 87bd 3398 2c3e
00000340: 959e d43d 5019 68bc 5a71 edbd 8046 a43d
00000350: 7d54 073d b8b6 3f3d 6356 763d 322c 923c
00000360: 75d8 06be 4b5d 773d 161b 47be 75e1 473d
00000370: a50a 43bd cb7b 4f3d 87d8 e6bc 36f1 143d
00000380: 2666 6dbd e969 843d b6c6 19be 5e69 73bc
00000390: e19d 6ebe 3cc8 ca3c 5fb4 823d ebc9 253d
000003a0: 3924 f9bd 9bfe 6cbe d8f1 2cbc ed20 a8bd
000003b0: 6d87 6dbd d7be 93bb d0e9 0fbd ad55 0fbe
000003c0: e6e6 483d de9c 173e 301f 56bd 39bf 25bd
000003d0: b747 9f3c 795d fc3c 18a8 8c3e 2357 443e
000003e0: 7915 69bd 54e9 2cbd 4066 b03d dbf2 cb3c
000003f0: e30f f33d ddcf 05be 79ad 16bc bc70 0b3d

network_body._body_endoder.seq_layers.2.bias f4 [128]
0.004468006 0.00022465101 -0.0007108905 -0.0012685999 -0.0012322637 0.00057120225 0.00047428635 0.0032234397
0.0007360325 -0.0009225531 0.0013601299 -0.0028982647 -0.0012544001 -0.000481168 -0.0026989828 -0.00018280794
0.0003692015 -0.0035118372 -0.0005142964 -0.00061884726 -0.0002853408 -0.0031295258 -0.0020262871 0.0001335283
0.0010379027 -0.00023698992 -0.00034850813 0.0013550965 0.0028771898 -0.0015917274 0.001178733 -0.00015193857
0.0025135607 0.00055552984 0.00012444568 0.0008880885 -0.0002872784 -0.0005788119 -0.0015943216 -0.0018979675
-0.00048411524 -0.003299635 0.00048748043 -0.0024453916 -0.001232331 9.1816364e-05 -0.0016009858 -0.0001322098
0.00012787213 0.00010793768 -0.0018771405 -0.00025037854 -0.0019076519 0.00019624992 -0.00088299124 -0.00046573952
-0.000909138 0.00022780804 -0.0007523999 0.00023230973 -0.0005414517 -0.0033380368 -0.0010184947 -0.004429623
0.00040855442 0.002369733 0.00038466285 -0.0016359246 -0.00021548002 0.00014432185 -0.001340425 -0.0014746585
-0.00039707948 -0.00060307764 -0.0014326124 -6.829233e-05 0.00040017487 -0.0008636678 0.00040449513 6.5888294e-06
9.612506e-05 0.00033132022 0.00084068347 -0.0009002376 -0.00011622351 -0.00055792474 -0.0015567713 0.00061712443
-0.001415327 -0.0004717362 -0.0005604695 -0.00026587013 -0.00047314315 -0.0012654953 0.00018025635 -0.00021555633
-0.00070179737 0.0013226526 0.00068312493 1.6863407e-05 -0.0006198263 -0.00033203218 -0.0010314963 -0.00069703965
-0.0007499005 -0.000505005 0.00039753295 -0.0024225812 -0.00017063887 -0.0002361805 0.0024523016 0.00042034706
-0.0004731605 -0.0014833544 -0.00067905645 -0.001533724 -2.351672e-05 0.0056956327 0.00017386065 -0.0001965951
-0.00016913677 0.0014094426 -0.0003317381 -0.002823631 -0.0008172237 -0.00037309263 -0.0011143949 0.0039871107
00000000: 5a68 923b 4c90 6b39 0e5b 3aba 2647 a6ba
00000010: e983 a1ba bcbc 153a a3a9 f839 5840 533b
00000020: 4ef2 403a 7ed7 71ba 6346 b23a d0f0 3dbb
00000030: af6a a4ba 4745 fcb9 6be1 30bb 22b0 3fb9
00000040: 6391 c139 da26 66bb d9d1 06ba 233a 22ba
00000050: cb99 95b9 bb18 4dbb 75cb 04bb bb03 0c39
00000060: 3c0a 883a 7f80 78b9 f8b7 b6b9 7e9d b13a
00000070: 3c8f 3c3b 82a1 d0ba b77f 9a3a b351 1fb9
00000080: 8dba 243b faa0 113a a27d 0239 9cce 683a
00000090: db9d 96b9 69bb 17ba 8ef8 d0ba 39c5 f8ba
000000a0: d9d0 fdb9 b03e 58bb 8494 ff39 dd42 20bb
000000b0: 2b86 a1ba 898d c038 2bd8 d1ba cca1 0ab9
000000c0: 6a15 0639 9a5c e238 620a f6ba 3d45 83b9
000000d0: 2d0a faba 70c8 4d39 8a78 67ba 802e f4b9
000000e0: 3853 6eba c1df 6e39 b43c 45ba 2b98 7339
000000f0: 35f0 0dba f7c2 5abb 037f 85ba 5f26 91bb
00000100: 3f33 d639 864d 1b3b 93ac c939 856c d6ba
00000110: 7af2 61b9 1a55 1739 33b1 afba 5449 c1ba
00000120: 1b2f d0b9 db17 1eba 7fc6 bbba 2a38 8fb8
00000130: 90ce d139 c467 62ba 6b12 d439 9d15 dd36
00000140: c096 c938 0cb5 ad39 5061 5c3a ecfd 6bba
00000150: 06bd f3b8 b241 12ba 940c ccba 85c6 213a
00000160: 7e82 b9ba 5c53 f7b9 79ec 12ba 7c64 8bb9
00000170: 3310 f8b9 fade a5ba 3203 3d39 f606 62b9
00000180: d3f8 37ba db5c ad3a bd13 333a e475 8d37
00000190: d77b 22ba 9b14 aeb9 4633 87ba 8ab9 36ba
000001a0: f894 44ba 5062 04ba f86b d039 2bc4 1ebb
000001b0: 86ed 32b9 38a7 77b9 cbb6 203b 0762 dc39
000001c0: 8712 f8b9 1d6d c2ba b502 32ba 3d07 c9ba
000001d0: c645 c5b7 6ea2 ba3b 5d4e 3639 1825 4eb9
000001e0: 4e5a 31b9 0cbd b83a 22ed adb9 ab0c 39bb
000001f0: f43a 56ba a59b c3b9 e310 92ba 4fa6 823b

action_model._continuous_distribution.log_sigma f4 [1, 2]
0.005150607 -0.0046129227
00000000: 6cc6 a83b 0028 97bb

action_model._continuous_distribution.mu.weight f4 [2, 128]
0.026614472 -0.018002037 0.018112285 0.015864212 0.0063295923 -0.021299986 -0.013983489 0.004540904
0.0065234 0.009483062 -0.012548027 0.03484141 0.016823107 -0.00018523894 -0.013610527 -0.0010279082
-0.00958218 -0.014667823 0.01641693 0.009573017 -0.0010855658 -0.022166891 0.0067855106 -0.0032352805
0.012837512 0.01582401 -0.0001931802 -0.02423902 -0.0025140462 0.0018554482 -0.019561047 0.003920401
-0.004265995 -0.011390566 -0.027366195 0.006669723 -0.020260716 0.018803852 -0.02228509 -0.02609629
-0.0005729903 -0.0042940713 -0.008220186 -0.0018480214 0.0039326246 -0.0006625241 0.002738625 0.0051558553
0.0005833968 0.0060759843 -0.016108269 -0.0021612651 0.003992294 -0.016879113 0.0061493535 0.013871106
0.021636385 -0.031307366 0.014742613 -0.016474674 -0.0056337817 -0.0072506866 -0.015466253 0.01013693
-0.00538419 -0.014379883 -0.03203259 0.0021812357 0.014234378 -0.0035496058 0.014932913 0.004346147
0.0013145952 0.013430347 0.0006333704 -0.017941065 -0.01732233 0.01771574 -0.0030689077 0.00959356
-0.025713623 -0.022114836 0.038962815 0.0068994137 0.027985202 0.014032312 0.009265843 0.000978292
-0.0088461805 -0.00047006618 -0.0022067844 0.0048355153 -0.0038177478 0.034036543 0.002953041 -0.004821819
0.007970363 -0.010104218 -0.015828475 -0.013536974 0.0053555 0.014934946 -0.0022930366 0.02217569
0.011673984 -0.003397877 -0.011716183 -0.006212999 0.016837168 0.010413763 0.0156763 -0.029230496
-0.01543376 0.020223144 -0.001130519 0.009553487 0.0079423245 0.0042329095 -0.0055483785 0.00315785
-0.0014518749 0.026279364 0.005633933 -0.05426722 -0.003817149 0.02194641 -0.0076378584 0.021888422
-0.012003358 -0.0063731703 0.04586576 -0.009122146 0.001299298 0.024044435 0.00018623666 -0.024089895
-0.0009285677 0.00038102013 0.020255422 0.010237314 0.04123007 -0.009362376 0.03164993 0.0039085825
0.012634287 0.011984362 0.005448612 0.005940152 -0.033564128 9.657662e-05 -0.0021586828 0.011398392
-0.013008389 0.012820746 -0.02027666 0.01371074 -0.011903764 -0.002359066 0.00817704 -0.02361393
-0.012599886 0.011855066 -0.028841129 0.0251212 0.008888839 0.009708244 -0.019832594 0.002386069
-0.012939478 0.00024627155 0.008337062 0.00031329796 0.0013131615 0.021329002 -0.0019426404 0.035798077
0.028965183 0.013137708 0.0023423964 0.004438561 0.001142317 -0.01523428 -0.018101687 0.008722782
-0.015094118 -0.010147686 -0.017199086 -0.0059177508 0.0016752669 7.0154474e-06 0.006788685 0.005904102
0.008927776 -0.022112863 -0.010972945 0.0011241523 0.013932318 0.012979112 -4.807328e-05 -0.007750641
-0.018973958 0.006657095 0.013832381 -0.038075373 0.027073223 -0.015940731 0.03809445 0.003957666
0.0036146345 -0.0056557413 0.018168556 0.029491983 -0.02333909 0.007946137 -0.013839085 0.015067563
-0.006869999 -0.011181186 -0.014869517 0.016497148 -0.0009330812 -0.016660972 0.0078033437 -0.016672058
-0.0102884 -0.01965379 0.018471248 -0.013113815 -0.015632354 0.005959023 0.02312517 0.014194703
0.0046896264 0.019774161 0.016754007 -0.0024097802 0.0029732008 0.04302021 -0.021820948 -0.006410762
0.014900076 0.008247786 0.0084567815 0.01874 0.027176583 -0.004723691 0.034368988 0.013003083
0.010718786 -0.00091902056 -0.0150062945 0.003064422 -0.02947994 -0.0015474617 0.013289753 -0.022365935
00000000: 9806 da3c 0279 93bc 3760 943c aaf5 813c
00000010: 7868 cf3b 4f7d aebc 011b 65bc ddcb 943b
00000020: 3fc2 d53b d85e 1b3c 3d96 4dbc deb5 0e3d
00000030: 9dd0 893c b33c 42b9 b0fe 5ebc e0ba 86ba
00000040: 93fe 1cbc 4f51 70bc cc7c 863c 25d8 1c3c
00000050: 8b49 8eba 5797 b5bc fd58 de3b 0007 54bb
00000060: 6e54 523c 5ba1 813c 6a90 4ab9 e990 c6bc
00000070: b2c2 24bb 8332 f33a 7d3e a0bc b576 803b
00000080: c3c9 8bbb 7f9f 3abc 122f e0bc b18d da3b
00000090: cdf9 a5bc 890a 9a3c 398f b6bc e3c7 d5bc
000000a0: ba34 16ba 48b5 8cbb f6ad 06bc 4f39 f2ba
000000b0: 3fdd 803b 3dad 2dba 817a 333b 73f2 a83b
000000c0: 19ef 183a 0d19 c73b 7df5 83bc 03a4 0dbb
000000d0: cad1 823b 1146 8abc 8480 c93b a343 633c
000000e0: ca3e b13c 273c 00bd 008b 713c e5f5 86bc
000000f0: 969b b8bb 2b97 edbb 2b66 7dbc 5e15 263c
00000100: dc6d b0bb 9a99 6bbc 9b34 03bd 10f3 0e3b
00000110: 4f37 693c 81a0 68bb 2da9 743c 206a 8e3b
00000120: 7f4e ac3a f50a 5c3c c508 263a 24f9 92bc
00000130: 8fe7 8dbc 9920 913c ba1f 49bb 4f2e 1d3c
00000140: 60a5 d2bc 2c2a b5bc 7997 1f3d 7a14 e23b
00000150: 3941 e53c c8e7 653c c3cf 173c 083a 803a
00000160: 92ef 10bc 3773 f6b9 b39f 10bb 3e73 9e3b
00000170: 2e33 7abb e769 0b3d cf87 413b 5900 9ebb
00000180: 2096 023c 298c 25bc b8aa 81bc 2fca 5dbc
00000190: 317d af3b b4b1 743c c546 16bb cba9 b53c
000001a0: 3d44 3f3c ebae 5ebb 3cf5 3fbc 6a96 cbbb
000001b0: 1aee 893c 7d9e 2a3c 956b 803c cb74 efbc
000001c0: e2dd 7cbc 02ab a53c ec2d 94ba 3b86 1c3c
000001d0: 8620 023c 38b4 8a3b 2ccf b5bb eef3 4e3b
000001e0: d64c beba d247 d73c db9c b83b 4e47 5ebd
000001f0: 2229 7abb f5c8 b33c 0047 fabb 594f b33c
00000200: bca9 44bc 07d6 d0bb bcdd 3b3d 0e75 15bc
00000210: 354d aa3a d6f8 c43c 8648 4339 2c58 c5bc
00000220: 206b 73ba a8c3 c739 b3ee a53c 68ba 273c
00000230: dde0 283d a764 19bc 5ba3 013d 9113 803b
00000240: 0a00 4f3c 0f5a 443c 458a b23b 9ba5 c23b
00000250: 8a7a 09bd 2e89 ca38 b078 0dbb 52c0 3a3c
00000260: 2321 55bc 1b0e 523c 3d1b a6bc 03a3 603c
00000270: 0108 43bc 8f9a 1abb fef8 053c 0072 c1bc
00000280: c16f 4ebc c03b 423c 3b44 ecbc faca cd3c
00000290: 7ea2 113c 540f 1f3c f777 a2bc 985f 1c3b
000002a0: 1b00 54bc 021e 8139 2c98 083c 2442 a439
000002b0: 631e ac3a 29ba ae3c 32a0 feba 01a1 123d
000002c0: 6448 ed3c 8b3f 573c e482 193b 5971 913b
000002d0: ccb9 953a 3499 79bc fd49 94bc 00ea 0e3c
000002e0: 524d 77bc 7b42 26bc 19e5 8cbc b1e9 c1bb
000002f0: a194 db3a 3c66 eb36 9e73 de3b 3377 c13b
00000300: ce45 123c 0926 b5bc dec7 33bc 4b58 933a
00000310: 6144 643c 57a6 543c 4ba2 49b8 17f9 fdbb
00000320: 466f 9bbc c323 da3b 36a1 623c ecf4 1bbd
00000330: aac8 dd3c 2396 82bc ed08 1c3d 4faf 813b
00000340: 81e3 6c3b cc53 b9bb 39d6 943c 2c99 f13c
00000350: 9f31 bfbc 8430 023c 54bd 62bc f1dd 763c
00000360: bb1d e1bb 4b31 37bc 469f 73bc 0725 873c
00000370: 059a 74ba 977c 88bc 31b3 ff3b d793 88bc
00000380: ad90 28bc fc00 a1bc 0451 973c 54db 56bc
00000390: 6c0f 80bc e843 c33b ff70 bd3c e690 683c
000003a0: 70ab 993b 6cfd a13c b33f 893c 67ed 1dbb
000003b0: 08da 423b f635 303d d8c1 b2bc 5f11 d2bb
000003c0: 731f 743c b921 073c 508e 0a3c a184 993c
000003d0: 6da1 de3c 31c9 9abb 7fc6 0c3d e20a 553c
000003e0: d99d 2f3c 6dea 70ba f6dc 75bc 78d4 483b
000003f0: ea7f f1bc 33d4 caba 44bd 593c c438 b7bc

action_model._continuous_distribution.mu.bias f4 [2]
-0.0007591681 0.00021477614
00000000: e902 47ba 8835 6139

exp_avg f4 [128, 6]
-5.1313637e-06 -2.3333588e-07 -1.4541246e-06 -4.6107175e-06 -2.3311271e-07 -7.504847e-06 0.0002534013 -1.099633e-05
-0.00010468602 0.00011670598 -1.0985306e-05 -0.0005339827 7.911795e-06 1.6096337e-07 7.07307e-06 9.214373e-06
1.6080021e-07 9.876394e-06 -7.650967e-06 7.153265e-07 -4.005691e-06 -3.917555e-06 7.1461216e-07 2.2177732e-05
-0.0007231461 3.1155054e-05 0.00031034506 -0.00029361504 3.1123822e-05 0.0015081151 6.6527595e-05 -3.3922815e-06
-1.8386509e-05 2.4536559e-05 -3.3888919e-06 -0.00014370869 -1.9633788e-05 -1.0863936e-06 -1.4357863e-05 -2.648164e-05
-1.0853066e-06 -3.1669897e-05 2.3370298e-07 9.752603e-09 3.1044993e-07 1.6319e-07 9.74292e-09 2.0788495e-07
0.00011129494 -5.6889244e-06 -5.3252654e-05 1.2568047e-05 -5.6832223e-06 -0.0002625211 9.993044e-05 -2.9837922e-06
-2.9905343e-05 4.8335507e-05 -2.9807925e-06 -0.00016462585 0.00041424824 -1.4384899e-05 -0.00013560383 9.370534e-05
-1.4370475e-05 -0.00072501594 -0.00014119767 7.1653326e-06 1.9826957e-05 5.1851216e-06 7.1581308e-06 0.00030664107
3.2140335e-07 -2.7143557e-08 -6.164607e-08 -5.177762e-07 -2.7116384e-08 -7.1442776e-07 -1.5103682e-05 9.4521306e-07
-5.5617033e-06 -5.631357e-06 9.442695e-07 3.1794785e-05 2.8805985e-06 -7.8296716e-07 -2.407142e-06 1.2179832e-05
-7.8217425e-07 -2.966729e-05 9.651761e-07 6.463232e-08 1.9326062e-06 1.3336071e-06 6.4567615e-08 1.6971094e-06
1.3482852e-06 5.952433e-07 1.272726e-05 3.268494e-05 5.946499e-07 2.9499965e-05 1.9484121e-05 7.0494133e-07
9.040442e-06 2.1583252e-05 7.04265e-07 2.7159265e-05 9.5632524e-05 -2.5071247e-06 -3.6147096e-05 5.0136863e-05
-2.5046145e-06 -0.00013758529 -4.4426546e-05 1.2238021e-06 1.8368608e-05 -3.816322e-06 1.2225834e-06 6.8963855e-05
-0.00037266238 1.6644415e-05 0.00017475923 -0.00011671255 1.662774e-05 0.0007966847 5.1317093e-06 9.0341865e-07
7.821969e-06 -1.22636975e-05 9.025093e-07 3.2956672e-05 -3.1404063e-05 1.5697611e-06 1.8225064e-05 -1.2265941e-05
1.5681888e-06 7.304605e-05 1.2396202e-06 4.0144165e-08 2.7845672e-07 3.6688922e-07 4.01043e-08 9.973859e-07
-0.0007553467 3.6562575e-05 0.00037524497 -0.00020412412 3.6525955e-05 0.0017283524 -0.00058454176 3.0015293e-05
0.00018591338 -0.00014262203 2.9985169e-05 0.0013632361 -1.7744273e-05 8.6488865e-07 8.080327e-06 -6.6796015e-06
8.640232e-07 3.999543e-05 -0.0001413262 6.0277016e-06 0.000104380815 -8.070173e-05 6.021669e-06 0.00031656958
-7.9134836e-05 3.7377843e-06 8.2032875e-06 -8.2805955e-06 3.734034e-06 0.00014822162 -0.0012311485 5.6096276e-05
0.00058466825 -0.00048099764 5.6040055e-05 0.0026788537 1.0077148e-05 -3.1812494e-08 -4.5698594e-06 1.7625136e-05
-3.175381e-08 -7.152574e-06 -0.0013200155 6.150637e-05 0.00060762616 -0.00043720097 6.1444734e-05 0.0029274973
-0.00036163337 1.373983e-05 0.00012200668 -0.00020524368 1.372604e-05 0.00064491417 0.00052093266 -2.0908801e-05
-0.0002524439 0.00021416435 -2.088785e-05 -0.0010449389 -2.5258618e-07 -2.319567e-07 1.6285442e-06 3.57456e-07
-2.3170954e-07 -5.1606057e-06 -0.00023950623 8.608539e-06 9.4688956e-05 -8.2775936e-05 8.599906e-06 0.00042213287
-3.4711382e-05 4.038642e-06 5.2333166e-05 5.1950163e-05 4.034584e-06 0.00018508334 -2.1712694e-07 -1.0575475e-08
-7.8457674e-08 -2.0100897e-07 -1.0564204e-08 -3.1020326e-07 -5.0969345e-05 4.9997625e-06 -3.282819e-05 -6.0399384e-06
4.9947516e-06 0.00016557127 7.653419e-06 -5.725408e-07 2.4690078e-06 -4.6874857e-06 -5.719795e-07 -1.3525998e-05
8.282429e-06 1.9406001e-07 -1.2038159e-05 -3.0735355e-05 1.9386408e-07 5.6779772e-06 -0.00064697646 2.8390143e-05
0.00039925688 -0.00026052137 2.8361672e-05 0.0014199093 -9.854777e-06 4.135997e-08 -1.3374072e-05 -1.098263e-05
00000000: 142e acb6 e18a 7ab4 572b c3b5 c3b5 9ab6
00000010: 894d 7ab4 25d2 fbb6 f2da 8439 e17c 38b7
00000020: e18a dbb8 0cc0 f438 884d 38b7 f9fa 0bba
00000030: e7bc 0437 46d5 2c34 3555 ed36 6e97 1a37
00000040: 6da8 2c34 cab2 2537 a75c 00b7 dd04 4035
00000050: a068 86b6 8b73 83b6 c6d3 3f35 510a ba37
00000060: 8391 3dba 7cac 0238 cfb5 a239 58f0 99b9
00000070: f38a 0238 f2ab c53a bb84 8b38 f4a6 63b6
00000080: ba3c 9ab7 dcd3 cd37 b86c 63b6 82b0 16b9
00000090: 3db3 a4b7 33d0 91b5 8de2 70b7 e424 deb7
000000a0: daaa 91b5 4bd5 04b8 c9ef 7a34 678c 2732
000000b0: eaab a634 5339 2f34 d161 2732 fb36 5f34
000000c0: 0467 e938 7de3 beb6 9a5b 5fb8 5adb 5237
000000d0: 82b2 beb6 fca2 89b9 bf91 d138 293d 48b6
000000e0: 3cdd fab7 dbbb 4a38 a009 48b6 6a9f 2cb9
000000f0: 752f d939 ac56 71b7 e030 0eb9 ac83 c438
00000100: b818 71b7 ff0e 3eba 760e 14b9 bd6d f036
00000110: 1152 a637 dbfb ad36 e02f f036 abc4 a039
00000120: 578d ac34 5029 e9b2 4962 84b3 4ffd 0ab5
00000130: 8fed e8b2 1ac7 3fb5 d265 7db7 8cba 7d35
00000140: ab9e bab6 fdf4 bcb6 b579 7d35 645b 0538
00000150: 4e50 4136 182d 52b5 628a 21b6 fb57 4c37
00000160: 9bf6 51b5 05de f8b7 338b 8135 fecb 8a33
00000170: ecb1 0136 64fe b235 6ca8 8a33 3cc8 e335
00000180: baf6 b435 cfc8 1f35 2a87 5537 3017 0938
00000190: 08a0 1f35 b176 f737 d571 a337 333b 3d35
000001a0: 67ac 1737 ae0d b537 b90c 3d35 14d4 e337
000001b0: 528e c838 1340 28b6 a69c 17b8 0c4a 5238
000001c0: f314 28b6 c544 10b9 a456 3ab8 8541 a435
000001d0: 4916 9a37 f50d 80b6 a517 a435 b0a0 9038
000001e0: e661 c3b9 9c9f 8b37 933f 3739 93c3 f4b8
000001f0: cd7b 8b37 9bd8 503a 0c31 ac36 7582 7235
00000200: 1a3b 0337 2ec0 4db7 f843 7235 f53a 0a38
00000210: dbb7 03b8 95b0 d235 07e2 9837 d1c9 4db7
00000220: 8f7a d235 4d30 9938 0761 a635 fa6a 2c33
00000230: cd7e 9534 dff8 c434 253f 2c33 ebdd 8535
00000240: 7502 46ba c45a 1938 87bc c439 270a 56b9
00000250: 7233 1938 e289 e23a ef3b 19ba 5ac9 fb37
00000260: bef1 4239 cf8c 15b9 a988 fb37 9dae b23a
00000270: 89d9 94b7 b22a 6835 bd90 0737 5721 e0b6
00000280: 39ef 6735 c4c0 2738 f730 14b9 9041 ca36
00000290: 06e7 da38 693e a9b8 be0d ca36 40f9 a539
000002a0: 31f5 a5b8 a5d6 7a36 daa0 0937 e3ec 0ab7
000002b0: 3796 7a36 f06b 1b39 7d5e a1ba eb48 6b38
000002c0: 6c44 193a 692e fcb9 8d0c 6b38 b58f 2f3b
000002d0: 0511 2937 35a2 08b3 cb56 99b6 b1d9 9337
000002e0: af61 08b3 2500 f0b6 5f04 adba fbfc 8038
000002f0: 1a49 1f3a 1f38 e5b9 e4db 8038 41db 3f3b
00000300: 9c99 bdb9 1f84 6637 d6dd ff38 ae36 57b9
00000310: e548 6637 750f 293a 338f 083a 4f65 afb7
00000320: 725a 84b9 4e91 6039 5138 afb7 55f6 88ba
00000330: 2e9b 87b4 c60f 79b4 5a94 da35 61e8 bf34
00000340: d5cb 78b4 4429 adb6 f723 7bb9 656d 1037
00000350: bf93 c638 fe97 adb8 5148 1037 b751 dd39
00000360: 1097 11b8 ac83 8736 4f80 5b38 10e5 5938
00000370: d060 8736 ee12 4239 6623 69b4 6eaf 35b2
00000380: 907c a8b3 edd4 57b4 dc7d 35b2 038a a6b4
00000390: ebc7 55b8 a2c3 a736 00b1 09b8 adaa cab6
000003a0: 9798 a736 339d 2d39 2f67 0037 b4b0 19b5
000003b0: 3bb1 2536 3249 9db6 228a 19b5 b8ed 62b7
000003c0: c3f4 0a37 cf5e 5034 80f7 49b7 d6e9 00b8
000003d0: f428 5034 7485 be36 db99 29ba 5e27 ee37
000003e0: 5a53 d139 9696 88b9 3aea ed37 401c ba3a
000003f0: f255 25b7 c5a3 3133 3461 60b7 0942 38b7

exp_avg_sq f4 [128, 6]
9.866875e-10 2.0466268e-12 1.4444965e-10 1.1004438e-09 2.0426085e-12 1.966548e-09 2.1779575e-08 1.2926617e-10
3.920955e-08 2.3848566e-08 1.2900897e-10 2.1906669e-07 8.389483e-09 5.5808216e-11 1.7757626e-08 3.573846e-08
5.569691e-11 5.9407174e-08 4.3821013e-09 1.9395242e-11 1.7284772e-10 7.368252e-10 1.9356504e-11 2.6532858e-08
6.126177e-07 6.154972e-09 1.4785606e-06 1.1214663e-06 6.1427152e-09 9.053664e-06 9.091925e-09 5.345146e-11
5.133736e-09 6.1319594e-09 5.3344967e-11 7.381539e-08 6.881794e-08 2.2117023e-10 5.7564485e-08 9.7931924e-08
2.2073142e-10 2.794251e-07 2.4200164e-11 1.9978374e-13 1.3530922e-10 1.3320317e-11 1.9938498e-13 1.5993802e-10
2.0611258e-08 1.2216834e-10 1.0978473e-08 1.9729564e-08 1.2192435e-10 1.790514e-07 8.32093e-08 7.4702744e-10
2.3311841e-07 1.4699917e-07 7.4553963e-10 1.0495138e-06 5.7708104e-07 8.625171e-09 2.567378e-06 1.7278496e-06
8.607982e-09 1.2737133e-05 1.8708178e-07 1.3902829e-09 5.347433e-07 1.3998e-07 1.3875097e-09 1.8805522e-06
5.6836827e-13 2.0394751e-15 2.1713627e-13 1.2989062e-12 2.0353998e-15 1.9064717e-12 2.2224371e-09 1.01199995e-11
3.13799e-11 3.7056147e-10 1.0099787e-11 1.3210033e-08 5.956242e-09 4.231311e-11 1.4992635e-08 4.1923753e-09
4.2229137e-11 5.1323404e-08 3.5595688e-10 2.0881808e-12 8.438456e-10 6.6713607e-10 2.0840296e-12 2.3344178e-09
1.0369151e-07 1.1908421e-09 3.8391215e-07 1.3757214e-07 1.1884688e-09 1.7245596e-06 6.263082e-08 1.4972534e-10
3.356389e-08 9.731513e-08 1.4942819e-10 1.509104e-07 2.8364974e-08 1.3180498e-10 2.7939036e-08 3.1896853e-08
1.3154103e-10 1.980454e-07 1.29738655e-08 1.3830678e-10 4.0456637e-08 8.025479e-09 1.3803006e-10 2.1535557e-07
6.5831365e-08 2.2842063e-10 5.1265577e-08 1.602171e-08 2.2796405e-10 4.297335e-07 9.528299e-09 9.01587e-11
4.838069e-08 5.930329e-09 8.997958e-11 9.064356e-08 3.351722e-09 3.074525e-11 1.388983e-08 2.367457e-09
3.068365e-11 3.707895e-08 5.0217764e-12 1.38600475e-14 7.308236e-13 7.8337255e-13 1.3832422e-14 1.4566888e-11
3.5346204e-07 2.384074e-09 5.6040676e-07 3.297917e-07 2.3793159e-09 3.8456055e-06 1.0943751e-06 9.830549e-09
2.9571777e-06 1.5783428e-06 9.810949e-09 1.51288905e-05 5.2820887e-10 2.284017e-12 1.571419e-11 8.480066e-11
2.2794548e-12 3.0316933e-09 2.1431296e-07 1.529797e-09 3.8263795e-07 1.9685864e-07 1.526744e-09 2.1738392e-06
2.8799846e-08 1.4103115e-10 1.2385277e-08 7.510329e-09 1.4074941e-10 2.5289543e-07 4.871975e-07 6.049219e-09
1.3307916e-06 5.8203216e-07 6.0371557e-09 9.387455e-06 1.3399477e-07 3.1903108e-10 5.5455022e-08 1.0021119e-07
3.1839867e-10 4.4412917e-07 9.908202e-07 9.881188e-09 2.3361692e-06 1.4273185e-06 9.861506e-09 1.583349e-05
3.686207e-07 4.182754e-09 1.5412669e-06 7.756515e-07 4.1744084e-09 5.3735553e-06 2.4726742e-07 2.0847113e-09
2.9818995e-07 1.9057218e-07 2.0805488e-09 3.1835482e-06 7.600657e-09 2.2351456e-11 5.3167746e-09 1.3188335e-08
2.2307177e-11 2.4498789e-08 1.01447064e-07 9.731119e-10 2.298857e-07 3.745031e-07 9.711694e-10 1.3134453e-06
1.9353052e-07 2.229884e-09 8.6756364e-07 2.9779466e-07 2.2254376e-09 3.0719684e-06 4.3978653e-12 8.697075e-15
7.567032e-13 4.894314e-12 8.680144e-15 8.125998e-12 8.873865e-08 3.7439965e-10 2.3837316e-08 1.4186398e-08
3.7365078e-10 6.143522e-07 1.3706622e-08 5.2231892e-11 8.5848555e-09 3.116563e-08 5.2127854e-11 6.4160055e-08
8.976096e-09 1.615506e-10 4.16869e-08 1.3624554e-08 1.612274e-10 2.2497129e-07 6.8964414e-07 2.7407527e-09
1.2926581e-07 1.1883176e-07 2.7352758e-09 4.1804224e-06 2.6417109e-08 2.655883e-10 5.328767e-08 1.2280525e-07
00000000: fb9b 8730 c004 102c f6d2 1e2f 6d3e 9730
00000010: 5dbc 0f2c e123 0731 cb15 bb32 3121 0e2f
00000020: 5b67 2833 8ddb cc32 ccd8 0d2f 9838 6b34
00000030: 5621 1032 7772 752e 6f89 9832 da7e 1933
00000040: 25f5 742e e126 7f33 5f91 9631 349a aa2d
00000050: 4f0c 3e2f 7789 4a30 f942 aa2d 5fea e332
00000060: c572 2435 b57b d331 f572 c635 4a85 9635
00000070: e50f d331 31e5 1737 b632 1c32 fe14 6b2e
00000080: d264 b031 49b1 d231 189d 6a2e 7184 9e33
00000090: 10c9 9333 e32d 732f d23c 7733 a54e d233
000000a0: 5fb2 722f e503 9634 eddd d42d beef 602a
000000b0: 29c6 142f 6055 6a2d cf7c 602a 8dda 2f2f
000000c0: a30c b132 5553 062f d69b 3c32 c579 a932
000000d0: a70e 062f 4641 4034 ccb0 b233 6257 4d30
000000e0: 1a4f 7a34 d3d6 1d34 b0ee 4c30 05dd 8c35
000000f0: b5e8 1a35 e72d 1432 384b 2c36 76e8 e735
00000100: 4ee2 1332 92b1 5537 a6e0 4834 3b14 bf30
00000110: 488b 0f35 694d 1634 a8b2 be30 4867 fc35
00000120: 40fb 1f2b adf5 1227 4579 742a 07ce b62b
00000130: 80aa 1227 f127 062c 87b9 1831 6d08 322d
00000140: a002 0a2e e4b7 cb2f 66ad 312d 57f2 6232
00000150: a9a7 cc31 5418 3a2e 27c9 8032 860c 9031
00000160: c8b9 392e ae6e 5c33 7ab0 c32f 52f1 122c
00000170: 5bf4 6730 8761 3730 8aa6 122c 836b 2031
00000180: 03ad de33 08ab a330 7c1c ce34 8bb7 1334
00000190: 8757 a330 6b77 e735 a87f 8633 f09f 242f
000001a0: e327 1033 8ffb d033 4c4c 242f ef09 2234
000001b0: 3da7 f332 ceeb 102f 97fe ef32 f6fe 0833
000001c0: 82a1 102f 4ea6 5434 aae3 5e32 e611 182f
000001d0: 8bc2 2d33 6ee0 0932 02c4 172f 7d3c 6734
000001e0: 2d5f 8d33 b126 7b2f 192f 5c33 1da0 8932
000001f0: 2da6 7a2f 1fb6 e634 e7b1 2332 d642 c62e
00000200: 22cb 4f33 bac3 cb31 00de c52e d3a7 c233
00000210: 1e54 6631 1338 072e 1ea0 6e32 beb0 2231
00000220: b8f2 062e bd40 1f33 24b0 b02c 30ae 7928
00000230: 64b5 4d2b f17f 5c2b ca2e 7928 b721 802d
00000240: 74c3 bd34 13d5 2331 dc6e 1635 3a0e b134
00000250: 5e81 2331 8009 8136 71e2 9235 36e3 2832
00000260: ed73 4636 72d7 d335 038d 2832 17d2 7d37
00000270: 6531 1130 31b9 202c 3639 8a2d 877a ba2e
00000280: 0267 202c 1d56 5031 e61d 6634 f240 d230
00000290: 5c6d cd34 1760 5334 87d5 d130 46e2 1136
000002a0: 8863 f732 bd10 1b2f 06c7 5432 c706 0132
000002b0: 70c1 1a2f afc5 8734 f5c7 0235 7ed9 cf31
000002c0: a79d b235 f23c 1c35 626f cf31 d07e 1d37
000002d0: 34e0 0f34 a263 af2f 712d 6e33 af33 d733
000002e0: a10a af2f a670 ee34 53fc 8435 edc1 2932
000002f0: 15c7 1c36 4a92 bf35 5d6b 2932 29d2 8437
00000300: d8e6 c534 e5b7 8f31 87dd ce35 5d36 5035
00000310: 7c6e 8f31 7d4e b436 2dc0 8434 a142 0f31
00000320: ea16 a034 15a0 4c34 67f9 0e31 f1a4 5536
00000330: 0b94 0232 019b c42d d8ae b631 e992 6232
00000340: 4c37 c42d 6871 d232 1ddb d933 55be 8530
00000350: 80d6 7634 500f c934 fc79 8530 a349 b035
00000360: 44cd 4f34 893c 1931 85e2 6835 96e0 9f34
00000370: 50ee 1831 0428 4e36 73bc 9a2c 2eac 1c28
00000380: 36fe 542b 1034 ac2c 195e 1c28 3ef4 0e2d
00000390: 9790 be33 11d4 cd2f d0c2 cc32 70b8 7332
000003a0: ac6a cd2f f6e9 2435 5c7a 6b32 e2b7 652e
000003b0: 987c 1332 f9da 0533 bf42 652e 5dc8 8933
000003c0: 4a35 1a32 74a0 312f 3b0b 3333 6c11 6a32
000003d0: 7b45 312f a38f 7134 fc1f 3935 d557 3c31
000003e0: 51cc 0a34 7330 ff33 7bf7 3b31 8e45 8c36
000003f0: d6eb e232 3b02 922f 6ade 6433 73dc 0334

exp_avg f4 [128]
-4.6622534e-07 -2.197061e-05 3.2160108e-07 1.4292167e-06 6.224765e-05 -6.7777823e-06 -2.1706135e-06 1.9485846e-08
-1.1366444e-05 -5.961586e-06 -2.8740948e-05 1.4316269e-05 -5.423276e-08 1.888542e-06 -1.5643487e-06 1.2913533e-07
1.1892974e-06 1.4085301e-06 -5.009234e-06 2.445168e-06 3.3255474e-05 1.8050196e-06 3.1363775e-06 8.0208615e-08
7.305191e-05 5.997035e-05 1.7280462e-06 1.204334e-05 7.468078e-06 0.00011208011 -6.3508345e-08 0.0001228895
2.7452075e-05 -4.1775707e-05 -4.63419e-07 1.7199816e-05 8.069165e-06 -2.1128402e-08 9.989513e-06 -1.143959e-06
3.877281e-07 5.6723336e-05 8.26313e-08 1.6432096e-13 9.382617e-05 -6.526333e-05 1.262129e-05 -8.744702e-05
-1.7479808e-08 2.9008593e-06 4.6728932e-08 3.3889657e-05 6.0764884e-05 -1.8563375e-06 5.234404e-05 4.5415425e-05
2.2890263e-06 2.5391167e-10 4.8709368e-05 -3.4019275e-05 -1.2634737e-05 -7.4370023e-06 3.2596246e-05 5.913704e-05
-7.3243086e-07 1.7508257e-06 2.2367163e-05 5.3905723e-08 1.539784e-05 3.740175e-08 -3.0376264e-05 -1.2977214e-06
-5.831096e-07 2.8934846e-05 7.992244e-05 -2.2783606e-06 -0.00010673144 5.729088e-07 -6.892312e-05 -4.6393874e-05
1.8133379e-06 2.6160777e-07 8.6459004e-05 -1.9249017e-06 1.0932283e-06 2.2058573e-06 1.1278465e-06 6.6519765e-06
-1.1761863e-05 1.51215345e-05 5.611547e-06 9.732637e-06 6.579503e-07 -1.6100556e-05 -9.862678e-08 -1.4426311e-07
1.34684105e-05 -2.748554e-06 1.00822115e-10 -2.0578043e-06 -1.8776622e-05 -5.3620784e-05 -1.0988933e-05 9.772292e-08
2.3537977e-07 -1.3687902e-08 -3.957763e-05 1.5587342e-05 -8.496128e-05 -4.9440605e-05 -2.1407139e-05 -4.1721556e-08
-5.2305217e-07 2.0445282e-06 1.5756669e-07 6.541084e-06 4.409824e-07 -4.4585468e-06 1.873539e-05 5.1017723e-05
-6.635569e-08 -3.414879e-05 -1.0465254e-05 2.0399743e-06 2.1088968e-06 3.6989115e-06 -1.8919183e-06 1.3350686e-06
00000000: 864d fab4 874d b8b7 84a8 ac34 83d3 bf35
00000010: f48a 8238 b56c e3b6 dbaa 11b6 d461 a732
00000020: 81b2 3eb7 a209 c8b6 b718 f1b7 e82f 7037
00000030: 8ded 68b3 cf79 fd35 9df6 d1b5 73a8 0a34
00000040: f39f 9f35 ba0c bd35 fe14 a8b6 ab17 2436
00000050: cb7b 0b38 0044 f235 8e7a 5236 273f ac33
00000060: 7233 9938 ac88 7b38 37ef e735 c00d 4a37
00000070: 4d96 fa36 8d0c eb38 1562 88b3 e6db 0039
00000080: e248 e637 5338 2fb8 d3cb f8b4 5348 9037
00000090: cd60 0737 d97d b5b2 a298 2737 228a 99b5
000000a0: f228 d034 38ea 6d38 0a73 b133 4b02 392a
000000b0: 8bc4 c438 fcdd 88b8 07c0 5337 c363 b7b8
000000c0: 8126 96b2 62ac 4236 01b3 4833 be24 0e38
000000d0: ccdd 7e38 4527 f9b5 fc8b 5b38 717c 3e38
000000e0: 2c9d 1936 e496 8b2f 494d 4c38 ebaf 0eb8
000000f0: c8f9 53b7 5d8b f9b6 f4b7 0838 ea09 7838
00000100: 449c 44b5 eafd ea35 1ea1 bb37 f885 6733
00000110: 9c2a 8137 a9a3 2033 88d0 feb7 5e2d aeb5
00000120: fd86 1cb5 1cb9 f237 099c a738 f0e5 18b6
00000130: 01d5 dfb8 fec9 1935 d18a 90b8 0b97 42b8
00000140: d161 f335 1973 8c34 5351 b538 8f2d 01b6
00000150: 0abb 9235 5708 1436 8360 9735 0b34 df36
00000160: d154 45b7 7fb2 7d37 d24a bc36 5c49 2337
00000170: 009e 3035 ae0f 87b7 a5cc d3b3 bee6 1ab4
00000180: 62f6 6137 cc73 38b6 ceb5 dd2e cf18 0ab6
00000190: 7d82 9db7 e1e6 60b8 1c5d 38b7 bedb d133
000001a0: b3bc 7c34 0828 6bb2 2800 26b8 90c1 8237
000001b0: 3d2d b2b8 725e 4fb8 7b93 b3b7 5631 33b3
000001c0: df67 0cb5 ba34 0936 9a2f 2934 7c7b db36
000001d0: 29c0 ec34 a09a 95b6 f229 9d37 ddfb 5538
000001e0: 6d7f 8eb3 fc3a 0fb8 ec93 2fb7 7ee6 0836
000001f0: 9286 0d36 d13a 7836 d1ed fdb5 9c30 b335

exp_avg_sq f4 [128]
8.170434e-12 5.160359e-10 2.2278761e-10 7.742601e-11 2.4570864e-08 2.1337988e-10 8.8292573e-10 7.975401e-13
4.876974e-10 2.9821583e-09 3.4431924e-08 5.550039e-09 8.141598e-15 4.039915e-11 1.6891656e-10 8.336117e-12
4.753875e-09 5.977128e-10 5.2616417e-10 5.521202e-10 9.1185615e-10 3.5991832e-10 1.2273459e-10 5.5329693e-14
9.517264e-09 3.9243805e-08 9.117819e-12 6.1069754e-09 5.629977e-10 2.4148623e-08 1.2735945e-09 3.944602e-08
1.6697633e-08 8.322195e-09 8.9228715e-11 3.884677e-09 8.90175e-09 3.4720575e-14 1.4946028e-09 2.0851139e-10
6.449096e-10 1.0941102e-08 1.060235e-09 4.5454114e-24 1.4254545e-08 9.35772e-09 1.1425482e-08 6.4290773e-09
1.1747826e-12 6.1613187e-10 4.2841297e-14 2.2223654e-09 1.1780553e-08 4.63397e-09 2.950962e-08 6.324398e-09
1.7146761e-09 2.1848268e-18 2.1270429e-08 7.712152e-09 3.0723553e-09 5.7743406e-09 8.964723e-10 1.4215523e-08
2.6728806e-09 1.8907542e-11 2.7921474e-09 5.0234462e-11 7.569391e-09 1.5874458e-12 3.8203365e-09 1.806699e-09
2.0182815e-11 4.0295673e-09 2.8932888e-08 3.5011574e-09 3.220696e-08 1.4126354e-08 2.2536419e-08 7.594859e-09
1.7211021e-10 1.3484142e-10 2.8311142e-08 1.872191e-12 1.6089233e-10 7.574455e-12 5.0881566e-09 3.35995e-10
1.5238616e-09 1.6924231e-08 4.076952e-10 2.045348e-10 1.3572935e-09 1.8167554e-09 1.0260468e-12 1.08489023e-13
3.1815348e-09 9.959753e-09 1.2371825e-19 2.430036e-11 3.957699e-09 1.0601148e-08 4.962471e-09 5.36252e-12
8.182541e-12 2.3431396e-12 1.1497933e-09 5.228908e-09 3.2281477e-08 1.6894914e-08 1.5771674e-08 7.2331945e-12
1.1999728e-08 3.4263337e-09 8.701619e-12 6.298695e-11 1.520982e-11 4.7182427e-09 4.20189e-09 1.2199282e-09
4.9528074e-13 2.5735525e-09 1.3328894e-09 3.8946845e-12 3.8280183e-09 2.705413e-09 2.5491044e-12 6.143074e-09
00000000: 5dbc 0f2d ccd8 0d30 23f5 742f f842 aa2e
00000010: e70f d332 199d 6a2f 60b2 7230 d27c 602b
00000020: a70e 0630 afee 4c31 4de2 1333 a9b2 be31
00000030: 7eaa 1228 66ad 312e c9b9 392f 89a6 122d
00000040: 8757 a331 4d4c 2430 83a1 1030 01c4 1730
00000050: 2ca6 7a30 00de c52f b7f2 062f cb2e 7929
00000060: 5f81 2332 058d 2833 0267 202d 86d5 d131
00000070: 71c1 1a30 626f cf32 9f0a af30 5c6b 2933
00000080: 7c6e 8f32 67f9 0e32 4d37 c42e fb79 8531
00000090: 4fee 1832 195e 1c29 a96a cd30 bd42 652f
000000a0: 7b45 3130 7af7 3b32 b4b7 9130 93d7 af18
000000b0: 27e4 7432 b0c3 2032 cd49 4432 c3e6 dc31
000000c0: 0156 a52b 6d5c 2930 a7f0 4029 44b8 1831
000000d0: 6c63 4a32 d538 9f31 577c fd32 fe4d d931
000000e0: cda9 eb30 3636 2122 2bb6 b632 677e 0432
000000f0: 7221 5331 a367 c631 a16b 7630 8838 7432
00000100: d0ad 3731 0050 a62d fadf 3f31 faee 5c2e
00000110: 890a 0232 c369 df2b 0944 8331 924f f830
00000120: a987 b12d 7374 8a31 1888 f832 0399 7031
00000130: ed53 0a33 5db0 7232 1c96 c132 8b7a 0232
00000140: b83c 3d2f 7c42 142f dc30 f332 65be 032c
00000150: 2ae7 302f 5040 052d e6d3 ae31 18b7 b82f
00000160: 1d70 d130 c760 9132 0022 e02f 6ee3 602f
00000170: 858b ba30 66b1 f930 3b67 902b aa4b f429
00000180: 27a2 5a31 751b 2b32 8c0f 1220 8cbf d52d
00000190: 4afc 8731 5820 3632 5b82 aa31 49ad bc2c
000001a0: e3f2 0f2d 40e2 242c c106 9e30 f6a9 b331
000001b0: dca5 0a33 4f20 9132 477a 8732 d37e fe2c
000001c0: 5d27 4e32 b374 6b31 9c14 192d 8082 8a2e
000001d0: 78c9 852d 1a1e a231 3760 9031 68aa a730
000001e0: bd68 0b2b 6ada 3031 e030 b730 3308 892c
000001f0: 9b87 8331 21ea 3931 9560 332c 0d13 d331
