MLAgentsProject/results/MoveToGoalForces1/MoveToGoal/MoveToGoal-269603.onnx (onnx, 72461 bytes, 7 tensors)

action_model._continuous_distribution.log_sigma f4 [1, 2]
0	0xbe7aaacf	-0.24479221
1	0xbe416831	-0.18887402

action_model._continuous_distribution.mu.bias f4 [2]
0	0x3d2e2436	0.042515002
1	0x3d4ded8e	0.050275378

action_model._continuous_distribution.mu.weight f4 [2, 128]
0	0xbc8fb899	-0.017544078
1	0xbd0393e8	-0.032123476
2	0x3d6fcb1d	0.058543313
3	0xbcbe2fa2	-0.023216072
4	0xbca0dc5f	-0.019636331
5	0xbdc3c376	-0.095587656
6	0xbd6027f9	-0.05472562
7	0xbd01baa1	-0.031672124
8	0xbcb07cbc	-0.021543853
9	0xbd8df67d	-0.069317795
10	0xbc41b393	-0.011822599
11	0xbcf30b1f	-0.029668389
12	0xbd8e6ca6	-0.06954317
13	0xbd2487e1	-0.040168647
14	0x3b694885	0.0035596204
15	0xbd0e0893	-0.034676146
16	0xbc75a313	-0.014992493
17	0xbd24c2d2	-0.040224858
18	0xbcbb4260	-0.022858799
19	0x3d802614	0.06257263
20	0x3d90aab6	0.070638105
21	0xbc559a90	-0.013037339
22	0xbbae15f8	-0.0053126775
23	0xbcf451ca	-0.029824156
24	0xbd0c4fda	-0.03425584
25	0x3d45511e	0.048173063
26	0xbca5f52a	-0.020258505
27	0x3cf6be92	0.030120168
28	0xbd04c164	-0.032410994
29	0x3d9e5089	0.077302046
30	0xbc9d4746	-0.019199025
31	0xbc8e211e	-0.017349776
32	0x3c9568df	0.018238483
33	0x3c816bcc	0.015798472
34	0xbb93ea4f	-0.0045140157
35	0xbc609caa	-0.013709227
36	0xbd33358e	-0.043752246
37	0x3d54df14	0.051970556
38	0xbd22be34	-0.039732173
39	0x3ca75886	0.020427953
40	0x3d6caa50	0.05777961
41	0x3d8c386a	0.06846698
42	0xbd74496a	-0.059640326
43	0xbdbaf135	-0.09128038
44	0x3c905ded	0.017622912
45	0xbd7a13a0	-0.061053872
46	0xbd1816d8	-0.03713116
47	0x3cb0fb42	0.021604184
48	0x3cacc552	0.021090183
49	0xbd1cd78e	-0.038291506
50	0xbd6008ea	-0.054696
51	0xbc6bf21d	-0.014400986
52	0xbc582520	-0.013192445
53	0xbd372c54	-0.04472001
54	0xbd77724c	-0.060411736
55	0xbc29696c	-0.010340076
56	0x3c033b55	0.008009751
57	0x3d4dedbb	0.050275546
58	0x3c9b7987	0.018978847
59	0xbcb451ce	-0.022011664
60	0xbd4e7791	-0.050406996
61	0x3ba0231d	0.0048869983
62	0xbd105e74	-0.035246328
63	0xbb1b0d70	-0.0023659132
64	0xbaf3d527	-0.0018602953
65	0xbcb28a2f	-0.021794407
66	0xbcaf6ef8	-0.021415219
67	0x3d009c0c	0.031398818
68	0xbcd34eaa	-0.025794346
69	0xbd4e7c9c	-0.050411806
70	0xbc2c2695	-0.010507246
71	0xbd72ee19	-0.0593091
72	0x3cea7a27	0.0286227
73	0xbcdad3e6	-0.02671237
74	0xbd92c37e	-0.071661934
75	0xbc4a8126	-0.012359893
76	0x3d260360	0.040530562
77	0xbcbf3970	-0.023342818
78	0x3c0b7840	0.008512557
79	0xbc2d86d6	-0.010591229
80	0xbbdef366	-0.0068039177
81	0x3d5c1c59	0.053737972
82	0xbd4cb910	-0.049981177
83	0x3c865ee4	0.01640267
84	0xbb18f597	-0.0023339742
85	0xbd90d1f9	-0.07071299
86	0xbc9b274d	-0.018939639
87	0xbd068656	-0.032842956
88	0xbcef0f93	-0.029182231
89	0xbd577d2c	-0.052609608
90	0xbc1f5469	-0.009724715
91	0xbd3dd246	-0.04634311
92	0x3d0c7b20	0.03429711
93	0x3ce22b32	0.027608488
94	0xbc5c94a8	-0.013463177
95	0xbd2e0de4	-0.042493716
96	0xbc39e18e	-0.01134528
97	0x3d3cd38e	0.04610019
98	0xbd1fb8b9	-0.038994525
99	0x3c7e26d3	0.015512186
100	0xbd8cc369	-0.06873209
101	0x3c9f1030	0.019416898
102	0xbce13e5c	-0.027495556
103	0x3b6a1c3f	0.0035722402
104	0xbcee1336	-0.029061895
105	0xbd1c28fb	-0.03812502
106	0xbcdba3fb	-0.02681159
107	0x3d84d25d	0.06485436
108	0x3db0f77d	0.08640955
109	0x3d67a3d4	0.056552723
110	0xba9435c3	-0.0011307526
111	0x3d117565	0.035512347
112	0xbca0ae16	-0.01961426
113	0xbd55dfc5	-0.052215356
114	0xbc0dde3e	-0.008658944
115	0xbce8889c	-0.028385453
116	0xbd6ebf4b	-0.0582879
117	0xbd93de56	-0.072201416
118	0xbcf9d057	-0.030494852
119	0x3cdb9f74	0.026809432
120	0x3b0397cc	0.0020079492
121	0x3cc3a448	0.023882046
122	0xbd3bea72	-0.04587788
123	0x3cf9cffd	0.030494684
124	0x3bee303d	0.007268934
125	0xbd46db21	-0.04854882
126	0x3d5c3b92	0.05376775
127	0xbd004c27	-0.031322625
128	0xbd1ead65	-0.03873958
129	0xbd6f37a4	-0.058402672
130	0x39768b53	0.0002351229
131	0xbcd5abb3	-0.02608285
132	0x3cf9ba5a	0.030484367
133	0xbcd9f8dc	-0.026607923
134	0x3cbafa2b	0.022824368
135	0xbbefeccd	-0.00732193
136	0xbb240a44	-0.0025030533
137	0x3c9e8937	0.019352539
138	0x3cca7148	0.02471222
139	0x3c30adf8	0.010783665
140	0xbd2a884b	-0.041633885
141	0x3d932315	0.07184426
142	0xbd11c237	-0.03558561
143	0x3c15f3d2	0.00915237
144	0xbcc19a46	-0.023633134
145	0x3d66cd62	0.056348212
146	0x3cd5b6dd	0.026088173
147	0xbce84626	-0.028353762
148	0xbcc5c5f6	-0.024142247
149	0x397f0ce8	0.00024323503
150	0x3d66b789	0.056327377
151	0x3cb61adc	0.022229604
152	0x3cf96267	0.03044243
153	0x3b9d5b56	0.004802148
154	0x3c755923	0.014974865
155	0x3d3bcb51	0.045848195
156	0x3cfb0502	0.030642036
157	0xbcb6aaf2	-0.02229831
158	0xbd84ca38	-0.06483883
159	0xbcb39e2a	-0.021926004
160	0xbd154389	-0.03644136
161	0x3c2efcb9	0.010680371
162	0x3b152ffd	0.00227642
163	0x3cab3218	0.02089791
164	0x3d131e1b	0.035917383
165	0xbd3e41b4	-0.046449378
166	0xbcdeb4a9	-0.027185755
167	0xbbf7282e	-0.0075426316
168	0x3d3cc800	0.046089172
169	0x3d0ca713	0.034339022
170	0xbb371101	-0.002793372
171	0x3d1d5924	0.03841509
172	0xbc4c1b6a	-0.012457708
173	0xbcc08b96	-0.02350406
174	0x3d048645	0.032354612
175	0xb9b26941	-0.00034029226
176	0xbcae7e03	-0.021300321
177	0x3cfbeb98	0.030751988
178	0xbd024151	-0.03180057
179	0xbce35cab	-0.027754148
180	0xbcfa8724	-0.030582018
181	0xbcc48240	-0.02398789
182	0xbca37901	-0.01995516
183	0x3b0106dd	0.0019687929
184	0x3cd38072	0.025818083
185	0xbd2e233f	-0.042514082
186	0x3acde1e7	0.0015707583
187	0x3cb43c4d	0.02200141
188	0xbc9effb0	-0.01940903
189	0x3cc0d5a3	0.02353937
190	0x3d512033	0.0510561
191	0xbc45c95e	-0.012071935
192	0xbd58f873	-0.052971315
193	0xbc74adf9	-0.014934056
194	0xbd19f1e1	-0.03758419
195	0x3c144a55	0.009050925
196	0xbadd3d4a	-0.0016879227
197	0x3ca6b70f	0.020350961
198	0x3c4fd515	0.01268508
199	0x3bc2052c	0.0059210267
200	0x3c7c2cfb	0.015391584
201	0x3c5851c8	0.013203092
202	0xbd15ff13	-0.03662021
203	0xbc21d4bf	-0.009877383
204	0xbd238e33	-0.039930534
205	0x3c9b0c0a	0.01892664
206	0xbba6cb13	-0.0050901263
207	0x3a808410	0.0009804983
208	0xbca51cd4	-0.020155348
209	0xbc353f79	-0.011062496
210	0xbc500484	-0.012696389
211	0xbc3209cc	-0.010866594
212	0x3c4760c7	0.01216907
213	0x3cece8c4	0.028919585
214	0x3c106bf6	0.008814802
215	0x3ccc4c26	0.024938654
216	0xbcf27f8d	-0.029601837
217	0xbc48431c	-0.012223031
218	0x3d806eaa	0.062711075
219	0xbc297da3	-0.0103448955
220	0x3be110a5	0.0068684393
221	0xbd225e4a	-0.039640702
222	0xbc8e41b2	-0.01736531
223	0x3cd0709c	0.025444321
224	0x3ad12392	0.0015956035
225	0xbd4788f1	-0.048714582
226	0x3ce41566	0.027842235
227	0xbbe7dc02	-0.0070757875
228	0xbc4f6912	-0.012659328
229	0xbd198b10	-0.037486136
230	0x3d1a6847	0.037697103
231	0x3cdee185	0.027207145
232	0x3bc51aa9	0.006015141
233	0x3cbaf885	0.022823581
234	0x3cb0b76b	0.021571836
235	0xbd530102	-0.051514633
236	0xbd76fd1b	-0.060299974
237	0xba88d761	-0.0010440164
238	0xbc634411	-0.013871209
239	0xbc719eb4	-0.01474731
240	0xbc50d14d	-0.012745214
241	0x3ce83146	0.028343808
242	0x3b50d334	0.0031864168
243	0x3c0e61eb	0.008690338
244	0x3d1f42aa	0.038881935
245	0x3d606e39	0.054792617
246	0x3a041d9b	0.0005039812
247	0xbd679623	-0.056539666
248	0xbd827f2c	-0.06371912
249	0x3b4ecff7	0.0031557062
250	0x3ca038eb	0.01955839
251	0xbc003616	-0.007825395
252	0xbc8fc8c4	-0.017551787
253	0x3cbc500e	0.022987392
254	0xb9109f42	-0.00013792238
255	0xbd25d3a7	-0.04048505

network_body._body_endoder.seq_layers.0.bias f4 [128]
0	0xba519873	-0.0007995434
1	0x3ceefcd7	0.029173298
2	0x3c079a5b	0.008276547
3	0x3cf48e68	0.02985306
4	0x3dadaee9	0.08480627
5	0xbdb5781b	-0.08860799
6	0x3c819efd	0.015822882
7	0x3c898bb7	0.016790254
8	0x3d978967	0.07399254
9	0xbb0d56c6	-0.0021566614
10	0xbe0b3b7b	-0.13596909
11	0x3d10cd0a	0.03535179
12	0xbe12ac75	-0.143236
13	0xbc28be3b	-0.010299261
14	0xbd8b2802	-0.0679474
15	0xbd7a215b	-0.061066967
16	0xbd1904ef	-0.03735822
17	0xbcbb5278	-0.022866473
18	0x3d8443b7	0.06458228
19	0xbd169544	-0.036763445
20	0xbe391d91	-0.18077685
21	0x3d029a9c	0.03188573
22	0xbe197825	-0.14987238
23	0x3b4bd96c	0.0031104935
24	0x3d9f0613	0.077648304
25	0xbb0b4452	-0.002125044
26	0xbd85b315	-0.06528298
27	0x3d18fa19	0.037347887
28	0xbdaf3b49	-0.085562296
29	0x3ccb4ee9	0.0248179
30	0x3c143d58	0.009047829
31	0xbe5a0cd1	-0.21293952
32	0x3d5ee93f	0.05442166
33	0x3bee2948	0.0072681047
34	0xbd0f1d4a	-0.03494004
35	0xbdc05f3f	-0.09393167
36	0xbd7e004c	-0.062012002
37	0xbd5e3c81	-0.05425692
38	0x3d109bcc	0.03530483
39	0xbbf5e858	-0.007504504
40	0xbd3439f8	-0.044000596
41	0xbd98852b	-0.07447275
42	0x3cc8e759	0.024524378
43	0x3a818dda	0.0009884194
44	0x3d3163f4	0.043308213
45	0xbd5082ac	-0.05090587
46	0xbd754949	-0.059884343
47	0x3c9b527a	0.018960226
48	0xbdba6d0d	-0.09102831
49	0xbd0d64d9	-0.034520004
50	0x3d15c9ed	0.036569525
51	0xbd4a264e	-0.049352936
52	0x3c7bf578	0.0153783485
53	0x3d8446b9	0.06458802
54	0xbd334856	-0.043770157
55	0xbda27eee	-0.07934366
56	0x3d9d7cf2	0.07689847
57	0x3d34831c	0.04407035
58	0xbdc47c07	-0.09593969
59	0x3dc71e63	0.09722593
60	0xbdcf2cc2	-0.10115959
61	0xbd55a170	-0.052155912
62	0xbda3878b	-0.07984837
63	0xbdbb1eeb	-0.091367565
64	0xbd945e91	-0.072445996
65	0xbc977aac	-0.018491112
66	0x3acd62ab	0.0015669664
67	0x3b3f09d3	0.0029150143
68	0xbb2b44c1	-0.002613351
69	0xbe080895	-0.13284524
70	0x3d396d52	0.04527027
71	0xbd4e38a2	-0.050346978
72	0x3d4330a7	0.04765382
73	0x3b88b479	0.0041719046
74	0x3de7a34f	0.113104455
75	0x3cabba96	0.020962995
76	0x3d82ec0b	0.06392678
77	0xbd832d8e	-0.06405173
78	0xbe256755	-0.161527
79	0xbd5b75d1	-0.053579155
80	0xbad176d3	-0.0015980847
81	0x3cc16bcd	0.023610974
82	0x3cde2b47	0.027120246
83	0x3c743beb	0.014906864
84	0xbd2802b6	-0.04101821
85	0x3dc46fd3	0.09591641
86	0xbc90460b	-0.017611524
87	0xbd872360	-0.06598544
88	0xbc008098	-0.007843159
89	0xbafcb383	-0.0019279573
90	0xb9c9f1ba	-0.00038517808
91	0xbc68a4b6	-0.014199426
92	0xbe5303d6	-0.20606932
93	0xbd0fedbd	-0.035138834
94	0xbbff397e	-0.007788836
95	0x3d4afb49	0.04955605
96	0xbd875283	-0.06607535
97	0x3c7cf7b2	0.015439915
98	0xbda07eac	-0.07836661
99	0x3da02de9	0.07821257
100	0xbc5f8989	-0.013643631
101	0x3c47faae	0.012205763
102	0x3ca8293f	0.02052748
103	0xbdf4505c	-0.1192939
104	0x3d52cfdf	0.051467773
105	0x3cc06ff0	0.023490876
106	0xbd3bc68c	-0.045843646
107	0x3a978a4f	0.0011561605
108	0x3bc000d8	0.0058594756
109	0x3da025af	0.078196876
110	0xbcfdf1a2	-0.030999009
111	0x3c154b0e	0.009112133
112	0xbd319016	-0.0433503
113	0x3d41ca34	0.047311977
114	0xbd1a79c3	-0.037713777
115	0xbd731ed4	-0.059355572
116	0xbdcc0bf0	-0.099632144
117	0xbd1a9378	-0.037738293
118	0x3d9957e3	0.07487466
119	0xbd4651c3	-0.048417818
120	0x3d57ab31	0.052653495
121	0xbd8a937a	-0.0676641
122	0xbd0aa80d	-0.033851672
123	0x3a5e7867	0.0008486569
124	0xbce07929	-0.027401524
125	0x3d0248b2	0.03180761
126	0xbccb2c22	-0.024801318
127	0xbd37d69e	-0.04488241

network_body._body_endoder.seq_layers.0.weight f4 [128, 6]
0	0xbdd179c1	-0.10228301
1	0x3e125b68	0.14292681
2	0xbe9275b1	-0.28605416
3	0x3f0ec838	0.5577426
4	0x3ecdc033	0.401857
5	0xbe51af48	-0.2047702
6	0xbf0a2292	-0.53959
7	0xbeb95bf4	-0.36202967
8	0x3dedcd8d	0.11611471
9	0xbf7807f7	-0.96887153
10	0xbdafde25	-0.085872926
11	0xbedd88bd	-0.43268386
12	0xbf58f848	-0.8475385
13	0xbd113aca	-0.035456456
14	0x3e227bb0	0.15867496
15	0x3e8441c0	0.25831413
16	0xbf0e5956	-0.55605066
17	0x3df27225	0.118381776
18	0x3ea0768f	0.31340453
19	0xbda0b97c	-0.07847878
20	0x3ea8cb9d	0.32967845
21	0x3f2229b6	0.63344896
22	0x3eef7293	0.467671
23	0xbf0f5902	-0.5599519
24	0xbf8f74f0	-1.1207561
25	0x3f271be7	0.6527695
26	0x3ec64376	0.38723344
27	0x3e984cc9	0.29746082
28	0x3e3c6deb	0.18401305
29	0xbe0d228a	-0.13782707
30	0x3ef4227b	0.47682557
31	0x3e8e51eb	0.27796873
32	0xbc57682a	-0.013147393
33	0x3e27366c	0.16329354
34	0xbee66d68	-0.45005345
35	0x3ed83fbc	0.42236125
36	0x3e33af59	0.17547359
37	0xbeb6e486	-0.35721225
38	0x3e5b6faa	0.21429315
39	0xbf55703d	-0.8337439
40	0xbda96b42	-0.08272411
41	0xbece1b4a	-0.40255195
42	0xbf1d572d	-0.61461145
43	0x3ed7106a	0.4200471
44	0xbf2d5cb2	-0.67719567
45	0x3e55cb6b	0.20878379
46	0xbebe3677	-0.37150928
47	0xbe866b29	-0.26253632
48	0x3f94a50f	1.1612872
49	0x3efedfe4	0.4978019
50	0xbe94cb9a	-0.29061586
51	0xbe7478e1	-0.23874237
52	0x3e0b308c	0.13592738
53	0xbe9e34b7	-0.30899593
54	0x3ec909c9	0.39265278
55	0xbe16c1ba	-0.14722338
56	0x3e9702fd	0.29494467
57	0x3e03fe33	0.12889938
58	0x3eb2b933	0.3490692
59	0x3d42ad41	0.04752851
60	0xbdfacfe1	-0.12246681
61	0xbedced06	-0.43149585
62	0xbe84f962	-0.25971514
63	0xbda0c637	-0.078503065
64	0x3e8402e8	0.25783467
65	0x39411a05	0.00018415607
66	0x3e466096	0.19372782
67	0xbecbeb8d	-0.39828148
68	0x3d961d86	0.0732985
69	0x3ea5359b	0.3226746
70	0x3f21c929	0.6319757
71	0x3e22063a	0.15822688
72	0xbd3a3f89	-0.045470748
73	0x3d55509a	0.05207882
74	0xbd96fbfb	-0.0737228
75	0xbdfb4bf8	-0.12270349
76	0xbd86cbb3	-0.06581821
77	0xbe82cb97	-0.25545952
78	0x3f09f21a	0.5388504
79	0x3ef8f729	0.48626068
80	0x3e728922	0.23685125
81	0x3da024f9	0.07819552
82	0x3df9c4f5	0.1219577
83	0x3e191ce2	0.14952424
84	0x3e14382c	0.14474553
85	0x3ee6ff61	0.45116714
86	0x3e69b8a2	0.22824338
87	0xbeb55c58	-0.35422015
88	0xbe56b8fd	-0.20969005
89	0xbe8d9d15	-0.27658907
90	0xbd8dbe32	-0.069210425
91	0x3f2a0fec	0.66430545
92	0xbe5c4ca6	-0.21513614
93	0x3ebae32c	0.36501443
94	0xbf24cfdd	-0.64379674
95	0xbe880144	-0.26563466
96	0xbe3a5dad	-0.18199797
97	0xbf24206a	-0.6411196
98	0x3eaa54cb	0.33267817
99	0xbe802f67	-0.25036165
100	0xbecd73c3	-0.40127382
101	0x3eee9703	0.46599588
102	0x3f03207b	0.51221436
103	0x3e90fd87	0.28318426
104	0xbe59f7c5	-0.21285923
105	0xbe97f0e7	-0.2967598
106	0xbf1301c1	-0.5742455
107	0xbe31af16	-0.17351946
108	0x3d2641ec	0.04059021
109	0xbc8314cb	-0.016001126
110	0xbe271473	-0.16316395
111	0x3ee78273	0.45216712
112	0x3e382e00	0.17986298
113	0x3c606ea5	0.013698255
114	0x3dece8ce	0.115678415
115	0x3effbb8b	0.4994777
116	0x3e6af5da	0.22945347
117	0xbec36a9a	-0.38167268
118	0x3e8eb5ec	0.2787317
119	0x3ef8f089	0.48621014
120	0x3f337154	0.700948
121	0xbec77931	-0.3895965
122	0x3e970f46	0.2950384
123	0xbe91d936	-0.2848603
124	0xbee574c3	-0.44815645
125	0x3f60a182	0.8774644
126	0xbeb07a72	-0.34468418
127	0xbdfa2e0b	-0.12215813
128	0xbedaf1e4	-0.42762673
129	0xbd37ab68	-0.0448412
130	0xbf1ff23a	-0.62478983
131	0xbdc4ea58	-0.0961501
132	0xbe978ce7	-0.29599687
133	0x3f273b4c	0.65324855
134	0xbd382c35	-0.044964034
135	0x3f01ce96	0.5070585
136	0xbea6a038	-0.32544112
137	0x3e622ba3	0.22086959
138	0x3e76d690	0.24105287
139	0x3ebbc49b	0.36673436
140	0xbe57451e	-0.2102246
141	0x3dd8a6a3	0.105786584
142	0x3d58188f	0.052757796
143	0xbdc93d35	-0.098261274
144	0xbe1d7334	-0.15375978
145	0xbdbcfa5a	-0.09227438
146	0xbe894e43	-0.2681752
147	0xbe0aed47	-0.13567077
148	0xbf8333aa	-1.0250142
149	0xbe3ddab2	-0.18540457
150	0xbee71946	-0.4513647
151	0x3ea36b67	0.3191788
152	0xbef80ab8	-0.48445678
153	0xbc8a67f8	-0.01689528
154	0xbfb9f2df	-1.4527243
155	0x3e798288	0.243662
156	0x3ccb8e39	0.02484809
157	0x3f40f0a3	0.7536718
158	0x3ed55367	0.41665193
159	0xbead6283	-0.3386422
160	0x3dd5526e	0.10416113
161	0x3e2c45ce	0.16823503
162	0xbf0a2991	-0.53969675
163	0x3e2fcb7a	0.17167464
164	0xbf3254e8	-0.69660807
165	0xbde63d2b	-0.112421356
166	0xbf813d56	-1.0096843
167	0x3e3add29	0.18248428
168	0x3e6c4a42	0.23075202
169	0xbba0157e	-0.0048853746
170	0x3f0c60ae	0.5483502
171	0x3f62bbf5	0.8856805
172	0xbd3d7b24	-0.046260014
173	0x3e606891	0.21914889
174	0xbeb8edb7	-0.36118862
175	0xbf505cec	-0.8139179
176	0x3da96fff	0.08273315
177	0xbf1a5e0e	-0.60299766
178	0x3d1461c5	0.036226053
179	0x3e1239ea	0.14279905
180	0xbf05723d	-0.5212744
181	0xbef8caca	-0.48592216
182	0x3d9065d4	0.07050672
183	0xbeb3265d	-0.34990206
184	0x3e9a87a8	0.30181623
185	0x3ea7d5e7	0.32780382
186	0x3d1c8ce7	0.038220312
187	0x3e98d5d7	0.29850647
188	0x3ed0fc37	0.40817425
189	0xbe30f59f	-0.17281197
190	0xbe98fec0	-0.2988186
191	0x3ee41cb8	0.4455316
192	0x3e266a6e	0.16251537
193	0x3f9ab983	1.2087864
194	0x3e2473f4	0.16059858
195	0xbe8504b9	-0.25980166
196	0xbf01e479	-0.50739247
197	0xbea9b380	-0.3314476
198	0x3e798d1a	0.24370232
199	0xbc059356	-0.008152803
200	0xbdca680d	-0.09883127
201	0xbf88107f	-1.0630034
202	0xbe553509	-0.20821013
203	0x3ec7811f	0.389657
204	0x3f1ebc53	0.6200611
205	0x3e56b4a0	0.2096734
206	0xbe6db527	-0.23213635
207	0xbcc3a2fd	-0.02388143
208	0x3ecd115d	0.4005231
209	0xbc6b909c	-0.014377739
210	0xbb7fa081	-0.003900558
211	0x3f121513	0.57063407
212	0x3f6daae0	0.9283886
213	0xbf08f855	-0.53503925
214	0xbe435ba9	-0.19077934
215	0xbe9ec83f	-0.3101215
216	0x3f677e68	0.90427256
217	0x3dae1a44	0.085011035
218	0x3e2c5092	0.1682761
219	0x3d4cd3b8	0.0500066
220	0x3cfec2aa	0.031098682
221	0x3db32351	0.087469704
222	0xbd0cedd9	-0.034406517
223	0x3d2fa62b	0.04288308
224	0x3e5dbac7	0.21653281
225	0x3ec640b0	0.38721228
226	0xbe88cb6f	-0.26717708
227	0x3e0771f8	0.1322707
228	0x3dba7cd2	0.09105839
229	0xbf2e7b41	-0.6815682
230	0x3e2a286f	0.16616987
231	0xbf51c8c8	-0.8194699
232	0xbed68ffd	-0.4190673
233	0x3d605b4f	0.05477458
234	0x3e4ca2d9	0.19983996
235	0x3d9e0f41	0.07717753
236	0xbdaf4c8d	-0.08559523
237	0x3e452813	0.19253568
238	0xbe72a9b2	-0.23697546
239	0x3f1b2f71	0.60619265
240	0x3e0aa32e	0.1353881
241	0xbcfb3989	-0.030667083
242	0x3f0a7721	0.54088026
243	0xbe8c14c2	-0.27359587
244	0x3d9b52b9	0.075841375
245	0xbef3fbe4	-0.47653115
246	0x3e189b30	0.1490295
247	0x3f05bd9b	0.5224244
248	0xbe9108ec	-0.2832712
249	0x3ecccbf8	0.39999366
250	0xbe8c734c	-0.27431715
251	0x3eb1a2e2	0.34694582
252	0xbecc60e2	-0.39917666
253	0xbefac135	-0.4897553
254	0xbeceb27c	-0.40370548
255	0xbebf5b98	-0.37374568

network_body._body_endoder.seq_layers.2.bias f4 [128]
0	0xbd8bc3f1	-0.06824482
1	0xbc886354	-0.016648926
2	0xbce9b4d5	-0.02852861
3	0xbc6de62d	-0.01452021
4	0xbd18930b	-0.037249606
5	0x3bd3b0eb	0.0064602992
6	0xbd4462f2	-0.047945924
7	0xbdb225f1	-0.08698643
8	0xbdbe159b	-0.09281465
9	0xbbd6bc5a	-0.006553215
10	0xbd3dd5ce	-0.04634648
11	0xbdb15173	-0.08658113
12	0x3bc97815	0.006148348
13	0x3cb1740a	0.021661777
14	0xbce35b06	-0.027753364
15	0xbd90f476	-0.07077877
16	0xbd723ad2	-0.059138127
17	0xbd2b8a99	-0.041880224
18	0xbd2ba770	-0.041907728
19	0xbcfd0cf4	-0.030889966
20	0xbd0ac5f1	-0.033880178
21	0xbda260d3	-0.07928624
22	0x3bae1767	0.0053128484
23	0xbd50c624	-0.05097021
24	0x3b843829	0.004035015
25	0xbd31696c	-0.04331343
26	0xbd436882	-0.04770709
27	0xbb7a5610	-0.003819827
28	0xbd71e833	-0.059059333
29	0xbd01a048	-0.031646997
30	0x3c0620b4	0.008186508
31	0xbd8cb302	-0.068700805
32	0xbd0834ec	-0.033253595
33	0xbda679a9	-0.081286736
34	0xbd8239cd	-0.06358681
35	0xbd98809e	-0.07446407
36	0xbd3cfd1b	-0.046139818
37	0xbc42ff5b	-0.011901702
38	0xbd56ad4c	-0.052411363
39	0xbd967c1d	-0.073478915
40	0xbcbbf221	-0.022942604
41	0xbccf1cd3	-0.0252823
42	0xbca19bbd	-0.019727582
43	0x3cab703a	0.020927537
44	0xbd1284e8	-0.03577128
45	0xbca1c1d7	-0.01974575
46	0xbc97d6aa	-0.018534977
47	0xbd8d8863	-0.06910779
48	0xbd4c395e	-0.049859397
49	0xbd97a9ab	-0.074054085
50	0xbd370efd	-0.04469203
51	0xbd5a0ab3	-0.05323286
52	0xbd8752f2	-0.066076174
53	0xbcc281ad	-0.023743475
54	0xbb83d1b0	-0.0040227994
55	0xbd8f6b73	-0.07002916
56	0xbd9d1534	-0.0767006
57	0x3bbaf4f9	0.0057054725
58	0xbdb6ad3d	-0.08919761
59	0xbd8df3ea	-0.069312885
60	0x3bc13584	0.005896272
61	0xbcdd3bc0	-0.02700603
62	0xbc4fe8b8	-0.012689762
63	0xbd9235df	-0.07139181
64	0xbce3a8bc	-0.02779042
65	0xbcb2f781	-0.021846535
66	0x3bfc54a4	0.0077005196
67	0xbbc7e0ea	-0.00609981
68	0xbd19001f	-0.03735363
69	0xbd073731	-0.03301162
70	0xbd29ec49	-0.041485105
71	0xbd3d9155	-0.046281178
72	0xbc683c34	-0.01417451
73	0xbd69e6b5	-0.057104785
74	0xbd15e0cb	-0.036591332
75	0xbd543b1a	-0.051814176
76	0xbc7d673e	-0.015466509
77	0xbd10c2ba	-0.035341956
78	0xbd9e703c	-0.07736251
79	0xbd84434a	-0.06458147
80	0xbd0262d1	-0.03183252
81	0xbd436c6a	-0.047710814
82	0xbd007551	-0.03136188
83	0xbd83c835	-0.06434671
84	0xbd5989d2	-0.05310995
85	0xbc5e2a4f	-0.013559892
86	0xbd470aa1	-0.04859412
87	0x3bae2690	0.0053146556
88	0xbc36b983	-0.011152628
89	0xbc6eb6fa	-0.014569992
90	0xbc84f1d4	-0.016228594
91	0xbd175d3e	-0.036954157
92	0xbd70aa57	-0.0587562
93	0xbc6fd5ea	-0.014638403
94	0xbc3a8ce0	-0.011386126
95	0xbd2a209e	-0.041535012
96	0xbc3b0b1f	-0.011416226
97	0x3d1b6a73	0.037943315
98	0xbd6586fd	-0.056036938
99	0xbd6ca95b	-0.057778697
100	0xbc860570	-0.016360015
101	0xbd3317ed	-0.04372399
102	0xbd7973cb	-0.060901444
103	0xbca4d4ed	-0.020121062
104	0xbd503328	-0.050830036
105	0xbd3e75f9	-0.046499226
106	0xbd6c7302	-0.057726867
107	0xbd16635d	-0.036715854
108	0xbc0c4234	-0.008560706
109	0xbd63ce4d	-0.055616666
110	0xbd666c89	-0.05625585
111	0xbc9d0568	-0.019167617
112	0xbd2e75d9	-0.042592857
113	0xbca33709	-0.019923704
114	0xbd488f55	-0.048964817
115	0xbd44640c	-0.047946975
116	0xbcd7e029	-0.026352005
117	0x3b807e72	0.0039213235
118	0xbd986eb5	-0.07442991
119	0xbd083ba0	-0.033259988
120	0xbaab96ec	-0.0013091243
121	0x3b35b845	0.0027728241
122	0xbd200805	-0.039070148
123	0xbd3752ef	-0.044756826
124	0xbd83384c	-0.06407222
125	0xbd0cbc5a	-0.034359314
126	0xbc83203b	-0.01600658
127	0xbd1510a4	-0.036392823

network_body._body_endoder.seq_layers.2.weight f4 [128, 128]
0	0x3e5db25b	0.21650068
1	0x3e32a053	0.17443971
2	0x3d364e49	0.044508252
3	0xbdf92423	-0.12165096
4	0x3d35a24f	0.044344243
5	0xbd97a303	-0.07404139
6	0x3d732a27	0.05936637
7	0x3e0d76f5	0.1381491
8	0xbde79e65	-0.11309508
9	0x3d2f8d93	0.042859625
10	0xbe7256e9	-0.23665966
11	0x3e1eaab3	0.15494804
12	0xbd4a1b2b	-0.049342316
13	0x3db107a6	0.08644037
14	0xbd4ce8d1	-0.05002672
15	0xbd71af6b	-0.059005182
16	0xbe7893d4	-0.24275142
17	0xbdec6f5f	-0.1154468
18	0xbd8b837a	-0.068121865
19	0xbe3a0de6	-0.18169364
20	0x3d55cfdd	0.052200187
21	0xbe0ee3b9	-0.13954057
22	0x3c3b5f2e	0.011436267
23	0x3d7defac	0.061996147
24	0xbd97bb5c	-0.07408783
25	0x3cb7965b	0.022410562
26	0xbcf374a6	-0.029718708
27	0xbe07a4b4	-0.13246423
28	0xbd302d03	-0.043011677
29	0xbdc14f58	-0.09438962
30	0xbd7bd3de	-0.06148135
31	0xbca0e739	-0.019641506
32	0x3d4390f0	0.047745645
33	0xbca2633f	-0.019822715
34	0xbde6894b	-0.11256655
35	0x3c3f7ff1	0.011688218
36	0x3de84bd6	0.113425896
37	0xbd547214	-0.051866606
38	0x3ce70e3c	0.02820503
39	0xbda524d3	-0.08063664
40	0x3d9a5297	0.07535284
41	0xbd9ffe4b	-0.078121744
42	0x3d34552f	0.04402655
43	0x3ce986e2	0.0285067
44	0x3d8ec3b1	0.06970919
45	0xbd12aa7d	-0.03580712
46	0xbe5dae84	-0.21648604
47	0xbd39a612	-0.045324393
48	0x3e7002d9	0.23438586
49	0xbc1ff751	-0.009763555
50	0xbda0da5b	-0.07854148
51	0x39984a11	0.00029046883
52	0xbe064433	-0.13111953
53	0xbb31ed62	-0.0027149548
54	0xbd9e1c65	-0.077202596
55	0xbe0b79ec	-0.13620728
56	0x3e05c479	0.1306323
57	0x3d4900cf	0.049073037
58	0xbe19fc5a	-0.1503767
59	0xbd06dcfb	-0.032925587
60	0xba84f625	-0.0010144158
61	0x3d5a2587	0.053258445
62	0xbe239c0f	-0.159775
63	0xbe2a659c	-0.16640323
64	0xbd8316f8	-0.06400865
65	0xbe56b609	-0.20967878
66	0xbce13f27	-0.027495934
67	0x3d342143	0.043977033
68	0xbd1d49f8	-0.03840062
69	0xbd347800	-0.044059753
70	0x3cfb42ed	0.030671561
71	0x3d99366d	0.07481084
72	0x3e66bd43	0.22533135
73	0x3de96b9d	0.11397479
74	0x3cf0e522	0.029406134
75	0x3e3490a6	0.17633304
76	0xbcc1f4be	-0.023676272
77	0x3d693c7a	0.05694244
78	0xbdc2e5b1	-0.095164664
79	0xbd2d4431	-0.04230136
80	0xbe5da2df	-0.21644162
81	0xbc176631	-0.009240673
82	0xbc69aed9	-0.014262878
83	0xbe1296ba	-0.1431531
84	0xbd983d3e	-0.07433556
85	0xbe30a6cd	-0.1725113
86	0x3d94689f	0.072465174
87	0x3baea493	0.0053296774
88	0xbd7d1d2b	-0.061795395
89	0x3d802cd7	0.062585525
90	0xbdbb5591	-0.0914718
91	0xbdd2d1d3	-0.10293927
92	0x3e83bfaa	0.25732166
93	0xbe3d3ddc	-0.18480629
94	0xbe4386f4	-0.1909445
95	0xbdc35e35	-0.09539453
96	0x3da3cc70	0.07997978
97	0xbdafb6f5	-0.08579818
98	0xbde784fd	-0.113046624
99	0xbde81fad	-0.11334167
100	0xbd1afaaa	-0.037836708
101	0x3dbeb8bc	0.09312579
102	0xbb60d838	-0.0034308564
103	0xbd9d915a	-0.07693739
104	0x3b9d8145	0.00480667
105	0xbd601801	-0.054710392
106	0xbd9aee3f	-0.07564973
107	0xbd4cadda	-0.049970485
108	0xbd0a7884	-0.03380634
109	0xbdccaaab	-0.0999349
110	0xbdf6c965	-0.12050132
111	0x3d5dc7d4	0.05414565
112	0xbe0fb80b	-0.1403505
113	0xbcf75de1	-0.030196132
114	0xbcca5820	-0.024700224
115	0xbd820dd7	-0.06350296
116	0xbdc27a0a	-0.09495933
117	0xbc4ae96f	-0.0123847565
118	0x3d5cc2a1	0.05389655
119	0xbd1a1188	-0.037614375
120	0x3ddf8f74	0.109160334
121	0xbc4d7dd1	-0.012542204
122	0x3c38d9cb	0.011282395
123	0xbc38b870	-0.011274442
124	0x3dee4e36	0.11636011
125	0x3dcd7741	0.100325115
126	0xbd4abac6	-0.049494527
127	0x3b55303f	0.0032529978
128	0xbcbb854c	-0.02289071
129	0xbd7dfe21	-0.062009934
130	0xbe1f21f3	-0.15540294
131	0xbda18848	-0.07887322
132	0xbdf471ca	-0.11935766
133	0xbca82a40	-0.020527959
134	0x3e4b3b63	0.19846873
135	0x3e7c0987	0.2461301
136	0xbe12ae9e	-0.14324424
137	0xbc57ebbb	-0.013178761
138	0xbd6d167e	-0.05788278
139	0xbd9e97b0	-0.07743776
140	0x3c65b9f4	0.014021385
141	0xbdbc96af	-0.09208428
142	0xbe028cf3	-0.1274908
143	0x3e4af536	0.19820103
144	0xbde2e007	-0.11077886
145	0x3d810448	0.06299645
146	0xbd8f39e7	-0.06993466
147	0xbd9ff9d7	-0.07811325
148	0xbdf9b5ac	-0.12192854
149	0x3dcc2eb4	0.099698454
150	0x3b669277	0.0035182515
151	0x3d77c835	0.060493667
152	0x3cac2a30	0.02101621
153	0xbdcd92ed	-0.100377895
154	0x3b2defb6	0.0026540584
155	0x3dcb0d80	0.09914684
156	0x3c9834e7	0.018579913
157	0xbc69a6c1	-0.014260949
158	0x3da136e3	0.07871797
159	0xbe202cfd	-0.15642162
160	0x3d632236	0.055452548
161	0xbdd04ec7	-0.101712756
162	0xbd52b92e	-0.051446132
163	0x3bb01f4a	0.0053748237
164	0xbc03b637	-0.008039049
165	0x3c083ad6	0.008314809
166	0xbdff25ea	-0.124584034
167	0x3cafdf5a	0.021468807
168	0x3d4ae351	0.049533192
169	0x3dc2c3a8	0.09509975
170	0x3db60d66	0.08889274
171	0xbd1f507b	-0.03889511
172	0x3d41801d	0.04724132
173	0x3e0de1ad	0.1385562
174	0xbda9ecff	-0.082971565
175	0xbdcf13cf	-0.101112
176	0xbddd6c54	-0.108116776
177	0x3dc258bd	0.09489582
178	0xbd635880	-0.055504322
179	0xbd9a4f20	-0.07534623
180	0xbdacb307	-0.08432584
181	0xbdca333c	-0.098730534
182	0xbe47d362	-0.1951423
183	0x3e4e40d1	0.20141913
184	0x3e0044d3	0.12526254
185	0xbcbf46da	-0.023349214
186	0xbc01a68f	-0.007913246
187	0xbe097986	-0.13425264
188	0xbd94f721	-0.072736986
189	0x3dc5529f	0.09634899
190	0x3e91a0b6	0.28442925
191	0xbd949f9f	-0.07257008
192	0x3d9b4c27	0.07582884
193	0xbca289ca	-0.019841094
194	0x3e0e2aa3	0.13883452
195	0xbdb1f64a	-0.08689554
196	0x3dc353bc	0.095374554
197	0x3dcaf6f9	0.099103875
198	0x3da9e013	0.08294692
199	0x3cffa5aa	0.031206924
200	0x3da4efbc	0.08053538
201	0x3e24b29e	0.16083762
202	0x3d161128	0.036637455
203	0x3d0f3385	0.034961242
204	0xbd62db15	-0.055384714
205	0xbdbcb8e6	-0.09214954
206	0xbe586888	-0.21133626
207	0xbcb8c39d	-0.022554213
208	0xbe695120	-0.22784853
209	0xbe1a8df7	-0.15093218
210	0xbdaa43c4	-0.083137065
211	0x3d9c88b4	0.076432616
212	0x3cb4862f	0.02203664
213	0xbc0c2b93	-0.008555311
214	0xbd6fbab3	-0.05852766
215	0xbe0a436f	-0.13502286
216	0xbe0d9092	-0.1382468
217	0x3de575d5	0.11204115
218	0xbe49b3a4	-0.19697434
219	0xbd2575ad	-0.040395427
220	0x3dec0326	0.11524038
221	0x3e01d06e	0.12677166
222	0xbe2a25e1	-0.16616012
223	0xbdd7f5aa	-0.105449036
224	0x3d55e26c	0.052217886
225	0x3dd33507	0.103128485
226	0xbe94429c	-0.2895707
227	0xbd2e7098	-0.042587847
228	0x3cf1f414	0.02953533
229	0x3db650bc	0.089021176
230	0x3dd8fc07	0.105949454
231	0xbd208069	-0.03918496
232	0xbe49d771	-0.1971109
233	0x3d7c1b82	0.06154967
234	0xbbcf4be3	-0.006326185
235	0x3c33b88a	0.0109692905
236	0x3d4dbf62	0.050231345
237	0xbdb06506	-0.08613019
238	0x3dd41d4c	0.103571504
239	0xbd61bb5d	-0.055110324
240	0xbdd4c29d	-0.10388682
241	0x3d525078	0.051346272
242	0x3d96f2a8	0.07370502
243	0x3d3b1392	0.04567296
244	0xbdc5279a	-0.09626694
245	0x3d357beb	0.04430763
246	0x3d22e57f	0.039769646
247	0x3d48b45e	0.049000137
248	0xbe3ad863	-0.18246607
249	0xbc6e6897	-0.014551303
250	0xbd3bf14e	-0.045884423
251	0xbda46ca9	-0.08028538
252	0xbdd620c2	-0.10455467
253	0xbd5cefe3	-0.05393971
254	0xbd97f4b9	-0.07419724
255	0x3d93299e	0.07185672
