MLAgentsProject/results/MoveToGoalForces1/MoveToGoal/MoveToGoal-499982.pt (torch, 439199 bytes, 36 tensors)

network_body._body_endoder.seq_layers.0.weight f4 [128, 6]
000000 18 b3 2a be 1c 81 f2 3d dc 47 9e be 85 00 09 3f
       -0.16669881 0.11841032 -0.309142 0.5351642
000010 a7 32 c1 3e dd 63 70 be d3 88 18 bf d1 63 a1 be
       0.37733957 -0.23475595 -0.5958378 -0.31521466
000020 7c 1e 41 3e a7 ce 81 bf 97 07 20 bd 48 f0 c5 be
       0.18859285 -1.014119 -0.03906974 -0.38659883
000030 54 a9 5c bf 43 85 3a bd 86 99 44 3e a9 c1 90 3e
       -0.86195874 -0.045537245 0.1919919 0.2827275
000040 79 ed 10 bf 9f 9c e6 3d 77 84 a5 3e a2 24 e0 bd
       -0.56612355 0.11260342 0.32327625 -0.10944487
000050 ea 61 89 3e 3d f9 1b 3f a6 95 df 3e 7f e6 15 bf
       0.26832515 0.6092718 0.4366886 -0.58554834
000060 df 10 8b bf 62 2c 2e 3f d8 db e9 3e 08 32 ab 3e
       -1.0864524 0.6803647 0.4567554 0.33436608
000070 70 b2 58 3e ad c7 d5 bd 87 6c e7 3e 4b c5 89 3e
       0.21161819 -0.10438476 0.45199987 0.26908335
000080 38 f7 ba bc 07 e6 1c 3e 31 fa ea be f2 5f d6 3e
       -0.022822961 0.15322123 -0.45894006 0.41870075
000090 78 1b 12 3e 4a 75 93 be 6b 71 8d 3e 1c e5 66 bf
       0.14268291 -0.28800422 0.27625594 -0.90193343
0000a0 35 c9 5c bc ef 2f b1 be 10 b2 06 bf c9 52 b0 3e
       -0.013475706 -0.34606883 -0.5261545 0.3443816
0000b0 1d 85 44 bf a9 b6 7d 3e 5f f4 e4 be e7 14 ae be
       -0.76765615 0.2477671 -0.4471769 -0.34000322
0000c0 e4 56 99 3f e2 a6 0a 3f d7 b2 91 be ef 93 e3 bd
       1.1979642 0.5416089 -0.28456756 -0.111122005
0000d0 22 08 38 3e 0a bc 83 be 64 58 a5 3e 9f 6f 47 be
       0.17971852 -0.257294 0.32294 -0.19476174
0000e0 e7 a4 9e 3e 5d b6 dd 3d 7d 63 9a 3e 22 bb a3 bb
       0.30985186 0.10825799 0.3015403 -0.004996673
0000f0 54 ec c4 bd 4c 2a e1 be 84 76 9d be 80 11 83 bd
       -0.096153885 -0.43977582 -0.30754483 -0.06399822
000100 de 8a 7f 3e 95 31 95 bb af c5 35 3e 45 70 aa be
       0.24955317 -0.00455303 0.17751192 -0.3328878
000110 de d5 8a 3d fe e4 a6 3e 24 86 32 3f 2c e6 5f 3e
       0.06779073 0.32596582 0.6973593 0.21865147
000120 77 56 dc bc 2c a1 49 3d fd 26 b5 bd e7 72 ae bd
       -0.026896698 0.04922597 -0.08845327 -0.0851801
000130 99 a3 8c bd 4b 77 85 be c0 9c f7 3e fc 37 da 3e
       -0.06867141 -0.26067576 0.48361778 0.42620838
000140 01 32 67 3e 43 07 bf bc 6b 94 7d 3d ba 92 a8 3d
       0.22577669 -0.023318892 0.06190912 0.08231111
000150 37 5c f3 3d d5 c2 d7 3e 5f af 5e 3e a9 b3 c2 be
       0.11882823 0.42140833 0.21746586 -0.38027695
000160 62 2c 75 be f4 49 9c be 4d 44 09 be 82 ed 0d 3f
       -0.23942712 -0.30525172 -0.13404961 0.55440533
000170 d5 d5 c7 be 4a 0b 83 3e 35 f2 40 bf e7 49 c2 be
       -0.39030328 0.2559455 -0.7536958 -0.37947008
000180 80 91 80 be 3a c9 3d bf 78 a4 81 3e 74 09 97 be
       -0.25111008 -0.7413517 0.25320792 -0.294994
000190 19 62 00 bf 3d 29 b7 3e ee 25 0e 3f 49 d9 a3 3e
       -0.50149685 0.3577365 0.55526626 0.32001713
0001a0 a1 25 37 be 05 b5 e1 be 59 95 09 bf 1b f0 0d be
       -0.17885448 -0.4408342 -0.5374351 -0.13861124
0001b0 62 f3 70 3d ea 1c 69 3b d1 f8 36 be d0 4b e0 3e
       0.058825858 0.0035570213 -0.17868353 0.4380784
0001c0 d1 36 4c 3e df d1 11 3d c1 8b 04 3e 35 94 f7 3e
       0.19942786 0.03560054 0.12943937 0.4835526
0001d0 92 22 0d 3e 7f 9a c3 be 3b 90 86 3e 87 c8 f3 3e
       0.13782719 -0.3820381 0.26281914 0.47613928
0001e0 38 ee 2a 3f 87 65 ea be c1 38 4f 3e ae 1d a8 be
       0.6676974 -0.45780584 0.20236494 -0.32835144
0001f0 3d 31 04 bf 75 a5 4f 3f f7 04 bb be 4b e1 5b bd
       -0.5163763 0.8111184 -0.36527225 -0.053681653
000200 f8 da c9 be 0a 79 4f bc 5b 6b 0e bf 1b b6 cd bc
       -0.39424872 -0.012663135 -0.5563256 -0.025111249
000210 34 b5 ac be 6a be 21 3f c4 cd 7d bd 7f b6 01 3f
       -0.33731997 0.63181174 -0.06196381 0.5066909
000220 32 99 b1 be 68 13 48 3e 1f 43 63 3e b0 27 aa 3e
       -0.3468719 0.19538653 0.22193573 0.33233404
000230 c7 c3 a5 be 4c 0e 8a 3d 68 57 96 3c 8a e9 01 be
       -0.3237593 0.06741008 0.018352225 -0.12686744
000240 bc 52 40 be c9 25 3d bd 5f 7d 7a be 20 30 7f bd
       -0.1878156 -0.046178613 -0.24461888 -0.062301755
000250 f1 9b 7a bf 8c 09 17 be 5b 4e a9 be e3 40 39 3e
       -0.978942 -0.14749736 -0.33067593 0.18091159
000260 b8 65 24 bf 77 ba 44 bd 9a a5 cb bf f4 5f d7 3d
       -0.6421771 -0.04802939 -1.5909913 0.105163485
000270 72 07 73 bd 30 b9 31 3f f7 0e ac 3e fd 0a c2 be
       -0.059333272 0.694232 0.33605167 -0.37899008
000280 ae 32 37 3d cd e6 b4 3d 4c e7 1d bf a6 1a 81 3e
       0.044726066 0.08833084 -0.61681056 0.25215644
000290 5d 4e 19 bf dd e2 e8 bb 41 e0 6d bf 7f 1f 82 3e
       -0.598852 -0.0071071223 -0.9292031 0.25414655
0002a0 a3 e7 84 3e d1 c6 08 bd b9 b1 07 3f ff b6 47 3f
       0.25957975 -0.03339273 0.5300556 0.78013605
0002b0 aa 19 99 bd 8e 3c 50 3e 69 48 f5 be 82 fe 4a bf
       -0.07475598 0.203356 -0.47906807 -0.792946
0002c0 dc 73 61 3d 40 04 ea be 84 46 6a 3d f4 8c 18 3e
       0.055042133 -0.45706367 0.057196155 0.1489752
0002d0 d7 6a f6 be b3 1e 05 bf 49 e5 00 3d 18 43 95 be
       -0.48128387 -0.5199997 0.031468663 -0.2915275
0002e0 16 16 89 3e f1 da 8e 3e d2 e0 14 3d 7d 5e 87 3e
       0.26774663 0.27901414 0.036347218 0.26439276
0002f0 15 01 ab 3e 64 24 50 be 71 76 aa be 17 d3 d3 3e
       0.33399263 -0.20326382 -0.3329349 0.41371986
000300 a1 fe 5e 3e be 2c 99 3f 8a fb 30 3e 67 e7 a4 be
       0.2177682 1.1966779 0.17283455 -0.32207796
000310 3d fe 04 bf 49 42 ab be 23 d2 b4 3e 30 39 ba 3c
       -0.51950437 -0.3344901 0.35316572 0.022732347
000320 a9 64 b3 bd 8c 20 70 bf 66 94 35 be 5c ea da 3e
       -0.08759434 -0.9379966 -0.17732391 0.42756927
000330 16 3a 23 3f 50 92 3d 3e bf c9 65 be 8a 33 09 3c
       0.6376051 0.18512845 -0.22440241 0.008374104
000340 4a 80 c0 3e a1 3a 17 bd 6b 1f ae 3c 7f 1a 10 3f
       0.37597877 -0.036921147 0.021255216 0.5629043
000350 b1 5b 6f 3f e9 44 f6 be 03 45 4b be c6 37 aa be
       0.93499285 -0.4809945 -0.19850545 -0.33245677
000360 f2 47 45 3f 85 f5 4b 3d a1 bd e7 3d 02 72 38 3d
       0.77062905 0.049794693 0.11315466 0.0450306
000370 f8 02 87 bb a7 9e dd 3c 69 8a 95 3b be db 4c 3b
       -0.004120227 0.02705319 0.004563619 0.0031258906
000380 69 49 5e 3e b2 42 96 3e 27 26 9d be 37 6f b2 3d
       0.21707691 0.2934776 -0.3069317 0.08712619
000390 5b 6f 20 bc 3a 86 3f bf b3 ba ac 3d 2c c2 4c bf
       -0.009792174 -0.7481419 0.084340475 -0.7998378
0003a0 ea a2 f8 be 4e ce 76 bc 2d 63 0c 3e 3a 5b c8 3d
       -0.48561794 -0.015063835 0.13709708 0.09783025
0003b0 5d b7 b3 bd d8 d3 74 3e ae 81 5d be b8 d6 1d 3f
       -0.08775208 0.23908937 -0.216315 0.6165576
0003c0 a2 7e c3 3d f7 43 ca bd 98 c7 f3 3e 03 86 b0 be
       0.09545638 -0.098762445 0.47613215 -0.34477243
0003d0 bb 84 fe 3b 0e 08 0b bf d4 2d 0f 3e af af f6 3e
       0.0077672875 -0.54309165 0.13982326 0.4818091
0003e0 38 a0 a4 be a4 a9 aa 3e 24 3f a1 be 38 7d a2 3e
       -0.32153487 0.3333255 -0.31493485 0.3173616
0003f0 04 e1 b7 be 36 8f e4 be e3 e5 b3 be 2d 30 dd be
       -0.3591386 -0.4464051 -0.35136327 -0.43200818

network_body._body_endoder.seq_layers.0.bias f4 [128]
000000 94 69 cf bc ed 98 9b 3d 78 66 eb ba 8a 1c 93 ba
       -0.025318898 0.07597528 -0.0017959615 -0.0011223715
000010 e6 36 e6 3d 95 ac c7 bd 45 3b ae 3d 55 e3 70 bd
       0.1124094 -0.09749714 0.085073985 -0.05881055
000020 f3 38 f1 3d 22 83 4b bd e0 b5 13 be eb 53 ce 3d
       0.1177844 -0.049685605 -0.14424849 0.100746
000030 1e 94 15 be fb 12 90 bd 15 0e c8 bd f8 1b 2f be
       -0.14607283 -0.0703487 -0.09768311 -0.17100513
000040 c7 e3 0c be a2 8f 64 3c 64 53 ac 3d 75 c8 57 bd
       -0.13758765 0.01395026 0.08414343 -0.052681405
000050 73 f8 7e be f2 8c cd 3d ad 6a 2f be 93 2d 00 bd
       -0.24899463 0.10036649 -0.17130537 -0.031293463
000060 cb 76 fd 3d 48 c3 0f be 0b 6d ff bd b6 50 f1 3d
       0.123761736 -0.14039338 -0.1247197 0.117829725
000070 49 98 e9 bd 82 8c 3b 3d 06 fe cc bc d5 fb 7c be
       -0.11405999 0.045788296 -0.025023472 -0.24705441
000080 55 4c 2d 3d c6 49 1c 3d 73 a7 73 bd 67 32 d0 bd
       0.042309124 0.038156293 -0.059485864 -0.101658635
000090 80 21 c7 bd f5 8b c0 bd d9 01 00 bd 9f 90 57 3c
       -0.097231865 -0.09401695 -0.031251762 0.013157039
0000a0 8e 87 e5 bd e6 b4 eb bd a9 02 8b 3d 88 ec 8f bc
       -0.11207496 -0.11509113 0.06787617 -0.017568842
0000b0 1e 63 1b 3d 52 bb 57 be 5b 5d bb bd 39 74 92 3c
       0.037936322 -0.21067551 -0.091486655 0.017877685
0000c0 d0 dd f6 bd 65 7e 1a 3d e3 29 ee bc 72 6b 90 bd
       -0.12054026 0.037718195 -0.029072708 -0.070517436
0000d0 97 f5 b7 3c ee 53 f9 3d 22 82 ce bd 48 f8 d7 bd
       0.022455974 0.121742114 -0.100834146 -0.10545403
0000e0 e4 37 4e 3d 92 c8 35 3b 22 28 d7 bd be 54 1d 3e
       0.05034627 0.0027737957 -0.105057016 0.15364358
0000f0 1b bc f8 bd 49 af e5 bd 5e 91 6b be 91 9f d9 bd
       -0.12145253 -0.112150736 -0.23004672 -0.10626138
000100 93 23 47 bd 7b b9 11 bd b2 4a 16 be 60 6a c9 bd
       -0.04861791 -0.03557728 -0.14676932 -0.098347425
000110 50 83 a5 3c e1 8f 00 be e4 96 2c 3e 0e a4 c4 bd
       0.020204216 -0.12554885 0.16854435 -0.096016034
000120 a9 bd 25 bc 8a b8 eb 3d b8 6c 50 3e 77 f7 74 3c
       -0.010116019 0.115098074 0.20353973 0.014951578
000130 25 b1 dd 3d 24 7b 8a bd 77 67 63 be 82 38 76 bc
       0.10824803 -0.067617685 -0.22207437 -0.015028121
000140 ea 8c e0 3b b5 b0 ee 3c 8e a7 bf bc 83 4a 87 3b
       0.0068527358 0.029136995 -0.023395326 0.0041287555
000150 cd b7 ea bc 48 5c 8d 3d 25 4b a0 bb 4c ea 32 bd
       -0.028652096 0.06902367 -0.0048917704 -0.043680474
000160 8a c9 6c bc c6 1e 6c bd 90 38 89 bc de c9 ce bc
       -0.0144523475 -0.057646535 -0.016750604 -0.025242742
000170 dc 44 12 be 8d 11 63 bc 67 ad 6b bd 35 2e 58 3d
       -0.1428408 -0.013859165 -0.057538416 0.05277844
000180 cb a1 43 be 08 a1 52 bd 05 01 e9 bd 63 bc 6f 3d
       -0.19104688 -0.051423103 -0.113771476 0.05852927
000190 c9 de 46 bc 7c 96 19 3d 6a 97 02 bd 58 0c 08 be
       -0.012138077 0.03749703 -0.03188268 -0.13285959
0001a0 50 46 18 3c 54 8c 6c 3d a6 51 f8 bd 88 a9 ee 3c
       0.009294108 0.057751015 -0.12124948 0.029133573
0001b0 6c ac d1 bd 6b 17 91 3d cd 92 88 bd b6 c3 ce bc
       -0.10237965 0.07084545 -0.06668625 -0.025239807
0001c0 3e ae 66 bd 33 77 b6 bd a7 5c 52 bd fa e6 c0 3d
       -0.056318514 -0.08909454 -0.05135789 0.09419055
0001d0 a6 07 e9 bd 2f 58 cc bd 01 8f 4a bd 16 43 c0 bd
       -0.11378412 -0.09977757 -0.049452785 -0.093877956
0001e0 34 89 ac 3d 06 42 6e bd 5f ea ad bd 59 6e 8c 3c
       0.08424607 -0.058168434 -0.08491968 0.017142462
0001f0 23 37 56 3c 4f b6 83 3d a1 29 ad bd e2 4b 00 be
       0.013074669 0.06431257 -0.08455206 -0.12528947

network_body._body_endoder.seq_layers.2.weight f4 [128, 128]
000000 84 17 8e 3e 50 c6 13 3e 88 6b f5 3c 8f e3 a6 bd
       0.27752316 0.14431119 0.029958501 -0.08148872
000010 2a 8e 03 3c fe 56 31 bd b1 d7 ed 3d 43 2a fb 3d
       0.0080295 -0.043295853 0.116134055 0.1226392
000020 d0 5f 8f be 28 f0 af 3d 79 38 67 be e3 9c 44 3e
       -0.28002787 0.08590728 -0.22580136 0.19200473
000030 39 68 88 bd 2b bd f0 3d 2b 22 8a bd 16 36 f4 bd
       -0.06660504 0.11754831 -0.06744798 -0.119243786
000040 ce 45 5c be aa f7 06 be 19 be 09 bd b3 60 20 be
       -0.21511003 -0.13180414 -0.033628557 -0.15661888
000050 f0 da a3 3d 30 ce 10 be 0e 64 28 3d 2b 51 04 bd
       0.080007434 -0.14141154 0.041111045 -0.03230397
000060 fc 8d a9 bd 70 45 ce 3c 0b 5b 42 3b 09 fe cf bd
       -0.082790345 0.025179595 0.0029656317 -0.10155875
000070 d8 5a 5a 3a 12 a1 88 bc 69 e3 b8 bc 07 c9 45 3c
       0.0008329577 -0.016678367 -0.022569375 0.012071854
000080 66 82 24 3d cd 51 32 bd 57 36 f8 bd f7 64 02 3d
       0.04016342 -0.043535043 -0.121197395 0.03183457
000090 81 ff 16 3e 4e b0 25 bc d7 b8 29 bd 6b 34 4d bd
       0.14745905 -0.010112835 -0.041436043 -0.050098818
0000a0 1b 94 45 3d f4 c7 49 bd e1 15 08 3d a2 3e 16 3d
       0.048236948 -0.049262956 0.03322399 0.036680825
0000b0 6b ae 76 3d b6 9c c0 bb b2 4f 1f be 4d bf dd bc
       0.06022493 -0.0058780564 -0.15557745 -0.027068758
0000c0 76 d7 6f 3e 0c 1a 39 bd d5 be 28 bd 72 f9 02 3d
       0.23422036 -0.045190856 -0.041197617 0.03197617
0000d0 32 6d de bd 48 6b c0 bb 7b 21 dd bd 3d f3 9a bd
       -0.10860671 -0.005872164 -0.107974015 -0.07565925
0000e0 3e ee 10 3e 2c da b7 3c c7 37 2e be b1 98 2f bd
       0.14153382 0.0224429 -0.17013465 -0.042870227
0000f0 78 3b 3d 3d 70 3d 91 3d fa 9f 37 be 04 de 2c be
       0.046199292 0.070917964 -0.1793212 -0.16881567
000100 81 40 09 be c8 4c 52 be b9 2f b8 bd 18 ac ab 3d
       -0.13403513 -0.20537102 -0.089934774 0.08382434
000110 eb 2b 70 bb b9 53 54 bc 48 58 05 3d 9f 7b c4 3d
       -0.003664727 -0.012959414 0.032554895 0.09593891
000120 b5 87 95 3e b9 a0 35 3d 9a d6 5d bb 39 f5 40 3e
       0.292051 0.04434273 -0.0033849836 0.18843545
000130 2f bd 7d bc 58 47 ab 3d 89 4c 97 bd 5a fd 1f bd
       -0.015486999 0.08363217 -0.07387645 -0.039059974
000140 c5 8f 31 be be 3e 20 3d fa d6 2a bd dd c2 e1 bd
       -0.1734 0.039122336 -0.041708924 -0.11023495
000150 78 bb 98 bd 39 3c 3a be 9b e8 84 3d 95 52 33 3d
       -0.07457632 -0.18187036 0.064896785 0.04377993
000160 44 b4 1c bd c8 c1 86 3d 6c 2f af bd 2a 98 bb bd
       -0.038257852 0.065799296 -0.08553967 -0.09159882
000170 2a 83 94 3e 36 16 1b be 9a ec 22 be 8f 69 75 bd
       0.2900632 -0.15145192 -0.15910569 -0.05991512
000180 e7 51 ca 3d 6b 6b 20 bd 34 a4 06 bd dd 16 a2 bd
       0.09878903 -0.03916494 -0.03287144 -0.07914517
000190 4b d9 d3 bc 3d bf f4 3d f8 7b 4e bc e6 56 7d bd
       -0.02586045 0.11950538 -0.012602799 -0.06185045
0001a0 ba 4a c2 3c 30 a2 45 bc 8e 9e 2d bd f7 cb 0e bd
       0.023717273 -0.012062594 -0.042387538 -0.034862485
0001b0 2d 03 b1 bd 6c 27 03 bd a6 9c 07 be 66 e1 13 3d
       -0.08643184 -0.032020018 -0.1324335 0.03610363
0001c0 8a 3a db bd 8e 2b d1 bc 1e ab 92 3c a0 46 53 bd
       -0.10704525 -0.025533464 0.01790386 -0.051581025
0001d0 af 7f 37 be 04 a1 ff bb 9c 15 d3 3b 38 a1 63 bb
       -0.17919801 -0.007801177 0.006441785 -0.0034733545
0001e0 f9 21 d7 3d 2a 6f d1 3c 0b 36 c4 3c 25 0b 17 3b
       0.10504527 0.025565702 0.023951551 0.0023047414
0001f0 85 1e 1d 3e 32 a6 02 3e 3b 8f c3 bd 6a e4 33 3d
       0.15343674 0.12758711 -0.095488034 0.043919004
000200 1c c2 80 3d 6e 57 a2 bd a5 51 a1 bd 9c d6 f1 bd
       0.062870234 -0.07926832 -0.078769006 -0.118085116
000210 1a 7a 32 bd 8d fd 8c bc 55 ac 83 3e 53 2f 70 3e
       -0.043573476 -0.017210746 0.25717416 0.23455553
000220 b5 fc 87 be 2f 8d d4 bc 4e 01 17 bd 67 2e 66 bd
       -0.26559988 -0.025946228 -0.03686648 -0.056196596
000230 7a 60 2d 3d 65 16 fd bd a9 f7 1b be 2d 07 3b 3e
       0.042328335 -0.12357787 -0.15231194 0.18264456
000240 17 b5 bc bd bd dc 1d 3d 18 d8 c5 bb 7a c9 af bd
       -0.09214228 0.03854059 -0.0060377233 -0.085833505
000250 8a 88 03 be 96 23 8d 3d 91 31 74 3d 58 b6 d7 3c
       -0.12845054 0.06891553 0.059617583 0.026332065
000260 0b e8 e0 3c 58 61 4f be d3 3b 81 bd 6b cc 71 3d
       0.027454397 -0.20251977 -0.06310239 0.05903284
000270 87 d9 37 3d 21 15 ac bb 1e 2e dd 3d 22 61 1a be
       0.044885185 -0.005251542 0.10799812 -0.15076116
000280 fc a9 1e 3d fd 06 10 be 24 be d0 bd 0c ac 96 bd
       0.03873633 -0.14065166 -0.101925164 -0.07357034
000290 dd 06 9d bd 05 b4 26 3d 87 e9 27 be 8a 04 0c 3d
       -0.07667325 0.040699024 -0.16397677 0.034184016
0002a0 14 c0 d9 3b 8c 08 f1 3d fe 32 ca 3d 14 af 23 be
       0.006645212 0.11769208 0.09873007 -0.15984756
0002b0 2d 7a ab bd 29 f5 d4 3d fd 79 07 be 61 58 01 be
       -0.083729126 0.10398323 -0.13230129 -0.1263137
0002c0 08 23 a3 bd 7a f4 b1 3c aa 0d 90 bd d0 c4 92 bd
       -0.07965666 0.02172302 -0.07033856 -0.07166445
0002d0 fd 62 3c bd 31 e5 56 be 12 7a 29 be 3d 28 83 3e
       -0.04599284 -0.20985867 -0.16550472 0.25616637
0002e0 b2 66 49 3e ac d6 c4 3c 41 07 e0 3b 9d 71 0f bd
       0.19668081 0.024028145 0.0068368022 -0.03502046
0002f0 2a 0c c3 bd 23 c2 4e 3e 07 50 75 3e 18 af 37 bd
       -0.095238045 0.20191245 0.2395631 -0.044844717
000300 77 f1 5b bd c6 2c b3 bd 7f 56 22 3e a3 dc 89 bd
       -0.053697076 -0.08748774 0.15853308 -0.06731536
000310 73 ec 94 3d 15 33 c0 3d 01 c2 b3 bc 0e 93 8a 3d
       0.072716616 0.09384743 -0.021943094 0.0676633
000320 cb 1e b5 3d d6 ae 79 3e 5c fb b5 3c 6a 82 88 3d
       0.08843764 0.24383101 0.022214584 0.066654995
000330 fa d0 03 bd cf 8e 0d bd 1d 54 5a be 3b 19 50 bd
       -0.032181717 -0.03456002 -0.21321149 -0.05080531
000340 e8 88 b8 be a1 d1 f0 bd 5a b3 20 be 2c f4 14 3e
       -0.3604195 -0.117587335 -0.15693417 0.14546269
000350 59 4e e9 3d 9c c0 df bd 7c 89 03 3d a5 36 23 be
       0.11391897 -0.10925409 0.032113537 -0.15938814
000360 5f a8 9b bd 6a 86 ae 3d 1a 70 4a be d0 15 9c bd
       -0.076004736 0.08521731 -0.19769326 -0.07621348
000370 74 c8 1f 3e 79 4c 2b 3e 13 03 11 be 6e 38 b3 bd
       0.1560381 0.16728391 -0.14161329 -0.087509975
000380 84 fb 49 3d cf db 02 3e 75 df 90 be 31 53 66 bd
       0.04931213 0.12779163 -0.28295484 -0.05623168
000390 51 f8 0c 3d 2b 2f 99 3d 88 72 a9 3c c6 4c ed 3c
       0.0344165 0.074797 0.020684496 0.028967272
0003a0 e1 f1 c7 bd c3 3f cd 3d 4e 53 3f 3b b2 21 8e b8
       -0.097629316 0.10021927 0.002919394 -6.777364e-05
0003b0 f0 cd a8 3d ba ef c3 bd a3 e2 04 3e 10 2e fb bc
       0.082424045 -0.095672086 0.1297708 -0.030661613
0003c0 cc 57 8b bd 25 ac 84 3c e1 b2 24 3e 10 e9 c9 3d
       -0.06803855 0.016195366 0.16083862 0.09858906
0003d0 e5 f7 5d be 1c 2d b5 3c a7 ac 3f bb 33 12 7e 3d
       -0.21676596 0.022116236 -0.0029247196 0.062029075
0003e0 0d b3 13 be 5e f3 85 bd 6e 52 97 bd 7a 33 80 bd
       -0.14423771 -0.06540559 -0.07388769 -0.062598184
0003f0 42 2a 65 bd 73 d7 a3 bc 90 8b b2 bd be 2d eb 3d
       -0.055948503 -0.020000195 -0.08718026 0.11483334

network_body._body_endoder.seq_layers.2.bias f4 [128]
000000 8c e4 1d bd 09 49 51 bc 03 0c dd bc e3 e1 c2 bb
       -0.038548037 -0.012773761 -0.026983267 -0.005947338
000010 6a 08 30 bd ac 1a 75 bd 8e 51 14 bd 80 73 dc bd
       -0.042976774 -0.05983989 -0.03621059 -0.107642174
000020 6b be e5 bd ef 20 0b 3d 1c 00 48 bd c7 a4 63 bd
       -0.1121796 0.033966955 -0.04882823 -0.055577066
000030 ee 17 c3 3c 65 80 9b bc 15 65 84 bd 0b c8 84 bd
       0.023815122 -0.018982122 -0.06464592 -0.06483468
000040 e2 65 b1 bc 87 c1 b3 bd 7e 12 45 bd 87 76 38 bd
       -0.021655027 -0.08777147 -0.04811334 -0.04503491
000050 42 52 9c bc 3d 2d 12 bd 6a d6 30 bb 67 a8 c9 bd
       -0.019082192 -0.035687674 -0.002698327 -0.09846573
000060 31 c0 cd 3c 49 7b c4 bc f6 84 e2 bc 18 89 1b 3d
       0.025116058 -0.023984568 -0.027651291 0.03797254
000070 ad 2a ae bd 00 83 b2 bd f6 3a 66 3c 51 00 99 bb
       -0.085042335 -0.087163925 0.014052143 -0.004669227
000080 e0 ed 8b bc f0 de b8 bd b1 1a 8f bd 0e ba af bd
       -0.017081201 -0.09026897 -0.06987513 -0.08580409
000090 42 60 ae bd e9 12 87 bd ad b5 ce bd a0 34 c4 bd
       -0.085144535 -0.06595404 -0.10093246 -0.0958035
0000a0 94 5b bf ba fe ea 82 bd c0 3b 06 bc 03 2d 49 3d
       -0.0014599436 -0.063924775 -0.008192956 0.049115192
0000b0 19 1a a6 bd 36 ef 99 3b 40 43 ad 3a 1b 7f ce bd
       -0.081104465 0.0046977056 0.0013218895 -0.10082837
0000c0 f9 c7 9d bd e7 e1 c1 bc 53 0b 19 bd e7 53 f1 bc
       -0.077041574 -0.023667289 -0.037364315 -0.029458953
0000d0 07 c1 5e bc dc 9d fd bc bd e3 bf 3c f5 0e bf bd
       -0.013595826 -0.030959062 0.023424024 -0.09329025
0000e0 9a f9 d2 bd a6 e5 54 3c d8 59 c7 bd 85 e7 ab bd
       -0.10301514 0.012994206 -0.09733933 -0.08393768
0000f0 65 2a 34 bd d0 97 a0 bd 70 48 8b bd 54 5a b9 bd
       -0.043985743 -0.07841456 -0.06800926 -0.09050432
000100 ac ee 0a bd cf 9a 2e bc 2a ce 4f bd 81 30 f6 3b
       -0.03391902 -0.010657026 -0.050733723 0.0075131063
000110 8d f7 99 bd d2 b4 f0 bb fb fb 72 bd cd a4 d1 bd
       -0.0751792 -0.007345774 -0.05932234 -0.102365114
000120 cc 31 93 bc 59 95 91 bd e4 18 07 bd 17 45 80 bd
       -0.017968081 -0.07108564 -0.032982722 -0.06263178
000130 0b 1c c5 bb 99 7c 2e bd 7e aa ac bd 7c fc c1 bd
       -0.006015306 -0.042599294 -0.08430956 -0.09471986
000140 d3 74 3a bd 9c c3 84 bd cf 1e 06 bd e8 a7 b4 bd
       -0.04552157 -0.06482622 -0.032744225 -0.08821088
000150 f5 6c 63 bd 6b 32 8d ba 13 96 31 bd a1 e6 75 3c
       -0.05552383 -0.0010772472 -0.043356013 0.0150085995
000160 f2 f0 22 bd 90 b3 10 bd 4d 60 a2 bd 32 47 8d bd
       -0.039780565 -0.035327494 -0.07928524 -0.06898345
000170 7b 26 da bd 3a 5a 2d bd 58 b4 f9 bc f2 8c 8e bd
       -0.10651871 -0.042322375 -0.030481502 -0.06960477
000180 4c f7 43 bd 19 af 55 bc 48 a2 bb bd 41 d5 18 bd
       -0.047843263 -0.013042235 -0.09161812 -0.03731275
000190 5d f5 d0 bc f1 c5 87 3b fe e6 ae bd 58 a2 b0 bc
       -0.025507623 0.0041434695 -0.08540152 -0.021561787
0001a0 6c 19 80 bd e7 70 cd bd 9c 52 83 bd 83 1a 76 bd
       -0.06254849 -0.100313 -0.06412241 -0.060083877
0001b0 3b 36 86 bd bf 20 01 be b6 ea a1 bd 05 2a 5c bd
       -0.065533124 -0.12610148 -0.07906096 -0.05375101
0001c0 a5 99 9a bd dd 14 7f bd 7e d0 60 bd 01 39 ba bd
       -0.075488366 -0.062275756 -0.054886334 -0.09092904
0001d0 b4 33 a0 bd c3 6c 14 bd 27 59 e3 bc b7 3f 03 bc
       -0.078223616 -0.036236536 -0.027752472 -0.008010796
0001e0 e4 81 0d bd 9f 3f 13 bd 59 da f0 bc 68 90 47 bd
       -0.0345477 -0.035949346 -0.029400991 -0.0487217
0001f0 ad a5 c6 bd c9 3a b4 bd 24 94 20 bc 12 cb 64 bd
       -0.09699569 -0.08800275 -0.0098009445 -0.055857725

action_model._continuous_distribution.log_sigma f4 [1, 2]
000000 54 81 4f be 60 2c c1 be
       -0.20264179 -0.37729168

action_model._continuous_distribution.mu.weight f4 [2, 128]
000000 1b 86 77 bd 72 3a 6a bd 36 a5 a0 3d 2a bc 72 bd
       -0.060430627 -0.057184644 0.078440115 -0.05926148
000010 0f de 2c bc e1 56 24 bd 48 0a db bd 5f ce 95 b9
       -0.01055099 -0.040121917 -0.1069532 -0.00028573253
000020 15 78 d1 bc ec b2 b6 bd 6e 9c 48 bc e9 93 01 be
       -0.025569955 -0.089208454 -0.012244327 -0.1265408
000030 6b 6a 1c bd d8 41 29 bd ae e5 02 3d 92 3d 9e bd
       -0.038187426 -0.04132256 0.03195732 -0.07726587
000040 8a 23 08 bd 86 c1 a3 bc f6 de c7 bc 7b 05 c5 3d
       -0.033237018 -0.01998974 -0.024398308 0.09620186
000050 37 25 fb 3d 7a 45 46 bd 57 06 33 bd 53 33 f2 bc
       0.122629575 -0.0484061 -0.043707218 -0.029565489
000060 d3 34 d5 bd 5c dc b0 3d 06 01 ce bd c4 bd 9b 3d
       -0.10410466 0.0863578 -0.10058789 0.07604554
000070 11 a3 92 bd b3 c3 fa 3c ec 49 99 bd 08 1d cf bd
       -0.07160009 0.030610895 -0.074848026 -0.10112959
000080 b4 8c 5b 3d 84 0e c7 3c 5a 20 2e bd 92 ff c7 bc
       0.05360098 0.024298914 -0.04251132 -0.024413858
000090 6b 08 c4 bc d5 45 fb 3c ba 18 17 bd e2 69 09 3b
       -0.023929795 0.030672947 -0.036888815 0.0020967652
0000a0 61 32 0b 3e 60 c9 62 3d 73 8b ec bd 6e 8e 2e 3d
       0.13593437 0.055367827 -0.11550035 0.0426163
0000b0 cb e1 f2 3c ca 49 d9 bd d2 74 71 3c 12 0e 26 3c
       0.029648682 -0.10609777 0.014737325 0.010135191
0000c0 c5 aa 84 3c 5b 0a d7 bd b1 0b d7 bd 9e 3b e4 bd
       0.01619471 -0.10500022 -0.10500277 -0.111441836
0000d0 78 a1 a7 bd e5 0a 80 bd 25 77 2f bd 02 28 b5 bc
       -0.081850946 -0.06252078 -0.042838234 -0.022113804
0000e0 b7 22 89 3b 7e f7 08 3e 35 4b 08 3d d8 91 bc bc
       0.0041850465 0.13375661 0.033274848 -0.023018762
0000f0 68 fa 3f bc b5 bc 56 3d b4 9b 3e bd ea c9 49 bd
       -0.011717416 0.05242606 -0.04653521 -0.049264826
000100 b8 a5 97 bd ec 0f 15 bd 3b e1 4e 3d 77 6c 81 3d
       -0.07404655 -0.036392137 0.050507765 0.06319516
000110 ae 4d 07 bc a3 d0 ba bd 57 3d f3 bc 51 b4 26 bd
       -0.008258266 -0.091218255 -0.029692335 -0.040699307
000120 12 b3 35 bd 17 58 d1 bc 91 f0 04 be 47 29 29 bc
       -0.044360228 -0.0255547 -0.12982394 -0.010324783
000130 7f 8a 92 3c 92 ee 5a bc 47 c0 6c 3c 0c 9e 40 bc
       0.017888306 -0.013362544 0.014450139 -0.011756431
000140 fd 81 91 3d 4d 15 9e 3d 26 c0 98 bd f5 13 aa b9
       0.071048714 0.077189066 -0.074585244 -0.00032439796
000150 af 9a af ba 17 5d a6 bd b0 95 80 bd 81 24 41 bd
       -0.001339754 -0.08123224 -0.062785506 -0.047153953
000160 44 a7 8c bd b3 aa f8 3a 34 90 01 3c f7 b0 fe bc
       -0.06867841 0.0018971771 0.007907916 -0.031090243
000170 ef 66 ae 3c 19 8a 0e 3c 56 38 ad bd 84 5d 9d bc
       0.021289317 0.008699917 -0.08458011 -0.01920963
000180 8d 06 8c bc fb 5c 83 3d cf b8 94 bc 91 c1 37 3d
       -0.017092967 0.06414219 -0.01815453 0.044862334
000190 0a f7 d2 bd 45 8f 39 3d e9 3e 44 bd 1c 7b 17 bd
       -0.10301025 0.045302648 -0.04791156 -0.03698264
0001a0 5b ee d5 bc 8a db c3 bc 6c 2d dc bc cc 6e 92 3d
       -0.026114633 -0.023908395 -0.026877128 0.07150039
0001b0 b0 b2 80 3d d1 f1 a7 3c 1c 4c f7 bb c0 0e 26 3d
       0.06284082 0.02050105 -0.0075469147 0.04054141
0001c0 fe 20 18 3d 65 7e 0f bd e8 57 e0 bc 77 4f 1f bd
       0.03714084 -0.03503265 -0.027385667 -0.038894143
0001d0 3c 3f 2d bd d4 d5 7d bd a6 b6 5d bd f6 d3 47 3c
       -0.042296633 -0.0619715 -0.054129265 0.0121965315
0001e0 96 22 29 bc 82 55 b4 3c 2d 8c 09 be e9 be 35 3d
       -0.010323187 0.02201343 -0.13432379 0.04437152
0001f0 e6 56 82 bd f2 89 0e bd ca 77 9d 3d 57 b8 8c 3d
       -0.06364231 -0.034799524 0.076888636 0.068710975
000200 18 5b 45 bc a3 9b 8b bd 84 1c a9 3d 66 b8 33 bd
       -0.012045644 -0.06816795 0.08257392 -0.043877028
000210 bd 41 e4 bb 1f 52 11 3c 7b 0d e3 ba 03 7e b2 bb
       -0.0069658444 0.008869677 -0.0017322743 -0.0054471507
000220 0e a5 80 bc d2 77 63 3d da a5 74 bb 65 fe 24 bd
       -0.015703704 0.05553419 -0.00373303 -0.040281672
000230 5e 36 7e bd b2 99 73 3c c4 1f 1f bd 72 bf a1 bd
       -0.062063567 0.014868187 -0.038848653 -0.078978434
000240 f2 ad 68 bd 15 d4 80 3c 43 5a a8 3b 1a d1 14 bc
       -0.056806512 0.015726129 0.005137713 -0.009083057
000250 ed 0d 14 bc c6 b2 f2 bd 4b a2 a1 3c 91 57 25 3c
       -0.009036523 -0.118505046 0.019730708 0.010091678
000260 7e c0 c6 bc a8 e8 b5 bc fa 21 d2 bc 29 df bb 3d
       -0.02426171 -0.022205666 -0.025650967 0.09173424
000270 65 44 0f 3c cd 59 d6 bb 11 17 66 bd 4b 10 e6 bc
       0.008744334 -0.006541467 -0.05617434 -0.028083941
000280 14 cf a5 bd ce 6f d3 bc 2f 9b 38 bd d8 ce 75 bb
       -0.08096138 -0.025810149 -0.04506987 -0.0037507322
000290 1f c6 19 3b d8 ed e5 bc 3f 56 8f bc 3d d7 d7 bb
       0.0023464037 -0.028067514 -0.01749718 -0.0065869377
0002a0 f9 3c 89 3c 50 78 ae 3c d9 3c 24 bd e6 d0 0f bd
       0.016752707 0.021297604 -0.04009709 -0.03511133
0002b0 cf 52 12 3d 9d c6 27 bd 86 50 b9 b9 ef 2e 94 bb
       0.035723504 -0.040960897 -0.00035345944 -0.0045221965
0002c0 d2 45 5d bd c6 b8 69 bd ba ea d8 bd ed 16 01 bd
       -0.054021664 -0.05706098 -0.105916455 -0.031516004
0002d0 9e ca 3c bd 99 94 29 bd db a2 84 bd 4f 77 0f bd
       -0.04609167 -0.04140148 -0.06476375 -0.03502589
0002e0 d9 56 14 3c 77 f4 b3 bc cc 15 17 3d 6f df e8 3a
       0.009053909 -0.021967156 0.03688602 0.0017766784
0002f0 7d 5e fe bb 4b ba e0 bc ec 1b be 3b e7 21 fa bb
       -0.0077627287 -0.027432581 0.0058016684 -0.007633436
000300 5a 76 50 bd cd c3 ad bc dd ee b6 3b 57 2d 7a bc
       -0.05089412 -0.02121153 0.005582674 -0.015269599
000310 eb a8 24 3b c7 ca cb bc 15 9c 41 bc f1 25 56 bb
       0.0025125097 -0.024876965 -0.011816998 -0.0032676423
000320 c4 74 e4 bc 1f 07 33 bb 5f d9 fb bb ae 3a e0 bc
       -0.02788771 -0.0027317477 -0.0076858248 -0.02737173
000330 53 c1 a2 bc 7f c5 19 bb a9 f1 7f ba 26 ab d9 bc
       -0.019867575 -0.0023463664 -0.0009763488 -0.026570868
000340 6c 2f e2 bc 7c f8 ff bc 24 40 67 bd 21 eb 60 bd
       -0.027610503 -0.031246416 -0.056457654 -0.054911736
000350 87 fd b6 bc e0 92 ec bc e9 eb 92 bc 7a 17 30 3d
       -0.022337688 -0.02887863 -0.017934756 0.04299114
000360 27 45 58 bd 3a ed 99 bd 6d 2f bb bc 73 55 44 3d
       -0.052800324 -0.075159505 -0.022849763 0.047933053
000370 53 7b 9f bc e7 71 34 bd 1c f4 30 bb 55 1a 78 3c
       -0.019467985 -0.04405394 -0.002700097 0.015142997
000380 1a 7d 95 3b b5 b1 88 bd 70 ae 35 bc b4 e5 33 3d
       0.0045620324 -0.0667452 -0.011088952 0.043920234
000390 71 65 93 bc 77 a0 c9 bd 9d f3 73 bb b1 fb a0 bd
       -0.017992707 -0.09845059 -0.0037224062 -0.07860506
0003a0 23 96 55 bc e1 7a 25 bd a7 2b 75 bc aa d1 c4 bd
       -0.013036284 -0.04040039 -0.014964021 -0.09610303
0003b0 70 da 69 bc 01 a1 55 bb 04 48 17 bc 22 61 0b 3c
       -0.014273271 -0.0032597187 -0.009233478 0.008507045
0003c0 47 45 d0 3b 39 cc d8 3c 30 8f a8 bc e7 f7 00 bd
       0.0063559148 0.026464568 -0.02057609 -0.031486418
0003d0 9c 71 d3 bc 93 9c 9c 3c 7c 89 21 bd 2d 2d b0 bd
       -0.02581101 0.01911763 -0.039437756 -0.086023666
0003e0 47 c0 3a 3c 51 10 39 bd 15 d3 7c bc d0 59 33 bd
       0.011398382 -0.045181576 -0.015431185 -0.043786824
0003f0 3f c3 96 bc e6 f7 e0 3c 3f 2d a2 3d 37 00 b6 bd
       -0.018403647 0.027461957 0.07918786 -0.0888676

action_model._continuous_distribution.mu.bias f4 [2]
000000 b0 f2 a0 3d 8d f5 47 3d
       0.07858789 0.04881816

exp_avg f4 [128, 6]
000000 df 87 92 38 d4 fb ab 36 23 50 a9 38 62 14 f6 38
       6.9871305e-05 5.125514e-06 8.0734746e-05 0.00011733991
000010 42 1b ac 36 c0 2f f0 38 e3 43 1e bb bf 44 9d 39
       5.1291727e-06 0.00011452986 -0.002414935 0.00029996593
000020 9b e5 80 3c 62 b4 2a ba 51 1c 9d 39 9c ee 39 3c
       0.015734484 -0.00065118645 0.0002996647 0.011348393
000030 3f f4 e8 3b a1 45 e8 38 9e 47 46 bb 53 37 0b 3c
       0.0071091945 0.000110755915 -0.003025509 0.008497077
000040 ee 14 e8 38 e6 b6 11 3b bc b7 c6 3b 83 3c 6b 39
       0.000110665205 0.002223426 0.0060643833 0.00022433889
000050 5d 52 61 3c a1 15 d7 3b 33 f3 6a 39 b6 ed 41 3c
       0.013752547 0.0065638577 0.00022406578 0.01183646
000060 ca b1 01 3c b8 0f 67 b6 74 c9 e8 bb 27 ba 07 3c
       0.007915923 -3.4430832e-06 -0.007104093 0.008284128
000070 05 6b 66 b6 be 06 ee ba 11 d7 2f 3c c5 c8 0d 3a
       -3.4334964e-06 -0.0018159968 0.010732428 0.000540864
000080 1e 1c 04 3d b8 07 45 3c 2c a2 0d 3a 15 ea e2 3c
       0.032253377 0.012025766 0.00054028886 0.02769951
000090 e8 e5 9a 3a e2 81 14 b9 a5 b3 fb bb 6c d0 80 39
       0.0011817785 -0.00014162765 -0.0076813274 0.0002456935
0000a0 b4 5b 14 b9 69 1f b1 bb 98 0b 47 34 5e ba 61 32
       -0.00014148542 -0.0054053557 1.8537537e-07 1.3139099e-08
0000b0 31 a8 6d 34 91 fe a8 34 70 83 61 32 1e 1d c5 34
       2.2133533e-07 3.147766e-07 1.3126609e-08 3.6715295e-07
0000c0 32 8b 08 bc 08 10 23 ba a7 5d 31 bc ba 3c 6f bc
       -0.008333968 -0.00062203454 -0.010825551 -0.014601881
0000d0 23 e8 22 ba 73 48 81 bc a6 e2 08 bd 46 11 04 bb
       -0.00062144006 -0.015781617 -0.033419274 -0.0020151897
0000e0 27 63 ad bd cb 10 3a bd 86 ee 03 bb d1 23 a5 bd
       -0.084661774 -0.04542617 -0.0020131185 -0.08063472
0000f0 33 4b e4 38 be ff 0b 37 36 2c 61 39 83 67 40 39
       0.00010885894 8.34459e-06 0.00021474142 0.00018349108
000100 64 ce 0b 37 e7 d4 7a 39 4e 1b eb 3b d4 3e 01 3a
       8.3331e-06 0.0002392117 0.007174886 0.00049303216
000110 31 b2 8b 3c 74 93 3c 3c a9 1c 01 3a fa 71 84 3c
       0.017052742 0.011509765 0.000492523 0.01616763
000120 b7 c6 c9 b7 38 bb 2b b6 6f ee 91 b8 28 15 41 b8
       -2.4053601e-05 -2.5589961e-06 -6.9585505e-05 -4.603449e-05
000130 8e 8f 2b b6 07 4e 9e b8 3e 44 b6 bc d2 15 b1 ba
       -2.5564545e-06 -7.548561e-05 -0.022249337 -0.0013510531
000140 fa 0e 30 bd 49 4c 08 bd 54 e8 b0 ba 77 bf 39 bd
       -0.042983033 -0.033275876 -0.0013496974 -0.04534861
000150 c0 5c f4 b9 e4 82 16 b8 8c 13 94 ba 82 57 13 ba
       -0.0004660841 -3.588469e-05 -0.0011297329 -0.00056206447
000160 95 5c 16 b8 6b 54 9d ba 83 66 f9 37 2e 94 09 36
       -3.584901e-05 -0.0012003308 2.9730849e-05 2.0500843e-06
000170 b7 92 1f 38 ab 03 4e 38 4a 6c 09 36 20 28 70 38
       3.8045193e-05 4.9117643e-05 2.0477623e-06 5.725783e-05
000180 62 12 e0 bb 71 c5 0a ba 75 42 8e bc e0 92 2b bc
       -0.006838129 -0.0005293703 -0.017365674 -0.010472029
000190 47 a5 0a ba 6b 16 9b bc d8 4e d6 38 eb 12 2c 37
       -0.00052889105 -0.018931588 0.00010219001 1.0256404e-05
0001a0 07 30 c8 38 6b ed 79 39 78 e8 2b 37 0c 29 2a 39
       9.545689e-05 0.00023834936 1.024652e-05 0.00016227755
0001b0 0d f4 1f 3c 40 5a b4 39 de f3 94 3c 8a 79 27 3c
       0.009762776 0.00034399517 0.018182691 0.010221848
0001c0 4b 2e b4 39 79 5f 94 3c 6c ea bd 3c 19 13 a0 3a
       0.00034366766 0.018111931 0.02318307 0.0012212723
0001d0 c3 86 69 3d 40 d9 eb 3c 16 e9 9f 3a cd 3f 5b 3d
       0.057013284 0.028790116 0.0012200202 0.053527642
0001e0 9a 5f d2 38 e0 4e 01 3a a0 1a 2b 3c 12 30 d2 3b
       0.000100313875 0.0004932713 0.01044336 0.006414422
0001f0 26 30 01 3a 50 ef 22 3c 86 21 7e 38 7c 40 8a 36
       0.0004928134 0.009944752 6.058954e-05 4.1202275e-06
000200 e7 68 8f 38 68 91 d5 38 5f 1a 8a 36 5e a2 ea 38
       6.838311e-05 0.000101837155 4.1157905e-06 0.00011188233
000210 89 b4 b4 3b a4 b3 20 3a 31 d2 7a 3c cf bb 42 3c
       0.0055146855 0.0006130284 0.015308903 0.011885597
000220 bd 8b 20 3a 93 db 82 3c 04 1b a2 3a cb 3a b0 38
       0.0006124338 0.015973842 0.001236767 8.403285e-05
000230 13 cd d2 3a 46 8a 03 3b 08 10 b0 38 08 c6 17 3b
       0.0016082845 0.002007143 8.39532e-05 0.0023158807
000240 49 e4 3b 38 f5 8d 77 36 c2 ed a8 38 2f 2f a3 38
       4.479688e-05 3.6888498e-06 8.05515e-05 7.781234e-05
000250 f9 4b 77 36 eb b4 df 38 74 4d 11 37 4d 22 21 35
       3.685009e-06 0.00010667167 8.660707e-06 6.002709e-07
000260 85 af 20 37 f6 2d 85 37 36 ff 20 35 16 12 70 37
       9.5776095e-06 1.5876238e-05 5.9976026e-07 1.4309326e-05
000270 f9 f8 1c 3b 34 52 b9 b9 27 f6 98 bc ff c5 90 3a
       0.002395211 -0.00035347196 -0.018672062 0.0011045336
000280 8d 23 b9 b9 23 00 76 bc f2 86 a2 b7 37 58 40 b6
       -0.00035312437 -0.015014681 -1.9374744e-05 -2.8661577e-06
000290 73 2e 77 b8 1a 62 3c b8 7d 18 40 b6 54 29 ae b8
       -5.893265e-05 -4.4914057e-05 -2.8624484e-06 -8.3046645e-05
0002a0 c2 5f a2 bb 4b bf 8b b9 b9 e2 c8 ba 23 1e 0e bc
       -0.004955263 -0.0002665467 -0.0015326358 -0.008674177
0002b0 b3 9d 8b b9 c3 a7 8e bb 23 df e7 3a 57 cb 87 b9
       -0.0002662964 -0.004353495 0.0017690401 -0.00025900707
0002c0 ab e8 57 bc a2 dc d6 39 69 a8 87 b9 cf 32 1f bc
       -0.013178031 0.00040981645 -0.00025874682 -0.009716704
0002d0 18 56 19 bb 06 fd e1 37 d0 68 9b 3a 01 60 f7 ba
       -0.0023397263 2.6939913e-05 0.0011856798 -0.0018873216
0002e0 af cb e1 37 71 22 29 39 c1 aa 0f 3c db e0 d8 39
       2.6916938e-05 0.00016129926 0.008768738 0.0004136626
0002f0 c2 e6 70 3c 00 5c 48 3c d0 a3 d8 39 a4 9b 67 3c
       0.014703454 0.012228966 0.0004132078 0.014136229
000300 4b ee f6 b9 4a 23 8e b5 51 96 12 3a 8c 3a 09 ba
       -0.00047098318 -1.0590095e-06 0.0005591857 -0.00052348594
000310 9a 05 8e b5 07 00 45 39 5a 71 84 3a f5 01 91 39
       -1.0581455e-06 0.00018787394 0.0010104582 0.00027658013
000320 e8 1d 6b 3c 33 35 26 3b 38 dd 90 39 d3 38 3c 3c
       0.014350392 0.00253613 0.0002763064 0.011488157
000330 56 7b 2c 3d 9b 7e d3 3a 9b 79 a7 3d be 0b 3c 3d
       0.04210981 0.0016135754 0.08177491 0.045909636
000340 33 46 d3 3a 7e f8 a5 3d de 5f 77 bc 6f 60 fc b9
       0.0016118943 0.08104037 -0.01509854 -0.00048137034
000350 29 4c a9 bc 14 1f 91 bc 36 20 fc b9 0d a5 a7 bc
       -0.020666199 -0.017715015 -0.00048089185 -0.020464445
000360 3b d4 a1 bc 32 d4 7a ba 77 74 34 bd f6 75 c4 bc
       -0.01975452 -0.0009568363 -0.044056382 -0.02398203
000370 76 91 7a ba e1 a7 2b bd 14 f7 e6 bb c3 92 d2 b9
       -0.00095584185 -0.04190815 -0.007048497 -0.00040163667
000380 19 d1 77 bc b9 6e 25 bc 90 57 d2 b9 91 34 70 bc
       -0.015125536 -0.010097199 -0.0004011956 -0.01466097
000390 2c 4d 8a 37 a6 9a 56 b7 26 65 d8 b9 c7 cc aa 38
       1.6486818e-05 -1.2791401e-05 -0.00041274092 8.1443744e-05
0003a0 d0 63 56 b7 03 49 e3 b9 56 9b 6c 3c 83 6b 79 3a
       -1.2778633e-05 -0.00043351212 0.014441332 0.00095146167
0003b0 35 4f 52 3d 8e a5 8c 3c 7e 2a 79 3a d3 2b 3c 3d
       0.05134507 0.017168786 0.0009504928 0.04594023
0003c0 75 2b 96 ba 45 10 d7 38 19 b0 b2 3b 74 c6 02 ba
       -0.0011457043 0.00010255029 0.0054531214 -0.0004988678
0003d0 f7 d8 d6 38 fd c0 79 3b 06 dc 95 3b ac e0 23 39
       0.00010244728 0.0038109415 0.004573348 0.00015628588
0003e0 d2 aa b9 3b 18 bd ac 3b 86 b6 23 39 ef d0 e3 3b
       0.0056661153 0.005271565 0.00015612887 0.006952397
0003f0 d7 94 aa 36 cb a1 18 b5 7d 7d db b7 dc 6f 8d 35
       5.083722e-06 -5.685985e-07 -2.616527e-05 1.0537874e-06

exp_avg_sq f4 [128, 6]
000000 5a 64 5e 37 34 d4 58 34 51 34 0b 38 60 99 0a 39
       1.3255596e-05 2.0193767e-07 3.3188906e-05 0.00013217842
000010 4f 65 58 34 93 c8 49 39 54 62 95 38 5a 2e 32 35
       2.0153423e-07 0.00019243573 7.123189e-05 6.637762e-07
000020 2e 1d 86 3a e4 12 34 38 18 d3 31 35 0a c1 87 3a
       0.0010232085 4.2932938e-05 6.624482e-07 0.0010357213
000030 f5 8f 8e 39 c8 8f 80 36 8b f3 90 3b 55 85 27 3a
       0.00027191607 3.8314356e-06 0.004423564 0.00063904125
000040 e8 4d 80 36 7b 24 c4 3b 57 bb e7 39 bc 80 91 35
       3.8237667e-06 0.005985794 0.00044199332 1.0840808e-06
000050 ab 1d 54 3a 7d 12 24 3a 53 36 91 35 32 4c aa 3a
       0.0008091579 0.00062588585 1.0819152e-06 0.0012992679
000060 a3 53 30 3a 07 e7 46 37 a3 7c 52 3c ff a8 af 3a
       0.000672633 1.185551e-05 0.0128470985 0.0013401805
000070 1b 81 46 37 7c 26 94 3c 3d bc 4b 3a db ac c9 36
       1.1831779e-05 0.018084757 0.0007771885 6.01039e-06
000080 e8 d1 d6 3b 36 08 60 3a a3 45 c9 36 32 73 13 3c
       0.0065557845 0.00085461454 5.9983736e-06 0.008999633
000090 28 b9 5f 38 cc a0 81 35 e0 32 9a 3a 37 2b 8c 38
       5.3339783e-05 9.658047e-07 0.001176443 6.6837696e-05
0000a0 a7 5e 81 35 f5 17 c4 3a ec 2f 7f 33 ba 32 d9 30
       9.638796e-07 0.0014960753 5.94154e-08 1.5803245e-09
0000b0 38 82 bf 31 8f d8 8e 35 44 c3 d8 30 b2 73 f4 35
       5.5736358e-09 1.0642851e-06 1.5771566e-09 1.8213088e-06
0000c0 29 78 14 3a 25 6c b5 35 9a ea 4d 3a 4a c3 16 3a
       0.0005663657 1.3517025e-06 0.0007855088 0.0005751146
0000d0 6a 0f b5 35 a5 b5 ef 3a 38 25 48 3b 6b 4c 9c 37
       1.3490037e-06 0.0018288387 0.0030539762 1.8632234e-05
0000e0 82 ad a3 3c 78 5e 4a 3b 71 fc 9b 37 02 1f e6 3c
       0.019980196 0.0030879062 1.8594992e-05 0.028090958
0000f0 89 a5 78 36 3f 7f fc 32 5b c4 1e 37 f3 84 b0 36
       3.7051234e-06 2.9394526e-08 9.463251e-06 5.260686e-06
000100 ed fd fb 32 66 ca 22 38 52 19 91 3a 79 dc 1e 37
       2.9335718e-08 3.8812308e-05 0.0011070168 9.468867e-06
000110 35 a7 1a 3c 8d 81 73 3a 31 8b 1e 37 cb 03 70 3c
       0.009439279 0.0009289019 9.449942e-06 0.014649342
000120 f9 30 ae 33 49 6b 0d 30 00 ca 4e 34 17 61 c4 32
       8.1114145e-08 5.144796e-10 1.9258732e-07 2.2861554e-08
000130 d3 22 0d 30 26 af 05 35 f9 16 14 3b e2 08 47 37
       5.134499e-10 4.9801235e-07 0.00225967 1.18633925e-05
000140 22 eb 43 3c 73 47 0d 3b 05 a3 46 37 25 6f 91 3c
       0.0119579155 0.002155748 1.1839676e-05 0.017753193
000150 ef 90 ab 37 6e 7f 8f 34 93 d0 ca 39 04 91 6a 37
       2.0452278e-05 2.6728543e-07 0.00038683842 1.3981251e-05
000160 e1 35 8f 34 7b 87 b2 39 35 f7 ac 32 01 24 c8 2f
       2.6675028e-07 0.00034051746 2.0135852e-08 3.640537e-10
000170 fc 97 22 32 58 13 81 34 6f bd c7 2f c4 bc d9 34
       9.464198e-09 2.4042197e-07 3.633249e-10 4.0556745e-07
000180 0d 09 1e 3a 03 4c 59 36 94 4e 49 3b 03 79 41 3a
       0.00060285704 3.2379764e-06 0.0030717002 0.0007380398
000190 ab dc 58 36 c1 99 9c 3b 23 a6 b4 38 a9 56 32 34
       3.2314954e-06 0.004779071 8.614014e-05 1.6609069e-07
0001a0 06 31 3d 38 dc 5a 33 37 fa fa 31 34 bf dc 6c 39
       4.5106768e-05 1.0690386e-05 1.6575714e-07 0.00022588948
0001b0 e8 1c 69 39 4a 0e 6b 35 2e 3c 20 3a 5d 40 9e 39
       0.0002223138 8.7565115e-07 0.0006112483 0.00030184063
0001c0 2a 96 6a 35 4d 85 9f 3a d8 7f b1 3a 0e 81 27 37
       8.739031e-07 0.0012170464 0.0013542129 9.984024e-06
0001d0 db 10 26 3c 22 e6 b8 3a 43 2b 27 37 53 51 78 3c
       0.010135855 0.0014106671 9.964048e-06 0.015156108
0001e0 84 86 6f 3a 04 82 83 36 0b 83 66 3b 9e d8 8d 3a
       0.0009137171 3.91924e-06 0.0035173323 0.0010822003
0001f0 b6 3e 83 36 ea b7 b7 3b 87 fc bc 36 1c e5 a4 33
       3.9114047e-06 0.005606641 5.6322347e-06 7.67852e-08
000200 4a 5d a1 36 7d 23 38 38 c8 90 a4 33 31 2b ba 38
       4.809034e-06 4.390207e-05 7.663181e-08 8.877216e-05
000210 17 03 9b 3a 0b 65 0a 37 ae 09 fc 3b fb 01 8b 3a
       0.0011826482 8.248967e-06 0.0076915836 0.0010605449
000220 3f 1e 0a 37 47 c1 4d 3c 92 e8 b4 39 75 77 c0 34
       8.232483e-06 0.012558288 0.00034505554 3.5849703e-07
000230 8f f1 a0 37 b4 85 60 38 95 14 c0 34 f5 8a a5 39
       1.918597e-05 5.3530282e-05 3.5777762e-07 0.00031574783
000240 49 32 e3 33 d0 3e 36 31 08 62 8a 34 5b 70 64 35
       1.0579658e-07 2.652019e-09 2.577583e-07 8.510012e-07
000250 9f e1 35 31 4a b9 4a 36 4e 79 98 35 e6 9e a2 32
       2.6467217e-09 3.0208198e-06 1.1360187e-06 1.893154e-08
000260 5b 56 1b 35 24 ac 13 37 ba 4b a2 32 40 2b d3 37
       5.7867663e-07 8.801962e-06 1.8893719e-08 2.51733e-05
000270 81 97 ca 39 2d 5a 0d 36 07 41 17 3b 46 78 a9 39
       0.00038641322 2.1063126e-06 0.002307953 0.00032323803
000280 e5 11 0d 36 45 98 52 3b f8 8c 73 38 d8 bb 80 35
       2.1021053e-06 0.0032134217 5.8067002e-05 9.591413e-07
000290 58 e9 a4 39 6b 02 01 39 25 7a 80 35 a5 ee b6 3a
       0.00031454372 0.000123033 9.572292e-07 0.001395662
0002a0 25 20 02 3a c7 0c 08 36 a4 1b e6 3a dc c5 09 3a
       0.00049638964 2.0273017e-06 0.0017555845 0.00052556186
0002b0 3e c7 07 36 ca 50 3f 3b 12 69 9c 39 cd 44 0a 37
       2.0232542e-06 0.002919244 0.00029832922 8.24146e-06
0002c0 66 b8 26 3c a7 27 71 39 ea fd 09 37 90 43 59 3c
       0.0101758 0.00022998323 8.224955e-06 0.013260737
0002d0 1b c0 63 39 f0 da 78 36 38 c9 75 3b 2a 70 90 39
       0.00021719972 3.7082318e-06 0.003750397 0.0002754939
0002e0 70 5b 78 36 b7 de b9 3b dd c6 97 3a 37 f3 8e 36
       3.7008103e-06 0.0056723016 0.0011579652 4.2602437e-06
0002f0 e0 5e 46 3b 16 eb 8b 3a 2b aa 8e 36 ca d7 c7 3b
       0.0030268952 0.001067492 4.25174e-06 0.006098722
000300 66 31 67 37 ca fa e9 33 95 46 35 39 ef 14 a0 36
       1.3780174e-05 1.0895526e-07 0.00017287799 4.7708086e-06
000310 ff 82 e9 33 2f 7c 14 39 78 60 07 3a 79 66 8d 36
       1.0873736e-07 0.00014160642 0.0005164216 4.214057e-06
000320 1a 42 97 3b 09 35 93 39 08 1e 8d 36 de 92 d5 3b
       0.004616034 0.0002807754 4.2056236e-06 0.006517752
000330 f0 c1 5e 3b eb 7e 23 37 fc 76 02 3c e8 5f 3c 3b
       0.0033990107 9.7451075e-06 0.007962938 0.0028743688
000340 31 2b 23 37 42 be 62 3c a4 9e 64 3a fe 31 f5 36
       9.725613e-06 0.013839306 0.0008721149 7.307389e-06
000350 34 ea 08 3c 49 7c 68 3a 53 b4 f4 36 0a 1c 37 3c
       0.00835662 0.00088686176 7.292759e-06 0.011176119
000360 4e 59 5e 3a df 33 a0 36 38 6f a3 3b c6 f0 7b 3a
       0.00084819354 4.77441e-06 0.0049876235 0.0009610768
000370 e0 e1 9f 36 b8 ce e4 3b 24 64 16 3a 79 f4 42 36
       4.7648646e-06 0.0069826506 0.0005736968 2.9050555e-06
000380 08 78 28 3b 42 65 32 3a 9b 90 42 36 75 ce 88 3b
       0.002570631 0.000680525 2.8992424e-06 0.004175002
000390 eb 0e 2b 39 f2 4d f1 35 0f 54 cb 3a 62 d0 91 38
       0.00016313388 1.7978584e-06 0.0015512722 6.952953e-05
0003a0 38 d2 f0 35 fd 6b 3c 3b ec 4e 0d 3a 26 db 78 36
       1.7942575e-06 0.002875089 0.00053904834 3.708244e-06
0003b0 c3 9b 92 3b 83 03 19 3a 8d 5b 78 36 2e 36 ba 3b
       0.0044741347 0.000583701 3.700817e-06 0.0056827283
0003c0 2a b0 97 38 9f 38 5a 35 16 1e cf 3a 75 35 ba 37
       7.233054e-05 8.1293723e-07 0.0015801813 2.219782e-05
0003d0 ca c8 59 35 70 8a 8f 3a 77 22 e4 38 c9 e7 5f 36
       8.1130986e-07 0.0010951292 0.00010878307 3.3364506e-06
0003e0 4b de 66 3b 9e b4 35 39 01 75 5f 36 02 99 aa 3b
       0.0035227712 0.0001732879 3.3297695e-06 0.0052062282
0003f0 47 27 94 34 5e 74 59 31 a8 d1 d0 35 26 14 68 34
       2.7595726e-07 3.1643803e-09 1.5558226e-06 2.1614014e-07

exp_avg f4 [128]
000000 45 1b 2c 37 51 1c 1d 3a f2 14 68 39 33 f3 ea 39
       1.0258348e-05 0.0005993294 0.00022133047 0.00044813156
000010 eb 6b e6 b6 2b a2 8d 3a b3 5b 94 b9 70 83 e1 32
       -6.8670975e-06 0.0010805776 -0.0002829708 2.6253218e-08
000020 23 e8 a2 ba 87 ee 83 bb 67 ce 8b 37 aa 1c 81 3a
       -0.0012428801 -0.0040262374 1.6666205e-05 0.0009850462
000030 8e 8f ab b6 52 e8 30 bb 97 5c 96 b8 49 6c 89 36
       -5.112909e-06 -0.0026993942 -7.1698036e-05 4.095524e-06
000040 48 a5 8a ba 77 e8 ab 37 4d 2e 34 3a 16 e9 1f 3b
       -0.0010577822 2.0493038e-05 0.00068733544 0.0024400405
000050 23 30 81 3a 5f 1a 0a 37 bd 8b a0 3a 07 10 30 39
       0.0009856265 8.231581e-06 0.0012248677 0.00016790639
000060 f9 4b f7 36 36 ff a0 35 8d 23 39 ba 7e 18 c0 b6
       7.370018e-06 1.1995205e-06 -0.00070624874 -5.724897e-06
000070 b3 9d 0b ba 69 a8 07 ba af cb 61 38 d2 a3 58 3a
       -0.0005325928 -0.00051749364 5.3833875e-05 0.0008264157
000080 99 05 0e b6 37 dd 10 3a 34 46 53 3b 37 20 7c ba
       -2.1162907e-06 0.00055261276 0.003223789 -0.00096178375
000090 76 91 fa ba 90 57 52 ba cd 63 d6 b7 7e 2a f9 3a
       -0.0019116837 -0.0008023912 -2.5557261e-05 0.0019009856
0000a0 f7 d8 56 39 83 b6 a3 39 a2 7a 98 b5 84 3f ba b8
       0.00020489456 0.00031225765 -1.1360573e-06 -8.881002e-05
0000b0 14 8f 8f b8 56 c4 7b b9 11 54 0e bb ff 2d a6 3a
       -6.845422e-05 -0.00024010366 -0.0021717588 0.0012678503
0000c0 ef 9c b7 b1 87 06 ac b9 a0 23 29 bb de 06 82 ba
       -5.3438423e-09 -0.0003281126 -0.0025808588 -0.000992026
0000d0 4f b1 7c ba 39 12 21 b7 ff 02 ce b9 1d 29 45 b9
       -0.0009639458 -9.600591e-06 -0.00039293614 -0.000188027
0000e0 b5 dd 9c ba ae b3 08 39 11 99 6a b9 fa 78 d1 b9
       -0.0011967929 0.00013036907 -0.00022373 -0.0003995372
0000f0 8d b4 cf ba c4 22 70 39 75 c8 06 b8 97 b9 e7 b8
       -0.0015846655 0.00022901135 -3.213478e-05 -0.00011049507
000100 0a 17 94 b9 15 06 3b 3b 78 4a 87 b4 48 1e 18 b4
       -0.00028245925 0.002853756 -2.5199893e-07 -1.416712e-07
000110 17 8b 5e b7 a7 f2 a0 3a 07 86 13 3b df 3d 0d af
       -1.32646155e-05 0.0012279347 0.0022510306 -1.2845856e-10
000120 ca 15 a0 32 5f 7d 44 3a 48 09 8a 38 c6 43 2b ba
       1.863636e-08 0.00074954884 6.5820816e-05 -0.00065332314
000130 8a 6f 66 b6 06 0b 86 3b 99 69 21 bb 77 86 d1 3a
       -3.4337595e-06 0.0040906696 -0.0024629591 0.0015985508
000140 58 b2 2f ba 04 e1 47 bb 1a e8 c9 b7 6b 3a 37 b9
       -0.00067022955 -0.003049911 -2.4069148e-05 -0.00017474002
000150 c5 87 f2 b0 8e 2e 79 b8 2a 57 8a ba d4 33 03 bb
       -1.7646405e-09 -5.9409584e-05 -0.0010554541 -0.0020019906
000160 40 d3 da ba ec e8 92 33 a9 8b 1d 3b 05 1a 6b b7
       -0.0016695037 6.841023e-08 0.0024039543 -1.401315e-05
000170 88 87 69 3b a0 82 cb 3a 00 e5 68 3a 05 7d b9 3a
       0.0035633761 0.00155266 0.00088842213 0.0014151639
000180 aa 60 0a 3b 98 70 f8 ba 58 09 2a bb ca 43 15 38
       0.0021114745 -0.0018954454 -0.002594551 3.55875e-05
000190 0e 6f 19 b3 6d 64 82 38 d3 27 2f 3a 17 85 c6 39
       -3.5724092e-08 6.217589e-05 0.00066816545 0.00037864663
0001a0 15 ec 6e 3a 94 29 f5 b8 e0 47 25 3a 04 5c 2b b7
       0.00091141585 -0.00011690255 0.00063049607 -1.0213818e-05
0001b0 45 82 a4 34 36 f7 a5 36 ec 59 a1 ba aa 5a d3 b7
       3.0642164e-07 4.9461623e-06 -0.0012310124 -2.5195379e-05
0001c0 f5 9f bd 3a 86 c1 81 37 1b 2a c0 b4 7c da 6f 38
       0.0014467227 1.5468115e-05 -3.5793423e-07 5.718552e-05
0001d0 d5 53 37 3b 33 6c c8 38 75 c8 97 36 14 e3 36 3a
       0.0027973552 9.556897e-05 4.523487e-06 0.00069765863
0001e0 06 74 e6 b5 09 a7 cc b3 a0 31 f4 39 14 63 8b b9
       -1.7170103e-06 -9.529874e-08 0.0004657628 -0.00026585965
0001f0 72 6b 85 3b a1 0e b4 3b 5b ad a1 b8 cd 5c 4f ba
       0.0040716464 0.005494908 -7.709368e-05 -0.0007910252
