MLAgentsProject/results/MoveToGoalForces1/MoveToGoal/MoveToGoal-499982.onnx (onnx, 72461 bytes, 7 tensors)

action_model._continuous_distribution.log_sigma f4 [1, 2]
-0.20264179 -0.37729168
00000000: 5481 4fbe 602c c1be

action_model._continuous_distribution.mu.bias f4 [2]
0.07858789 0.04881816
00000000: b0f2 a03d 8df5 473d

action_model._continuous_distribution.mu.weight f4 [2, 128]
-0.060430627 -0.057184644 0.078440115 -0.05926148 -0.01055099 -0.040121917 -0.1069532 -0.00028573253
-0.025569955 -0.089208454 -0.012244327 -0.1265408 -0.038187426 -0.04132256 0.03195732 -0.07726587
-0.033237018 -0.01998974 -0.024398308 0.09620186 0.122629575 -0.0484061 -0.043707218 -0.029565489
-0.10410466 0.0863578 -0.10058789 0.07604554 -0.07160009 0.030610895 -0.074848026 -0.10112959
0.05360098 0.024298914 -0.04251132 -0.024413858 -0.023929795 0.030672947 -0.036888815 0.0020967652
0.13593437 0.055367827 -0.11550035 0.0426163 0.029648682 -0.10609777 0.014737325 0.010135191
0.01619471 -0.10500022 -0.10500277 -0.111441836 -0.081850946 -0.06252078 -0.042838234 -0.022113804
0.0041850465 0.13375661 0.033274848 -0.023018762 -0.011717416 0.05242606 -0.04653521 -0.049264826
-0.07404655 -0.036392137 0.050507765 0.06319516 -0.008258266 -0.091218255 -0.029692335 -0.040699307
-0.044360228 -0.0255547 -0.12982394 -0.010324783 0.017888306 -0.013362544 0.014450139 -0.011756431
0.071048714 0.077189066 -0.074585244 -0.00032439796 -0.001339754 -0.08123224 -0.062785506 -0.047153953
-0.06867841 0.0018971771 0.007907916 -0.031090243 0.021289317 0.008699917 -0.08458011 -0.01920963
-0.017092967 0.06414219 -0.01815453 0.044862334 -0.10301025 0.045302648 -0.04791156 -0.03698264
-0.026114633 -0.023908395 -0.026877128 0.07150039 0.06284082 0.02050105 -0.0075469147 0.04054141
0.03714084 -0.03503265 -0.027385667 -0.038894143 -0.042296633 -0.0619715 -0.054129265 0.0121965315
-0.010323187 0.02201343 -0.13432379 0.04437152 -0.06364231 -0.034799524 0.076888636 0.068710975
-0.012045644 -0.06816795 0.08257392 -0.043877028 -0.0069658444 0.008869677 -0.0017322743 -0.0054471507
-0.015703704 0.05553419 -0.00373303 -0.040281672 -0.062063567 0.014868187 -0.038848653 -0.078978434
-0.056806512 0.015726129 0.005137713 -0.009083057 -0.009036523 -0.118505046 0.019730708 0.010091678
-0.02426171 -0.022205666 -0.025650967 0.09173424 0.008744334 -0.006541467 -0.05617434 -0.028083941
-0.08096138 -0.025810149 -0.04506987 -0.0037507322 0.0023464037 -0.028067514 -0.01749718 -0.0065869377
0.016752707 0.021297604 -0.04009709 -0.03511133 0.035723504 -0.040960897 -0.00035345944 -0.0045221965
-0.054021664 -0.05706098 -0.105916455 -0.031516004 -0.04609167 -0.04140148 -0.06476375 -0.03502589
0.009053909 -0.021967156 0.03688602 0.0017766784 -0.0077627287 -0.027432581 0.0058016684 -0.007633436
-0.05089412 -0.02121153 0.005582674 -0.015269599 0.0025125097 -0.024876965 -0.011816998 -0.0032676423
-0.02788771 -0.0027317477 -0.0076858248 -0.02737173 -0.019867575 -0.0023463664 -0.0009763488 -0.026570868
-0.027610503 -0.031246416 -0.056457654 -0.054911736 -0.022337688 -0.02887863 -0.017934756 0.04299114
-0.052800324 -0.075159505 -0.022849763 0.047933053 -0.019467985 -0.04405394 -0.002700097 0.015142997
0.0045620324 -0.0667452 -0.011088952 0.043920234 -0.017992707 -0.09845059 -0.0037224062 -0.07860506
-0.013036284 -0.04040039 -0.014964021 -0.09610303 -0.014273271 -0.0032597187 -0.009233478 0.008507045
0.0063559148 0.026464568 -0.02057609 -0.031486418 -0.02581101 0.01911763 -0.039437756 -0.086023666
0.011398382 -0.045181576 -0.015431185 -0.043786824 -0.018403647 0.027461957 0.07918786 -0.0888676
00000000: 1b86 77bd 723a 6abd 36a5 a03d 2abc 72bd
00000010: 0fde 2cbc e156 24bd 480a dbbd 5fce 95b9
00000020: 1578 d1bc ecb2 b6bd 6e9c 48bc e993 01be
00000030: 6b6a 1cbd d841 29bd aee5 023d 923d 9ebd
00000040: 8a23 08bd 86c1 a3bc f6de c7bc 7b05 c53d
00000050: 3725 fb3d 7a45 46bd 5706 33bd 5333 f2bc
00000060: d334 d5bd 5cdc b03d 0601 cebd c4bd 9b3d
00000070: 11a3 92bd b3c3 fa3c ec49 99bd 081d cfbd
00000080: b48c 5b3d 840e c73c 5a20 2ebd 92ff c7bc
00000090: 6b08 c4bc d545 fb3c ba18 17bd e269 093b
000000a0: 6132 0b3e 60c9 623d 738b ecbd 6e8e 2e3d
000000b0: cbe1 f23c ca49 d9bd d274 713c 120e 263c
000000c0: c5aa 843c 5b0a d7bd b10b d7bd 9e3b e4bd
000000d0: 78a1 a7bd e50a 80bd 2577 2fbd 0228 b5bc
000000e0: b722 893b 7ef7 083e 354b 083d d891 bcbc
000000f0: 68fa 3fbc b5bc 563d b49b 3ebd eac9 49bd
00000100: b8a5 97bd ec0f 15bd 3be1 4e3d 776c 813d
00000110: ae4d 07bc a3d0 babd 573d f3bc 51b4 26bd
00000120: 12b3 35bd 1758 d1bc 91f0 04be 4729 29bc
00000130: 7f8a 923c 92ee 5abc 47c0 6c3c 0c9e 40bc
00000140: fd81 913d 4d15 9e3d 26c0 98bd f513 aab9
00000150: af9a afba 175d a6bd b095 80bd 8124 41bd
00000160: 44a7 8cbd b3aa f83a 3490 013c f7b0 febc
00000170: ef66 ae3c 198a 0e3c 5638 adbd 845d 9dbc
00000180: 8d06 8cbc fb5c 833d cfb8 94bc 91c1 373d
00000190: 0af7 d2bd 458f 393d e93e 44bd 1c7b 17bd
000001a0: 5bee d5bc 8adb c3bc 6c2d dcbc cc6e 923d
000001b0: b0b2 803d d1f1 a73c 1c4c f7bb c00e 263d
000001c0: fe20 183d 657e 0fbd e857 e0bc 774f 1fbd
000001d0: 3c3f 2dbd d4d5 7dbd a6b6 5dbd f6d3 473c
000001e0: 9622 29bc 8255 b43c 2d8c 09be e9be 353d
000001f0: e656 82bd f289 0ebd ca77 9d3d 57b8 8c3d
00000200: 185b 45bc a39b 8bbd 841c a93d 66b8 33bd
00000210: bd41 e4bb 1f52 113c 7b0d e3ba 037e b2bb
00000220: 0ea5 80bc d277 633d daa5 74bb 65fe 24bd
00000230: 5e36 7ebd b299 733c c41f 1fbd 72bf a1bd
00000240: f2ad 68bd 15d4 803c 435a a83b 1ad1 14bc
00000250: ed0d 14bc c6b2 f2bd 4ba2 a13c 9157 253c
00000260: 7ec0 c6bc a8e8 b5bc fa21 d2bc 29df bb3d
00000270: 6544 0f3c cd59 d6bb 1117 66bd 4b10 e6bc
00000280: 14cf a5bd ce6f d3bc 2f9b 38bd d8ce 75bb
00000290: 1fc6 193b d8ed e5bc 3f56 8fbc 3dd7 d7bb
000002a0: f93c 893c 5078 ae3c d93c 24bd e6d0 0fbd
000002b0: cf52 123d 9dc6 27bd 8650 b9b9 ef2e 94bb
000002c0: d245 5dbd c6b8 69bd baea d8bd ed16 01bd
000002d0: 9eca 3cbd 9994 29bd dba2 84bd 4f77 0fbd
000002e0: d956 143c 77f4 b3bc cc15 173d 6fdf e83a
000002f0: 7d5e febb 4bba e0bc ec1b be3b e721 fabb
00000300: 5a76 50bd cdc3 adbc ddee b63b 572d 7abc
00000310: eba8 243b c7ca cbbc 159c 41bc f125 56bb
00000320: c474 e4bc 1f07 33bb 5fd9 fbbb ae3a e0bc
00000330: 53c1 a2bc 7fc5 19bb a9f1 7fba 26ab d9bc
00000340: 6c2f e2bc 7cf8 ffbc 2440 67bd 21eb 60bd
00000350: 87fd b6bc e092 ecbc e9eb 92bc 7a17 303d
00000360: 2745 58bd 3aed 99bd 6d2f bbbc 7355 443d
00000370: 537b 9fbc e771 34bd 1cf4 30bb 551a 783c
00000380: 1a7d 953b b5b1 88bd 70ae 35bc b4e5 333d
00000390: 7165 93bc 77a0 c9bd 9df3 73bb b1fb a0bd
000003a0: 2396 55bc e17a 25bd a72b 75bc aad1 c4bd
000003b0: 70da 69bc 01a1 55bb 0448 17bc 2261 0b3c
000003c0: 4745 d03b 39cc d83c 308f a8bc e7f7 00bd
000003d0: 9c71 d3bc 939c 9c3c 7c89 21bd 2d2d b0bd
000003e0: 47c0 3a3c 5110 39bd 15d3 7cbc d059 33bd
000003f0: 3fc3 96bc e6f7 e03c 3f2d a23d 3700 b6bd

network_body._body_endoder.seq_layers.0.bias f4 [128]
-0.025318898 0.07597528 -0.0017959615 -0.0011223715 0.1124094 -0.09749714 0.085073985 -0.05881055
0.1177844 -0.049685605 -0.14424849 0.100746 -0.14607283 -0.0703487 -0.09768311 -0.17100513
-0.13758765 0.01395026 0.08414343 -0.052681405 -0.24899463 0.10036649 -0.17130537 -0.031293463
0.123761736 -0.14039338 -0.1247197 0.117829725 -0.11405999 0.045788296 -0.025023472 -0.24705441
0.042309124 0.038156293 -0.059485864 -0.101658635 -0.097231865 -0.09401695 -0.031251762 0.013157039
-0.11207496 -0.11509113 0.06787617 -0.017568842 0.037936322 -0.21067551 -0.091486655 0.017877685
-0.12054026 0.037718195 -0.029072708 -0.070517436 0.022455974 0.121742114 -0.100834146 -0.10545403
0.05034627 0.0027737957 -0.105057016 0.15364358 -0.12145253 -0.112150736 -0.23004672 -0.10626138
-0.04861791 -0.03557728 -0.14676932 -0.098347425 0.020204216 -0.12554885 0.16854435 -0.096016034
-0.010116019 0.115098074 0.20353973 0.014951578 0.10824803 -0.067617685 -0.22207437 -0.015028121
0.0068527358 0.029136995 -0.023395326 0.0041287555 -0.028652096 0.06902367 -0.0048917704 -0.043680474
-0.0144523475 -0.057646535 -0.016750604 -0.025242742 -0.1428408 -0.013859165 -0.057538416 0.05277844
-0.19104688 -0.051423103 -0.113771476 0.05852927 -0.012138077 0.03749703 -0.03188268 -0.13285959
0.009294108 0.057751015 -0.12124948 0.029133573 -0.10237965 0.07084545 -0.06668625 -0.025239807
-0.056318514 -0.08909454 -0.05135789 0.09419055 -0.11378412 -0.09977757 -0.049452785 -0.093877956
0.08424607 -0.058168434 -0.08491968 0.017142462 0.013074669 0.06431257 -0.08455206 -0.12528947
00000000: 9469 cfbc ed98 9b3d 7866 ebba 8a1c 93ba
00000010: e636 e63d 95ac c7bd 453b ae3d 55e3 70bd
00000020: f338 f13d 2283 4bbd e0b5 13be eb53 ce3d
00000030: 1e94 15be fb12 90bd 150e c8bd f81b 2fbe
00000040: c7e3 0cbe a28f 643c 6453 ac3d 75c8 57bd
00000050: 73f8 7ebe f28c cd3d ad6a 2fbe 932d 00bd
00000060: cb76 fd3d 48c3 0fbe 0b6d ffbd b650 f13d
00000070: 4998 e9bd 828c 3b3d 06fe ccbc d5fb 7cbe
00000080: 554c 2d3d c649 1c3d 73a7 73bd 6732 d0bd
00000090: 8021 c7bd f58b c0bd d901 00bd 9f90 573c
000000a0: 8e87 e5bd e6b4 ebbd a902 8b3d 88ec 8fbc
000000b0: 1e63 1b3d 52bb 57be 5b5d bbbd 3974 923c
000000c0: d0dd f6bd 657e 1a3d e329 eebc 726b 90bd
000000d0: 97f5 b73c ee53 f93d 2282 cebd 48f8 d7bd
000000e0: e437 4e3d 92c8 353b 2228 d7bd be54 1d3e
000000f0: 1bbc f8bd 49af e5bd 5e91 6bbe 919f d9bd
00000100: 9323 47bd 7bb9 11bd b24a 16be 606a c9bd
00000110: 5083 a53c e18f 00be e496 2c3e 0ea4 c4bd
00000120: a9bd 25bc 8ab8 eb3d b86c 503e 77f7 743c
00000130: 25b1 dd3d 247b 8abd 7767 63be 8238 76bc
00000140: ea8c e03b b5b0 ee3c 8ea7 bfbc 834a 873b
00000150: cdb7 eabc 485c 8d3d 254b a0bb 4cea 32bd
00000160: 8ac9 6cbc c61e 6cbd 9038 89bc dec9 cebc
00000170: dc44 12be 8d11 63bc 67ad 6bbd 352e 583d
00000180: cba1 43be 08a1 52bd 0501 e9bd 63bc 6f3d
00000190: c9de 46bc 7c96 193d 6a97 02bd 580c 08be
000001a0: 5046 183c 548c 6c3d a651 f8bd 88a9 ee3c
000001b0: 6cac d1bd 6b17 913d cd92 88bd b6c3 cebc
000001c0: 3eae 66bd 3377 b6bd a75c 52bd fae6 c03d
000001d0: a607 e9bd 2f58 ccbd 018f 4abd 1643 c0bd
000001e0: 3489 ac3d 0642 6ebd 5fea adbd 596e 8c3c
000001f0: 2337 563c 4fb6 833d a129 adbd e24b 00be

network_body._body_endoder.seq_layers.0.weight f4 [128, 6]
-0.16669881 0.11841032 -0.309142 0.5351642 0.37733957 -0.23475595 -0.5958378 -0.31521466
0.18859285 -1.014119 -0.03906974 -0.38659883 -0.86195874 -0.045537245 0.1919919 0.2827275
-0.56612355 0.11260342 0.32327625 -0.10944487 0.26832515 0.6092718 0.4366886 -0.58554834
-1.0864524 0.6803647 0.4567554 0.33436608 0.21161819 -0.10438476 0.45199987 0.26908335
-0.022822961 0.15322123 -0.45894006 0.41870075 0.14268291 -0.28800422 0.27625594 -0.90193343
-0.013475706 -0.34606883 -0.5261545 0.3443816 -0.76765615 0.2477671 -0.4471769 -0.34000322
1.1979642 0.5416089 -0.28456756 -0.111122005 0.17971852 -0.257294 0.32294 -0.19476174
0.30985186 0.10825799 0.3015403 -0.004996673 -0.096153885 -0.43977582 -0.30754483 -0.06399822
0.24955317 -0.00455303 0.17751192 -0.3328878 0.06779073 0.32596582 0.6973593 0.21865147
-0.026896698 0.04922597 -0.08845327 -0.0851801 -0.06867141 -0.26067576 0.48361778 0.42620838
0.22577669 -0.023318892 0.06190912 0.08231111 0.11882823 0.42140833 0.21746586 -0.38027695
-0.23942712 -0.30525172 -0.13404961 0.55440533 -0.39030328 0.2559455 -0.7536958 -0.37947008
-0.25111008 -0.7413517 0.25320792 -0.294994 -0.50149685 0.3577365 0.55526626 0.32001713
-0.17885448 -0.4408342 -0.5374351 -0.13861124 0.058825858 0.0035570213 -0.17868353 0.4380784
0.19942786 0.03560054 0.12943937 0.4835526 0.13782719 -0.3820381 0.26281914 0.47613928
0.6676974 -0.45780584 0.20236494 -0.32835144 -0.5163763 0.8111184 -0.36527225 -0.053681653
-0.39424872 -0.012663135 -0.5563256 -0.025111249 -0.33731997 0.63181174 -0.06196381 0.5066909
-0.3468719 0.19538653 0.22193573 0.33233404 -0.3237593 0.06741008 0.018352225 -0.12686744
-0.1878156 -0.046178613 -0.24461888 -0.062301755 -0.978942 -0.14749736 -0.33067593 0.18091159
-0.6421771 -0.04802939 -1.5909913 0.105163485 -0.059333272 0.694232 0.33605167 -0.37899008
0.044726066 0.08833084 -0.61681056 0.25215644 -0.598852 -0.0071071223 -0.9292031 0.25414655
0.25957975 -0.03339273 0.5300556 0.78013605 -0.07475598 0.203356 -0.47906807 -0.792946
0.055042133 -0.45706367 0.057196155 0.1489752 -0.48128387 -0.5199997 0.031468663 -0.2915275
0.26774663 0.27901414 0.036347218 0.26439276 0.33399263 -0.20326382 -0.3329349 0.41371986
0.2177682 1.1966779 0.17283455 -0.32207796 -0.51950437 -0.3344901 0.35316572 0.022732347
-0.08759434 -0.9379966 -0.17732391 0.42756927 0.6376051 0.18512845 -0.22440241 0.008374104
0.37597877 -0.036921147 0.021255216 0.5629043 0.93499285 -0.4809945 -0.19850545 -0.33245677
0.77062905 0.049794693 0.11315466 0.0450306 -0.004120227 0.02705319 0.004563619 0.0031258906
0.21707691 0.2934776 -0.3069317 0.08712619 -0.009792174 -0.7481419 0.084340475 -0.7998378
-0.48561794 -0.015063835 0.13709708 0.09783025 -0.08775208 0.23908937 -0.216315 0.6165576
0.09545638 -0.098762445 0.47613215 -0.34477243 0.0077672875 -0.54309165 0.13982326 0.4818091
-0.32153487 0.3333255 -0.31493485 0.3173616 -0.3591386 -0.4464051 -0.35136327 -0.43200818
00000000: 18b3 2abe 1c81 f23d dc47 9ebe 8500 093f
00000010: a732 c13e dd63 70be d388 18bf d163 a1be
00000020: 7c1e 413e a7ce 81bf 9707 20bd 48f0 c5be
00000030: 54a9 5cbf 4385 3abd 8699 443e a9c1 903e
00000040: 79ed 10bf 9f9c e63d 7784 a53e a224 e0bd
00000050: ea61 893e 3df9 1b3f a695 df3e 7fe6 15bf
00000060: df10 8bbf 622c 2e3f d8db e93e 0832 ab3e
00000070: 70b2 583e adc7 d5bd 876c e73e 4bc5 893e
00000080: 38f7 babc 07e6 1c3e 31fa eabe f25f d63e
00000090: 781b 123e 4a75 93be 6b71 8d3e 1ce5 66bf
000000a0: 35c9 5cbc ef2f b1be 10b2 06bf c952 b03e
000000b0: 1d85 44bf a9b6 7d3e 5ff4 e4be e714 aebe
000000c0: e456 993f e2a6 0a3f d7b2 91be ef93 e3bd
000000d0: 2208 383e 0abc 83be 6458 a53e 9f6f 47be
000000e0: e7a4 9e3e 5db6 dd3d 7d63 9a3e 22bb a3bb
000000f0: 54ec c4bd 4c2a e1be 8476 9dbe 8011 83bd
00000100: de8a 7f3e 9531 95bb afc5 353e 4570 aabe
00000110: ded5 8a3d fee4 a63e 2486 323f 2ce6 5f3e
00000120: 7756 dcbc 2ca1 493d fd26 b5bd e772 aebd
00000130: 99a3 8cbd 4b77 85be c09c f73e fc37 da3e
00000140: 0132 673e 4307 bfbc 6b94 7d3d ba92 a83d
00000150: 375c f33d d5c2 d73e 5faf 5e3e a9b3 c2be
00000160: 622c 75be f449 9cbe 4d44 09be 82ed 0d3f
00000170: d5d5 c7be 4a0b 833e 35f2 40bf e749 c2be
00000180: 8091 80be 3ac9 3dbf 78a4 813e 7409 97be
00000190: 1962 00bf 3d29 b73e ee25 0e3f 49d9 a33e
000001a0: a125 37be 05b5 e1be 5995 09bf 1bf0 0dbe
000001b0: 62f3 703d ea1c 693b d1f8 36be d04b e03e
000001c0: d136 4c3e dfd1 113d c18b 043e 3594 f73e
000001d0: 9222 0d3e 7f9a c3be 3b90 863e 87c8 f33e
000001e0: 38ee 2a3f 8765 eabe c138 4f3e ae1d a8be
000001f0: 3d31 04bf 75a5 4f3f f704 bbbe 4be1 5bbd
00000200: f8da c9be 0a79 4fbc 5b6b 0ebf 1bb6 cdbc
00000210: 34b5 acbe 6abe 213f c4cd 7dbd 7fb6 013f
00000220: 3299 b1be 6813 483e 1f43 633e b027 aa3e
00000230: c7c3 a5be 4c0e 8a3d 6857 963c 8ae9 01be
00000240: bc52 40be c925 3dbd 5f7d 7abe 2030 7fbd
00000250: f19b 7abf 8c09 17be 5b4e a9be e340 393e
00000260: b865 24bf 77ba 44bd 9aa5 cbbf f45f d73d
00000270: 7207 73bd 30b9 313f f70e ac3e fd0a c2be
00000280: ae32 373d cde6 b43d 4ce7 1dbf a61a 813e
00000290: 5d4e 19bf dde2 e8bb 41e0 6dbf 7f1f 823e
000002a0: a3e7 843e d1c6 08bd b9b1 073f ffb6 473f
000002b0: aa19 99bd 8e3c 503e 6948 f5be 82fe 4abf
000002c0: dc73 613d 4004 eabe 8446 6a3d f48c 183e
000002d0: d76a f6be b31e 05bf 49e5 003d 1843 95be
000002e0: 1616 893e f1da 8e3e d2e0 143d 7d5e 873e
000002f0: 1501 ab3e 6424 50be 7176 aabe 17d3 d33e
00000300: a1fe 5e3e be2c 993f 8afb 303e 67e7 a4be
00000310: 3dfe 04bf 4942 abbe 23d2 b43e 3039 ba3c
00000320: a964 b3bd 8c20 70bf 6694 35be 5cea da3e
00000330: 163a 233f 5092 3d3e bfc9 65be 8a33 093c
00000340: 4a80 c03e a13a 17bd 6b1f ae3c 7f1a 103f
00000350: b15b 6f3f e944 f6be 0345 4bbe c637 aabe
00000360: f247 453f 85f5 4b3d a1bd e73d 0272 383d
00000370: f802 87bb a79e dd3c 698a 953b bedb 4c3b
00000380: 6949 5e3e b242 963e 2726 9dbe 376f b23d
00000390: 5b6f 20bc 3a86 3fbf b3ba ac3d 2cc2 4cbf
000003a0: eaa2 f8be 4ece 76bc 2d63 0c3e 3a5b c83d
000003b0: 5db7 b3bd d8d3 743e ae81 5dbe b8d6 1d3f
000003c0: a27e c33d f743 cabd 98c7 f33e 0386 b0be
000003d0: bb84 fe3b 0e08 0bbf d42d 0f3e afaf f63e
000003e0: 38a0 a4be a4a9 aa3e 243f a1be 387d a23e
000003f0: 04e1 b7be 368f e4be e3e5 b3be 2d30 ddbe

network_body._body_endoder.seq_layers.2.bias f4 [128]
-0.038548037 -0.012773761 -0.026983267 -0.005947338 -0.042976774 -0.05983989 -0.03621059 -0.107642174
-0.1121796 0.033966955 -0.04882823 -0.055577066 0.023815122 -0.018982122 -0.06464592 -0.06483468
-0.021655027 -0.08777147 -0.04811334 -0.04503491 -0.019082192 -0.035687674 -0.002698327 -0.09846573
0.025116058 -0.023984568 -0.027651291 0.03797254 -0.085042335 -0.087163925 0.014052143 -0.004669227
-0.017081201 -0.09026897 -0.06987513 -0.08580409 -0.085144535 -0.06595404 -0.10093246 -0.0958035
-0.0014599436 -0.063924775 -0.008192956 0.049115192 -0.081104465 0.0046977056 0.0013218895 -0.10082837
-0.077041574 -0.023667289 -0.037364315 -0.029458953 -0.013595826 -0.030959062 0.023424024 -0.09329025
-0.10301514 0.012994206 -0.09733933 -0.08393768 -0.043985743 -0.07841456 -0.06800926 -0.09050432
-0.03391902 -0.010657026 -0.050733723 0.0075131063 -0.0751792 -0.007345774 -0.05932234 -0.102365114
-0.017968081 -0.07108564 -0.032982722 -0.06263178 -0.006015306 -0.042599294 -0.08430956 -0.09471986
-0.04552157 -0.06482622 -0.032744225 -0.08821088 -0.05552383 -0.0010772472 -0.043356013 0.0150085995
-0.039780565 -0.035327494 -0.07928524 -0.06898345 -0.10651871 -0.042322375 -0.030481502 -0.06960477
-0.047843263 -0.013042235 -0.09161812 -0.03731275 -0.025507623 0.0041434695 -0.08540152 -0.021561787
-0.06254849 -0.100313 -0.06412241 -0.060083877 -0.065533124 -0.12610148 -0.07906096 -0.05375101
-0.075488366 -0.062275756 -0.054886334 -0.09092904 -0.078223616 -0.036236536 -0.027752472 -0.008010796
-0.0345477 -0.035949346 -0.029400991 -0.0487217 -0.09699569 -0.08800275 -0.0098009445 -0.055857725
00000000: 8ce4 1dbd 0949 51bc 030c ddbc e3e1 c2bb
00000010: 6a08 30bd ac1a 75bd 8e51 14bd 8073 dcbd
00000020: 6bbe e5bd ef20 0b3d 1c00 48bd c7a4 63bd
00000030: ee17 c33c 6580 9bbc 1565 84bd 0bc8 84bd
00000040: e265 b1bc 87c1 b3bd 7e12 45bd 8776 38bd
00000050: 4252 9cbc 3d2d 12bd 6ad6 30bb 67a8 c9bd
00000060: 31c0 cd3c 497b c4bc f684 e2bc 1889 1b3d
00000070: ad2a aebd 0083 b2bd f63a 663c 5100 99bb
00000080: e0ed 8bbc f0de b8bd b11a 8fbd 0eba afbd
00000090: 4260 aebd e912 87bd adb5 cebd a034 c4bd
000000a0: 945b bfba feea 82bd c03b 06bc 032d 493d
000000b0: 191a a6bd 36ef 993b 4043 ad3a 1b7f cebd
000000c0: f9c7 9dbd e7e1 c1bc 530b 19bd e753 f1bc
000000d0: 07c1 5ebc dc9d fdbc bde3 bf3c f50e bfbd
000000e0: 9af9 d2bd a6e5 543c d859 c7bd 85e7 abbd
000000f0: 652a 34bd d097 a0bd 7048 8bbd 545a b9bd
00000100: acee 0abd cf9a 2ebc 2ace 4fbd 8130 f63b
00000110: 8df7 99bd d2b4 f0bb fbfb 72bd cda4 d1bd
00000120: cc31 93bc 5995 91bd e418 07bd 1745 80bd
00000130: 0b1c c5bb 997c 2ebd 7eaa acbd 7cfc c1bd
00000140: d374 3abd 9cc3 84bd cf1e 06bd e8a7 b4bd
00000150: f56c 63bd 6b32 8dba 1396 31bd a1e6 753c
00000160: f2f0 22bd 90b3 10bd 4d60 a2bd 3247 8dbd
00000170: 7b26 dabd 3a5a 2dbd 58b4 f9bc f28c 8ebd
00000180: 4cf7 43bd 19af 55bc 48a2 bbbd 41d5 18bd
00000190: 5df5 d0bc f1c5 873b fee6 aebd 58a2 b0bc
000001a0: 6c19 80bd e770 cdbd 9c52 83bd 831a 76bd
000001b0: 3b36 86bd bf20 01be b6ea a1bd 052a 5cbd
000001c0: a599 9abd dd14 7fbd 7ed0 60bd 0139 babd
000001d0: b433 a0bd c36c 14bd 2759 e3bc b73f 03bc
000001e0: e481 0dbd 9f3f 13bd 59da f0bc 6890 47bd
000001f0: ada5 c6bd c93a b4bd 2494 20bc 12cb 64bd

network_body._body_endoder.seq_layers.2.weight f4 [128, 128]
0.27752316 0.14431119 0.029958501 -0.08148872 0.0080295 -0.043295853 0.116134055 0.1226392
-0.28002787 0.08590728 -0.22580136 0.19200473 -0.06660504 0.11754831 -0.06744798 -0.119243786
-0.21511003 -0.13180414 -0.033628557 -0.15661888 0.080007434 -0.14141154 0.041111045 -0.03230397
-0.082790345 0.025179595 0.0029656317 -0.10155875 0.0008329577 -0.016678367 -0.022569375 0.012071854
0.04016342 -0.043535043 -0.121197395 0.03183457 0.14745905 -0.010112835 -0.041436043 -0.050098818
0.048236948 -0.049262956 0.03322399 0.036680825 0.06022493 -0.0058780564 -0.15557745 -0.027068758
0.23422036 -0.045190856 -0.041197617 0.03197617 -0.10860671 -0.005872164 -0.107974015 -0.07565925
0.14153382 0.0224429 -0.17013465 -0.042870227 0.046199292 0.070917964 -0.1793212 -0.16881567
-0.13403513 -0.20537102 -0.089934774 0.08382434 -0.003664727 -0.012959414 0.032554895 0.09593891
0.292051 0.04434273 -0.0033849836 0.18843545 -0.015486999 0.08363217 -0.07387645 -0.039059974
-0.1734 0.039122336 -0.041708924 -0.11023495 -0.07457632 -0.18187036 0.064896785 0.04377993
-0.038257852 0.065799296 -0.08553967 -0.09159882 0.2900632 -0.15145192 -0.15910569 -0.05991512
0.09878903 -0.03916494 -0.03287144 -0.07914517 -0.02586045 0.11950538 -0.012602799 -0.06185045
0.023717273 -0.012062594 -0.042387538 -0.034862485 -0.08643184 -0.032020018 -0.1324335 0.03610363
-0.10704525 -0.025533464 0.01790386 -0.051581025 -0.17919801 -0.007801177 0.006441785 -0.0034733545
0.10504527 0.025565702 0.023951551 0.0023047414 0.15343674 0.12758711 -0.095488034 0.043919004
0.062870234 -0.07926832 -0.078769006 -0.118085116 -0.043573476 -0.017210746 0.25717416 0.23455553
-0.26559988 -0.025946228 -0.03686648 -0.056196596 0.042328335 -0.12357787 -0.15231194 0.18264456
-0.09214228 0.03854059 -0.0060377233 -0.085833505 -0.12845054 0.06891553 0.059617583 0.026332065
0.027454397 -0.20251977 -0.06310239 0.05903284 0.044885185 -0.005251542 0.10799812 -0.15076116
0.03873633 -0.14065166 -0.101925164 -0.07357034 -0.07667325 0.040699024 -0.16397677 0.034184016
0.006645212 0.11769208 0.09873007 -0.15984756 -0.083729126 0.10398323 -0.13230129 -0.1263137
-0.07965666 0.02172302 -0.07033856 -0.07166445 -0.04599284 -0.20985867 -0.16550472 0.25616637
0.19668081 0.024028145 0.0068368022 -0.03502046 -0.095238045 0.20191245 0.2395631 -0.044844717
-0.053697076 -0.08748774 0.15853308 -0.06731536 0.072716616 0.09384743 -0.021943094 0.0676633
0.08843764 0.24383101 0.022214584 0.066654995 -0.032181717 -0.03456002 -0.21321149 -0.05080531
-0.3604195 -0.117587335 -0.15693417 0.14546269 0.11391897 -0.10925409 0.032113537 -0.15938814
-0.076004736 0.08521731 -0.19769326 -0.07621348 0.1560381 0.16728391 -0.14161329 -0.087509975
0.04931213 0.12779163 -0.28295484 -0.05623168 0.0344165 0.074797 0.020684496 0.028967272
-0.097629316 0.10021927 0.002919394 -6.777364e-05 0.082424045 -0.095672086 0.1297708 -0.030661613
-0.06803855 0.016195366 0.16083862 0.09858906 -0.21676596 0.022116236 -0.0029247196 0.062029075
-0.14423771 -0.06540559 -0.07388769 -0.062598184 -0.055948503 -0.020000195 -0.08718026 0.11483334
00000000: 8417 8e3e 50c6 133e 886b f53c 8fe3 a6bd
00000010: 2a8e 033c fe56 31bd b1d7 ed3d 432a fb3d
00000020: d05f 8fbe 28f0 af3d 7938 67be e39c 443e
00000030: 3968 88bd 2bbd f03d 2b22 8abd 1636 f4bd
00000040: ce45 5cbe aaf7 06be 19be 09bd b360 20be
00000050: f0da a33d 30ce 10be 0e64 283d 2b51 04bd
00000060: fc8d a9bd 7045 ce3c 0b5b 423b 09fe cfbd
00000070: d85a 5a3a 12a1 88bc 69e3 b8bc 07c9 453c
00000080: 6682 243d cd51 32bd 5736 f8bd f764 023d
00000090: 81ff 163e 4eb0 25bc d7b8 29bd 6b34 4dbd
000000a0: 1b94 453d f4c7 49bd e115 083d a23e 163d
000000b0: 6bae 763d b69c c0bb b24f 1fbe 4dbf ddbc
000000c0: 76d7 6f3e 0c1a 39bd d5be 28bd 72f9 023d
000000d0: 326d debd 486b c0bb 7b21 ddbd 3df3 9abd
000000e0: 3eee 103e 2cda b73c c737 2ebe b198 2fbd
000000f0: 783b 3d3d 703d 913d fa9f 37be 04de 2cbe
00000100: 8140 09be c84c 52be b92f b8bd 18ac ab3d
00000110: eb2b 70bb b953 54bc 4858 053d 9f7b c43d
00000120: b587 953e b9a0 353d 9ad6 5dbb 39f5 403e
00000130: 2fbd 7dbc 5847 ab3d 894c 97bd 5afd 1fbd
00000140: c58f 31be be3e 203d fad6 2abd ddc2 e1bd
00000150: 78bb 98bd 393c 3abe 9be8 843d 9552 333d
00000160: 44b4 1cbd c8c1 863d 6c2f afbd 2a98 bbbd
00000170: 2a83 943e 3616 1bbe 9aec 22be 8f69 75bd
00000180: e751 ca3d 6b6b 20bd 34a4 06bd dd16 a2bd
00000190: 4bd9 d3bc 3dbf f43d f87b 4ebc e656 7dbd
000001a0: ba4a c23c 30a2 45bc 8e9e 2dbd f7cb 0ebd
000001b0: 2d03 b1bd 6c27 03bd a69c 07be 66e1 133d
000001c0: 8a3a dbbd 8e2b d1bc 1eab 923c a046 53bd
000001d0: af7f 37be 04a1 ffbb 9c15 d33b 38a1 63bb
000001e0: f921 d73d 2a6f d13c 0b36 c43c 250b 173b
000001f0: 851e 1d3e 32a6 023e 3b8f c3bd 6ae4 333d
00000200: 1cc2 803d 6e57 a2bd a551 a1bd 9cd6 f1bd
00000210: 1a7a 32bd 8dfd 8cbc 55ac 833e 532f 703e
00000220: b5fc 87be 2f8d d4bc 4e01 17bd 672e 66bd
00000230: 7a60 2d3d 6516 fdbd a9f7 1bbe 2d07 3b3e
00000240: 17b5 bcbd bddc 1d3d 18d8 c5bb 7ac9 afbd
00000250: 8a88 03be 9623 8d3d 9131 743d 58b6 d73c
00000260: 0be8 e03c 5861 4fbe d33b 81bd 6bcc 713d
00000270: 87d9 373d 2115 acbb 1e2e dd3d 2261 1abe
00000280: fca9 1e3d fd06 10be 24be d0bd 0cac 96bd
00000290: dd06 9dbd 05b4 263d 87e9 27be 8a04 0c3d
000002a0: 14c0 d93b 8c08 f13d fe32 ca3d 14af 23be
000002b0: 2d7a abbd 29f5 d43d fd79 07be 6158 01be
000002c0: 0823 a3bd 7af4 b13c aa0d 90bd d0c4 92bd
000002d0: fd62 3cbd 31e5 56be 127a 29be 3d28 833e
000002e0: b266 493e acd6 c43c 4107 e03b 9d71 0fbd
000002f0: 2a0c c3bd 23c2 4e3e 0750 753e 18af 37bd
00000300: 77f1 5bbd c62c b3bd 7f56 223e a3dc 89bd
00000310: 73ec 943d 1533 c03d 01c2 b3bc 0e93 8a3d
00000320: cb1e b53d d6ae 793e 5cfb b53c 6a82 883d
00000330: fad0 03bd cf8e 0dbd 1d54 5abe 3b19 50bd
00000340: e888 b8be a1d1 f0bd 5ab3 20be 2cf4 143e
00000350: 594e e93d 9cc0 dfbd 7c89 033d a536 23be
00000360: 5fa8 9bbd 6a86 ae3d 1a70 4abe d015 9cbd
00000370: 74c8 1f3e 794c 2b3e 1303 11be 6e38 b3bd
00000380: 84fb 493d cfdb 023e 75df 90be 3153 66bd
00000390: 51f8 0c3d 2b2f 993d 8872 a93c c64c ed3c
000003a0: e1f1 c7bd c33f cd3d 4e53 3f3b b221 8eb8
000003b0: f0cd a83d baef c3bd a3e2 043e 102e fbbc
000003c0: cc57 8bbd 25ac 843c e1b2 243e 10e9 c93d
000003d0: e5f7 5dbe 1c2d b53c a7ac 3fbb 3312 7e3d
000003e0: 0db3 13be 5ef3 85bd 6e52 97bd 7a33 80bd
000003f0: 422a 65bd 73d7 a3bc 908b b2bd be2d eb3d
