MLAgentsProject/results/MoveToGoalForces1/MoveToGoal/MoveToGoal-269603.pt (torch, 439199 bytes, 36 tensors)

network_body._body_endoder.seq_layers.0.weight f4 [128, 6]
-0.10228301 0.14292681 -0.28605416 0.5577426 0.401857 -0.2047702 -0.53959 -0.36202967
0.11611471 -0.96887153 -0.085872926 -0.43268386 -0.8475385 -0.035456456 0.15867496 0.25831413
-0.55605066 0.118381776 0.31340453 -0.07847878 0.32967845 0.63344896 0.467671 -0.5599519
-1.1207561 0.6527695 0.38723344 0.29746082 0.18401305 -0.13782707 0.47682557 0.27796873
-0.013147393 0.16329354 -0.45005345 0.42236125 0.17547359 -0.35721225 0.21429315 -0.8337439
-0.08272411 -0.40255195 -0.61461145 0.4200471 -0.67719567 0.20878379 -0.37150928 -0.26253632
1.1612872 0.4978019 -0.29061586 -0.23874237 0.13592738 -0.30899593 0.39265278 -0.14722338
0.29494467 0.12889938 0.3490692 0.04752851 -0.12246681 -0.43149585 -0.25971514 -0.078503065
0.25783467 0.00018415607 0.19372782 -0.39828148 0.0732985 0.3226746 0.6319757 0.15822688
-0.045470748 0.05207882 -0.0737228 -0.12270349 -0.06581821 -0.25545952 0.5388504 0.48626068
0.23685125 0.07819552 0.1219577 0.14952424 0.14474553 0.45116714 0.22824338 -0.35422015
-0.20969005 -0.27658907 -0.069210425 0.66430545 -0.21513614 0.36501443 -0.64379674 -0.26563466
-0.18199797 -0.6411196 0.33267817 -0.25036165 -0.40127382 0.46599588 0.51221436 0.28318426
-0.21285923 -0.2967598 -0.5742455 -0.17351946 0.04059021 -0.016001126 -0.16316395 0.45216712
0.17986298 0.013698255 0.115678415 0.4994777 0.22945347 -0.38167268 0.2787317 0.48621014
0.700948 -0.3895965 0.2950384 -0.2848603 -0.44815645 0.8774644 -0.34468418 -0.12215813
-0.42762673 -0.0448412 -0.62478983 -0.0961501 -0.29599687 0.65324855 -0.044964034 0.5070585
-0.32544112 0.22086959 0.24105287 0.36673436 -0.2102246 0.105786584 0.052757796 -0.098261274
-0.15375978 -0.09227438 -0.2681752 -0.13567077 -1.0250142 -0.18540457 -0.4513647 0.3191788
-0.48445678 -0.01689528 -1.4527243 0.243662 0.02484809 0.7536718 0.41665193 -0.3386422
0.10416113 0.16823503 -0.53969675 0.17167464 -0.69660807 -0.112421356 -1.0096843 0.18248428
0.23075202 -0.0048853746 0.5483502 0.8856805 -0.046260014 0.21914889 -0.36118862 -0.8139179
0.08273315 -0.60299766 0.036226053 0.14279905 -0.5212744 -0.48592216 0.07050672 -0.34990206
0.30181623 0.32780382 0.038220312 0.29850647 0.40817425 -0.17281197 -0.2988186 0.4455316
0.16251537 1.2087864 0.16059858 -0.25980166 -0.50739247 -0.3314476 0.24370232 -0.008152803
-0.09883127 -1.0630034 -0.20821013 0.389657 0.6200611 0.2096734 -0.23213635 -0.02388143
0.4005231 -0.014377739 -0.003900558 0.57063407 0.9283886 -0.53503925 -0.19077934 -0.3101215
0.90427256 0.085011035 0.1682761 0.0500066 0.031098682 0.087469704 -0.034406517 0.04288308
0.21653281 0.38721228 -0.26717708 0.1322707 0.09105839 -0.6815682 0.16616987 -0.8194699
-0.4190673 0.05477458 0.19983996 0.07717753 -0.08559523 0.19253568 -0.23697546 0.60619265
0.1353881 -0.030667083 0.54088026 -0.27359587 0.075841375 -0.47653115 0.1490295 0.5224244
-0.2832712 0.39999366 -0.27431715 0.34694582 -0.39917666 -0.4897553 -0.40370548 -0.37374568
00000000: c179 d1bd 685b 123e b175 92be 38c8 0e3f
00000010: 33c0 cd3e 48af 51be 9222 0abf f45b b9be
00000020: 8dcd ed3d f707 78bf 25de afbd bd88 ddbe
00000030: 48f8 58bf ca3a 11bd b07b 223e c041 843e
00000040: 5659 0ebf 2572 f23d 8f76 a03e 7cb9 a0bd
00000050: 9dcb a83e b629 223f 9372 ef3e 0259 0fbf
00000060: f074 8fbf e71b 273f 7643 c63e c94c 983e
00000070: eb6d 3c3e 8a22 0dbe 7b22 f43e eb51 8e3e
00000080: 2a68 57bc 6c36 273e 686d e6be bc3f d83e
00000090: 59af 333e 86e4 b6be aa6f 5b3e 3d70 55bf
000000a0: 426b a9bd 4a1b cebe 2d57 1dbf 6a10 d73e
000000b0: b25c 2dbf 6bcb 553e 7736 bebe 296b 86be
000000c0: 0fa5 943f e4df fe3e 9acb 94be e178 74be
000000d0: 8c30 0b3e b734 9ebe c909 c93e bac1 16be
000000e0: fd02 973e 33fe 033e 33b9 b23e 41ad 423d
000000f0: e1cf fabd 06ed dcbe 62f9 84be 37c6 a0bd
00000100: e802 843e 051a 4139 9660 463e 8deb cbbe
00000110: 861d 963d 9b35 a53e 29c9 213f 3a06 223e
00000120: 893f 3abd 9a50 553d fbfb 96bd f84b fbbd
00000130: b3cb 86bd 97cb 82be 1af2 093f 29f7 f83e
00000140: 2289 723e f924 a03d f5c4 f93d e21c 193e
00000150: 2c38 143e 61ff e63e a2b8 693e 585c b5be
00000160: fdb8 56be 159d 8dbe 32be 8dbd ec0f 2a3f
00000170: a64c 5cbe 2ce3 ba3e ddcf 24bf 4401 88be
00000180: ad5d 3abe 6a20 24bf cb54 aa3e 672f 80be
00000190: c373 cdbe 0397 ee3e 7b20 033f 87fd 903e
000001a0: c5f7 59be e7f0 97be c101 13bf 16af 31be
000001b0: ec41 263d cb14 83bc 7314 27be 7382 e73e
000001c0: 002e 383e a56e 603c cee8 ec3d 8bbb ff3e
000001d0: daf5 6a3e 9a6a c3be ecb5 8e3e 89f0 f83e
000001e0: 5471 333f 3179 c7be 460f 973e 36d9 91be
000001f0: c374 e5be 82a1 603f 727a b0be 0b2e fabd
00000200: e4f1 dabe 68ab 37bd 3af2 1fbf 58ea c4bd
00000210: e78c 97be 4c3b 273f 352c 38bd 96ce 013f
00000220: 38a0 a6be a32b 623e 90d6 763e 9bc4 bb3e
00000230: 1e45 57be a3a6 d83d 8f18 583d 353d c9bd
00000240: 3473 1dbe 5afa bcbd 434e 89be 47ed 0abe
00000250: aa33 83bf b2da 3dbe 4619 e7be 676b a33e
00000260: b80a f8be f867 8abc dff2 b9bf 8882 793e
00000270: 398e cb3c a3f0 403f 6753 d53e 8362 adbe
00000280: 6e52 d53d ce45 2c3e 9129 0abf 7acb 2f3e
00000290: e854 32bf 2b3d e6bd 563d 81bf 29dd 3a3e
000002a0: 424a 6c3e 7e15 a0bb ae60 0c3f f5bb 623f
000002b0: 247b 3dbd 9168 603e b7ed b8be ec5c 50bf
000002c0: ff6f a93d 0e5e 1abf c561 143d ea39 123e
000002d0: 3d72 05bf caca f8be d465 903d 5d26 b3be
000002e0: a887 9a3e e7d5 a73e e78c 1c3d d7d5 983e
000002f0: 37fc d03e 9ff5 30be c0fe 98be b81c e43e
00000300: 6e6a 263e 83b9 9a3f f473 243e b904 85be
00000310: 79e4 01bf 80b3 a9be 1a8d 793e 5693 05bc
00000320: 0d68 cabd 7f10 88bf 0935 55be 1f81 c73e
00000330: 53bc 1e3f a0b4 563e 27b5 6dbe fda2 c3bc
00000340: 5d11 cd3e 9c90 6bbc 81a0 7fbb 1315 123f
00000350: e0aa 6d3f 55f8 08bf a95b 43be 3fc8 9ebe
00000360: 687e 673f 441a ae3d 9250 2c3e b8d3 4c3d
00000370: aac2 fe3c 5123 b33d d9ed 0cbd 2ba6 2f3d
00000380: c7ba 5d3e b040 c63e 6fcb 88be f871 073e
00000390: d27c ba3d 417b 2ebf 6f28 2a3e c8c8 51bf
000003a0: fd8f d6be 4f5b 603d d9a2 4c3e 410f 9e3d
000003b0: 8d4c afbd 1328 453e b2a9 72be 712f 1b3f
000003c0: 2ea3 0a3e 8939 fbbc 2177 0a3f c214 8cbe
000003d0: b952 9b3d e4fb f3be 309b 183e 9bbd 053f
000003e0: ec08 91be f8cb cc3e 4c73 8cbe e2a2 b13e
000003f0: e260 ccbe 35c1 fabe 7cb2 cebe 985b bfbe

network_body._body_endoder.seq_layers.0.bias f4 [128]
-0.0007995434 0.029173298 0.008276547 0.02985306 0.08480627 -0.08860799 0.015822882 0.016790254
0.07399254 -0.0021566614 -0.13596909 0.03535179 -0.143236 -0.010299261 -0.0679474 -0.061066967
-0.03735822 -0.022866473 0.06458228 -0.036763445 -0.18077685 0.03188573 -0.14987238 0.0031104935
0.077648304 -0.002125044 -0.06528298 0.037347887 -0.085562296 0.0248179 0.009047829 -0.21293952
0.05442166 0.0072681047 -0.03494004 -0.09393167 -0.062012002 -0.05425692 0.03530483 -0.007504504
-0.044000596 -0.07447275 0.024524378 0.0009884194 0.043308213 -0.05090587 -0.059884343 0.018960226
-0.09102831 -0.034520004 0.036569525 -0.049352936 0.0153783485 0.06458802 -0.043770157 -0.07934366
0.07689847 0.04407035 -0.09593969 0.09722593 -0.10115959 -0.052155912 -0.07984837 -0.091367565
-0.072445996 -0.018491112 0.0015669664 0.0029150143 -0.002613351 -0.13284524 0.04527027 -0.050346978
0.04765382 0.0041719046 0.113104455 0.020962995 0.06392678 -0.06405173 -0.161527 -0.053579155
-0.0015980847 0.023610974 0.027120246 0.014906864 -0.04101821 0.09591641 -0.017611524 -0.06598544
-0.007843159 -0.0019279573 -0.00038517808 -0.014199426 -0.20606932 -0.035138834 -0.007788836 0.04955605
-0.06607535 0.015439915 -0.07836661 0.07821257 -0.013643631 0.012205763 0.02052748 -0.1192939
0.051467773 0.023490876 -0.045843646 0.0011561605 0.0058594756 0.078196876 -0.030999009 0.009112133
-0.0433503 0.047311977 -0.037713777 -0.059355572 -0.099632144 -0.037738293 0.07487466 -0.048417818
0.052653495 -0.0676641 -0.033851672 0.0008486569 -0.027401524 0.03180761 -0.024801318 -0.04488241
00000000: 7398 51ba d7fc ee3c 5b9a 073c 688e f43c
00000010: e9ae ad3d 1b78 b5bd fd9e 813c b78b 893c
00000020: 6789 973d c656 0dbb 7b3b 0bbe 0acd 103d
00000030: 75ac 12be 3bbe 28bc 0228 8bbd 5b21 7abd
00000040: ef04 19bd 7852 bbbc b743 843d 4495 16bd
00000050: 911d 39be 9c9a 023d 2578 19be 6cd9 4b3b
00000060: 1306 9f3d 5244 0bbb 15b3 85bd 19fa 183d
00000070: 493b afbd e94e cb3c 583d 143c d10c 5abe
00000080: 3fe9 5e3d 4829 ee3b 4a1d 0fbd 3f5f c0bd
00000090: 4c00 7ebd 813c 5ebd cc9b 103d 58e8 f5bb
000000a0: f839 34bd 2b85 98bd 59e7 c83c da8d 813a
000000b0: f463 313d ac82 50bd 4949 75bd 7a52 9b3c
000000c0: 0d6d babd d964 0dbd edc9 153d 4e26 4abd
000000d0: 78f5 7b3c b946 843d 5648 33bd ee7e a2bd
000000e0: f27c 9d3d 1c83 343d 077c c4bd 631e c73d
000000f0: c22c cfbd 70a1 55bd 8b87 a3bd eb1e bbbd
00000100: 915e 94bd ac7a 97bc ab62 cd3a d309 3f3b
00000110: c144 2bbb 9508 08be 526d 393d a238 4ebd
00000120: a730 433d 79b4 883b 4fa3 e73d 96ba ab3c
00000130: 0bec 823d 8e2d 83bd 5567 25be d175 5bbd
00000140: d376 d1ba cd6b c13c 472b de3c eb3b 743c
00000150: b602 28bd d36f c43d 0b46 90bc 6023 87bd
00000160: 9880 00bc 83b3 fcba baf1 c9b9 b6a4 68bc
00000170: d603 53be bded 0fbd 7e39 ffbb 49fb 4a3d
00000180: 8352 87bd b2f7 7c3c ac7e a0bd e92d a03d
00000190: 8989 5fbc aefa 473c 3f29 a83c 5c50 f4bd
000001a0: dfcf 523d f06f c03c 8cc6 3bbd 4f8a 973a
000001b0: d800 c03b af25 a03d a2f1 fdbc 0e4b 153c
000001c0: 1690 31bd 34ca 413d c379 1abd d41e 73bd
000001d0: f00b ccbd 7893 1abd e357 993d c351 46bd
000001e0: 31ab 573d 7a93 8abd 0da8 0abd 6778 5e3a
000001f0: 2979 e0bc b248 023d 222c cbbc 9ed6 37bd

network_body._body_endoder.seq_layers.2.weight f4 [128, 128]
0.21650068 0.17443971 0.044508252 -0.12165096 0.044344243 -0.07404139 0.05936637 0.1381491
-0.11309508 0.042859625 -0.23665966 0.15494804 -0.049342316 0.08644037 -0.05002672 -0.059005182
-0.24275142 -0.1154468 -0.068121865 -0.18169364 0.052200187 -0.13954057 0.011436267 0.061996147
-0.07408783 0.022410562 -0.029718708 -0.13246423 -0.043011677 -0.09438962 -0.06148135 -0.019641506
0.047745645 -0.019822715 -0.11256655 0.011688218 0.113425896 -0.051866606 0.02820503 -0.08063664
0.07535284 -0.078121744 0.04402655 0.0285067 0.06970919 -0.03580712 -0.21648604 -0.045324393
0.23438586 -0.009763555 -0.07854148 0.00029046883 -0.13111953 -0.0027149548 -0.077202596 -0.13620728
0.1306323 0.049073037 -0.1503767 -0.032925587 -0.0010144158 0.053258445 -0.159775 -0.16640323
-0.06400865 -0.20967878 -0.027495934 0.043977033 -0.03840062 -0.044059753 0.030671561 0.07481084
0.22533135 0.11397479 0.029406134 0.17633304 -0.023676272 0.05694244 -0.095164664 -0.04230136
-0.21644162 -0.009240673 -0.014262878 -0.1431531 -0.07433556 -0.1725113 0.072465174 0.0053296774
-0.061795395 0.062585525 -0.0914718 -0.10293927 0.25732166 -0.18480629 -0.1909445 -0.09539453
0.07997978 -0.08579818 -0.113046624 -0.11334167 -0.037836708 0.09312579 -0.0034308564 -0.07693739
0.00480667 -0.054710392 -0.07564973 -0.049970485 -0.03380634 -0.0999349 -0.12050132 0.05414565
-0.1403505 -0.030196132 -0.024700224 -0.06350296 -0.09495933 -0.0123847565 0.05389655 -0.037614375
0.109160334 -0.012542204 0.011282395 -0.011274442 0.11636011 0.100325115 -0.049494527 0.0032529978
-0.02289071 -0.062009934 -0.15540294 -0.07887322 -0.11935766 -0.020527959 0.19846873 0.2461301
-0.14324424 -0.013178761 -0.05788278 -0.07743776 0.014021385 -0.09208428 -0.1274908 0.19820103
-0.11077886 0.06299645 -0.06993466 -0.07811325 -0.12192854 0.099698454 0.0035182515 0.060493667
0.02101621 -0.100377895 0.0026540584 0.09914684 0.018579913 -0.014260949 0.07871797 -0.15642162
0.055452548 -0.101712756 -0.051446132 0.0053748237 -0.008039049 0.008314809 -0.124584034 0.021468807
0.049533192 0.09509975 0.08889274 -0.03889511 0.04724132 0.1385562 -0.082971565 -0.101112
-0.108116776 0.09489582 -0.055504322 -0.07534623 -0.08432584 -0.098730534 -0.1951423 0.20141913
0.12526254 -0.023349214 -0.007913246 -0.13425264 -0.072736986 0.09634899 0.28442925 -0.07257008
0.07582884 -0.019841094 0.13883452 -0.08689554 0.095374554 0.099103875 0.08294692 0.031206924
0.08053538 0.16083762 0.036637455 0.034961242 -0.055384714 -0.09214954 -0.21133626 -0.022554213
-0.22784853 -0.15093218 -0.083137065 0.076432616 0.02203664 -0.008555311 -0.05852766 -0.13502286
-0.1382468 0.11204115 -0.19697434 -0.040395427 0.11524038 0.12677166 -0.16616012 -0.105449036
0.052217886 0.103128485 -0.2895707 -0.042587847 0.02953533 0.089021176 0.105949454 -0.03918496
-0.1971109 0.06154967 -0.006326185 0.0109692905 0.050231345 -0.08613019 0.103571504 -0.055110324
-0.10388682 0.051346272 0.07370502 0.04567296 -0.09626694 0.04430763 0.039769646 0.049000137
-0.18246607 -0.014551303 -0.045884423 -0.08028538 -0.10455467 -0.05393971 -0.07419724 0.07185672
00000000: 5bb2 5d3e 53a0 323e 494e 363d 2324 f9bd
00000010: 4fa2 353d 03a3 97bd 272a 733d f576 0d3e
00000020: 659e e7bd 938d 2f3d e956 72be b3aa 1e3e
00000030: 2b1b 4abd a607 b13d d1e8 4cbd 6baf 71bd
00000040: d493 78be 5f6f ecbd 7a83 8bbd e60d 3abe
00000050: ddcf 553d b9e3 0ebe 2e5f 3b3c acef 7d3d
00000060: 5cbb 97bd 5b96 b73c a674 f3bc b4a4 07be
00000070: 032d 30bd 584f c1bd ded3 7bbd 39e7 a0bc
00000080: f090 433d 3f63 a2bc 4b89 e6bd f17f 3f3c
00000090: d64b e83d 1472 54bd 3c0e e73c d324 a5bd
000000a0: 9752 9a3d 4bfe 9fbd 2f55 343d e286 e93c
000000b0: b1c3 8e3d 7daa 12bd 84ae 5dbe 12a6 39bd
000000c0: d902 703e 51f7 1fbc 5bda a0bd 114a 9839
000000d0: 3344 06be 62ed 31bb 651c 9ebd ec79 0bbe
000000e0: 79c4 053e cf00 493d 5afc 19be fbdc 06bd
000000f0: 25f6 84ba 8725 5a3d 0f9c 23be 9c65 2abe
00000100: f816 83bd 09b6 56be 273f e1bc 4321 343d
00000110: f849 1dbd 0078 34bd ed42 fb3c 6d36 993d
00000120: 43bd 663e 9d6b e93d 22e5 f03c a690 343e
00000130: bef4 c1bc 7a3c 693d b1e5 c2bd 3144 2dbd
00000140: dfa2 5dbe 3166 17bc d9ae 69bc ba96 12be
00000150: 3e3d 98bd cda6 30be 9f68 943d 93a4 ae3b
00000160: 2b1d 7dbd d72c 803d 9155 bbbd d3d1 d2bd
00000170: aabf 833e dc3d 3dbe f486 43be 355e c3bd
00000180: 70cc a33d f5b6 afbd fd84 e7bd ad1f e8bd
00000190: aafa 1abd bcb8 be3d 38d8 60bb 5a91 9dbd
000001a0: 4581 9d3b 0118 60bd 3fee 9abd daad 4cbd
000001b0: 8478 0abd abaa ccbd 65c9 f6bd d4c7 5d3d
000001c0: 0bb8 0fbe e15d f7bc 2058 cabc d70d 82bd
000001d0: 0a7a c2bd 6fe9 4abc a1c2 5c3d 8811 1abd
000001e0: 748f df3d d17d 4dbc cbd9 383c 70b8 38bc
000001f0: 364e ee3d 4177 cd3d c6ba 4abd 3f30 553b
00000200: 4c85 bbbc 21fe 7dbd f321 1fbe 4888 a1bd
00000210: ca71 f4bd 402a a8bc 633b 4b3e 8709 7c3e
00000220: 9eae 12be bbeb 57bc 7e16 6dbd b097 9ebd
00000230: f4b9 653c af96 bcbd f38c 02be 36f5 4a3e
00000240: 07e0 e2bd 4804 813d e739 8fbd d7f9 9fbd
00000250: acb5 f9bd b42e cc3d 7792 663b 35c8 773d
00000260: 302a ac3c ed92 cdbd b6ef 2d3b 800d cb3d
00000270: e734 983c c1a6 69bc e336 a13d fd2c 20be
00000280: 3622 633d c74e d0bd 2eb9 52bd 4a1f b03b
00000290: 37b6 03bc d63a 083c ea25 ffbd 5adf af3c
000002a0: 51e3 4a3d a8c3 c23d 660d b63d 7b50 1fbd
000002b0: 1d80 413d ade1 0d3e ffec a9bd cf13 cfbd
000002c0: 546c ddbd bd58 c23d 8058 63bd 204f 9abd
000002d0: 07b3 acbd 3c33 cabd 62d3 47be d140 4e3e
000002e0: d344 003e da46 bfbc 8fa6 01bc 8679 09be
000002f0: 21f7 94bd 9f52 c53d b6a0 913e 9f9f 94bd
00000300: 274c 9b3d ca89 a2bc a32a 0e3e 4af6 b1bd
00000310: bc53 c33d f9f6 ca3d 13e0 a93d aaa5 ff3c
00000320: bcef a43d 9eb2 243e 2811 163d 8533 0f3d
00000330: 15db 62bd e6b8 bcbd 8868 58be 9dc3 b8bc
00000340: 2051 69be f78d 1abe c443 aabd b488 9c3d
00000350: 2f86 b43c 932b 0cbc b3ba 6fbd 6f43 0abe
00000360: 9290 0dbe d575 e53d a4b3 49be ad75 25bd
00000370: 2603 ec3d 6ed0 013e e125 2abe aaf5 d7bd
00000380: 6ce2 553d 0735 d33d 9c42 94be 9870 2ebd
00000390: 14f4 f13c bc50 b63d 07fc d83d 6980 20bd
000003a0: 71d7 49be 821b 7c3d e34b cfbb 8ab8 333c
000003b0: 62bf 4d3d 0665 b0bd 4c1d d43d 5dbb 61bd
000003c0: 9dc2 d4bd 7850 523d a8f2 963d 9213 3b3d
000003d0: 9a27 c5bd eb7b 353d 7fe5 223d 5eb4 483d
000003e0: 63d8 3abe 9768 6ebc 4ef1 3bbd a96c a4bd
000003f0: c220 d6bd e3ef 5cbd b9f4 97bd 9e29 933d

network_body._body_endoder.seq_layers.2.bias f4 [128]
-0.06824482 -0.016648926 -0.02852861 -0.01452021 -0.037249606 0.0064602992 -0.047945924 -0.08698643
-0.09281465 -0.006553215 -0.04634648 -0.08658113 0.006148348 0.021661777 -0.027753364 -0.07077877
-0.059138127 -0.041880224 -0.041907728 -0.030889966 -0.033880178 -0.07928624 0.0053128484 -0.05097021
0.004035015 -0.04331343 -0.04770709 -0.003819827 -0.059059333 -0.031646997 0.008186508 -0.068700805
-0.033253595 -0.081286736 -0.06358681 -0.07446407 -0.046139818 -0.011901702 -0.052411363 -0.073478915
-0.022942604 -0.0252823 -0.019727582 0.020927537 -0.03577128 -0.01974575 -0.018534977 -0.06910779
-0.049859397 -0.074054085 -0.04469203 -0.05323286 -0.066076174 -0.023743475 -0.0040227994 -0.07002916
-0.0767006 0.0057054725 -0.08919761 -0.069312885 0.005896272 -0.02700603 -0.012689762 -0.07139181
-0.02779042 -0.021846535 0.0077005196 -0.00609981 -0.03735363 -0.03301162 -0.041485105 -0.046281178
-0.01417451 -0.057104785 -0.036591332 -0.051814176 -0.015466509 -0.035341956 -0.07736251 -0.06458147
-0.03183252 -0.047710814 -0.03136188 -0.06434671 -0.05310995 -0.013559892 -0.04859412 0.0053146556
-0.011152628 -0.014569992 -0.016228594 -0.036954157 -0.0587562 -0.014638403 -0.011386126 -0.041535012
-0.011416226 0.037943315 -0.056036938 -0.057778697 -0.016360015 -0.04372399 -0.060901444 -0.020121062
-0.050830036 -0.046499226 -0.057726867 -0.036715854 -0.008560706 -0.055616666 -0.05625585 -0.019167617
-0.042592857 -0.019923704 -0.048964817 -0.047946975 -0.026352005 0.0039213235 -0.07442991 -0.033259988
-0.0013091243 0.0027728241 -0.039070148 -0.044756826 -0.06407222 -0.034359314 -0.01600658 -0.036392823
00000000: f1c3 8bbd 5463 88bc d5b4 e9bc 2de6 6dbc
00000010: 0b93 18bd ebb0 d33b f262 44bd f125 b2bd
00000020: 9b15 bebd 5abc d6bb ced5 3dbd 7351 b1bd
00000030: 1578 c93b 0a74 b13c 065b e3bc 76f4 90bd
00000040: d23a 72bd 998a 2bbd 70a7 2bbd f40c fdbc
00000050: f1c5 0abd d360 a2bd 6717 ae3b 24c6 50bd
00000060: 2938 843b 6c69 31bd 8268 43bd 1056 7abb
00000070: 33e8 71bd 48a0 01bd b420 063c 02b3 8cbd
00000080: ec34 08bd a979 a6bd cd39 82bd 9e80 98bd
00000090: 1bfd 3cbd 5bff 42bc 4cad 56bd 1d7c 96bd
000000a0: 21f2 bbbc d31c cfbc bd9b a1bc 3a70 ab3c
000000b0: e884 12bd d7c1 a1bc aad6 97bc 6388 8dbd
000000c0: 5e39 4cbd aba9 97bd fd0e 37bd b30a 5abd
000000d0: f252 87bd ad81 c2bc b0d1 83bb 736b 8fbd
000000e0: 3415 9dbd f9f4 ba3b 3dad b6bd eaf3 8dbd
000000f0: 8435 c13b c03b ddbc b8e8 4fbc df35 92bd
00000100: bca8 e3bc 81f7 b2bc a454 fc3b eae0 c7bb
00000110: 1f00 19bd 3137 07bd 49ec 29bd 5591 3dbd
00000120: 343c 68bc b5e6 69bd cbe0 15bd 1a3b 54bd
00000130: 3e67 7dbc bac2 10bd 3c70 9ebd 4a43 84bd
00000140: d162 02bd 6a6c 43bd 5175 00bd 35c8 83bd
00000150: d289 59bd 4f2a 5ebc a10a 47bd 9026 ae3b
00000160: 83b9 36bc fab6 6ebc d4f1 84bc 3e5d 17bd
00000170: 57aa 70bd ead5 6fbc e08c 3abc 9e20 2abd
00000180: 1f0b 3bbc 736a 1b3d fd86 65bd 5ba9 6cbd
00000190: 7005 86bc ed17 33bd cb73 79bd edd4 a4bc
000001a0: 2833 50bd f975 3ebd 0273 6cbd 5d63 16bd
000001b0: 3442 0cbc 4dce 63bd 896c 66bd 6805 9dbc
000001c0: d975 2ebd 0937 a3bc 558f 48bd 0c64 44bd
000001d0: 29e0 d7bc 727e 803b b56e 98bd a03b 08bd
000001e0: ec96 abba 45b8 353b 0508 20bd ef52 37bd
000001f0: 4c38 83bd 5abc 0cbd 3b20 83bc a410 15bd

action_model._continuous_distribution.log_sigma f4 [1, 2]
-0.24479221 -0.18887402
00000000: cfaa 7abe 3168 41be

action_model._continuous_distribution.mu.weight f4 [2, 128]
-0.017544078 -0.032123476 0.058543313 -0.023216072 -0.019636331 -0.095587656 -0.05472562 -0.031672124
-0.021543853 -0.069317795 -0.011822599 -0.029668389 -0.06954317 -0.040168647 0.0035596204 -0.034676146
-0.014992493 -0.040224858 -0.022858799 0.06257263 0.070638105 -0.013037339 -0.0053126775 -0.029824156
-0.03425584 0.048173063 -0.020258505 0.030120168 -0.032410994 0.077302046 -0.019199025 -0.017349776
0.018238483 0.015798472 -0.0045140157 -0.013709227 -0.043752246 0.051970556 -0.039732173 0.020427953
0.05777961 0.06846698 -0.059640326 -0.09128038 0.017622912 -0.061053872 -0.03713116 0.021604184
0.021090183 -0.038291506 -0.054696 -0.014400986 -0.013192445 -0.04472001 -0.060411736 -0.010340076
0.008009751 0.050275546 0.018978847 -0.022011664 -0.050406996 0.0048869983 -0.035246328 -0.0023659132
-0.0018602953 -0.021794407 -0.021415219 0.031398818 -0.025794346 -0.050411806 -0.010507246 -0.0593091
0.0286227 -0.02671237 -0.071661934 -0.012359893 0.040530562 -0.023342818 0.008512557 -0.010591229
-0.0068039177 0.053737972 -0.049981177 0.01640267 -0.0023339742 -0.07071299 -0.018939639 -0.032842956
-0.029182231 -0.052609608 -0.009724715 -0.04634311 0.03429711 0.027608488 -0.013463177 -0.042493716
-0.01134528 0.04610019 -0.038994525 0.015512186 -0.06873209 0.019416898 -0.027495556 0.0035722402
-0.029061895 -0.03812502 -0.02681159 0.06485436 0.08640955 0.056552723 -0.0011307526 0.035512347
-0.01961426 -0.052215356 -0.008658944 -0.028385453 -0.0582879 -0.072201416 -0.030494852 0.026809432
0.0020079492 0.023882046 -0.04587788 0.030494684 0.007268934 -0.04854882 0.05376775 -0.031322625
-0.03873958 -0.058402672 0.0002351229 -0.02608285 0.030484367 -0.026607923 0.022824368 -0.00732193
-0.0025030533 0.019352539 0.02471222 0.010783665 -0.041633885 0.07184426 -0.03558561 0.00915237
-0.023633134 0.056348212 0.026088173 -0.028353762 -0.024142247 0.00024323503 0.056327377 0.022229604
0.03044243 0.004802148 0.014974865 0.045848195 0.030642036 -0.02229831 -0.06483883 -0.021926004
-0.03644136 0.010680371 0.00227642 0.02089791 0.035917383 -0.046449378 -0.027185755 -0.0075426316
0.046089172 0.034339022 -0.002793372 0.03841509 -0.012457708 -0.02350406 0.032354612 -0.00034029226
-0.021300321 0.030751988 -0.03180057 -0.027754148 -0.030582018 -0.02398789 -0.01995516 0.0019687929
0.025818083 -0.042514082 0.0015707583 0.02200141 -0.01940903 0.02353937 0.0510561 -0.012071935
-0.052971315 -0.014934056 -0.03758419 0.009050925 -0.0016879227 0.020350961 0.01268508 0.0059210267
0.015391584 0.013203092 -0.03662021 -0.009877383 -0.039930534 0.01892664 -0.0050901263 0.0009804983
-0.020155348 -0.011062496 -0.012696389 -0.010866594 0.01216907 0.028919585 0.008814802 0.024938654
-0.029601837 -0.012223031 0.062711075 -0.0103448955 0.0068684393 -0.039640702 -0.01736531 0.025444321
0.0015956035 -0.048714582 0.027842235 -0.0070757875 -0.012659328 -0.037486136 0.037697103 0.027207145
0.006015141 0.022823581 0.021571836 -0.051514633 -0.060299974 -0.0010440164 -0.013871209 -0.01474731
-0.012745214 0.028343808 0.0031864168 0.008690338 0.038881935 0.054792617 0.0005039812 -0.056539666
-0.06371912 0.0031557062 0.01955839 -0.007825395 -0.017551787 0.022987392 -0.00013792238 -0.04048505
00000000: 99b8 8fbc e893 03bd 1dcb 6f3d a22f bebc
00000010: 5fdc a0bc 76c3 c3bd f927 60bd a1ba 01bd
00000020: bc7c b0bc 7df6 8dbd 93b3 41bc 1f0b f3bc
00000030: a66c 8ebd e187 24bd 8548 693b 9308 0ebd
00000040: 13a3 75bc d2c2 24bd 6042 bbbc 1426 803d
00000050: b6aa 903d 909a 55bc f815 aebb ca51 f4bc
00000060: da4f 0cbd 1e51 453d 2af5 a5bc 92be f63c
00000070: 64c1 04bd 8950 9e3d 4647 9dbc 1e21 8ebc
00000080: df68 953c cc6b 813c 4fea 93bb aa9c 60bc
00000090: 8e35 33bd 14df 543d 34be 22bd 8658 a73c
000000a0: 50aa 6c3d 6a38 8c3d 6a49 74bd 35f1 babd
000000b0: ed5d 903c a013 7abd d816 18bd 42fb b03c
000000c0: 52c5 ac3c 8ed7 1cbd ea08 60bd 1df2 6bbc
000000d0: 2025 58bc 542c 37bd 4c72 77bd 6c69 29bc
000000e0: 553b 033c bbed 4d3d 8779 9b3c ce51 b4bc
000000f0: 9177 4ebd 1d23 a03b 745e 10bd 700d 1bbb
00000100: 27d5 f3ba 2f8a b2bc f86e afbc 0c9c 003d
00000110: aa4e d3bc 9c7c 4ebd 9526 2cbc 19ee 72bd
00000120: 277a ea3c e6d3 dabc 7ec3 92bd 2681 4abc
00000130: 6003 263d 7039 bfbc 4078 0b3c d686 2dbc
00000140: 66f3 debb 591c 5c3d 10b9 4cbd e45e 863c
00000150: 97f5 18bb f9d1 90bd 4d27 9bbc 5686 06bd
00000160: 930f efbc 2c7d 57bd 6954 1fbc 46d2 3dbd
00000170: 207b 0c3d 322b e23c a894 5cbc e40d 2ebd
00000180: 8ee1 39bc 8ed3 3c3d b9b8 1fbd d326 7e3c
00000190: 69c3 8cbd 3010 9f3c 5c3e e1bc 3f1c 6a3b
000001a0: 3613 eebc fb28 1cbd fba3 dbbc 5dd2 843d
000001b0: 7df7 b03d d4a3 673d c335 94ba 6575 113d
000001c0: 16ae a0bc c5df 55bd 3ede 0dbc 9c88 e8bc
000001d0: 4bbf 6ebd 56de 93bd 57d0 f9bc 749f db3c
000001e0: cc97 033b 48a4 c33c 72ea 3bbd fdcf f93c
000001f0: 3d30 ee3b 21db 46bd 923b 5c3d 274c 00bd
00000200: 65ad 1ebd a437 6fbd 538b 7639 b3ab d5bc
00000210: 5aba f93c dcf8 d9bc 2bfa ba3c cdec efbb
00000220: 440a 24bb 3789 9e3c 4871 ca3c f8ad 303c
00000230: 4b88 2abd 1523 933d 37c2 11bd d2f3 153c
00000240: 469a c1bc 62cd 663d ddb6 d53c 2646 e8bc
00000250: f6c5 c5bc e80c 7f39 89b7 663d dc1a b63c
00000260: 6762 f93c 565b 9d3b 2359 753c 51cb 3b3d
00000270: 0205 fb3c f2aa b6bc 38ca 84bd 2a9e b3bc
00000280: 8943 15bd b9fc 2e3c fd2f 153b 1832 ab3c
00000290: 1b1e 133d b441 3ebd a9b4 debc 2e28 f7bb
000002a0: 00c8 3c3d 13a7 0c3d 0111 37bb 2459 1d3d
000002b0: 6a1b 4cbc 968b c0bc 4586 043d 4169 b2b9
000002c0: 037e aebc 98eb fb3c 5141 02bd ab5c e3bc
000002d0: 2487 fabc 4082 c4bc 0179 a3bc dd06 013b
000002e0: 7280 d33c 3f23 2ebd e7e1 cd3a 4d3c b43c
000002f0: b0ff 9ebc a3d5 c03c 3320 513d 5ec9 45bc
00000300: 73f8 58bd f9ad 74bc e1f1 19bd 554a 143c
00000310: 4a3d ddba 0fb7 a63c 15d5 4f3c 2c05 c23b
00000320: fb2c 7c3c c851 583c 13ff 15bd bfd4 21bc
00000330: 338e 23bd 0a0c 9b3c 13cb a6bb 1084 803a
00000340: d41c a5bc 793f 35bc 8404 50bc cc09 32bc
00000350: c760 473c c4e8 ec3c f66b 103c 264c cc3c
00000360: 8d7f f2bc 1c43 48bc aa6e 803d a37d 29bc
00000370: a510 e13b 4a5e 22bd b241 8ebc 9c70 d03c
00000380: 9223 d13a f188 47bd 6615 e43c 02dc e7bb
00000390: 1269 4fbc 108b 19bd 4768 1a3d 85e1 de3c
000003a0: a91a c53b 85f8 ba3c 6bb7 b03c 0201 53bd
000003b0: 1bfd 76bd 61d7 88ba 1144 63bc b49e 71bc
000003c0: 4dd1 50bc 4631 e83c 34d3 503b eb61 0e3c
000003d0: aa42 1f3d 396e 603d 9b1d 043a 2396 67bd
000003e0: 2c7f 82bd f7cf 4e3b eb38 a03c 1636 00bc
000003f0: c4c8 8fbc 0e50 bc3c 429f 10b9 a7d3 25bd

action_model._continuous_distribution.mu.bias f4 [2]
0.042515002 0.050275378
00000000: 3624 2e3d 8eed 4d3d

exp_avg f4 [128, 6]
2.0204641e-05 1.6188574e-06 1.8698935e-05 1.2261823e-06 1.6172054e-06 7.557138e-05 -3.70821e-06 -3.4063044e-07
-1.30758035e-05 1.1880358e-07 -3.4029034e-07 -1.0351212e-05 -0.0013987942 -0.00017443961 -0.0011840588 -0.0008876352
-0.00017426173 -0.008134208 -0.00042977673 -3.0485226e-05 -0.001692117 -0.00017609977 -3.0454701e-05 -0.0013215083
0.0016699397 0.0001358936 0.005918115 0.00065747846 0.00013575712 0.0057374444 -0.0010870172 -8.7182656e-05
-0.0023435594 0.00056891795 -8.7099346e-05 -0.001815207 -0.00014184092 -1.2093504e-05 -0.00045811242 8.746148e-06
-1.208144e-05 -0.00036904027 -4.9860596e-09 -7.70845e-10 -6.7251065e-08 5.236136e-08 -7.701462e-10 -4.042349e-08
0.001374819 0.00010294113 0.0009783382 4.343398e-05 0.000102839425 0.0033912088 0.00090371334 3.891529e-05
0.0028556543 -0.00097069127 3.888135e-05 -0.0012739869 5.80738e-05 1.1190574e-05 0.0001962352 3.88825e-05
1.1179149e-05 0.000513261 -0.0024222638 -0.00018431584 -0.006509953 0.00072021957 -0.00018413615 -0.0042810407
-1.607448e-05 -1.0451076e-06 -4.183562e-05 2.7913438e-06 -1.0440816e-06 -2.251209e-05 -0.0020345058 -0.00019214574
-0.003504047 -0.00092608144 -0.00019195351 -0.008510948 -0.0020253425 -0.00017549806 -0.006613486 -0.00024874564
-0.00017532232 -0.00629076 1.5213897e-06 1.0429793e-08 3.8344288e-06 1.7575007e-07 1.04356594e-08 -3.491754e-06
-0.0024972898 -0.00019164286 -0.0058280043 0.00038979517 -0.00019145675 -0.0053433166 -3.316665e-05 -4.418376e-06
-0.0002462372 8.9370695e-07 -4.413945e-06 -0.00013300036 -0.0004775496 -4.232087e-05 -0.0010228617 -7.312611e-05
-4.22784e-05 -0.0015737258 0.00011211672 -1.3680438e-05 -0.00061986654 0.00013233078 -1.3666019e-05 -0.00033223533
-0.00081954885 -6.085064e-05 -0.003122278 0.0002417653 -6.07913e-05 -0.0012848838 -3.938013e-06 -1.15255055e-07
-6.0106e-07 8.8999445e-07 -1.1515389e-07 -1.5729087e-09 0.0023847376 0.0002163829 0.006776562 0.00012811375
0.00021616869 0.007513911 8.707338e-05 1.2796745e-05 0.00022895561 3.9484326e-05 1.27839e-05 0.00055756094
-8.353285e-06 -4.6813096e-07 -1.1907578e-05 1.1290371e-06 -4.676883e-07 -1.0392539e-05 0.00017536366 1.8757826e-05
0.00037948322 2.9566492e-05 1.8739123e-05 0.0007206546 1.844789e-05 1.9971656e-05 0.00073043007 0.0001806857
1.9951336e-05 0.0010973846 -8.469163e-06 -2.2181018e-06 -4.214481e-05 -7.934224e-06 -2.2157535e-06 -0.000101896214
0.0010825086 7.1727714e-05 0.0029101672 -0.00034574745 7.165847e-05 0.0013136469 -0.0021348835 -0.00014027358
-0.005977057 0.00028436643 -0.0001401373 -0.0034036005 -0.002054541 -0.00017315002 -0.0049819597 0.00026603384
-0.00017297955 -0.0049552713 -0.001072698 -7.872316e-05 -0.0025507787 0.00041112347 -7.864691e-05 -0.0015792478
0.00015088548 1.2048859e-05 0.00036221152 1.5759508e-05 1.2036918e-05 0.00041992948 -0.0010913166 -3.4510333e-05
-0.003051753 0.0012933185 -3.448206e-05 0.0023685847 0.00033637602 -6.0788178e-05 -0.0015199223 -0.00071385904
-6.072201e-05 -0.0045996704 6.767455e-05 2.45976e-05 -2.0583266e-05 0.00042932577 2.4571274e-05 0.0017246349
0.0010148234 0.00011948474 0.0009141035 0.00026557813 0.000119365286 0.004943415 0.00067671953 2.6844891e-05
0.0037769252 -0.00039354124 2.6820167e-05 -0.00044276958 -0.0013486835 -5.235323e-05 -0.0036613785 0.0010924231
-5.230622e-05 0.0013421081 0.00013883643 3.7636244e-05 -0.00026852114 0.000362007 3.7597016e-05 0.002307906
-0.00092790957 -6.185737e-05 -0.0026828295 -0.0003679275 -6.179551e-05 -0.0028525447 -0.0033437787 -0.00030904627
-0.008414539 -0.00018040177 -0.00030874164 -0.010738127 -5.2765395e-06 -3.9328162e-07 -7.0340247e-06 3.67212e-08
00000000: 237d a937 8447 d935 a8db 9c37 4e93 a435
00000010: c10e d935 137c 9e38 90da 78b6 e4df b6b4
00000020: 2660 5bb7 f520 ff33 26b1 b6b4 1eaa 2db7
00000030: bf57 b7ba c7e9 36b9 6c32 9bba 31b0 68ba
00000040: 07ba 36b9 5745 05bc a853 e1b9 86ba ffb7
00000050: 06ca ddba 6ca7 38b9 f978 ffb7 7636 adba
00000060: e1e1 da3a a97e 0e39 bfec c13b a25a 2c3a
00000070: 065a 0e39 2c01 bc3b 3f7a 8eba d5d5 b6b8
00000080: 6796 19bb 7023 153a 1ba9 b6b8 3dec edba
00000090: 22bb 14b9 34e5 4ab7 cf2e f0b9 6bbc 1237
000000a0: 64b1 4ab7 bf7b c1b9 d851 abb1 65e3 53b0
000000b0: aa6b 90b3 ede3 6033 39b2 53b0 199e 2db3
000000c0: 4533 b43a 19e2 d738 953b 803a e22c 3638
000000d0: 7fab d738 0b3f 5e3b 2de7 6c3a f938 2338
000000e0: ee25 3b3b fd75 7eba 8814 2338 e8fb a6ba
000000f0: 4594 7338 26bf 3b37 7cc4 4d39 c415 2338
00000100: 148e 3b37 5d8c 063a d8be 1ebb e844 41b9
00000110: 7251 d5bb 1ecd 3c3a ac14 41b9 f947 8cbb
00000120: afd7 86b7 a045 8cb5 a878 2fb8 ec52 3b36
00000130: 5f22 8cb5 58d8 bcb7 5855 05bb bb7a 49b9
00000140: 27a4 65bb 46c4 72ba 2147 49b9 8171 0bbc
00000150: 9cbb 04bb e705 38b9 f1b5 d8bb 136a 82b9
00000160: bad6 37b9 b822 cebb 8d32 cc35 b72e 3332
00000170: 7ea9 8036 d0b5 3c34 8448 3332 e053 6ab6
00000180: 92a9 23bb bdf3 48b9 d8f8 bebb 6c5d cc39
00000190: c8c1 48b9 fd16 afbb 6b1c 0bb8 9041 94b6
000001a0: 6619 81b9 13e7 6f35 801b 94b6 0376 0bb9
000001b0: 9f5f fab9 b081 31b8 8b11 86ba 485b 99b8
000001c0: 1654 31b8 7a45 ceba 3520 eb38 0985 65b7
000001d0: 8a7e 22ba 46c2 0a39 1b47 65b7 df2f aeb9
000001e0: fed6 56ba e139 7fb8 229f 4cbb 6182 7d39
000001f0: 29fa 7eb8 8c69 a8ba 4623 84b6 2382 f7b3
00000200: 8758 21b5 f4e7 6e35 854a f7b3 ce2d d8b0
00000210: 4249 1c3b d8e4 6239 ec0d de3b 4656 0639
00000220: 57ab 6239 4137 f63b 2a9b b638 9ab1 5637
00000230: ce13 7039 f99b 2538 6f7a 5637 4829 123a
00000240: 1625 0cb7 6e53 fbb4 a8c6 47b7 6b89 9735
00000250: 9716 fbb4 9d5b 2eb7 d3e1 3739 205a 9d37
00000260: 60f5 c639 8f05 f837 f631 9d37 50ea 3c3a
00000270: 8bc0 9a37 ce88 a737 557a 3f3a 7376 3d39
00000280: 2b5d a737 1ed6 8f3a c716 0eb7 b3da 14b6
00000290: a5c4 30b8 3c1d 05b7 5bb2 14b6 1db1 d5b8
000002a0: f6e2 8d3a 866c 9638 81b8 3e3b 7045 b5b9
000002b0: 5947 9638 ad2e ac3a 67e9 0bbb 6716 13b9
000002c0: 30db c3bb 0417 9539 d2f1 12b9 f10e 5fbb
000002d0: 7aa5 06bb 9b8f 35b9 b53f a3bb 757a 8b39
000002e0: d861 35b9 d45f a2bb c699 8cba 2d18 a5b8
000002f0: f72a 27bb 0f8c d739 3def a4b8 c3fe ceba
00000300: 0337 1e39 7525 4a37 35e7 bd39 4933 8437
00000310: 2bf2 4937 fb29 dc39 820a 8fba 30bf 10b8
00000320: ebff 47bb 9184 a93a d4a0 10b8 423a 1b3b
00000330: a05b b039 cff6 7eb8 2138 c7ba 4522 3bba
00000340: c3af 7eb8 d5b8 96bb 7fec 8d38 f256 ce37
00000350: 3aaa acb7 2117 e139 691e ce37 250d e23a
00000360: d303 853a e293 fa38 73a0 6f3a 4b3d 8b39
00000370: c053 fa38 5ffc a13b e165 313a f730 e137
00000380: 4a86 773b 3654 ceb9 dffb e037 8723 e8b9
00000390: 4fc6 b0ba da95 5bb8 bdf3 6fbb a32f 8f3a
000003a0: 6063 5bb8 ade9 af3a 9f94 1139 9cdb 1d38
000003b0: 4cc8 8cb9 c2cb bd39 7db1 1d38 3d40 173b
000003c0: f53e 73ba 6cb9 81b8 69d2 2fbb 65e6 c0b9
000003d0: 3698 81b8 c2f1 3abb 4c23 5bbb 7d07 a2b9
000003e0: 22dd 09bc 3b2a 3db9 9ade a1b9 f8ee 2fbc
000003f0: 210d b1b6 3724 d3b4 d005 ecb6 63b7 1d33

exp_avg_sq f4 [128, 6]
1.6822638e-05 2.8472354e-07 0.000112838876 0.00018188715 2.8415488e-07 0.0002466474 4.1759606e-07 1.6538188e-08
3.315224e-05 1.5025438e-06 1.6505084e-08 1.4943058e-05 0.00013233024 1.5062783e-06 0.0015598952 0.0003984559
1.5032722e-06 0.0022977802 2.4981102e-05 1.466689e-07 0.00017053257 6.445768e-05 1.4637557e-07 0.00018918152
6.391839e-05 1.2549218e-06 0.0016210661 0.0003519675 1.2524097e-06 0.0016932797 0.00010378734 9.936736e-07
0.0011700562 0.00020082151 9.91685e-07 0.0013827821 2.9714882e-05 3.0263124e-07 0.0007323155 2.5950889e-05
3.0202256e-07 0.00040631933 2.2553732e-09 4.1493548e-11 8.857932e-09 2.3147983e-08 4.1410844e-11 3.996874e-08
0.0001950635 5.0835365e-07 0.00012047939 4.0672516e-05 5.07344e-07 0.0006933598 0.00019381763 1.4793585e-06
0.0015125079 0.00041542563 1.4764028e-06 0.0020276317 4.7256918e-07 2.51531e-09 6.800558e-07 3.500893e-07
2.510308e-09 3.4579457e-06 0.00030198327 2.4000524e-06 0.0028743679 0.0007971481 2.3952498e-06 0.0030115608
1.14746115e-08 1.0967835e-10 5.7178873e-08 2.1194017e-08 1.09459164e-10 1.0670549e-07 0.00016334093 8.221099e-07
0.0008315296 0.00019446769 8.2046995e-07 0.0010677404 3.1697822e-05 2.2095908e-07 0.0004952919 1.6420023e-05
2.2051582e-07 0.0003125935 7.714281e-08 1.2768102e-09 5.948193e-07 8.878947e-07 1.274259e-09 1.1317921e-06
0.00028155016 1.603074e-06 0.0013970274 0.0004225902 1.5998747e-06 0.0021813668 2.768989e-05 5.354126e-08
5.315327e-06 3.0877388e-06 5.3435148e-08 6.909407e-05 3.765831e-05 1.6717883e-07 0.00011015281 6.127363e-05
1.6684528e-07 0.00022948357 9.2098264e-05 3.7094753e-07 0.00023733951 9.9746605e-05 3.7020808e-07 0.00047131977
5.303305e-05 3.9916142e-07 0.0005418207 8.460761e-05 3.9836436e-07 0.00056399085 2.0593326e-08 4.550546e-10
4.1698062e-08 7.934327e-08 4.5414772e-10 6.625419e-07 4.3352e-05 3.6891697e-07 0.00037311687 7.994588e-05
3.6817997e-07 0.0005190285 5.2278432e-05 8.7756206e-08 1.41592245e-05 2.6605127e-05 8.7582315e-08 0.00011722786
1.554606e-08 9.454457e-11 1.727966e-08 1.0252716e-08 9.435626e-11 1.00161074e-07 5.3897656e-07 1.9077758e-08
3.625722e-06 2.7201331e-06 1.9039847e-08 2.5738367e-05 0.00010647283 6.3578995e-07 0.00069261156 0.00021852466
6.3452e-07 0.0008411696 3.7158395e-07 1.8551455e-08 1.1009297e-06 1.1105554e-06 1.8514495e-08 3.5293855e-05
9.028201e-05 5.5040033e-07 0.00055278034 0.000112756104 5.4930155e-07 0.0008088905 6.088017e-05 4.472563e-07
0.00045653406 1.9056259e-05 4.4636278e-07 0.00062031246 9.890849e-05 8.804351e-07 0.00085564115 0.00024087007
8.786776e-07 0.0011868984 0.00012728118 7.088583e-07 0.00070192665 0.00010958015 7.074417e-07 0.0010991954
7.728325e-06 5.2999315e-08 0.0001353721 4.2674974e-06 5.2893164e-08 5.005863e-05 0.00021182866 1.2546915e-06
0.0013259893 8.148973e-05 1.2521849e-06 0.0019745103 0.00048102316 1.4100361e-06 0.0007387502 0.00028758496
1.4072333e-06 0.0020999976 0.0002566176 1.7456e-06 0.0019981468 0.00092096755 1.7421065e-06 0.0019548764
7.1188195e-05 4.825189e-07 0.00063492666 0.00013940416 4.815526e-07 0.00060536974 4.8903115e-05 3.9314529e-07
0.00059561303 6.166605e-05 3.9235715e-07 0.00055340835 0.00011277625 5.642151e-07 0.00059184077 2.297605e-05
5.630889e-07 0.000821128 9.231836e-05 8.89153e-07 0.00089405774 0.00040695615 8.8737386e-07 0.0010287721
3.1556763e-05 3.063261e-07 0.0006255932 2.2206781e-05 3.0571084e-07 0.00045344603 0.00073872856 3.921241e-06
0.0033169976 0.001207441 3.9134234e-06 0.0056715934 2.7430332e-08 6.5582173e-10 8.313135e-08 4.214362e-08
00000000: 571e 8d37 1bdc 9834 e9a3 ec38 f6b8 3e39
00000010: f38d 9834 7450 8139 f731 e034 dc0f 8e32
00000020: f20c 0b38 03ab c935 10c7 8d32 f2b3 7a37
00000030: 21c2 0a39 542b ca35 6675 cc3a d8e7 d039
00000040: 0ac4 c935 5b96 163b 828e d137 0a7c 1d34
00000050: fdd0 3239 742d 8738 692b 1d34 075f 4639
00000060: ed0b 8638 c96e a835 f479 d43a 4788 b839
00000070: 7818 a835 0af1 dd3a 67a8 d938 5d5e 8535
00000080: 925c 993a 9d93 5239 0a1a 8535 783e b53a
00000090: 3944 f937 5279 a234 dcf8 3f3a 1cb1 d937
000000a0: aa25 a234 4207 d539 f2fc 1a31 957d 362e
000000b0: 992d 1832 f4d6 c632 7720 362e 18aa 2b33
000000c0: f689 4c39 cc75 0835 e1a9 fc38 c897 2a38
000000d0: 6a30 0835 97c2 353a 863b 4b39 5f8e c635
000000e0: 583f c63a 7ccd d939 d028 c635 04e2 043b
000000f0: 6ab5 fd34 cdd9 2c31 148d 3635 e8f3 bb34
00000100: ce81 2c31 0e0f 6836 8253 9e39 9610 2136
00000110: e45f 3c3b b4f7 503a 14be 2036 9b5d 453b
00000120: e021 4532 6c2f f12e d694 7533 230e b632
00000130: 08b4 f02e f725 e533 7f46 2b39 f6ae 5c35
00000140: 02fb 593a 06ea 4b39 443e 5c35 6cf3 8b3a
00000150: 47f3 0438 c540 6d34 7ad6 013a bbbd 8937
00000160: edc6 6c34 97e3 a339 b5a9 a533 c47b af30
00000170: acab 1f35 a957 6e35 0122 af30 15e8 9735
00000180: 069d 9339 3429 d735 761c b73a 198f dd39
00000190: 47bb d635 43f5 0e3b 9647 e837 3df5 6533
000001a0: 505a b236 f336 4f36 9180 6533 99e6 9038
000001b0: 4df3 1d38 c481 3334 d701 e738 0880 8038
000001c0: 1526 3334 87a1 7039 e124 c138 a426 c734
000001d0: 57de 7839 0d2f d138 03c1 c634 781b f739
000001e0: ce6f 5e38 544c d634 f908 0e3a 5d6f b138
000001f0: c8de d534 c9d8 133a 34e5 b032 3e2b fa2f
00000200: 8117 3333 6d63 aa33 9cab f92f 88d9 3135
00000210: dbd4 3538 900f c634 e69e c339 9ea8 a738
00000220: 45aa c534 6a0f 083a 8a45 5b38 7c74 bc33
00000230: 688d 6d37 132e df37 e314 bc33 3ad8 f538
00000240: 268a 8532 dce7 cf2e 606e 9432 ec23 3032
00000250: da7d cf2e 2218 d733 30ae 1035 6fe0 a332
00000260: 6e51 7336 888b 3636 118d a332 b9e8 d737
00000270: 2a4a df38 27ab 2a35 6090 353a c423 6539
00000280: e253 2a35 f081 5c3a 1c7e c734 155b 9f32
00000290: a8c3 9335 650e 9535 ce09 9f32 7d08 1438
000002a0: c955 bd38 39bf 1335 76e8 103a 7977 ec38
000002b0: b773 1335 b90b 543a 9659 7f38 701e f034
000002c0: f75a ef39 01db 9f37 a2a3 ef34 779c 223a
000002d0: 176d cf38 0a57 6c35 1b4d 603a 1192 7c39
000002e0: 44de 6b35 b491 9b3a c876 0539 5f48 3e35
000002f0: 8001 383a 65ce e538 06e7 3d35 e112 903a
00000300: e7a8 0137 5da1 6333 acf2 0d39 8631 8f36
00000310: a62c 6333 0bf6 5138 531e 5e39 df66 a835
00000320: d1cc ad3a 77e5 aa38 bf10 a835 c966 013b
00000330: d631 fc39 7940 bd35 b0a8 413a 00c7 9639
00000340: 2be0 bc35 1da0 093b a28a 8639 5c4a ea35
00000350: 57f3 023b 166d 713a 53d2 e935 621d 003b
00000360: df4a 9538 7286 0135 3571 263a 052d 1239
00000370: 0b44 0135 adb1 1e3a 521d 4d38 7a11 d334
00000380: ea22 1c3a b552 8138 28a5 d234 9b12 113a
00000390: 4a82 ec38 9174 1735 c325 1b3a b1bc c037
000003a0: 2d27 1735 f840 573a 0b9b c138 21ae 6e35
000003b0: 335f 6a3a bb5c d539 de33 6e35 ddd7 863a
000003c0: d15b 0438 2375 a434 d9fe 233a b348 ba37
000003d0: 9420 a434 7fbc ed39 3ca7 413a 3493 8336
000003e0: fc61 593b ff42 9e3a 0d50 8336 c6d8 b93b
000003f0: f09f eb32 5a45 3430 f185 b233 6601 3533

exp_avg f4 [128]
3.2344103e-06 -6.805806e-07 -0.0003485234 -6.09094e-05 0.00027151423 -0.0001741987 -2.416288e-05 -1.5402872e-09
0.00020567885 7.776276e-05 2.2358296e-05 -0.00036827233 -2.0881635e-06 -0.000383907 -0.00035064464 2.0871319e-08
-0.00038291348 -8.827891e-06 -8.45568e-05 -2.7332044e-05 -0.0001215826 -2.3030769e-07 0.00043233743 2.5567799e-05
-9.353767e-07 3.7478247e-05 3.9902654e-05 -4.4315066e-06 0.00014331692 -0.0002802746 -0.0003459591 -0.00015729383
2.4073837e-05 -6.896414e-05 -0.00012144404 4.9142545e-05 0.00023873057 5.364032e-05 -0.000104612496 7.519402e-05
-0.000123591 -0.00061748317 -7.858045e-07 -0.00014416811 -1.6302577e-06 5.73814e-06 -2.91307e-05 9.0647467e-07
5.769258e-09 5.2953887e-06 -4.7764148e-05 9.340876e-05 -0.0001541055 -1.2081411e-07 -6.9055764e-05 0.00024091278
8.658862e-05 0.00013363903 -9.002163e-05 6.0883758e-05 -0.00012679026 6.9126713e-06 0.00015759998 0.00029484156
0.00010966955 -0.0003163188 -4.0571944e-08 -2.4469102e-05 9.695639e-06 -4.2589392e-05 -0.00032984107 -3.5088988e-08
4.5730644e-06 8.669898e-07 0.00049945054 4.945461e-05 1.7577064e-05 1.474509e-05 -0.00034719077 3.6590038e-05
0.0006418134 -2.843368e-05 0.00028081334 0.00022811312 -5.205555e-10 7.340524e-05 -9.4373856e-05 -0.00058410264
0.0002494413 -1.5223601e-07 -0.0005288345 0.00013272 1.6021677e-05 2.9821109e-05 0.00048155864 -0.00015830365
-0.00026117018 0.0004035349 0.0005461509 5.269927e-05 6.2757965e-11 -1.9048463e-06 -0.00030833465 -3.1286632e-05
-0.00046061014 -1.9831232e-06 -0.00035758855 2.7942111e-05 7.176018e-08 4.7754784e-05 -0.00040952323 -5.6237803e-07
0.00030126265 -8.046601e-06 -5.785885e-06 2.1312223e-07 -0.00024813376 -0.00019546392 -3.4555324e-05 -0.00022578708
1.2945734e-06 1.7285029e-07 0.00048032418 0.00019519936 2.9123777e-05 -0.00028679144 -0.0005170147 0.00036101814
00000000: bf0e 5936 25b1 36b5 05ba b6b9 f878 7fb8
00000010: 065a 8e39 1ca9 36b9 64b1 cab7 0ab2 d3b0
00000020: 7fab 5739 9014 a338 138e bb37 ad14 c1b9
00000030: 6022 0cb6 2047 c9b9 bad6 b7b9 8448 b332
00000040: c7c1 c8b9 811b 14b7 1654 b1b8 1e47 e5b7
00000050: 29fa feb8 7f4a 77b4 59ab e239 6e7a d637
00000060: 9916 7bb5 f631 1d38 265d 2738 5ab2 94b6
00000070: 5847 1639 d2f1 92b9 d861 b5b9 3eef 24b9
00000080: 2cf2 c937 d7a0 90b8 c6af feb8 681e 4e38
00000090: c053 7a39 dbfb 6038 6863 dbb8 7bb1 9d38
000000a0: 3598 01b9 98de 21ba 13f0 52b5 d52b 17b9
000000b0: 3acf dab5 3f8a c036 b45d f4b7 7754 7335
000000c0: ee3a c631 0baf b136 5d56 48b8 72e4 c338
000000d0: 6197 21b9 21b9 01b4 08d2 90b8 889d 7c39
000000e0: e996 b538 7421 0c39 ffc9 bcb8 705d 7f38
000000f0: 00f3 04b9 65f3 e736 6c41 2539 f794 9a39
00000100: 64fe e538 97d7 a5b9 5341 2eb3 ff42 cdb7
00000110: 74aa 2237 03a2 32b8 85ee acb9 c0b4 16b3
00000120: 5372 9936 16bb 6835 8fed 023a 7c6d 4f38
00000130: 7572 9337 ae61 7737 2807 b6b9 4178 1938
00000140: 5e3f 283a dd84 eeb7 213a 9339 a631 6f39
00000150: d616 0fb0 23f1 9938 94ea c5b8 771e 19ba
00000160: 72c7 8239 5176 23b4 7ca1 0aba c12a 0b39
00000170: 4a66 8637 5828 fa37 b579 fc39 50fe 25b9
00000180: abed 88b9 8a91 d339 912b 0f3a 6909 5d38
00000190: 9801 8a2e 05aa ffb5 faa7 a1b9 c439 03b8
000001a0: 0c7e f1b9 cc15 05b6 b97a bbb9 3a65 ea37
000001b0: 931a 9a33 4f4c 4838 47b5 d6b9 53f6 16b5
000001c0: caf2 9d39 e3ff 06b7 6024 c2b6 98d6 6434
000001d0: f317 82b9 72f5 4cb9 7fef 10b8 42c1 6cb9
000001e0: 34c1 ad35 ba98 3934 05d4 fb39 6eae 4c39
000001f0: d64e f437 7f5c 96b9 4588 07ba 0947 bd39

exp_avg_sq f4 [128]
1.1366195e-06 6.602033e-08 6.0130897e-06 5.8550233e-07 5.009639e-06 3.96674e-06 1.2080903e-06 1.6564339e-10
2.0293758e-06 5.9056097e-06 1.0041232e-08 9.580999e-06 4.3783666e-10 3.2818798e-06 8.820632e-07 5.0970357e-09
6.3994985e-06 2.1374059e-07 6.673812e-07 1.4808323e-06 1.5934573e-06 1.8165909e-09 1.47272e-06 3.5032923e-07
3.7742504e-10 7.615939e-08 2.53808e-06 7.405798e-08 2.1972062e-06 1.7854511e-06 3.51471e-06 2.829767e-06
2.1157265e-07 5.008739e-06 5.6289336e-06 6.9684265e-06 1.9262104e-06 1.569429e-06 2.2523557e-06 3.5494952e-06
1.2228434e-06 1.5653693e-05 2.6180598e-09 1.7439933e-06 2.4605728e-07 6.2485983e-06 1.920595e-06 2.291992e-06
2.2200382e-10 1.4204455e-06 4.7471963e-06 2.66464e-06 5.2146347e-06 1.0118394e-08 3.6012537e-07 4.165081e-06
1.8127805e-06 6.324248e-06 4.1504694e-07 3.2969972e-06 1.1147934e-05 2.5488978e-06 3.080196e-07 4.142365e-06
2.863875e-06 1.03357215e-05 3.6838428e-09 7.0219586e-09 7.074305e-07 3.0368972e-06 7.4442823e-07 5.140381e-10
5.8519465e-09 5.0761678e-08 2.8226696e-06 1.5557921e-06 3.1284785e-07 2.4835138e-06 2.3281746e-06 5.621234e-07
3.935411e-06 5.7987118e-06 2.1853011e-06 3.4228626e-06 2.1639321e-16 4.473729e-06 2.1000114e-06 7.311271e-06
3.3434549e-06 1.861496e-10 5.1147567e-06 2.0031669e-06 1.9625816e-06 2.4921753e-06 4.321842e-06 4.962482e-06
3.0404321e-06 2.6500743e-06 3.50884e-06 8.012197e-06 1.0069709e-18 1.3201191e-08 3.714265e-06 4.8279567e-06
3.8443836e-06 1.713578e-07 4.6907894e-06 1.2856009e-06 1.3059641e-09 3.8232843e-06 9.985659e-06 3.3433487e-08
3.3198571e-06 5.192889e-07 4.7207994e-08 4.21563e-10 1.3821862e-06 1.591415e-06 9.452056e-07 3.0865735e-06
2.510479e-08 3.6760743e-09 1.1508668e-06 1.6418637e-06 1.6141227e-06 4.570208e-06 3.1540894e-06 3.2133817e-06
00000000: f38d 9835 0fc7 8d33 0cc4 c936 6a2b 1d35
00000010: 7918 a836 0a1a 8536 ab25 a235 7820 362f
00000020: 6930 0836 cd28 c636 ce81 2c32 14be 2037
00000030: 08b4 f02f 443e 5c36 ecc6 6c35 0022 af31
00000040: 46bb d636 9180 6534 1626 3335 03c1 c635
00000050: c7de d535 9cab f930 46aa c535 e214 bc34
00000060: da7d cf2f 118d a333 e253 2a36 ce09 9f33
00000070: b773 1336 a2a3 ef35 42de 6b36 07e7 3d36
00000080: a62c 6334 be10 a836 2ce0 bc36 54d2 e936
00000090: 0b44 0136 2ba5 d235 2d27 1736 dd33 6e36
000000a0: 9420 a435 0d50 8337 65e9 3331 2713 ea35
000000b0: db19 8434 0dab d136 92e3 0036 1fd0 1936
000000c0: 8518 742f 23a6 be35 1b4a 9f36 2bd2 3236
000000d0: 5ff9 ae36 2bd5 2d32 4157 c134 c6c1 8b36
000000e0: aa4e f335 e034 d436 9ed3 de34 fb41 5d36
000000f0: 0308 3b37 bb0d 2b36 e45d a534 a5fe 8a36
00000100: ff30 4036 9667 2d37 d926 7d31 cd45 f131
00000110: 41e6 3d35 7fcd 4b36 b8d4 4735 374c 0d30
00000120: 4412 c931 0e05 5a33 186d 3d36 9cd0 d035
00000130: 7bf5 a734 71aa 2636 bc3d 1c36 d3e4 1635
00000140: ec0c 8436 8e92 c236 30a7 1236 55b4 6536
00000150: 017c 7925 0a1d 9636 eced 0c36 5753 f536
00000160: 1e60 6036 74ac 4c2f 6d9f ab36 256e 0636
00000170: e5b4 0336 3f3f 2736 5704 9136 6583 a636
00000180: 3a0a 4c36 eed7 3136 6a79 6b36 206c 0637
00000190: 499a 9421 74cb 6232 9642 7936 d5ff a136
000001a0: 01ff 8036 79fe 3734 9365 9d36 e98c ac35
000001b0: 877d b330 c349 8036 1488 2737 8298 0f33
000001c0: b6ca 5e36 4365 0b35 bdc1 4a33 b8c1 e72f
000001d0: 8e83 b935 9a98 d535 09ba 7d35 ee22 4f36
000001e0: 04a6 d732 2f9e 7c31 7b77 9a35 025e dc35
000001f0: d5a4 d835 ca59 9936 d8aa 5336 7aa5 5736
