MLAgentsProject/results/TestParameters/MoveToGoal/MoveToGoal-350590.pt (torch, 439199 bytes, 36 tensors)

network_body._body_endoder.seq_layers.0.weight f4 [128, 6]
0	0xbf06434b	-0.5244643
1	0x3e81d9ae	0.2536139
2	0xbe03c046	-0.12866315
3	0xbea6c0cd	-0.3256897
4	0xbe818970	-0.2530017
5	0xbeda0933	-0.42585143
6	0xbf430322	-0.76176655
7	0xbec14cd8	-0.3775394
8	0x3ee57392	0.44814736
9	0x3e85e50f	0.2615132
10	0x3e5329d7	0.2062143
11	0xbebe43d3	-0.3716112
12	0xbebe7893	-0.37201366
13	0xbebcb08b	-0.36853442
14	0xbe92726f	-0.2860293
15	0x3e1abb03	0.15110402
16	0xbd7f9048	-0.062393457
17	0x3e1f3172	0.15546206
18	0x3e3f0266	0.18653259
19	0xbf09c20e	-0.5381173
20	0xbfa603cb	-1.2969908
21	0xbde30bcb	-0.11086234
22	0x3d896a5d	0.0670974
23	0x3d5edfa0	0.054412484
24	0xbec401bd	-0.38282576
25	0x3ce95144	0.028481133
26	0x3f37a51d	0.7173632
27	0x3e8afef6	0.27147645
28	0xbe433a6b	-0.19065253
29	0xbef01326	-0.4688961
30	0x3e3487a5	0.1762987
31	0x3e171a29	0.14756073
32	0x3efea0bd	0.4973201
33	0x3f05ecb5	0.5231431
34	0xbe43ceaa	-0.19121805
35	0x3e6c1ed4	0.23058635
36	0xbe6c886d	-0.23098917
37	0xbe1b6dd3	-0.15178613
38	0xbecfb5e3	-0.40568456
39	0xbef1027b	-0.47072205
40	0x3e6a6909	0.2289163
41	0xbf1e03cb	-0.6172454
42	0xbcc2fc7e	-0.023802038
43	0x3e7f4320	0.2492795
44	0x3ed9b1e2	0.42518526
45	0x3ea836bb	0.32854256
46	0xbeb99308	-0.36244988
47	0x3ef9173f	0.48650548
48	0x3f26e8e1	0.65199095
49	0x3f10d84e	0.56580055
50	0x3e890b45	0.2676641
51	0xbee6a5d2	-0.45048386
52	0x3e248d4a	0.16069523
53	0xbe19d7a9	-0.15023674
54	0xbef6ab29	-0.4817746
55	0xbf0617d9	-0.5238014
56	0x3ee8a55d	0.45438662
57	0x3f079fc4	0.5297816
58	0xbe8b2a34	-0.27180636
59	0x3f2eae54	0.68234754
60	0x3e8bee70	0.2733035
61	0xbde6ae7b	-0.11263748
62	0x3f1eb08e	0.6198815
63	0x3ebb7ad8	0.3661716
64	0xbf2e781f	-0.6815204
65	0x3f24a115	0.6430829
66	0xbde2ff36	-0.11083834
67	0xbf386a11	-0.72036844
68	0x3e376b90	0.17912126
69	0x3e3b658f	0.1830046
70	0xbf44d5b5	-0.7688859
71	0x3ec1cdaa	0.37852222
72	0x3f17fef7	0.5937342
73	0xbf0af473	-0.5427925
74	0x3d885342	0.06656505
75	0xbe8ea43e	-0.27859682
76	0x3e72afb8	0.23699844
77	0x3e4da3c2	0.20082
78	0x3ddca876	0.10774319
79	0x3f05dfa4	0.52294374
80	0x3eda2903	0.42609414
81	0xbec18839	-0.37799242
82	0xbed9ad33	-0.42514953
83	0x3e294beb	0.16532867
84	0xbe6d3eeb	-0.23168533
85	0x3f15ec2a	0.5856348
86	0x3f075eec	0.52879214
87	0x3e78391a	0.24240533
88	0x3f18c6dc	0.59678435
89	0xbf38a503	-0.7212679
90	0xbd316cd7	-0.04331669
91	0x3edd5a28	0.43232846
92	0x3e00fc37	0.12596212
93	0x3f0086b4	0.5020554
94	0x3f330fbd	0.6994589
95	0xbe5cee22	-0.21575215
96	0x3ebd9cdd	0.3703374
97	0xbe58773d	-0.21139236
98	0x3ee76b41	0.45199016
99	0xbd32d7dc	-0.04366289
100	0x3f0cf672	0.55063546
101	0xbe6ada5a	-0.22934857
102	0x3d020498	0.031742662
103	0xbb25e26a	-0.0025311955
104	0x3e637ef6	0.222164
105	0x3eb46a59	0.35237387
106	0x3dde1137	0.10843127
107	0xbf3439da	-0.70400774
108	0xbef33304	-0.4749986
109	0x3ec0498b	0.3755611
110	0xbefb24f7	-0.4905164
111	0x3eb130a3	0.3460742
112	0x3e2fbc46	0.17161664
113	0x3f42bea4	0.76072145
114	0xbecab216	-0.39588994
115	0x3bafa20f	0.005359895
116	0xbe0f8b13	-0.14017896
117	0xbf0fd9b7	-0.5619158
118	0xbd1c5ea7	-0.038176205
119	0x3e1df828	0.15426695
120	0x3f15f6e1	0.5857983
121	0x3d2d1dcd	0.04226475
122	0x3e66cebf	0.22539805
123	0xbf015080	-0.5051346
124	0x3f8069d2	1.0032294
125	0xbed21344	-0.41030324
126	0x3e6594a0	0.22419977
127	0x3f0861cd	0.5327423
128	0xbea8f18a	-0.3299678
129	0xbeca5ebc	-0.39525402
130	0x3e526051	0.20544554
131	0x3e1dfeba	0.15429202
132	0x3f82f0e4	1.0229764
133	0xbe9bd26a	-0.3043397
134	0xbf1cc26a	-0.6123415
135	0xbe219633	-0.15779953
136	0x3f3b90ce	0.7326783
137	0x3f1df43e	0.6170081
138	0x3f37ac2d	0.71747094
139	0x3eb60f39	0.3555849
140	0x3f5c2953	0.86000556
141	0xbe0f4af3	-0.13993435
142	0xbedf1309	-0.4356921
143	0xbf1c29ab	-0.6100108
144	0x3f000e8e	0.5002221
145	0x3e38ebb0	0.18058658
146	0x3dd810c3	0.10550072
147	0xbeedd396	-0.4645049
148	0x3e46e20f	0.19422172
149	0xbe8174a4	-0.25284302
150	0x3ebcf25a	0.3690365
151	0x3e75c1a0	0.23999643
152	0x3e36f4e6	0.17866859
153	0xbe02ac02	-0.12760928
154	0x3ee24a65	0.44197384
155	0xbf0cd651	-0.5501452
156	0x3f07d406	0.530579
157	0xbf1e6af5	-0.61881953
158	0x3eba10fb	0.3634108
159	0xbec00fb8	-0.37511992
160	0x3f88a4c8	1.0675287
161	0xbfb3bb27	-1.4041489
162	0xbe99c972	-0.30036503
163	0x3d11bfa7	0.035583165
164	0x3ee30581	0.44340137
165	0x3d3727c2	0.04471565
166	0xbdfd7bdb	-0.12377139
167	0xbd31a801	-0.04337311
168	0xbf4a4f68	-0.79027414
169	0x3dcd8361	0.10034824
170	0x3e851db2	0.25999218
171	0x3f2d2148	0.6762891
172	0xbf0f808d	-0.5605553
173	0xbd9e1b65	-0.07720069
174	0x3e659e5f	0.22423695
175	0xbf075d81	-0.5287705
176	0xbf1eb549	-0.6199537
177	0xbe4c4c3c	-0.19950956
178	0x3ea7e4b6	0.3279168
179	0x3f3d64fa	0.73982203
180	0xbe8e2268	-0.27760625
181	0xbd6df747	-0.05809715
182	0xbf019fe0	-0.50634575
183	0x3f0803fe	0.5313109
184	0x3df7917f	0.12088298
185	0xbf1d6ba3	-0.61492366
186	0x3f40898b	0.75209874
187	0x3d151d03	0.03640462
188	0xbee0a883	-0.43878564
189	0x3eb6caee	0.35701698
190	0x3f1e9844	0.6195109
191	0x3df413a5	0.119178094
192	0xbd9fb3c4	-0.077979594
193	0x3f03f804	0.51550317
194	0x3f16a9d8	0.5885291
195	0xbf3325c7	-0.6997952
196	0x3ea95cd0	0.33078623
197	0x3f0f9921	0.5609303
198	0xbec2d9dc	-0.3805684
199	0xbee47d6b	-0.44626936
200	0x3f02318f	0.5085687
201	0x3f350b5c	0.7072046
202	0xbdfa076a	-0.12208445
203	0x3e43bb86	0.19114503
204	0xbd96d19e	-0.073642
205	0xbe55ac6e	-0.20866558
206	0xbea4497c	-0.32087314
207	0x3e27b922	0.16379216
208	0xbf37d482	-0.71808636
209	0x3f299fa7	0.66259235
210	0xbe94dd8e	-0.29075283
211	0x3f0d9209	0.55300957
212	0xbdf0988d	-0.11747847
213	0x3cd8d009	0.026466386
214	0xbecd029f	-0.40041062
215	0xbe41f049	-0.18939318
216	0xbe880a5c	-0.26570404
217	0xbe7dd1ce	-0.24787065
218	0x3f0d2bc5	0.5514491
219	0xbe9458fc	-0.2897414
220	0xbe4ab64e	-0.19796106
221	0xbe97455d	-0.29545107
222	0xbe62ffb3	-0.22167854
223	0xbf027ab0	-0.50968456
224	0x3e8bbcf6	0.27292603
225	0xbee7d19b	-0.45277104
226	0xbf66c408	-0.9014287
227	0xbd4b3ddd	-0.049619544
228	0x3ec24e45	0.3795034
229	0x3f114f84	0.56761956
230	0xbd369667	-0.04457703
231	0xbf0e8a64	-0.5567992
232	0xbe17e299	-0.14832534
233	0x3e7f8a73	0.24955158
234	0x3f177f47	0.59178585
235	0xbd1d2f20	-0.03837502
236	0x3e7eb2df	0.24872921
237	0xbe48c9b3	-0.19608192
238	0xbe1ec627	-0.15505277
239	0x3ea7dfde	0.32787985
240	0x3e659c4a	0.22422901
241	0xbdead066	-0.1146553
242	0xbec9ee48	-0.39439607
243	0x3ee6ed79	0.45103052
244	0xbea368d9	-0.3191593
245	0xbde2c550	-0.110727906
246	0xbe0c370d	-0.13692875
247	0x3e13adb5	0.14421733
248	0x3e6639e5	0.22483023
249	0xbf2d328f	-0.6765527
250	0x3e41c739	0.18923654
251	0xbe113c2b	-0.14183109
252	0x3e7f6f8f	0.249449
253	0x3f22050d	0.63288957
254	0xbe47c6c1	-0.19509412
255	0xbde5a227	-0.11212569

network_body._body_endoder.seq_layers.0.bias f4 [128]
0	0x3a61c2e4	0.000861211
1	0x3dbea2f1	0.09308422
2	0xbb672f6f	-0.0035276075
3	0xbd1b0154	-0.037843063
4	0x3c3379a1	0.010954292
5	0x3befdadc	0.0073197912
6	0xbd75d5e8	-0.06001845
7	0xbda72d2f	-0.08162915
8	0x3c9eb46c	0.019373141
9	0xbd8a00b1	-0.06738413
10	0xbddb849c	-0.107186526
11	0xbdf2dcea	-0.11858542
12	0x3a53ba83	0.00080768036
13	0xbd906472	-0.070504084
14	0x3d193c40	0.037410975
15	0x3c1e36b4	0.009656597
16	0xba81dee6	-0.0009908348
17	0x3c9424f8	0.018084034
18	0xbdbf12d0	-0.0932976
19	0xbdf8e577	-0.12153142
20	0x3cf1649e	0.029466923
21	0x3deb3a88	0.11485773
22	0x3c222059	0.009895408
23	0xbd415ee9	-0.047209654
24	0xbc6a3cb7	-0.014296702
25	0x3df1c64d	0.11805401
26	0x3d10d553	0.03535969
27	0x3d64e116	0.05587872
28	0x3e099061	0.13433982
29	0x3dc02340	0.093817234
30	0x3d183bb5	0.037166316
31	0xbdc284ac	-0.094979614
32	0xbdbe23de	-0.09284185
33	0xbdf5646b	-0.11982044
34	0xbd6b9f42	-0.057524927
35	0x3df979cc	0.12181434
36	0xbde4b863	-0.111679815
37	0xbdd651cf	-0.104648225
38	0x3dba2875	0.09089748
39	0xbcd72c38	-0.026266202
40	0xbd62904d	-0.055313397
41	0x3d16f2c4	0.036852613
42	0x3ca1c123	0.019745415
43	0x3e19da75	0.15024741
44	0xbc8759f7	-0.01652239
45	0xbd1b88b1	-0.037972156
46	0x3d053b8c	0.03252749
47	0x3c170ef3	0.009219873
48	0x3cd79cd9	0.026319908
49	0xbdd8fd68	-0.105952084
50	0xbd2ed133	-0.042679977
51	0x3b1cfd29	0.0023954606
52	0xbd85a6a9	-0.065259285
53	0xbce05624	-0.027384825
54	0x3d05726b	0.03257982
55	0xbd29900e	-0.041397147
56	0xbd6da14b	-0.05801515
57	0xbc4535e5	-0.012036775
58	0xbbc48ebb	-0.00599846
59	0xbcb68326	-0.022279333
60	0x3cb871e7	0.02251525
61	0xbcb87f9c	-0.022521786
62	0x3b8fa48f	0.0043836306
63	0x3df2437f	0.1182928
64	0x3c931407	0.017953886
65	0x3dad0582	0.08448316
66	0x3bf44fea	0.0074558156
67	0xbd1cd0a3	-0.03828491
68	0xbd385737	-0.04500505
69	0xbc3db545	-0.011578863
70	0xbddd4081	-0.10803319
71	0x3bfdc72a	0.0077446895
72	0xbcf38050	-0.02972427
73	0x3d608c31	0.054821197
74	0x3c2a17ec	0.01038168
75	0xbe11bf83	-0.14233212
76	0xbe0a26d9	-0.13491382
77	0xbdaf215f	-0.08551287
78	0x3cb39f29	0.02192648
79	0xbc0d933f	-0.008641063
80	0xbdd30c34	-0.10305062
81	0xbd8b2294	-0.06793705
82	0xbde58abe	-0.112081036
83	0x3dd3bc1e	0.10338615
84	0xbcc7dbd4	-0.024396814
85	0xbc6baa5f	-0.014383881
86	0x3cae6cbc	0.021292083
87	0xbd8861d8	-0.06659287
88	0x3dc616a8	0.0967229
89	0xbd1fadd7	-0.038984146
90	0xbd81ed29	-0.06344063
91	0xbdd86f25	-0.10568074
92	0x3d4bf9a6	0.04979863
93	0xbcf1296a	-0.029438693
94	0xbc357a24	-0.011076484
95	0x3d81a3db	0.06330081
96	0xbd2b8b00	-0.041880608
97	0xbda40d70	-0.080103755
98	0xbd687111	-0.056748454
99	0xbd5381c6	-0.051637433
100	0xbd373372	-0.044726796
101	0xbc13cdba	-0.009021217
102	0x3cd966ab	0.026538214
103	0x3d4e7e64	0.050413504
104	0x3cf092ab	0.029366812
105	0xbd3f9739	-0.046775077
106	0xbd66daa7	-0.056360867
107	0x3b0aa0bc	0.0021152934
108	0xbd84f3d5	-0.0649182
109	0x3d0090eb	0.031388205
110	0x3b330e8a	0.0027321898
111	0xbd368168	-0.044557005
112	0xbcca80f7	-0.024719698
113	0xbc689542	-0.014195742
114	0xbdc0600e	-0.09393321
115	0x3d847842	0.0646825
116	0xbbe6c16f	-0.007042102
117	0xbb9b29bd	-0.0047352
118	0xbda718c0	-0.081590176
119	0xbde20f2d	-0.11038051
120	0xbcf15541	-0.029459598
121	0x3daabc6e	0.08336721
122	0xbc1cfbed	-0.009581548
123	0x3ab55479	0.0013834379
124	0xbd90fcec	-0.07079491
125	0x3e34d356	0.17658743
126	0xbd991e59	-0.074764915
127	0x3df0dab4	0.11760464

network_body._body_endoder.seq_layers.2.weight f4 [128, 128]
0	0x3dff3d26	0.12462835
1	0xbd87b2ae	-0.06625877
2	0xbd672c6b	-0.056438845
3	0xbcdefeff	-0.027221201
4	0x39c09073	0.00036728717
5	0xbe04758b	-0.12935464
6	0x3e0707ab	0.13186519
7	0xbd4bd923	-0.049767625
8	0xbdb9bf7e	-0.09069727
9	0x3d10781c	0.035270795
10	0x3b650c23	0.003494986
11	0xbe24c4fd	-0.1609077
12	0xbcaa976c	-0.020824157
13	0xbe451916	-0.19247851
14	0x3dc48dcc	0.09597358
15	0x3d1e6853	0.03867371
16	0xbca684dd	-0.020327026
17	0x3d4419c6	0.047876142
18	0xbe1a39ed	-0.1506116
19	0xbcb84714	-0.02249483
20	0xbc41291c	-0.011789586
21	0x3ce5c3ff	0.02804756
22	0x3d363277	0.04448172
23	0xbd89f4ae	-0.06736122
24	0x3c47df71	0.012199269
25	0xbc4fcc38	-0.012682967
26	0x3d99e48e	0.075142965
27	0xbbcca642	-0.0062454054
28	0x3c1fc15e	0.009750692
29	0x3d6f41a7	0.05841222
30	0x3e49d07b	0.19708435
31	0x3e5941d5	0.21216519
32	0xbe3d09c4	-0.18460757
33	0x3c7cf530	0.015439317
34	0xbdb8b34d	-0.09018574
35	0x3c9b12ea	0.018929917
36	0x3e25a243	0.16175179
37	0x3d6e6b07	0.058207538
38	0xbdfc361f	-0.1231501
39	0x3d50a551	0.050938908
40	0xbd93c318	-0.072149456
41	0xbdb9b41f	-0.090675585
42	0xbe6f70c9	-0.23382868
43	0x3d216382	0.03940154
44	0xbd3d6545	-0.046239156
45	0x3dbf24d3	0.093331955
46	0xbe37fd32	-0.1796768
47	0xbd633ae6	-0.05547609
48	0xbd7239ee	-0.059137277
49	0x3da13113	0.07870688
50	0x3db115e2	0.08646752
51	0xbd722ef2	-0.0591268
52	0xbe66c338	-0.22535408
53	0xbe682fa7	-0.22674428
54	0x3d22536a	0.03963033
55	0x3e0d8728	0.1382109
56	0x3d1f767a	0.038931347
57	0xbd01809b	-0.03161679
58	0xbdaf6c1b	-0.08565541
59	0xbe3f7583	-0.18697171
60	0x3e505651	0.20345427
61	0x3d3ad64e	0.045614533
62	0x3cc8f913	0.02453283
63	0x3ddd8667	0.10816651
64	0x3df7bca5	0.12096528
65	0xbc86892d	-0.016422832
66	0x3d1595be	0.03651976
67	0x3e1badf7	0.15203081
68	0xbd1d5a36	-0.03841611
69	0xbd66412a	-0.05621449
70	0x3e01e47b	0.12684815
71	0xbded1faa	-0.11578305
72	0xbd0f3d72	-0.03497071
73	0xbc54d403	-0.012990001
74	0x3d5c29ce	0.053750806
75	0xbd1ed97a	-0.03878162
76	0x3df981b4	0.12182942
77	0xbe249f73	-0.1607645
78	0xbda0636d	-0.07831464
79	0xbd49b5d2	-0.049245663
80	0x3dc24a50	0.0948683
81	0x3db7d194	0.08975521
82	0xbd1ec7cd	-0.038764764
83	0xbe15b0db	-0.14618246
84	0x3df8d47f	0.121499054
85	0xbac3719e	-0.001491118
86	0xbd9e6c49	-0.077354975
87	0x3e110e64	0.14165646
88	0x3e07e74b	0.13271825
89	0xbd530868	-0.05152169
90	0x3c09fcd3	0.008422094
91	0x3d8a0497	0.06739157
92	0xbe59ba99	-0.21262588
93	0xbda129d9	-0.0786931
94	0x3e191096	0.14947733
95	0xbcefee39	-0.029288398
96	0xbdc0f348	-0.09421402
97	0x3d820d8a	0.063502386
98	0x3d8c528f	0.06851684
99	0x3da39a22	0.07988383
100	0xbd269383	-0.040668022
101	0x3d9f231d	0.07770369
102	0xbc96bc1e	-0.018400248
103	0x3e1d2201	0.15345003
104	0xbde8dd61	-0.1137035
105	0x3dbc0751	0.09181083
106	0x3bca9485	0.0061822557
107	0xbdc35234	-0.095371634
108	0xbdf9d301	-0.12198449
109	0xbe484d6e	-0.19560787
110	0xbe31e90a	-0.17374054
111	0xbcf8329b	-0.030297568
112	0xbdaec996	-0.08534543
113	0x3d44700b	0.047958415
114	0x3d277bea	0.040889658
115	0xbccd456e	-0.02505752
116	0xbc92df7c	-0.017928831
117	0xbd216d4a	-0.039410867
118	0xbd97cbcc	-0.07411918
119	0xbe30b477	-0.17256342
120	0xbb104f4c	-0.002201992
121	0x3bf87840	0.0075826943
122	0xbcde33dd	-0.02712434
123	0x3d8a43ea	0.06751235
124	0xbda57f6f	-0.08080947
125	0x3dc48032	0.09594764
126	0xbe189fc1	-0.14904691
127	0xbd2d2a97	-0.042276945
128	0xbd4f11f0	-0.050554216
129	0xbdb08eba	-0.08620973
130	0x3ced3f28	0.02896078
131	0x3e0c85a0	0.13722849
132	0xbe4bd58d	-0.19905682
133	0x3ac8a906	0.0015309162
134	0xbcd5bfdc	-0.026092462
135	0xbb37ebec	-0.0028064204
136	0xbc0090fd	-0.007847068
137	0x3d86df79	0.06585593
138	0xbd7b9360	-0.061419845
139	0xbdc352f6	-0.09537308
140	0xbc8e7199	-0.017388152
141	0xbe4128bb	-0.18863194
142	0x3e68b9ac	0.22727078
143	0xbc7174a3	-0.014737281
144	0xbe7f658d	-0.24941082
145	0x3d2a1ab0	0.041529357
146	0xbde37ad1	-0.1110741
147	0xbd853ad2	-0.0650536
148	0xbde76566	-0.11298637
149	0xbd830ec8	-0.06399304
150	0x3dbacfdf	0.091216795
151	0x3dd859cf	0.10564005
152	0x3deca622	0.11555125
153	0x3e34ada0	0.17644358
154	0xbd8c39c6	-0.06846957
155	0xbdf322b6	-0.11871855
156	0xbd9c478d	-0.07630835
157	0x3d539bee	0.051662378
158	0x3dc9ea5e	0.09859155
159	0xbb6601a3	-0.003509619
160	0x3c6f1d26	0.014594352
161	0xbc707ec7	-0.014678664
162	0x3d6f6743	0.058448087
163	0x3d5c0689	0.05371717
164	0xbdbe81c5	-0.09302095
165	0xbdc1bc8b	-0.0945979
166	0xbd9da30b	-0.076971136
167	0xbe02aba8	-0.12760794
168	0xbd814508	-0.06311995
169	0xbdcc26e5	-0.09968356
170	0xbdffbd57	-0.124872856
171	0x3e3bc4ec	0.18336838
172	0xb987b9d1	-0.0002588765
173	0xbc996df9	-0.018729197
174	0xbd218f39	-0.03944323
175	0x3d5c2309	0.05374435
176	0xbcaef0c2	-0.021355037
177	0xbd2e6d87	-0.042584922
178	0x3d89fb93	0.06737437
179	0x3d76e5fd	0.060277928
180	0xbd5117e0	-0.05104816
181	0xbdf7a6c0	-0.12092352
182	0xbd4889a0	-0.048959374
183	0xbd1dd33a	-0.03853152
184	0x3e4afd4c	0.19823188
185	0xbdc09584	-0.09403518
186	0x3d193eca	0.037413396
187	0xbd5076bd	-0.050894488
188	0x3dc69af5	0.096975245
189	0xbdfbc395	-0.12293164
190	0x3d4089bd	0.047006357
191	0xbdce7a1c	-0.10081884
192	0xbe8ebbdd	-0.27877703
193	0xbdc5acdc	-0.09652111
194	0xbd153d6e	-0.036435537
195	0x3d4a4fca	0.0493925
196	0xbd4c8164	-0.049928084
197	0xbcd0a2f5	-0.025468329
198	0xbced0922	-0.028935019
199	0xbdc639ce	-0.09678994
200	0x3da73dfe	0.08166121
201	0x3d24e17e	0.04025411
202	0x3d130cbd	0.03590082
203	0xbdc75cd2	-0.09734501
204	0xbe50201f	-0.20324753
205	0xbe27cd62	-0.16386941
206	0x3d839ce1	0.06426407
207	0x3c3ea9e7	0.011637188
208	0xbe0af30d	-0.13569279
209	0xbd1f37a9	-0.03887144
210	0xbc7a355f	-0.015271514
211	0xbd9b692d	-0.0758842
212	0xbd00e604	-0.03146936
213	0xbdbde0d9	-0.09271402
214	0x3e5f3259	0.2179655
215	0xbc537129	-0.012905397
216	0x3d0f3677	0.03496405
217	0xbda131c7	-0.078708224
218	0x3e528b1f	0.20560883
219	0x3e5f1717	0.21786152
220	0xbd415b80	-0.0472064
221	0xbe09c95f	-0.13455723
222	0xbda6d481	-0.08146001
223	0xbe2e7724	-0.17037636
224	0x3d1d9195	0.038468916
225	0xbdea155a	-0.11429854
226	0xbe062efc	-0.1310386
227	0xbdd11bd0	-0.10210383
228	0x3d8cc1e9	0.06872923
229	0xbd0a2aed	-0.033732343
230	0x3d7617c5	0.060081262
231	0xbe0c7bd5	-0.13719113
232	0xbd9c7e89	-0.07641322
233	0xbd829298	-0.06375617
234	0x3ca9bb14	0.020719089
235	0x3d6c8669	0.05774537
236	0xbd86ecb6	-0.06588118
237	0xbe360a04	-0.17777258
238	0xbd3de89d	-0.046364415
239	0x3dde669d	0.10859416
240	0xbd419f2e	-0.047270946
241	0xbcd018f3	-0.025402522
242	0x3e162ecb	0.14666288
243	0xbce0f6b6	-0.027461391
244	0xbe041edd	-0.12902398
245	0x3badfdae	0.005309782
246	0x3db8833e	0.090094075
247	0x3d335024	0.0437776
248	0x3d12da14	0.035852507
249	0xbdfc3af1	-0.1231593
250	0x3e125492	0.14290074
251	0x3e311b91	0.17295672
252	0x3c8ef89a	0.017452527
253	0xbe659139	-0.2241868
254	0x3d584adc	0.052805766
255	0x3c0a8add	0.008455959

network_body._body_endoder.seq_layers.2.bias f4 [128]
0	0xbc429f4a	-0.011878798
1	0x394bc739	0.00019433805
2	0xbd0490d0	-0.032364666
3	0xbc8d08be	-0.017216083
4	0x3b3cdeeb	0.0028819393
5	0xbd2da338	-0.042391986
6	0xbbe59c5e	-0.007007166
7	0xbd581203	-0.052751552
8	0xbcb207f9	-0.021732317
9	0xbd5745ec	-0.052556917
10	0xbd27f06b	-0.041000765
11	0xbc708e12	-0.01468231
12	0xbd85fd5a	-0.065424636
13	0x3d1410f3	0.036148977
14	0xbd3e0e65	-0.046400446
15	0xbd454978	-0.04816577
16	0xbd05ad38	-0.032635897
17	0xbd1c9aae	-0.03823345
18	0xbd6dc447	-0.058048513
19	0xbc4b5165	-0.012409543
20	0xbbb29710	-0.005450137
21	0xbd5a2416	-0.05325707
22	0xbd1bc62d	-0.038030792
23	0x3cb2c504	0.02182246
24	0xbd07b63b	-0.033132773
25	0xbcaae1d2	-0.020859633
26	0xbd321027	-0.043472435
27	0xbc896624	-0.016772337
28	0xbd8bc47c	-0.06824586
29	0x3a76a206	0.00094082986
30	0xbcd488a5	-0.025944063
31	0xbc780a25	-0.015139137
32	0xbd2c7453	-0.042103123
33	0xbce01632	-0.027354334
34	0x3bd55f43	0.0065116
35	0xbd426956	-0.047463737
36	0xbd63b80d	-0.055595446
37	0x3ca52896	0.020160954
38	0xbd102b3c	-0.03519748
39	0x3d308ee4	0.04310502
40	0xbd34688a	-0.04404501
41	0xbd4c6651	-0.049902264
42	0xbcff560b	-0.031168958
43	0xbc94c32a	-0.018159468
44	0xbd48a495	-0.048985083
45	0xbd5d8742	-0.05408407
46	0xbc491d22	-0.012275012
47	0x3cf3e857	0.029773874
48	0xbc89d2ab	-0.016824087
49	0x3c982142	0.018570546
50	0x3c9ce0e9	0.019150214
51	0xbd5c9664	-0.05385436
52	0x3d200ef8	0.039076775
53	0xbc946de6	-0.01811881
54	0x3cba1ed6	0.022719782
55	0xbd93d94a	-0.07219179
56	0xbd73a6b7	-0.059485164
57	0x3b8df7d1	0.0043325205
58	0xbd37e9e5	-0.044900794
59	0xbc882f4f	-0.016624121
60	0xbc9168b8	-0.01775013
61	0xbd62463d	-0.055242766
62	0xbd8076f4	-0.062726885
63	0xbc650788	-0.013978846
64	0xbce699ee	-0.028149571
65	0xbc890ab6	-0.01672874
66	0xbc576340	-0.013146222
67	0xbc1f2425	-0.009713207
68	0xbd67e66e	-0.05661624
69	0xbc2791eb	-0.010227661
70	0x39172949	0.00014415862
71	0xbcff4f6b	-0.0311658
72	0xbb882290	-0.004154511
73	0xbc39cb99	-0.011340045
74	0xbd16cbbe	-0.036815397
75	0x3b432f10	0.002978269
76	0xbd0f9a1c	-0.03505908
77	0xbbb4a72b	-0.005513092
78	0xbd0a437b	-0.03375576
79	0xbd29a405	-0.041416187
80	0xbd5316df	-0.051535483
81	0xbd11fdda	-0.035642482
82	0xbd1cf8a4	-0.03832306
83	0xbc0fd637	-0.0087791
84	0xbc04bb93	-0.008101362
85	0xbd18a3cf	-0.037265595
86	0xbc9d0e90	-0.019171983
87	0x3c92d095	0.017921725
88	0x3bb7928a	0.0056021856
89	0x3c819c96	0.015821736
90	0x3b978889	0.0046244306
91	0xbd15d86f	-0.03658336
92	0x3c511d91	0.012763397
93	0xbd0d263c	-0.03446029
94	0xbc8553ff	-0.016275404
95	0xbd437dcc	-0.04772739
96	0xbcc45ddf	-0.023970542
97	0xbd034b36	-0.03205415
98	0xbd3ed31e	-0.046588056
99	0xbcc0402e	-0.023468103
100	0xbc900c86	-0.017584097
101	0xbc8a3a5d	-0.016873533
102	0xbcd4e2c0	-0.02598703
103	0xbcbade42	-0.022811059
104	0xbd409ea1	-0.04702628
105	0xbd33abe1	-0.04386509
106	0x3d188a5c	0.037241325
107	0xbc1be805	-0.009515767
108	0xbd31853c	-0.043339953
109	0x3ba62d60	0.005071327
110	0xbcd64d65	-0.026159951
111	0xbd4c21f0	-0.049837053
112	0xbd5ac3d1	-0.0534094
113	0x3b5077e5	0.0031809744
114	0xbd569edb	-0.05239759
115	0xbb081165	-0.002076232
116	0xbd52c4f5	-0.051457364
117	0xbcd7b735	-0.026332477
118	0xbcc26af3	-0.023732638
119	0xbd171cfc	-0.036892876
120	0xbd1e9777	-0.038718667
121	0xbd14de86	-0.036345027
122	0xbda6a7cf	-0.08137476
123	0xb896161f	-7.156678e-05
124	0xbd554373	-0.052066278
125	0x3cd73054	0.026268162
126	0xbd052ee8	-0.032515436
127	0x3b2154d1	0.0024617205

action_model._continuous_distribution.log_sigma f4 [1, 2]
0	0xbe838daa	-0.2569402
1	0xbe37cb0d	-0.17948551

action_model._continuous_distribution.mu.weight f4 [2, 128]
0	0x3ba34175	0.0049821683
1	0x3cdb698c	0.026783727
2	0xbcb2d8b3	-0.021831846
3	0xbc962249	-0.018326895
4	0xbbef4ac0	-0.007302612
5	0xbd0dac96	-0.03458842
6	0xbc2adda5	-0.010428821
7	0x3a8b74b4	0.0010639639
8	0xbd7276e3	-0.05919541
9	0xbd22121a	-0.039568044
10	0xbd283687	-0.041067626
11	0xbcc300ab	-0.02380403
12	0xbd10f597	-0.035390463
13	0xbdcdc387	-0.100470595
14	0xbbf593f4	-0.007494444
15	0xb99033a2	-0.0002750429
16	0xbc0fcbd8	-0.0087766275
17	0x3cc05553	0.023478186
18	0xbca47635	-0.020075897
19	0xbdd2c408	-0.10291296
20	0x3d6762f4	0.056490853
21	0x3caa9786	0.020824205
22	0x3c8a849e	0.01690894
23	0xbbea2e43	-0.007146628
24	0xbd74cf2e	-0.059767894
25	0xbceb4279	-0.02871822
26	0xbd02a796	-0.031898104
27	0xbd52c99e	-0.05146181
28	0x3c6cb9a9	0.014448562
29	0x3cba593f	0.022747634
30	0x3d4e7f5d	0.05041443
31	0xbd6b73c1	-0.05748344
32	0xbbb59774	-0.0055417363
33	0x3c1aba1b	0.009443785
34	0xbcbcff63	-0.023070997
35	0x3dcdd851	0.10051025
36	0xbd26170c	-0.040549323
37	0x3a5f1879	0.00085104216
38	0xbce8ceec	-0.02841898
39	0x3d122683	0.03568126
40	0x3bfd9f64	0.007739948
41	0xbc106202	-0.008812429
42	0xbd534fc6	-0.05158975
43	0xbbdfadf1	-0.0068261554
44	0xbc89e981	-0.016834976
45	0xbd1297ce	-0.035789303
46	0x3daa23b9	0.08307595
47	0xbd8751b6	-0.06607382
48	0xbd5574a9	-0.05211321
49	0x3d5df5cc	0.05418949
50	0xbd318312	-0.04333789
51	0xbcb0f05d	-0.02159899
52	0xbde4610e	-0.11151324
53	0xbd01f4e2	-0.03172768
54	0x3d69721b	0.056993585
55	0xbd1eebc1	-0.03879905
56	0xba24c6e7	-0.0006285742
57	0xbd45c1e8	-0.048280627
58	0x3a89c0c0	0.0010509714
59	0x3db68449	0.0891195
60	0x3ccef3b8	0.025262699
61	0x3ded42bf	0.115849964
62	0xbbbd5f4c	-0.0057791825
63	0x3ba78ba8	0.005113084
64	0x3acf9775	0.0015837984
65	0x3b77875c	0.003776989
66	0xbd3a0f56	-0.04542478
67	0x3cc4d90e	0.024029281
68	0x3a69c27a	0.0008917224
69	0xbcd4ac42	-0.025961045
70	0xbca4a7ce	-0.020099547
71	0x3d70391a	0.058648206
72	0xbb9fd580	-0.004877746
73	0x3cc02fb4	0.023460247
74	0xbdbfcdbc	-0.093654126
75	0x3d9a8d8c	0.07546529
76	0x3c04aa05	0.008097176
77	0xbd5b50ab	-0.053543728
78	0xbd08e923	-0.03342546
79	0xbd309e2e	-0.043119602
80	0xbcecd949	-0.028912203
81	0xbcba5575	-0.022745827
82	0x3d1dc850	0.03852111
83	0xbca37c4b	-0.019956728
84	0xbd78b2d4	-0.06071742
85	0x3b3119d3	0.002702345
86	0x3ccbf6d8	0.024897978
87	0xbd17b911	-0.037041727
88	0x3d9810b3	0.0742506
89	0xbd4b2d51	-0.049603764
90	0xbc301843	-0.010747972
91	0x3bf85ef2	0.0075796777
92	0xbd64deeb	-0.055876654
93	0x3c8657b5	0.016399244
94	0xbd8b5d41	-0.06804896
95	0x3b2cd696	0.002637302
96	0xbd001b0b	-0.03127579
97	0xbce5c1a5	-0.028046438
98	0x3d19fe71	0.03759617
99	0x3cd538c9	0.026028054
100	0xbd2c067e	-0.04199838
101	0xbcf8b650	-0.03036037
102	0xbd3d56af	-0.046225246
103	0x3c7e0592	0.015504258
104	0xbc9cb2d4	-0.01912824
105	0xbcd33a02	-0.025784496
106	0x3dfeed4a	0.12447603
107	0x3d962486	0.07331185
108	0x3d34366e	0.04399722
109	0xba918e4a	-0.0011105028
110	0xbd66493c	-0.056222185
111	0xbcd1719f	-0.025566874
112	0x3d5cf1d5	0.053941566
113	0xbd10e3f0	-0.03537363
114	0xbcd596b7	-0.026072843
115	0xbd4c6b13	-0.0499068
116	0x3acc11f6	0.0015569318
117	0xbbdf419f	-0.0068132426
118	0xbcfe4147	-0.031036986
119	0xbcc5ff07	-0.024169458
120	0x3cb766da	0.02238791
121	0x3d14ecf6	0.036358796
122	0x3ccb20bc	0.024795882
123	0x3d0cd6c7	0.034384515
124	0x3d09bd1c	0.033627614
125	0xbd2808af	-0.041023906
126	0x3a16acfe	0.0005747824
127	0xbdedd002	-0.1161194
128	0xbd196d33	-0.037457656
129	0xbd361a4a	-0.044458665
130	0xbcda1206	-0.026619922
131	0x3dc57de3	0.096431516
132	0x3d27c759	0.040961597
133	0x3d21622d	0.03940027
134	0x3d00384e	0.031303696
135	0xbd21095d	-0.03931557
136	0xbd1236c5	-0.035696764
137	0xbd1a5bb3	-0.037685107
138	0xbc1b7412	-0.009488123
139	0xbce969c1	-0.02849281
140	0x3d2d942c	0.042377636
141	0xbd55dd64	-0.052213088
142	0x3c907a57	0.017636461
143	0xbd401243	-0.046892416
144	0xbc67bad2	-0.0141436625
145	0x3c14bfec	0.009078961
146	0x3c1cfae9	0.009581306
147	0x3c5df490	0.013547078
148	0x3cc20db6	0.023688179
149	0xbc999da3	-0.018751925
150	0xbd0fe046	-0.035125993
151	0x3c9a2543	0.018816596
152	0x3d53e48d	0.051731635
153	0x3ca3a4bf	0.019976018
154	0x3b2d6f58	0.002646407
155	0x3cf049b0	0.029332012
156	0xbc64584e	-0.013937069
157	0xba063c8e	-0.00051207177
158	0xbd64127b	-0.055681687
159	0xbaf86e39	-0.0018953747
160	0xbc11d512	-0.008900898
161	0x39a22b46	0.0003093129
162	0xbcf3d261	-0.029763402
163	0x3d6d726e	0.057970457
164	0xbb869e60	-0.0041082352
165	0xbd5a82e2	-0.053347476
166	0xbd4b44bc	-0.049626097
167	0x3dfbf903	0.123033546
168	0x3b2cf629	0.002639184
169	0xbc423ec2	-0.011855783
170	0x3dcb8271	0.09936989
171	0xbca6f6a6	-0.020381283
172	0x3cccfd07	0.025022997
173	0x3b8ab45e	0.004232927
174	0xbcc92e91	-0.024558337
175	0x3d324c23	0.04352964
176	0xbbc3c157	-0.0059739756
177	0x3c6128ac	0.013742607
178	0x3c4bf063	0.012447449
179	0x3cb1b5d2	0.021693144
180	0x3d4394ed	0.04774945
181	0x3d13b2e6	0.036059283
182	0xbd074d25	-0.033032555
183	0xbc21c7a9	-0.009874263
184	0x3c87e982	0.016590837
185	0x3c8a0d3c	0.016852014
186	0xbc49ae28	-0.0123095885
187	0xbc47d37b	-0.012196417
188	0xbd5b84b0	-0.053593338
189	0x3e1d2675	0.15346701
190	0xbc1feff0	-0.009761795
191	0xbce1dcc9	-0.027571099
192	0xbcbef81e	-0.02331167
193	0xbd637a34	-0.055536464
194	0xbd1be27e	-0.038057797
195	0xbd382be8	-0.044963747
196	0xba920b40	-0.0011142269
197	0x3d1f65ca	0.038915433
198	0xbd0d4aac	-0.03449504
199	0x3dca3c31	0.09874762
200	0xbd31a191	-0.043366972
201	0xbda3feef	-0.08007609
202	0xbd678169	-0.0565199
203	0x3e2bc413	0.16774015
204	0x3cf66501	0.03007746
205	0xbc709ed1	-0.014686302
206	0xbc4c95ff	-0.012486934
207	0x3cfb4611	0.030673059
208	0xbd07b8e2	-0.033135302
209	0xb8a5c115	-7.9037774e-05
210	0xbd348766	-0.04407444
211	0xbd40b9a6	-0.04705205
212	0xbdaff2b8	-0.08591217
213	0xbc557c26	-0.013030088
214	0xbd0793e6	-0.03310003
215	0xbd0a07c5	-0.033698816
216	0xbe0cd455	-0.13752873
217	0xbe2779af	-0.16355012
218	0xbc3bb1c4	-0.011455957
219	0xbc115670	-0.008870706
220	0xbcd39670	-0.02582857
221	0xbcb75755	-0.02238051
222	0xbc932e1b	-0.01796632
223	0xbbb87afa	-0.0056298943
224	0xbd8955c1	-0.067058094
225	0x3ae79e4c	0.0017671078
226	0xbd4bffe3	-0.04980458
227	0x3d45d195	0.048295576
228	0x3c8059d1	0.015667828
229	0xbcfa69b0	-0.030567974
230	0xbcc61f77	-0.024184925
231	0xbc8a46c8	-0.016879454
232	0x3d2ab207	0.041673686
233	0xbcb766e4	-0.02238793
234	0x3d9c1c96	0.0762264
235	0xbc6bfb1b	-0.01440313
236	0x3c5c7ff8	0.0134582445
237	0xbdb85982	-0.09001447
238	0x3c451fdb	0.012031521
239	0x3cb7e154	0.022446312
240	0xbcaac255	-0.020844618
241	0xbd608c2a	-0.05482117
242	0xbb9c84ed	-0.004776588
243	0xbc064c8f	-0.008196964
244	0x3b0ae380	0.002119273
245	0x3b0ad879	0.0021186157
246	0xbdad6879	-0.08467192
247	0xbc96cd9b	-0.018408587
248	0xbc57f228	-0.013180293
249	0xbd42a156	-0.047517143
250	0xbc0134d4	-0.00788613
251	0xbc66e5ef	-0.014092906
252	0x3c5400cd	0.012939644
253	0xbdb3b198	-0.08774108
254	0xbcc02e08	-0.02345945
255	0xbc8d5fb9	-0.017257558

action_model._continuous_distribution.mu.bias f4 [2]
0	0xbbb2e786	-0.0054597287
1	0x3dae7892	0.08519091

exp_avg f4 [128, 6]
0	0x34a4bb43	3.068363e-07
1	0xb3c913b9	-9.3633794e-08
2	0xb62f6026	-2.6132998e-06
3	0xb50f2a79	-5.3333457e-07
4	0xb3c8e320	-9.3545395e-08
5	0xb64bd2e6	-3.0372116e-06
6	0x39291422	0.00016124596
7	0x38c75767	9.5053394e-05
8	0x3aee7e19	0.0018195539
9	0x3a538274	0.000806845
10	0x38c72639	9.496179e-05
11	0x3b39f206	0.0028373017
12	0x3a163a62	0.00057307456
13	0x3972a5d2	0.00023140691
14	0x3b2db439	0.0026505126
15	0x3b840142	0.0040284703
16	0x3972784d	0.00023123734
17	0x3bf7af28	0.007558722
18	0xb83342db	-4.273919e-05
19	0xb59c4f7a	-1.1646036e-06
20	0x371c5317	9.31767e-06
21	0x3816a9ea	3.592103e-05
22	0xb59bc09a	-1.1604454e-06
23	0xb7e4cca1	-2.7275006e-05
24	0x3a5695ea	0.0008185791
25	0x3a004607	0.00048932474
26	0x3c94ad5d	0.018149072
27	0xbb218773	-0.0024647384
28	0x3a002525	0.00048883475
29	0x3c833a01	0.01601887
30	0x39acc366	0.0003295198
31	0xb90b62de	-0.00013292904
32	0x3a010301	0.0004921407
33	0xbbaddc8d	-0.0053058327
34	0xb90b5504	-0.00013287744
35	0xbb6e7b6f	-0.003638949
36	0x313a370e	2.7097857e-09
37	0x30a2897b	1.1826126e-09
38	0x32c4e700	2.292245e-08
39	0xb1572faf	-3.1313723e-09
40	0x30a25fb1	1.1814248e-09
41	0x33222a10	3.775682e-08
42	0x3aa633e8	0.0012680264
43	0x3962a671	0.00021615044
44	0x3bd96f8b	0.0066356114
45	0x3a0d3149	0.0005386067
46	0x396272c7	0.00021595797
47	0x3c00ebd3	0.007868725
48	0x3b5f6675	0.0034088169
49	0x39a7268e	0.00031881448
50	0x3c49dd25	0.012320791
51	0x3ba1fcf5	0.004943485
52	0x39a6fb90	0.00031849416
53	0x3c0a01f2	0.008423315
54	0xbbb1d7fd	-0.005427359
55	0xba40698f	-0.0007339948
56	0xbc6decad	-0.01452176
57	0xbc57840e	-0.013154043
58	0xba403ae7	-0.0007332996
59	0xbcb9d1ce	-0.02268305
60	0x3acfb627	0.0015847132
61	0x3972326b	0.000230977
62	0x3c095b0b	0.008383523
63	0x3a80d5ab	0.0009829303
64	0x3971f2b9	0.00023073972
65	0x3bf45f8f	0.0074576805
66	0x3b3faa86	0.0029245927
67	0x39c27a4c	0.00037093682
68	0x3c1ad334	0.009449769
69	0x3bca3b96	0.006171654
70	0x39c247de	0.0003705611
71	0x3c4f0a67	0.012636757
72	0x3b13d3a9	0.002255658
73	0x39fca104	0.00048185152
74	0x3be583a5	0.0070042186
75	0x3c1e5d79	0.00966584
76	0x39fc635c	0.00048139214
77	0x3c3b8645	0.011445587
78	0xbb0b6c77	-0.0021274367
79	0xb917cceb	-0.0001447682
80	0xbba63871	-0.0050726463
81	0xbacc311a	-0.0015578598
82	0xb917a82c	-0.00014463131
83	0xbbd66d7f	-0.0065438147
84	0x3a9d7f01	0.0012016
85	0x390bd861	0.0001333668
86	0x3b8f3360	0.004370138
87	0x3a859e52	0.0010194278
88	0x390bb489	0.00013323328
89	0x3b9a84eb	0.004715552
90	0xbb1a30d1	-0.0023527632
91	0xb99ccacc	-0.00029905734
92	0xbb46dcc6	-0.0030343994
93	0xbbe6152e	-0.007021568
94	0xb99ca68c	-0.00029878726
95	0xbbe0f111	-0.006864675
96	0x3ba8ff69	0.0051574004
97	0x3a273a88	0.0006379266
98	0x3cb9b90d	0.022671247
99	0x3b99c7d2	0.00469301
100	0x3a270fca	0.0006372897
101	0x3ca74bde	0.020421918
102	0xb8349e9d	-4.3063064e-05
103	0x350ea180	5.3134136e-07
104	0xb7eebe44	-2.846041e-05
105	0xb799ad7a	-1.8319803e-05
106	0x350e813c	5.3087183e-07
107	0x37a4bc86	1.9638112e-05
108	0xbc00ebc0	-0.007868707
109	0xba3dda1c	-0.00072422787
110	0xbcdc97df	-0.026927887
111	0xbb99502a	-0.0046787458
112	0xba3da6c6	-0.0007234629
113	0xbcd473fa	-0.025934208
114	0xb726a0f3	-9.931845e-06
115	0xb7f24172	-2.8879123e-05
116	0xb9604e21	-0.0002139141
117	0x398b74b6	0.00026599102
118	0xb7f1fc3e	-2.8846898e-05
119	0xba5569ec	-0.0008141089
120	0x3a36512c	0.00069548446
121	0x383d3e57	4.511917e-05
122	0x3aa6a989	0.001271532
123	0x3a36a541	0.0006967374
124	0x383d0e87	4.507464e-05
125	0x3ac175fe	0.0014759896
126	0x39c557d5	0.00037640208
127	0x3841cba8	4.6204455e-05
128	0xb9a03908	-0.0003056007
129	0x39af162e	0.00033395126
130	0x38419e94	4.6162473e-05
131	0x3aacae56	0.0013174515
132	0x3a2573ff	0.0006311535
133	0x39593f1b	0.00020718241
134	0xbb91cd45	-0.004449519
135	0x3c403662	0.011731716
136	0x39590ff5	0.00020700677
137	0x3b81e247	0.003963742
138	0x3c037ea5	0.0080258
139	0x3a640957	0.00086989015
140	0x3ce31fdc	0.027725153
141	0x3c050059	0.008117759
142	0x3a63cefe	0.0008690207
143	0x3cf056cb	0.029338261
144	0x3a71b393	0.0009220179
145	0x38a6a8a0	7.946906e-05
146	0x3b137c88	0.0022504646
147	0x3a840ef8	0.0010075262
148	0x38a67e42	7.939014e-05
149	0x3b273597	0.002551412
150	0x398799fe	0.0002586394
151	0x37e4d428	2.7278511e-05
152	0x3a4b337c	0.0007751507
153	0x39c87d42	0.00038240297
154	0x37e499d5	2.7251352e-05
155	0x3a6b0033	0.0008964568
156	0xb1dc9910	-6.420244e-09
157	0x2e0710ae	3.071026e-11
158	0xb08d5aa6	-1.0284864e-09
159	0xb225e6ac	-9.656713e-09
160	0x2e06f19b	3.068266e-11
161	0x31245c87	2.3917737e-09
162	0x3aaf14a8	0.0013357596
163	0x397461d6	0.000233061
164	0x3c0b248d	0.008492601
165	0x3a760322	0.0009384622
166	0x397417e3	0.00023278552
167	0x3bbe1f4f	0.005802072
168	0xbc109657	-0.008824906
169	0xba82005e	-0.0009918322
170	0xbc6ddc77	-0.014517895
171	0xbcb40c51	-0.02197853
172	0xba81e1ca	-0.0009909209
173	0xbcdd54a6	-0.027017903
174	0xbc2c1b00	-0.010504484
175	0xba8e719d	-0.00108676
176	0xbd1e2ddb	-0.03861795
177	0xbbfd0b24	-0.0077222753
178	0xba8e4d40	-0.0010856763
179	0xbd24b3cd	-0.040210534
180	0x3490ba5a	2.695768e-07
181	0xb437154d	-1.7050952e-07
182	0xb58a0a64	-1.0284825e-06
183	0xb665fcd8	-3.4270834e-06
184	0xb43716b8	-1.7051468e-07
185	0xb6d45711	-6.328228e-06
186	0xbbd7a2eb	-0.0065807006
187	0xba3df02b	-0.00072455656
188	0xbc872e57	-0.016501589
189	0xbc61e5d5	-0.013787706
190	0xba3dc274	-0.00072387536
191	0xbcb757e8	-0.022380784
192	0x3a130b93	0.00056093297
193	0x38354182	4.321477e-05
194	0xbb3d3493	-0.0028870448
195	0x3b8cc31e	0.0042957207
196	0x38350b38	4.316421e-05
197	0xba673b5c	-0.0008820796
198	0x3b6a3596	0.0035737506
199	0x39a52b8a	0.00031503692
200	0x3c13ff9c	0.00903311
201	0x3b6e5541	0.0036366733
202	0x39a4fee0	0.00031470414
203	0x3c22f4a9	0.009946027
204	0xba31f04d	-0.0006787822
205	0xb94ba4ca	-0.00019420977
206	0xbc1c05b0	-0.00952284
207	0x3a842056	0.0010080438
208	0xb94b6d1f	-0.0001940024
209	0xbbd987d0	-0.0066385046
210	0x389bd6ca	7.4309835e-05
211	0x365b753d	3.2701785e-06
212	0x387ad71b	5.9804977e-05
213	0x37ea1ab3	2.7907407e-05
214	0x365b03cc	3.2635753e-06
215	0x38959263	7.13214e-05
216	0x3aace6b9	0.0013191319
217	0x3977c14d	0.00023627766
218	0x3bf08a18	0.007340681
219	0x39348fe0	0.00017219735
220	0x397781bb	0.00023604084
221	0x3bffc7c9	0.0078057987
222	0x3a438d18	0.0007459684
223	0x3917781d	0.00014445228
224	0x3ba17962	0.0049278
225	0x3821ee24	3.8607177e-05
226	0x3917511f	0.00014430702
227	0x3b9b2b1d	0.004735364
228	0xb90b9c05	-0.00013314195
229	0xb9836504	-0.0002506153
230	0xbc1c632b	-0.009545128
231	0x3b4ff2e3	0.0031730465
232	0xb98342db	-0.00025036078
233	0xbc3ce6d4	-0.011529643
234	0x3b59f108	0.0033255238
235	0x39f69c83	0.00047037387
236	0x3c19e165	0.009392117
237	0x3bcfd46b	0.006342461
238	0x39f655e6	0.00046984776
239	0x3c2df3c8	0.010617204
240	0xba2b17f9	-0.00065267045
241	0xb90bae61	-0.00013321034
242	0xbabc5060	-0.0014367215
243	0xbb2301c6	-0.0024872883
244	0xb90b9c3c	-0.00013314275
245	0xbb96b121	-0.004598752
246	0xb908e279	-0.00013054338
247	0x37d5faf4	2.5508438e-05
248	0x3a5a27d9	0.0008321978
249	0xb904c897	-0.00012663227
250	0x37d5c408	2.5482863e-05
251	0x3a3ad219	0.0007126644
252	0x3921c69e	0.00015428147
253	0x37863497	1.5998534e-05
254	0x39579c4d	0.00020562224
255	0x3a4e8c6a	0.00078791997

exp_avg_sq f4 [128, 6]
0	0x328c421a	1.6328205e-08
1	0x2f7bc68b	2.2898854e-10
2	0x34320ea8	1.6582874e-07
3	0x3277cc15	1.4423695e-08
4	0x2f7b49ff	2.2854606e-10
5	0x3481608e	2.4098375e-07
6	0x39aae735	0.0003259719
7	0x36f6440d	7.3392935e-06
8	0x3c52c896	0.012865206
9	0x39fb9416	0.00047984783
10	0x36f5c5b5	7.324585e-06
11	0x3c4fd0f1	0.012684093
12	0x387773e7	5.899733e-05
13	0x35acbf8a	1.2870744e-06
14	0x39b6e505	0.00034884378
15	0x391cd571	0.00014956832
16	0x35ac6c5c	1.2846535e-06
17	0x3b021afb	0.0019852507
18	0x364f8c3b	3.0927029e-06
19	0x31cc8160	5.9518896e-09
20	0x339d0f62	7.31368e-08
21	0x35fe6a87	1.8955478e-06
22	0x31cc28ea	5.941833e-09
23	0x370f0a4b	8.525861e-06
24	0x3c162390	0.009163752
25	0x3837998a	4.3773594e-05
26	0x3d8f1a80	0.06987476
27	0x3c3eb385	0.0116394805
28	0x38373ba6	4.3686152e-05
29	0x3d91522a	0.0709575
30	0x3b39491c	0.0028272336
31	0x377aca81	1.494831e-05
32	0x3c81ba3f	0.01583588
33	0x3b52cf87	0.0032167153
34	0x377a4c19	1.4918879e-05
35	0x3cbfdd90	0.023421079
36	0x2b866424	9.549067e-13
37	0x2902d79b	2.9052807e-14
38	0x2c00b013	1.8287635e-12
39	0x2bb195f1	1.2618224e-12
40	0x29029c3b	2.9001307e-14
41	0x2de4e988	2.6024308e-11
42	0x3aed800f	0.001811983
43	0x370b181f	8.290662e-06
44	0x3c50547d	0.012715456
45	0x3b15440a	0.002277615
46	0x370ad119	8.274125e-06
47	0x3c589ff0	0.013221726
48	0x3c038712	0.008027809
49	0x3824c517	3.92842e-05
50	0x3d59941c	0.053119764
51	0x3c142dae	0.009044094
52	0x38247102	3.9205894e-05
53	0x3d802d6f	0.06258666
54	0x3af3fa05	0.001861394
55	0x372cadc5	1.0292458e-05
56	0x3c5ad282	0.013355853
57	0x3b29dc86	0.0025918796
58	0x372c55e7	1.0272e-05
59	0x3c87b5b9	0.016566144
60	0x3aae0c17	0.001327875
61	0x36c2d751	5.8067167e-06
62	0x3c0a4aa7	0.00844065
63	0x3ac8ee1c	0.0015329751
64	0x36c27423	5.7951706e-06
65	0x3c193015	0.009349843
66	0x3a0dabe3	0.0005404336
67	0x36363aec	2.715441e-06
68	0x3b4b7ce1	0.0031049775
69	0x3a3139c2	0.0006760621
70	0x3635de2f	2.710043e-06
71	0x3b88fd76	0.0041806055
72	0x3bb347b3	0.0054711937
73	0x37ecf886	2.824912e-05
74	0x3d1f4286	0.0388818
75	0x3bd43904	0.0064765234
76	0x37ec7fb0	2.8192851e-05
77	0x3d39fd3c	0.04540752
78	0x3a014124	0.0004930666
79	0x360fd645	2.1433382e-06
80	0x3b3af60e	0.0028528008
81	0x3a16e112	0.0005755584
82	0x360f8d41	2.139088e-06
83	0x3b5d1e3e	0.003373995
84	0x394bbd33	0.00019430071
85	0x3583340b	9.775407e-07
86	0x3aca8556	0.0015451114
87	0x39a80319	0.00032045765
88	0x3582f0e9	9.755869e-07
89	0x3abf536b	0.0014597004
90	0x3b61aedb	0.0034436497
91	0x37567e56	1.2784809e-05
92	0x3c971143	0.018440848
93	0x3b989d8d	0.0046574534
94	0x375610ce	1.2759307e-05
95	0x3ca22e05	0.019797334
96	0x3bbde2e4	0.0057948697
97	0x37eb93fb	2.8083092e-05
98	0x3d279c15	0.040920336
99	0x3bde0a39	0.006776121
100	0x37eb1b85	2.8026998e-05
101	0x3d39c629	0.045354996
102	0x36afd122	5.2397527e-06
103	0x324f917b	1.2082064e-08
104	0x37664a4c	1.3726367e-05
105	0x36e20f2f	6.7370925e-06
106	0x324f2776	1.2057958e-08
107	0x375df730	1.3230179e-05
108	0x3bb36bfe	0.00547552
109	0x37ddf61e	2.645986e-05
110	0x3d2c2946	0.04203155
111	0x3beabc45	0.0071635568
112	0x37dd84a8	2.6407026e-05
113	0x3d2ef2e3	0.042712104
114	0x3848556a	4.7763264e-05
115	0x357f3693	9.507432e-07
116	0x3a845ef2	0.0010099097
117	0x38309b21	4.2106145e-05
118	0x357eb60b	9.488728e-07
119	0x3ac171b3	0.0014758616
120	0x3982fa29	0.00024981916
121	0x3555e80a	7.9686345e-07
122	0x39ffa052	0.00048756838
123	0x38bf7e16	9.131075e-05
124	0x35557b73	7.9528326e-07
125	0x3a8d5d4b	0.001078525
126	0x3956d8f1	0.00020489447
127	0x35848930	9.874693e-07
128	0x39d6793b	0.00040907584
129	0x38955d4a	7.12225e-05
130	0x358447c0	9.855648e-07
131	0x3abf13c0	0.001457803
132	0x3bbbc3b2	0.005730116
133	0x37dbb1e2	2.6189668e-05
134	0x3d0ca1b3	0.034333896
135	0x3beb0398	0.0071720593
136	0x37db41dc	2.6137503e-05
137	0x3d2927a6	0.041297577
138	0x3ba2ec73	0.0049720346
139	0x37cc4044	2.4348621e-05
140	0x3d224d62	0.03962458
141	0x3bd24ef2	0.0064181024
142	0x37cbd7a8	2.4299909e-05
143	0x3d22067f	0.039556976
144	0x399c1703	0.00029771784
145	0x359336c2	1.096829e-06
146	0x3a4c42a7	0.00077919144
147	0x390b4c62	0.00013284528
148	0x3592ec5f	1.0946641e-06
149	0x3ac90dc8	0.001533919
150	0x37c1eeb7	2.3118553e-05
151	0x3368f2bd	5.423748e-08
152	0x3880f64a	6.1493905e-05
153	0x37dde05c	2.6449728e-05
154	0x33687b9e	5.412914e-08
155	0x38831517	6.250495e-05
156	0x2cc535d2	5.605052e-12
157	0x28397409	1.0294724e-14
158	0x2c6da520	3.3771388e-12
159	0x2bb4525f	1.2812632e-12
160	0x2839292d	1.02784916e-14
161	0x2d0f1be8	8.134805e-12
162	0x3abae259	0.0014258131
163	0x36ea8232	6.9889e-06
164	0x3c264415	0.010148068
165	0x3afabfdd	0.0019130666
166	0x36ea0a90	6.974973e-06
167	0x3c37d4ef	0.011220201
168	0x3c2ecc73	0.010668862
169	0x38766b32	5.8750804e-05
170	0x3dab3883	0.08360388
171	0x3c66dda0	0.014090925
172	0x3875ed42	5.8633515e-05
173	0x3dc20eb4	0.09475461
174	0x3c6c3036	0.014415791
175	0x388ae137	6.622302e-05
176	0x3dddd781	0.1083212
177	0x3c9770b8	0.018486366
178	0x388a9a33	6.6090746e-05
179	0x3ddf25d6	0.108958885
180	0x2fce38f1	3.751164e-10
181	0x2d64970c	1.2993839e-11
182	0x2fe9c2c2	4.2520837e-10
183	0x3216430a	8.746392e-09
184	0x2d6424c7	1.2968466e-11
185	0x3283e744	1.5355575e-08
186	0x3b377b01	0.00279969
187	0x370d8803	8.435923e-06
188	0x3c256950	0.010095909
189	0x3b5dd34e	0.0033847871
190	0x370d401a	8.41918e-06
191	0x3c51c9fe	0.012804506
192	0x3ae0032a	0.0017090787
193	0x3711e264	8.695384e-06
194	0x3c3c9a8e	0.011511458
195	0x3b060493	0.0020449504
196	0x3711981d	8.67809e-06
197	0x3c63db2a	0.013907233
198	0x3a2b51b0	0.0006535305
199	0x366f1761	3.5627384e-06
200	0x3ba3bfd0	0.004997231
201	0x3a739375	0.0009291687
202	0x366e9df9	3.5556716e-06
203	0x3bbae084	0.005703034
204	0x3b5ca8cd	0.003366995
205	0x37867ead	1.6033033e-05
206	0x3cbcbf9f	0.02304059
207	0x3b8c66b7	0.0042847055
208	0x37863a04	1.600106e-05
209	0x3ccfa409	0.025346773
210	0x350ac085	5.168916e-07
211	0x324d0d34	1.19355725e-08
212	0x36c3cbbb	5.83517e-06
213	0x35583300	8.0540485e-07
214	0x324caab1	1.1913174e-08
215	0x37747d8b	1.4572764e-05
216	0x3998a0fa	0.00029111636
217	0x36922ff0	4.3567197e-06
218	0x3be16f85	0.0068797492
219	0x39c5caf8	0.00037725992
220	0x3691e530	4.3480177e-06
221	0x3bf18642	0.007370741
222	0x39849f8b	0.0002529587
223	0x369bff86	4.649107e-06
224	0x3bf7497c	0.007546602
225	0x3994844b	0.00028327326
226	0x369bafca	4.6398245e-06
227	0x3c02fcc5	0.007994835
228	0x3c085231	0.008320377
229	0x3827ba1c	3.998923e-05
230	0x3d762969	0.060098086
231	0x3c25004e	0.010070873
232	0x3827645a	3.9909362e-05
233	0x3d843ed7	0.06457298
234	0x3b40cfd4	0.002942075
235	0x377428d5	1.455304e-05
236	0x3caded47	0.021231307
237	0x3b79e9e9	0.0038133806
238	0x3773ac5c	1.4524059e-05
239	0x3cc2d55f	0.023783384
240	0x39f389bc	0.00046451192
241	0x357ec305	9.4906164e-07
242	0x39fc6997	0.00048143856
243	0x3a17ea5c	0.0005795115
244	0x357e42fa	9.471984e-07
245	0x3a94ffd5	0.0011367748
246	0x38f877d9	0.00011847885
247	0x36486b93	2.9864939e-06
248	0x3b93c6f9	0.0045098034
249	0x38dc5b52	0.00010507427
250	0x3648055d	2.9805444e-06
251	0x3baaf0ea	0.0052167075
252	0x38cc5718	9.7437005e-05
253	0x345fe1ea	2.085068e-07
254	0x3889c074	6.568516e-05
255	0x380644fe	3.2012344e-05

exp_avg f4 [128]
0	0xb448e320	-1.8709079e-07
1	0x3947263a	0.0001899236
2	0x39f2784d	0.00046247468
3	0xb61bc09a	-2.3208909e-06
4	0x3a802527	0.0009776697
5	0xb98b5504	-0.00026575488
6	0x31225fb1	2.3628497e-09
7	0x39e272c7	0.00043191595
8	0x3a26fb8e	0.0006369882
9	0xbac03ae7	-0.0014665992
10	0x39f1f2b5	0.00046147933
11	0x3a4247de	0.0007411222
12	0x3a7c6358	0.00096278405
13	0xb997a82f	-0.0002892627
14	0x398bb489	0.00026646655
15	0xba1ca685	-0.0005975741
16	0x3aa70fca	0.0012745794
17	0x358e8143	1.0617445e-06
18	0xbabda6bb	-0.0014469245
19	0xb871fc42	-5.769381e-05
20	0x38bd0e88	9.014929e-05
21	0x38c19e91	9.2324924e-05
22	0x39d90fe9	0.0004140132
23	0x3ae3cefe	0.0017380414
24	0x39267e42	0.00015878028
25	0x386499d5	5.4502703e-05
26	0x2e86f17b	6.13651e-11
27	0x39f417de	0.0004655709
28	0xbb01e1cc	-0.0019818423
29	0xbb0e4d40	-0.0021713525
30	0xb4b716bb	-3.4102945e-07
31	0xbabdc277	-0.0014477511
32	0x38b50b50	8.63286e-05
33	0x3a24fee0	0.0006294083
34	0xb9cb6d27	-0.00038800502
35	0x36db03c7	6.5271483e-06
36	0x39f781bb	0.00047208168
37	0x3997511f	0.00028861404
38	0xba0342ce	-0.0005007208
39	0x3a7655f1	0.00093969615
40	0xb98b9c3c	-0.0002662855
41	0x3855c405	5.0965715e-05
42	0x380614b3	3.1967367e-05
43	0x377fa4fd	1.5237599e-05
44	0xb8b0d8cb	-8.432715e-05
45	0xb9f4200a	-0.00046563178
46	0x39e2c075	0.0004324947
47	0x394cd5d6	0.00019534616
48	0xbaa5614d	-0.0012617499
49	0xb6d54d1d	-6.356872e-06
50	0xb8b36c28	-8.555531e-05
51	0x39cf57f5	0.0003954765
52	0x3a8a116b	0.0010533755
53	0x3a5662e2	0.0008178187
54	0xb629eaf0	-2.5319714e-06
55	0x38d9f932	0.000103937826
56	0xb926347c	-0.00015850546
57	0xba62e320	-0.000865506
58	0xb9517883	-0.00019976687
59	0xb68053d5	-3.8244566e-06
60	0xba70b93a	-0.00091828743
61	0xb76d4ea7	-1.41446135e-05
62	0xba00653e	-0.0004897899
63	0x35b03e4b	1.3131151e-06
64	0xba6da571	-0.0009065485
65	0xb679557f	-3.7153657e-06
66	0xba7101d5	-0.00091936934
67	0x35457cca	7.356981e-07
68	0x387f53e9	6.0874885e-05
69	0xba8ee7fd	-0.0010902878
70	0xb45477b6	-1.9787589e-07
71	0x3882b30e	6.2322346e-05
72	0xba1903f3	-0.00058370753
73	0x350b4d82	5.1894324e-07
74	0x3a3b15c0	0.0007136725
75	0x3a82d00e	0.0009980218
76	0xb9b5cc82	-0.0003467538
77	0x3a8b5d4d	0.0010632664
78	0xba9f8aa3	-0.0012172054
79	0xbab06dcc	-0.0013460456
80	0x39ab7f09	0.0003271031
81	0xb73b1ebc	-1.11532245e-05
82	0x395a1981	0.00020799601
83	0x37c32825	2.3264505e-05
84	0x3097055f	1.0988223e-09
85	0x39e3e92b	0.00043470538
86	0x376799e2	1.3804502e-05
87	0xb4c43b13	-3.6550827e-07
88	0xbae738e0	-0.0017640851
89	0x3acf4f6b	0.0015816515
90	0xba98d1d8	-0.0011659218
91	0x39ec6d8e	0.00045095052
92	0xb0f65074	-1.7921722e-09
93	0xb80be3c9	-3.3352324e-05
94	0x3aab06ad	0.0013048254
95	0x3956d9e9	0.00020489808
96	0xbab81d2f	-0.0014046783
97	0xb97be3dd	-0.00024022111
98	0x35581add	8.050536e-07
99	0xba1988b1	-0.00058568554
100	0xba589d80	-0.00082632154
101	0xba87bff2	-0.0010356887
102	0xba773fb7	-0.00094317965
103	0x36152eb7	2.2229922e-06
104	0x37045514	7.887622e-06
105	0x378b0211	1.6571053e-05
106	0x3aacb67a	0.0013176941
107	0xb9b3fdcf	-0.00034330643
108	0x3979d017	0.0002382401
109	0x39dd5511	0.00042215784
110	0xb9128ea4	-0.00013976783
111	0xb94a96ed	-0.00019320445
112	0xb9b471df	-0.00034417116
113	0x377f42c9	1.5214734e-05
114	0xba38e3b0	-0.0007052971
115	0xbacb6490	-0.0015517641
116	0x3ac6f96e	0.0015180537
117	0xb80efb60	-3.408955e-05
118	0x37b25e49	2.1263158e-05
119	0xb9edc48b	-0.00045350599
120	0xba7afc5d	-0.0009574348
121	0xb8d15aaf	-9.982788e-05
122	0x3a2dbc33	0.000662747
123	0x3aae7a08	0.0013311515
124	0xbb06ff6b	-0.0020599018
125	0x39044215	0.00012613118
126	0xb8ad5752	-8.2655475e-05
127	0xb69a3917	-4.596204e-06

exp_avg_sq f4 [128]
0	0x307b49ff	9.1418423e-10
1	0x37f5c5b3	2.9298337e-05
2	0x36ac6c5c	5.138614e-06
3	0x32cc28ea	2.3767331e-08
4	0x39373ba6	0.00017474461
5	0x387a4c19	5.9675516e-05
6	0x2a029c3c	1.1600524e-13
7	0x380ad119	3.30965e-05
8	0x39247101	0.00015682356
9	0x382c55e7	4.1088e-05
10	0x37c27423	2.3180683e-05
11	0x3735de2f	1.0840172e-05
12	0x38ec7fb0	0.000112771406
13	0x370f8d42	8.556353e-06
14	0x3682f0e9	3.9023475e-06
15	0x385610cf	5.103723e-05
16	0x38eb1b86	0.000112108
17	0x334f2776	4.8231833e-08
18	0x38dd84a7	0.000105628096
19	0x367eb60b	3.7954912e-06
20	0x36557b73	3.181133e-06
21	0x368447c0	3.9422594e-06
22	0x38db41dc	0.00010455001
23	0x38cbd7a8	9.7199634e-05
24	0x3692ec5f	4.3786563e-06
25	0x34687b9f	2.1651657e-07
26	0x2939292c	4.1113963e-14
27	0x37ea0a8f	2.789989e-05
28	0x3975ed44	0.00023453409
29	0x398a9a33	0.00026436299
30	0x2e6424c5	5.1873856e-11
31	0x380d401a	3.367672e-05
32	0x3811981e	3.4712364e-05
33	0x376e9dfa	1.4222687e-05
34	0x38863a04	6.400424e-05
35	0x334caab1	4.7652694e-08
36	0x3791e52f	1.7392069e-05
37	0x379bafcb	1.85593e-05
38	0x3927645a	0.00015963745
39	0x3873ac5c	5.8096237e-05
40	0x367e42fc	3.788794e-06
41	0x3748055d	1.1922178e-05
42	0x355f770f	8.3247227e-07
43	0x364685e1	2.9582227e-06
44	0x37083c60	8.120289e-06
45	0x3808ca50	3.2613345e-05
46	0x3767ba4d	1.38120495e-05
47	0x38006e1f	3.0620136e-05
48	0x38c16365	9.221471e-05
49	0x342d7ca0	1.6157219e-07
50	0x38268420	3.9700535e-05
51	0x37ce5485	2.4596471e-05
52	0x38a8512f	8.025986e-05
53	0x393c4eab	0.00017958383
54	0x31c08f00	5.6041927e-09
55	0x36c6391e	5.907509e-06
56	0x37988cb4	1.8185332e-05
57	0x39b162bb	0.0003383363
58	0x37428226	1.1593604e-05
59	0x3599ff0b	1.1473616e-06
60	0x3912eb5e	0.00014011326
61	0x36e20d47	6.7368705e-06
62	0x36c39b9c	5.829568e-06
63	0x312f313b	2.5493836e-09
64	0x3a01f158	0.00049569225
65	0x328cc6bd	1.638852e-08
66	0x392e2d26	0.00016610752
67	0x326294ab	1.31887345e-08
68	0x37920877	1.7408498e-05
69	0x37b6b231	2.1779068e-05
70	0x2d2fe281	9.997892e-12
71	0x35cef622	1.541983e-06
72	0x37199a4d	9.155437e-06
73	0x31fe76bd	7.405872e-09
74	0x37b0f114	2.1093096e-05
75	0x37f6a7c9	2.9403616e-05
76	0x3737a0fe	1.0945134e-05
77	0x38be9d6e	9.0892296e-05
78	0x38449937	4.6872734e-05
79	0x38d37e59	0.00010084798
80	0x370ba23d	8.32282e-06
81	0x303bba96	6.829536e-10
82	0x38274ef9	3.988945e-05
83	0x35afb023	1.3089779e-06
84	0x26d6e672	1.4911695e-15
85	0x371c6b69	9.323333e-06
86	0x3508dc84	5.098484e-07
87	0x34afe56e	3.2763222e-07
88	0x383d4380	4.5123976e-05
89	0x380b995b	3.3283006e-05
90	0x380679ba	3.2061456e-05
91	0x378c7bfd	1.6747037e-05
92	0x288f05db	1.5878729e-14
93	0x369b30c7	4.6250384e-06
94	0x37547c3b	1.2665109e-05
95	0x377b94e8	1.4995436e-05
96	0x38a04613	7.642447e-05
97	0x3775cf21	1.4651364e-05
98	0x2f48052c	1.8191731e-10
99	0x37964224	1.7912193e-05
100	0x384a3e9e	4.821887e-05
101	0x38a0fe38	7.6767465e-05
102	0x384035d3	4.5826495e-05
103	0x2f90fab9	2.6371597e-10
104	0x34fc750d	4.7023823e-07
105	0x31660666	3.3473042e-09
106	0x389294d3	6.989543e-05
107	0x375adf84	1.3045854e-05
108	0x36f79ce2	7.379437e-06
109	0x37c19024	2.3074514e-05
110	0x36a53cee	4.9244763e-06
111	0x37a520ae	1.968475e-05
112	0x375c6e1d	1.313866e-05
113	0x335fded1	5.2123884e-08
114	0x3885c643	6.378863e-05
115	0x38a208e4	7.726418e-05
116	0x38864419	6.402302e-05
117	0x35de95af	1.6583853e-06
118	0x3763e4d7	1.3583535e-05
119	0x37ef2007	2.8505934e-05
120	0x38335da4	4.2764135e-05
121	0x39742697	0.00023284029
122	0x3754d41c	1.268557e-05
123	0x394b44eb	0.00019385263
124	0x397bad70	0.00024001836
125	0x3658b1e0	3.2290045e-06
126	0x3725d1f2	9.883648e-06
127	0x32e53941	2.6685145e-08
