MLAgentsProject/results/MoveToGoal3/MoveToGoal/MoveToGoal-11961.onnx (onnx, 72461 bytes, 7 tensors)

action_model._continuous_distribution.log_sigma f4 [1, 2]
00000000: 6d1b 633b 4e8b ec3a
0.0034653798 0.0018046887

action_model._continuous_distribution.mu.bias f4 [2]
00000000: ea11 56b8 eacc d538
-5.103826e-05 0.000101948

action_model._continuous_distribution.mu.weight f4 [2, 128]
00000000: e177 373c 2982 00ba f2ad 81bb 266b 76ba
00000010: 3290 843b 0a21 713b a2ca 26bb 7d92 863c
00000020: 64d3 023d bb36 5c3d fdef 163c def7 a8bc
00000030: 4624 99bb 7d98 a1bb 8338 4dbc 5797 1f3d
00000040: 7db6 3abb 5dc7 033c 4167 fdbb f948 293c
00000050: 4967 92bc 6918 ad38 4226 8b3c 6017 5bbb
00000060: 8edd 2ebb f765 bebc 2bc0 07ba 620c 3c3b
00000070: 03b0 81ba 848b 60bc fbda 30ba 8bc0 7bbb
00000080: 3d51 9c3c f445 09bd 17de b83b 300e a63c
00000090: 48b5 153c 7e92 c63c 7a52 033d bd7d 04bc
000000a0: c1d1 b33b 9ce8 6b3c c36c 243c f326 4abb
000000b0: e214 f23c 2c0d c3bb f31a 563c 00f8 e63b
000000c0: 8761 02bd 4553 3d3b e66e 4b3c 5edf 0c3c
000000d0: cb06 03bd 1a35 e9bc 0c5c 39ba 4b7d 0f3d
000000e0: 9aac 2cbc 856a 4e3c bdbe a33c 78dc 543c
000000f0: 4dd8 e73b 75e6 373c 5511 5dbc af80 793b
00000100: 817e d23c 91bd 803b dbb2 653c 1b03 17bc
00000110: 19be 9fbb a200 f0b9 9d09 d73c b9e1 f33b
00000120: ef34 04bd d31e 373c 8edd a1bc 6ed6 5f3c
00000130: 934f 58bb e6e5 203b 4582 8dbc 1988 a5ba
00000140: 5069 2bbc a796 66bc 31db c4bb d0b6 20bc
00000150: 3f5c 07bc 4988 23bc e707 24bc 1e85 733c
00000160: 7503 f53c f73a 6e3c e9bb 88bc 04b4 4e3c
00000170: 8e8f 693d 0393 51ba 6f4b 22bc 4d2c 0e3c
00000180: 7604 453c 1193 913c 79b0 25bd 2b68 75b9
00000190: 5232 6a3c 0005 b13c ae9d f43b adf9 b23b
000001a0: e550 eebb b3be c33c e66e 81bb d62a 853c
000001b0: dd9b c63a 8237 343c 26e8 473d 5a82 f3ba
000001c0: 7920 82bb 1b98 d8bc 294a 023d 63d0 81bc
000001d0: ccb4 f3bc a928 e6bb 2cf8 cfbc 0d96 40bc
000001e0: a9aa 6abb 0947 1e3d be30 50bc ec15 c23c
000001f0: 1122 2b3d 0c17 44bc fe9c 5eba 05ef 163d
00000200: 8b13 033d b6c6 7b3c 3054 54bc 0c91 9bbc
00000210: 49ec 30bc 5330 303c 2c91 d3bc c0c7 09bb
00000220: 7eac 6cbc 9b3a b6bc 7a8e 2abb ff90 47bc
00000230: 1a7a a63c cac9 7b3c 9eac adbc ab17 043c
00000240: 5e87 17bd 84ba 1fbc 00b4 d43b bd09 163b
00000250: d117 89bc a994 d6ba cfe3 983c 802f 13bc
00000260: ec54 77bc 36b3 2c3c ec06 ac39 bfd4 3abc
00000270: 4e9c 32bc 92bf c93b b9f5 0f3a 944a 043d
00000280: a542 44ba 461d 01bc 1ac2 353b a100 393c
00000290: 90ee c9bc 119a 323c e0b7 8f3c 9605 7cbc
000002a0: 43a4 ffbb 1666 bcbb bd97 703b f181 95bc
000002b0: 56dc 933c c376 f3bc 579e f23c 4835 893b
000002c0: d986 873b 672e 90bc 7804 973c 4018 02bc
000002d0: c123 5f3c 8ed7 e83c 914e ebb9 94bf 29bd
000002e0: d8d4 063d b580 fe3c 86a8 8c3c 5c58 0f3c
000002f0: 8260 8a3c 8f48 de3b 4c09 ce3c 3a74 d3bc
00000300: 28c1 88bb 0582 6b39 31a1 eebc 140e 5bbc
00000310: 8dc8 25bd c11d 7dbb da34 dabc b732 063d
00000320: 4eca 0e3b b291 c9bb 3755 b6bc 2885 413d
00000330: 2793 ad3c eb55 743c 07d7 29bc 49a5 cd3c
00000340: 1262 dfbc 4e3a 04bd 57f2 873c 4444 533c
00000350: 92f7 da3c a2eb 87bc 75b8 59bc 69a0 c7bc
00000360: e266 123d d02b d83b abd1 0fbc eaaf aeb9
00000370: ca83 22bd 07b3 82bc 7922 88ba f960 873c
00000380: b322 513c 197a eabc c256 563c a510 e0bc
00000390: 047b 9c3b 4b9f 07bb 3a94 63bc 9784 813a
000003a0: 0332 95bc 2493 1bbc 9363 b9bb 0701 113c
000003b0: 49ac 2dbb 48fc 183b c860 e83a 84a7 94b9
000003c0: 9ace 6dbc 0158 69bc d8c8 3bbc cfa4 363b
000003d0: c606 653a ea5a 07bd 58c5 0f3b a251 78bc
000003e0: 5895 f23a 34d4 873c 44e4 ef3b 8028 843c
000003f0: d039 7d3c f958 d53a 9d32 1ebc 597d 803c
0.011198015 -0.0004902208 -0.0039575035 -0.00094001216 0.0040455097 0.0036793374 -0.0025450368 0.016427273
0.03193988 0.053763133 0.009212491 -0.020626005 -0.0046735136 -0.004931508 -0.0125256805 0.03896269
-0.002849012 0.008043137 -0.007733256 0.010332339 -0.017871516 8.2538296e-05 0.016986016 -0.003343068
-0.002668235 -0.02324198 -0.00051784766 0.0028693904 -0.0009894375 -0.013705138 -0.0006746498 -0.0038414325
0.019081706 -0.033513978 0.0056417095 0.020270437 0.009137459 0.024239775 0.032061078 -0.008086619
0.005487651 0.01439872 0.010035696 -0.003084597 0.029550973 -0.005952498 0.013067949 0.007048607
-0.03183129 0.0028888744 0.012416577 0.008598177 -0.0319889 -0.028467704 -0.0007070906 0.035031598
-0.010539198 0.012598638 0.019988412 0.012992017 0.0070753456 0.011224379 -0.013492902 0.0038071086
0.025695087 0.003928848 0.014019693 -0.009217049 -0.0048749563 -0.0004577684 0.026249701 0.0074426797
-0.032277044 0.011176783 -0.019758966 0.013661964 -0.0033006414 0.0024551093 -0.017274031 -0.0012629061
-0.01046212 -0.014074004 -0.006007575 -0.009809211 -0.008261739 -0.009981223 -0.01001165 0.014863281
0.029908875 0.0145404255 -0.016691165 0.012616161 0.05702167 -0.0007994624 -0.00990568 0.008677554
0.012024989 0.017770322 -0.0404515 -0.00023403826 0.014294224 0.02160883 0.007465086 0.0054618926
-0.007272827 0.023894643 -0.0039499877 0.016255777 0.0015152652 0.010999562 0.04880538 -0.0018578277
-0.003971156 -0.026439717 0.031809006 -0.015846437 -0.029749297 -0.00702389 -0.025386892 -0.011754525
-0.0035807288 0.038641963 -0.012706934 0.023692094 0.041780535 -0.011968385 -0.00084920216 0.03684904
0.03200106 0.015367201 -0.012959525 -0.018990062 -0.010798522 0.010753709 -0.02582606 -0.0021023601
-0.014445422 -0.022244742 -0.0026024864 -0.012180566 0.020321894 0.0153679345 -0.021200474 0.0080622835
-0.03699433 -0.009749059 0.0064911842 0.0022893988 -0.01673499 -0.0016371208 0.018663315 -0.008983493
-0.015095931 0.010540774 0.00032811554 -0.011403262 -0.010901524 0.00615687 0.00054916326 0.032297686
-0.00074867374 -0.0078805145 0.0027734102 0.011291654 -0.024649888 0.01090099 0.017543733 -0.015382191
-0.007801564 -0.0057494743 0.0036711537 -0.018250437 0.0180494 -0.029719716 0.029616518 0.00418726
0.004135948 -0.017600251 0.018434748 -0.007940352 0.013619364 0.028423097 -0.0004488123 -0.04144247
0.032917827 0.031067232 0.017170202 0.008749094 0.016891722 0.006783552 0.025150917 -0.025812257
-0.0041734166 0.00022459782 -0.029129596 -0.013370056 -0.040474463 -0.003862247 -0.02663653 0.03276321
0.0021788063 -0.0061514014 -0.02225743 0.04724613 0.021188332 0.014913063 -0.010366208 0.025103228
-0.027268443 -0.032282166 0.016595049 0.012894694 0.026729379 -0.01659185 -0.013288607 -0.024368482
0.035742648 0.0065970197 -0.008778016 -0.00033318932 -0.039676465 -0.015954508 -0.001038625 0.016525732
0.012764621 -0.028622674 0.013082208 -0.027351687 0.004775407 -0.0020694311 -0.01389032 0.0009881434
-0.018212324 -0.00949553 -0.005657622 0.008850343 -0.0026500395 0.002334373 0.0017729038 -0.0002835357
-0.01451459 -0.014242173 -0.011461459 0.002786923 0.0008736666 -0.033045687 0.0021937694 -0.0151561815
0.0018507643 0.016580679 0.0073209126 0.016132593 0.015455678 0.0016277126 -0.009655622 0.01568477

network_body._body_endoder.seq_layers.0.bias f4 [128]
00000000: 4a6d d1b8 1c89 4839 1f5c 0eba cbec 4cbb
00000010: dbfa 40bb d672 8239 8195 9bba 5ca4 ea39
00000020: 6eb6 2e38 3524 473a 21b5 43b9 b498 37bb
00000030: 0df7 7f39 7755 b5b7 4411 70ba 9143 c83a
00000040: 0651 293a dafc eb39 389f 14ba a4cb 90ba
00000050: 2c05 1a3a 02fa 00bb 4dbc 0eba 5e2b 5d3b
00000060: 8bc4 edb9 a8b7 28ba 145a 2fb9 6043 0bbb
00000070: 063e 5dba 4db6 adb9 a113 c2b9 011d 10bb
00000080: d9e0 7c3b f56b d5b9 7007 9aba 5222 0f3a
00000090: 64f1 b9ba 1352 c83a 2c98 e0b9 419b b938
000000a0: 9ea6 52b8 43ba 33b8 394a 4e38 aef6 de39
000000b0: e8c1 33ba cb41 90b9 9cc0 3bb9 cb3f aeb9
000000c0: 49d6 68ba db64 ba37 5abf 37bb f690 b03a
000000d0: e295 d7ba 39a1 27ba a62a 0bba 8dc6 d0b7
000000e0: 1a7b 1cbb 0327 3fbb 5143 073a 0077 bcba
000000f0: 8c21 b439 a3e2 193a e66e b5ba e6f9 4f3a
00000100: fe69 ff38 4cad b5b8 9bb4 d538 a318 8b3b
00000110: 3ee9 3cb9 64a4 dbba 41f7 beba d461 093a
00000120: f6b5 4fb9 0114 e2ba 95ab 19b9 2e3c baba
00000130: 1b4c c5ba b30b 58ba 774b 12b9 f744 1bbb
00000140: a71b 7a3a b371 8aba b56f 68b8 2fb3 abb9
00000150: 1742 263a 805e 76ba 087c 07bb 64f7 153b
00000160: 0438 39ba 4d4f 2bba fa57 163a f511 2ebb
00000170: a798 a7b8 1136 2339 d679 e8b9 8d55 56b9
00000180: 0eda 2cb9 807d c2ba bbc0 ce3a 2aee 0abb
00000190: 9341 2d3b f484 19bb 7535 a03a 39a5 5f3a
000001a0: 0f21 8033 8240 973b c165 a1b9 163e 5fba
000001b0: 2a3f 88ba 9c4b 56b9 ecc8 d8ba 6224 8eba
000001c0: a368 a63a 2651 843a 399e ed3a 8106 1a39
000001d0: 96a0 633b edd6 143a f0b2 f537 5671 e2ba
000001e0: 1476 c538 541d 18ba b9a7 923a 04a3 1dba
000001f0: 6688 6ab9 1066 953a 0d8b 0c3a 5b17 45bb
-9.986253e-05 0.00019124564 -0.0005430597 -0.003126907 -0.0029446397 0.00024881092 -0.0011870117 0.00044754415
4.1654734e-05 0.0007596643 -0.00018664125 -0.0028014602 0.00024410729 -2.1616679e-05 -0.0009157846 0.0015278925
0.0006458912 0.00045011082 -0.00056694774 -0.0011047018 0.00058754045 -0.0019680266 -0.0005444929 0.0033747773
-0.00045350599 -0.00064360583 -0.00016722857 -0.0021249875 -0.0008439723 -0.00033132956 -0.00037017188 -0.0021989944
0.0038586168 -0.0004070696 -0.0011751484 0.0005460131 -0.001418632 0.0015283249 -0.00042837986 8.850406e-05
-5.0223076e-05 -4.2850395e-05 4.9183353e-05 0.0004252693 -0.00068572024 -0.0002751484 -0.00017905462 -0.00033235396
-0.00088820286 2.2219892e-05 -0.0028037638 0.0013470936 -0.0016447867 -0.00063945685 -0.00053087843 -2.488799e-05
-0.0023877085 -0.002916754 0.0005159872 -0.0014378726 0.0003435727 0.00058702583 -0.0013842254 0.0007933661
0.0001217909 -8.6630316e-05 0.00010190272 0.0042448803 -0.00018015967 -0.0016757366 -0.0014569537 0.0005240713
-0.00019808844 -0.0017248393 -0.00014655136 -0.0014208609 -0.0015052588 -0.00082414894 -0.00013951758 -0.002369223
0.00095408637 -0.001056245 -5.5417146e-05 -0.00032749164 0.00063422456 -0.0009398237 -0.0020673294 0.0022883052
-0.0007065537 -0.0006534949 0.00057351554 -0.0026560996 -7.991614e-05 0.00015565033 -0.00044341263 -0.000204405
-0.0001648443 -0.0014838427 0.0015773991 -0.0021199086 0.002643679 -0.0023425194 0.0012222963 0.0008531395
5.966478e-08 0.004615844 -0.00030784126 -0.00085160264 -0.0010394801 -0.00020436797 -0.0016539372 -0.0010844583
0.0012695979 0.0010094985 0.0018128819 0.00014689007 0.0034733168 0.00056777784 2.92896e-05 -0.0017276208
9.415686e-05 -0.000580271 0.0011188901 -0.0006013366 -0.00022366791 0.0011398215 0.00053612964 -0.0030073735

network_body._body_endoder.seq_layers.0.weight f4 [128, 6]
00000000: 75ce 363e c357 823e fbf0 65bf abe1 a3bd
00000010: a62a 29be f5a8 8c3d 475e bb3e d628 a8be
00000020: 47f3 50be 2ece 183f e786 da3d 585f 123e
00000030: e6c4 f0be fde2 b13e 907f f4be 6fe6 32bf
00000040: 065b 92bc 359a a9bc 97aa 38bd cafe c3be
00000050: b1d5 823e e329 cebc e27e c43e 4069 b1be
00000060: 7401 15bf bd67 42be 416f 84be 3b74 853d
00000070: 0782 26bf 10c6 e2be f532 85be aab1 cc3c
00000080: 1b47 fdbe 1712 093d 28db 003f 1f70 2abe
00000090: 2d3c 33bd c7d6 eebd 9504 f5bd 3def b8bd
000000a0: c4fa f0b8 32d5 fbbc 3ff0 a3be e58b fabd
000000b0: bd4d 52be aaa0 e93d 1c3e f7bd 94ea cd3e
000000c0: 7c13 d83e 6bad 2d3e e46f 8f3d cf77 fdbb
000000d0: e1ac eabd 75bd a2bc 77df 02bf c22e 97bd
000000e0: 7f90 a8be a2e8 0f3b abbd 20be 3522 813e
000000f0: 80e4 03bf 0989 83be a3e3 0a3d 31af d23e
00000100: d90f 88bd 6a4c 293e b0fb 7d3e d83e 4c3e
00000110: b211 89be 69d0 55be 87bf a2be f30d 4bbe
00000120: 9310 f53d 1449 fb3e 3f68 95be db55 6fbd
00000130: 054b debd 3703 92be 740e 5d3f 6831 fd3e
00000140: f992 b3bd dce4 01bf a418 443e 6eb0 533f
00000150: a2c9 afbe edab 9abf 6eab bcbe de6e a6be
00000160: 0232 a4be 87ec 2fbf a386 72bf 32d2 d0be
00000170: cd3f 64be 019a dbbe 046e ae3d 6ae2 173f
00000180: 07b0 21be 47fd cbbe faba bfbe c35a 953b
00000190: bf20 6fbd c5e8 593e 4f76 67be 306d 5ebe
000001a0: 9d4a a93e f027 22be bfd0 863e 3a8b fd3e
000001b0: 33c0 d9bd ce9a 023f dc83 bb3d a82b 2cbe
000001c0: f5ac bfbd 864c f3bd be0b 08be bddb d93e
000001d0: e662 233e 4849 fa3c a4e7 413e 62ef 3dbe
000001e0: 0caa a1bc 401c 1abe 7170 fc3e 0d44 a33e
000001f0: 2661 4b3e 3090 7bbe 654c 23bf 6078 5bbd
00000200: 3712 e33d 5ca2 12be 627a 823e f776 a4bd
00000210: 574d 573d 548b d2be 8e29 233e 8fcd edbe
00000220: 6805 c53e cee3 93be fc4c b7be b60e 683f
00000230: 46b4 b7bd d2df 83be 87b5 debe c949 41be
00000240: 1337 593e 5d36 24bd 9f2d 84be d9c5 7abe
00000250: 0044 c2be b576 54be d5ed e9be 7acf 19bc
00000260: 5e40 833d 3059 123f a2a0 943e 98ff 84bb
00000270: 10bb 13bf ebea fa3d a916 d73d 439a 10bf
00000280: 58f6 9b3e c99a e2bb cfdb e4be f3ad 9fbc
00000290: 1c0d cb3e 2763 3abf 9989 963d c911 47bf
000002a0: af53 12bf c281 393f 61d4 3bbf 9464 1cbf
000002b0: c1a0 b6be 8dee f33e 4567 733f 85b7 873c
000002c0: 3530 803e d21b 0a3f aa0c 3f3f ddd5 263f
000002d0: 1efc acbe 070e 823b e4e9 333e 3ffd e23d
000002e0: 8d7c 803f ac33 f0bd 3a6e aebe 4b86 833e
000002f0: 95eb 973d 57c7 723e 9b19 7f3e dc4f 75be
00000300: 788a 81bf 9012 c03e 588e 51be b7ff 3a3d
00000310: 9fb1 d33e d05f eb3c 9a74 153e d68a 503e
00000320: 4e73 3fbe d03d ec3e 0f36 063f 1559 c23d
00000330: 60ec 23be 3cc3 24be bbc4 193c e054 1a3e
00000340: bd00 043f 84c8 0abc 18cb 803d dd69 5cbe
00000350: 9a22 c3bb b084 2abf b0b3 b6be aff2 1b3e
00000360: 8e52 f0be eb7c 03bf 9c68 f6be 60b1 473f
00000370: 6d29 973d e616 b0bd f797 913d 6609 abbd
00000380: 7a3b 6e3f 2082 1abf 1137 05bf 387b 42bf
00000390: 7252 85be d83e 8bbe f21e a73e 6176 c13d
000003a0: d0dd e5be 5d7a f03d 6f8c 33bf d135 4e3c
000003b0: 6f08 3cbe ce6e 4d3f 73e2 92be 1d11 113f
000003c0: 56e1 993d 5e03 5dbe 316a 02bf 7749 1abf
000003d0: fd46 0f3f 5ac2 1b3f d6a6 f5bc 7513 89be
000003e0: d1c1 d73d 07e5 b5bd 168f 43bf be94 43be
000003f0: dd87 5cbe c1b1 b0be 8dfb c83e 3c67 153d
0.17852195 0.25457582 -0.8982083 -0.08002027 -0.16520175 0.068681635 0.36595365 -0.32843655
-0.20405303 0.59689605 0.10670262 0.14294183 -0.47025222 0.3474349 -0.47753572 -0.69882864
-0.017865669 -0.020703414 -0.045084562 -0.38280326 0.2555366 -0.025166458 0.38378054 -0.34650612
-0.5820534 -0.18984886 -0.2586613 0.0651631 -0.65042156 -0.44291735 -0.2601544 0.02498706
-0.49468312 0.033464517 0.50334406 -0.16644333 -0.04375856 -0.11662059 -0.119637646 -0.09030006
-0.000114908005 -0.030741308 -0.3201923 -0.12233714 -0.20537467 0.11407597 -0.12072393 0.4021803
0.42202365 0.16960685 0.07003763 -0.0077352296 -0.11458755 -0.01986573 -0.5112223 -0.07381965
-0.32922742 0.0021958728 -0.15697353 0.2522141 -0.5152054 -0.25690487 0.033908498 0.41149285
-0.06643648 0.16533056 0.24803042 0.19945848 -0.26771313 -0.20880283 -0.3178675 -0.1982954
0.11966052 0.49079192 -0.29181096 -0.058431488 -0.108541526 -0.28518078 0.8635018 0.49451756
-0.08768267 -0.50739837 0.19150025 0.82691085 -0.3433352 -1.2083718 -0.3684954 -0.3250646
-0.32069403 -0.6872029 -0.9473669 -0.40785366 -0.22289963 -0.42890933 0.085170776 0.59329855
-0.15789805 -0.39841673 -0.3744734 0.004557939 -0.05838084 0.21280201 -0.22603725 -0.21721339
0.33064738 -0.15835547 0.26331136 0.49520284 -0.10632362 0.51017463 0.091560096 -0.16813529
-0.09359161 -0.1187983 -0.1328573 0.4255046 0.15955696 0.030552521 0.1893602 -0.18548349
-0.019734405 -0.15049839 0.49304536 0.31887856 0.19861278 -0.24566722 -0.63788444 -0.053581595
0.110874586 -0.14319748 0.25483996 -0.08030503 0.05256399 -0.41121924 0.1593382 -0.4644589
0.38480687 -0.2888474 -0.35800922 0.9064745 -0.08969931 -0.257567 -0.4349787 -0.18875803
0.21212415 -0.040090907 -0.25816056 -0.24489535 -0.37942505 -0.20748408 -0.45689264 -0.009387845
0.064087614 0.5716734 0.29028803 -0.0040587895 -0.5770731 0.12251838 0.10502369 -0.56485385
0.30461383 -0.0069154245 -0.4469895 -0.019492125 0.3965844 -0.72807544 0.073504634 -0.77761513
-0.5715894 0.7246362 -0.7337094 -0.6109097 -0.3566952 0.47642937 0.9507945 0.016567001
0.2503678 0.539487 0.746287 0.6517008 -0.337861 0.0039689573 0.17569691 0.11083459
1.003801 -0.11728606 -0.3406847 0.25688395 0.074179806 0.23708855 0.24912111 -0.23956245
-1.0120382 0.37514162 -0.20464456 0.045654025 0.41346452 0.02873221 0.14595261 0.20365462
-0.18696329 0.4614091 0.52426237 0.09489647 -0.16008139 -0.16090101 0.009385283 0.1507144
0.51563627 -0.008470658 0.06288737 -0.21524759 -0.0059550526 -0.66608715 -0.35683966 0.15229295
-0.46937984 -0.51362485 -0.48126686 0.7800503 0.07380948 -0.085981175 0.07109063 -0.08351402
0.93059504 -0.60354805 -0.5203715 -0.75969267 -0.26039463 -0.27196383 0.32640797 0.09446407
-0.44895792 0.11742089 -0.7013616 0.012586073 -0.18362592 0.802472 -0.28688392 0.5666674
0.075136825 -0.21583316 -0.50943285 -0.6026835 0.55967695 0.6084343 -0.02998678 -0.26772657
0.105350144 -0.08881574 -0.76390207 -0.1909971 -0.21536203 -0.34510615 0.39254418 0.036475405

network_body._body_endoder.seq_layers.2.bias f4 [128]
00000000: e112 e0b6 686e 83ba 95d8 dcb9 bf50 3bb9
00000010: 1bab d9b9 3a2b b6b9 1de1 2cbb 8d46 f739
00000020: 4c57 5ab9 834c e937 9b71 3f39 e498 18b8
00000030: 6ad8 3bb6 5b6e 8638 18b7 b1b8 d06c 75b8
00000040: 53b1 48b9 cd2e 4aba 8fcd 58b7 d0a6 ab3a
00000050: 6c96 1eb9 061c 81ba 5410 2a39 d940 4bb9
00000060: 52c2 26b9 fbaa 37b8 ccee 24bb 64b7 833a
00000070: 8c08 843a 1b10 1dba e1d4 a5ba 9de5 b8b9
00000080: 9cda 0bb9 9377 a1b7 9f2b ffb9 55e5 92b8
00000090: cfdd a33a b3a5 da39 f10c 2fb8 ed61 3bba
000000a0: 42be 49ba 9fb4 49b9 6c84 69ba 5a49 dbb9
000000b0: 4fc9 9a39 3f9e 0a39 cb8c 143a e38d b3b9
000000c0: 9905 d137 f24b bd3a 31f1 5bb8 e785 d0ba
000000d0: 0043 a53a 6afb 023a 46d9 97ba 8c8a 1cba
000000e0: 45d3 15bb 557c 253b 406b f138 0af7 b739
000000f0: 5aff e938 b103 ff39 a0e2 60bb 0a72 b93a
00000100: ae77 b3b9 dcf3 09ba eb67 97ba f2cd 6eb9
00000110: 5fd4 aab9 34da f8b9 41bd 41ba f149 e7ba
00000120: 34f1 b7b9 47f4 6bb9 7f76 55b8 dcb8 d337
00000130: be64 533a 0aac 183a 486b 2db8 2ca7 0d3b
00000140: 1008 9db8 4a39 66b6 60d4 2439 9ca1 5c3a
00000150: 7411 b838 31a7 42b9 0eba c1b8 b15b 863a
00000160: 1666 ce37 b66c 59ba 6d2c 8538 2fdc b0b8
00000170: 8ea6 3a3a f933 0039 dc4b 92b8 3213 0d39
00000180: 298b 8fb9 f112 72ba 6ec0 863a eca8 64b9
00000190: 8a3b 0eb9 c9df e0ba 5eab edba 9dec 9bb8
000001a0: 82d6 12ba 1108 9d3a 8ac0 3b3a 7030 fd37
000001b0: 3362 8cb9 cc99 96b7 be84 8c38 1411 2cba
000001c0: 29ab 3ab9 6e29 213b 6a5e f039 976b ed37
000001d0: 78aa ea39 7754 ecb8 3920 9dba 5139 18b8
000001e0: 9531 e837 c67b 82ba 5ecd 563a be74 03ba
000001f0: e997 f136 ba23 38ba 4b7d 89b9 a34a 9bb9
-6.677918e-06 -0.001002741 -0.00042123036 -0.0001786379 -0.0004151695 -0.0003474595 -0.0026379295 0.00047164076
-0.0002082262 2.7811393e-05 0.00018257501 -3.6382015e-05 -2.799114e-06 6.410173e-05 -8.4741216e-05 -5.851389e-05
-0.00019139545 -0.00077126623 -1.2922464e-05 0.0013095979 -0.0001512409 -0.000985027 0.00016218546 -0.00019383746
-0.00015903384 -4.3789838e-05 -0.0025166748 0.0010049162 0.0010073348 -0.00059914746 -0.0012651944 -0.0003526629
-0.00013337511 -1.9248377e-05 -0.0004866989 -7.004539e-05 0.0012502017 0.00041703656 -4.1735304e-05 -0.0007148076
-0.0007695892 -0.0001923614 -0.0008907977 -0.00041825586 0.00029523156 0.00013219657 0.0005666732 -0.00034247254
2.4917348e-05 0.0014442189 -5.2438296e-05 -0.0015909047 0.0012608469 0.000499657 -0.0011585138 -0.0005971573
-0.0022861522 0.002525111 0.000115117524 0.00035088538 0.00011157869 0.0004864014 -0.0034314767 0.0014148366
-0.0003423071 -0.0005262473 -0.0011551356 -0.0002277417 -0.00032583156 -0.0004746482 -0.0007390567 -0.0017645938
-0.0003508419 -0.00022502347 -5.0893515e-05 2.5239242e-05 0.0008064023 0.00058239757 -4.1346328e-05 0.0021614535
-7.487845e-05 -3.4306017e-06 0.00015719375 0.00084164157 8.7770546e-05 -0.00018563565 -9.2376125e-05 0.0010250715
2.4604651e-05 -0.0008294092 6.350209e-05 -8.4333464e-05 0.00071201555 0.00012226393 -6.9759524e-05 0.00013453959
-0.00027378768 -0.000923439 0.0010280737 -0.00021806703 -0.00013564355 -0.0017156537 -0.0018132736 -7.4350486e-05
-0.0005601422 0.0011980553 0.00071621744 3.0182506e-05 -0.00026776045 -1.795301e-05 6.7004454e-05 -0.0006563824
-0.00017802104 0.0024591344 0.0004584671 2.8302702e-05 0.00044758967 -0.0001126909 -0.0011987753 -3.6293004e-05
2.7679644e-05 -0.00099551 0.0008194054 -0.00050146494 7.2000444e-06 -0.00070243666 -0.00026224027 -0.00029619512

network_body._body_endoder.seq_layers.2.weight f4 [128, 128]
00000000: 2027 a93d b827 933c 0b49 d03d 86b0 74bb
00000010: 55c0 debd 3ec6 cb3c f575 abbd cb4a febc
00000020: 80d5 04bd 061c 953d 97dc ce3a 62c9 1d3d
00000030: 84a8 6dbc 41cc 0ebd 14ae 07bd d7c9 61bc
00000040: dbc7 063e 3647 eebd 9d91 9bbd f8bc 53bd
00000050: eb92 40bd 723d b63c a0b7 f6bd 6f0f 0bbd
00000060: edb8 243c 8d84 c23d 7537 70bd 81d7 903d
00000070: 3a4e ac3c 65c2 d8ba a33e 28be fdec 9dbd
00000080: 8678 0c3d a3c6 0c38 def2 483d 5a02 e73c
00000090: d9cc 2a3e 3206 5dbe ab9d 42be 8e4b d7bc
000000a0: b286 c83d 086d bc3d 5de8 b0bd 84ae 39be
000000b0: 0dde 163c a4f0 67bd 64da c6bd 5f7f 113d
000000c0: 4a4b c2bd bead 703c c946 1c3d 39f5 f53d
000000d0: 14fa 56be c56b ca3d a52b 80bd 7f84 57bc
000000e0: 19b3 693e 72e0 d0bb 0387 57be a075 103e
000000f0: d1ab 523d 0739 cbbd b8df 733d 8a60 403c
00000100: 28d2 613d 1bb3 c33b d9cd d03c 7922 e7ba
00000110: 8c52 36bd 9489 d23d 019d 72be a350 9f3d
00000120: da7e a83d 55e4 d73d 9a62 303e 3307 cebc
00000130: 1fda b9bd c806 163d 0b14 c63d 213b 483d
00000140: ebcb 5d3d 9387 fe3c cced e73c 8576 36bd
00000150: 306d da3c 24be 3ebe 4cf1 2dbd c96b 5abd
00000160: 111a 193c 01fd 55bd 0b82 a43c 10ed 693d
00000170: 7908 1f3e f3af 873d 5efc 8bbd 2ee1 8e3d
00000180: c379 d2bd 2a5b 77bc aecc 96bd 8cef 153b
00000190: 36fd aebd 4b30 c4bd f396 6cbd 0e83 71bd
000001a0: 26fb 5d3d 0019 573d 6720 413c 3ff8 f1bc
000001b0: d714 a93d ad98 4cbe dd00 233c 619b 7b3d
000001c0: c055 073d caab b4bd d65c 863d f136 57bd
000001d0: b9bd cb3c 33a5 69be 2c6a cfbd 34cb dcbc
000001e0: 607d fabb 4e95 00be 1081 5bbd 432a 5cbd
000001f0: b33c 883d 33fb 03be fc81 b63d 7df9 dc3d
00000200: 72c7 14bd 3dd1 cc3c b874 213d 14ec cabd
00000210: b31b 80bd 176d 823d 5348 0dbe d075 6dbd
00000220: 7902 8cbd b35a 4c3d 4057 22bd 1f61 94bd
00000230: 0045 653e 56ba dcbd e9fb 8f3d 7683 42bd
00000240: 4486 303d efce d4bc d1cb cfbc f492 12bd
00000250: e7d4 9ebd 68d3 093c bfb1 8a3c c081 923d
00000260: 6504 33bd c14f 123c f1c5 89bd 0e77 823d
00000270: 1961 54bc 6ed2 49bd 6d3e b33d 378b aabd
00000280: bccd 983d eeea 48bc 3adc 243d e3d6 84bd
00000290: d749 c93b 4b9d debc 51b1 613e 6ea8 b53d
000002a0: 5976 9bbc 3b66 8abe 757c 0d3d 77d2 af3d
000002b0: 536f 9dbd 2a05 323d 1751 a63d a4e6 9b3d
000002c0: 6e65 b3bd 54a5 bbbd 75ab 26bd 65b6 f6bd
000002d0: 1807 7b3d 947a fbbd ee88 70bd 18c8 7e3d
000002e0: 8a65 f23d 2fae 3e3e cfc5 ff3d 77b6 2fbe
000002f0: a010 d43d d615 9a3d f6fd 36bd c150 d3bc
00000300: 96ec 40bd 084c eebd 0b01 813d 2739 9ebc
00000310: cfc1 15be 93e7 d63d ac35 80be ab62 233e
00000320: c130 0abe b815 ab3d 7d29 023e 86a9 d0bd
00000330: 9548 4b3e 5083 923d 2192 f33c 84b5 c33c
00000340: e158 d63d 39e2 35bd 9127 d5bc fb91 06bb
00000350: eee6 d53d 8e7a ccbd 835c 263c 7254 623d
00000360: ff52 21bd 7fc2 d6bc 86e1 a53d 492e 28ba
00000370: 1c0d 4ebd 5093 30bd 0a94 723d 1df7 b4bc
00000380: a81e 95bc fc1b 12be 30fc f0bd dcc3 53bd
00000390: cd0f 93ba 39ed bcbd 829d ce3d 37b1 2f3d
000003a0: a14f d53d 5cf4 a93d 9feb f1bc 6f25 d43b
000003b0: 539c 6f3c c754 b9bc c8e8 373e 2a55 5e3d
000003c0: ed36 26bc c20f 36bd 7eb3 073d 2dc2 74be
000003d0: d9c0 fcbd 5d82 6cbd ba0a 4d3e fb93 ad3c
000003e0: 1621 3abc 1303 03be 32da d6bd 3d24 bebd
000003f0: d6cf b43c a5ac 9dbd 32b0 8dbb 338d 03bd
0.082594156 0.017963275 0.10170182 -0.0037336661 -0.10876528 0.024874803 -0.08372108 -0.031041523
-0.032430172 0.07280736 0.0015782294 0.03852213 -0.014505509 -0.03486276 -0.033125 -0.0137810325
0.13162176 -0.11634676 -0.07596133 -0.051693887 -0.047015112 0.022246096 -0.120467424 -0.033950265
0.010053855 0.09497938 -0.058646638 0.07072354 0.021033395 -0.0016537426 -0.16430144 -0.077112176
0.034294628 3.3563596e-05 0.04905974 0.028199363 0.16679706 -0.21584395 -0.19005458 -0.026281144
0.09791316 0.092004836 -0.0863807 -0.18132979 0.0092082145 -0.056625977 -0.097096235 0.03552186
-0.094870165 0.014689861 0.038153443 0.12009663 -0.20993835 0.09883837 -0.062583245 -0.013154148
0.22822227 -0.006374412 -0.21047597 0.1410737 0.05143339 -0.099229865 0.059539527 0.011741767
0.05513206 0.005972279 0.02548878 -0.0017634175 -0.044512317 0.10280147 -0.23692705 0.07779052
0.0822732 0.10541598 0.17225114 -0.025149917 -0.090748064 0.03662756 0.09671792 0.048884515
0.05414955 0.031070506 0.028311633 -0.044546623 0.026663393 -0.1862722 -0.042466447 -0.05332545
0.009344594 -0.052243236 0.02008154 0.057110846 0.15530576 0.066253565 -0.068352446 0.06976543
-0.102771305 -0.015097419 -0.07363258 0.0022878377 -0.0854439 -0.09579524 -0.057761144 -0.058962874
0.054194592 0.052514076 0.0117875105 -0.029537318 0.08255928 -0.19980116 0.009948936 0.061427478
0.033040762 -0.08821829 0.06560676 -0.05254263 0.02487074 -0.22816925 -0.101276726 -0.026952364
-0.0076443404 -0.12556955 -0.05358988 -0.05375124 0.066522025 -0.12888794 0.08911511 0.107897736
-0.03632302 0.025002116 0.039417952 -0.099083096 -0.06255283 0.063684635 -0.13797121 -0.057973683
-0.06836409 0.049891185 -0.03963399 -0.07245087 0.22389603 -0.10777728 0.0703047 -0.047488652
0.043096796 -0.02597758 -0.025365742 -0.035784677 -0.07755452 0.00841222 0.016930459 0.07153654
-0.043705363 0.008930148 -0.067272075 0.06370364 -0.012962603 -0.049272947 0.08752141 -0.083273344
0.07461116 -0.012263043 0.040249087 -0.06486299 0.0061428356 -0.027174613 0.22040297 0.08870016
-0.018977331 -0.2703112 0.03454252 0.08585065 -0.07687249 0.043461956 0.081209354 0.076123506
-0.087595806 -0.09162393 -0.040690858 -0.12046508 0.061286062 -0.12279239 -0.058724336 0.062202543
0.11835773 0.18621133 0.12488901 -0.17159449 0.103547335 0.07523696 -0.04467579 -0.025795342
-0.047100626 -0.116355956 0.06299027 -0.019314362 -0.14624713 0.10493388 -0.25040948 0.15955608
-0.1349516 0.08353752 0.12711139 -0.10188584 0.19851907 0.07153952 0.029732766 0.023890264
0.10466171 -0.044405196 -0.026019843 -0.0020533788 0.10444437 -0.09984313 0.010153892 0.055256315
-0.039385792 -0.02621579 0.08099656 -0.00064155884 -0.05030547 -0.04310924 0.059223212 -0.022090489
-0.018203095 -0.14268488 -0.11766851 -0.051700458 -0.0011219919 -0.09224934 0.10088636 0.042893615
0.10415579 0.08298561 -0.029531298 0.006474189 0.014624673 -0.022623433 0.17959893 0.054280438
-0.010144931 -0.04444862 0.03313016 -0.23902197 -0.1234147 -0.05774151 0.20023623 0.021188727
-0.011360427 -0.12794141 -0.10490836 -0.09284256 0.02207176 -0.07698945 -0.0043239826 -0.03211708
