MLAgentsProject/results/MoveToGoal3/MoveToGoal/MoveToGoal-39076.pt (torch, 439135 bytes, 36 tensors)

network_body._body_endoder.seq_layers.0.weight f4 [128, 6]
000000 9f 44 4e 3e 04 21 e7 3b 19 42 45 bf 9e 34 35 bf
       0.20143364 0.0070534963 -0.7705398 -0.7078341
000010 7d ab 11 bf ae 4c b4 be e4 e0 b6 be 64 7e bd 3e
       -0.56902295 -0.35214752 -0.35718453 0.3701049
000020 f3 f0 d1 3e eb fc 22 be d4 e5 33 3e 69 f5 18 3f
       0.41004142 -0.15916793 0.17568141 0.59749466
000030 86 17 89 be 8b 4a 7f 3e 70 e7 06 3e d5 29 e0 bc
       -0.2677576 0.2493078 0.13174224 -0.027363697
000040 e6 50 7f 3e 39 df a6 3c 9e a4 48 3f 92 8e d7 bd
       0.24933204 0.020370113 0.78376186 -0.1052524
000050 8a 3f 13 bf 07 65 c7 3e 26 3d 1d bf 8e 9f c1 3e
       -0.5751883 0.38944265 -0.6142143 0.37817043
000060 1c 31 5b 3f 16 3f d4 be 51 77 8d 3a 87 47 a2 3e
       0.8562181 -0.4145438 0.0010793005 0.31695196
000070 11 dd 11 bf 67 d1 88 3f 77 ec 36 bd bc d8 1e bf
       -0.56977946 1.0688905 -0.044659104 -0.6204946
000080 c3 f9 8c bd 1a 18 24 be d0 5f 2e 3d 27 a3 4e be
       -0.06883576 -0.16024819 0.042571843 -0.20179425
000090 5e a0 c6 be 75 8a dc bd c6 a4 1d be 09 04 93 bd
       -0.38794225 -0.10768596 -0.15394887 -0.07178504
0000a0 40 25 d6 be 68 52 96 bc f2 09 0f bf a1 35 49 be
       -0.41825294 -0.018349841 -0.5587455 -0.19649364
0000b0 93 d7 12 bd 6e 1a 3f be 9b ea 3e bf a5 00 f9 be
       -0.03585012 -0.18662426 -0.7457673 -0.48633304
0000c0 01 f2 4a 3e 74 2a 19 3f 04 31 60 3e 44 71 9b be
       0.1981888 0.59830403 0.21893698 -0.30359852
0000d0 f3 18 88 3d f6 f7 64 be 14 52 d6 be f5 56 0f 3d
       0.06645384 -0.22360215 -0.41859496 0.034995038
0000e0 3e b1 c9 be f9 c6 8a 3f 52 31 b0 be dc 83 fe be
       -0.39393038 1.0841972 -0.34412628 -0.49709976
0000f0 46 94 65 3e 74 17 3e 3e 3d 13 98 3e 7b af 8e 3e
       0.22419843 0.18563634 0.29702178 0.27868256
000100 0a eb c0 3e 2c 16 95 bd 66 ce 66 3d 9e 7b ce be
       0.3767932 -0.072796196 0.05634918 -0.40328687
000110 6c 0f 7f 3e 25 2e da 3d 70 47 de be 07 de 97 3c
       0.24908227 0.106533326 -0.43413877 0.018538488
000120 15 36 52 3f 1b 7f 09 bf 6e 4a ce 3f 29 29 c4 3e
       0.8211377 -0.5370957 1.6116464 0.38312653
000130 9f 2d 38 3f a2 88 02 3d fc 76 5c bd 1d 58 6f 3c
       0.7194461 0.031868584 -0.05382441 0.01460841
000140 59 83 f8 bd 51 29 ff 3d 5d 8f 87 bb ca 15 0b bf
       -0.121344276 0.12459052 -0.0041369633 -0.5433012
000150 a2 17 e2 3e d4 50 34 be 41 e0 b6 3e 91 57 2a bf
       0.44158655 -0.17608958 0.35717967 -0.66539866
000160 e3 cb 69 3d b0 aa a7 3d fc ac 4f bd 40 3a d9 3e
       0.057079207 0.08186853 -0.05070208 0.42427254
000170 29 3c a8 be b5 b7 81 be 1e 31 38 3e 60 4d 3b 3e
       -0.328584 -0.2533547 0.17987487 0.18291235
000180 f9 87 b5 3b 8f f5 e0 3e 72 72 41 be 1c 29 55 be
       0.005539891 0.43937346 -0.18891314 -0.20816463
000190 4c c4 71 bf 9b ed d0 bd a4 9e be be 19 4b 36 be
       -0.9444015 -0.1020157 -0.37230408 -0.17802085
0001a0 35 a6 c1 bd df 6e 02 3e 78 bd 56 3d 3f 5a e4 3b
       -0.094555296 0.12737606 0.052426785 0.006968766
0001b0 c1 84 73 3e af 71 88 bd 30 18 66 3e 9a 28 eb bd
       0.2378111 -0.066623084 0.22470164 -0.114823535
0001c0 a0 18 00 bf c3 30 0c bd 4d 20 49 3f 55 3a 7b 3e
       -0.50037575 -0.03422619 0.7856491 0.2453397
0001d0 74 32 07 be 80 60 e6 bd 41 7f 2c be ff e2 f1 be
       -0.1320284 -0.11248875 -0.16845419 -0.47243497
0001e0 fb 8e 99 3e ac 6b 6e 3e 97 5c fe bd 5f 74 5d 3d
       0.29991898 0.23283261 -0.12420004 0.05406606
0001f0 a4 51 0b 3e b4 e9 f3 3e 8b 44 f3 3e 5b a9 c4 be
       0.13605362 0.4763924 0.47513232 -0.38410458
000200 a8 8a 90 be b7 2c 86 3f 08 69 ee 3e cb 34 c9 be
       -0.28230786 1.0482396 0.46564507 -0.3929809
000210 f8 57 3f 3f 88 eb 62 bf c2 7f 9e 3e 82 ee 90 be
       0.74743605 -0.8864064 0.30956846 -0.28306967
000220 da c7 53 be 3e 72 03 be 47 a3 53 ba 8c f3 0f 3f
       -0.20681706 -0.12836549 -0.00080733415 0.56231
000230 29 50 91 bd 2b 4e d8 be 80 77 28 3e e4 69 0f bf
       -0.070953675 -0.42247137 0.16451836 -0.5602095
000240 f7 04 88 be ab 7b 64 be a7 c8 0f bf 9b 39 8a 3e
       -0.26566288 -0.223128 -0.56165546 0.26997074
000250 e9 fb c1 be 7b 50 00 3d 90 2c 3f bf db 2b 19 3e
       -0.37887505 0.031326752 -0.7467737 0.14958136
000260 69 cb 35 3f aa 5f 2f 3e f8 75 84 be f3 82 0a be
       0.71013504 0.17126337 -0.25871253 -0.13526516
000270 28 b5 5f 3e 65 59 c4 be ce 97 5e be 56 2d 0e 3f
       0.2184645 -0.38349453 -0.21737596 0.5553793
000280 f5 3d e7 bd 41 c2 29 bf 68 88 0c bf f2 1c 1f be
       -0.11291114 -0.6631203 -0.5489564 -0.15538386
000290 ad 4e 26 be a7 53 a1 be 2a 16 49 be 35 08 0a 3f
       -0.1624095 -0.31509134 -0.19637361 0.5391877
0002a0 b7 f1 4d 3d f5 c5 da 3c c7 e9 85 3e 4a d7 95 3e
       0.050279345 0.026705721 0.2615492 0.29265815
0002b0 16 85 19 3d 07 d0 50 be be 61 e3 bd d7 87 a0 3e
       0.037480436 -0.20391856 -0.11102627 0.31353638
0002c0 6c 1a 27 3e e0 30 09 be ca 42 1c be cf af 1c 3e
       0.16318673 -0.1339755 -0.15259853 0.1530144
0002d0 ac 33 6c 3f 7b 10 76 3e ad 1b 73 3e e8 9e 79 bd
       0.92266345 0.24029724 0.23741026 -0.06094256
0002e0 d1 13 6b bf bd 01 08 bf 39 59 0a bf de 1d 19 3f
       -0.9182711 -0.5312765 -0.5404239 0.598112
0002f0 86 55 b0 3e 69 41 00 3e ed 9f 1e 3e ea 1d af be
       0.3444025 0.12524952 0.15490694 -0.3420251
000300 c0 80 bf 3d fa 84 dd 3e 1e f4 bb 3e 68 e6 fe 3e
       0.09350729 0.43265516 0.36709684 0.4978516
000310 05 34 26 3f 48 6e 2c 3e 85 ba ec be a4 df 0b 3e
       0.64923126 0.16838944 -0.46236053 0.13659531
000320 54 be 8b 3d fd cc 07 be 7d d5 14 3f 95 ca 0c 3f
       0.068234116 -0.1326179 0.5813826 0.54996616
000330 e2 2d a4 be 36 08 5c bf 01 3c f9 bd b5 83 cf 3d
       -0.32066256 -0.8595003 -0.12169648 0.10132543
000340 dc 7a 67 be 5f cb c4 be 32 74 09 3f df e3 16 be
       -0.22605461 -0.3843641 0.53692925 -0.14735363
000350 38 d5 94 bd 4a 23 a9 3e 26 f3 b0 bd 37 33 9e 3e
       -0.07267231 0.33034736 -0.08640127 0.3089845
000360 02 0d b6 3e 94 ec c5 3a fb ec 6e 3e 30 b8 92 be
       0.355568 0.0015100413 0.23332588 -0.2865615
000370 25 3d fd be b8 fc 31 bf 90 71 31 bf 1a 0e 04 bf
       -0.49460712 -0.69526243 -0.6931391 -0.5158402
000380 03 75 5d bf 0f 8e 18 3e 80 b2 1e bf 0e 97 c5 bd
       -0.8650667 0.14897941 -0.6199112 -0.09647952
000390 16 1e 02 3f 5b 64 ea be a0 3b e2 3e ae 44 f4 3c
       0.5082716 -0.4577969 0.44186115 0.029817905
0003a0 80 26 ae be 12 7e 06 bf e7 a2 e2 3e ea ac d4 3c
       -0.34013748 -0.5253612 0.4426491 0.025961358
0003b0 a3 60 1e bf 3f 14 89 be 7e 21 1a 3e ae af 3c bf
       -0.61866206 -0.2677326 0.15051839 -0.73705566
0003c0 70 05 2b 3f fe 6e 08 3e a7 d3 c5 3d 5e b7 c4 bd
       0.6680517 0.1332359 0.0965951 -0.09605287
0003d0 5d 3b 94 3e b9 d6 cb 3e 23 c0 09 bf 63 ff 39 3e
       0.2895154 0.39812258 -0.538088 0.18163829
0003e0 7d 4d be 3e 9d 50 a5 be 4a e9 c2 3e e8 c2 3b 3f
       0.37168494 -0.32288066 0.3806861 0.7334428
0003f0 54 00 84 3e 14 c2 41 3f ff 41 a2 be 71 04 a5 bd
       0.257815 0.75686765 -0.31690976 -0.08057488

network_body._body_endoder.seq_layers.0.bias f4 [128]
000000 1c 61 0a 39 e2 19 09 bb 9e 29 b2 3a 78 23 1b bb
       0.00013196882 -0.0020919968 0.0013592725 -0.0023672264
000010 36 d1 94 ba 18 36 fb bb d0 26 ea 3a 7a e5 3a 3a
       -0.0011353854 -0.0076663606 0.001786435 0.00071295316
000020 33 8c 9e 3b 4b fd aa 3a 6c 4b 77 ba 38 6d 99 ba
       0.0048384904 0.0013045458 -0.0009433541 -0.0011705523
000030 1b 53 cc 3a b4 ec 14 3c b3 71 ca 3a 40 fa 99 3a
       0.0015588732 0.009089638 0.0015445262 0.0011747554
000040 c6 1d 94 3a 3c fa 1f bb 2f b6 84 3b 2a 31 a1 3b
       0.0011300377 -0.0024410626 0.0040500383 0.004919191
000050 d7 30 f1 ba f3 3e 40 b9 a7 09 8c bb 83 07 83 3b
       -0.0018401396 -0.00018333997 -0.0042736116 0.003998698
000060 5e a6 80 3a c0 37 cc 39 fd d5 d9 3a e3 fd 38 3a
       0.0009815206 0.0003895145 0.001661956 0.0007056875
000070 c8 c0 17 3b d8 ee 78 b9 98 83 d2 3b 12 35 23 3c
       0.0023155678 -0.000237401 0.0064243786 0.009961383
000080 bc 8f a2 3a 2b 32 f5 ba 73 f8 b5 ba 50 f6 59 bb
       0.0012402455 -0.0018706968 -0.0013883248 -0.0033258386
000090 68 e8 29 ba 65 5b c8 3b 2f 8c 79 bb db 03 8c bb
       -0.00064814696 0.0061144107 -0.003807794 -0.0042729205
0000a0 a5 71 e2 ba ac 9f 2c 3a f6 71 74 bb a9 d9 40 3b
       -0.00172763 0.0006585072 -0.0037299371 0.002942661
0000b0 ae 5d 15 bb 7c a1 09 bb fe fb 4a 3b cf 1b c3 ba
       -0.0022791433 -0.0021000793 0.0030972953 -0.0014885607
0000c0 06 fd d0 3b 9f 17 2d 3b a8 3e f2 3a 8f a8 51 bb
       0.006377819 0.0026411784 0.0018481808 -0.0031991338
0000d0 9a 4d fe ba 91 c1 c5 3a 59 11 2e ba 2c fd 6a 3b
       -0.0019401789 0.0015087595 -0.0006640158 0.0035856469
0000e0 ad 9a 1b ba a5 cd e1 ba 68 c2 59 39 aa 46 cb ba
       -0.0005935829 -0.0017227425 0.00020767155 -0.001550873
0000f0 2e 31 0a bb 47 76 1d 3a 08 16 93 ba 5f 72 95 3b
       -0.0021086442 0.00060066994 -0.0011221776 0.0045607532
000100 63 ab b1 3a b2 28 81 bb 89 7b ae ba 18 e9 d1 b9
       0.0013555106 -0.003941619 -0.0013311963 -0.00040037255
000110 33 1b 48 ba e3 17 7a 3a 32 4f de 3b ce 0b 0a 39
       -0.00076334475 0.00095403026 0.006784343 0.00013165103
000120 0e 58 31 bb b8 f9 58 ba cd a2 25 bb d8 85 8d 3a
       -0.0027060541 -0.0008276957 -0.0025274039 0.0010797335
000130 53 ca 0b 3b 87 89 79 bb fc 0e ad 39 7a 09 b2 bb
       0.0021330311 -0.0038076357 0.00033008296 -0.0054332586
000140 0c 97 21 bb 06 21 2f bb ac f5 22 3b 13 95 0f 3b
       -0.0024656681 -0.0026722564 0.002486567 0.0021908924
000150 93 7d 38 bb b2 ac 6d 3b 12 d6 70 bb cc b3 9c bb
       -0.002815102 0.0036266265 -0.003674869 -0.0047821756
000160 be d0 50 bb 96 b8 02 3b e5 a0 2b bb d8 d7 9f ba
       -0.0031862701 0.0019946448 -0.002618843 -0.0012195064
000170 89 b6 80 ba 4e b3 32 bb 07 bd 5b 3a fa d4 1b bb
       -0.0009820025 -0.0027267518 0.0008382354 -0.0023778067
000180 8b e6 98 3b 5c 26 43 bb 42 4e bb b9 ad 1e ea bb
       0.0046661547 -0.0029777503 -0.00035725726 -0.00714477
000190 cb ef 06 3c 8a e5 85 b9 d6 90 8a bb cd 22 15 bb
       0.008235882 -0.00025538757 -0.0042286916 -0.0022756339
0001a0 43 0c 3a ba eb ca 3b bb 59 0a 3c bb cc 60 e3 bb
       -0.0007097164 -0.0028654884 -0.002869269 -0.0069390293
0001b0 e9 3e 30 b8 b9 34 55 3b b1 de 15 bb 8e aa 92 ba
       -4.202026e-05 0.0032532646 -0.002286833 -0.0011189745
0001c0 86 9c 88 3b be b9 9c 39 14 8d 2d ba 2f e2 e4 3b
       0.0041690497 0.00029893027 -0.00066204485 0.006984971
0001d0 57 6b af bb 14 09 dc 39 ce 53 3a 3b 7e bc 56 bb
       -0.005353372 0.00041968434 0.00284313 -0.0032766159
0001e0 8d c6 f5 ba 0f 7e 3d bb a3 e7 40 3a 87 3c 29 bb
       -0.0018751189 -0.0028914248 0.00073587353 -0.002582343
0001f0 35 87 63 ba d2 23 9f 3b e5 61 90 bb 69 ef e8 ba
       -0.000867951 0.004856565 -0.004406201 -0.0017771545

network_body._body_endoder.seq_layers.2.weight f4 [128, 128]
000000 2b db 88 bc 59 ee ea bd 2e 97 27 be 21 a1 f9 3c
       -0.01670607 -0.114712425 -0.16366264 0.03047234
000010 32 0e 66 3c 15 1f ba bd bf da c5 bd 72 23 5d 3d
       0.01404147 -0.0908796 -0.09660863 0.05398888
000020 14 f9 a7 bd 1c 92 f8 3c 19 6e 69 bd 2e af 67 bc
       -0.08201805 0.030343108 -0.056989763 -0.014140887
000030 db fb 12 3e b9 30 0b bd f0 6d b6 bd 1f 16 b9 bd
       0.14353888 -0.033982012 -0.08907688 -0.090374224
000040 69 b4 37 bc cc 89 fa bd 6f 52 95 3d 97 c3 16 3b
       -0.011212447 -0.12233314 0.072911136 0.0023004764
000050 38 01 3c 3e 70 49 04 3e 5f 81 af 3c b1 15 d6 3d
       0.1835984 0.12918639 0.021423994 0.10453356
000060 dc d9 dd 3d 92 ac b0 bd 1f 20 b1 bd db e4 0b be
       0.10832569 -0.08626665 -0.08648705 -0.1366152
000070 04 f2 c3 bc 05 80 05 3e 61 13 4f 3d 88 c9 f5 bc
       -0.023919113 0.13037117 0.05055559 -0.030003324
000080 0f 99 19 be 13 62 a0 bd e0 a6 c7 bd 0f d2 ea bd
       -0.14999793 -0.07831206 -0.09748626 -0.11465847
000090 f7 5b ac 3b a9 0a 85 bc e1 17 81 3d 88 79 19 3e
       0.0052599865 -0.016240435 0.06303383 0.14987767
0000a0 4d f7 55 3d 72 f7 89 3d 73 57 a3 bc 78 1a 4a 3d
       0.052237798 0.067366496 -0.01993916 0.04934165
0000b0 d1 c4 d3 3b 58 e4 b6 ba fc 98 a0 3c c7 50 6b 3d
       0.0064626713 -0.001395355 0.019604199 0.057450082
0000c0 a1 4e 5c 3b 31 7d f1 bd df bb 1a 3c 1e 30 95 3b
       0.0033616202 -0.117914565 0.009444206 0.004552855
0000d0 b5 b8 9d 3c ec f6 d3 bc 67 18 26 3e e7 ac 74 be
       0.019253114 -0.025874577 0.16220246 -0.23894082
0000e0 b0 9a f8 3d 15 d0 b5 bd 76 fc 12 3d 13 7c fb bc
       0.12138879 -0.08877579 0.035885297 -0.030698812
0000f0 70 0d dc 3c 4e d3 18 be 9a 9b 76 bd 32 0f 53 bd
       0.026861876 -0.14924356 -0.060206987 -0.051528163
000100 9f c8 b5 3b 9b aa 00 bd 2f 89 9b bd d0 80 60 3d
       0.0055475975 -0.031412702 -0.07594525 0.054810345
000110 8c 66 08 3e 8c 06 5e 3c c6 b7 51 3d 3e 9e b1 bd
       0.13320369 0.013551366 0.05120065 -0.086727604
000120 c8 a1 41 3e 16 d2 f7 bd 26 72 2f 3e 78 78 d5 3d
       0.18909371 -0.121006176 0.17133388 0.10423368
000130 d3 f1 06 3e d0 bb 08 be 95 3a 1a 3e 6e 5f ea 3d
       0.13178186 -0.13352895 0.1506141 0.11443983
000140 7e 3c 50 3e b9 af b7 bd 98 43 b8 bd 77 f8 d7 bc
       0.20335576 -0.08969063 -0.089972675 -0.026363594
000150 72 24 fa 3c 0c bd 24 be 69 bd 10 3e b5 b5 ec bd
       0.030534957 -0.1608774 0.14134754 -0.11558095
000160 99 3a 11 be 89 b1 65 be a9 11 4d bd 44 89 40 3d
       -0.1418251 -0.22431006 -0.05006567 0.047005907
000170 45 b6 e7 bc 25 b5 d8 bc 9f b7 89 3c 22 87 3a be
       -0.028285155 -0.026453564 0.01681119 -0.18215612
000180 d9 93 9c 3d 6b ce 09 3c 8c e5 1c 3d df 7d d7 3d
       0.07645387 0.00841103 0.03830485 0.10522055
000190 e1 67 8c bd f3 a7 c9 3d c0 af 1e bd af 61 bd 3d
       -0.06855751 0.09846487 -0.038741827 0.09247147
0001a0 cf c7 93 bd b8 a5 c6 3c 00 a9 d2 3d e5 b9 66 3d
       -0.07215845 0.024248943 0.102861404 0.056329627
0001b0 c9 c2 ce 3c 00 ba b3 bb b2 0d 27 be ea 49 4e 3e
       0.025239365 -0.0054848194 -0.16313818 0.20145383
0001c0 f5 d4 9b bd 4f 2f a6 bd 65 b1 90 bd 87 b4 94 bb
       -0.07608978 -0.08114492 -0.07065085 -0.004538122
0001d0 90 63 2b 3a 4b 9f 29 3d 56 30 ad bd f1 ac af bb
       0.00065379683 0.04141168 -0.08456485 -0.0053611924
0001e0 cb 03 60 3c 52 3d f4 3c 25 06 63 3d ab e6 f8 3b
       0.013672779 0.029814396 0.05542578 0.007595857
0001f0 82 19 90 bd 55 dc 8b 3d 3c 3e af 3c b1 51 bd bd
       -0.07036115 0.068291344 0.02139198 -0.09244097
000200 ce 67 b8 3d ef db 9d ba 94 bd 01 be df 2f 78 3d
       0.09004174 -0.0012043695 -0.12669975 0.06059253
000210 a7 92 bc 3d 3c d6 41 3d 98 54 26 3e f6 7a 36 3e
       0.09207659 0.04732345 0.16243207 0.17820343
000220 e6 3f 1e be 56 22 cd 3d 75 ce 05 be 99 4e 3c 3e
       -0.15454063 0.10016315 -0.13067038 0.18389358
000230 eb e2 7a 3d d9 da 25 3e 15 22 6d bd 90 c5 a7 bd
       0.061251562 0.16196765 -0.05789383 -0.08191979
000240 17 64 0b bc 8f 87 45 3d 50 9a 8e 3d cb 97 28 bc
       -0.00850775 0.048224982 0.069630265 -0.0102900965
000250 7a 26 80 bc 1b c7 3a bd 0b 7d 34 3c a0 72 3e be
       -0.015643347 -0.045600038 0.011016141 -0.18598413
000260 14 5c ae 3c 99 a4 7f 3d a8 b4 21 3e 18 5c be bd
       0.02128414 0.062412832 0.15791571 -0.09294909
000270 67 2d ea 3d 0d e9 1e be 9e cf e4 3b 02 e7 9b bd
       0.11434441 -0.1551859 0.0069827577 -0.076124206
000280 67 ee 16 bd c3 b0 d7 bd 1d 96 8c 3c 30 ee 0d bd
       -0.036848452 -0.105317615 0.017161423 -0.03465098
000290 b2 c5 a7 3d a4 b9 32 bc 1c 11 b5 3d 08 1b 68 bc
       0.08192004 -0.010908518 0.08841154 -0.014166601
0002a0 88 05 10 bd 42 60 bf 3d 00 86 a8 3d c8 73 61 bd
       -0.035161525 0.093445316 0.082286835 -0.05504206
0002b0 63 3c 44 bd 89 d8 20 3d b6 33 ab bd f9 91 ce 3c
       -0.04790915 0.039269004 -0.083594725 0.02521609
0002c0 08 92 d5 bc 5e d3 25 be 58 c2 6a 3e fa 1e 0c 3d
       -0.02607061 -0.16193911 0.22925699 0.03420923
0002d0 c0 4f 42 bc 56 d9 6a 3c 3d eb ae 3d d3 b4 42 bd
       -0.011859834 0.0143340435 0.08540962 -0.04753573
0002e0 28 8b 04 be d8 a2 de 3d c5 3c 86 3d 04 04 75 3d
       -0.12943709 0.10870904 0.065545596 0.059818283
0002f0 c8 02 51 bd 9e 83 12 3e 61 0d b0 bd dd 08 e6 bd
       -0.051028043 0.1430802 -0.08596302 -0.11232159
000300 24 cc 42 bd 5d de c3 3d b0 f6 0b bd ca 3a 84 bd
       -0.047557965 0.09563897 -0.034170806 -0.064565256
000310 46 f8 95 3d d2 af bb bc 13 a5 4c bd 12 68 55 3d
       0.07322745 -0.022910986 -0.049962115 0.052101202
000320 ae 86 be 3c 41 9e 89 3d 4c 1f 78 3d a2 fe 80 3e
       0.02325758 0.06719638 0.060576722 0.2519427
000330 c7 8e ad bd 5f 75 09 3d 3b ed 05 3e 20 01 07 be
       -0.08474498 0.0335592 0.13078777 -0.13184023
000340 a7 0d 73 3d 96 e0 22 3e 20 c2 b7 bb e9 22 dc bd
       0.05933919 0.15905985 -0.0056078583 -0.10748846
000350 e3 0c 83 bb d4 b2 e0 bc 35 cc 07 3e 5f a8 01 bb
       -0.003999339 -0.027429022 0.13261493 -0.0019784195
000360 8b 0b de bc 33 11 a2 bd 44 61 8b bd 2d fe f7 3d
       -0.027105113 -0.07913437 -0.06805661 0.12109027
000370 61 1a 04 3e 67 89 e4 bd 9c 2c 39 3e 01 a9 58 3c
       0.12900688 -0.1115902 0.18083423 0.013223887
000380 27 46 6b bc 68 52 3e be 85 ec 95 3d eb 3c ca bc
       -0.014359987 -0.18586123 0.07320503 -0.024687251
000390 b8 96 91 3d fd 31 c9 bd 69 a9 a4 bc 0c a3 b6 bc
       0.071088254 -0.09823988 -0.020100312 -0.022294544
0003a0 d4 82 86 3d a6 5d 00 3d 70 3f 93 bb 32 62 59 3d
       0.06567922 0.03133931 -0.0044936463 0.053072162
0003b0 d9 c7 6a bc 39 10 23 be 46 bf 6b 3d 5c f0 d2 3b
       -0.014329874 -0.15924157 0.05755546 0.0064373445
0003c0 e5 96 4c 3e de e8 2a 3d 89 06 20 be 4e 54 2f 3d
       0.19979437 0.041725986 -0.15627493 0.04280501
0003d0 98 ef 89 bd 43 9a 48 3d 68 40 16 3e 64 5e bb bd
       -0.06735152 0.04897524 0.14673007 -0.09148863
0003e0 bf 80 92 3b e7 d0 3c bd e7 49 73 3c fa 16 bc 3d
       0.004470914 -0.046097662 0.014849163 0.0918407
0003f0 a6 e1 b4 bc d6 9c c8 3c 5f 76 13 be f1 b7 f1 3d
       -0.022080254 0.024488848 -0.14400624 0.11802662

network_body._body_endoder.seq_layers.2.bias f4 [128]
000000 c2 8b a5 3a 26 72 40 ba 41 a2 db 3a 7b 89 90 3a
       0.0012630152 -0.0007341228 0.001675673 0.00110273
000010 56 d2 33 39 25 17 db 3b 27 22 3e bb 8d 1a 2d bb
       0.00017149127 0.0066861087 -0.0029012056 -0.002641353
000020 bf 3f 72 3b 46 86 bc ba 92 50 f0 ba fc 13 58 3b
       0.0036964265 -0.0014383278 -0.0018334559 0.0032970896
000030 31 e2 d2 bb d8 c1 31 3b f3 1a 8c ba 8b d7 3a bb
       -0.0064356555 0.0027123597 -0.0010689184 -0.0028509821
000040 e1 18 ec ba 2b 53 69 bb c3 2a 25 b9 f3 a4 f0 3a
       -0.0018012786 -0.003560255 -0.00015751556 0.0018359706
000050 16 16 e3 ba 70 02 9f 3a e3 66 84 39 5f ea a9 ba
       -0.0017325308 0.0012131464 0.00025253659 -0.0012963525
000060 2c 8a 61 bb 03 19 6f 3b 25 44 1d bb e5 7f 92 bb
       -0.0034414632 0.0036483414 -0.0023996916 -0.0044708126
000070 e7 48 2a ba a3 98 6c ba 6e 0c dc ba 58 d4 55 3a
       -0.00064958486 -0.000902543 -0.0016788372 0.0008156947
000080 fb a8 bc 3a 6d 2d c7 ba 72 6b a9 3b e3 fb 0c bb
       0.0014393622 -0.0015196033 0.005170279 -0.002151244
000090 11 37 ab 3b d3 3d 11 3a 35 6a c7 ba fe 10 a6 39
       0.0052250703 0.00055405236 -0.0015214147 0.00031674647
0000a0 ff b9 8f ba be c7 48 bb 4b d7 63 3b bf f2 c7 ba
       -0.0010965465 -0.0030636634 0.0034765776 -0.0015254839
0000b0 9f 08 23 b9 ec 0a eb ba 60 61 6f ba d9 42 cf 39
       -0.00015548103 -0.0017932332 -0.00091316365 0.00039531922
0000c0 63 8d a2 3a 27 06 15 3a 4b d1 3a 3c 27 2b 92 bb
       0.0012401756 0.00056848157 0.011402438 -0.0044607106
0000d0 84 8b cb ba 29 54 bd bb 7c f8 10 3a 55 48 ea b9
       -0.001552925 -0.005777855 0.0005530191 -0.0004468585
0000e0 b1 03 7b 3b 73 25 8a bb 78 3f cc 3a 62 42 77 bb
       0.003830176 -0.00421589 0.001558288 -0.0037728776
0000f0 f5 46 96 3a fc 3f e9 bb 5c 20 52 3b 21 1b 99 bb
       0.0011465239 -0.0071182232 0.0032062745 -0.0046724235
000100 0a 8f 43 bb e0 b1 d4 3a 36 b9 2f bb 74 f4 0c bb
       -0.0029839897 0.0016227327 -0.0026813275 -0.002150801
000110 3e 6d 15 bb c3 e8 02 bb 3a c2 ea ba bd bd 9d bb
       -0.002280071 -0.0019975163 -0.0017910667 -0.0048138783
000120 d7 2e a2 bb ec a3 ed ba 5b ce 7c bb 34 ef 85 b9
       -0.0049494314 -0.0018130518 -0.0038575146 -0.00025545957
000130 8a 65 0d bb de 4d b3 ba 2f 98 82 3b e0 b7 a8 ba
       -0.0021575415 -0.0013679822 0.003985427 -0.0012872182
000140 dd 70 83 3a 42 20 b7 3a d0 66 81 ba cf 16 46 37
       0.0010028143 0.0013971406 -0.000987256 1.180703e-05
000150 54 51 85 3b 21 8d b8 ba ad d8 3c 3b de 22 45 bb
       0.004068533 -0.0014080146 0.0028815672 -0.0030080597
000160 11 23 f1 b9 be e9 ee ba 53 bd c5 3b 6c 36 ee 3b
       -0.0004599323 -0.001822762 0.006034532 0.007269671
000170 42 f6 dc 3a a7 6b 66 ba 9e a0 d4 bb f0 cc af 3b
       0.0016858059 -0.0008789845 -0.0064888736 0.0053650066
000180 c2 0d 9f 3b 68 12 72 3b 82 42 0c bb 16 d5 b7 bb
       0.004853935 0.003693724 -0.0021401946 -0.0056101186
000190 2a 73 69 bb ff 5b ce bb ef 26 8b 3a d6 6f c1 bb
       -0.0035621622 -0.006297588 0.0010616462 -0.0059032245
0001a0 6a 84 09 ba 74 48 eb ba 68 9a 83 3b c3 f9 94 b9
       -0.00052458665 -0.001795067 0.0040162094 -0.00028414847
0001b0 cc 10 fb b9 a0 5a 65 ba d5 96 c0 39 b2 eb 1e 3a
       -0.00047886965 -0.0008749161 0.00036733472 0.0006062343
0001c0 a3 cb aa ba 20 f3 f8 b9 ff c1 14 bb 4b 89 c5 b9
       -0.0013030659 -0.00047483388 -0.0022698638 -0.0003767706
0001d0 39 7f 0e bb f0 0f 28 3b d7 f0 b2 39 b2 66 c7 3a
       -0.002174331 0.0025644265 0.00034130245 0.0015213101
0001e0 61 17 95 3b cb a1 0e ba 48 c5 fb b9 4b 8d 79 3a
       0.004549906 -0.0005440979 -0.00048021437 0.00095196505
0001f0 63 48 b2 3a 7c 04 a2 b9 17 76 a6 3b 80 46 6c bb
       0.0013601895 -0.0003090239 0.0050799954 -0.0036052763

action_model._continuous_distribution.log_sigma f4 [1, 2]
000000 81 a0 8e ba 83 77 09 3c
       -0.0010881574 0.00839031

action_model._continuous_distribution.mu.weight f4 [2, 128]
000000 b4 1d 04 bd 39 2f 94 3c 27 57 d3 bc e6 4c c3 bb
       -0.03225489 0.018088924 -0.025798393 -0.0059600947
000010 46 b2 8f bc 8d d0 ad bb 24 2f 2b 3b 92 16 94 3b
       -0.017541062 -0.005304402 0.0026120627 0.004519292
000020 65 96 25 3d 61 81 d1 bb e6 a1 85 3c a7 99 32 3c
       0.04042663 -0.006393597 0.01631255 0.010900891
000030 c8 a0 57 bc 6b 1b ae bb c1 59 09 3d fe ba 20 3c
       -0.013160892 -0.005313327 0.03353286 0.009810207
000040 9f 42 17 bc fb 21 07 3c f0 b3 d7 ba c1 00 5e bc
       -0.009232192 0.008247848 -0.0016456824 -0.013549984
000050 d5 cf 81 3c 85 6d 29 bb ff a1 05 3c 1d 3c 00 3c
       0.015846172 -0.0025852632 0.008156299 0.007826832
000060 ec d2 46 bc 79 ed 66 bc 9c c8 e9 3b b6 40 6c 3c
       -0.012135249 -0.014094704 0.00713451 0.014419725
000070 8a f9 00 bd e2 bc 8c 3b 1e 14 56 3c f0 08 26 3a
       -0.03148798 0.0042949775 0.01306632 0.0006333729
000080 c5 f0 ab 3b f5 89 06 bc 3c 16 2c 3c 53 4c ea 3b
       0.005247208 -0.008211602 0.010503348 0.007150212
000090 83 bf 87 3c d0 1b c3 bc e8 c0 f9 bb 9b f8 c4 3c
       0.016570812 -0.023816973 -0.007621873 0.024044326
0000a0 b8 7a 92 bb 25 1a 14 bb b6 3d 03 bc f8 e4 8d bc
       -0.0044701956 -0.0022598591 -0.0080103185 -0.017321095
0000b0 4e 3d ec 3c 9f 1b 32 bb ec e1 ad 3c e4 c9 b6 3c
       0.028837826 -0.0027177108 0.021225892 0.022313066
0000c0 d4 27 ee bc 4f e4 41 3c f4 60 04 3d cb 37 e3 3b
       -0.029071726 0.011834218 0.032319024 0.0069341413
0000d0 fd d9 46 3c 7f f4 93 3c 8e 51 f5 3c 01 ac 47 bc
       0.012136933 0.01806092 0.029946115 -0.012187005
0000e0 00 80 e9 bb 89 b4 b2 3b ad 28 12 bc 55 c7 bf 3c
       -0.0071258545 0.0054536504 -0.008920831 0.023410479
0000f0 3c 92 22 3b b6 1c 58 3c fa 7c 4e bc 4a b3 b3 3c
       0.00248064 0.013190439 -0.012603039 0.021936078
000100 94 36 8c 3b d8 56 09 bd b6 08 11 3c 9d 04 b6 bc
       0.004278967 -0.033530086 0.0088521745 -0.022218997
000110 85 65 11 3c 5b c3 55 3c a7 9a 10 3c 03 81 00 bc
       0.008874302 0.013047065 0.0088259345 -0.007843259
000120 3f 74 bb bb 44 71 15 bd c8 e0 ab 3b f9 55 7e bc
       -0.0057206447 -0.03648497 0.005245302 -0.015523427
000130 77 e2 97 3b cb 17 0f 3c bc 66 52 bc 42 32 8b bc
       0.004635151 0.0087337 -0.012841877 -0.016991738
000140 4b 38 e0 b8 4b d4 97 ba 12 0d 68 bb b9 b3 f7 bc
       -0.00010691638 -0.0011583654 -0.003540818 -0.030237066
000150 d6 d3 10 bd fc 49 0d bc 46 eb 32 3c dc b3 62 3c
       -0.035358272 -0.008623596 0.010920351 0.013836827
000160 75 7e af bb 97 78 9a bc 1b 47 84 3c 2d cd a1 bc
       -0.005355651 -0.01885633 0.016147187 -0.019751156
000170 10 cf eb 3c 8b 0a 9f bc ae be 93 bc 8a 7e c1 3c
       0.028785259 -0.019414207 -0.01803526 0.023619909
000180 ab 7f dc bb a5 10 69 bc 49 8c ca 3b 66 08 ba b9
       -0.0067290864 -0.01422516 0.006181274 -0.00035482942
000190 2d 5e b9 3c 0b 35 8a bc a3 cf 00 bd ef 04 12 bd
       0.022627914 -0.016870996 -0.031448018 -0.035649236
0001a0 9c 98 09 bc 5f 28 21 3d de 90 d4 bb 93 e1 30 bc
       -0.008398201 0.03934514 -0.006486996 -0.010795969
0001b0 b6 97 10 ba 49 21 80 3b 5f 7e 4b bb 3b e9 53 bc
       -0.0005515771 0.003910218 -0.0031050665 -0.012934024
0001c0 d2 64 94 bc 7e 48 a8 bb 33 3f 9d bb e8 17 4a bb
       -0.018114481 -0.005135595 -0.0047987937 -0.0030837003
0001d0 04 b9 82 3c 6f d0 02 3b 7f 7a 70 3c f5 80 a4 bc
       0.015957363 0.0019960662 0.014677643 -0.020081023
0001e0 6d 21 99 3c 07 41 a7 3a 69 4a 4e bc 84 9b 8a 3c
       0.018692696 0.0012760469 -0.012590983 0.016919859
0001f0 8c 0b 15 3c d1 7e a4 bc 5c a4 2e bc 40 df 91 3b
       0.009096991 -0.020080002 -0.0106593035 0.0044516623
000200 c9 9e 94 bc 4d e5 b0 3b 0b 12 9a 3c 9c bf d0 3c
       -0.01814212 0.0053984285 0.018807432 0.025481991
000210 8c 6b a7 bc 89 4b 97 bc 65 b4 54 ba bf d0 03 bc
       -0.020437025 -0.018468635 -0.0008114039 -0.008045374
000220 4f 75 ac 3c b0 12 85 3c e3 5f b7 3b 39 fc 82 3c
       0.02105203 0.016244262 0.0055961474 0.01598941
000230 6d a0 d9 3b c2 8f fd 3b cb ea 27 bc b7 09 8b bb
       0.0066414387 0.0077380845 -0.01024885 -0.0042431015
000240 cf c5 de bb b4 9a 91 bc 5d 9b 16 bc 0a d9 f1 ba
       -0.006798483 -0.017773964 -0.009192315 -0.0018451524
000250 38 9c 62 bb 45 1f 02 3c b9 87 ee 3b ee d6 64 bc
       -0.0034577977 0.007942026 0.007279363 -0.013967259
000260 c5 e8 69 bc e6 01 c0 3c 3c 13 d8 bb 76 89 8c 3c
       -0.014276688 0.023438405 -0.00659409 0.01715539
000270 2e 17 36 bc 98 97 b0 bc bd ec 54 bc 94 59 a7 3b
       -0.011113925 -0.02155666 -0.012995896 0.005107114
000280 56 ad e5 3c 9e 17 14 bc b9 ce 53 bc b4 b3 ae bc
       0.028036755 -0.009038834 -0.0129277045 -0.021325924
000290 32 ec 0a bc 1e e2 04 bc 96 70 1d bd 27 87 72 3c
       -0.008479165 -0.008110551 -0.03843745 0.014802731
0002a0 03 a7 e5 bc d9 19 7c 3b a6 02 15 bd 24 4c 81 3a
       -0.028033739 0.0038467555 -0.03637948 0.0009864611
0002b0 00 2b a7 3b 1a ff 18 bc d3 5e ab 3c 07 c0 fa bb
       0.0051015615 -0.009338165 0.02091924 -0.007652286
0002c0 1d 56 77 bc 44 f7 14 3c db b4 bb bc 00 54 eb bc
       -0.015096215 0.009092156 -0.022913387 -0.028726578
0002d0 c4 d6 e5 ba 8b 89 19 bc 34 3e 6f 3c cb b0 e8 bc
       -0.0017535319 -0.009371172 0.014602233 -0.028404614
0002e0 fe e1 fc 3c f5 e7 25 bb 9f ba c8 3b 62 c5 49 bc
       0.03086948 -0.002531526 0.0061257626 -0.012315126
0002f0 ab 52 26 3c b7 6f 4b bc a9 cb 4d 3c 27 2e 3d bc
       0.0101515455 -0.012416772 0.012560763 -0.011546648
000300 9e c5 82 ba 36 49 18 bc 7a 0a f9 bb 51 bb e9 bc
       -0.0009977107 -0.009294799 -0.007600126 -0.028531702
000310 9e c9 22 bc 62 e0 b8 bc 98 a3 17 ba 98 1b 9f 3b
       -0.009935765 -0.022567932 -0.000578457 0.0048555844
000320 ec 59 5f 3c 98 b3 c0 bb c9 5a 9d 3c 8d 9d 91 3a
       0.013632279 -0.0058807842 0.019208329 0.0011109576
000330 31 ac d3 bc 48 30 e2 bc 99 e8 2a 3c 21 60 83 bc
       -0.025838943 -0.027610913 0.010431432 -0.016037049
000340 8c 8c 55 3c aa 52 ca 3a da ff 82 bc c7 41 be bc
       0.013033997 0.0015436013 -0.01599114 -0.023224724
000350 ca fa ad bc 85 c9 d2 bc 5d 76 30 bc f7 ad ba 3b
       -0.02123775 -0.025730858 -0.0107704075 0.0056970078
000360 44 f0 8a bc 5f 0f c4 b9 6d 73 2b bd f5 1b 03 bd
       -0.01696027 -0.00037395486 -0.041858125 -0.032009084
000370 fa 92 f3 3c 03 d0 74 3c 35 e0 75 3c e4 a9 94 bc
       0.02973317 0.014942172 0.015007068 -0.018147416
000380 b6 e9 5f 3c 64 30 8a 3b 9a 63 70 bc 02 a0 c0 3c
       0.013666561 0.0042171944 -0.014672184 0.023513798
000390 bd ae a8 bb ce b6 07 3b 6e 23 b7 bc 1b dc d0 3a
       -0.0051477836 0.0020708325 -0.022355761 0.0015934737
0003a0 ba a7 37 bb 0f b4 9c 3c a3 8f 2d 3c 56 3e b3 bb
       -0.0028023557 0.019128827 0.010593328 -0.0054700775
0003b0 d2 4d bb bc 4a 5c 40 bb 44 b6 5b bb 49 a8 d6 3b
       -0.022864256 -0.0029351884 -0.0033525387 0.006550823
0003c0 9a c4 bd bc 87 3e d8 3a b5 d4 cd bc 4e f3 89 bb
       -0.023165036 0.0016498127 -0.02512584 -0.0042099124
0003d0 34 71 07 3c c7 b5 2d bc 74 7e 24 bb 39 c7 77 3b
       0.008266736 -0.010602421 -0.0025099786 0.0037807955
0003e0 79 b3 6a bb 54 f0 ef 3b f0 13 7f bb 57 67 46 3c
       -0.003581254 0.0073223505 -0.0038921796 0.012109599
0003f0 47 6f a2 3c b0 ac 86 bb c1 ba a9 bc c5 39 72 3c
       0.019828452 -0.0041099414 -0.020718934 0.014784281

action_model._continuous_distribution.mu.bias f4 [2]
000000 09 9c 1a ba 09 2a c8 3a
       -0.0005897885 0.0015271317

exp_avg f4 [128, 6]
000000 cd b4 83 b6 3a b4 c0 34 8f 16 a5 35 34 00 f3 35
       -3.925152e-06 3.589392e-07 1.2300023e-06 1.810497e-06
000010 00 85 c0 34 85 b9 8d 36 a0 36 53 b7 59 73 c3 37
       3.5859557e-07 4.2237248e-06 -1.2589298e-05 2.3299524e-05
000020 30 41 bb b8 cb 13 50 3a f4 40 c3 37 46 52 ce 39
       -8.928997e-05 0.00079375197 2.3276058e-05 0.0003935268
000030 ca 95 08 38 8a 9e ac 37 70 14 d1 38 f0 6e 92 39
       3.256443e-05 2.0577823e-05 9.9697034e-05 0.00027929945
000040 cc 72 ac 37 e4 8c 3f 3a f3 f6 97 b9 b8 92 63 b7
       2.0557454e-05 0.0007307066 -0.00028984956 -1.3564415e-05
000050 7e b2 5a b9 71 5f 49 39 81 5b 63 b7 d8 8a 4f ba
       -0.00020856594 0.00019204408 -1.3551559e-05 -0.00079171127
000060 09 f4 e1 38 29 e5 df b6 a0 7a a2 b8 7d 95 3f 39
       0.00010774291 -6.6725956e-06 -7.747603e-05 0.00018270868
000070 d6 ae df b6 a0 1d 40 b9 34 ed 12 b7 bc c9 b5 35
       -6.6662715e-06 -0.00018321583 -8.757506e-06 1.3544263e-06
000080 20 c2 14 b7 cd ad 5a 36 5f 9b b5 35 d8 ef f2 37
       -8.866686e-06 3.2585697e-06 1.353077e-06 2.8960334e-05
000090 6d 68 5b 38 ee 0b a0 b5 7d d2 21 b8 69 f2 10 b8
       5.2310923e-05 -1.1924401e-06 -3.8581424e-05 -3.4558037e-05
0000a0 36 e1 9f b5 61 63 0b b9 91 1e a6 35 6d ab 26 b4
       -1.1911968e-06 -0.00013293095 1.237686e-06 -1.5522319e-07
0000b0 03 3b 35 36 7b 71 f0 34 38 80 26 b4 39 7c 55 b6
       2.700545e-06 4.4786051e-07 -1.55066e-07 -3.181178e-06
0000c0 1c 62 34 b7 94 b5 a8 b5 51 71 56 37 92 87 c6 b6
       -1.0751679e-05 -1.2569822e-06 1.27817775e-05 -5.9166423e-06
0000d0 0d 83 a8 b5 7f be a3 b7 ab 70 1e b9 70 e5 31 37
       -1.2555116e-06 -1.951982e-05 -0.00015110026 1.0603442e-05
0000e0 f7 ca 89 b7 d8 21 00 39 d5 b7 31 37 a5 5a 6b 39
       -1.6426186e-05 0.00012219639 1.0592824e-05 0.00022445114
0000f0 77 45 10 39 8e f6 06 b5 59 21 b7 b6 2c 75 5b b9
       0.00013758788 -5.0277674e-07 -5.457707e-06 -0.00020929117
000100 f8 b9 06 b5 b5 0a dd b7 ea a7 a2 b8 d2 43 51 b7
       -5.018951e-07 -2.6350239e-05 -7.7560384e-05 -1.2473161e-05
000110 ce 9e 0b 37 31 7c e1 b9 3c 0d 51 b7 3e 46 b3 b9
       8.32202e-06 -0.00043007874 -1.2460452e-05 -0.00034193875
000120 40 63 0f b9 65 c0 27 b8 25 0c e4 b9 f2 bd b7 39
       -0.00013674516 -3.9995084e-05 -0.00043496597 0.00035046
000130 8b 96 27 b8 2d 5b d5 ba 57 9e 90 b4 a8 92 89 b4
       -3.9956107e-05 -0.0016277783 -2.6937298e-07 -2.5624945e-07
000140 0b 98 6f b4 d1 42 a5 b6 59 6f 89 b4 e0 1d f5 b6
       -2.2313922e-07 -4.9251616e-06 -2.5599255e-07 -7.305047e-06
000150 18 b9 4f b6 c1 aa 89 b7 64 db 31 b9 b8 81 8b 38
       -3.0953142e-06 -1.6411186e-05 -0.00016961765 6.6521985e-05
000160 89 88 89 b7 63 31 36 ba 11 aa 14 39 f9 30 84 37
       -1.6395252e-05 -0.0006950108 0.00014177735 1.575843e-05
000170 86 bb 84 39 7c 3c 3d b9 81 10 84 37 7e ec 63 3a
       0.00025316718 -0.00018046977 1.5743311e-05 0.0008694603
000180 a5 7d 3e b8 bb 0b be 35 3c e7 44 36 a6 a6 ea b7
       -4.5416546e-05 1.4159517e-06 2.9340872e-06 -2.7972575e-05
000190 39 d9 bd 35 af 22 46 38 db fc 07 38 d1 12 8b 36
       1.4144817e-06 4.723918e-05 3.2422e-05 4.1447133e-06
0001a0 d0 73 56 b7 4f 88 1f b8 20 f1 8a 36 bd 21 3f 39
       -1.2782359e-05 -3.80355e-05 4.140791e-06 0.00018227748
0001b0 65 ca 1a b9 d2 b0 93 b7 32 1d 1a b9 eb c5 0d 38
       -0.00014761982 -1.7606104e-05 -0.0001469746 3.3801345e-05
0001c0 0e 8d 93 b7 6a 11 15 ba 68 af 85 b9 88 33 41 b7
       -1.758945e-05 -0.0005686494 -0.00025498425 -1.15156945e-05
0001d0 89 45 de 36 d9 8c cc b8 6c 02 41 b7 b3 75 bd b9
       6.6242105e-06 -9.753713e-05 -1.150426e-05 -0.00036136582
0001e0 25 1f cc b8 9d f6 b2 36 66 22 23 37 ef 25 f2 38
       -9.733279e-05 5.333523e-06 9.723566e-06 0.00011546525
0001f0 0e cc b2 36 dc 22 15 39 77 d7 a7 b6 68 d4 84 b7
       5.3285685e-06 0.00014222733 -5.0020712e-06 -1.5834536e-05
000200 96 2e a3 b8 fb 87 c3 b9 ac b2 84 b7 20 d7 0f ba
       -7.781123e-05 -0.00037294612 -1.5818827e-05 -0.0005487073
000210 18 cf e9 37 32 96 34 36 03 1a 42 b6 0a dd 1d b8
       2.78722e-05 2.6909515e-06 -2.8923394e-06 -3.7637576e-05
000220 b1 6a 34 36 f9 2a c8 38 47 5e 42 35 f5 17 67 b2
       2.6884193e-06 9.5447474e-05 7.2407823e-07 -1.3451417e-08
000230 39 50 79 35 89 5f bc b3 e7 ce 66 b2 67 e3 c2 b4
       9.287647e-07 -8.77181e-08 -1.3434806e-08 -3.6300773e-07
000240 02 bb 49 37 57 f2 99 b6 c8 0f 0e b7 58 ef c0 b8
       1.2024075e-05 -4.5879674e-06 -8.467534e-06 -9.199855e-05
000250 ef c9 99 b6 a2 52 b1 b8 82 da 81 b7 b2 65 d5 b7
       -4.5832635e-06 -8.455409e-05 -1.5479749e-05 -2.5438934e-05
000260 d3 2e 02 ba c9 3b a0 38 76 30 d5 b7 49 d9 8c ba
       -0.0004966084 7.6405304e-05 -2.5414145e-05 -0.0010745908
000270 21 93 16 b6 55 00 ae b4 2b c4 6e b6 62 6a 03 b7
       -2.2437382e-06 -3.2410267e-07 -3.5578948e-06 -7.832978e-06
000280 25 d4 ad b4 90 53 0e b7 5d 92 93 39 69 37 ec 37
       -3.2378117e-07 -8.4833155e-06 0.00028147074 2.8159195e-05
000290 c6 5f ca 39 a2 b5 c5 b9 ca fd eb 37 b6 76 b7 3a
       0.000385998 -0.00037710095 2.8132363e-05 0.0013997171
0002a0 5e 14 2f b8 2e 2c 92 34 7c f4 b9 b8 69 e2 f9 b8
       -4.174222e-05 2.7226764e-07 -8.867026e-05 -0.000119154174
0002b0 58 41 92 34 ca 27 45 b7 13 c5 cb 38 04 b2 24 38
       2.7242163e-07 -1.1751379e-05 9.716502e-05 3.9266437e-05
0002c0 07 4b 6d 39 d2 f2 96 b9 36 89 24 38 b9 5d b2 3a
       0.00022630031 -0.00028791145 3.9228435e-05 0.0013608254
0002d0 e4 ac f6 37 41 0a 0a 35 f3 f1 4a 37 f6 b2 0c b8
       2.9405994e-05 5.142393e-07 1.2096471e-05 -3.354527e-05
0002e0 44 ed 09 35 29 36 14 38 b6 19 8e 36 21 18 64 b6
       5.1381744e-07 3.533639e-05 4.234923e-06 -3.3988692e-06
0002f0 b4 f7 61 b8 92 98 03 b9 78 d5 63 b6 39 60 a9 b8
       -5.387487e-05 -0.0001254997 -3.394989e-06 -8.076471e-05
000300 f4 92 ba 39 c9 f5 1e 38 09 73 23 3a dc fa 02 ba
       0.00035586173 3.789904e-05 0.0006235098 -0.00049964874
000310 43 cf 1e 38 e3 2d ec 3a 15 19 92 38 33 23 a8 b4
       3.7863163e-05 0.0018019046 6.9664944e-05 -3.131805e-07
000320 52 00 8c b8 72 80 6f 39 9f 02 a8 b4 b8 3f 01 b9
       -6.67578e-05 0.00022840666 -3.1294346e-07 -0.00012326136
000330 7f 99 cb 35 73 fc f2 b4 9a a8 20 35 54 dd 2a b7
       1.5169352e-06 -4.5259694e-07 5.984999e-07 -1.0184322e-05
000340 fb bd f2 b4 a7 76 48 b7 ee 24 14 b9 a3 79 33 37
       -4.5214242e-07 -1.1948555e-05 -0.00014128137 1.0697552e-05
000350 e8 fa 2e b9 d2 fe 0a 3a a5 48 33 37 d5 18 dc b8
       -0.00016687403 0.00053022534 1.0686145e-05 -0.00010495043
000360 e6 63 16 b4 3d e1 9b b2 2a c0 39 b5 2d 9f 3f b4
       -1.4006181e-07 -1.8146801e-08 -6.9197506e-07 -1.7846169e-07
000370 ee be 9b b2 34 82 4c b5 7c 45 ca 38 9a e1 81 b7
       -1.81312e-08 -7.618539e-07 9.645053e-05 -1.5483052e-05
000380 e4 b8 03 38 fa a0 25 b9 4a c0 81 b7 a6 5c ef b9
       3.1405027e-05 -0.00015795595 -1.546754e-05 -0.0004565466
000390 0f 58 9a 38 e6 ab 34 36 07 f5 71 38 91 37 28 38
       7.3596944e-05 2.6922148e-06 5.7687077e-05 4.010607e-05
0003a0 5e 82 34 36 fb c9 c0 38 ab c9 cb b4 eb 01 a7 b2
       2.6897974e-06 9.192895e-05 -3.795843e-07 -1.9442231e-08
0003b0 8e 1f c2 32 be 13 38 33 83 d7 a6 b2 8e 91 29 b5
       2.2598922e-08 4.2858794e-08 -1.9422947e-08 -6.3169216e-07
0003c0 1c f2 fe b8 38 e6 a1 37 52 9d 2a 39 06 92 71 39
       -0.0001215676 1.92999e-05 0.0001627107 0.00023037949
0003d0 91 bb a1 37 f6 07 40 3a cc ca b8 b8 b2 5f 47 b7
       1.9280038e-05 0.0007325405 -8.8115776e-05 -1.1883605e-05
0003e0 12 64 5a b8 39 d2 16 b9 94 2d 47 b7 18 55 65 b9
       -5.2068448e-05 -0.00014383429 -1.1871936e-05 -0.00021870842
0003f0 cd c1 29 ba f7 39 31 b7 a1 a7 49 b9 7a a6 d3 39
       -0.0006475717 -1.0563518e-05 -0.000192313 0.0004036909

exp_avg_sq f4 [128, 6]
000000 fd f9 84 30 9e 8f 72 2c e0 29 21 2d 92 d4 9e 2f
       9.675315e-10 3.4469992e-12 9.1610886e-12 2.8891073e-10
000010 13 14 72 2c cc 35 6e 31 ba 3b 16 34 1f b8 67 31
       3.4401412e-12 3.4664138e-09 1.3991567e-07 3.3719585e-09
000020 a1 f3 df 33 48 83 cf 34 cc 41 67 31 ad 15 ae 36
       1.04285625e-07 3.8652274e-07 3.3652325e-09 5.1881275e-06
000030 39 31 10 32 30 ca 4c 2f 0e 98 ff 31 18 5d d4 32
       8.393095e-09 1.8625523e-10 7.4387634e-09 2.4722382e-08
000040 5d 61 4c 2f 6e fc 94 34 67 99 a0 34 0f f0 83 31
       1.8588282e-10 2.7750815e-07 2.9913937e-07 3.8398933e-09
000050 58 eb 14 34 cf bb a9 34 be ac 83 31 37 5c c1 36
       1.3869192e-07 3.1615352e-07 3.8322403e-09 5.7625834e-06
000060 18 d4 21 33 4a 54 c0 2f 60 8f 2e 32 28 c3 b4 32
       3.767863e-08 3.4984488e-10 1.0160733e-08 2.1043505e-08
000070 01 f2 bf 2f c2 7c 11 35 78 fc 28 2f 11 d9 f2 2b
       3.4914652e-10 5.4198256e-07 1.5369206e-10 1.7255382e-12
000080 06 3e 29 2e 87 5d ea 2e 6f 5c f2 2b 23 a0 0f 31
       3.848124e-11 1.0657702e-10 1.722079e-12 2.0900266e-09
000090 51 37 68 32 44 98 cb 2e bf 74 b7 30 a4 6c a4 31
       1.3516755e-08 9.258419e-11 1.3348184e-09 4.785379e-09
0000a0 05 30 cb 2e d5 5e 19 34 b8 17 d1 2d 56 e6 0a 2a
       9.239901e-11 1.4283735e-07 2.3771082e-11 1.2336776e-13
0000b0 62 61 97 2c f8 33 0e 2d 64 9f 0a 2a 74 7e 0f 2f
       4.30249e-12 8.083305e-12 1.2312162e-13 1.30507e-10
0000c0 30 7f 00 31 74 6c c3 2c 34 8b af 30 06 80 df 2f
       1.869875e-09 5.554274e-12 1.277249e-09 4.065443e-10
0000d0 b1 09 c3 2c d9 f6 e0 31 1a 9e 72 32 00 4b 95 2f
       5.5433093e-12 6.5473214e-09 1.4122202e-08 2.7156233e-10
0000e0 06 ea ae 30 79 d8 27 34 c0 fe 94 2f 4e 2a aa 34
       1.272668e-09 1.563184e-07 2.7102054e-10 3.1695748e-07
0000f0 82 1e a9 33 75 af 24 30 fd ad c1 32 76 1a e1 33
       7.875225e-08 5.991219e-10 2.2547278e-08 1.0482192e-07
000100 8a 5b 24 30 ce 28 6f 35 9f 4a 1b 33 38 34 86 30
       5.979294e-10 8.9093817e-07 3.6156617e-08 9.764625e-10
000110 ac ef 53 33 af 38 7d 34 d6 ef 85 30 c2 d5 c8 35
       4.9345246e-08 2.3583083e-07 9.745189e-10 1.4963373e-06
000120 c9 f9 95 34 b8 4d 13 31 23 0e fb 33 c1 99 79 34
       2.7935155e-07 2.1435493e-09 1.169067e-07 2.3245867e-07
000130 be 02 13 31 da 76 55 36 62 10 c8 2b 91 12 e4 28
       2.1392874e-09 3.1808654e-06 1.4215402e-12 2.5321137e-14
000140 7f 04 65 2a 8a b0 4f 2d 10 9e e3 28 a4 31 bc 2d
       2.0340846e-13 1.1805787e-11 2.5270611e-14 2.139517e-11
000150 82 65 0e 33 21 94 8e 2f 9a 46 a6 32 a6 5e 12 32
       3.3154272e-08 2.5934901e-10 1.935705e-08 8.519839e-09
000160 8e 4b 8e 2f 0f 8e ce 34 a4 0c d9 33 06 bb 80 30
       2.5883334e-10 3.847385e-07 1.0107149e-07 9.366381e-10
000170 c3 e5 2d 33 54 03 94 33 64 79 80 30 79 1a bc 35
       4.048867e-08 6.8923924e-08 9.347727e-10 1.4014796e-06
000180 13 b8 56 30 7c da c5 2c d9 72 6d 2f c8 83 cb 2f
       7.811433e-10 5.6233334e-12 2.1595827e-10 3.701912e-10
000190 38 75 c5 2c 19 a0 10 32 55 78 f8 31 7f 51 a6 2e
       5.6120907e-12 8.418305e-09 7.23143e-09 7.5632826e-11
0001a0 a8 92 65 31 b2 77 9b 32 8f fc a5 2e d8 2b d2 33
       3.340725e-09 1.8098806e-08 7.548195e-11 9.786862e-08
0001b0 d6 af 64 33 8e c7 76 2f fe 75 f1 32 3c 6c 22 32
       5.324531e-08 2.2444466e-10 2.810975e-08 9.454251e-09
0001c0 48 4a 76 2f 1c 88 ab 34 ad 19 1b 33 38 2b 90 2e
       2.239996e-10 3.1950265e-07 3.61121e-08 6.556039e-11
0001d0 12 7b 5b 30 20 e4 29 32 bd e1 8f 2e a4 48 87 33
       7.984663e-10 9.888964e-09 6.542986e-11 6.2996406e-08
0001e0 a2 e3 95 33 42 e8 17 30 ee 18 89 32 db 6e f2 33
       6.979759e-08 5.526354e-10 1.5960236e-08 1.1289168e-07
0001f0 19 9b 17 30 be 26 58 35 68 0a 6d 32 33 47 f1 2e
       5.5153887e-10 8.052265e-07 1.3797582e-08 1.0972059e-10
000200 06 2a ce 30 71 da 36 33 c3 cc f0 2e 44 7c 26 34
       1.5000416e-09 4.257385e-08 1.09503094e-10 1.5505162e-07
000210 80 bc 8b 31 20 16 bb 2d 6a 2a 4a 31 45 d6 5c 31
       4.0668624e-09 2.1269264e-11 2.9418978e-09 3.2136012e-09
000220 c1 b7 ba 2d 38 de fb 32 36 72 a9 2b e7 77 f1 27
       2.1227355e-11 2.93213e-08 1.2039872e-12 6.7020936e-15
000230 33 1c 76 2a 02 ed e0 2a 25 fd f0 27 d9 5d d3 2c
       2.1858973e-13 3.995485e-13 6.688784e-15 6.0074e-12
000240 f1 68 df 31 eb f0 06 2f d0 75 99 2f 45 fb f7 32
       6.5020846e-09 1.227282e-10 2.791425e-10 2.8868849e-08
000250 3f ac 06 2f 8a 82 44 34 aa 4a 58 33 96 69 67 30
       1.2248423e-10 1.8301412e-07 5.0359326e-08 8.4187357e-10
000260 99 97 d4 33 22 43 d0 33 ac f3 66 30 1a 57 99 35
       9.899595e-08 9.697966e-08 8.401979e-10 1.1424738e-06
000270 e2 e4 6f 2e 1c 3c 2b 2a 25 23 08 2c 3e ac ca 2e
       5.4545597e-11 1.5208706e-13 1.9346272e-12 9.216493e-11
000280 07 f0 2a 2a 89 93 0e 2f ee 23 bd 34 61 43 a5 31
       1.518231e-13 1.296724e-10 3.5230136e-07 4.809792e-09
000290 3a 6f 44 34 de 9b da 34 15 ef a4 31 fd 38 f0 36
       1.8294386e-07 4.0719073e-07 4.8002087e-09 7.1591917e-06
0002a0 85 8f 89 32 c2 4e b4 2e d5 6b 36 32 46 63 11 33
       1.6014164e-08 8.1994425e-11 1.06183125e-08 3.3850732e-08
0002b0 99 f3 b3 2e 3c aa c4 33 0c 78 68 34 d8 41 30 31
       8.183249e-11 9.157927e-08 2.1650357e-07 2.5648799e-09
0002c0 d0 32 f9 33 d5 e3 1e 34 eb e7 2f 31 69 7f 83 36
       1.1604209e-07 1.4797781e-07 2.5597682e-09 3.9189367e-06
0002d0 80 a2 26 32 c5 19 a7 2d 33 86 42 31 cb e6 2f 31
       9.69942e-09 1.8997146e-11 2.8307e-09 2.5597042e-09
0002e0 36 c4 a6 2d b1 a6 b5 32 51 f4 bf 30 b9 5e ab 2d
       1.895915e-11 2.1146976e-08 1.3966518e-09 1.9482515e-11
0002f0 fc 6b 38 31 b3 e8 e0 31 e8 06 ab 2d f3 1a ac 32
       2.6836906e-09 6.545713e-09 1.9443516e-11 2.003569e-08
000300 ff 4b 35 35 04 00 14 32 07 48 b3 34 42 2c 50 35
       6.7538343e-07 8.614737e-09 3.3393755e-07 7.755044e-07
000310 a7 b4 13 32 4a f0 54 37 f4 59 11 33 fe 2b 10 30
       8.597602e-09 1.2692131e-05 3.3842255e-08 5.244941e-10
000320 5c 5b bf 32 f5 65 3e 33 4e e2 0f 30 1c 7e 53 35
       2.2276872e-08 4.433055e-08 5.2344695e-10 7.878714e-07
000330 44 06 ad 2c a1 5e 95 29 27 5c e0 2b ce da aa 2d
       4.9176514e-12 6.633345e-14 1.5941735e-12 1.9423931e-11
000340 07 12 95 29 e3 01 87 2e 79 04 4f 34 19 c3 5a 31
       6.6200565e-14 6.1394244e-11 1.9280004e-07 3.1834075e-09
000350 5a 3c f1 33 65 c7 bf 34 8d 53 5a 31 f1 68 9d 36
       1.1233415e-07 3.57216e-07 3.1770668e-09 4.6911814e-06
000360 28 fd 14 2c 82 d9 d9 27 fd 45 92 2b 14 24 85 2a
       2.1172595e-12 6.046542e-15 1.039335e-12 2.365058e-13
000370 e4 6a d9 27 3e e5 b1 2c f6 74 ff 31 77 1f eb 2e
       6.034549e-15 5.0560936e-12 7.4347737e-09 1.0692152e-10
000380 ef b8 42 2f 10 43 da 32 54 a7 ea 2e da b9 19 34
       1.7709899e-10 2.5409037e-08 1.06708115e-10 1.4316848e-07
000390 18 5e 1f 32 25 6d af 2d eb 51 db 31 00 be 6d 31
       9.2764125e-09 1.9943667e-11 6.383052e-09 3.4596042e-09
0003a0 68 15 af 2d 9b 00 a6 32 47 bf 79 2a 99 5a 05 26
       1.9904703e-11 1.9325219e-08 2.2182005e-13 4.6266427e-16
0003b0 32 b5 67 26 93 da 06 29 bb 17 05 26 bf 97 d9 2a
       8.038979e-16 2.994356e-14 4.6175805e-16 3.8652238e-13
0003c0 9e dd dc 33 3c 02 92 30 1e a3 29 33 dc cc 18 34
       1.028486e-07 1.0623533e-09 3.9496733e-08 1.423063e-07
0003d0 96 b7 91 30 73 ed cd 35 9b 49 51 33 d1 ab a1 2f
       1.0602317e-09 1.5342797e-06 4.872855e-08 2.9407812e-10
0003e0 ba 07 92 32 83 85 37 33 cb 59 a1 2f 86 78 e3 34
       1.700015e-08 4.2729436e-08 2.934953e-10 4.2369737e-07
0003f0 36 78 9a 35 48 e9 26 32 20 7e 08 34 87 61 8e 35
       1.150888e-06 9.715514e-09 1.2711871e-07 1.0608209e-06

exp_avg f4 [128]
000000 03 85 40 35 f4 40 43 38 cb 72 2c 38 81 5b e3 b7
       7.171913e-07 4.6552115e-05 4.1114905e-05 -2.7103119e-05
000010 d2 ae 5f b7 60 9b 35 36 38 e1 1f b6 35 80 a6 b4
       -1.3332539e-05 2.7061542e-06 -2.382394e-06 -3.1013192e-07
000020 0d 83 28 b6 d5 b7 b1 37 99 b9 86 b5 3c 0d d1 b7
       -2.5110232e-06 2.1185648e-05 -1.0037794e-06 -2.4920904e-05
000030 8c 96 a7 b8 58 6f 09 b5 8a 88 09 b8 7f 10 04 38
       -7.991222e-05 -5.1198504e-07 -3.2790507e-05 3.1486616e-05
000040 37 d9 3d 36 23 f1 0a 37 0e 8d 13 b8 72 02 c1 b7
       2.828963e-06 8.281585e-06 -3.51789e-05 -2.3008532e-05
000050 0b cc 32 37 ac b2 04 b8 b6 6a b4 36 f3 ce e6 b2
       1.0657134e-05 -3.1637654e-05 5.376841e-06 -2.6869634e-08
000060 ea c9 19 b7 7a 30 55 b8 2a d4 2d b5 c9 fd 6b 38
       -9.166522e-06 -5.0828305e-05 -6.475626e-07 5.6264722e-05
000070 88 41 12 35 39 89 a4 38 49 ed 89 35 6b d5 e3 b6
       5.44846e-07 7.845689e-05 1.0276354e-06 -6.7899723e-06
000080 3f cf 9e 38 7f 02 28 b5 f7 bd 72 b5 a1 48 b3 37
       7.57263e-05 -6.258851e-07 -9.042846e-07 2.1372283e-05
000090 f3 be 1b b3 47 c0 01 b8 5f 82 b4 36 83 d7 26 b3
       -3.6262417e-08 -3.093507e-05 5.379595e-06 -3.8845894e-08
0000a0 8d bb 21 38 95 2d c7 b7 69 12 b1 b7 91 ec 15 b7
       3.856006e-05 -2.3743874e-05 -2.1108617e-05 -8.936172e-06
0000b0 2b 7a 6d 38 65 9f e2 b6 f6 e7 8a b8 25 33 8d 37
       5.661898e-05 -6.753881e-06 -6.623559e-05 1.6832326e-05
0000c0 80 7c 15 b5 e3 c5 c1 37 63 1c d7 b7 7c 5e 95 33
       -5.5687997e-07 2.3099541e-05 -2.5643216e-05 6.95554e-08
0000d0 ec f0 f2 b7 27 ec b9 b2 ee e1 9a 37 eb d4 08 37
       -2.8960836e-05 -2.1644224e-08 1.8463437e-05 8.1558055e-06
0000e0 20 ad 8b 34 8b 9c ea b6 f3 28 81 b6 24 7a 6b 38
       2.6016733e-07 -6.9919674e-06 -3.8492667e-06 5.614212e-05
0000f0 ab 06 1a 38 80 27 9e 37 9c 0f 5b b8 4a b4 d7 b7
       3.672267e-05 1.8853461e-05 -5.2228206e-05 -2.571395e-05
000100 04 1b aa b7 ba 54 01 b8 53 88 17 38 0c 9e e2 37
       -2.027816e-05 -3.0834904e-05 3.6128167e-05 2.7014896e-05
000110 20 1c 65 38 89 0d ff b7 d5 6b 8b b6 6e b5 44 b7
       5.4624048e-05 -3.0404672e-05 -4.155076e-06 -1.1724753e-05
000120 4b 07 29 37 55 48 2c b7 7e 06 32 b8 6e 86 14 38
       1.0074883e-05 -1.026884e-05 -4.2444553e-05 3.5411147e-05
000130 c8 0c 1b b7 0c b4 22 36 8c 6f ba 34 fa 9a 04 38
       -9.241696e-06 2.4244682e-06 3.472636e-07 3.1615586e-05
000140 7c 64 51 35 b2 6f 51 b5 30 ef 61 b4 2a 85 83 b8
       7.800479e-07 -7.8021105e-07 -2.1041774e-07 -6.2713705e-05
000150 8d 07 7d 38 68 ef ec 36 85 79 5d b7 06 42 51 36
       6.0326933e-05 7.0612186e-06 -1.320092e-05 3.1181858e-06
000160 3f c9 56 b7 a7 32 34 b5 4e e9 68 b6 49 bb 84 b8
       -1.280225e-05 -6.7128934e-07 -3.4706495e-06 -6.329135e-05
000170 b3 24 9a 38 22 e1 2c 35 9f 5f 78 36 83 be aa b4
       7.350128e-05 6.4402604e-07 3.7010539e-06 -3.1803583e-07
000180 08 13 ef 35 e6 b8 86 b8 8f c2 80 b6 5a d1 6b 37
       1.7812426e-06 -6.424058e-05 -3.837347e-06 1.4055835e-05
000190 f7 0b 38 35 3e b5 13 b1 e6 73 e0 b4 9d 3d 59 b8
       6.856275e-07 -2.149434e-09 -4.1807579e-07 -5.1794214e-05
0001a0 19 36 e6 b7 6b ee e4 b5 32 1e 4e b4 ca e5 03 b1
       -2.7443328e-05 -1.7056713e-06 -1.919623e-07 -1.919363e-09
0001b0 ee 79 d6 ae 80 51 1c 37 45 bb 88 34 23 36 27 32
       -9.7532524e-11 9.3173e-06 2.546823e-07 9.732989e-09
0001c0 b8 f0 b9 b7 e3 25 91 36 ed d7 07 b7 38 10 dd 36
       -2.2165812e-05 4.3257473e-06 -8.096901e-06 6.5882014e-06
0001d0 cb 29 6c 33 b7 60 63 b3 a7 ab a8 37 08 bf 33 b7
       5.4986042e-08 -5.2940518e-08 2.0107092e-05 -1.0713709e-05
0001e0 35 63 c2 b7 86 13 63 38 27 d0 42 38 49 aa 8f b6
       -2.3172799e-05 5.41392e-05 4.644706e-05 -4.281556e-06
0001f0 d1 15 0d b8 59 24 30 37 04 c3 50 37 09 86 5a 38
       -3.3637338e-05 1.049888e-05 1.2443172e-05 5.210008e-05
