MLAgentsProject/results/MoveToGoal3/MoveToGoal/MoveToGoal-343516.onnx (onnx, 72461 bytes, 7 tensors)

action_model._continuous_distribution.log_sigma f4 [1, 2]
0.03285606 -0.0072602704
00000000: 1394 063d 90e7 edbb

action_model._continuous_distribution.mu.bias f4 [2]
-0.0052584354 0.0035716023
00000000: f44e acbb 8b11 6a3b

action_model._continuous_distribution.mu.weight f4 [2, 128]
0.02396019 -0.012138568 -0.0022295443 -0.045563772 -0.01388825 -0.030419597 -0.044974983 0.024123184
0.005263054 -0.015326989 -0.017376248 -0.0004865994 -0.0018568884 -0.025861247 0.047167834 -0.021505205
0.029026065 0.076150656 -0.02987502 0.008838122 -0.024695931 -0.013210049 -0.005844549 0.0047423453
-0.007040816 -0.015410762 0.016182754 0.0072743623 -0.005249599 -0.024715692 -0.0497312 0.01331522
-0.010779592 -0.006730963 0.031804375 -0.022220105 -0.013559371 0.025928281 -0.04063177 0.03749762
0.034233168 -0.01514444 -0.012494836 0.0042811832 -0.021725392 0.00582404 -0.027473874 -0.006885328
0.030979069 0.025294468 0.027462559 -0.011189089 -0.017654816 -0.012831499 -0.006494794 0.023122113
-0.029414445 -0.025444748 -0.0077129635 -0.028216645 -0.0042741317 0.015900709 0.011301675 0.019114282
0.0059374156 -0.022084868 0.020460812 -0.028571054 -0.03520067 -0.015535988 -0.046126492 -0.011835744
-0.021418238 -0.016574917 0.0052860104 0.010049072 -0.012628203 0.03364236 0.01983856 0.010909435
0.024314463 0.013572081 -0.004943791 -0.022453273 0.018285856 0.0042434083 0.026988637 0.031323962
-0.033890862 -0.019091919 0.009614988 -0.024295228 0.02506262 0.024931818 0.003548612 0.037083667
-0.009813219 -0.027330691 -0.021289192 0.008067979 0.009951309 0.017254338 -0.029102767 0.0018187737
-0.019340258 -0.0010161903 0.016144235 -0.0072650244 0.028065536 -0.0146897 0.0048550484 0.00035218077
-0.0064632893 0.00726753 -0.019189615 0.028659081 0.05254692 -0.009189015 0.021344416 0.015857035
0.057095498 -0.07781305 -0.04834947 0.031755425 0.019020066 0.05212574 0.02401282 0.010878347
0.045703903 0.021970484 0.008873588 -0.05336534 -0.035507116 -0.030414695 -0.018467009 0.00090548635
0.015835062 0.010348629 -0.0062859347 -0.004694882 0.028470041 -0.009616632 0.029150896 0.021533234
-0.0038836263 0.031006865 0.0053734523 0.025279175 0.008031621 0.009664805 -0.027665095 -0.041373834
-0.015786024 -0.02284366 -0.04847512 -0.001255514 0.018009393 -0.04319623 0.00021438175 -0.007866143
0.009749076 -0.030929668 0.0004904679 -0.034848258 -0.013399491 -0.0011053546 0.0085836155 -0.04560917
-0.037972122 0.0034625751 0.05540413 -0.023943309 -0.028982691 -0.025848879 0.023602856 0.017987534
-0.04857136 -0.03690799 -0.0014756655 0.009658519 0.028002027 0.02253018 -0.0012707191 -0.016741013
-0.03497897 -0.0013843415 0.030217208 -0.016295524 -0.0063846167 0.0011003445 0.018158836 -0.008703013
0.009633504 0.01901051 0.02251309 -0.0072192727 -0.002299322 -0.049573015 0.022846162 0.013611868
-0.020555694 -0.0013388752 0.016612424 -0.00854246 0.010283508 -0.010747671 -0.026279218 -0.010575588
-0.037021246 0.022323415 -0.030024316 -0.019504225 0.0036730377 -0.03166465 -0.019670172 0.0032846355
-0.015753936 -0.019561915 -0.0152818 -0.022123659 -0.033605583 -0.012667182 0.0012657559 -0.017583186
-0.04183813 0.0068945843 0.00827842 0.009637074 -0.0056083747 -0.0014219916 0.032324128 0.035722133
0.01567114 -0.023786593 -0.012506801 -0.0122188935 0.01066964 0.0051780515 -0.004467235 -0.01584566
-0.060569048 -0.00014534338 -0.017274197 -0.019223863 -0.045670398 0.015487958 0.017009493 0.03201195
-0.014812977 0.005299323 -0.035774942 0.0402145 0.008550364 0.006267559 -0.030562662 0.03855393
00000000: 2948 c43c d8e0 46bc 8c1d 12bb 14a1 3abd
00000010: 8b8b 63bc 8532 f9bc b037 38bd fc9d c53c
00000020: b275 ac3b 0d1e 7bbc a258 8ebc 441e ffb9
00000030: d662 f3ba f7da d3bc 0f33 413d af2b b0bc
00000040: 12c8 ed3c e0f4 9b3d 75bc f4bc c5cd 103c
00000050: 1f4f cabc f66e 58bc a183 bfbb ad65 9b3b
00000060: a5b6 e6bb 6c7d 7cbc b291 843c c65d ee3b
00000070: d404 acbb 9078 cabc f1b2 4bbd 1528 5a3c
00000080: e39c 30bc 698f dcbb 4e45 023d f006 b6bc
00000090: 2028 5ebc 8c67 d43c 806d 26bd 1b97 193d
000000a0: 1438 0c3d 6320 78bc 24b7 4cbc 2b49 8c3b
000000b0: 73f9 b1bc 97d7 be3b e410 e1bc 519e e1bb
000000c0: d1c7 fd3c 5836 cf3c 29f9 e03c 7152 37bc
000000d0: d5a0 90bc 353b 52bc 48d2 d4bb 966a bd3c
000000e0: 90f6 f0bc 8171 d0bc 07bd fcbb 9826 e7bc
000000f0: 040e 8cbb 3442 823c a92a 393c 8e95 9c3c
00000100: a78e c23b 53eb b4bc 6f9d a73c d80d eabc
00000110: 942e 10bd a88a 7ebc 22ef 3cbd b5ea 41bc
00000120: 4d75 afbc 1fc8 87bc 4536 ad3b dda4 243c
00000130: 86e6 4ebc 92cc 093d 7a84 a23c 7dbd 323c
00000140: 202f c73c 6f5d 5e3c 86ff a1bb edef b7bc
00000150: 38cc 953c 4a0c 8b3b 4617 dd3c 8e4d 003d
00000160: 25d1 0abd a866 9cbc 2f88 1d3c c906 c7bc
00000170: 2050 cd3c d03d cc3c d48f 683b 0be5 173d
00000180: a0c7 20bc 9de4 dfbc ac66 aebc 8e2f 043c
00000190: d10a 233c f858 8d3c ed68 eebc eb63 ee3a
000001a0: 766f 9ebc b031 85ba ea40 843c 710f eebb
000001b0: b2e9 e53c 11ad 70bc 1917 9f3b e7a4 b839
000001c0: 00ca d3bb 7624 ee3b 8a33 9dbc 73c6 ea3c
000001d0: 703b 573d 868d 16bc 7cda ae3c 9de6 813c
000001e0: f8dc 693d 735c 9fbd 180a 46bd fa11 023d
000001f0: f8cf 9b3c cd81 553d 89b6 c43c 183b 323c
00000200: 0434 3b3d 72fb b33c 8762 113c 9d95 5abd
00000210: e96f 11bd 3d28 f9bc 2048 97bc 295e 6d3a
00000220: 88b8 813c 4c8d 293c 3efa cdbb 86d7 99bb
00000230: 013a e93c 148f 1dbc dccd ee3c 7766 b03c
00000240: 7084 7ebb 1c02 fe3c c913 b03b 4616 cf3c
00000250: 0f97 033c 2159 1e3c e9a1 e2bc 9c77 29bd
00000260: b151 81bc a122 bbbc d98d 46bd 0f90 a4ba
00000270: 6f88 933c 88ee 30bd aacb 6039 ffe0 00bc
00000280: 97ba 1f3c 3760 fdbc be92 003a 0cbd 0ebd
00000290: 8a89 5bbc 8ce1 90ba 4ba2 0c3c aed0 3abd
000002a0: a888 1bbd 5fec 623b 71ef 623d c224 c4bc
000002b0: 1c6d edbc 07c1 d3bc c75a c13c 985a 933c
000002c0: c3f2 46bd d52c 17bd 1e6b c1ba c43e 1e3c
000002d0: 8264 e53c 3691 b83c 428e a6ba 7324 89bc
000002e0: 1c46 0fbd cb72 b5ba 148a f73c 317e 85bc
000002f0: 0c36 d1bb 6f39 903a d7c1 943c 1597 0ebc
00000300: d8d5 1d3c eebb 9b3c 5f6d b83c a68f ecbb
00000310: 39b0 16bb 130d 4bbd e027 bb3c 5004 5f3c
00000320: 6a64 a8bc 327d afba c716 883c adf5 0bbc
00000330: 297c 283c 0017 30bc 8447 d7bc 3b45 2dbc
00000340: 97a3 17bd 98df b63c 8ef5 f5bc 53c7 9fbc
00000350: 59b7 703b cbb2 01bd 5723 a1bc 0a43 573b
00000360: 660e 81bc 4f40 a0bc 8460 7abc ad3c b5bc
00000370: 02a6 09bd 038a 4fbc b8e7 a53a 9d0a 90bc
00000380: 765e 2bbd f7eb e13b 36a2 073c d1e4 1d3c
00000390: 75c6 b7bb 1f62 baba 4e66 043d 5f51 123d
000003a0: c360 803c 1adc c2bc 53e9 4cbc c131 48bc
000003b0: b7cf 2e3c a5ac a93b e261 92bb c2ce 81bc
000003c0: 4017 78bd 5167 18b9 9e82 8dbc 5d7b 9dbc
000003d0: e210 3bbd 34c1 7d3c 7e57 8b3c f61e 033d
000003e0: 21b2 72bc f1a5 ad3b bf88 12bd f6b7 243d
000003f0: d316 0c3c 1860 cd3b 8c5e fabc baea 1d3d

network_body._body_endoder.seq_layers.0.bias f4 [128]
0.0041807014 -0.009848514 0.0036004514 0.009624857 -0.007980269 0.002550035 0.001399403 0.0060725645
0.014432222 -0.02324304 -0.0010552487 0.041743822 0.0018834261 -0.015513637 0.014714607 -0.004807602
0.014096894 0.02208559 0.005281719 0.00078485743 0.0128224185 0.0019897807 0.008222888 -0.001363386
0.010395611 0.01089333 -0.000866344 -0.0047904877 -0.006222383 -0.0010725306 0.028563216 -0.0013300037
-0.005750207 0.0071159387 0.009060334 0.0024668272 9.5730116e-05 -0.0013254305 0.011310188 -0.009620086
-0.0049246782 -0.013042306 0.01379972 -0.009760432 0.0032083653 0.027821103 0.01847723 -0.012204388
0.018780796 -0.01640061 0.0046027466 0.03437491 -0.00096947246 0.000618245 -0.005746057 -0.010885428
-0.001489859 -0.009118479 0.009270652 -0.007847348 -0.010235006 -0.009639232 -0.00087477616 0.0033473994
0.0013747925 0.0030115237 -0.0009533628 0.0010475154 0.00027195804 0.005324333 -0.0008823109 0.0026726292
0.015016843 0.02816741 0.0011901114 -0.00039646516 -0.00718022 0.0035059091 -0.0010017687 -0.0004639204
-4.9887865e-05 0.016265271 0.008736648 0.018093128 -0.0035025342 0.026947895 -0.0034073624 -0.0026830607
0.008840239 -0.009820144 0.002650274 0.010169108 0.005112745 -0.0018441143 0.0074335495 0.0012551966
0.002911675 0.008642481 -0.014271223 -0.0065240692 0.00012256553 -0.0114307385 0.0037411132 -0.006503598
-0.0032650654 0.0040495247 0.001793414 -0.0059555406 -0.012678093 -0.0009050383 -0.004231997 -0.0008184878
-0.0036053378 -0.009728239 -0.0011981673 0.0023837131 0.005047716 0.0066245086 -0.0057697557 0.0024982
-0.005028906 0.003428643 0.0011750739 0.0029863343 -0.0052563064 -0.0032521961 0.006851932 -0.0051243887
00000000: 44fe 883b a95b 21bc 8df5 6b3b 94b1 1d3c
00000010: adbf 02bc 7d1e 273b 2c6c b73a 5dfc c63b
00000020: 2075 6c3c 3068 bebc 4550 8aba 92fb 2a3d
00000030: 4bdd f63a e92c 7ebc 8915 713c 1789 9dbb
00000040: a9f6 663c d7ec b43c 4512 ad3b e4be 4d3a
00000050: 1f15 523c fb66 023b 4bb9 063c a5b3 b2ba
00000060: 5a52 2a3c f079 323c 5d1b 63ba 86f9 9cbb
00000070: 22e5 cbbb 2894 8cba 68fd e93c 8553 aeba
00000080: 3c6c bcbb d22c e93b cc71 143c 7eaa 213b
00000090: b7c2 c838 11ba adba 5e4e 393c 919d 1dbc
000000a0: 325f a1bb 65af 55bc 3918 623c 38ea 1fbc
000000b0: 7043 523b 15e9 e33c 8f5d 973c eaf4 47bc
000000c0: 2fda 993c 925a 86bc a3d2 963b b5cc 0c3d
000000d0: 3224 7eba b811 223a 6b49 bcbb cb58 32bc
000000e0: 5f47 c3ba ac65 15bc efe3 173c 2a92 00bc
000000f0: bab0 27bc dfed 1dbc 3c51 65ba 0b60 5b3b
00000100: 6232 b43a fc5c 453b 18eb 79ba c94c 893a
00000110: 9795 8e39 be77 ae3b e24a 67ba 4727 2f3b
00000120: 3409 763c 57bf e63c 83fd 9b3a a7dc cfb9
00000130: 0d48 ebbb 65c3 653b c84d 83ba 583a f3b9
00000140: b03e 51b8 bf3e 853c 2824 0f3c 0a38 943c
00000150: c68a 65bb d5c1 dc3c 0e4e 5fbb 4ad6 2fbb
00000160: a6d6 103c abe4 20bc 38b0 2d3b 559c 263c
00000170: d088 a73b 35b6 f1ba 2295 f33b 6985 a43a
00000180: cdd1 3e3b 3199 0d3c d9d1 69bc dcc7 d5bb
00000190: ef84 0039 fe47 3bbc 772d 753b 221c d5bb
000001a0: b5fa 55bb e0b1 843b fd10 eb3a b226 c3bb
000001b0: c7b7 4fbc 1840 6dba 90ac 8abb c98f 56ba
000001c0: 8847 6cbb 3163 1fbc d30b 9dba 1238 1c3b
000001d0: 5067 a53b 6812 d93b 3810 bdbb d7b8 233b
000001e0: 85c9 a4bb 16b3 603b f004 9a3a 60b6 433b
000001f0: 183d acbb cc22 55bb 2c86 e03b 7dea a7bb

network_body._body_endoder.seq_layers.0.weight f4 [128, 6]
0.6603443 0.5196244 -0.014143606 0.20613776 -0.37880954 0.26560542 -0.042408723 -0.8610548
0.2932332 0.6277907 0.1910148 0.47090575 -0.48107272 -0.17996028 0.142897 0.61900675
0.6450072 0.34114355 -0.4341169 0.4080161 -0.05253333 -0.16004378 0.4620983 -0.15350738
0.3066596 0.44763196 0.014550376 0.30546546 0.59245205 -0.0705268 0.05851565 -0.4752402
0.4647421 -0.08008195 -0.6727116 0.012418649 0.4386745 -0.06543312 -0.6488508 0.22362266
-0.062390935 0.96614647 0.3586291 -0.84411687 0.41301322 -0.020826994 0.21857662 -0.13670129
0.28382823 -0.24009468 -0.7555389 0.28584397 -0.22131914 0.028691202 0.13105655 0.22093864
-0.44931725 -0.1377235 0.43909544 0.18736206 -0.049056515 -0.91320074 -1.4532566 0.49029583
-0.04770914 -0.44723102 0.12264203 0.33830935 -0.10164343 -0.14374773 0.16150765 -0.10849175
0.118303105 -0.08098058 -0.17740405 -0.4097889 0.22662514 0.7745817 -0.39966008 0.42701206
0.4748262 0.24897216 0.6966026 -0.19312601 -0.29226235 -0.08426527 -0.26509306 -0.5704044
0.08411382 0.48682284 -0.4458638 0.3566923 0.8473976 -1.0914493 0.98779196 -0.21179447
-0.42439213 0.2074333 -0.23075311 0.045913365 -0.66746527 -0.37164518 -0.13902593 -0.20524767
0.01792371 -0.29515633 -0.507264 -0.33152843 0.10299771 -0.18004122 -0.13953018 0.1940477
-0.24782415 -0.4621983 -0.0382757 0.06958838 -0.53924406 0.0632107 -0.36890835 -0.45640826
-0.14221777 -0.10465601 0.17598464 -0.09790317 -0.26285958 -0.45515737 -0.15509191 0.3050273
0.09426103 -0.08853617 -0.24257778 0.18851154 0.5932319 0.20026329 0.0042808466 -0.026805665
-1.1595664 -0.10459036 0.06535834 0.33365297 -0.15649793 0.80353266 -0.36428112 -0.25848278
-0.014076979 -0.7299894 -0.6383216 -0.49204293 -0.119790636 -0.030885534 -0.9010118 -0.79970354
-0.24432977 0.11220497 -0.048539236 -0.5465931 0.25624096 0.12812318 0.08108357 -0.6373547
-0.16002685 0.18520847 0.25932467 -0.38437673 -0.19110927 0.84816456 -0.22891727 0.22895652
0.5952422 0.016289882 0.8311619 0.2600475 0.69843215 -0.5840768 -0.5394332 -0.233594
-0.034114502 0.31532916 0.17263028 0.33935165 -0.2673297 -0.31620982 0.102807246 -0.7782303
0.12222109 -0.3610625 -0.039329473 -0.7558885 -0.80470246 0.087685585 -0.3946964 0.56841946
0.43873784 -0.27414486 0.13606326 0.01672307 -0.45479977 0.44137636 -0.0054517975 0.36569712
0.10215322 -0.333121 0.14282349 -0.43457043 -0.49253 -0.57919115 0.13205925 0.307586
-0.72767526 -0.22068046 0.5436313 -0.318801 -0.16311443 0.73008436 -0.32364914 -0.36939415
-0.6486549 -0.6889418 0.34075722 0.56873655 0.4712631 0.09610006 0.3057971 0.23829353
-0.036100306 -0.30543116 0.08319262 0.5352556 -0.7414718 0.13837898 0.17988066 -0.011390499
0.19342609 0.06454464 -0.34361163 -0.05604548 0.28042495 0.6579232 0.3552529 -0.014615274
-0.28632692 -0.3483364 -0.71212745 0.20152088 -0.3527797 0.5347454 -0.043117665 0.028453836
-0.1994205 0.053940017 -0.18978257 -0.10374108 -0.75440556 0.992118 0.010832783 -0.6366237
00000000: 530c 293f 1b06 053f 95ba 67bc c715 533e
00000010: 53f3 c1be 6ffd 873e c5b4 2dbd 166e 5cbf
00000020: a922 963e e4b6 203f 6299 433e 8f1a f13e
00000030: 2a4f f6be 8247 38be 9753 123e 3a77 1e3f
00000040: 311f 253f 5eaa ae3e 9244 debe 7ce7 d03e
00000050: 302d 57bd 84e2 23be 2698 ec3e 0a31 1dbe
00000060: 7d02 9d3e 0430 e53e b364 6e3c f865 9c3e
00000070: f0aa 173f 5b70 90bd 1bae 6f3d af52 f3be
00000080: adf2 ed3e 0102 a4bd d436 2cbf 9777 4b3c
00000090: f299 e03e cd01 86bd 161b 26bf 57fd 643e
000000a0: a38d 7fbd 6055 773f 3c9e b73e 0b18 58bf
000000b0: 7876 d33e 5f9d aabc 8dd2 5f3e 6cfb 0bbe
000000c0: ef51 913e 61db 75be ff6a 41bf 245a 923e
000000d0: 7ca1 62be d009 eb3c b033 063e bd3d 623e
000000e0: e90c e6be 6407 0dbe 1ed1 e03e d7db 3f3e
000000f0: 7cef 48bd 86c7 69bf 5004 babf 0e08 fb3e
00000100: a96a 43bd 77fb e4be bf2b fb3d e236 ad3e
00000110: 6e2a d0bd 9b32 13be 4362 253e ec30 debd
00000120: e648 f23d 25d9 a5bd 68a9 35be dacf d1be
00000130: 6c10 683e fc4a 463f 3fa0 ccbe 53a1 da3e
00000140: 6b1c f33e 8ff2 7e3e 8c54 323f d3c2 45be
00000150: 69a3 95be 4593 acbd 47ba 87be 0606 12bf
00000160: de43 ac3d d840 f93e 4348 e4be 60a0 b63e
00000170: 0def 583f 9cb4 8bbf efdf 7c3f a6e0 58be
00000180: ed49 d9be 6569 543e 8b4a 6cbe a70f 3c3d
00000190: 01df 2abf 4748 bebe d05c 0ebe 722c 52be
000001a0: bfd4 923c bb1e 97be 0edc 01bf 18be a9be
000001b0: 77f0 d23d ba5c 38be 00e1 0ebe 71b4 463e
000001c0: 9dc5 7dbe 41a5 ecbe fbc6 1cbd 5a84 8e3d
000001d0: e60b 0abf 9d74 813d 8ee1 bcbe 58ae e9be
000001e0: 89a1 11be e455 d6bd 5135 343e 7581 c8bd
000001f0: 8895 86be 630a e9be 6ad0 1ebe 8a2c 9c3e
00000200: ed0b c13d 7452 b5bd 4f66 78be 2b09 413e
00000210: 0cde 173f d211 4d3e 5846 8c3b 8e97 dbbc
00000220: ac6c 94bf 7833 d6bd 98da 853d 90d4 aa3e
00000230: fe40 20be 51b4 4d3f 0e83 babe db57 84be
00000240: 21a3 66bc 96e0 3abf 0b69 23bf 0ded fbbe
00000250: cb54 f5bd a903 fdbc b6a8 66bf 5fb9 4cbf
00000260: 9531 7abe b8cb e53d 14d1 46bd 87ed 0bbf
00000270: 0432 833e b932 033e 250f a63d ad29 23bf
00000280: 14de 23be 4aa7 3d3e 34c6 843e 07cd c4be
00000290: 26b2 43be 5021 593f 4a69 6abe 9473 6a3e
000002a0: cb61 183f 5c72 853c 07c7 543f f224 853e
000002b0: 73cc 323f 0f86 15bf 4b18 0abf 4433 6fbe
000002c0: a6bb 0bbd d372 a13e fec5 303e 80bf ad3e
000002d0: 70df 88be 41e6 a1be 9b8c d23d 1a3a 47bf
000002e0: 0d4f fa3d 2fdd b8be f117 21bd e981 41bf
000002f0: fb00 4ebf 8094 b33d a615 cabe f083 113f
00000300: 3fa2 e03e b75c 8cbe 2b54 0b3e d2fe 883c
00000310: 84db e8be 15fc e13e fea4 b2bb a73c bb3e
00000320: b535 d13d d68e aabe 5240 123e 0480 debe
00000330: e42c fcbe df45 14bf 8a3a 073e ea7b 9d3e
00000340: ed48 3abf 0ffa 61be 6c2b 0b3f e239 a3be
00000350: 7807 27be cfe6 3a3f 57b5 a5be 3b21 bdbe
00000360: 3f0e 26bf 7d5e 30bf bb77 ae3e b898 113f
00000370: 6649 f13e 1cd0 c43d 7091 9c3e 3803 743e
00000380: eadd 13bd 7961 9cbe e460 aa3d 8306 093f
00000390: 19d1 3dbf 38b3 0d3e a332 383e 379f 3abc
000003a0: 7d11 463e fb2f 843d dded afbe f28f 65bd
000003b0: dc93 8f3e a86d 283f b5e3 b53e e774 6fbc
000003c0: 7199 92be 2659 b2be fc4d 36bf 7d5b 4e3e
000003d0: 8a9f b4be 13e5 083f 269c 30bd 0518 e93c
000003e0: e334 4cbe 35f0 5c3d 5d56 42be 3476 d4bd
000003f0: b920 41bf 72fb 7d3f fc7b 313c c5f9 22bf

network_body._body_endoder.seq_layers.2.bias f4 [128]
-0.00036583547 0.0041026147 -0.0013269611 0.009404248 0.010425488 0.009770287 -0.0017523693 -0.0068346807
-0.0033943239 -0.0062086834 0.0020143387 -0.0051309285 0.0020735164 -0.0040313536 0.0034097182 0.0013089967
-0.0067095393 0.009358019 0.013396387 0.0010916613 0.0058449 9.4270195e-05 -0.0015420066 0.0037126178
0.0023992674 -0.0028017005 0.016096469 -0.0033758525 0.0042139427 0.009690608 -0.005777752 -0.0035793262
-0.0058375485 0.0013945033 0.00045672618 0.0018006854 -0.0046227374 0.00012060921 0.0054211486 0.00698065
0.005937858 -0.007947598 0.004582714 -0.0033433135 0.0031313153 -0.0066232975 0.005929953 -0.0067152246
0.00034816223 -0.0038746025 -0.0043371646 0.0036503235 -0.0037774353 0.004556423 0.0009262884 -0.006399904
0.005466361 0.0047385413 0.0040908735 0.0048666187 0.00236397 -0.008262511 0.001575954 -0.0070610084
-0.0020676258 0.005722526 -0.0016485562 -0.0010801405 0.0037426392 -0.0003631008 0.00582998 0.0041920543
0.0051023634 0.005184894 0.007737327 -0.007829613 0.007470918 -0.0036368435 0.003110648 -0.006980407
-0.008081673 -0.00085034047 0.0002830442 -0.0014265148 0.0008130607 0.002943976 0.0022437118 -0.004787385
0.0010557413 -0.00027378925 -0.0056409272 0.01107556 0.0103217065 -0.0074829976 -0.004321747 0.021930749
0.008738662 0.00549342 -0.0064368853 -0.008824189 -0.004758059 -0.003822409 -0.0019917155 0.0029916714
-0.007447253 0.0010458202 -0.0072400062 -0.011928033 -0.0080888895 0.0048377723 -0.010456117 -0.0021916914
0.014688877 -0.004225801 0.0031236252 -0.002438168 0.021584503 -0.01122771 -0.0034474728 0.008975964
0.0006544728 0.016242972 0.016513094 -0.0024669014 -0.009541804 -0.0044620647 0.005830592 0.0012355736
00000000: 9bcd bfb9 3a6f 863b 6ded adba 4614 1a3c
00000010: abcf 2a3c 8e13 203c c2af e5ba 75f5 dfbb
00000020: 4e73 5ebb 3672 cbbb ff02 043b 5921 a8bb
00000030: d5e3 073b 7219 84bb 9475 5f3b a492 ab3a
00000040: b2db dbbb 6052 193c 857c 5b3c 1316 8f3a
00000050: 9386 bf3b edb2 c538 281d caba 644f 733b
00000060: 073d 1d3b bc9c 37bb bedc 833c 683d 5dbb
00000070: 1d15 8a3b 5bc5 1e3c 4c53 bdbb 2193 6abb
00000080: e848 bfbb c4c7 b63a c074 ef39 fa04 ec3a
00000090: 557a 97bb 94ef fc38 e4a3 b13b f0bd e43b
000000a0: 5d92 c23b a436 02bc 972a 963b 7e1b 5bbb
000000b0: c136 4d3b 3f08 d9bb 0d50 c23b 630b dcbb
000000c0: 8b89 b639 0bed 7dbb c61e 8ebb 443a 6f3b
000000d0: d98e 77bb 0c4e 953b 2ad2 723a 49b6 d1bb
000000e0: 291f b33b c445 9b3b bc0c 863b 2878 9f3b
000000f0: d6ec 1a3b 7c5f 07bc 3e90 ce3a 0860 e7bb
00000100: 0181 07bb 0784 bb3b 5e14 d8ba 8093 8dba
00000110: 1147 753b 905e beb9 6b09 bf3b 805d 893b
00000120: ba31 a73b 0be6 a93b 6789 fd3b c747 00bc
00000130: 9ace f43b 1c58 6ebb 03dc 4b3b e6bb e4bb
00000140: fe68 04bc 62e9 5eba 8d65 9439 e5f9 baba
00000150: 9423 553a b9ef 403b 3d0b 133b 7fdf 9cbb
00000160: cd60 8a3a 5f8b 8fb9 87d7 b8bb 4476 353c
00000170: 601c 293c ef33 f5bb 719d 8dbb 1da8 b33c
00000180: 9b2c 0f3c 2602 b43b 82ec d2bb 5593 10bc
00000190: 7ee9 9bbb 6281 7abb 7187 02bb eb0f 443b
000001a0: 1608 f4bb e713 893a 933d edbb cc6d 43bc
000001b0: 4387 04bc 2d86 9e3b 2250 2bbc 7ba2 0fbb
000001c0: 9ea9 703c 9778 8abb bcb5 4c3b acc9 1fbb
000001d0: fcd1 b03c 6ef4 37bc ffee 61bb ec0f 133c
000001e0: ed90 2b3a fb0f 853c 7846 873c bdab 21bb
000001f0: 3a55 1cbc 8336 92bb 8d0e bf3b f8f2 a13a

network_body._body_endoder.seq_layers.2.weight f4 [128, 128]
0.054241817 -0.036014203 -0.07383167 -0.09631817 -0.03181633 -0.098784216 -0.005313527 0.045069404
0.012616628 0.005310137 -0.06804924 -0.030644048 -0.120548956 0.17136899 0.065123245 0.13795961
0.05136247 -0.013217527 0.07423629 -0.079147846 -0.055600483 -0.068695635 -0.1355312 -0.050381105
0.08326362 -0.13751724 -0.058455296 -0.051044308 -0.047141254 -0.040563516 0.04855251 0.03370483
0.015935635 0.19558305 0.16616379 0.15968937 0.03986633 -0.085379824 0.047717012 0.11991294
-0.003736357 0.13686885 0.07929582 0.038102034 0.04479574 -0.033596564 0.118574284 -0.11006065
0.015025238 -0.048548024 0.082338385 0.042369608 0.006400693 0.0253977 -0.08988583 -0.02282492
-0.16328342 0.040657204 0.024524974 0.10929603 0.07579569 -0.03921514 0.0007469911 0.031300906
-0.13525489 -0.014032107 -0.07394256 -0.007311092 0.08741145 0.14640853 -0.025984988 0.06049345
0.16917108 -0.019853048 -0.100717455 -0.036051705 0.03795177 0.0041923644 0.046455815 0.023623073
-0.08984002 0.01789885 -0.0043338393 -0.09273096 -0.0067168414 0.061469723 0.049105052 -0.031314638
-0.10868927 -0.056196835 0.005993778 0.13056467 -0.100877896 -0.08612407 0.12401773 -0.09072583
-0.046051674 0.004625338 -0.034305967 -0.19117706 0.014611644 0.04352145 -0.12295146 -0.0057089673
0.0019334162 -0.0031434586 0.07531226 0.03230262 0.28567484 0.027919337 -0.0015865776 -0.19021568
0.02046048 -0.0033917264 -0.052574858 0.0039867423 -0.0100524165 -0.010700166 0.01887453 -0.17860806
-0.03020993 -0.022164745 0.0054999944 -0.17372912 -0.18663236 0.032084815 -0.10513172 0.101379886
0.013918529 0.038116127 0.0210138 -0.09079278 0.13556525 0.0045522144 -0.18842612 0.18097141
0.06657154 -0.02414398 0.008300571 -0.10682387 -0.010232931 0.10626922 0.046192467 -0.052839335
-0.20782173 -0.062147457 0.08555751 -0.052380156 0.15256643 -0.032735165 -0.0040046456 0.072474584
-0.015190314 -0.031407844 0.07689519 -0.1055744 -0.10729356 0.0259005 -0.07261132 0.23258659
-0.02917598 0.1014931 0.010048479 0.08179858 -0.13950415 -0.12784615 -0.0037209084 0.021553397
0.03632017 -0.0070905606 -0.014875134 -0.086457916 0.066805094 0.06262192 0.05019494 0.13526414
-0.09881723 0.11857526 -0.027363826 -0.056116197 -0.03935988 0.05941124 -0.027512103 0.016548136
-0.06546253 -0.030677794 0.13603331 0.031333603 0.080904946 0.08607778 -0.096022725 -0.036734443
0.13555317 -0.010044827 -0.03485849 -0.16094294 -0.0027248876 -0.091980696 0.038618125 -0.02648732
-0.091443904 0.061422504 -0.11120579 0.061530687 0.10600861 0.11832533 -0.023508541 -0.15677547
0.10078701 0.09060196 0.07537839 0.049657404 -0.16683833 -0.07262795 0.05171043 0.078514956
-0.10799172 0.008239248 0.018927604 0.13471247 -0.023484917 0.06746346 -0.07910861 0.08238472
0.08474924 0.1903461 -0.07369912 0.18413368 0.042581525 -0.06436096 -0.030523408 -0.04943166
0.010429933 -0.08525288 0.060569283 0.011496149 -0.09022021 -0.017347286 0.014108985 -0.03574042
-0.09648759 0.069629125 -0.065649584 0.11670741 -0.06642946 0.043068703 -0.0045559485 -0.10807316
0.038257975 0.08173636 -0.025263168 0.11988055 -0.046464026 0.005359989 0.032864865 0.025069514
00000000: ab2c 5e3d a183 13bd 0f35 97bd 7642 c5bd
00000010: d751 02bd 614f cabd 181d aebb b29a 383d
00000020: f9b5 4e3c a800 ae3b 665d 8bbd 3a09 fbbc
00000030: 5fe2 f6bd 5a7b 2f3e 565f 853d 4945 0d3e
00000040: 7461 523d 548e 58bc 3209 983d 4418 a2bd
00000050: 55bd 63bd 4cb0 8cbd b1c8 0abe 6b5c 4ebd
00000060: 1e86 aa3d 52d1 0cbe d26e 6fbd d613 51bd
00000070: 3017 41bd ee25 26bd ffde 463d 130e 0a3d
00000080: 738b 823c ec46 483e d726 2a3e 9c85 233e
00000090: e04a 233d 9edb aebd ea72 433d ea94 f53d
000000a0: abdd 74bb 5927 0c3e d965 a23d e110 1c3d
000000b0: bd7b 373d 8d9c 09bd 13d7 f23d 7a67 e1bd
000000c0: 6a2c 763c 4bda 46bd 07a1 a83d c18b 2d3d
000000d0: e8bc d13b d60e d03c 1016 b8bd 54fb babc
000000e0: c533 27be 2b88 263d 99e8 c83c 99d6 df3d
000000f0: c53a 9b3d 0ea0 20bd b9d1 433a 6135 003d
00000100: 4280 0abe ece6 65bc 326f 97bd e391 efbb
00000110: c604 b33d 1eec 153e 78de d4bc fbc7 773d
00000120: 2f3b 2d3e dca2 a2bc f444 cebd f4aa 13bd
00000130: 5173 1b3d 1a60 893b 7448 3e3d 2d85 c13c
00000140: 0bfe b7bd 9ca0 923c e102 8ebb bbe9 bdbd
00000150: f318 dcbb adc7 7b3d 6122 493d c743 00bd
00000160: 7b98 debd a72e 66bd 7467 c43b bfb2 053e
00000170: 1299 cebd d161 b0bd 02fd fd3d 77ce b9bd
00000180: aea0 3cbd 2690 973b 6a84 0cbd ebc3 43be
00000190: ad65 6f3c 8c43 323d facd fbbd 4a12 bbbb
000001a0: af6a fd3a 7c02 4ebb 503d 9a3d c14f 043d
000001b0: f943 923e 18b7 e43c b6f4 cfba e6c7 42be
000001c0: bd9c a73c ba47 5ebb bc58 57bd 38a3 823b
000001d0: e4b2 24bc c04f 2fbc c29e 9a3c 08e5 36be
000001e0: d17a f7bc d792 b5bc 4c39 b43b 0ce6 31be
000001f0: 8e1c 3fbe 5e6b 033d 4d4f d7bd 42a0 cf3d
00000200: 8b0a 643c a81f 1c3d 2225 ac3c 91f1 b9bd
00000210: 9ed1 0a3e be2a 953b c7f2 40be 9250 393e
00000220: a956 883d 99c9 c5bc 1eff 073c 79c6 dabd
00000230: 06a8 27bc ada3 d93d 5034 3d3d 0f6e 58bd
00000240: 38cf 54be 558e 7ebd c738 af3d 938c 56bd
00000250: 603a 1c3e 4f15 06bd 6739 83bb 8e6d 943d
00000260: cbe0 78bc 83a5 00bd 3a7b 9d3d 6437 d8bd
00000270: babc dbbd 492d d43c 3eb5 94bd 2e2b 6e3e
00000280: 7702 efbc 9ddb cf3d 60a2 243c 0486 a73d
00000290: 2dda 0ebe 1aea 02be 7cda 73bb c090 b03c
000002a0: 75c4 143d ef57 e8bb d6b6 73bc d910 b1bd
000002b0: 1cd1 883d ec3f 803d 3699 4d3d af82 0a3e
000002c0: b060 cabd 96d7 f23d 1a2a e0bc 19da 65bd
000002d0: d337 21bd 3359 733d 1061 e1bc f58f 873c
000002e0: 3811 86bd ff4f fbbc 514c 0b3e aa57 003d
000002f0: 7eb1 a53d 8c49 b03d 90a7 c4bd db76 16bd
00000300: 73ce 0a3e 0f93 24bc c7c7 0ebd 3ace 24be
00000310: 0794 32bb 6060 bcbd 0a2e 1e3d f0fb d8bc
00000320: f146 bbbd 2a96 7b3d dcbf e3bd 9a07 7c3d
00000330: 0b1b d93d 8d54 f23d fc94 c0bc c089 20be
00000340: 6b69 ce3d 858d b93d fc5f 9a3d 9065 4b3d
00000350: abd7 2abe f6bd 94bd 51ce 533d 73cc a03d
00000360: c32a ddbd e9fd 063c 100e 9b3c 11f2 093e
00000370: 7163 c0bc 482a 8a3d b203 a2bd 52b9 a83d
00000380: 0291 ad3d 17ea 423e 90ef 96bd 8a8d 3c3e
00000390: f769 2e3d aecf 83bd 3a0c fabc da78 4abd
000003a0: 4fe2 2a3c 1099 aebd 7f17 783d 585a 3c3c
000003b0: 60c5 b8bd e51b 8ebc 5f29 673c 8c64 12bd
000003c0: 499b c5bd b799 8e3d 4a73 86bd 4b04 ef3d
000003d0: 2b0c 88bd cf68 303d 114a 95bb 7655 ddbd
000003e0: 65b4 1c3d 6565 a73d b4f4 cebc ef83 f53d
000003f0: 1051 3ebd d9a2 af3b 4f9d 063d 955e cd3c
