MLAgentsProject/results/MoveToGoal4/MoveToGoal/MoveToGoal-37123.pt (torch, 440671 bytes, 36 tensors)

network_body._body_endoder.seq_layers.0.weight f4 [128, 6]
-0.39907715 0.40721348 0.73897946 -0.3706054 0.39044032 -0.48019466 -0.59029365 -0.71767557
0.058926288 -0.32451937 -0.31737348 0.40185374 -0.022349294 -0.32275888 0.10301613 -0.10914788
0.2600026 0.7008189 -0.16758797 -0.0048450413 0.23310366 0.19184043 -0.08714555 0.58408
0.37007412 -0.3821285 -0.114118 -0.11966065 -0.67649496 -0.087276414 0.044591688 0.24128832
-0.7233449 0.35348123 0.046064116 -0.28953338 -0.5297545 -0.0359998 -0.1036417 -0.24026614
-0.26863277 -0.048922773 -0.23784211 0.11925119 -0.13193859 -0.97122616 -0.359106 0.21588306
0.01720965 0.19962034 0.17649487 -0.100409545 -0.50978214 -0.16271453 -0.23174378 -0.26613277
0.08183374 -0.10929618 -0.19621952 -0.137177 0.04976242 0.15099715 0.0096640205 -0.08786443
-0.31131852 0.60419726 0.4553393 -0.30717698 0.26456222 -0.08631457 -0.6774586 0.30835566
-0.14130823 0.5393933 -0.48071858 0.5986364 0.08316032 -0.073009916 0.16745768 0.21650767
0.5420614 0.6576313 0.38801184 0.20793988 -0.34943923 0.21480896 0.8743182 0.33709076
0.0374399 -0.029195523 -0.23653217 -0.08007487 -0.579585 -0.005632799 -0.09925381 -0.31690434
-0.29949173 -0.27987498 0.19368309 -0.7571655 -0.7235041 -0.31936377 0.32745367 0.4856499
0.08374504 0.6223039 0.46097162 0.29390946 0.34503743 0.34256688 0.1586742 -0.5652449
0.17883916 0.05714154 -0.020268956 -0.0972722 0.8307162 0.4849347 0.5469289 0.3805873
-0.880397 0.55876964 -0.6398624 0.047624957 0.14664373 -0.27036 -0.28670564 0.52156854
-0.579016 -0.033851333 -0.09471225 0.46128815 -0.3224432 0.16755241 -0.6917551 -0.7646128
0.036635686 0.08023153 -1.3474985 -0.81943166 -0.030603003 0.7649261 -0.380409 -0.13271053
-0.08901137 -0.15417108 -0.25839925 0.09690456 -0.015587389 0.4309905 0.07620718 -1.1460571
0.32941407 0.77321756 0.8059137 0.10689422 -0.06427674 1.0617212 -0.6522127 0.35676616
-0.10023251 0.2099478 -0.4922252 0.4715078 -0.74916035 -0.18878043 0.4870893 0.6363988
0.50422484 -0.7898491 0.31021917 -0.033591233 -0.13986151 0.50828826 0.07927297 -0.22140637
0.049402703 -0.015008954 0.19147298 0.34314755 0.18250038 0.005781459 0.3254592 -0.37103114
0.1364826 0.44033492 -0.05266567 0.51345253 0.6844097 0.04835877 0.06705886 0.066879556
0.12898904 0.071827106 0.37131563 -0.39540085 -0.20187956 -0.08346922 -0.117573045 0.3043545
-0.26884395 0.10654522 0.063155204 0.5368581 0.22275478 -0.003194804 0.21183057 -0.1322276
-0.3769481 -0.5476254 -0.28486058 -0.7580051 -1.4834781 -0.10904674 0.38804674 -0.5819314
0.72951007 0.26563364 0.3424277 0.5632431 0.17063382 -0.24361393 -0.38354287 -0.44773915
-0.19589832 0.16280863 0.1775561 0.031022202 0.13278916 -0.21116936 -0.42465317 0.22681922
-0.0035491714 -0.518607 -0.07067732 0.8640168 -0.20565717 -0.2313503 0.55945945 -0.11231937
-0.14466971 0.14732592 0.3326082 0.078712486 0.6500025 0.2275354 0.054875545 -0.13873108
-0.38751447 -0.29996923 0.86697054 -0.47179374 0.39266783 -0.30474815 -0.06708631 0.27407736
00000000: d753 ccbe 497e d03e c22d 3d3f febf bdbe
00000010: cbe7 c73e 13dc f5be 7c1d 17bf 96b9 37bf
00000020: b15c 713d 6727 a6be c77e a2be c6bf cd3e
00000030: de15 b7bc a740 a5be 1ffa d23d ec88 dfbd
00000040: 101f 853e de68 333f 2e9c 2bbe 27c3 9ebb
00000050: bab2 6e3e d171 443e 5e79 b2bd 4486 153f
00000060: 5b7a bd3e 59a6 c3be b3b6 e9bd a510 f5bd
00000070: c62e 2dbf fabd b2bd c6a5 363d 4914 773e
00000080: 222d 39bf 7efb b43e baad 3c3d b83d 94be
00000090: fe9d 07bf 8774 13bd 1a42 d4bd 5408 76be
000000a0: 3c8a 89be 3f63 48bd e28c 73be f839 f43d
000000b0: e91a 07be 47a2 78bf bedc b7be 7310 5d3e
000000c0: 40fb 8c3c 4669 4c3e 12bb 343e 85a3 cdbd
000000d0: 1581 02bf a39e 26be 3e4e 6dbe 8e42 88be
000000e0: 7398 a73d add6 dfbd c5ed 48be 2178 0cbe
000000f0: aed3 4b3d ff9e 1a3e d755 1e3c 44f2 b3bd
00000100: 2465 9fbe acac 1a3f 3c22 e93e 4d46 9dbe
00000110: b374 873e b1c5 b0bd ed6d 2dbf cbe0 9d3e
00000120: 1bb3 10be ae15 0a3f bf20 f6be 3c40 193f
00000130: f54f aa3d 3986 95bd 077a 2b3e 30b4 5d3e
00000140: 89c4 0a3f 865a 283f 7da9 c63e 31ee 543e
00000150: b3e9 b2be e1f6 5b3e 51d3 5f3f 2997 ac3e
00000160: 955a 193d 732b efbc 7d35 72be 4bfe a3bd
00000170: af5f 14bf 5893 b8bb 9545 cbbd 4941 a2be
00000180: fb56 99be c64b 8fbe dc54 463e 99d5 41bf
00000190: 9137 39bf a683 a3be 02a8 a73e 1ba7 f83e
000001a0: 8582 ab3d 4f4f 1f3f 7904 ec3e 4d7b 963e
000001b0: bfa8 b03e ed64 af3e 7d7b 223e e4b3 10bf
000001c0: 9d21 373e 3f0d 6a3d 150b a6bc a636 c7bd
000001d0: d1a9 543f 5c49 f83e 8803 0c3f 57dc c23e
000001e0: b361 61bf 870b 0f3f 06ce 23bf 6312 433d
000001f0: c629 163e a06c 8abe 15cb 92be 8485 053f
00000200: 643a 14bf b2a7 0abd 7ff8 c1bd f62d ec3e
00000210: 4617 a5be dc92 2b3e dd16 31bf aabd 43bf
00000220: 4d0f 163d 6e50 a43d d57a acbf 46c6 51bf
00000230: 26b3 fabc 32d2 433f f8c4 c2be 45e5 07be
00000240: 984b b6bd 06df 1dbe e84c 84be e675 c63d
00000250: 3f62 7fbc c9aa dc3e 8312 9c3d 00b2 92bf
00000260: f6a8 a83e 96f1 453f 5c50 4e3f 5beb da3d
00000270: 86a3 83bd 7be6 873f 69f7 26bf 0eaa b63e
00000280: b446 cdbd 8efc 563e f104 fcbe 7869 f13e
00000290: f9c8 3fbf a84f 41be c563 f93e 08eb 223f
000002a0: e114 013f 8d33 4abf 0cd5 9e3e f696 09bd
000002b0: db37 0fbe 2e1f 023f de59 a23d 5ab8 62be
000002c0: 7d5a 4a3d 1ee8 75bc 7e11 443e 09b1 af3e
000002d0: 61e1 3a3e 6572 bd3b 97a2 a63e cbf7 bdbe
000002e0: 18c2 0b3e 9473 e13e f5b7 57bd a071 033f
000002f0: 7935 2f3f d813 463d 2856 893d 26f8 883d
00000300: b415 043e 171a 933d 151d be3e fb71 cabe
00000310: 84b9 4ebe e9f1 aabd 23ca f0bd 5ad4 9b3e
00000320: eaa5 89be 6134 da3d 8457 813d 886f 093f
00000330: d419 643e eb5f 51bb 1dea 583e ac66 07be
00000340: 57ff c0be 2e31 0cbf 3fd9 91be 9f0c 42bf
00000350: 9ce2 bdbf e653 dfbd 10ae c63e 75f9 14bf
00000360: 2cc1 3a3f 2201 883e af52 af3e b330 103f
00000370: a2ba 2e3e ee75 79be bb5f c4be 113e e5be
00000380: 9299 48be 4eb7 263e 44d1 353e 4622 fe3c
00000390: e2f9 073e c83c 58be 246c d9be 4c43 683e
000003a0: 3799 68bb 6ec3 04bf 45bf 90bd 3430 5d3f
000003b0: cb97 52be 18e7 6cbe bc38 0f3f b307 e6bd
000003c0: 4c24 14be 9bdc 163e 9f4b aa3e 0334 a13d
000003d0: 9066 263f 0aff 683e 2ec5 603d 850f 0ebe
000003e0: 4c68 c6be 9195 99be c8f1 5d3f f38e f1be
000003f0: c20b c93e f307 9cbe 8c64 89bd de53 8c3e

network_body._body_endoder.seq_layers.0.bias f4 [128]
0.0026379942 -0.004361052 0.00181926 -0.001013419 -0.0032285098 -0.0011786747 0.0025644812 -0.0052211895
-0.0005316497 -0.0020528578 -0.00062289636 0.001471583 0.003002434 -0.00035939834 0.0010138397 0.00010604599
0.004425848 -0.0011054517 0.0014164501 -0.0019203264 -0.00067380007 0.0006136442 -0.0024508939 -0.004515471
0.00023938873 -0.0031872282 0.0027360036 -0.0029179386 -0.0011659797 -0.0003006067 0.00023951339 0.0010291525
-0.0026490611 -0.0012890539 0.0009344577 -0.0008085426 -0.0013745308 -2.5811354e-05 0.0033134248 -0.00082508044
-0.0038814526 -0.003588483 -0.00015587237 0.005106772 -0.0043468224 0.0016435091 0.0061252657 0.0010433915
-0.0015004545 0.0012946676 -0.0042518214 -0.0026402825 0.0011096094 -0.0010405802 -0.0014876532 0.000531044
-0.0010297686 0.0026511906 0.003043564 0.00028455246 -9.326813e-05 0.0023290773 0.005373118 -0.00032362915
-0.0009585886 -0.0006243079 0.0024920814 -0.0014824455 0.0036946994 -0.0013653378 0.0039027883 -0.0012835201
-0.0013964798 0.0034080117 -0.0074949614 0.0067770975 0.0005674187 0.0014808439 -0.0035265875 -0.0026353246
-0.00023014945 -0.00039073505 0.00273336 -0.0002122221 -0.003678615 -0.007074931 -0.00019168545 0.00039334694
-0.000111830486 0.00075950427 -0.0025460736 -0.00084882823 0.0007840441 0.0024668016 0.01033538 -0.0011443782
0.008777254 0.0019821702 -0.004380782 -0.00080756715 -0.0021592656 0.00024395702 -0.0023142458 0.004269904
0.00326104 0.00079829775 -0.00076210225 -0.0013456763 0.0004760929 -0.0014671165 0.0031578466 0.002595546
-0.0018775265 -0.00032501 0.007537389 0.00051803293 0.0012442777 -0.003983717 -0.0022083947 0.002985228
-0.009224153 -0.00053045806 9.831305e-05 -0.00082892925 0.0013149921 0.0013164837 0.006818287 2.198577e-05
00000000: 33e2 2c3b 28e7 8ebb 3c74 ee3a b3d4 84ba
00000010: 6895 53bb c37d 9aba db10 283b 8316 abbb
00000020: 685e 0bba 3d89 06bb de49 23ba 22e2 c03a
00000030: 7cc4 443b a16d bcb9 d1e2 843a 0265 de38
00000040: b406 913b cee4 90ba 2ea8 b93a 76b3 fbba
00000050: f5a1 30ba f7dc 203a 2d9f 20bb 84f6 93bb
00000060: 6c04 7b39 d1e0 50bb 864e 333b e33a 3fbb
00000070: c9d3 98ba c09a 9db9 e325 7b39 a1e4 863a
00000080: df9b 2dbb 79f5 a8ba 65f6 743a 60f4 53ba
00000090: 9a29 b4ba 7685 d8b7 0b26 593b 364a 58ba
000000a0: f85f 7ebb c12c 6bbb ac71 23b9 b556 a73b
000000b0: ca6f 8ebb 046b d73a 74b6 c83b 69c2 883a
000000c0: e6aa c4ba d6b1 a93a dd52 8bbb 9708 2dbb
000000d0: 5070 913a 1464 88ba 5cfd c2ba c235 0b3a
000000e0: 4df9 86ba 99bf 2d3b 8876 473b fc2f 9539
000000f0: f298 c3b8 6fa3 183b fb10 b03b c5ac a9b9
00000100: cb49 7bba 98a8 23ba 3052 233b 9e4e c2ba
00000110: c522 723b 22f5 b2ba ecc5 7f3b ca3b a8ba
00000120: 160a b7ba f358 5f3b 4b98 f5bb 6a12 de3b
00000130: d3be 143a e018 c23a 521e 67bb 69b5 2cbb
00000140: 4654 71b9 92db ccb9 2c22 333b f087 5eb9
00000150: eb14 71bb d3d4 e7bb 2cff 48b9 223a ce39
00000160: 8986 eab8 7819 473a 07dc 26bb e683 5eba
00000170: 4f88 4d3a 10aa 213b ba55 293c f6fe 95ba
00000180: 79ce 0f3c 4ce7 013b aa8c 8fbb eab2 53ba
00000190: 7782 0dbb b7ce 7f39 9aaa 17bb 8dea 8b3b
000001a0: 2cb7 553b db44 513a d1c7 47ba 6761 b0ba
000001b0: 1b9c f939 434c c0ba e0f3 4e3b 091a 2a3b
000001c0: 5617 f6ba 1b66 aab9 34fc f63b 9acc 073a
000001d0: 0817 a33a d789 82bb b7ba 10bb d1a3 433b
000001e0: e720 17bc 700e 0bba 6b2d ce38 804c 59ba
000001f0: d05b ac3a dd8d ac3a f06b df3b 156e b837

network_body._body_endoder.seq_layers.2.weight f4 [128, 128]
-0.06881899 0.07483609 -0.01442824 -0.07813199 0.10527563 -0.10494401 0.100014426 0.100084476
-0.0032248285 0.09929062 0.068471275 0.013578007 0.07721031 0.019159267 0.034407027 -0.05939181
0.15702298 -0.25176972 -0.05267666 -0.11935485 0.0075377063 0.015857663 -0.021192936 0.000118649994
-0.06999245 0.06920826 -0.0069634365 0.08935646 -0.0058898088 -0.029598162 -0.09618347 -0.11853486
-0.16484594 0.09297783 -0.02226086 -0.08433859 0.040279403 0.015026905 0.040372163 0.072683886
-0.15068407 -0.057015534 0.013239082 -0.07180175 -0.022655614 0.12827466 -0.16697568 0.056837007
0.08702569 -0.0067447005 0.003332483 0.0442368 0.0005920018 0.1796473 0.07777406 -0.089227706
0.09647593 0.008536624 0.10339814 0.07484079 -0.039877545 -0.091612495 -0.0712834 0.14326787
0.08729969 0.1527951 -0.10990713 0.14575972 0.027951738 -0.1363309 0.055947226 -0.10791703
-0.017847111 -0.04805878 -0.06483713 0.07284008 0.049687147 -0.10943038 0.04960305 0.19913527
-0.010012601 0.10324658 0.08405256 -0.08460804 -0.20403016 0.11675784 0.06944695 -0.1600499
0.09163624 0.085279435 -0.018174209 0.09635151 -0.0867905 -0.21764824 0.13337116 0.061077017
0.10028299 -0.030945458 -0.08437609 0.16931492 -0.06649551 -0.13869241 0.009137521 0.14139149
0.037402485 0.044137128 0.025682107 0.14861113 -0.012431215 -0.04528715 -0.042878397 -0.028954046
-0.030816112 0.13408199 0.09566043 0.08096408 0.06479729 0.018094702 0.040990625 0.10942627
0.060841385 -0.0903391 0.10995446 -0.083294965 -0.16332962 -0.017363487 -0.24393706 0.0062652193
0.07762235 0.09933297 -0.032495394 -0.019089397 -0.1269872 0.05601836 -0.09667038 0.045002013
0.13085698 0.035989124 -0.023983866 -0.031879105 -0.08830179 -0.091690235 -0.13283142 0.004213813
-0.11779869 -0.15234171 -0.046551142 -0.02847523 0.17769727 0.063739404 -0.030720485 0.15729856
-0.10123762 -0.15689993 -0.039056752 0.03670084 0.0040477044 -0.025880964 -0.022897476 0.089350566
-0.030321237 0.0044131614 0.00079415535 -0.004242854 0.096798554 -0.01570867 -0.119267486 -0.018091783
0.14709301 -0.06785348 -0.25098857 -0.047904942 0.053553022 0.033337355 0.13254036 -0.025364514
0.031517193 -0.01907972 -0.08146107 -0.12395485 0.09917827 -0.024166137 0.10047018 0.029061781
-0.16868922 -0.111238495 0.14745587 -0.014194083 -0.036795717 0.16701049 0.03726495 -0.03518927
-0.13188052 0.06900987 -0.065619744 0.067708 0.024829453 0.0734032 0.02130433 0.013783236
-0.12963946 0.05355213 -0.03091301 -0.025991201 0.034819875 0.013594952 -0.029112797 -0.008391591
0.049804542 -0.122734435 0.012782235 0.010078017 0.057322018 -0.022218084 0.06591571 -0.13127127
0.014198565 -0.20126925 0.07798193 0.00920158 0.043748148 -0.05503933 -0.157475 0.0373182
-0.012073603 0.15680176 0.05881885 -0.1050678 0.098277435 -0.1632165 -0.0535766 -0.10022894
0.036812905 0.15261379 -0.06574382 -0.040126424 0.0444059 -0.02617166 0.013522125 0.030799985
-0.059728604 0.013272889 -0.19071089 0.11488395 0.05175252 -0.15791962 0.19899176 0.06148131
-0.00975689 -0.15424028 -0.060568213 0.046387713 0.011131825 0.06830696 0.13511892 -0.3081222
00000000: f8f0 8cbd aa43 993d 6d64 6cbc aa03 a0bd
00000010: c09a d73d e3ec d6bd 5dd4 cc3d 17f9 cc3d
00000020: a557 53bb e158 cb3d ab3a 8c3d 4a76 5e3c
00000030: 7020 9e3d e5f3 9c3c 62ee 0c3d d444 73bd
00000040: a2ca 203e f6e7 80be 7bc3 57bd 5170 f4bd
00000050: ddfe f63b eee7 813c cf9c adbc bbd3 f838
00000060: 3458 8fbd 0fbd 8d3d 8a2d e4bb 8500 b73d
00000070: 4cff c0bb d877 f2bc d7fb c4bd 68c2 f2bd
00000080: 60cd 28be 296b be3d 685c b6bc b6b9 acbd
00000090: 04fc 243d 6833 763c 485d 253d 4adb 943d
000000a0: ed4c 1abe 1f89 69bd bce8 583c cc0c 93bd
000000b0: 4498 b9bc 6f5a 033e acfb 2abe eccd 683d
000000c0: 863a b23d a602 ddbb c965 5a3b a631 353d
000000d0: 9130 1b3a 76f5 373e 0248 9f3d 04bd b6bd
000000e0: 2c95 c53d 32dd 0b3c 67c2 d33d 2146 993d
000000f0: a356 23bd 559f bbbd 08fd 91bd d0b4 123e
00000100: 2eca b23d 5276 1c3e fd16 e1bd 0942 153e
00000110: 0bfb e43c 549a 0bbe eb28 653d 9b03 ddbd
00000120: 1b34 92bc 49d9 44bd 54c9 84bd 2e2d 953d
00000130: c084 4b3d 091d e0bd 912c 4b3d 1eea 4b3e
00000140: e40b 24bc f172 d33d c023 ac3d fb46 adbd
00000150: 48ed 50be bc1e ef3d 343a 8e3d 1fe4 23be
00000160: c8ab bb3d fca6 ae3d 14e2 94bc f153 c53d
00000170: 38bf b1bd 2edf 5ebe 7392 083e e52b 7a3d
00000180: 2b61 cd3d 5481 fdbc 5fcd acbd e460 2d3e
00000190: cc2e 88bd 6205 0ebe 8ab5 153c eec8 103e
000001a0: 5933 193d 22c9 343d 4863 d23c 842d 183e
000001b0: 4bac 4bbc 057f 39bd 42a1 2fbd 0931 edbc
000001c0: 1272 fcbc ca4c 093e 9ee9 c33d 7fd0 a53d
000001d0: 71b4 843d 573b 943c c9e5 273d e11a e03d
000001e0: d134 793d b503 b9bd ce2f e13d 8d96 aabd
000001f0: e13f 27be df3d 8ebc a3ca 79be 784c cd3b
00000200: 77f8 9e3d 166f cb3d e419 05bd 5e61 9cbc
00000210: ef08 02be 8273 653d 1ffb c5bd 0854 383d
00000220: 5fff 053e 5569 133d d079 c4bc aa93 02bd
00000230: 92d7 b4bd 17c8 bbbd f604 08be 0714 8a3b
00000240: 7140 f1bd 77ff 1bbe 69ac 3ebd e344 e9bc
00000250: 46f6 353e ce89 823d 87a9 fbbc e012 213e
00000260: ab55 cfbd 60aa 20be f9f9 1fbd 9f53 163d
00000270: 9ba2 843b 5104 d4bc 7d93 bbbc 6efd b63d
00000280: 3e64 f8bc 489c 903b dd2e 503a a407 8bbb
00000290: 523e c63d 78af 80bc 8342 f4bd 3835 94bc
000002a0: 8d9f 163e c4f6 8abd 9381 80be f937 44bd
000002b0: 6a5a 5b3d c08c 083d a9b8 073e 3ec9 cfbc
000002c0: 2c18 013d 134d 9cbc 10d5 a6bd 0adc fdbd
000002d0: fa1d cb3d 10f8 c5bc 4fc3 cd3d f912 ee3c
000002e0: debc 2cbe 02d1 e3bd acfe 163e 4d8e 68bc
000002f0: 1bb7 16bd cc04 2b3e 22a3 183d a022 10bd
00000300: b00b 07be 0c55 8d3d a563 86bd 7eaa 8a3d
00000310: 2367 cb3c 6b54 963d 6b86 ae3c 15d3 613c
00000320: 35c0 04be 7a59 5b3d 483d fdbc 80eb d4bc
00000330: 499f 0e3d 5dbd 5e3c f67d eebc e27c 09bc
00000340: d9ff 4b3d 315c fbbd 946c 513c 441e 253c
00000350: 7eca 6a3d b302 b6bc d1fe 863d fa6b 06be
00000360: 19a1 683c 8719 4ebe fdb4 9f3d 39c2 163c
00000370: 4231 333d ec70 61bd 2041 21be f8da 183d
00000380: 5dd0 45bc a490 203e 09ec 703d c92d d7bd
00000390: ae45 c93d 3a22 27be 2373 5bbd d544 cdbd
000003a0: 21c9 163d ca46 1c3e b2a4 86bd 9b5b 24bd
000003b0: f6e2 353d f365 d6bc e78b 5d3c 4050 fc3c
000003c0: fba5 74bd 8876 593c b749 43be 4748 eb3d
000003d0: 73fa 533d aeb5 21be 7fc4 4b3e d3d3 7b3d
000003e0: 5ddb 1fbc 2af1 1dbe 6016 78bd 0b01 3e3d
000003f0: 4262 363c 85e4 8b3d 9d5c 0a3e 31c2 9dbe

network_body._body_endoder.seq_layers.2.bias f4 [128]
-8.3008774e-05 -0.002086445 -0.0034250275 -0.005124186 -0.0016752125 2.8404844e-05 -0.0010578509 -0.00031791627
0.0022102718 -0.0024873868 -0.002372223 0.0007097917 -0.0001029218 0.008127628 -0.0015387329 0.004317474
-0.004656161 -1.8941948e-05 -0.0010366709 -0.0006011476 -0.00047897335 -0.00043477552 -0.00019896353 -0.00020272894
0.00020029713 0.0006022873 -0.00028159138 -0.0015664286 0.00048409673 -0.0013076471 0.00082285074 0.0036442957
-0.0003439452 -0.00010644042 0.0053822384 0.0033024792 -0.00054238224 -0.00023425525 -0.00093539373 -0.0012546718
0.0006379254 -0.0031271735 7.714481e-05 0.0022190805 -0.00079282944 -0.0006135699 0.005487073 -0.002221962
0.00031682974 -0.0031544126 8.400892e-05 2.0735919e-05 -0.0024039503 0.0027251034 -0.0005002976 0.0028343291
-0.0004012142 -7.534274e-05 -0.0013236628 -0.002324737 -0.0018086261 -0.0007810379 0.00021465053 0.002231043
0.0011678956 -0.0017485075 -0.0006818513 0.0036508464 0.0020386619 0.004169816 0.0012568749 -0.00020089005
0.0061378777 -0.00041432062 -4.304421e-05 0.0019608813 -0.0015819045 0.00011633115 0.0005669041 0.0006179668
-0.0055280644 -0.0011812688 0.0007591821 0.00075419457 0.0029405532 -0.001059949 -0.0029868002 -0.0018938166
-0.0012717674 -0.004450222 -0.0038503343 -0.00024184174 -0.00050796964 -0.00020247872 0.00016635613 -0.00020325877
-0.0013957259 -0.001038751 0.0013697555 -8.460422e-05 -0.0015105784 -1.8009177e-05 -0.00017855754 0.0013793918
-0.00024786065 0.0012258788 -0.0047570113 0.0021511 -0.0007683043 0.0061072404 0.00047772645 -0.00054857554
-0.0006483724 0.00015981738 -0.0011562969 -0.0017013986 0.0027247267 0.0018029455 -0.0024539758 0.00033621144
-0.00028058523 0.0018202489 -0.0005997683 -0.0025297138 7.0983035e-05 0.0032585126 -0.00082133384 -0.0015977573
00000000: ff14 aeb8 bdbc 08bb 6d76 60bb cae8 a7bb
00000010: ce92 dbba f046 ee37 96a7 8aba 00ae a6b9
00000020: 35da 103b 6d03 23bb 4c77 1bbb 5111 3a3a
00000030: b8d7 d7b8 be29 053c 4faf c9ba 9979 8d3b
00000040: b692 98bb 86e5 9eb7 e7e0 87ba 5596 1dba
00000050: b71e fbb9 95f2 e3b9 dea0 50b9 a393 54b9
00000060: da06 5239 d1e2 1d3a 8ea2 93b9 9f50 cdba
00000070: 5dce fd39 5b65 abba 94b4 573a 23d5 6e3b
00000080: 8b53 b4b9 c438 dfb8 7d5d b03b 686e 583b
00000090: a82e 0eba 6aa2 75b9 3635 75ba cd73 a4ba
000000a0: 733a 273a 44f1 4cbb cec8 a138 fe6d 113b
000000b0: e2d5 4fba fbd7 20ba e8cc b33b 569e 11bb
000000c0: 2b1c a639 43ba 4ebb f22d b038 0cf2 ad37
000000d0: 988b 1dbb a697 323b 6726 03ba 27c0 393b
000000e0: 0f5a d2b9 5301 9eb8 c17e adba 9d5a 18bb
000000f0: 6c0f edba 91be 4cba d013 6139 b136 123b
00000100: 1314 993a 2d2e e5ba 44be 32ba 0a43 6f3b
00000110: 129b 053b f4a2 883b b9bd a43a 03a6 52b9
00000120: 4020 c93b 2c39 d9b9 5e8a 34b8 2182 003b
00000130: e857 cfba d0f6 f338 4a9c 143a 0dff 213a
00000140: c424 b5bb ced4 9aba d903 473a 24b5 453a
00000150: 4cb6 403b fded 8aba 31be 43bb f139 f8ba
00000160: 6fb1 a6ba 2bd3 91bb e455 7cbb e696 7db9
00000170: 4429 05ba 7850 54b9 e26f 2e39 dc21 55b9
00000180: caf0 b6ba b326 88ba 5e89 b33a 8b6d b1b8
00000190: 9afe c5ba 6a12 97b7 2d3b 3bb9 b5cc b43a
000001a0: 4bf3 81b9 abad a03a b4e0 9bbb 78f9 0c3b
000001b0: 0768 49ba 3f1f c83b 5c77 fa39 48ce 0fba
000001c0: 89f7 29ba a794 2739 e38e 97ba 7701 dfba
000001d0: 5491 323b d050 ec3a e2d2 20bb 8945 b039
000001e0: 831b 93b9 6b95 ee3a c539 1dba 8ec9 25bb
000001f0: badc 9438 c58c 553b c84e 57ba d76b d1ba

action_model._continuous_distribution.log_sigma f4 [1, 3]
-0.0016163957 -0.012754498 -0.005499602
00000000: 3ddd d3ba 3ef8 50bc 0136 b4bb

action_model._continuous_distribution.mu.weight f4 [3, 128]
0.00022815686 0.010392401 -0.011038052 0.0233038 -0.02426442 0.005131007 -0.00919631 -0.00089861895
-0.0029030484 -0.016985526 -0.014411362 -0.0034224212 -0.029165257 -0.00071860437 -0.040344846 -0.0033312428
0.03698131 0.017039336 -0.00601973 -0.023038706 -0.001554601 0.022135166 0.011883732 -0.0014058568
0.008901526 -0.008106728 0.0248276 0.0285561 -0.020155186 -0.0055277986 0.0039175283 -0.0058542215
-0.007374525 0.0030837338 -0.04484258 -0.004344937 0.0042323717 0.010676855 -0.019994736 -0.014366624
-0.01904324 0.00522972 -0.002556998 0.019339122 -0.015363637 -0.01424146 -0.016868139 -0.027417196
-0.0034783005 -0.0058102133 0.0103896465 0.0069269603 0.015168119 0.06029406 -0.016858408 0.013989246
0.027338635 -0.0018729696 0.01862241 0.010703514 0.021065779 -0.016612034 0.0053891176 -0.004762927
-0.006613123 -0.0033999325 0.012636809 -0.017114459 -0.023630967 -0.009714934 0.03135337 0.011853599
-0.009081776 -0.015946258 -0.012694554 0.017085802 -0.0004977202 0.016005602 -0.007259643 -0.016487705
0.019998815 -0.04335904 -0.0035561307 -0.012705956 0.021108111 0.004096953 0.014047657 0.023204539
0.006289073 0.039399646 -0.00981807 -0.036410566 -0.01353522 0.023907855 -0.02510116 0.009547385
-0.0040829913 -0.028943934 -0.0037778204 -0.0078083114 0.007636775 0.010741387 -0.017822381 -0.017495193
-0.027794782 0.0065287547 0.007221976 0.019377576 0.0080373 0.0069399467 -0.023914458 -0.005625611
-0.0009879649 -0.00795648 -0.00810316 0.010411217 -0.00066926714 -0.01316224 0.0029611457 -0.011165879
-0.011746484 -0.021167371 -0.021837598 0.0043436564 -0.023385517 0.034962587 -0.002709727 0.005148886
0.022519082 0.005201638 -0.0016761045 -0.009418088 3.9923666e-06 -0.025654603 -0.003088083 -0.0093649505
-0.019326014 0.03241205 -0.005379641 0.013263245 -0.026930438 -0.015148443 0.005205955 1.5941109e-06
-0.02054999 0.024502074 0.0075253285 -0.002931087 -0.006783764 -0.019075325 0.022572536 0.005144447
0.011973949 -0.0071607586 -0.0017236166 0.012005856 0.010738624 0.011848934 0.0034126611 0.008915543
-0.0037437226 -0.00034135763 -0.014265498 0.0061149215 -0.013034004 -0.002749276 -0.011097726 -0.02290207
-0.015049758 -0.0022099074 0.022135898 0.009025439 0.031143116 0.007318377 0.00024744685 0.0037850987
-0.0030759983 0.008001803 0.017879995 -0.0053648646 0.0018282601 0.011674359 0.014439077 0.0060220496
-0.020194158 0.04656386 -0.0040530064 -0.0068037133 0.012334205 0.014788766 0.0106046805 -0.0004899447
-0.0013684006 0.0003550625 -0.025081672 0.009775105 0.005358102 0.03577238 -0.0031505262 0.02203298
0.027368777 -0.0025715048 0.019724824 -0.02121204 0.023083353 -0.01070113 0.027581425 -0.0055429856
0.01119804 0.008208294 0.0139141325 -0.019412901 -0.00929434 -0.0119989365 -0.0047707926 -0.008672065
0.008205294 0.0072545405 -0.0074139806 0.021615919 -0.020219926 0.009704642 0.01183336 6.08583e-05
0.0104727745 0.018713528 -0.02497517 0.018607292 -0.0025595657 0.0043356884 -0.014460692 0.029289188
-0.021216378 -0.00507731 -0.011806446 -0.023751099 -0.007719432 0.0054675047 0.0069535435 0.008872901
-0.020254247 0.03789191 -0.011687238 -0.0056736507 0.021933235 -0.009577773 0.012746061 -0.007457958
0.028450757 -0.0033054494 0.0051177167 0.024650816 0.0009271739 -0.014303173 -0.017183056 0.02464539
00000000: 643d 6f39 e444 2a3c f2d8 34bc 9ce7 be3c
00000010: 2dc6 c6bc 0222 a83b 1fac 16bc 4c91 6bba
00000020: 1241 3ebb 3b25 8bbc a21d 6cbc b34a 60bb
00000030: faeb eebc b960 3cba a340 25bd fb50 5abb
00000040: b779 173d 1496 8b3c 2841 c5bb abbb bcbc
00000050: c1c3 cbba cf54 b53c fcb3 423c ba44 b8ba
00000060: b5d7 113c 15d2 04bc 4063 cb3c 7bee e93c
00000070: 7d1c a5bc 8922 b5bb 9c5e 803b c5d4 bfbb
00000080: 00a6 f1bb 7818 4a3b daac 37bd f95f 8ebb
00000090: b5af 8a3b faed 2e3c 00cc a3bc fd61 6bbc
000000a0: 9200 9cbc 125e ab3b 4f93 27bb 146d 9e3c
000000b0: c4b7 7bbc 0355 69bc 0d2f 8abc 079a e0bc
000000c0: 33f4 63bb 9a63 bebb 5639 2a3c 8efb e23b
000000d0: b483 783c e7f6 763d a51a 8abc 2733 653c
000000e0: 46f5 df3c 6e7e f5ba 068e 983c cb5d 2f3c
000000f0: 2492 ac3c f615 88bc 3297 b03b 5412 9cbb
00000100: e6b2 d8bb 67d1 5ebb 9e0a 4f3c 9f33 8cbc
00000110: bb95 c1bc 632b 1fbc 646c 003d 9935 423c
00000120: bbcb 14bc baa1 82bc d2fc 4fbc 86f7 8b3c
00000130: 7079 02ba 2e1e 833c 4de2 edbb 3911 87bc
00000140: 8ed4 a33c 4099 31bd f90d 69bb a42c 50bc
00000150: ebea ac3c bc3f 863b 2528 663c 7217 be3c
00000160: 9114 ce3b 8661 213d f8db 20bc 3f23 15bd
00000170: d4c2 5dbc 68da c33c f3a0 cdbc a36c 1c3c
00000180: 9dca 85bb d41b edbc 4f95 77bb dddc ffbb
00000190: e93d fa3b a4fc 2f3c 3e00 92bc 1452 8fbc
000001a0: e2b1 e3bc 2aef d53b 53a6 ec3b b9bd 9e3c
000001b0: e1ae 033c 7e68 e33b 41e8 c3bc 0c57 b8bb
000001c0: 9a7e 81ba e55b 02bc 1ec3 04bc cf93 2a3c
000001d0: c271 2fba 70a6 57bc c80f 423b 17f1 36bc
000001e0: 5374 40bc 3267 adbc c3e4 b2bc 3b55 8e3b
000001f0: fc92 bfbc ee34 0f3d ad95 31bb fcb7 a83b
00000200: f079 b83c 8172 aa3b bcb0 dbba 534e 1abc
00000210: 2bf6 8536 9a29 d2bc 6f61 4abb 736f 19bc
00000220: 9751 9ebc 7fc2 043d b347 b0bb 154e 593c
00000230: 399d dcbc 2d31 78bc b796 aa3b 3cf5 d535
00000240: 7458 a8bc 93b8 c83c 0897 f63b 7b17 40bb
00000250: 564a debb db43 9cbc 0aea b83c c092 a83b
00000260: 622e 443c cca4 eabb faea e1ba 36b4 443c
00000270: 0ef1 2f3c 0822 423c f4a6 5f3b 7f12 123c
00000280: 3e59 75bb 3ff8 b2b9 d6b9 69bc ae5f c83b
00000290: 938c 55bc 332d 34bb 3dd3 35bc 1f9d bbbc
000002a0: 4393 76bc 18d4 10bb 5856 b53c 6fdf 133c
000002b0: d91f ff3c ffce ef3b c1bb 8139 6b0f 783b
000002c0: b096 49bb ff19 033c 1179 923c bfcb afbb
000002d0: 3ba2 ef3a d045 3f3c e191 6c3c 9d54 c53b
000002e0: 386e a5bc bfb9 3e3d 15cf 84bb aff1 debb
000002f0: 6815 4a3c 954c 723c 41bf 2d3c a26f 00ba
00000300: e85b b3ba af27 ba39 1478 cdbc c327 203c
00000310: 0493 af3b 0f86 123d 0f79 4ebb 827e b43c
00000320: 7c34 e03c b186 28bb f495 a13c dfc4 adbc
00000330: 4d19 bd3c cb53 2fbc 71f2 e13c efa1 b5bb
00000340: fc77 373c 157c 063c 1af8 633c ce07 9fbc
00000350: 4a47 18bc 3097 44bc 4f54 9cbb 4715 0ebc
00000360: 7f6f 063c 7fb7 ed3b faf0 f2bb de13 b13c
00000370: 42a4 a5bc 3800 1f3c b6e0 413c 1a42 7f38
00000380: 0096 2b3c 1d4d 993c ba98 ccbc 526e 983c
00000390: 63be 27bb 6412 8e3b 8aec 6cbc e1ef ef3c
000003a0: f8cd adbc 905f a6bb d36f 41bc aa91 c2bc
000003b0: 4af3 fcbb c128 b33b 8dda e33b a55f 113c
000003c0: 3cec a5bc 8c34 1b3d d47b 3fbc 08ea b9bb
000003d0: 54ad b33c 17ec 1cbc dbd4 503c e361 f4bb
000003e0: 9011 e93c 3da0 58bb 85b2 a73b 82f0 c93c
000003f0: 960d 733a db57 6abc 7bc3 8cbc 21e5 c93c

action_model._continuous_distribution.mu.bias f4 [3]
0.00072700926 -7.6437485e-05 -0.00015109753
00000000: c494 3e3a 104d a0b8 ef6f 1eb9

exp_avg f4 [128, 6]
0.00022304153 -0.0001872347 -0.00022005 -7.117614e-05 -0.00010060837 -0.0005410073 0.000115146475 4.451987e-05
4.4178432e-05 -3.117576e-05 1.4349396e-07 0.00011127083 -0.00020694082 0.00040589264 -0.00027164866 -0.00014907058
-1.6044397e-06 0.00018599776 0.00021057486 -1.2282635e-05 0.00027041294 0.00040240888 0.00017979037 0.0008524366
3.7641577e-05 -8.1624194e-07 2.1335942e-05 2.9552844e-05 9.34858e-06 3.0389941e-05 -2.9569701e-05 -0.00011658281
-5.8790074e-06 -0.0002601628 -7.605037e-05 -0.00030115526 -3.562322e-05 7.0967675e-05 -3.189005e-05 8.418246e-06
-1.1820773e-06 2.6622527e-05 -0.00017176435 0.000118692755 0.00022179727 1.7656312e-05 8.5557534e-05 0.00074746273
1.2100129e-05 3.3509248e-05 1.769629e-05 -6.076268e-06 7.1529344e-06 7.6319e-05 -3.8809967e-06 5.7230104e-06
2.3000146e-05 -1.0206418e-06 7.475385e-06 5.1334293e-05 -5.3195516e-05 0.000103555685 6.716536e-05 -0.000130819
5.0511648e-05 0.00021670003 0.00011873033 -2.5364958e-05 -0.000156304 -0.00014397776 -2.1413913e-05 -0.00038361576
-0.00024378915 3.4045235e-05 -6.2565414e-05 6.790068e-06 -0.00011694152 -0.00024282477 -0.00019318509 8.0867634e-05
-5.634118e-05 -0.0001350812 -1.537291e-05 0.0001292722 1.5519625e-05 6.856063e-05 -3.9307986e-05 9.563813e-07
4.2596912e-05 5.419656e-05 -4.793509e-07 -1.4158932e-06 2.411238e-07 -1.3216317e-06 -8.8441055e-07 2.5734485e-07
-5.367505e-06 2.8798377e-06 8.825219e-06 -4.162016e-06 2.8751226e-06 1.6709635e-05 -2.1515365e-05 0.00014431204
-7.0537374e-07 0.00015389344 -8.521288e-06 0.00020527291 7.274735e-05 1.0892283e-05 -6.80943e-05 -3.2522123e-05
1.8360832e-05 -0.00015921849 -0.00020570922 0.00023704892 0.00031820874 9.6651296e-05 -3.2374304e-05 0.0005564359
2.0566857e-05 -6.815169e-05 2.8254106e-05 0.000102846345 -9.386564e-06 8.4857675e-05 0.00012611237 4.9815142e-05
0.00030790752 0.00041350632 0.00013280264 0.0006463964 1.9604447e-06 -2.0476273e-05 3.0897012e-05 3.799052e-06
2.439796e-05 -9.447306e-06 1.2071251e-05 -4.275611e-05 -0.00014784085 -0.00024473053 -6.5421723e-06 -0.00034911043
2.2290484e-05 -0.0002579571 -0.00028298976 -8.356389e-05 -3.186629e-05 -0.00085305417 3.6325513e-05 0.00015951972
-6.25828e-06 7.802074e-06 0.00018130647 0.0004597169 -8.265469e-05 -0.00014637747 1.4550135e-05 0.00013209372
-6.695219e-05 -0.000122052574 8.9478e-05 0.00015151637 0.00012313874 0.00010139785 0.00015612699 0.00057173724
0.0002441883 0.00012924726 0.00021582058 2.0639352e-05 0.00023190687 0.0007435401 -2.5006662e-05 -4.032017e-05
-0.00020882131 -0.00018450529 -8.825716e-05 -0.0005751171 -0.00041699345 0.00032905873 -4.4914177e-05 -0.00016975316
-1.777289e-05 0.0004693397 6.489677e-05 -6.8521425e-05 -1.952218e-05 -0.0002491711 4.6945894e-05 -0.00016160519
-4.5984107e-06 -2.7781258e-05 3.2471373e-05 4.4224516e-06 -2.1110378e-05 0.00019158045 0.00020107812 -1.8224879e-05
-3.852673e-05 9.17613e-06 6.710681e-05 -7.041475e-05 -4.659467e-06 -5.595765e-07 -2.0365928e-06 7.0088426e-08
5.098637e-07 -4.2056317e-06 1.39194e-08 -2.8131923e-08 7.348381e-09 -3.9322888e-08 -2.917837e-08 -2.2334613e-07
0.00015542333 2.9340983e-06 5.8465685e-05 -2.282415e-06 4.7296915e-05 7.047482e-05 2.4749334e-05 -2.6332786e-05
-5.25769e-05 -0.00012026717 -3.2589516e-05 -0.0004973321 3.6146585e-07 -2.1200309e-07 -9.780272e-07 2.98514e-06
1.5010284e-06 1.981634e-06 -0.00018765635 -9.646297e-05 1.1305906e-05 0.00020147832 -0.00014675484 -0.0003312108
0.00023136282 6.0294635e-05 3.842364e-06 -3.146361e-05 0.000117736294 0.00034370413 -4.5810093e-06 -4.290505e-06
-2.4815115e-06 -3.4270313e-06 -6.8653053e-06 -8.373304e-06 -0.00028322078 -0.00017260583 1.0485603e-05 -2.7739106e-05
00000000: 41e0 6939 6f54 44b9 39bd 66b9 6644 95b8
00000010: b5fd d2b8 63d2 0dba cb7a f138 d9ba 3a38
00000020: 3b4c 3938 b8c2 02b8 5213 1a34 125a e938
00000030: 41fe 58b9 fdcd d439 116c 8eb9 d44f 1cb9
00000040: 2158 d7b5 6508 4339 c2cd 5c39 8411 4eb7
00000050: 36c6 8d39 68fa d239 1c86 3c39 0d76 5f3a
00000060: 56e1 1d38 b81b 5bb5 96fa b237 40e8 f737
00000070: d8d7 1c37 e7ed fe37 730c f8b7 eb7d f4b8
00000080: 4a44 c5b6 7666 88b9 3b7d 9fb8 60e4 9db9
00000090: 246a 15b8 7bd4 9438 aec1 05b8 173c 0d37
000000a0: dea7 9eb5 7153 df37 a41b 34b9 b0ea f838
000000b0: 4092 6839 a41c 9437 5a6d b338 60f1 433a
000000c0: a901 4b37 488c 0c38 7e72 9437 bfe2 cbb6
000000d0: 3d03 f036 730d a038 8239 82b6 4908 c036
000000e0: 70f0 c037 fcfc 88b5 11d5 fa36 c74f 5738
000000f0: 401e 5fb8 092c d938 21db 8c38 752c 09b9
00000100: 78dc 5338 f939 6339 dcfe f838 d5c6 d4b7
00000110: 89e5 23b9 bcf8 16b9 07a2 b3b7 0920 c9b9
00000120: a7a1 7fb9 cbcb 0e38 8d35 83b8 3dd6 e336
00000130: 803e f5b8 c79e 7eb9 ba91 4ab9 7b97 a938
00000140: e24f 6cb8 95a4 0db9 13f5 80b7 3e8d 0739
00000150: 2430 8237 35c8 8f38 a1de 24b8 035d 8035
00000160: 16aa 3238 1d51 6338 beac 00b5 b809 beb5
00000170: cd73 8134 eb62 b1b5 3b68 6db5 3529 8a34
00000180: 841a b4b6 3c43 4136 0710 1437 72a7 8bb6
00000190: 3bf2 4036 ab2b 8c37 e57b b4b7 7852 1739
000001a0: ea58 3db5 755e 2139 a7f6 0eb7 873e 5739
000001b0: f08f 9838 00be 3637 d9cd 8eb8 5d68 08b8
000001c0: 9605 9a37 e3f3 26b9 a6b3 57b9 5690 7839
000001d0: 41d5 a639 45b1 ca38 a5c9 07b8 c8dd 113a
000001e0: fd86 ac37 a9ec 8eb8 3b03 ed37 36af d738
000001f0: fc7a 1db7 9ef5 b138 083d 0439 9af0 5038
00000200: a66e a139 e1cb d839 f040 0b39 ee72 293a
00000210: 2f90 0336 76c4 abb7 6a97 0138 37f3 7e36
00000220: 38aa cc37 df7f 1eb7 a185 4a37 0655 33b8
00000230: ba05 1bb9 2d4f 80b9 d584 dbb6 cf08 b7b9
00000240: 73fc ba37 6a3e 87b9 3e5e 94b9 063f afb8
00000250: 2ba8 05b8 7f9f 5fba 395c 1838 c044 2739
00000260: 37fe d1b6 a7e5 0237 161d 3e39 2806 f139
00000270: e656 adb8 e77c 19b9 5b1c 7437 a382 0a39
00000280: af68 8cb8 7af6 ffb8 23a6 bb38 5ee0 1e39
00000290: ce1e 0139 8ea5 d438 05b6 2339 a3e0 153a
000002a0: 6606 8039 8c86 0739 e54d 6239 ac22 ad37
000002b0: 072c 7339 22ea 423a 66c5 d1b7 741d 29b8
000002c0: 0bf7 5ab9 c377 41b9 b416 b9b8 75c3 16ba
000002d0: ea9f dab9 8485 ac39 3b62 3cb8 c4ff 31b9
000002e0: fe16 95b7 b511 f639 3019 8838 29b3 8fb8
000002f0: 90c3 a3b7 2ea3 82b9 c5e7 4438 9074 29b9
00000300: 0c4c 9ab6 cc0b e9b7 df31 0838 9264 9436
00000310: 3116 b1b7 fce2 4839 7fd8 5239 a1e1 98b7
00000320: c397 21b8 2ef3 1937 b2bb 8c38 a2ab 93b8
00000330: 8458 9cb6 ce35 16b5 66ac 08b6 8583 9633
00000340: 91dd 0835 1a1e 8db6 2b22 6f32 c1a6 f1b2
00000350: 0b7d fc31 f9e3 28b3 eaa3 fab2 ebd0 6fb4
00000360: 22f9 2239 6de7 4436 0d39 7538 972b 19b6
00000370: ad60 4638 e2cb 9338 ca9c cf37 3ae5 dcb7
00000380: 0486 5cb8 f237 fcb8 bab0 08b8 645f 02ba
00000390: 7d0f c234 f7a2 63b4 c244 83b5 5154 4836
000003a0: f176 c935 36fc 0436 9ec5 44b9 2a4c cab8
000003b0: 7fae 3d37 ed43 5339 34e2 19b9 5ca6 adb9
000003c0: fc99 7239 dfe4 7c38 a8ed 8036 cbf7 03b8
000003d0: 31e9 f638 3033 b439 92b6 99b6 28f7 8fb6
000003e0: 0b88 26b6 f3fb 65b6 865c e6b6 117b 0cb7
000003f0: 407d 94b9 86fd 34b9 52eb 2f37 47b1 e8b7

exp_avg_sq f4 [128, 6]
2.6044093e-08 2.088441e-08 1.6934257e-08 1.1082992e-08 1.0278101e-08 1.4234878e-07 6.6070896e-08 6.7555185e-08
5.25171e-08 1.1133581e-07 3.0154784e-08 8.0043344e-07 2.1881843e-07 2.3770305e-07 1.769307e-07 2.934073e-07
1.4866382e-07 3.5519372e-06 1.3913248e-07 1.3306963e-07 1.05188846e-07 1.3988728e-07 9.600911e-08 2.1626786e-06
7.308183e-09 1.6069167e-10 1.2537777e-09 1.5353235e-09 1.2027813e-10 1.7816502e-08 6.3012315e-09 1.1816963e-08
2.2010913e-10 3.856106e-08 5.88904e-09 7.363691e-08 5.98996e-09 4.834249e-09 2.6132092e-09 2.966583e-09
7.512706e-10 3.6179763e-08 6.975978e-08 9.165817e-08 4.397803e-08 2.275456e-08 2.8358421e-08 8.398127e-07
2.7145525e-10 5.647844e-10 3.8014403e-10 3.436108e-10 9.7319916e-11 4.512206e-09 1.1806217e-10 1.14827495e-10
2.6341726e-10 1.09944394e-10 7.363876e-11 2.0652644e-09 1.1015779e-07 7.447338e-08 6.966274e-08 7.962832e-08
5.981184e-08 1.2918485e-06 1.6661266e-07 7.5944676e-08 1.7171716e-07 3.040961e-07 9.994203e-08 2.469515e-06
1.340509e-07 1.9209278e-07 3.0968078e-08 2.7697905e-07 8.2530484e-08 1.7941854e-06 6.305913e-08 5.9037962e-08
1.8809168e-08 9.3890314e-08 3.0110545e-08 6.6663523e-07 5.611669e-08 2.5254877e-08 5.1144387e-08 1.0665459e-07
2.1129681e-08 5.58598e-07 9.220673e-12 1.1497824e-11 1.8671551e-13 1.0973414e-11 2.5715098e-12 6.404596e-11
2.107866e-11 1.09241696e-11 1.9499428e-11 6.403865e-12 2.9219984e-12 1.1582089e-10 1.0651614e-07 3.7952937e-08
6.532728e-08 9.868586e-08 4.6913847e-08 7.5902403e-07 2.7088946e-08 9.366632e-09 1.1968351e-08 5.732058e-09
6.648232e-09 1.6810134e-07 1.197687e-07 1.373813e-07 6.9214124e-08 1.5708083e-07 6.580067e-08 1.6362269e-06
3.6738367e-08 4.7091017e-08 4.833075e-09 3.4116216e-08 1.3002476e-08 3.369991e-07 1.7020703e-07 1.700521e-07
6.895431e-08 1.6134788e-07 8.274252e-08 1.7990824e-06 5.1128963e-09 9.75653e-09 1.293164e-09 2.0058843e-09
3.5964163e-09 8.0252775e-08 6.968506e-08 4.93367e-08 5.2660507e-08 1.5237875e-07 2.3999755e-08 7.133859e-07
3.6296802e-07 2.758619e-07 3.9760818e-07 5.358628e-07 2.2074212e-07 5.6789404e-06 1.03114004e-07 4.0483524e-08
9.234396e-08 1.7400444e-07 5.8703492e-08 1.0734334e-06 8.602801e-08 7.140222e-08 2.8611945e-08 1.1017731e-07
3.622803e-08 9.18242e-07 8.402746e-08 9.398184e-08 2.8238537e-08 7.939704e-08 2.6259059e-08 7.170799e-07
1.4704506e-07 1.3227144e-07 1.0645772e-07 2.1375487e-07 9.333296e-08 2.2262209e-06 5.215807e-08 7.1714936e-08
3.9392013e-08 1.251205e-07 4.0906773e-08 9.1329895e-07 1.6569831e-07 1.08464015e-07 1.7808922e-07 4.1234884e-07
1.30959e-07 2.7336046e-06 7.085095e-08 7.0605864e-08 4.196225e-08 7.440154e-08 3.588688e-08 1.0543949e-06
2.5748916e-08 1.6087387e-08 2.0360718e-08 6.7764967e-09 9.613255e-09 2.1435802e-07 5.2699157e-08 2.4870483e-08
6.036647e-08 3.9992216e-08 2.7992032e-08 5.787521e-07 1.4355443e-11 4.3993438e-13 8.9017795e-12 2.0649888e-12
6.698202e-13 2.7749272e-11 3.0614478e-14 9.65055e-15 2.3767408e-16 6.7842375e-15 2.963459e-14 1.3739785e-13
4.721141e-08 9.230027e-09 3.1508048e-08 4.6686313e-08 1.6711331e-08 3.452045e-07 3.8596937e-08 3.7945437e-08
3.451672e-08 1.233129e-07 2.8440395e-08 6.187867e-07 2.3728748e-11 2.358625e-12 6.119753e-13 5.8225945e-11
7.229922e-12 9.6426596e-11 4.6709587e-08 6.4735495e-08 1.53412e-08 6.160244e-08 3.4407368e-08 6.644252e-07
5.8445274e-08 4.265397e-08 3.8939685e-08 1.0849998e-07 3.746554e-08 7.33402e-07 7.433183e-11 3.938778e-11
7.9543065e-12 3.0644383e-11 7.109991e-11 4.5760706e-10 2.3837731e-07 1.4754733e-07 1.5432843e-07 3.7438986e-07
00000000: 91b7 df32 4e65 b332 d376 9132 8467 3e32
00000010: 9193 3032 89d8 1834 dce2 8d33 db12 9133
00000020: 298f 6133 8217 ef33 8983 0133 5edd 5635
00000030: 5af4 6a34 513b 7f34 57fa 3d34 9885 9d34
00000040: 66a0 1f34 d15d 6e36 7264 1534 e7e1 0e34
00000050: 2ee4 e133 ec33 1634 912d ce33 8922 1136
00000060: 751b fb31 afae 302f 6251 ac30 6503 d330
00000070: 493f 042f e70a 9932 3882 d831 8e03 4b32
00000080: 3603 722f 559e 2533 8b58 ca31 5222 9e33
00000090: 3fd0 cd31 811a a631 1094 3331 aedc 4b31
000000a0: f881 4e30 1264 1b33 d8ce 9533 9dd5 c433
000000b0: 5be2 3c33 ce75 c332 d498 f332 7d6f 6135
000000c0: ee3b 952f 2b3f 1b30 84fc d02f ece6 bc2f
000000d0: 3e02 d62e c909 9b31 8ccf 012f 2282 fc2e
000000e0: afd0 902f 31c5 f12e f0ee a12e 84ec 0d31
000000f0: e38f ec33 2cee 9f33 7f99 9533 2200 ab33
00000100: e871 8033 9463 ad35 24e6 3234 0717 a333
00000110: 4161 3834 a642 a334 b69f d633 f2b9 2536
00000120: a1ef 0f34 1042 4e34 c301 0533 b6b3 9434
00000130: 9d3b b133 becf f035 206b 8733 ed90 7d33
00000140: cc91 a132 bfa0 c933 e552 0133 d3f2 3235
00000150: f404 7133 10f0 d832 d9a9 5b33 fb09 e533
00000160: a980 b532 90f2 1535 3836 222d 9945 4a2d
00000170: 1539 522a dd0b 412d 34f4 342c acd6 8c2e
00000180: ec68 b92d 162e 402d cf84 ab2d e350 e12c
00000190: 0b9e 4d2c 5db1 fe2e debd e433 b201 2333
000001a0: 0d4a 8c33 20ed d333 527e 4933 bcbf 4b35
000001b0: 39b1 e832 e2ea 2032 5d9d 4d32 b7f3 c431
000001c0: 786e e431 587f 3434 c599 0034 1683 1334
000001d0: dea2 9433 0daa 2834 4d4e 8d33 549c db35
000001e0: 43ca 1d33 1f41 4a33 2d10 a631 2d87 1233
000001f0: 7f61 5f32 ceec b434 27c2 3634 9197 3634
00000200: 0814 9433 f83e 2d34 2eb0 b133 0078 f135
00000210: 83ad af31 ac9d 2732 2abb b130 e4d7 0931
00000220: d324 7731 6e57 ac33 c4a5 9533 46e6 5333
00000230: d72c 6233 8d9d 2334 0528 ce32 817f 3f35
00000240: f2dd c234 2c1a 9434 da76 d534 36d8 0f35
00000250: 2205 6d34 ba8d be36 866f dd33 1be0 2d33
00000260: a14e c633 fad5 3a34 2c21 7c33 e412 9035
00000270: 66be b833 c955 9933 55c6 f532 9e9a ec33
00000280: 2499 1b33 1c7d 7635 9672 b433 10d3 c933
00000290: 3391 f232 fc80 aa33 4890 e132 5b7d 4035
000002a0: 70e3 1d34 7f06 0e34 c09d e433 7e84 6534
000002b0: 566e c833 2f66 1536 6804 6033 b401 9a33
000002c0: fa2f 2933 dc58 0634 79b1 2f33 6d29 7535
000002d0: ceea 3134 b9ec e833 cb38 3f34 cb60 dd34
000002e0: bc9d 0c34 f872 3736 b926 9833 fc9f 9733
000002f0: fb39 3433 aec6 9f33 0b22 1a33 bc84 8d35
00000300: 772e dd32 8a30 8a32 b1e5 ae32 b2d6 e831
00000310: 8b27 2532 492a 6634 5657 6233 c5a2 d532
00000320: d1a2 8133 e8c3 2b33 2173 f032 8b5b 1b35
00000330: 2b8b 7c2d 3aa9 f72a 0d9a 1c2d 884f 112c
00000340: a289 3c2b ce15 f42d 17e0 0929 4ed9 2d28
00000350: 8102 8925 8c6d f427 5b76 0529 3cb2 1a2a
00000360: 7fc5 4a33 1792 1e32 7753 0733 2584 4833
00000370: 9b8c 8f32 8c54 b934 c8c5 2533 73f9 2233
00000380: 893f 1433 fe67 0434 174d f432 b31a 2635
00000390: 64b8 d02d 36f9 252c 7841 2c2b 4b0a 802e
000003a0: 5961 fe2c 590b d42e bc9d 4833 b704 8b33
000003b0: a8c7 8332 4d4a 8433 4dc7 1333 f45a 3235
000003c0: 4205 7b33 8932 3733 a33e 2733 7f00 e933
000003d0: cce9 2033 00df 4435 1a75 a32e b33a 2d2e
000003e0: 03ef 0b2d 82c6 062e b159 9c2e 7892 fb2f
000003f0: a8f4 7f34 806d 1e34 7ab5 2534 c0ff c834

exp_avg f4 [128]
-2.9259576e-05 1.2601857e-05 2.5899597e-05 4.0129988e-05 2.2040745e-06 -2.2384811e-05 2.6594794e-06 2.2427204e-05
3.8580056e-06 2.6309085e-06 1.4937105e-05 -2.7984881e-05 -2.8471761e-06 1.1301548e-05 6.305135e-06 -5.7057246e-08
1.0747007e-06 9.871546e-06 -3.5590465e-06 3.6937792e-05 3.7602244e-06 2.6514204e-05 4.115694e-06 -1.5804339e-05
-4.8962138e-05 3.041034e-05 -6.157459e-06 2.9236891e-05 3.7528887e-05 -2.7964146e-05 3.0970063e-05 -1.0814153e-05
8.198887e-06 -4.52352e-06 -2.1914839e-07 -1.6003384e-08 -1.0511724e-06 -1.8710203e-05 7.9142346e-08 -1.9487614e-05
1.5942776e-05 -8.003635e-07 -1.9512963e-05 -1.8227946e-07 1.7613203e-05 -6.8125024e-05 -1.6803447e-06 2.7511445e-05
1.5596852e-06 -3.5159643e-05 -1.5854633e-06 -8.514976e-06 8.522315e-07 3.9881365e-06 -6.984525e-08 -4.2573378e-05
4.9545065e-06 -5.322324e-06 3.913518e-05 -1.8021077e-05 5.639844e-06 2.746636e-05 -3.197599e-06 3.5550345e-06
-8.725753e-08 1.108519e-05 4.598266e-06 -1.3027403e-05 -6.9829736e-07 -1.40842785e-05 1.8627517e-05 -4.8956813e-06
2.6795146e-06 7.934464e-08 6.0530106e-06 -2.167424e-05 3.476301e-06 -6.0261673e-06 1.4558241e-05 1.608972e-05
3.3629058e-05 -8.414984e-06 8.447596e-06 -2.1370995e-06 7.988919e-08 3.665363e-06 3.0747944e-07 3.1730714e-09
1.0518929e-05 5.705288e-06 2.8859937e-05 3.4340606e-05 1.1127438e-05 -6.045759e-07 2.7994251e-06 -2.8605073e-05
-5.2347824e-09 -4.546385e-06 3.84985e-06 5.944064e-05 1.7382312e-05 -2.9334029e-05 -3.284065e-05 2.0308357e-06
-1.2348057e-08 -1.4603471e-05 1.5781001e-05 -3.2576034e-05 9.285687e-09 8.2071773e-07 -6.894232e-07 1.4411044e-05
-4.0937584e-07 4.036992e-09 -3.6725217e-07 2.5783233e-05 3.513931e-05 -1.0733859e-06 9.529728e-06 9.616771e-07
3.042412e-07 3.1668187e-06 1.28895135e-05 2.612578e-05 -1.0427832e-05 -6.2683644e-06 -7.1382203e-07 -2.7004224e-05
00000000: 7672 f5b7 906c 5337 f642 d937 3f51 2838
00000010: b6e9 1336 04c7 bbb7 8279 3236 0e22 bc37
00000020: 0474 8136 aa8e 3036 619a 7a37 13c1 eab7
00000030: 1d12 3fb6 c79b 3d37 b290 d336 1b0f 75b3
00000040: 6f3e 9035 f89d 2537 f4d7 6eb6 a7ed 1a38
00000050: 2a58 7c36 d26a de37 8b19 8a36 8f93 84b7
00000060: b25c 4db8 b519 ff37 2c9c ceb6 bf41 f537
00000070: 5668 1d38 8c94 eab7 dae5 0138 6f6e 35b7
00000080: f48d 0937 bec8 97b6 0d4f 6bb4 d077 89b2
00000090: 0216 8db5 dbf3 9cb7 f7f4 a933 5579 a3b7
000000a0: dabc 8537 90d8 56b5 c5af a3b7 99b8 43b4
000000b0: 11c0 9337 58de 8eb8 3488 e1b5 61c8 e637
000000c0: 6056 d135 6178 13b8 1bcc d4b5 8bdb 0eb7
000000d0: e7c4 6435 d5d1 8536 d5fd 95b3 d190 32b8
000000e0: e33e a636 6a96 b2b6 1425 2438 f82b 97b7
000000f0: e43d bd36 8f67 e637 5596 56b6 0793 6e36
00000100: 5662 bbb3 87fa 3937 ce4a 9a36 4590 5ab7
00000110: a172 3bb5 844b 6cb7 4a42 9c37 9545 a4b6
00000120: b6d1 3336 2d64 aa33 f71a cb36 13d1 b5b7
00000130: 654a 6936 6234 cab6 2b3f 7437 69f8 8637
00000140: ed0c 0d38 152e 0db7 26ba 0d37 176b 0fb6
00000150: 8c8f ab33 75fa 7536 a713 a534 430d 5a31
00000160: 757a 3037 0d70 bf36 3e18 f237 f208 1038
00000170: fbaf 3a37 244a 22b5 c2dd 3b36 edf4 efb7
00000180: a2dd b3b1 268d 98b6 f62d 8136 e74f 7938
00000190: 3bd0 9137 5912 f6b7 61be 09b8 7e49 0836
000001a0: 5423 54b2 6e01 75b7 7161 8437 40a2 08b8
000001b0: e286 1f32 4b4f 5c35 cd10 39b5 f6c6 7137
000001c0: 30c8 dbb4 c2b5 8a31 c12a c5b4 1249 d837
000001d0: 8c62 1338 4211 90b5 dfe1 1f37 f912 8135
000001e0: 9856 a334 8885 5436 0a40 5837 af28 db37
000001f0: 33f3 2eb7 d754 d2b6 7a9d 3fb5 2187 e2b7

exp_avg_sq f4 [128]
4.3242154e-10 2.1713964e-09 9.933133e-09 6.124437e-09 5.813897e-11 2.7864402e-10 1.0593908e-10 2.1973157e-09
1.4938733e-11 5.782671e-12 3.248868e-09 6.4578294e-09 4.959947e-09 1.8800341e-09 1.435249e-09 2.5934251e-13
4.4369228e-13 2.2038116e-09 4.6138565e-10 4.3571236e-09 9.200647e-10 4.6954862e-09 2.2714657e-10 2.025545e-09
1.4956932e-08 2.9604443e-09 2.5116471e-09 1.9497086e-09 5.959697e-09 2.4003621e-09 7.483379e-09 2.6896456e-09
6.068417e-10 1.6595815e-09 1.1867937e-13 6.83249e-16 9.680169e-10 1.7512886e-09 4.0906728e-13 1.8311641e-09
1.916411e-09 1.9167625e-12 6.4540613e-09 1.7614543e-14 1.0969752e-09 3.0761507e-09 1.5173465e-10 5.0405364e-09
3.3867722e-09 9.217401e-09 4.233881e-12 3.0501834e-10 7.5136947e-10 4.9467725e-11 2.6882997e-12 3.6346575e-09
6.8062236e-09 1.9264137e-09 6.9363404e-09 2.1527393e-09 8.620689e-11 4.882116e-09 4.4428433e-10 3.3601604e-09
1.9403655e-14 1.1439544e-08 1.2918615e-11 2.8128528e-09 3.2849886e-11 3.963844e-09 1.7657431e-09 2.9979412e-09
4.766293e-10 4.0996158e-11 3.7297273e-11 4.207439e-10 8.923565e-11 1.8753665e-10 1.9693673e-09 4.350339e-10
2.474768e-09 8.056462e-10 1.558942e-09 2.945784e-09 1.0458204e-12 1.9898246e-11 4.566167e-14 3.8386627e-17
1.6814706e-08 2.2085394e-09 1.1674799e-09 4.8794675e-09 9.28946e-10 1.8688289e-12 3.5524916e-11 2.5402158e-09
1.1833675e-14 1.827611e-09 2.0087728e-11 1.4350829e-08 4.0776764e-09 6.8002155e-09 6.733527e-09 9.982596e-11
6.306722e-17 3.4834267e-09 8.068931e-10 3.9667505e-09 7.730301e-17 5.0854865e-10 2.8134415e-13 6.1159977e-10
1.2554296e-10 6.2406704e-16 1.4313839e-11 3.820079e-10 1.3579279e-09 9.325802e-11 1.9766027e-09 8.1170563e-13
2.135851e-13 1.8512062e-09 2.9672211e-09 9.053288e-10 3.0980726e-10 2.0758282e-09 8.411742e-14 6.5263075e-09
00000000: ecb9 ed2f 9c37 1531 62a6 2a32 1e6f d231
00000010: a9b2 7f2e a92f 992f 66f6 e82e 96ff 1631
00000020: 0967 832d ab75 cb2c b142 5f31 abe3 dd31
00000030: 286c aa31 e931 0131 5642 c530 32ff 912a
00000040: ccc6 f92a dd71 1731 42a6 fd2f aab5 9531
00000050: cce7 7c30 ef55 a131 13c0 792f c431 0b31
00000060: a47a 8032 b070 4b31 5d99 2c31 a3fb 0531
00000070: 0dc6 cc31 9ef3 2431 4090 0032 bfd4 3831
00000080: b0ce 2630 5517 e430 009f 052a e1ee 4426
00000090: 110b 8530 fdb1 f030 cf48 e62a 5cac fb30
000000a0: dcb1 0331 53e1 062c 86c2 dd31 5fa8 9e28
000000b0: 62c4 9630 3764 5331 82d5 262f 0731 ad31
000000c0: babc 6831 8f5a 1e32 69f7 942c 84af a72f
000000d0: ed88 4e30 b58f 592e 1a2c 3d2c 92c5 7931
000000e0: 2ddc e931 d461 0431 b254 ee31 64ef 1331
000000f0: 2a92 bd2e 8cbf a731 763f f42f 91e8 6631
00000100: c8c5 ae28 a687 4432 4544 632d 3b4c 4131
00000110: af79 102e 5732 8831 90ae f230 5704 4e31
00000120: ce03 0330 924d 342e ff08 242e 714e e72f
00000130: 343b c42e e032 4e2f 7a55 0731 9429 ef2f
00000140: 9410 2a31 5074 5d30 6542 d630 c86e 4a31
00000150: a72f 932b de06 af2d 52a4 4d29 ee06 3124
00000160: ee6f 9032 09c5 1731 0c75 a030 40a8 a731
00000170: c358 7f30 d481 032c 803d 1c2e f38f 2e31
00000180: 322d 5528 582f fb30 8bb1 b02d 9d8b 7632
00000190: 9f1b 8c31 54a7 e931 bb5c e731 0585 db2e
000001a0: 516c 9124 1761 6f31 0ecc 5d30 e84b 8831
000001b0: a53f b224 eec9 0b30 f761 9e2a 821d 2830
000001c0: 3409 0a2f 05e0 3326 cdcf 7b2d d502 d22f
000001d0: d7a1 ba30 9913 cd2e c3d4 0731 8e79 642b
000001e0: b779 702a 876d fe30 e8e7 4b31 dada 7830
000001f0: 7f51 aa2f 5ba6 0e31 646a bd29 023e e031
