MLAgentsProject/results/MoveToGoal4/MoveToGoal/MoveToGoal-92299.onnx (onnx, 72981 bytes, 7 tensors)

action_model._continuous_distribution.log_sigma f4 [1, 3]
0	0x3a32da60	0.00068227015
1	0x3c6b95d4	0.0143789835
2	0xbbaa6eab	-0.005201181

action_model._continuous_distribution.mu.bias f4 [3]
0	0x3a813d7c	0.0009860243
1	0xb967f507	-0.00022121157
2	0x39f21677	0.00046174575

action_model._continuous_distribution.mu.weight f4 [3, 128]
0	0x3bb2b5f2	0.0054538185
1	0xbd145f2a	-0.036223568
2	0x3ccc4aa4	0.024937935
3	0xbc107879	-0.008817785
4	0x3d12c2ce	0.03583031
5	0xbcd1b539	-0.025599109
6	0xbc2f72ae	-0.010708494
7	0xba493285	-0.00076750695
8	0xbd0f98f3	-0.035057973
9	0x3b2d1246	0.0026408597
10	0x3cc4814c	0.023987435
11	0x3cd3185a	0.025768448
12	0x3c962a46	0.018330704
13	0x3c8a4b72	0.016881678
14	0x3c4ec4fc	0.012620207
15	0xbcc838f3	-0.024441218
16	0x3c382703	0.01123977
17	0x3ca378e2	0.019955102
18	0x3cb439d2	0.022000227
19	0x3cfc563b	0.030802837
20	0xbbf4d095	-0.007471154
21	0x3aa98b64	0.0012935218
22	0x3ce3c9dd	0.027806217
23	0x3c24bb67	0.010054446
24	0xbb2df515	-0.0026543785
25	0xbc95bd40	-0.018278718
26	0x3d2be073	0.0419621
27	0xbd59a6f0	-0.05313772
28	0x3c8c2b57	0.01711051
29	0x3ca4d5fd	0.020121569
30	0xbc72bce1	-0.01481554
31	0x3c5ea2b2	0.013588594
32	0xbd0acb97	-0.033885565
33	0x3b8dc48c	0.0043264087
34	0x3bdc0ec6	0.0067156283
35	0x3c48da57	0.0122590875
36	0x3cb3e0d2	0.021957789
37	0x3bc652fe	0.006052374
38	0x3a377db6	0.00069996284
39	0x3af86f7f	0.0018954127
40	0xbc2e4f49	-0.01063902
41	0x3a9ab896	0.0011804278
42	0xbcfc710e	-0.030815627
43	0x3cd76599	0.026293563
44	0xbcafda3d	-0.021466369
45	0x3bf937e4	0.0076055396
46	0xbd304672	-0.043035932
47	0x3cdd4cb8	0.027014121
48	0x3c79e0ce	0.0152513515
49	0xbac6ae5e	-0.0015158167
50	0xbc82c0e4	-0.015961118
51	0xbca8b608	-0.020594612
52	0xbd1a73b6	-0.037708007
53	0xbbf6eaf1	-0.0075353314
54	0xbc3fded0	-0.0117108375
55	0x3b0caa76	0.0021463907
56	0x3c00aada	0.007853234
57	0xbb087b44	-0.0020825425
58	0x3c97d495	0.018533984
59	0xbc964efe	-0.018348213
60	0x3bd67620	0.0065448433
61	0xbd072531	-0.032994453
62	0x3c355119	0.0110666985
63	0x3ba05284	0.004892649
64	0x3c8f78e5	0.017513702
65	0x3c3b8891	0.011446134
66	0xbcb0ca70	-0.021580905
67	0xbce10f38	-0.027473077
68	0xbba85d41	-0.00513807
69	0xbc81d6eb	-0.015849551
70	0xbba5541f	-0.0050454284
71	0xbc031107	-0.007999665
72	0x3c8b21bd	0.016983861
73	0xbc8dc564	-0.017306037
74	0xbc4981a9	-0.01229898
75	0xbcb3f7ef	-0.02196881
76	0x3cc05f92	0.023483071
77	0xbd11290b	-0.035439532
78	0xbcddce07	-0.02707578
79	0xbc0ef15f	-0.00872454
80	0x3c8b2eb4	0.016990043
81	0xbc7dcfd3	-0.015491444
82	0x3d46cf87	0.048537757
83	0xbb66dee0	-0.0035228059
84	0xbc288e77	-0.0102878725
85	0xbc88fe66	-0.01672287
86	0x3bab59d0	0.0052292123
87	0x3c49477d	0.012285111
88	0xbd245675	-0.040121514
89	0x3c74a19b	0.014931108
90	0xbcd3afa6	-0.025840592
91	0x3d108f90	0.035293162
92	0xbc173877	-0.009229771
93	0xbab6d246	-0.0013948164
94	0xbbb1f9df	-0.0054313983
95	0x3cb268e8	0.021778539
96	0x3c202580	0.009774566
97	0x3cba10d6	0.022713106
98	0xbc27c769	-0.010240414
99	0xbcbb39ba	-0.022854675
100	0x3a959a0a	0.0011413705
101	0xbc842edb	-0.016135624
102	0x3cf068b8	0.029346809
103	0xbd1f7b29	-0.038935814
104	0x3c129581	0.008946777
105	0xbc88c99a	-0.016697694
106	0x3ca3fce6	0.020018052
107	0xbb264695	-0.002537166
108	0xbc0bf310	-0.008541837
109	0x3be210e8	0.006898988
110	0xba208670	-0.00061235484
111	0x3d03388d	0.032036353
112	0xbcb28ea5	-0.021796534
113	0x3d213c13	0.039363932
114	0xbaa494c5	-0.0012556544
115	0xbc7e7c33	-0.015532541
116	0xbbdf13f0	-0.0068077967
117	0xbc50bb52	-0.012739973
118	0xba145e08	-0.00056597637
119	0x3c74be93	0.014938015
120	0xba67e264	-0.00088456855
121	0x3bc04801	0.0058679585
122	0xbc828feb	-0.015937766
123	0xba84acfd	-0.0010122355
124	0xbba260ae	-0.004955373
125	0xbb3c9979	-0.0028778
126	0xbb93ce41	-0.0045106714
127	0x3c01e662	0.007928463
128	0xbc768a67	-0.015047646
129	0x3c88f980	0.016720533
130	0x3ca86938	0.020557985
131	0x3c2c006c	0.010498147
132	0x3cbc1515	0.022959271
133	0x3c963ea1	0.01834041
134	0xbb15100a	-0.0022745156
135	0x3c70cd23	0.014697346
136	0xbca4f561	-0.020136537
137	0x3c17f7ef	0.009275421
138	0x3d0fc99f	0.03510439
139	0xbc0ca31a	-0.008583808
140	0xbcef78c0	-0.029232383
141	0xbc7255bf	-0.014790951
142	0xbc557fec	-0.013030987
143	0xbc84e99e	-0.016224679
144	0x3c1257ef	0.008932098
145	0xbcad1db6	-0.021132331
146	0x3c7c6bac	0.01540653
147	0xbc9361c8	-0.017990962
148	0xbbaefb85	-0.005340042
149	0xb929d4fc	-0.00016196439
150	0xbc9051a0	-0.017617047
151	0x3ce9819d	0.028504187
152	0x3c47f6f6	0.012204876
153	0x3cd5f5d2	0.026118193
154	0xbb963d06	-0.0045849113
155	0x3c76a52a	0.015054027
156	0x3bb7ffd3	0.0056152134
157	0x3c20737e	0.0097931605
158	0xbcc2ba31	-0.023770424
159	0xbd095b66	-0.03353443
160	0x3b95ff8f	0.004577584
161	0x3caa66c4	0.020800956
162	0xbc0699be	-0.008215366
163	0xbccf1644	-0.025279172
164	0x3b9bab14	0.0047506187
165	0x3b27bedd	0.002559594
166	0x3bf770b5	0.0075512775
167	0xbd101dbb	-0.035184603
168	0x3ce47c10	0.027891189
169	0xbcc65d8b	-0.024214527
170	0x3ca3d755	0.02000014
171	0x3c7cfefa	0.0154416505
172	0xbbeab182	-0.007162274
173	0xbceb4dbe	-0.028723594
174	0xbc049b5d	-0.008093682
175	0xbd1c3c40	-0.038143396
176	0xbbe87bbb	-0.007094828
177	0x3c9c2f25	0.019065449
178	0x3b1351ff	0.0022479293
179	0xbbbdfaf2	-0.0057977373
180	0xbbea91d5	-0.007158498
181	0x3b04ff4b	0.0020293768
182	0x3c08e0e4	0.008354399
183	0x3cec5b04	0.028851993
184	0x3a2649cc	0.0006343394
185	0xbd2467d2	-0.040138073
186	0x3c314065	0.0108185755
187	0x3cb878bb	0.022518506
188	0xbca5b300	-0.020226955
189	0x3bd3d4ef	0.0064645926
190	0xbd020bc7	-0.031749513
191	0x39af86ae	0.00033478945
192	0x3b324edb	0.0027207646
193	0xbc5df176	-0.013546338
194	0x3c69c719	0.01426866
195	0xbb8f2d76	-0.004369433
196	0x3ced793e	0.028988477
197	0xb8a6c5fc	-7.952374e-05
198	0xbd2fe7aa	-0.04294554
199	0xbc3fc19d	-0.011703876
200	0x3b0087c9	0.0019612184
201	0xb9ff3f17	-0.00048684396
202	0x3ca06cb2	0.01958308
203	0xbcbc9506	-0.023020279
204	0x3b7cf3da	0.0038597495
205	0x3cec4404	0.028841026
206	0xbacd4027	-0.0015659378
207	0x3c87386e	0.0165064
208	0x3b83656a	0.004009892
209	0x3bb12353	0.0054058223
210	0x3ccc446a	0.024934966
211	0x3bfa9e44	0.0076482613
212	0x3cc6a395	0.024247924
213	0x3ba2f501	0.0049730544
214	0x3cc04447	0.023470057
215	0x3c7ebced	0.015547973
216	0x3c76ab65	0.015055512
217	0x3d142d1f	0.036175843
218	0x3b8bcbe4	0.004266249
219	0x3c5489e3	0.012972328
220	0x3c35d995	0.011099239
221	0xba7aa50c	-0.0009561337
222	0x3c920aae	0.017827358
223	0xbb4bc881	-0.0031094851
224	0xbbabcb25	-0.0052427226
225	0x3c636a0f	0.013880267
226	0x3d28a7a9	0.04117552
227	0x3c47f888	0.012205251
228	0xbc04069a	-0.008058215
229	0x3b71724a	0.0036841803
230	0xbc1fe8c0	-0.009760082
231	0xbb40e0e1	-0.0029430913
232	0xba6d379d	-0.00090491195
233	0x3ca29785	0.01984764
234	0xbc56023e	-0.013062058
235	0xbc1637f5	-0.009168615
236	0xbb815cd4	-0.0039478336
237	0x3c1ba9f2	0.009500967
238	0xb952d768	-0.00020107406
239	0xbc0cb612	-0.008588331
240	0xbc4784b3	-0.012177634
241	0xbc3642f2	-0.011124359
242	0xbc946057	-0.018112345
243	0x3d1722e9	0.036898527
244	0xbcb2348f	-0.021753578
245	0x3bc58a59	0.006028455
246	0xbbf8df4c	-0.0075949784
247	0xbb4347db	-0.0029797468
248	0x3af1f504	0.0018459861
249	0x3cbd96d7	0.023143215
250	0xbc7529a1	-0.014963538
251	0xbd0df159	-0.034653995
252	0x3b3cbb6b	0.0028798233
253	0x3cdf3cdf	0.027250705
254	0x3cc4634f	0.023973135
255	0xba68218c	-0.00088550965

network_body._body_endoder.seq_layers.0.bias f4 [128]
0	0xbb31aae6	-0.002710992
1	0x3aa70b4e	0.0012744458
2	0x3b2d16dc	0.002641133
3	0x3c43ee9a	0.0119587425
4	0xb9d2ac26	-0.00040182582
5	0xbba23f1c	-0.004951371
6	0xba363205	-0.00069502025
7	0xbad020b8	-0.0015878892
8	0xb993d5bb	-0.00028197267
9	0xb9169133	-0.00014359206
10	0xbada84ff	-0.0016671716
11	0xba0a782a	-0.0005282188
12	0xbb072b66	-0.0020625233
13	0xbb11fc78	-0.0022275727
14	0xba673f6a	-0.00088214
15	0x3aa992bf	0.001293741
16	0x3af2b21a	0.0018516213
17	0xb9838dbe	-0.00025091873
18	0xbc45c3f3	-0.012070644
19	0x3a399e5c	0.00070807873
20	0xbaa7cfb9	-0.0012802995
21	0xb91cf9bd	-0.00014970354
22	0xba1b746b	-0.00059301284
23	0xba375839	-0.0006994042
24	0xbaade7bd	-0.0013267916
25	0xb8edc38b	-0.000113374634
26	0x3c245be1	0.010031671
27	0x392b571d	0.00016340283
28	0xbadfc7c9	-0.001707309
29	0xbacb5567	-0.0015513123
30	0xbb663df4	-0.0035132142
31	0xbb0d2c3c	-0.0021541258
32	0xbb31eae6	-0.0027148067
33	0x3c28c4cc	0.010300826
34	0x3abf11cb	0.0014577446
35	0xbb5efd26	-0.00340254
36	0xbb188c5e	-0.0023277025
37	0xba34a2d0	-0.0006890716
38	0xbb445550	-0.0029958077
39	0xb8314575	-4.2264775e-05
40	0xba5fc4ba	-0.00085360894
41	0x3ad3e712	0.0016166887
42	0xbb626996	-0.0034547797
43	0x3afb218d	0.0019159779
44	0xba9a50e3	-0.0011773374
45	0x3b8f86ba	0.0043800743
46	0x3b0aaea9	0.0021161234
47	0xbb849b7a	-0.0040468546
48	0xbad6c318	-0.0016385047
49	0x3c777dc9	0.015105673
50	0xbb23a036	-0.002496732
51	0xbb1318aa	-0.002244512
52	0xbb24cb6c	-0.0025145663
53	0x3ad09e55	0.0015916327
54	0xbb06457b	-0.002048819
55	0xbb836665	-0.004010009
56	0x3af3a2c3	0.0018587935
57	0xbac348b1	-0.0014898983
58	0x3c8cd57d	0.017191643
59	0xbb7c6c8a	-0.0038516843
60	0x3bb87830	0.005629562
61	0xbb566b70	-0.0032717846
62	0xbba165f0	-0.004925482
63	0x3b895bdc	0.0041918587
64	0x3afde805	0.0019371515
65	0xb955d5dd	-0.00020392933
66	0xbb85331c	-0.0040649306
67	0x3a5c6fa5	0.00084089703
68	0xbb576a7e	-0.003286987
69	0xb94b197b	-0.00019369081
70	0xbb2904c3	-0.0025790192
71	0x39b0fb93	0.00033756773
72	0x3a786c05	0.00094765454
73	0xbb38fc58	-0.002822658
74	0x3b954bf1	0.004556172
75	0xb9954f1d	-0.0002847844
76	0xbb8774f5	-0.0041338154
77	0xbc28ed5e	-0.010310499
78	0xbab396e7	-0.0013701589
79	0x3b6a613c	0.0035763523
80	0xbbe53cf4	-0.0069957916
81	0x39436b13	0.00018636537
82	0xbb2bad09	-0.0026195666
83	0x3b4af640	0.003096953
84	0x3bc38633	0.0059669255
85	0xbb7f03ff	-0.0038912294
86	0xbb41e498	-0.0029585715
87	0xbb23c273	-0.0024987727
88	0xbaa20055	-0.0012359718
89	0xbb880ccc	-0.004151916
90	0xbba22381	-0.00494808
91	0xb9cf700d	-0.000395656
92	0xba613997	-0.00085916504
93	0xbb26af5c	-0.0025434112
94	0x3a0dd822	0.00054109294
95	0x3bd3cfc6	0.0064639775
96	0xb97552ef	-0.00023395916
97	0xbc1494e2	-0.0090687
98	0x39f4b96d	0.0004667746
99	0xb98d7901	-0.0002698377
100	0xba329fc5	-0.00068139686
101	0x3a88cbd1	0.0010436719
102	0xbac02e82	-0.0014662298
103	0xbac2a05e	-0.0014848819
104	0x39553016	0.00020331176
105	0x3ad5ea7a	0.001632049
106	0xbb0c547b	-0.002141266
107	0xbb204fbc	-0.0024461588
108	0x3b5de788	0.0033859927
109	0xbc205575	-0.009786
110	0x3a9a7c44	0.0011786302
111	0x3afedd47	0.0019444608
112	0xbafd7603	-0.0019337538
113	0xb98a659b	-0.00026397113
114	0x3beb3a0c	0.0071785506
115	0xbb700f82	-0.0036630337
116	0x3ab08478	0.0013467213
117	0xbc4554c0	-0.012044132
118	0x3a08a440	0.00052124634
119	0xbb094052	-0.002094288
120	0xb91f55ba	-0.00015195357
121	0xba8e991a	-0.0010879368
122	0x3a67861e	0.00088319357
123	0xbb05ce55	-0.0020417173
124	0x3c110715	0.008851786
125	0x3c07941e	0.00827506
126	0x3a5e6966	0.00084843335
127	0xba0d6c1e	-0.0005394834

network_body._body_endoder.seq_layers.0.weight f4 [128, 6]
0	0x3f0d5d27	0.55220264
1	0x3e57e6c3	0.21084122
2	0xbe7b0111	-0.24512126
3	0x3c80e1d1	0.015732678
4	0xbef3ce97	-0.47618553
5	0x3e92769a	0.2860611
6	0xbe90c7e7	-0.28277513
7	0xbe0e1014	-0.13873321
8	0xbeb38f90	-0.35070467
9	0xbf131cc5	-0.57465774
10	0xbf2b8268	-0.6699586
11	0x3e3846c3	0.17995743
12	0xbea0b064	-0.31384575
13	0x3f1bd85d	0.6087702
14	0xbe3b3387	-0.18281375
15	0xbd4c76ad	-0.049917866
16	0xbe6a6285	-0.22889145
17	0xbe6638ef	-0.22482656
18	0xbe785eab	-0.24254863
19	0x3f259890	0.64685917
20	0x3edb3722	0.428155
21	0x3e8df7fa	0.27728254
22	0xbe325a0e	-0.17417166
23	0xbeb805f1	-0.35942033
24	0x3e6103b6	0.21974072
25	0x3f2da04f	0.67822737
26	0x3e6f9c20	0.233994
27	0x3e888703	0.26665506
28	0xbd9ea293	-0.07745852
29	0x3e02553c	0.12727827
30	0x3c1e0959	0.009645783
31	0x3ed3507b	0.4127234
32	0x3e74561e	0.23860976
33	0xbb4ceb9d	-0.0031268366
34	0x3eb6c3e1	0.3569632
35	0xbe5960cc	-0.21228331
36	0xbee3adde	-0.44468588
37	0x3f0147ad	0.50499994
38	0x3eacd935	0.33759466
39	0xbf3de50b	-0.74177617
40	0x3e97c4c6	0.29642314
41	0x3ed726a8	0.4202168
42	0xbe8d4a5a	-0.27595788
43	0xbea27835	-0.31732336
44	0x3f115edb	0.5678536
45	0xbd03a60c	-0.032140777
46	0xbe0e9db5	-0.13927348
47	0x3e61084b	0.2197582
48	0xbe86182a	-0.2619031
49	0x3e54e926	0.20792064
50	0xbccb7450	-0.024835736
51	0x3e9d3d67	0.3071091
52	0x3da302cd	0.079595186
53	0x3eac83f1	0.33694413
54	0x3e3152c2	0.17316726
55	0xbdfba1c9	-0.122867174
56	0x3d370891	0.044685904
57	0xbccc427a	-0.024934042
58	0xbe5872d7	-0.21137558
59	0xbd9473c3	-0.07248642
60	0x3c6c061c	0.014405753
61	0x3f14ba8a	0.58097136
62	0x3d941384	0.07230285
63	0xbe1f0c73	-0.15532093
64	0x3ebed90c	0.3727497
65	0x3e9869c9	0.29768208
66	0x3fa95441	1.3228837
67	0xbe798cf5	-0.24370177
68	0x3e856f03	0.26061258
69	0x3f5872b6	0.84550035
70	0xbeedb2fa	-0.4642561
71	0xbc05e38c	-0.008171927
72	0x3f3cc378	0.7373576
73	0xbcbfa11b	-0.02339225
74	0x3e9a0989	0.300854
75	0x3f1be690	0.60898685
76	0xbefe9dd8	-0.497298
77	0x3e918a00	0.28425598
78	0xbd1acb81	-0.037791733
79	0xbe69dffb	-0.22839348
80	0x3f03a666	0.5142578
81	0xbef80d34	-0.48447573
82	0x3eece8b8	0.462713
83	0xbd3cb6aa	-0.04607264
84	0x3eac918d	0.33704796
85	0xbe94bfe1	-0.29052642
86	0x3e85a413	0.2610174
87	0x3ea0c8d5	0.31403223
88	0x3f0f9a17	0.560945
89	0x3ee557a9	0.44793442
90	0x3ee90c07	0.4551699
91	0xbe117265	-0.14203794
92	0x3df2483d	0.118301846
93	0x3d9fb7b0	0.077987075
94	0xbe2e0fba	-0.16998187
95	0x3eb576a4	0.35442078
96	0xbdfe5cab	-0.12420019
97	0x3e91a2b5	0.28444448
98	0xbe1eff37	-0.15527044
99	0x3ca81c81	0.020521404
100	0xbe73ac55	-0.23796208
101	0xbf461e2b	-0.7738978
102	0x3e47d76c	0.1951577
103	0x3dfdbab8	0.123891294
104	0xbe2411dd	-0.1602244
105	0x3e51472c	0.20437306
106	0x3e5bada1	0.21452953
107	0xbec75e1b	-0.38938984
108	0xbde0aa06	-0.109699294
109	0xbe9206d2	-0.28520828
110	0xbe4f3350	-0.20234418
111	0xbf0e40cf	-0.5556764
112	0xbee4635a	-0.4460705
113	0xbee84bfc	-0.4537047
114	0x3e3314ed	0.17488451
115	0x3ea8c235	0.32960668
116	0xbe777cc4	-0.24168688
117	0xbbe04bec	-0.006844988
118	0xbe6e5827	-0.23275815
119	0x3e31dfaa	0.17370477
120	0xbe3c9608	-0.18416607
121	0x3f83f33b	1.0308603
122	0x3e965925	0.29364887
123	0x3dc5b59f	0.09653782
124	0xbe51eef2	-0.20501307
125	0xbd010969	-0.031503115
126	0xbdba9881	-0.09111119
127	0x3da4b6b8	0.08042663
128	0xbde7487e	-0.11293124
129	0x3d8d92e1	0.069127806
130	0xbd6e9f1a	-0.0582572
131	0x3e0f797b	0.14011185
132	0xbe8c2e07	-0.27378866
133	0x3def246a	0.11676867
134	0xbf6e24e4	-0.9302504
135	0xbd2427d6	-0.040077053
136	0x3eb9bcab	0.36276755
137	0x3c91a073	0.017776703
138	0x3dc850eb	0.09781059
139	0xbe8edc5c	-0.27902496
140	0xbdc2e904	-0.095171005
141	0xbf4697b6	-0.7757524
142	0xbe9988f5	-0.29987302
143	0x3dc09b1b	0.09404584
144	0x3e0c78dc	0.13717979
145	0x3dcfe7d2	0.10151638
146	0x3eea2119	0.45728377
147	0x3ec5ce78	0.38634086
148	0x3f0c5256	0.54813135
149	0x3f180956	0.59389246
150	0x3ebb052c	0.36527383
151	0x3d58676c	0.052833006
152	0x3efd5687	0.49480078
153	0xbc4b4e50	-0.012408808
154	0xbee003c0	-0.4375286
155	0x3e3c50c3	0.18390183
156	0xbe996d73	-0.29966316
157	0x3e842ff9	0.2581785
158	0x3ec9cf97	0.3941619
159	0x3d3bcfe2	0.04585255
160	0x3dbc575b	0.09196349
161	0xbee346dc	-0.4439
162	0xbd1aad0d	-0.03776269
163	0x3e941a37	0.2892625
164	0xbecbe764	-0.39824975
165	0xbd804143	-0.06262448
166	0xbf156276	-0.58353364
167	0xbe58321a	-0.21112862
168	0x3dd2d293	0.1029407
169	0xbec4b83a	-0.38421804
170	0x3d23dc32	0.040004916
171	0x3e852b37	0.26009533
172	0x3ea7d52b	0.32779822
173	0x3d427e5e	0.047483794
174	0x3f3338f8	0.700088
175	0xbeab2c6e	-0.33432335
176	0x3e272da7	0.16326009
177	0x3ea2f90a	0.31830627
178	0x3e38ece2	0.18059114
179	0x3f6e7ec5	0.93162185
180	0x3e18201e	0.14856002
181	0x3f0f1130	0.558856
182	0xbb0fdb04	-0.0021950612
183	0x3f214650	0.62997913
184	0x3eafca2e	0.34333938
185	0xbecef6dd	-0.40422717
186	0x3e371c41	0.17881872
187	0xbef8899c	-0.48542488
188	0x3cd9261b	0.026507428
189	0x3f3904be	0.7227286
190	0xbe74d23f	-0.23908328
191	0x3e817a99	0.25288847
192	0x3ecdaec7	0.40172407
193	0x3ddd7ace	0.10814439
194	0x3e74a84c	0.23892325
195	0xbe74cd72	-0.23906496
196	0x3ed04954	0.40680945
197	0xbea1ee64	-0.3162719
198	0xbe96d89f	-0.29462144
199	0xbedd115b	-0.43177304
200	0xbe6d7069	-0.23187412
201	0xbe0f494a	-0.13992801
202	0x3d0973e6	0.033557795
203	0xbefe22e5	-0.49635997
204	0xbdb88f1c	-0.09011671
205	0x3e63067b	0.22170441
206	0x3de83c8f	0.11339676
207	0x3f49a533	0.787677
208	0x3ed13628	0.4086163
209	0x3ef1a118	0.47193217
210	0x3d3350b2	0.04377813
211	0xbed7c4a4	-0.42142212
212	0xbd68be11	-0.056821886
213	0x3e28f8d2	0.16501167
214	0xbdabe94a	-0.08394106
215	0x3c6f6473	0.014611351
216	0x3dab9bba	0.08379312
217	0x3de8df6a	0.11370738
218	0xbc9d1cc0	-0.019178748
219	0xbdeba8b1	-0.11506785
220	0x3ec2ede7	0.3807213
221	0xbd9d0055	-0.07666079
222	0x3f19a28f	0.6001367
223	0x3ec3c00e	0.38232464
224	0xbf82f308	-1.0230417
225	0xbed2e93e	-0.41193575
226	0x3ed6e22a	0.41969424
227	0xbdd64a40	-0.10463381
228	0x3f0bfd3b	0.54683274
229	0x3dafea90	0.08589661
230	0x3dca4f0a	0.09878357
231	0xbe90123b	-0.2813891
232	0x3eb0ecad	0.3455557
233	0x3f5d88dc	0.86536956
234	0x3dd12502	0.10212137
235	0xbee94f57	-0.45568344
236	0xbe84058d	-0.25785485
237	0x3f72a303	0.94779986
238	0xbe1ddb2f	-0.15415643
239	0x3d486f13	0.048934054
240	0xbc868c0e	-0.016424205
241	0x3e08d53d	0.13362594
242	0xbe2fd8e9	-0.17172588
243	0xbdd80c67	-0.105492406
244	0xbea9a3b9	-0.33132723
245	0x3f4cee19	0.8005081
246	0x3f5cdf34	0.8627808
247	0xbdda98ad	-0.10673652
248	0x3e7f1501	0.24910356
249	0xbdafd27f	-0.08585071
250	0xbd696863	-0.056984317
251	0xbeae9b83	-0.3410302
252	0xbed719d0	-0.4201188
253	0x3e8040fd	0.25049582
254	0xbdaa5c1b	-0.08318349
255	0x3eddd895	0.433293

network_body._body_endoder.seq_layers.2.bias f4 [128]
0	0xba87a809	-0.0010349761
1	0xb963d66f	-0.0002172829
2	0x39e0a0da	0.00042844453
3	0xbaa89088	-0.0012860456
4	0xb8988c75	-7.274087e-05
5	0x3ba872d2	0.005140641
6	0x3ac133f1	0.0014740211
7	0xbad46045	-0.0016203007
8	0x3bceda5d	0.006312652
9	0xbb82c8ff	-0.0039912458
10	0xb81d1077	-3.744705e-05
11	0x3a87048c	0.0010301038
12	0xb990ae31	-0.00027595603
13	0xba4d20ce	-0.00078250177
14	0x3af00077	0.0018310685
15	0xbb56088d	-0.0032658905
16	0x3bc13ffa	0.005897519
17	0xbb513f39	-0.0031928553
18	0xbb1e459a	-0.0024150372
19	0xbb8e2fc9	-0.0043391925
20	0xbaf10847	-0.0018389308
21	0xbad2e19b	-0.0016088964
22	0x3a43902b	0.00074601424
23	0xb9f078dd	-0.00045866417
24	0x3853cd4f	5.049753e-05
25	0xbb590a05	-0.0033117544
26	0x39dc6fe4	0.00042045035
27	0xbab421d5	-0.0013742993
28	0xbb1ce227	-0.0023938508
29	0x3b8ac3c5	0.0042347633
30	0xba43856b	-0.00074585405
31	0x39b1a866	0.00033885537
32	0x3c161281	0.009159685
33	0xbb053bfb	-0.002032994
34	0xba1d7ce1	-0.0006007683
35	0x3b6f3430	0.0036499612
36	0x3bb03091	0.0053768833
37	0x3a8dc008	0.0010814676
38	0xbb0df18e	-0.002165887
39	0xb6d56545	-6.359684e-06
40	0xbade0079	-0.0016937397
41	0xbae4a9cc	-0.0017445623
42	0x3aa4fb9f	0.0012587196
43	0xb9bbb468	-0.00035801833
44	0xba9b1a50	-0.0011833403
45	0xb9770f77	-0.00023561517
46	0xbb23ee07	-0.0025013702
47	0x3987a761	0.00025873914
48	0x39de8b4e	0.0004244693
49	0x39df6f74	0.00042616914
50	0xba5c0c0f	-0.0008394131
51	0xba62b2be	-0.00086478505
52	0x3b0aac98	0.0021160003
53	0xba5d4033	-0.00084400474
54	0x3c2504a3	0.010071906
55	0xba887e13	-0.001041355
56	0xb9cd580a	-0.0003916624
57	0x3b5fbda5	0.0034140137
58	0x3bff7361	0.0077957367
59	0x3bac5a63	0.0052597984
60	0xb9fa3ce6	-0.0004772909
61	0x39b85fa5	0.00035166476
62	0xbbce60a9	-0.006298144
63	0xbb0cc072	-0.002147701
64	0xbba8a735	-0.0051468858
65	0xba99a48e	-0.0011722015
66	0xbb0159b5	-0.0019737307
67	0xba5f8843	-0.00085270795
68	0x3a5aa8a7	0.0008341171
69	0xbb6d4ee8	-0.0036210362
70	0xba8a4a03	-0.0010550622
71	0xbb063c2c	-0.0020482643
72	0x39f471be	0.0004662405
73	0xba940725	-0.0011293633
74	0xbaed93ae	-0.0018125677
75	0x3c496d1a	0.012294078
76	0x3a4559ef	0.0007528355
77	0x39a5e4fd	0.00031641862
78	0xba623fc4	-0.00086307176
79	0xb9c66748	-0.00037842453
80	0xbb993d31	-0.004676484
81	0x3af542ae	0.0018711889
82	0x39facdfa	0.0004783718
83	0xbad7dac9	-0.0016468401
84	0x3a8dfc2d	0.00108326
85	0xbb9f29ec	-0.0048572924
86	0xba7f3c1d	-0.00097364356
87	0x3a0db130	0.0005405126
88	0xba907c56	-0.0011023383
89	0xba984d67	-0.0011619747
90	0xbb79e6bf	-0.003813192
91	0x39a936fc	0.00032275158
92	0xba9f04d5	-0.0012132177
93	0xbaf83111	-0.0018935521
94	0xbaa10001	-0.0012283326
95	0xbafbc9b5	-0.0019209894
96	0xbb28ac63	-0.0025737516
97	0xbbc061e1	-0.005871043
98	0xba5222e9	-0.0008016066
99	0xbbb6b2c2	-0.005575509
100	0xbbb78d04	-0.005601527
101	0xb9e123b4	-0.00042941945
102	0x3b351eff	0.0027636883
103	0xbaf37191	-0.0018573274
104	0x3a92e822	0.0011208097
105	0xbbcfbe93	-0.006339857
106	0xbbe4d0dc	-0.006982906
107	0xba85a2f3	-0.0010195657
108	0xbb81d94c	-0.0039626714
109	0x3a525dbc	0.0008024832
110	0xbaddce38	-0.001692242
111	0x3aa107bc	0.001228563
112	0xbb10be66	-0.0022086143
113	0x3b242514	0.0025046514
114	0x3bdc698b	0.006726449
115	0xbb91ff82	-0.0044555077
116	0x3a15096c	0.0005685303
117	0x3be9be39	0.007133272
118	0xb971186d	-0.0002299265
119	0xb98664c9	-0.00025633562
120	0xba80c092	-0.0009823015
121	0xbb09992b	-0.0020995836
122	0x3b83db64	0.004023956
123	0x3a704219	0.0009165123
124	0xbb3f5b77	-0.0029198804
125	0xbb88d26e	-0.004175476
126	0xbbcf0db7	-0.0063187736
127	0xb7806ddb	-1.5309945e-05

network_body._body_endoder.seq_layers.2.weight f4 [128, 128]
0	0x3cad4daf	0.021155206
1	0xbe1f24be	-0.1554136
2	0xbe241ac0	-0.1602583
3	0x3cbb6a9a	0.02287798
4	0x3c2871b1	0.010281012
5	0xbcd6c8cd	-0.026218796
6	0xbe41de4b	-0.18932454
7	0x3d8a4b18	0.06752604
8	0x3c24e02d	0.010063213
9	0x3b3570cc	0.002768564
10	0x3d80d8b9	0.062913366
11	0x3d520f5a	0.05128417
12	0xbe045315	-0.12922318
13	0x3cb876d3	0.022517597
14	0xbd431003	-0.04762269
15	0x3a684a50	0.0008861171
16	0xbce60a1e	-0.028080996
17	0xbdf065f6	-0.117381975
18	0x3d2ed45b	0.042682987
19	0xbdc57689	-0.096417494
20	0x3e11cab4	0.14237481
21	0x3dac8207	0.08423238
22	0x3e35eafc	0.1776542
23	0x3dd5a623	0.10432079
24	0xbcbad604	-0.022807129
25	0xbe2d4174	-0.169195
26	0x3d393e55	0.04522546
27	0x3d88c467	0.06678086
28	0xbce52d79	-0.027975785
29	0xbc55dbde	-0.013052909
30	0xbe3ec32c	-0.1862914
31	0x3e418730	0.18899226
32	0xbdc72967	-0.09724694
33	0x3ca0166b	0.01954194
34	0xb9de930d	-0.000424527
35	0x3d0902bb	0.03344987
36	0xbd4d4505	-0.05011465
37	0x3c54dcf3	0.0129921315
38	0xbd5d8048	-0.054077417
39	0x3dd0763b	0.10178801
40	0xbd8fa6fd	-0.07014272
41	0x3c128c1c	0.0089445375
42	0xbdac3c18	-0.084098995
43	0xbd468a0e	-0.048471503
44	0x3dd3c9d6	0.103412315
45	0x3d0185c4	0.03162171
46	0x3cc3baaa	0.02389272
47	0xbc80feb7	-0.015746458
48	0xbd95f812	-0.07322706
49	0xbcefe7aa	-0.02928527
50	0xbb2c14bf	-0.0026257483
51	0xbcdb6e3e	-0.026785966
52	0x3db98cf7	0.0906009
53	0x3e2f00c8	0.17090142
54	0x3dc1a219	0.09454746
55	0xbd7dcae4	-0.06196107
56	0xbd9b97d7	-0.075973205
57	0xbc9b7530	-0.018976778
58	0x39ff482a	0.00048691157
59	0x3e2b4ee9	0.1672932
60	0xbcf35489	-0.029703395
61	0xbca2b208	-0.019860283
62	0x3e692c35	0.2277077
63	0x3c59a79b	0.013284589
64	0xba5c539d	-0.00084047933
65	0x3be32fab	0.0069331727
66	0xbd680312	-0.056643553
67	0xbcf24a8c	-0.029576562
68	0xbdf591ad	-0.11990676
69	0x3aa84def	0.0012840609
70	0xbe05493c	-0.13016218
71	0xbc573da3	-0.013137254
72	0xbd9cf0f5	-0.076631464
73	0x3ae54c40	0.0017494038
74	0x3ce909a1	0.028446974
75	0x3d297f4d	0.04138117
76	0x3d3fc16e	0.04681533
77	0x3caebcbc	0.02133023
78	0x3e0b26cc	0.13589019
79	0xbdcc1484	-0.099648505
80	0xbd4ae18a	-0.049531497
81	0xbc32fd6f	-0.010924681
82	0xbd9035d7	-0.07041519
83	0xbb3d90ad	-0.0028925345
84	0xbd0475a3	-0.03233875
85	0xbca225e6	-0.019793462
86	0x3d514be4	0.051097766
87	0x3d9d6d3a	0.07686849
88	0xbde6be60	-0.1126678
89	0xbdcc0a27	-0.09962874
90	0xbd7a37f7	-0.06108853
91	0x3cecb237	0.028893573
92	0x3e41bdd4	0.1892007
93	0x3dcbeab1	0.09956873
94	0x3e4a25da	0.19741002
95	0xbdb7b3ed	-0.08969865
96	0xbdaacf3e	-0.083403096
97	0xbaf921fd	-0.0019007322
98	0x3e2fe5dd	0.1717753
99	0x3dce8ed3	0.10085835
100	0xbe76b92c	-0.24094075
101	0x3cf3279f	0.029681979
102	0x3e415869	0.18881382
103	0x3ba69c4f	0.0050845514
104	0x3e1929b4	0.14957315
105	0xbd98f220	-0.07468057
106	0xbda7f2d1	-0.082006104
107	0x3b0d75cf	0.0021585112
108	0x3be470c0	0.0069714487
109	0x3d8b91ad	0.06814895
110	0x3cba3726	0.022731375
111	0x3e01c0bd	0.1267118
112	0x3df8dade	0.121511206
113	0xbddb8c6b	-0.10720142
114	0xbe06a9fc	-0.13150781
115	0x3da0e440	0.07856035
116	0xbe268ecb	-0.16265409
117	0x3c9b45cc	0.01895418
118	0x3e4dc9dd	0.20096536
119	0xbc7582a2	-0.014984759
120	0x3b6badf8	0.0035961848
121	0x3e212294	0.15735847
122	0xbcd647e0	-0.02615732
123	0x3d3011ae	0.04298561
124	0xbd960858	-0.0732581
125	0x3d428328	0.04748836
126	0x3d23b467	0.039966967
127	0x3dcd7726	0.100324914
128	0xbe004a33	-0.12528305
129	0x3d1771cf	0.03697377
130	0xbd473fb5	-0.04864474
131	0xbe42f5b1	-0.19039036
132	0xbe7f50e9	-0.24933209
133	0xbd5d243f	-0.053989645
134	0xbe356655	-0.17714818
135	0x3cd48a0d	0.025944734
136	0x3e2462cf	0.16053317
137	0xbd636622	-0.055517323
138	0x3d657634	0.05602093
139	0x3e2d821f	0.16944169
140	0x3cd3b033	0.025840854
141	0xbc86b5af	-0.016444055
142	0x3c9ff75a	0.019527126
143	0x3d67969c	0.056540117
144	0x3be9e27e	0.0071375957
145	0xbd69225f	-0.056917544
146	0xbad4bf1a	-0.0016231269
147	0xbdcfc1fd	-0.10144422
148	0x3df514a9	0.11966831
149	0x3dde6074	0.10858241
150	0x3da12a77	0.07869428
151	0xbd181647	-0.03713062
152	0x3d499ad5	0.049219925
153	0x3e0491e1	0.12946273
154	0xbdc6568b	-0.096844755
155	0x3c7065d7	0.014672718
156	0x3dc1ae53	0.09457078
157	0x3d135dcd	0.035978127
158	0xbb96acec	-0.0045982506
159	0x3d1bed23	0.038067948
160	0xbc6c36b3	-0.014417338
161	0x3e3f683d	0.18692107
162	0xbca34e74	-0.01993487
163	0xbe3d9ebb	-0.18517582
164	0x3d6d90bf	0.05799937
165	0xbd33ec69	-0.04392663
166	0xbc003a35	-0.007826378
167	0x3dafb034	0.0857853
168	0xbd8d7fd0	-0.06909144
169	0x3cd4a3ec	0.02595707
170	0x3d090775	0.033454377
171	0x3d245dec	0.040128633
172	0x3ce606f4	0.028079487
173	0xbb722147	-0.0036946104
174	0xbcbe616d	-0.023239816
175	0xbd89229a	-0.06696053
176	0xbd72f660	-0.059316993
177	0x3e31cd46	0.17363462
178	0xbd6445a9	-0.055730496
179	0x3dfea54e	0.12433873
180	0x3b527441	0.003211275
181	0xbd34465a	-0.044012405
182	0x3dab92cb	0.08377608
183	0xbdb151d3	-0.08658185
184	0xbe182b11	-0.14860179
185	0x3e1d4339	0.15357675
186	0x3ba44d75	0.0050141164
187	0x3dd19f29	0.102354355
188	0xbc2a2532	-0.010384845
189	0xbdd0a6cc	-0.10188064
190	0x3dc489af	0.095965736
191	0x3d961b87	0.07329469
192	0xbd2148b4	-0.039375976
193	0xbd933860	-0.07188487
194	0x3c93894d	0.018009806
195	0x3e05639d	0.1302628
196	0x3d5f0292	0.05444581
197	0x3d8c4d86	0.06850724
198	0x3c12d81a	0.008962655
199	0x3d90fe4c	0.07079753
200	0x3da6f1e9	0.081516095
201	0xbd7f36e0	-0.062308192
202	0x3d41c012	0.047302313
203	0xbd1e5980	-0.038659573
204	0xbdacb85e	-0.08433603
205	0xbe2d164d	-0.16903038
206	0xbe336fe3	-0.1752315
207	0x3cad9a23	0.021191662
208	0xbd6ddce4	-0.058071986
209	0xbc3a5d2d	-0.011374754
210	0xbe0159da	-0.12631932
211	0x390178da	0.0001234742
212	0x3bc44ef5	0.0059908577
213	0xbcd611e9	-0.026131587
214	0x3c86449c	0.016390137
215	0xbc10f8db	-0.008848394
216	0x3e276266	0.1634613
217	0x3dea0549	0.11426789
218	0x3e097366	0.13422927
219	0x3e1abc12	0.15110806
220	0x3d1e0bdf	0.03858554
221	0xbd388e10	-0.045057356
222	0x3ce1beb0	0.027556747
223	0xbd9e6169	-0.07733423
224	0xbe0452d8	-0.12922227
225	0x3e110d3b	0.14165203
226	0x3c46d531	0.01213579
227	0xbd03e81a	-0.03220377
228	0xbd565cff	-0.05233478
229	0xbddb8f0f	-0.10720646
230	0x3c7d5060	0.015461057
231	0x3be0db84	0.006862106
232	0xbd0d1c39	-0.034450743
233	0xbcc914da	-0.024546076
234	0xbd992160	-0.07477069
235	0xbb11a399	-0.0022222756
236	0xbd96bc76	-0.07360165
237	0xbd7bad2a	-0.06144444
238	0x3e09cfed	0.13458224
239	0xbc3d5da3	-0.011557969
240	0xbcf4e2bc	-0.029893272
241	0x3cd71753	0.026256239
242	0xbdbfe696	-0.09370153
243	0xbded502d	-0.11587558
244	0xbdda8dca	-0.10671575
245	0x3b838637	0.0040138024
246	0xbd9c3fd7	-0.07629364
247	0xbd980582	-0.074229255
248	0x3db6c06e	0.08923422
249	0xbd35a6a8	-0.04434839
250	0x3dcd4c30	0.10024297
251	0xbdcbf43c	-0.099586934
252	0x3d93212a	0.0718406
253	0xbd11993b	-0.035546523
254	0x3e2889bc	0.16458791
255	0xbd8d049a	-0.06885643
