MLAgentsProject/results/MoveToGoal4/MoveToGoal/MoveToGoal-7128.onnx (onnx, 72981 bytes, 7 tensors)

action_model._continuous_distribution.log_sigma f4 [1, 3]
0.0 0.0 0.0
00000000: 0000 0000 0000 0000 0000 0000

action_model._continuous_distribution.mu.bias f4 [3]
0.0 0.0 0.0
00000000: 0000 0000 0000 0000 0000 0000

action_model._continuous_distribution.mu.weight f4 [3, 128]
0.008263269 0.012928334 -0.0034421836 0.02121557 -0.012701451 0.002484065 0.0028193241 0.0044192686
-0.012413359 0.011644632 0.013335622 -0.0047590495 -0.00856433 -0.0034788903 0.025725504 -0.009670131
0.0066682347 -0.0062041627 0.012844204 0.0013956394 -0.018972777 0.0029011432 0.033734653 -0.00038010997
-0.019075772 -0.012002668 -0.028241826 -0.022522062 -0.0119878575 -0.020389587 0.024032962 -0.038809743
0.027982904 -0.016125225 -0.007438282 0.019113133 -0.0018038398 0.008346849 -0.026263833 -0.029038787
-0.02783533 -0.0017263575 0.02331861 -0.0011815301 0.00013017432 0.016916443 -0.018065425 -0.005821276
0.004914258 0.00128989 0.015883556 0.0035740584 0.017191429 -0.0020857246 -0.00026733853 0.016165465
0.00750755 0.010058246 -0.0066636684 -0.021276174 -0.0104409745 -0.0026804013 -0.0024063287 0.014201382
-0.02323725 -0.021135643 -0.0010689216 -0.024670426 -0.0116474535 -0.010692781 -0.0127648255 0.010063114
-0.04784069 -0.0054332386 0.02238704 0.008974785 0.005912392 0.0002921271 0.02225179 0.0035228096
0.010693503 0.029757738 -0.022095224 -0.005339218 -0.00418041 -0.0026604289 0.015682153 -0.036583688
0.011410527 -0.018575516 -0.02277119 -0.009953948 -0.010976749 -0.00047167236 0.002076737 0.006385366
-0.0007318797 0.01925177 0.017366009 -0.012132752 -0.019583395 0.002871245 -0.049294796 0.031316265
-0.02461698 0.003004298 0.008031791 0.006191167 -0.005951041 -0.014026649 0.0021047245 -0.010394991
0.02114048 -0.015270509 0.014411188 0.0204334 0.00087631494 0.007835834 -0.02274927 0.022299526
0.000683223 4.7142512e-05 -0.009136428 -0.0004747211 0.0020618269 0.007456384 0.017444763 -0.015842212
-0.016613623 0.0030039635 0.0074455137 0.0021331394 -0.020456456 0.023852644 -0.012596175 0.004908641
0.0063206167 0.0053438097 0.029396528 0.008282843 -0.013627236 0.005865615 -0.0022120068 -0.004671667
-0.021940157 0.04026557 0.011243829 -0.0063703 -0.004119851 -0.017834956 -0.0027964874 0.027097378
-0.011807262 0.0119368825 0.020557864 -0.0073023476 0.0031437285 -0.03742332 -0.0155268265 -0.01842797
-0.005411285 -0.031488944 -0.016442792 -0.00824905 -0.027798105 -0.009289647 0.0048694233 -0.013553192
-0.021021688 -0.028564006 0.034230243 0.0034186977 -0.009135525 -0.01095966 0.024684273 -0.006650834
-0.009847726 -0.0025858807 0.011458406 0.015253711 0.02667861 -0.018932743 -0.02945803 -0.021815842
0.01383272 -0.003026327 0.005464232 0.018835308 -0.03454551 0.0059910784 -0.02003262 0.00058843096
0.011911851 0.0060297265 -0.0030397444 -0.020664621 -0.017784124 0.019843481 -0.028930685 0.009434334
-0.0053089675 -0.0226397 0.013178318 -0.0109341 0.014147952 0.0037280142 -0.010235476 0.02688517
-0.010877942 0.007849067 -0.012130471 -0.0042017717 0.01646362 0.01041321 0.018400753 0.01770397
-0.0066749984 -0.010938599 0.012800174 -0.0069706365 -0.032640886 -0.041990828 -0.025978258 0.028140679
-0.019096604 0.012580804 -0.018733641 0.028750906 0.0016446328 -0.023535464 0.015288166 -0.0024128947
0.026314793 0.025994485 0.005726526 0.0024159818 0.0104539115 0.004444311 0.011368049 -0.058286835
0.00040104176 0.020998528 0.03066273 0.0038166798 -0.019170176 0.027762324 -0.012741906 0.0032303964
0.012548945 0.0012487087 -0.007945884 0.039434783 -0.006633201 -0.0013898923 0.016662529 -0.018400757
00000000: aa62 073c 5dd1 533c 4296 61bb 46cc ad3c
00000010: bf19 50bc b2cb 223b 69c4 383b 83cf 903b
00000020: 6761 4bbc 20c9 3e3c a77d 5a3c cdf1 9bbb
00000030: 6751 0cbc 18fe 63bb 4bbe d23c 786f 1ebc
00000040: 3581 da3b 4a4c cbbb 7f70 523c e3ed b63a
00000050: cc6c 9bbc 1b21 3e3b 592d 0a3d 7f49 c7b9
00000060: cb44 9cbc d7a6 44bc 675b e7bc 3080 b8bc
00000070: b868 44bc 1008 a7bc c6e0 c43c f7f6 1ebd
00000080: 673c e53c 0c19 84bc d5bc f3bb 2593 9c3c
00000090: d26e ecba 39c1 083c 4027 d7bc c0e2 edbc
000000a0: eb06 e4bc f246 e2ba ab06 bf3c 92dd 9aba
000000b0: 677f 0839 5a94 8a3c f1fd 93bc 67c0 bebb
000000c0: c907 a13b 8711 a93a 3b1e 823c c03a 6a3b
000000d0: 0ad5 8c3c a7b0 08bb 9229 8cb9 706d 843c
000000e0: e501 f63b 57cb 243c e75a dabb 5f4b aebc
000000f0: 9f10 2bbc aca9 2fbb 7fb3 1dbb eaac 683c
00000100: 0c5c bebc a824 adbc 0f1b 8cba a219 cabc
00000110: f6d4 3ebc c630 2fbc 8f23 51bc c2df 243c
00000120: 99f4 43bd 4f09 b2bb 0765 b73c fa0a 133c
00000130: bdbc c13b a328 9939 6349 b63c f0de 663b
00000140: cd33 2f3c 80c6 f33c 0b01 b5bc 9bf4 aebb
00000150: d2fb 88bb 975a 2ebb dc77 803c c7d8 15bd
00000160: 38f3 3a3c ae2b 98bc a68a babc e215 23bc
00000170: d2d7 33bc cb4a f7b9 dd19 083b 553c d13b
00000180: 9edb 3fba e3b5 9d3c 2943 8e3c 73c8 46bc
00000190: 5b6d a0bc 7f2b 3c3b 57e9 49bd 7c45 003d
000001a0: 8da9 c9bc c2e3 443b c697 033c 46df ca3b
000001b0: f300 c3bb 08d0 65bc 6bef 093b c14f 2abc
000001c0: cd2e ad3c 2831 7abc e71c 6c3c f263 a73c
000001d0: 80b8 653a df61 003c ad5c babc 7fad b63c
000001e0: 521a 333a e3ba 4538 f5b0 15bc fde3 f8b9
000001f0: b71f 073b af54 f43b 52e8 8e3c 87c7 81bc
00000200: 4b19 88bc 25de 443b 7ff9 f33b 24cc 0b3b
00000210: 4c94 a7bc 9f66 c33c 3060 4ebc aad8 a03b
00000220: 2d1d cf3b 201b af3b fdd0 f03c c3b4 073c
00000230: c544 5fbc 5834 c03b 51f7 10bb c814 99bb
00000240: d8bb b3bc 83ed 243d 0938 383c f3bd d0bb
00000250: d1ff 86bb 9d1a 92bc 4645 37bb 52fb dd3c
00000260: 3f73 41bc ea92 433c f768 a83c 8848 efbb
00000270: 0307 4e3b 3249 19bd 3b64 7ebc 41f6 96bc
00000280: 2651 b1bb 8dfa 00bd 09b3 86bc 0627 07bc
00000290: dab8 e3bc 9b33 18bc af8f 9f3b 350e 5ebc
000002a0: ad35 acbc 10ff e9bc 0335 0c3d 3b0c 603b
000002b0: 2bad 15bc 2590 33bc ac36 ca3c 3def d9bb
000002c0: 5b58 21bc e177 29bb 0abc 3b3c b3ea 793c
000002d0: 1a8d da3c d718 9bbc f751 f1bc 23b7 b2bc
000002e0: a2a2 623c 5755 46bb 4d0d b33b 814c 9a3c
000002f0: 987f 0dbd cf50 c43b 731b a4bc ef40 1a3a
00000300: ed29 433c 0395 c53b 7336 47bb da48 a9bc
00000310: 03b0 91bc cc8e a23c 0b00 edbc 7792 1a3c
00000320: d9f6 adbb e476 b9bc dfe9 573c f024 33bc
00000330: d0cc 673c b351 743b b3b2 27bc 4a3e dc3c
00000340: 6539 32bc 6099 003c e2be 46bc 04af 89bb
00000350: b7de 863c 2b9c 2a3c 2dbd 963c eb07 913c
00000360: f2b9 dabb cf37 33bc d2b7 513c f069 e4bb
00000370: 73b2 05bd 93fe 2bbd 5bd0 d4bc 4887 e63c
00000380: 7b70 9cbc b71f 4e3c 4b77 99bc 0587 eb3c
00000390: b890 d73a 72cd c0bc 377b 7a3c a821 1ebb
000003a0: 1f92 d73c 63f2 d43c 95a5 bb3b 7355 1e3b
000003b0: e246 2b3c 95a1 913b 0e41 3a3c 2dbe 6ebd
000003c0: ea42 d239 1b05 ac3c 6830 fb3c 4321 7a3b
000003d0: c60a 9dbc d06d e33c 6dc3 50bc 0fb5 533b
000003e0: 179a 4d3c b6ab a33a 742f 02bc 5e86 213d
000003f0: 535b d9bb 0c2d b6ba db7f 883c 2fbd 96bc

network_body._body_endoder.seq_layers.0.bias f4 [128]
0.0 0.0 0.0 0.0 0.0 0.0 0.0 0.0
0.0 0.0 0.0 0.0 0.0 0.0 0.0 0.0
0.0 0.0 0.0 0.0 0.0 0.0 0.0 0.0
0.0 0.0 0.0 0.0 0.0 0.0 0.0 0.0
0.0 0.0 0.0 0.0 0.0 0.0 0.0 0.0
0.0 0.0 0.0 0.0 0.0 0.0 0.0 0.0
0.0 0.0 0.0 0.0 0.0 0.0 0.0 0.0
0.0 0.0 0.0 0.0 0.0 0.0 0.0 0.0
0.0 0.0 0.0 0.0 0.0 0.0 0.0 0.0
0.0 0.0 0.0 0.0 0.0 0.0 0.0 0.0
0.0 0.0 0.0 0.0 0.0 0.0 0.0 0.0
0.0 0.0 0.0 0.0 0.0 0.0 0.0 0.0
0.0 0.0 0.0 0.0 0.0 0.0 0.0 0.0
0.0 0.0 0.0 0.0 0.0 0.0 0.0 0.0
0.0 0.0 0.0 0.0 0.0 0.0 0.0 0.0
0.0 0.0 0.0 0.0 0.0 0.0 0.0 0.0
00000000: 0000 0000 0000 0000 0000 0000 0000 0000
00000010: 0000 0000 0000 0000 0000 0000 0000 0000
00000020: 0000 0000 0000 0000 0000 0000 0000 0000
00000030: 0000 0000 0000 0000 0000 0000 0000 0000
00000040: 0000 0000 0000 0000 0000 0000 0000 0000
00000050: 0000 0000 0000 0000 0000 0000 0000 0000
00000060: 0000 0000 0000 0000 0000 0000 0000 0000
00000070: 0000 0000 0000 0000 0000 0000 0000 0000
00000080: 0000 0000 0000 0000 0000 0000 0000 0000
00000090: 0000 0000 0000 0000 0000 0000 0000 0000
000000a0: 0000 0000 0000 0000 0000 0000 0000 0000
000000b0: 0000 0000 0000 0000 0000 0000 0000 0000
000000c0: 0000 0000 0000 0000 0000 0000 0000 0000
000000d0: 0000 0000 0000 0000 0000 0000 0000 0000
000000e0: 0000 0000 0000 0000 0000 0000 0000 0000
000000f0: 0000 0000 0000 0000 0000 0000 0000 0000
00000100: 0000 0000 0000 0000 0000 0000 0000 0000
00000110: 0000 0000 0000 0000 0000 0000 0000 0000
00000120: 0000 0000 0000 0000 0000 0000 0000 0000
00000130: 0000 0000 0000 0000 0000 0000 0000 0000
00000140: 0000 0000 0000 0000 0000 0000 0000 0000
00000150: 0000 0000 0000 0000 0000 0000 0000 0000
00000160: 0000 0000 0000 0000 0000 0000 0000 0000
00000170: 0000 0000 0000 0000 0000 0000 0000 0000
00000180: 0000 0000 0000 0000 0000 0000 0000 0000
00000190: 0000 0000 0000 0000 0000 0000 0000 0000
000001a0: 0000 0000 0000 0000 0000 0000 0000 0000
000001b0: 0000 0000 0000 0000 0000 0000 0000 0000
000001c0: 0000 0000 0000 0000 0000 0000 0000 0000
000001d0: 0000 0000 0000 0000 0000 0000 0000 0000
000001e0: 0000 0000 0000 0000 0000 0000 0000 0000
000001f0: 0000 0000 0000 0000 0000 0000 0000 0000

network_body._body_endoder.seq_layers.0.weight f4 [128, 6]
-0.25650537 -0.7362851 0.014499509 -0.5148204 0.41928783 -0.12429681 0.069288515 0.25287625
0.53979564 0.18806851 0.22239208 0.04775203 0.6532061 0.28187224 0.040615406 0.42934972
0.0063292636 -0.050766412 -1.0193225 -0.02178212 -0.50464505 -0.3886851 0.27738693 -0.03378411
0.14651488 0.35556528 -0.79720825 -0.2234101 -0.3744853 -0.04013848 0.19121106 0.3147844
0.057941698 -0.9934523 -0.63552094 0.58194 0.29193678 -0.13796897 -0.48584908 -0.05248811
-0.3122665 0.19728513 0.5264585 -0.27560976 0.08235356 0.24087173 0.657339 -0.03655634
0.19219297 0.792758 0.14227402 1.0799116 0.72282845 -0.22968264 -0.22557265 0.09242374
-0.9887233 0.73757684 -0.024026139 0.13734084 -0.14418931 0.691562 -0.5289252 -0.25728709
0.36397678 -0.56506705 0.29565424 0.015638825 -0.39558908 0.082430236 -0.04335553 -0.4167944
0.100134015 -0.24682824 0.4091888 -0.03742874 0.66807234 -0.4078608 0.31942108 0.600176
0.08278622 0.8144293 0.40890715 -1.3972102 0.36223492 -0.12267324 0.2869956 0.23561598
-0.9603933 0.67451465 0.3249886 0.29845423 0.34143183 -0.38011867 0.58682656 -0.71308964
-0.061990503 0.3548334 -0.29440737 0.6658824 0.6736184 0.3348387 -0.21725634 0.66666514
-0.04317271 1.0453691 0.120259635 -0.43630293 0.37325493 0.22221936 -0.14851041 -0.5093009
-0.3733548 -0.3651712 -0.06656124 0.79039556 -0.19261287 0.32791677 -0.22781977 -0.26702273
-0.32217464 -0.08097798 0.3352498 -0.15938576 -1.0098403 1.0054781 0.044589795 -0.06841268
-0.30103868 -0.25554124 -0.9316253 -0.022628468 0.24973434 0.31126872 0.4953916 0.40279025
0.3844994 -0.16645049 -0.25914234 0.27003363 0.43142495 0.38498494 -0.21972378 -0.2235296
0.07805546 0.033767298 0.57628584 -0.37957883 -0.081142046 -0.3468556 0.2652411 -0.6232265
-0.42419004 0.13174722 -0.60770404 0.15632509 -0.7470955 -0.43992853 0.13508476 -0.14722642
-0.4096968 0.19669396 0.4834473 0.009745553 -0.17438745 -0.3679599 -0.27489606 -0.0007239994
-0.58516943 0.28349453 0.4046011 -0.4254805 -0.35600302 -0.18022864 0.014618124 -0.10978016
0.039735105 -0.13839738 -0.39484373 1.1873313 0.8729014 -0.3654664 0.036547344 0.36709785
-0.031100819 0.4319175 -0.59401196 -0.14615902 -0.2210764 -0.21825373 0.70186514 0.11857205
0.13044646 0.27812594 -0.013363904 -0.12934487 0.18095475 -0.28127548 -0.19484371 0.31222937
0.31828827 -0.061315212 -0.19862731 0.40538463 -0.0027506137 0.20232086 0.6501427 -0.3117998
-0.019312607 0.92624503 -0.31285143 -0.30963776 0.79116064 0.0641427 0.8639126 0.08032522
0.36030972 -0.5617968 0.7325731 -0.13299787 0.63947475 0.54631734 0.27486783 -1.0458483
-0.09281748 -0.24807969 0.66554666 -0.21298353 0.26025572 -0.0045677535 0.06617834 -0.6018788
-0.058229294 -0.3024459 0.38674626 0.12578535 0.35697603 -0.67939943 -0.40475574 0.55650294
-0.014054017 0.017098254 -0.26406267 0.032762747 -0.5030858 -0.23221011 -0.22018604 -0.28190985
0.42945513 0.22148916 0.073475495 0.68789697 -0.49708244 0.42128387 -0.347953 0.12928042
00000000: ac54 83be 2e7d 3cbf 598f 6d3c 45cb 03bf
00000010: e5ac d63e 538f febd 23e7 8d3d ff78 813e
00000020: 0c30 0a3f 0895 403e c0ba 633e a297 433d
00000030: 8438 273f 8f51 903e 575c 263d bad3 db3e
00000040: b665 cf3b 71f0 4fbd 2979 82bf 6b70 b2bc
00000050: 6b30 01bf bc01 c7be a905 8e3e 3561 0abd
00000060: ff07 163e a70c b63e d715 4cbf 9ec5 64be
00000070: 8abc bfbe 3f68 24bd d5cc 433e 6c2b a13e
00000080: 4654 6d3d e452 7ebf 80b1 22bf 05fa 143f
00000090: bd78 953e bd47 0dbe 36c1 f8be c6fd 56bd
000000a0: 65e1 9fbe 1d05 4a3e fcc5 063f b91c 8dbe
000000b0: fca8 a83d 14a7 763e 5e47 283f 1abc 15bd
000000c0: 3cce 443e 30f2 4a3f 48b0 113e 8b3a 8a3f
000000d0: 490b 393f ed31 6bbe 84fc 66be a848 bd3d
000000e0: f81c 7dbf d6d1 3c3f 77d2 c4bc 14a3 0c3e
000000f0: 5da6 13be 350a 313f a467 07bf 22bb 83be
00000100: 2a5b ba3e 3ca8 10bf fe5f 973e fe1c 803c
00000110: a78a cabe 2fd1 a83d 9195 31bd 1366 d5be
00000120: 1013 cd3d 8bc0 7cbe 3281 d13e e14e 19bd
00000130: ca06 2b3f 21d3 d0be 298b a33e 22a5 193f
00000140: d28b a93d 707e 503f 475c d13e c9d7 b2bf
00000150: db76 b93e 1c3c fbbd 16f1 923e 5145 713e
00000160: 56dc 75bf feac 2c3f e864 a63e fece 983e
00000170: 27d0 ae3e ea9e c2be 443a 163f 0b8d 36bf
00000180: c1e9 7dbd b9ac b53e 90bc 96be 4577 2a3f
00000190: 4172 2c3f fa6f ab3e 7278 5ebe 91aa 2a3f
000001a0: ded5 30bd a8ce 853f af4a f63d 1963 dfbe
000001b0: 451b bf3e 798d 633e 1d13 18be 8b61 02bf
000001c0: 5c28 bfbe b8f7 babe 4251 88bd 5d57 4a3f
000001d0: 4f3c 45be b5e4 a73e 9649 69be 34b7 88be
000001e0: 13f4 a4be c8d7 a5bd dda5 ab3e 0536 23be
000001f0: 7242 81bf 82b3 803f caa3 363d f21b 8cbd
00000200: be21 9abe 4dd6 82be ff7e 6ebf 565f b9bc
00000210: 5cba 7f3e 9d5e 9f3e f8a3 fd3e 863a ce3e
00000220: 1bdd c43e ff71 2abe 4eae 84be d941 8a3e
00000230: bbe3 dc3e bf1c c53e 45ff 60be f2e4 64be
00000240: 8adb 9f3d 944f 0a3d 7887 133f 2858 c2be
00000250: cd2d a6bd 0f97 b1be aecd 873e c68b 1fbf
00000260: 702f d9be bee8 063e 7e92 1bbf af13 203e
00000270: a741 3fbf 503e e1be a953 0a3e 86c2 16be
00000280: c7c3 d1be 246a 493e 6886 f73e d0ab 1f3c
00000290: a092 32be 3d65 bcbe 2dbf 8cbe c7ca 3dba
000002a0: aacd 15bf 3226 913e e027 cf3e 95d8 d9be
000002b0: 0746 b6be db8d 38be db80 6f3c 6cd4 e0bd
000002c0: 47c1 223d 0bb8 0dbe f528 cabe 79fa 973f
000002d0: 7776 5f3f 691e bbbe abb2 153d 40f4 bb3e
000002e0: 25c7 febc 4a24 dd3e 2b11 18bf b6aa 15be
000002f0: da61 62be e87d 5fbe 6fad 333f e7d5 f23d
00000300: c293 053e 8666 8e3e 47f4 5abc fb72 04be
00000310: 344c 393e 5703 90be 1c85 47be 87dc 9f3e
00000320: aef6 a23e a925 7bbd f564 4bbe 938e cf3e
00000330: a443 34bb 332d 4f3e c16f 263f 39a4 9fbe
00000340: 7935 9ebc 651e 6d3f 102e a0be d788 9ebe
00000350: 8189 4a3f 3f5d 833d 6029 5d3f 8d81 a43d
00000360: 847a b83e ead1 0fbf e989 3b3f 9830 08be
00000370: 9eb4 233f 74db 0b3f 7abb 8c3e 5bde 85bf
00000380: 1717 bebd 9a08 7ebe 4461 2a3f 5b18 5abe
00000390: 3d40 853e 18ad 95bb 8288 873d bb14 1abf
000003a0: d781 6ebd 30da 9abe 9b03 c63e e0cd 003e
000003b0: 90c5 b63e 1fed 2dbf 253c cfbe fa76 0e3f
000003c0: d242 66bc a311 8c3c 3933 87be 3b32 063d
000003d0: 3bca 00bf 7dc8 6dbe 7378 61be 7d56 90be
000003e0: 8be1 db3e 0ece 623e 527a 963d 041a 303f
000003f0: 9781 febe 85b2 d73e e526 b2be 1662 043e

network_body._body_endoder.seq_layers.2.bias f4 [128]
0.0 0.0 0.0 0.0 0.0 0.0 0.0 0.0
0.0 0.0 0.0 0.0 0.0 0.0 0.0 0.0
0.0 0.0 0.0 0.0 0.0 0.0 0.0 0.0
0.0 0.0 0.0 0.0 0.0 0.0 0.0 0.0
0.0 0.0 0.0 0.0 0.0 0.0 0.0 0.0
0.0 0.0 0.0 0.0 0.0 0.0 0.0 0.0
0.0 0.0 0.0 0.0 0.0 0.0 0.0 0.0
0.0 0.0 0.0 0.0 0.0 0.0 0.0 0.0
0.0 0.0 0.0 0.0 0.0 0.0 0.0 0.0
0.0 0.0 0.0 0.0 0.0 0.0 0.0 0.0
0.0 0.0 0.0 0.0 0.0 0.0 0.0 0.0
0.0 0.0 0.0 0.0 0.0 0.0 0.0 0.0
0.0 0.0 0.0 0.0 0.0 0.0 0.0 0.0
0.0 0.0 0.0 0.0 0.0 0.0 0.0 0.0
0.0 0.0 0.0 0.0 0.0 0.0 0.0 0.0
0.0 0.0 0.0 0.0 0.0 0.0 0.0 0.0
00000000: 0000 0000 0000 0000 0000 0000 0000 0000
00000010: 0000 0000 0000 0000 0000 0000 0000 0000
00000020: 0000 0000 0000 0000 0000 0000 0000 0000
00000030: 0000 0000 0000 0000 0000 0000 0000 0000
00000040: 0000 0000 0000 0000 0000 0000 0000 0000
00000050: 0000 0000 0000 0000 0000 0000 0000 0000
00000060: 0000 0000 0000 0000 0000 0000 0000 0000
00000070: 0000 0000 0000 0000 0000 0000 0000 0000
00000080: 0000 0000 0000 0000 0000 0000 0000 0000
00000090: 0000 0000 0000 0000 0000 0000 0000 0000
000000a0: 0000 0000 0000 0000 0000 0000 0000 0000
000000b0: 0000 0000 0000 0000 0000 0000 0000 0000
000000c0: 0000 0000 0000 0000 0000 0000 0000 0000
000000d0: 0000 0000 0000 0000 0000 0000 0000 0000
000000e0: 0000 0000 0000 0000 0000 0000 0000 0000
000000f0: 0000 0000 0000 0000 0000 0000 0000 0000
00000100: 0000 0000 0000 0000 0000 0000 0000 0000
00000110: 0000 0000 0000 0000 0000 0000 0000 0000
00000120: 0000 0000 0000 0000 0000 0000 0000 0000
00000130: 0000 0000 0000 0000 0000 0000 0000 0000
00000140: 0000 0000 0000 0000 0000 0000 0000 0000
00000150: 0000 0000 0000 0000 0000 0000 0000 0000
00000160: 0000 0000 0000 0000 0000 0000 0000 0000
00000170: 0000 0000 0000 0000 0000 0000 0000 0000
00000180: 0000 0000 0000 0000 0000 0000 0000 0000
00000190: 0000 0000 0000 0000 0000 0000 0000 0000
000001a0: 0000 0000 0000 0000 0000 0000 0000 0000
000001b0: 0000 0000 0000 0000 0000 0000 0000 0000
000001c0: 0000 0000 0000 0000 0000 0000 0000 0000
000001d0: 0000 0000 0000 0000 0000 0000 0000 0000
000001e0: 0000 0000 0000 0000 0000 0000 0000 0000
000001f0: 0000 0000 0000 0000 0000 0000 0000 0000

network_body._body_endoder.seq_layers.2.weight f4 [128, 128]
-0.044421878 -0.05097113 -0.060084626 -0.009269023 0.037109602 -0.039712913 0.00666099 -0.1098687
-0.103645094 0.09305223 0.11884603 -0.012655334 0.11387949 0.15921378 -0.034349617 0.053905617
0.13695318 0.014712192 -0.055996962 -0.0032939161 0.09014013 0.15792577 0.17681597 -0.025162332
-0.00495153 0.068730995 -0.16550075 0.098554626 -0.011868814 -0.04006366 0.016802311 0.09771926
-0.0013185606 -0.017552147 -0.052741244 0.086616755 0.097587146 -0.10918098 -0.007995126 -0.14962786
-0.07542548 -0.03415431 0.12455464 0.07079707 0.028813913 0.0603653 -0.12636094 0.13335824
0.012798176 0.049259882 -0.17354468 0.06906117 0.19924705 -0.0396436 -0.0704282 0.0020985357
-0.11602826 0.02312727 0.013341047 -0.054120056 -0.045673363 -0.025191132 0.115677886 0.1294742
-0.009380252 -0.090099834 0.11477274 0.026619546 0.07263373 -0.003727105 -0.123660766 -0.080493525
-0.10398172 0.023330867 0.058825195 0.017118935 -0.07303444 -0.051448874 0.14382266 -0.11629262
0.02498632 0.047052123 -0.122763075 0.035038736 -0.014014583 -0.04671634 0.015860172 0.08913536
-0.018142536 -0.020329386 -0.07916419 -0.03909229 0.031619344 0.0071992828 0.02813907 0.016459323
-0.09302414 0.0041838 0.29252046 -0.066571765 0.021311445 -0.03924683 0.1635135 0.07372201
-0.17877887 0.05320474 0.047169324 -0.08675217 -0.03481876 0.06328339 0.0010084329 0.054561876
0.025002217 0.12343944 -0.115317814 -0.08381557 0.10775931 -0.08900819 -0.13487636 -0.11903705
-0.08799438 -0.11421979 -0.0034572282 -0.14974013 0.051275417 -0.015863908 0.10624807 0.06547001
0.13221273 0.030302405 0.059352167 -0.0681037 -0.03850305 0.064238556 0.015212227 -0.015474016
-0.013915557 0.037343405 -0.17816256 0.03400386 0.20193627 -0.17974181 0.12124859 0.23495226
0.03505014 -0.13393733 -0.041444983 0.029698832 -0.042931 0.13338766 -0.12131355 -0.075996265
-0.02890617 0.041500363 -0.08020881 -0.1782006 0.049290724 -0.07109782 -0.06122344 -0.15609607
0.114007525 -0.16452864 -0.042239733 0.04081132 0.13584897 0.02638908 0.024964623 -0.15011041
0.0076102153 -0.089580856 0.052059878 -0.024929339 0.042513493 0.10384176 0.06547879 0.09325739
-0.096746095 -0.024614424 0.05051298 0.007117465 0.025279613 -0.1181518 0.0067953877 -0.26279905
0.039730284 -0.124787346 0.020530267 0.03924736 -0.029367631 -0.0061256504 0.093154564 0.01170381
0.013671274 -0.056463547 -0.22042182 -0.16227466 0.001545179 0.05195091 0.03850015 -0.028848233
-0.0029340587 0.012684393 -0.03872154 -0.119052865 -0.1004032 -0.09254293 0.093007885 -0.019548861
-0.05914837 0.07881282 -0.15586936 0.09338272 0.040918976 -0.032176 -0.13455027 0.030624777
0.01254747 -0.055989016 -0.17582154 -0.0066590263 0.02229147 -0.1723365 -0.1542505 0.050748188
0.09933805 -0.068759724 0.11551435 -0.044778634 -0.026372926 -0.055972356 -0.08680613 -0.028101811
-0.010583377 -0.023532448 0.13719665 0.051598616 -0.06315899 -0.21993469 -0.14963537 -0.0885872
0.098298766 -0.037844393 -0.09031333 0.008123157 -0.007852512 -0.22580719 0.10898455 -0.039279412
-0.13607097 -0.00053815165 -0.021891521 -0.08949815 -0.075207524 0.06782853 0.00292859 -0.10847328
00000000: b7f3 35bd 1bc7 50bd 4c1b 76bd 1add 17bc
00000010: 3d00 183d 02aa 22bd 6f44 da3b d702 e1bd
00000020: e143 d4bd 2b92 be3d 8c65 f33d 5158 4fbc
00000030: a639 e93d f008 233e 2fb2 0cbd 23cc 5c3d
00000040: 743d 0c3e 680b 713c 125d 65bd bede 57bb
00000050: 639b b83d 4bb7 213e 3f0f 353e 3c21 cebc
00000060: 7240 a2bb d6c2 8c3d 0779 29be 02d7 c93d
00000070: 6a75 42bc cb19 24bd 00a5 893c 0921 c83d
00000080: 8dd3 acba 85c9 8fbc 3407 58bd 2064 b13d
00000090: c5db c73d 479a dfbd fdfd 02bc 0c38 19be
000000a0: ad78 9abd 64e5 0bbd 8116 ff3d 0efe 903d
000000b0: 280b ec3c 9b41 773d c364 01be 108f 083e
000000c0: 71af 513c bbc4 493d b2b5 31be f16f 8d3d
000000d0: 6b07 4c3e 5461 22bd a93c 90bd 9687 093b
000000e0: 39a0 edbd 6775 bd3c 6894 5a3c feac 5dbd
000000f0: fe13 3bbd a25d cebc 87e8 ec3d e294 043e
00000100: a1af 19bc 4386 b8bd f80d eb3d 3c11 da3c
00000110: fec0 943d 7242 74bb db41 fdbd cad9 a4bd
00000120: 5ef4 d4bd 6020 bf3c b0f2 703d 023d 8c3c
00000130: 1593 95bd 0ebc 52bd 3f46 133e d32a eebd
00000140: 1cb0 cc3c bab9 403d 356b fbbd c784 0f3d
00000150: 6c9d 65bc a259 3fbd 31ed 813c 9a8c b63d
00000160: a89f 94bc d089 a6bc d620 a2bd 3d1f 20bd
00000170: 4983 013d f6e7 eb3b e883 e63c b4d5 863c
00000180: 7183 bebd 4218 893b 3ec5 953e c756 88bd
00000190: 5795 ae3c 49c1 20bd 1570 273e 91fb 963d
000001a0: cf11 37be 37ed 593d 9f34 413d 1fab b1bd
000001b0: 1e9e 0ebd b99a 813d 652d 843a 467c 5f3d
000001c0: 73d1 cc3c d1cd fc3d bf2b ecbd 7fa7 abbd
000001d0: eab0 dc3d ed49 b6bd 071d 0abe b2c9 f3bd
000001e0: 6636 b4bd 11ec e9bd aa92 62bb 7a55 19be
000001f0: 2c06 523d 07f5 81bc 9798 d93d 2415 863d
00000200: c662 073e c03c f83c 421b 733d f479 8bbd
00000210: 60b5 1dbd 818f 833d b43c 793c ba86 7dbc
00000220: 14fe 63bc 66f5 183d 3f70 36be a247 0b3d
00000230: 62c8 4e3e 3d0e 38be 2e51 f83d 5397 703e
00000240: bc90 0f3d de26 09be 37c2 29bd f74a f33c
00000250: 6bd8 2fbd c696 083e 3d73 f8bd eea3 9bbd
00000260: a2cc ecbc 49fc 293d 8444 a4bd 387a 36be
00000270: 12e5 493d bc9b 91bd 6ec5 7abd a6d7 1fbe
00000280: c77c e93d 327a 28be 9203 2dbd c529 273d
00000290: fe1b 0b3e e92d d83c 9c82 cc3c 8bb6 19be
000002a0: 1d5f f93b 2b76 b7bd bd3c 553d 9d38 ccbc
000002b0: a122 2e3d fdaa d43d be19 863d bbfd be3d
000002c0: d122 c6bd 30a4 c9bc b3e6 4e3d a039 e93b
000002d0: 3117 cf3c 92f9 f1bd d8ab de3b 998d 86be
000002e0: 39bc 223d 8290 ffbd 172f a83c d7c1 203d
000002f0: 6394 f0bc aeb9 c8bb d2c7 be3d 56c1 3f3c
00000300: 7bfd 5f3c 5246 67bd 42b6 61be 542b 26be
00000310: 9b87 ca3a 7aca 543d 55b2 1d3d 2153 ecbc
00000320: 5649 40bb 33d2 4f3c 7a9a 1ebd fdd1 f3bd
00000330: 31a0 cdbd 2687 bdbd eb7a be3d ef24 a0bc
00000340: 9045 72bd 9e68 a13d 389c 1fbe 713f bf3d
00000350: a89a 273d fbca 03bd 8cc7 09be d0e0 fa3c
00000360: e793 4d3c bd54 65bd 900a 34be f633 dabb
00000370: 9a9c b63c fb78 30be d8f3 1dbe 55dd 4f3d
00000380: bf71 cb3d e6d1 8cbd ca92 ec3d cd69 37bd
00000390: 090c d8bc 4543 65bd 6ac7 b1bd c535 e6bc
000003a0: e765 2dbc 1fc7 c0bc 477d 0c3e 1259 533d
000003b0: 8059 81bd 8f36 61be 043a 19be 356d b5bd
000003c0: dd50 c93d b902 1bbd 32f6 b8bd fd16 053c
000003d0: d3a7 00bc 003a 67be 4b33 df3d 73e3 20bd
000003e0: 3056 0bbe bf12 0dba d955 b3bc ce4a b7bd
000003f0: 6706 9abd afe9 8a3d 96ed 3f3b 3d27 debd
