MLAgentsProject/results/MoveToGoal4/MoveToGoal/MoveToGoal-263049.onnx (onnx, 72981 bytes, 7 tensors)

action_model._continuous_distribution.log_sigma f4 [1, 3]
000000 6e 03 93 bc ca d1 b6 bc f2 51 4f 3b
       -0.017945971 -0.022316832 0.0031634537

action_model._continuous_distribution.mu.bias f4 [3]
000000 73 42 c7 39 10 e2 b1 ba c2 f7 69 3b
       0.00038005746 -0.00135714 0.0035700654

action_model._continuous_distribution.mu.weight f4 [3, 128]
000000 27 d7 be 3c bf 6c 18 bc e0 d2 45 3d f5 da a1 bc
       0.023295952 -0.009303271 0.04829681 -0.019757727
000010 a5 cf c5 3b d3 70 c9 3c 98 21 e5 3c bb cf 01 bd
       0.006036716 0.024589932 0.02797012 -0.031692248
000020 ed f7 3e bd a9 5f ed 3a d5 5b 0d bc b4 77 41 3c
       -0.04662316 0.0018110174 -0.0086278515 0.011808325
000030 f2 66 24 3c 21 2c 84 3c 1a 9a 93 3c 56 0b b3 bb
       0.01003431 0.016134324 0.018017817 -0.005463998
000040 dd 56 8b 3b b8 5b fc bb a6 cb 4c bc 32 6e 97 bc
       0.0042522983 -0.0077013634 -0.012499725 -0.018485162
000050 63 30 83 3c a8 1b 17 bb 3b ba 90 bb c5 5f a0 bb
       0.016014284 -0.0023057256 -0.0044167317 -0.004894229
000060 85 01 ce 3c 2a e9 27 bb b2 d5 22 3c 59 c5 da bc
       0.025147209 -0.0025621154 0.009938644 -0.02670543
000070 d0 cf c9 3c 29 d7 0f bc 45 0b 35 39 c0 15 89 3c
       0.024635226 -0.0087793255 0.00017265703 0.016734004
000080 fa 53 f2 3c ce 93 1c bd 68 88 c6 bc 06 85 1c bd
       0.029581059 -0.038226895 -0.024234965 -0.0382128
000090 d1 60 a5 3b b6 be 17 3d 7f 0a d4 bc 0c 56 85 bb
       0.005046942 0.03704711 -0.025883911 -0.0040690955
0000a0 fd 38 51 b9 e2 4d 37 bc 97 c6 10 bd b3 ca a5 ba
       -0.00019953023 -0.011188002 -0.03534564 -0.001264891
0000b0 1c 50 61 3c a5 fd a5 bc 53 13 98 3b 61 bf 0b bc
       0.01375201 -0.020262549 0.0046409755 -0.008529515
0000c0 11 58 f5 3c b0 a4 ab 3a 9c 7c 9b 3b 6c 1f c2 bc
       0.02994922 0.0013095345 0.004745079 -0.023696624
0000d0 af 16 23 bc b4 49 03 3c 39 39 da bc 16 0d c6 3c
       -0.009954139 0.008013178 -0.026638614 0.024176162
0000e0 1f c0 18 bc cf af 35 3c 77 ae 0f bd f1 4e ee 3a
       -0.009323149 0.011089279 -0.035078492 0.0018181485
0000f0 62 d7 96 bb 1a f9 66 3c 52 92 85 bb fe 6a 4c 3c
       -0.0046033124 0.014097476 -0.0040762806 0.012476681
000100 05 d2 d4 bb d3 bb 69 bb 8c ab 4f 3c bc 06 4f bc
       -0.006494763 -0.003566493 0.012675177 -0.012635883
000110 c8 9b 15 3c 80 5d 83 3c 86 9f cb bc c7 43 df 3b
       0.009131379 0.016035795 -0.02485634 0.0068134996
000120 ee 01 07 3c f9 df e7 3c a3 79 51 3c 48 05 7e 3c
       0.008240206 0.02830504 0.012785348 0.015504189
000130 69 ae 39 3c 96 46 b6 bc b6 8a c6 bb e7 ea d7 bc
       0.0113330865 -0.022250455 -0.006059016 -0.026357127
000140 74 30 07 3d 7c 9d e7 bb ca 55 3a bc 0b ab 1a bd
       0.033005193 -0.007068334 -0.011372993 -0.037760776
000150 a9 69 84 ba 18 64 ad 3c 2b 51 c7 ba bc cd c9 3b
       -0.001010229 0.021165892 -0.0015206685 0.0061585587
000160 c7 0d 5e bc 19 e4 14 bb 93 42 22 bc 6a 92 bc bc
       -0.013553089 -0.0022718965 -0.009903568 -0.023019034
000170 80 68 a1 bb e4 50 b8 bc 67 89 18 3c 17 5b d7 3c
       -0.0049257874 -0.02249951 0.009310103 0.026288552
000180 db e6 b3 bc 3e e4 ac 3c f9 e9 54 3c 8b 60 0c bc
       -0.021960666 0.021104928 0.012995237 -0.0085679395
000190 18 77 92 3c f9 06 04 bc 78 5f 6b 3a 2f 70 00 3d
       0.017879054 -0.008058303 0.00089787645 0.031356987
0001a0 13 ab 1c bc d7 f7 53 3c 7a ae 55 3d 11 63 98 3c
       -0.009562272 0.012937508 0.052168347 0.018601926
0001b0 9a 06 06 3d 44 38 7e bc 58 7d fc bb dc 41 0d 3c
       0.03272114 -0.015516344 -0.007705372 0.008621659
0001c0 d0 ad 9a bb 5d e9 45 bc d0 ba 47 3b 92 d9 29 bc
       -0.004720427 -0.012079564 0.003047634 -0.010366814
0001d0 7f 3a d4 bc 9b c0 07 3d 9d 41 1b 3d 27 12 ef 3b
       -0.0259068 0.033142667 0.03790437 0.007295865
0001e0 f3 6f b9 3b be 36 7d 3b cd 6b 74 bc e0 c3 1e 3c
       0.0056590973 0.0038637365 -0.01491828 0.009690255
0001f0 a3 89 06 3c 78 5a 1f bd cf ce e2 3c a1 67 eb bc
       0.008211526 -0.038904637 0.027686505 -0.028735938
000200 aa 8e 10 bc 87 a1 8e bc a9 b6 e5 3c 6f e1 fa bb
       -0.008823076 -0.017411007 0.0280412 -0.0076562683
000210 83 6d 27 3d 49 be 8b 3c 3f d0 44 3a 5c 3b d2 bc
       0.040875923 0.017058508 0.0007507838 -0.02566307
000220 ac 22 2c bb 22 bc df 3c 55 c2 13 bd c8 bb b8 bb
       -0.0026265783 0.027311388 -0.036074 -0.0056376196
000230 9f 60 83 bc e2 43 79 bc 01 8b 1a 3c fb 10 a9 bc
       -0.016037283 -0.015213938 0.009432555 -0.02063798
000240 63 09 e7 3b 14 6c c1 ba 52 e1 3f 3c a0 52 1f 3c
       0.0070506795 -0.0014756941 0.011711435 0.009724289
000250 50 44 5f ba d7 9c 94 bc 85 37 b0 bc e7 44 32 3b
       -0.0008516954 -0.018141193 -0.021510849 0.0027201714
000260 c3 54 c4 bb f2 40 4d 3d be ee 1f bc f3 4d ad 3b
       -0.0059915497 0.050110765 -0.00976151 0.0052888333
000270 75 d9 f5 3b ae ac 16 bc e2 aa 88 b9 80 06 6f bc
       0.0075027295 -0.0091964435 -0.0002606726 -0.014588952
000280 51 51 37 bd 89 88 8c 3b 81 6f d5 bc c2 5c 84 bc
       -0.044755284 0.004288737 -0.026054146 -0.016157512
000290 49 e6 a2 bb 28 49 2b bd 78 95 03 bd 08 0d 3d 3c
       -0.0049713 -0.041817814 -0.032124966 0.011538751
0002a0 fa 67 48 3b 5b df 8b bc 29 d8 ff bc 24 1f 6f bc
       0.0030579553 -0.017074278 -0.031231003 -0.014594827
0002b0 85 a4 24 3c 33 5d d6 3b bc b4 ce 3c 7e b6 8b bb
       0.01004899 0.006541872 0.025232665 -0.004263698
0002c0 43 c5 af bc 86 8c 1e bd 02 cc 78 3c 0e f0 c6 ba
       -0.021456366 -0.038708232 0.015185358 -0.0015177743
0002d0 22 ba c5 3c 77 e2 a8 bc f0 98 2a 3c 55 70 8d bc
       0.024136607 -0.0206158 0.01041244 -0.017265478
0002e0 6b 56 f0 3a 27 c6 b0 3b 8b 9c 5f 3c 3d 70 0d bd
       0.0018336301 0.0053947154 0.013648163 -0.034530867
0002f0 f8 4d 28 ba 68 67 a0 3c 29 b1 0a 3c 72 6b b2 bc
       -0.00064203097 0.019580558 0.00846509 -0.02177975
000300 c6 da 72 3c 1f f5 1c 3b 5c 54 c9 3c a8 81 db 3b
       0.014822667 0.0023949814 0.024576358 0.006698806
000310 1c d3 42 3b a4 c2 2f b9 0b 70 07 bb ba 7b 61 3c
       0.0029727882 -0.0001676181 -0.0020666148 0.013762409
000320 65 d7 ce b8 70 12 92 3c 34 86 b2 bc 20 7d fc 3b
       -9.862966e-05 0.017831057 -0.021792509 0.0077053457
000330 d7 ba 95 3c 6f c2 24 3d f0 6e 8e bb c3 4a 58 bb
       0.018277569 0.04022449 -0.004346721 -0.0033003546
000340 e1 ae fd bb 84 0b 3d 3c 2d d3 7b 3c 95 ae b2 bc
       -0.0077417945 0.01153839 0.015370172 -0.021811763
000350 dd 80 51 bc 8a d1 9a bc c5 72 26 bb 42 d1 8e bc
       -0.012787071 -0.018898744 -0.0025397998 -0.017433766
000360 c7 2a 05 bc 00 ae 13 3d ff 03 40 3c be b5 9c bc
       -0.008127875 0.03605461 0.011719703 -0.01912963
000370 28 71 da 3b 3e 51 be bc 32 8d 06 3c 47 a8 04 bd
       0.0066663213 -0.023232099 0.0082123745 -0.032387044
000380 e0 af ed bb 1f 12 b5 bb 82 f4 a5 3c f4 9c 9b 3b
       -0.007253632 -0.005525842 0.020258192 0.004748935
000390 c4 9c 7d ba 4c 3c 1a bc 9a b6 84 3c bc 82 22 bc
       -0.0009674544 -0.00941379 0.016200352 -0.009918865
0003a0 98 a2 ab 3c ad bf 6e 3a b5 24 32 bc c5 a2 22 3c
       0.020951554 0.00091075414 -0.010873009 0.009926503
0003b0 3e 03 d7 bc c1 e8 f5 3b 2b 81 99 b8 02 6e 3e 3c
       -0.026246663 0.007504553 -7.319668e-05 0.011622908
0003c0 d3 30 2c bc ef 1c a8 bb c8 f8 0b bc 76 51 3a bc
       -0.0105096875 -0.0051304023 -0.008543201 -0.011371961
0003d0 57 6e 38 bc 29 f1 b8 3c 82 cb 7a 3c 58 e8 0d 3a
       -0.011256776 0.022575932 0.015307309 0.0005413345
0003e0 20 74 21 3c 41 9a f3 bb f3 f9 08 bb 36 06 d9 3c
       0.0098543465 -0.00743416 -0.0020900934 0.02649222
0003f0 fa c7 ab bc a5 a7 75 3c c5 eb 12 3d 62 cf 3c 3d
       -0.02096938 0.014993583 0.03586938 0.046096213

network_body._body_endoder.seq_layers.0.bias f4 [128]
000000 8f 3d b5 b8 85 a1 a0 bb 3a 06 3c bb 28 d1 ed 39
       -8.642219e-05 -0.004902067 -0.0028690235 0.00045359996
000010 70 a1 4a bb a6 8c 0b bc f7 f6 80 3b 9e a5 21 bb
       -0.0030918978 -0.00851742 0.0039356905 -0.0024665366
000020 65 5f d7 bb 42 4b 2a 3c a0 ed 18 bc b7 ca 9f 3b
       -0.006572651 0.010393919 -0.009333998 0.0048764604
000030 4f fe 9f 3b 13 98 a3 bb fb 33 d9 b9 aa 82 21 bb
       0.004882611 -0.004992494 -0.00041428194 -0.0024644532
000040 81 16 aa 3b af 34 8f 3b c7 18 92 bb 55 4c fa ba
       0.005190671 0.004370294 -0.00445852 -0.0019096235
000050 54 8d 72 bb 38 d4 0f bc 04 95 ed bb a8 f5 33 3b
       -0.0037010508 -0.008778624 -0.00725043 0.0027459655
000060 db bd c8 3b f3 e6 ac b9 8e cf 32 ba 2c e1 71 3b
       0.006126148 -0.00032978467 -0.0006821089 0.0036907895
000070 4f 03 76 bb fd b0 40 3b e3 55 35 3b 6a a5 8f b8
       -0.0037538593 0.0029402368 0.00276696 -6.849582e-05
000080 da 04 55 3a aa b9 87 3c 70 c3 11 bc a1 14 b5 ba
       0.0008126028 0.016568024 -0.008896694 -0.0013815352
000090 df cf 25 3b 06 cd f6 3b 22 af fc bb 06 a7 42 3c
       0.0025300903 0.007531765 -0.007711307 0.011880642
0000a0 66 bf 46 bb 55 79 23 bb 20 bd 2f bc a4 43 6b 3c
       -0.0030326485 -0.0024944146 -0.010726243 0.0143593885
0000b0 fe 32 63 3b ad 98 03 bc 0d 15 a1 ba 43 c8 65 3b
       0.0034667845 -0.008032006 -0.0012289599 0.0035061992
0000c0 d8 11 21 bc 87 12 4e bb 79 1a d7 3b f5 83 1e 3b
       -0.009830914 -0.0031444149 0.006564435 0.002418754
0000d0 4f 86 aa ba 2d 11 6e 3a 19 57 25 bc 60 0c bf ba
       -0.0013009998 0.0009081539 -0.0100915665 -0.0014575832
0000e0 00 ff a7 ba 04 82 da 3a b8 5f 47 3b 36 c3 cb 3b
       -0.0012817085 0.0016670828 0.0030422043 0.0062183393
0000f0 f2 8f 30 3b fa 0e d5 39 50 e2 6c ba 8a 2c e1 ba
       0.0026941267 0.00040637684 -0.0009036409 -0.0017179411
000100 26 e5 33 3a 5d 1f 3d ba ea 5c c6 3a ea 85 c2 3b
       0.0006862454 -0.00072144513 0.0015133892 0.005936374
000110 5b 1b 27 3a 76 7a 1d bc d1 42 4a 3c 40 1e aa bb
       0.0006374621 -0.0096117165 0.012345032 -0.0051915944
000120 f0 d9 82 3b e9 f7 c2 ba db 12 fe 3a 54 42 20 bb
       0.0039932653 -0.0014874908 0.0019384281 -0.0024453597
000130 1b 40 3a bb 24 4f 5d bc 73 24 24 bb ab 05 76 bb
       -0.0028419557 -0.013507638 -0.002504614 -0.003754
000140 9e 54 e4 ba b2 07 9c 39 a6 a7 28 bc 73 78 78 bb
       -0.0017420237 0.00029760372 -0.010293877 -0.003791359
000150 25 ad 9c 3c 5b 09 d2 bb 44 8f b8 bb de 52 01 3c
       0.01912553 -0.0064098067 -0.005632313 0.007893292
000160 ed 32 06 bb bb 34 93 3b 8f 61 9e 3b 0c bc 13 3b
       -0.0020477131 0.00449237 0.0048334072 0.0022542505
000170 30 98 23 3a ff 21 3d ba a7 38 da bb af bd a3 38
       0.0006240634 -0.00072148436 -0.0066595855 7.807777e-05
000180 2a b1 c8 3a 6a d0 92 bb aa 4d 24 ba 83 5c 30 39
       0.0015311588 -0.0044804113 -0.00062676764 0.00016819131
000190 03 04 26 bc 82 3e 81 ba c0 af e2 39 5f 53 60 b7
       -0.010132792 -0.0009860548 0.00043237023 -1.3370852e-05
0001a0 d9 73 08 3c 51 5f f0 bb 9e 82 97 3a 8b f2 a6 3b
       0.0083284015 -0.0073355814 0.0011559313 0.0050948313
0001b0 9b 9d 04 3c 7a 76 79 bc a1 9d 3a 3a 58 94 5d bb
       0.008094217 -0.015226001 0.00071188255 -0.0033810344
0001c0 be 0a 01 b9 49 23 ea ba 8a 5a 31 3a ea c8 fc ba
       -0.000123064 -0.0017863299 0.00067655055 -0.0019285951
0001d0 5a c2 05 3d 53 b3 7a 3a 3c 62 26 bc 65 7c 82 bb
       0.03265605 0.00095634646 -0.010155257 -0.003982114
0001e0 d4 aa bb bb 6c ae b3 bb e4 30 37 3b 9b 11 02 bb
       -0.0057271514 -0.005483439 0.0027952725 -0.001984692
0001f0 fc 76 5f bb 93 b6 b2 bb 1a 16 35 ba ab 60 90 bb
       -0.003409802 -0.0054538934 -0.00069078954 -0.004406055

network_body._body_endoder.seq_layers.0.weight f4 [128, 6]
000000 32 92 3f 3e 04 18 c8 3c 21 00 1e 3f 5a 38 e0 3e
       0.18708113 0.024425514 0.61718947 0.43792993
000010 4a d4 09 3d 90 5b b9 bd f5 b3 de 3d 4b 40 b8 be
       0.03364972 -0.09050667 0.10874168 -0.35986552
000020 1c 56 a0 3e 7b 32 b0 be aa 95 07 bf 88 e8 28 3f
       0.31315696 -0.34413514 -0.52962744 0.65979815
000030 44 4d b0 3e 36 62 12 3f df 0b 5b 3d 07 cc 84 3d
       0.3443395 0.5718111 0.053478118 0.06484228
000040 ce 4d 2d 3e 1d 2b 92 3e 5e fe 36 3e 26 ac 9f be
       0.16924211 0.28548518 0.17870471 -0.31186026
000050 b3 9a e8 bd 23 0b 02 3f 0a 3a 34 bd 34 de c5 3e
       -0.113576315 0.50798243 -0.044000663 0.3864609
000060 34 f7 51 3f 1e ec 19 3e 1d 86 a6 3e 81 19 96 3e
       0.8201783 0.15031478 0.32524195 0.29316333
000070 17 5b c2 be 90 d2 f8 3d 8e d4 1f 3d d4 e5 24 3f
       -0.3796012 0.121495366 0.039021067 0.6441319
000080 24 1e e3 3e 10 d4 52 3f 7d 8f 8d be 3f 7d ac 3e
       0.44358933 0.8235483 -0.27648535 0.33689305
000090 48 01 01 3f 0e c4 e1 be 72 53 0e bf 3b df 52 be
       0.5039258 -0.4409489 -0.5559608 -0.20592968
0000a0 8c fc ea 3d eb fe 6a be 12 19 bb 3a 24 76 53 be
       0.11473951 -0.22948806 0.0014274439 -0.20650536
0000b0 16 64 ac 3d 87 d7 86 3e 15 f8 95 be 52 49 b0 3d
       0.084175274 0.2633631 -0.29290834 0.08607735
0000c0 5a 92 f9 bd 2c 8a 09 be 3d 27 18 3e 4a 5e 76 3e
       -0.121861175 -0.13431615 0.14858718 0.24059406
0000d0 3d 72 b5 be 55 d7 29 3f b4 f8 89 be 79 6f 5e 3e
       -0.3543872 0.66344196 -0.26947558 0.21722211
0000e0 a3 11 19 be f9 0a 3c be 07 84 15 3e 1f 7d d4 bd
       -0.14948134 -0.1836356 0.14601146 -0.103754275
0000f0 44 c1 c9 3e af 14 a4 3e 8b ed 31 3d f4 da 46 3c
       0.39405262 0.3204703 0.04343943 0.012137163
000100 b8 9c a4 3e c4 7d 09 3f 35 d9 b8 3e 9d bc 83 be
       0.32150817 0.5370753 0.36103216 -0.25729838
000110 e8 47 d9 3e d8 81 85 bc 6f 43 ab 3e cd 9b 1d bf
       0.42437673 -0.016297266 0.33449885 -0.6156586
000120 0e 60 a0 be d5 85 b9 3e 4e 4e b2 bd 8f 32 00 3f
       -0.31323284 0.36234918 -0.08706342 0.50077146
000130 ec 14 37 3e a8 77 e3 3e fe b3 38 3d 31 f1 df 3e
       0.17879075 0.44427228 0.04509353 0.43738702
000140 93 de e0 3e 16 51 b2 3e 29 e0 44 bd 8b bf 4f 3f
       0.4391981 0.3482749 -0.04806534 0.81151646
000150 28 49 57 3e c6 01 0d bf d1 23 18 3f 8d 9b 42 3f
       0.21024 -0.5508083 0.5942965 0.760186
000160 c6 f8 0a bf f4 9d e0 bd df 64 9b bd d6 3a af be
       -0.5428585 -0.10967627 -0.07587599 -0.34224576
000170 7f 8c 8d 3e 7a f2 2d 3f 66 b6 3f 3f fc f3 1d 3f
       0.27646253 0.67948115 0.7488769 0.61700416
000180 a0 0e 0b be d1 48 29 3f a3 b6 e2 3d 29 a5 87 be
       -0.13579798 0.66126734 0.110699914 -0.26493195
000190 c8 24 3c 3f 94 92 2a be bd 63 ed 3b 6a 2c 0e bf
       0.73493624 -0.16657478 0.0072445557 -0.5553652
0001a0 86 eb 73 3e 98 21 dd 3d 99 12 15 3d 9b 20 00 bf
       0.23820314 0.10797423 0.03639469 -0.5004975
0001b0 de 3a ee 3e 04 26 cf 3c e6 37 1e 3f 5a 66 1c 3d
       0.46529287 0.025286682 0.61804044 0.038183548
0001c0 2c 76 33 bf a3 15 e6 3e 31 41 b5 3e 18 6f 1e 3e
       -0.7010219 0.44938383 0.354013 0.15472066
0001d0 53 b8 65 be e6 0f 5f 3c 1e 61 5e 3e ea e3 12 be
       -0.22433595 0.01361463 0.21716735 -0.14344755
0001e0 4b 50 9a bc d2 bb 9b 3e 32 cc 34 3c 91 95 31 3d
       -0.018837115 0.30416733 0.011035012 0.04335553
0001f0 94 99 ad 3d be bd 27 3e 09 9a c1 be 7c 4c a0 be
       0.08476558 0.16380975 -0.37812832 -0.31308353
000200 af a1 c9 3d ba b4 95 bc 70 7b e2 3e d3 70 8f be
       0.09845292 -0.018274654 0.442348 -0.28015766
000210 2a 2b 39 bf fc 68 ea 3c 04 09 9a 3d 9f 3c ec bd
       -0.7233149 0.028614514 0.07521251 -0.11535
000220 db e4 82 3b cb d8 ce 3d 45 3e 84 3e 96 a1 85 3e
       0.003994567 0.10099944 0.25828758 0.26099843
000230 ce fc 88 be e4 b9 75 be 93 e5 3a be b4 50 37 3c
       -0.26755375 -0.23996693 -0.18251638 0.011188675
000240 f5 97 a7 3c b2 9c fe 3e 00 6d 09 bf 5c 60 4e bf
       0.020458201 0.49728924 -0.53681946 -0.8061578
000250 85 dc f3 be 67 e7 28 be be d4 2c 3f 4f 1a bb 3d
       -0.4762918 -0.16494523 0.6751212 0.09135877
000260 45 ad e1 3e 0a 9b 42 3e e4 91 05 3e 0a 4b 01 bf
       0.44077507 0.19004455 0.13043934 -0.50505126
000270 05 8e 71 3e 53 ae 00 3f cb d9 c3 be cd 4d d9 be
       0.23589332 0.50266 -0.382521 -0.4244217
000280 30 17 f0 3e ba b0 7f 3f 83 ff 0a bc 00 77 53 3e
       0.4689269 0.9987904 -0.00848377 0.20650864
000290 4c 66 db 3e a1 fc 71 3e d3 33 91 3d e0 23 d8 be
       0.42851484 0.23631527 0.07089963 -0.4221487
0002a0 6f 97 05 3f 91 43 b1 3d 54 4c 48 bf 77 d9 ed 3e
       0.52184194 0.086554654 -0.7824147 0.46454975
0002b0 58 b4 d5 bb 29 d5 83 be 37 37 69 bd 72 53 02 bf
       -0.006521743 -0.25748566 -0.056937423 -0.5090858
0002c0 01 23 15 3f 6e bc 1b 3e 0b b4 2a be 9d 8a 38 3d
       0.58256537 0.15208599 -0.16670243 0.045054067
0002d0 e1 f7 87 bd 52 cf fd bd 32 7e d4 3e 4f 8a ed 3d
       -0.06639076 -0.12393059 0.4150253 0.11598646
0002e0 72 fc d0 3e a8 e6 35 3e 29 01 ec be c1 e9 a4 be
       0.408176 0.1776377 -0.46094635 -0.3220959
0002f0 4b b5 4d 3d 6d 80 d0 3e a1 21 68 3e a3 36 1d 3f
       0.050221723 0.4072298 0.22669078 0.61411494
000300 10 46 5d 3f f1 56 9e 3e 96 b7 df 3e c2 5b 95 3e
       0.8643503 0.30925706 0.43694752 0.29171568
000310 f0 08 48 bf d5 95 2d 3f 58 5b 6c bf 56 f7 12 bf
       -0.7813864 0.6780675 -0.9232688 -0.57408655
000320 20 24 b3 bc b4 26 38 bf d8 46 f5 bd 9f ac 1b bf
       -0.021867812 -0.71934056 -0.11976403 -0.60810274
000330 63 68 17 be 96 94 d5 be 3b 6a 8c 3e 25 d6 ac 3e
       -0.14785914 -0.41714925 0.27424797 0.3375713
000340 e1 91 00 bd b1 10 3a bd 4a 66 f8 3b 42 5d ae 3a
       -0.03138912 -0.045426074 0.007580553 0.001330294
000350 d0 cc 5e bf bc 44 5a 3f e4 07 e8 be ff 82 c8 3e
       -0.8703127 0.8526113 -0.4531852 0.39162442
000360 53 2a 40 3e 69 a9 25 bf 19 19 2a 3e 92 bd 4d 3e
       0.18766145 -0.64711624 0.16611136 0.20091847
000370 f4 04 c9 be c8 ab 38 be db 7f e8 3e 85 d0 aa 3e
       -0.3926159 -0.1803428 0.45410046 0.33362213
000380 f6 47 47 3f 7a 2c 46 bf de 7b aa 3e 5a 1a 80 bf
       0.7784418 -0.77411616 0.33297628 -1.0008042
000390 af 74 0d 3f 0c 45 fd be b0 bd d1 bb 9e 6b 7a 3f
       0.5525617 -0.4946674 -0.0064007863 0.9782046
0003a0 64 2a 8b 3e f7 e7 6d be d0 db aa be 24 f9 e9 3e
       0.2718078 -0.23233019 -0.3337083 0.45697892
0003b0 c1 40 8b 3e 59 35 43 bf 35 e3 56 bf 84 f0 5c bd
       0.2719784 -0.7625328 -0.8394044 -0.05394031
0003c0 8b bc 81 bd 58 13 ac 3c 8b 69 f9 be 92 64 07 3e
       -0.0633479 0.021005318 -0.48713335 0.13221958
0003d0 93 d5 6a be 88 97 ab be 0f 99 70 be e0 73 f4 3c
       -0.22933035 -0.33514047 -0.23495887 0.02984041
0003e0 f0 86 88 3f 12 8a 68 be ba 4b 41 bd 3d f9 78 be
       1.066618 -0.2270892 -0.04719136 -0.24313827
0003f0 13 5b 46 bf b9 96 32 bd 5b 10 2a 3e a1 67 52 3e
       -0.7748272 -0.04360077 0.16607802 0.20547344

network_body._body_endoder.seq_layers.2.bias f4 [128]
000000 a7 55 c4 3b 19 8f 9c bb 99 05 e4 3a ad 50 b8 bb
       0.005991656 -0.0047778008 0.0017396688 -0.0056248517
000010 06 c7 95 b9 c0 ca 1b bb 10 93 d3 b9 cd 30 25 b9
       -0.0002856778 -0.0023771971 -0.00040354626 -0.00015753806
000020 97 b6 a2 ba 48 e5 53 3b 7f 54 7d bb bf dc 1b 3a
       -0.0012414035 0.0032332707 -0.00386551 0.00059456745
000030 79 90 7c 3b 4b ac 9a ba 5f 3b 00 3b 98 87 76 bb
       0.003853826 -0.0011800615 0.0019566638 -0.0037617441
000040 7f 30 b1 3a d4 97 96 3a 74 f6 44 bb 8e 5a 99 3a
       0.0013518481 0.001148934 -0.0030054124 0.0011699961
000050 5c 92 b2 3a 5b 2e 19 bb 46 4a cf bb d1 17 06 bb
       0.0013623941 -0.0023373577 -0.0063259928 -0.0020460973
000060 22 83 22 3a 17 20 17 3b c9 f4 83 bb 68 6a 06 39
       0.000619935 0.0023059899 -0.0040269834 0.00012818875
000070 fb f7 32 3b 86 70 62 bb cd c2 da bb 9a 2f ee 39
       0.0027308452 -0.0034551932 -0.006676054 0.00045430363
000080 77 88 ea 3b 62 40 da bb 2f 17 4c 3a b8 72 13 ba
       0.007157381 -0.006660507 0.0007785437 -0.00056246994
000090 01 e9 be bb 92 c6 09 bb 8f 1d 14 ba cd 13 04 bc
       -0.005826116 -0.0021022898 -0.00056501565 -0.0080613615
0000a0 e7 ac bf ba 5f ab a3 bb d0 73 82 bb 9d bd 13 bc
       -0.0014623672 -0.0049947943 -0.003981091 -0.009017375
0000b0 83 a3 81 bb 06 70 33 ba 52 42 8b 39 ab 8f de bb
       -0.0039562597 -0.0006845001 0.00026561558 -0.006792029
0000c0 c4 62 e0 bb 02 be ed ba f8 c3 93 ba ce 90 fa ba
       -0.0068477113 -0.0018138292 -0.0011273613 -0.0019116641
0000d0 d5 e3 b5 3a 46 fd c9 bb 88 87 60 3a db 7c 9a 3b
       0.0013877103 -0.0061642257 0.00085651176 0.004714591
0000e0 be b6 84 bb 37 8b 99 bb ad 49 e4 3b 98 5f 9f bb
       -0.004050105 -0.004685785 0.0069667907 -0.0048636906
0000f0 25 22 d7 ba c4 9b 8e bb 7c 09 36 39 b8 92 b4 ba
       -0.0016413374 -0.004352065 0.00017360406 -0.0013776636
000100 b0 c1 ea ba 12 50 c6 bb 0a 03 b0 ba 39 84 4d 3b
       -0.0017910507 -0.0060520256 -0.001342864 0.0031359328
000110 e2 06 f0 ba ad 17 83 38 e4 09 dc ba f8 68 05 bc
       -0.0018312598 6.250977e-05 -0.0016787616 -0.008142702
000120 45 97 e5 ba 63 c1 dc 3b 99 57 11 bc 20 f3 6f 3b
       -0.0017516395 0.0067369207 -0.008870983 0.003661342
000130 a1 22 88 bb c2 f5 78 bb 47 e5 34 bb 31 47 71 bb
       -0.0041545187 -0.003798828 -0.002760248 -0.0036816115
000140 e3 88 a9 b9 15 68 20 bb 6a 51 ed b8 7a 83 d3 b8
       -0.0003233618 -0.00244761 -0.00011316205 -0.000100857535
000150 aa 65 8f 3b c5 ec 51 ba 8b 8f ea bb cb da c4 bb
       0.004376133 -0.00080079987 -0.007158225 -0.0060075275
000160 02 bc 25 3a f2 91 10 3c 9e 77 a8 3b f8 d9 d0 3b
       0.0006322266 0.008823859 0.0051412126 0.00637364
000170 22 77 fe bb 3b 0f e1 3a 92 db 67 3b b9 75 d1 ba
       -0.0077656666 0.0017170677 0.0035378677 -0.0015980519
000180 0f 75 25 bb f8 a4 95 3a 43 93 b1 b8 4c 44 0c 3c
       -0.0025246774 0.0011416962 -8.467447e-05 0.008561205
000190 25 64 b6 bb 07 06 8b ba a5 f1 1b 39 a4 cc c1 bb
       -0.0055661374 -0.0010606655 0.00014871972 -0.0059142876
0001a0 15 58 c4 ba 27 75 18 bb b5 0c d3 3c b9 2b 9e 3a
       -0.0014979864 -0.0023263188 0.025762895 0.0012067474
0001b0 51 b1 2c 3c 62 59 ec 39 35 f4 ec 3b 6f 82 af ba
       0.010540322 0.00045080023 0.00723126 -0.0013390313
0001c0 74 71 e3 bb 1e 25 66 bb c8 c8 00 3c db da 26 bb
       -0.006941015 -0.0035117338 0.00786037 -0.0025460038
0001d0 89 18 8b bb 65 ec d0 ba 9b a8 2c ba cc a1 93 3b
       -0.004244868 -0.0015939592 -0.00065864035 0.0045053717
0001e0 2a c3 44 b9 63 b1 82 bb ab 6f 0b bb f2 ad 8e ba
       -0.00018764721 -0.0039884313 -0.0021276276 -0.001088558
0001f0 dd 60 bb ba b0 e8 d6 bb c9 2c 3b 3c f1 dd ee 39
       -0.0014295835 -0.0065585 0.011424252 0.00045560257

network_body._body_endoder.seq_layers.2.weight f4 [128, 128]
000000 01 27 ff bd 61 d3 cf bd 15 ef b8 bd 0e e5 0b bd
       -0.12458611 -0.10147739 -0.09029976 -0.03415399
000010 99 1f 84 bd 4d 1d 6d 3d ad 87 43 bd 28 ab 8d bc
       -0.06451339 0.05788927 -0.047736812 -0.017293528
000020 24 85 b6 3d ed b6 fb bb 4d a6 0d 3d c7 74 2b 3d
       0.08912113 -0.0076817186 0.034582425 0.041859414
000030 9f 33 21 3e e8 00 ed bc 7a ab 97 bc ea 06 00 3e
       0.15742348 -0.028931096 -0.018514384 0.12502638
000040 b1 c0 82 3d 6b 1a 62 bd 60 d5 70 3c 04 7d 93 bc
       0.06384409 -0.055200975 0.01469931 -0.018003948
000050 67 ac 1d be be 7b 56 bc d4 14 3b bd 0a 80 f6 3d
       -0.15397798 -0.013091026 -0.04567416 0.1203614
000060 3f 74 c3 bd 0f 2d 22 bd d8 fc 25 be 92 e3 4f bb
       -0.095436566 -0.039593752 -0.16209733 -0.0031721336
000070 f1 1a 07 3d 3a 91 fe 3d 0e 32 a5 3c 19 4b 17 bd
       0.032984678 0.124300435 0.02016547 -0.036936853
000080 93 7c 9c 3d bf 33 27 3e 36 77 00 be c2 72 12 3e
       0.07640948 0.16328333 -0.12545475 0.14301589
000090 50 9f 11 bc dd d1 87 3d fb 23 ea bd fd 82 47 bc
       -0.008888081 0.06631825 -0.11432644 -0.012177226
0000a0 d6 51 2e bc f7 0e 62 3b cb 1d bf 3d f2 3e 9e bd
       -0.010639628 0.0034493783 0.093318544 -0.077268496
0000b0 c1 64 5d 3d 99 60 f5 3d 69 86 ab bd 9e c5 c7 bd
       0.054051165 0.11981315 -0.08375246 -0.09754489
0000c0 61 34 a6 bd 79 84 88 bc f0 a0 34 3d 94 76 8e 3d
       -0.08115459 -0.01666473 0.044098794 0.06956211
0000d0 c2 88 af bd b3 7e a0 3d d7 ed 11 be 5e 9d d2 bd
       -0.08571006 0.07836666 -0.14250885 -0.10283922
0000e0 80 31 bc 3d 3c 73 98 3d 19 18 6e bc ae 58 6d 3d
       0.09189129 0.07443854 -0.0145321125 0.0579459
0000f0 56 30 44 be 6b 1d 87 bd 91 df c7 ba f1 1a d4 3d
       -0.19159064 -0.06597408 -0.0015249123 0.10356701
000100 a8 a0 cb bd 19 a5 09 3d c4 8f 8a 3d 9e 68 bd bc
       -0.09942752 0.033604715 0.06765702 -0.023121174
000110 ee 54 56 bd 24 d2 ff bd ee 6b 4b bd 1d aa 1f be
       -0.05232709 -0.12491253 -0.049663477 -0.15592237
000120 13 05 19 3e 5f c0 4a bd 27 3b eb 3d c2 83 d0 3b
       0.14943342 -0.049499866 0.11485892 0.006363363
000130 ab 9c 03 be a7 9f 81 3d f3 79 14 bc b7 da 83 bd
       -0.12852733 0.063292794 -0.009062278 -0.06438201
000140 ab 60 a8 3c 1c 6b 5c 3d bc 5c b0 3c 38 81 15 3e
       0.020553907 0.053813085 0.021528594 0.14600074
000150 a2 d9 6a 3d 13 30 6d bd d0 af 98 3c be 1a aa 3d
       0.057336457 -0.057907175 0.018638521 0.08305882
000160 1a b0 03 be 80 f9 b8 3c 37 77 9a bd e1 3a c5 3d
       -0.12860146 0.022579908 -0.0754227 0.09630371
000170 7a 41 d1 bd 4f ab ca 3b 75 d6 01 be e7 0b f6 bc
       -0.10217567 0.0061849724 -0.12679465 -0.030034972
000180 29 f4 c2 bc 4f f1 3d bd 81 b1 00 3d 57 26 47 3d
       -0.023798065 -0.046372708 0.03141928 0.048620548
000190 36 d3 b8 3d 79 77 a4 3c 1a 65 8d bc 0d 0e 83 bc
       0.0902466 0.0200765 -0.017260123 -0.01599791
0001a0 8d cc 2f 3d 23 31 c9 bd e3 b5 b8 3c 38 e8 2c 3d
       0.042919684 -0.09823825 0.022547668 0.04221365
0001b0 a8 6c c4 bc a8 c7 87 bd af 7a 1e be d4 1b 44 3c
       -0.023977593 -0.06629878 -0.15476488 0.011969525
0001c0 6f b8 96 3d 56 0c ce 3d 5d f0 11 bd 2d 0c 22 bd
       0.07359397 0.10060947 -0.03562962 -0.039562393
0001d0 ab b2 de 3d a0 e7 01 bc c1 74 96 bc ec f2 de bb
       0.10873922 -0.007928759 -0.01836622 -0.006803861
0001e0 68 e6 04 be d2 28 04 3d 85 98 f5 bd 32 7d 44 bd
       -0.12978518 0.03226549 -0.119919814 -0.047970958
0001f0 a7 66 a3 bd f1 b5 bb 3b e0 0b 56 3e 18 c9 37 3e
       -0.07978564 0.005728476 0.20902967 0.17947805
000200 0b f5 88 bc 28 d3 5b bd d9 de 9d 3d 91 32 d6 3d
       -0.016718408 -0.05366817 0.077085204 0.104588635
000210 97 97 00 3d 64 1b 38 bc 94 c3 8b 3c 1d f0 29 3e
       0.031394567 -0.011236999 0.017061032 0.16595502
000220 71 e4 ca bd 01 c3 fd bc 38 3e c5 3d bf f3 94 bd
       -0.09906853 -0.030976774 0.09631008 -0.072730534
000230 3c fc 7c bd b2 31 d1 3d 05 67 c0 3c 38 a0 55 3d
       -0.061763987 0.10214557 0.023486624 0.05215475
000240 8e 5b 35 3d f6 3d 7c 3c 18 7e d9 38 16 ea 9c bd
       0.044276766 0.015395632 0.00010370853 -0.07661836
000250 fb 73 d4 bc d5 1d 16 be 3c e5 96 bd f8 0e c9 3d
       -0.02593421 -0.14659818 -0.07367942 0.09817308
000260 33 b7 f5 bb 23 12 25 be 1a ad b4 bd 8f 3c 8d 3c
       -0.0074986457 -0.161202 -0.08822079 0.01724079
000270 5b d8 c5 3b 72 08 91 3d b3 5a fc bc 2f fa fc bc
       0.0060377545 0.07081689 -0.030804968 -0.030881016
000280 5a bd 28 be 0c 8f 3a be ee a8 00 bc dc 83 ca 3a
       -0.16478482 -0.1821863 -0.007852776 0.0015450674
000290 84 72 ab 3d c1 13 b7 bd ba 5b cb bc 78 fb 07 3c
       0.083714515 -0.08939315 -0.024824012 0.008299701
0002a0 1e 15 81 3d af 02 cd 3c 14 70 80 3c 0c c9 e2 3d
       0.06302856 0.025025694 0.015678443 0.11073503
0002b0 54 58 ec 3c 6f 69 f9 bc 3f 62 9e 3c 09 d1 a6 3d
       0.028850712 -0.030445782 0.019333957 0.08145339
0002c0 13 99 c2 bc a5 35 2e bc 72 a0 c2 bd b9 76 d8 3d
       -0.023754632 -0.010632907 -0.09503259 0.105695195
0002d0 a2 dc 10 be 3f a3 4a bd 36 1c 07 be e0 46 06 bc
       -0.14146665 -0.04947209 -0.13194355 -0.008195609
0002e0 1c ca fe bd 38 dc b7 bd 86 9f 63 3d 41 fb 7a 3d
       -0.12440893 -0.0897755 0.055572055 0.06127477
0002f0 ce 58 c9 3d 9e 45 0c 3c 1e 95 91 bc 50 b3 c2 bd
       0.09831391 0.00856152 -0.0177713 -0.095068574
000300 8e 72 dd 3d 97 4e 46 bd ff f0 9c 3d ca a6 cd bd
       0.10812865 -0.048414793 0.07663154 -0.10041578
000310 58 3a ca 3d 01 d0 b2 bb d7 b2 27 3e 40 28 e4 3d
       0.098744094 -0.005456925 0.16376816 0.111404896
000320 ac 00 34 be e9 90 08 bd 4a 8b 12 b9 b1 86 d7 bd
       -0.17578381 -0.033341322 -0.00013975534 -0.10523737
000330 7b 2c 23 3d 33 9c e7 3d b9 54 25 be 27 f0 c3 bd
       0.03983734 0.113090895 -0.161456 -0.0956729
000340 fd 27 d6 3d 6a 55 16 bd d6 73 37 be af 88 15 3e
       0.10456846 -0.03670255 -0.17915282 0.14602922
000350 94 61 a8 3c 88 44 7e 3d 96 6f 8b 3c 5d a9 00 3e
       0.020554341 0.062077075 0.017020982 0.12564607
000360 e3 69 d3 3c 1a 44 b3 bd 11 cd 35 3e d8 ea 5c bd
       0.025807327 -0.08753224 0.17754008 -0.053934902
000370 40 13 0e bd 4d 46 26 3d fe 68 3c bd c5 db a7 3d
       -0.034686327 0.040594388 -0.045998566 0.081962146
000380 2c c7 25 bc 91 96 db bd c8 bf a3 bb 71 57 3e be
       -0.010118287 -0.10722078 -0.0049972273 -0.18588044
000390 a3 ec c1 bd f7 28 ef bc 5a 14 0a 3d 92 9f 23 be
       -0.09468963 -0.029194338 0.033710815 -0.1597884
0003a0 aa ee 3d bd 94 08 4d 3d b7 4a c1 bd 2b a5 83 bd
       -0.046370186 0.05005701 -0.09438079 -0.06427988
0003b0 1a 24 e5 3c 73 b6 c0 3d 27 dd 47 3c 52 07 7b 3d
       0.027971316 0.094097994 0.012198723 0.061286278
0003c0 f0 1a 3e 3d 96 d8 91 3d 9b 5d f7 3d 95 03 d2 3c
       0.04641241 0.071213886 0.12078401 0.025636474
0003d0 8b 42 f4 3d b0 db 68 be 30 36 79 be 71 d2 14 be
       0.119267546 -0.22740054 -0.24337077 -0.14533402
0003e0 23 5b 6a bd 1e 2c 07 bd 6a f2 b3 bc 2f 05 7e bd
       -0.05721582 -0.033001058 -0.021966178 -0.062016662
0003f0 5a d7 88 3d 45 51 0e bd 25 00 f3 3c e0 71 34 be
       0.066817 -0.034745473 0.029663155 -0.17621565
