MLAgentsProject/results/MoveToGoal4/MoveToGoal/MoveToGoal-17967.onnx (onnx, 72981 bytes, 7 tensors)

action_model._continuous_distribution.log_sigma f4 [1, 3]
000000 6f ec 46 3b 45 33 06 3b 23 00 f3 3a
       0.0030353328 0.0020477336 0.001853947

action_model._continuous_distribution.mu.bias f4 [3]
000000 be 92 d4 b7 23 cb 37 b9 f5 69 ec 37
       -2.5340702e-05 -0.00017527914 2.8182732e-05

action_model._continuous_distribution.mu.weight f4 [3, 128]
000000 bd be ad 3c 73 a2 62 3c 93 f4 2b bc 89 ed 98 bc
       0.021209115 0.013832676 -0.010495323 -0.018667953
000010 88 a2 81 bb cc 4f 65 3c cf 75 5e 3c 67 30 0c bc
       -0.003956143 0.013996076 0.013577892 -0.008556462
000020 a8 07 ae ba 47 aa 82 bb 5b f3 13 bc 44 66 31 bc
       -0.0013277428 -0.003987584 -0.009030188 -0.010827605
000030 96 21 9f bb a9 32 a8 3c 37 80 66 3c 4f 17 d0 3b
       -0.0048562987 0.02053197 0.014068655 0.006350435
000040 f1 1e e1 3a f0 07 fc 3c 10 56 1b 3c 25 6c 7d bc
       0.0017175359 0.030765504 0.009480968 -0.015467678
000050 a9 e7 57 3c 78 16 06 3c 6a d2 dd 3a 53 07 3d 39
       0.013177791 0.008184068 0.001692367 0.00018027173
000060 d1 f1 c5 bc 7f 69 03 3c 66 1d e4 3c a2 fe 02 bc
       -0.024163159 0.008020758 0.02784605 -0.0079952795
000070 c8 d6 da 3a f7 f1 f6 3c d4 e0 15 3c 3d 53 9f 3a
       0.001669609 0.030144675 0.0091478415 0.0012155544
000080 26 5f b1 bb ad ce 9e bc 94 6d 14 bc 6c 52 dc 3b
       -0.005412954 -0.01938566 -0.009059329 0.0067236926
000090 0c 14 6a bc 89 23 70 bc a1 0e 92 3c 18 3d 84 bc
       -0.014287006 -0.01465691 0.017829241 -0.016142413
0000a0 e6 61 86 bb 79 09 3b 3c 62 3b cc 3c c3 c5 7f 3c
       -0.004101026 0.011415833 0.02493066 0.015611115
0000b0 1a b2 8f 3b 7b 75 8d 3b 4e cb 1e 3b 7d e7 65 bb
       0.004385245 0.0043169833 0.0024230066 -0.0035080605
0000c0 d8 26 b0 3c 41 9e 2f 3b 23 73 be 3c ec 45 cf 3c
       0.021502897 0.0026797208 0.02324826 0.025301896
0000d0 a3 67 86 bb 6a 16 82 bc 30 32 6a 3c 99 ea cc bc
       -0.00410171 -0.015879828 0.014294192 -0.025014209
0000e0 42 81 35 39 f5 74 b0 ba 81 90 e0 bb 22 61 e7 bc
       0.00017309657 -0.001346259 -0.0068531637 -0.028244559
0000f0 a1 92 04 3c 64 bc 1f bc 68 7d bb 3c bd e2 53 ba
       0.0080916 -0.009749506 0.022886947 -0.0008082798
000100 c7 66 d1 ba a3 6e 78 bc 6c d1 00 bb 84 06 04 3c
       -0.0015976065 -0.015163097 -0.0019656075 0.008058194
000110 f6 77 b0 bc 68 3c 05 bd 60 30 f2 bc ec a5 29 3c
       -0.021541577 -0.03252831 -0.029564083 0.0103545
000120 f0 73 d5 3c 86 bc de bb 38 67 a3 3c 5d 84 3c bd
       0.02605626 -0.006797376 0.01994668 -0.04602467
000130 fd 4d 4f 3c 03 25 ca 3b 2f a2 f9 3c 39 53 68 3c
       0.012652871 0.006168963 0.030472843 0.014179998
000140 0e 7e 5d 3c 3d 1c 98 3b ef 7e 2b 3b 57 41 c1 bb
       0.013518823 0.004642038 0.0026168188 -0.0058976817
000150 ac ee 31 3d 99 07 fd 3a e6 2e 68 3a 07 2e 12 bd
       0.043440506 0.0019304632 0.0008857086 -0.035688426
000160 a6 80 ee bc c6 a9 96 3c 32 e5 e5 3a f9 d2 d5 3a
       -0.029114079 0.018391501 0.0017539619 0.0016313485
000170 a2 38 eb bc 33 49 56 3c 8e 41 f1 3b f5 29 3d bc
       -0.028713528 0.0130789755 0.007362551 -0.011545648
000180 ff 89 ff 3c 09 1e 17 bd c1 a7 18 3b 45 2c a8 3c
       0.031193731 -0.036893878 0.0023293348 0.020528922
000190 da d0 33 bc 70 5c a4 3a 98 3b a7 3c 3b bd 3d 3c
       -0.010975087 0.0012539756 0.020414159 0.011580761
0001a0 f2 4f 20 3c 4b 9f 15 bb dd 5a 0f 3d 02 30 c6 3c
       0.009784685 -0.0022830542 0.034998763 0.024192814
0001b0 c2 a2 2a 3c 20 d1 24 3b 41 eb cb 3b 4a 05 4d 3c
       0.010414781 0.0025149062 0.006223113 0.012513468
0001c0 e3 54 98 3c 0a 79 5d 3c 04 a1 11 bd 4f 5f df 3b
       0.018595165 0.0135176275 -0.035553947 0.0068167816
0001d0 a8 4b be 3a 96 34 45 3c 4d c8 aa 3c 75 e5 2b bb
       0.0014518397 0.012036463 0.020847464 -0.0026229296
0001e0 7c a6 0a bc fd b1 3d 3c 1b a1 a1 3c 42 e9 b9 3b
       -0.0084625445 0.01157808 0.019730141 0.0056735585
0001f0 56 4b 2f 3b 13 f9 d1 3c a7 88 19 3c 3d f2 09 3c
       0.0026747785 0.025631463 0.009370959 0.0084195705
000200 62 6b c9 bc af f3 de 3c 35 72 96 bc 48 c5 6e bc
       -0.024587337 0.027215807 -0.018365005 -0.014573403
000210 21 49 bf bc 8a a7 ed 3c fb d8 25 39 1e 1c ab bc
       -0.0233503 0.029010553 0.00015816458 -0.02088743
000220 f0 dc 19 3c 70 b6 97 3c 96 08 c2 bc 7b d0 a4 3c
       0.0093910545 0.01851961 -0.023685735 0.020118942
000230 1a aa 6b 3c 2b 44 75 3b 6d 34 ad bb c8 25 b4 bc
       0.014383817 0.0037424664 -0.0052857907 -0.021990672
000240 78 48 26 bc d1 9e aa bc 6a c3 1c 3d fe 6c ad 3c
       -0.010149114 -0.020827683 0.0382723 0.021170136
000250 a4 cc 4a 3c a8 ce 94 bc 8e 37 59 bc 45 80 cc ba
       0.012377892 -0.018164948 -0.013257874 -0.0015602192
000260 f9 46 07 3c c6 d5 88 bb 8b f9 db 3a b6 46 c2 ba
       0.008256667 -0.0041758744 0.0016782744 -0.0014822099
000270 1b 90 16 3d 82 f4 5d 3c b0 cf 8d bb da e9 b8 bb
       0.036758523 0.013547065 -0.004327737 -0.0056431117
000280 d9 d1 b2 bb c0 01 5b 3c 09 4c 04 3d 9e 05 98 bb
       -0.0054571447 0.013367116 0.032299075 -0.0046393415
000290 31 2c 60 3d 72 74 af bb fd 9d 4e 3c 10 ef 8c 3c
       0.054729644 -0.0053544575 0.0126109095 0.017203838
0002a0 1f 11 37 bc 02 56 dc 3c f2 fa 85 3c 81 33 6f 3b
       -0.011173516 0.02689648 0.016355012 0.0036499205
0002b0 8f 27 6b bc fa d7 9b bc 16 6f c6 3c 1f 8f 63 3c
       -0.014352693 -0.019023884 0.024222892 0.013889103
0002c0 8e 9c b1 bb a1 f0 1c 3b f9 93 e2 3b 8c 5d 1d 3b
       -0.005420274 0.0023947137 0.0069146124 0.0024012057
0002d0 25 6a 85 bb b2 27 e4 3b e6 ca c0 3c 29 10 c7 3c
       -0.0040714913 0.00696274 0.02353425 0.024299698
0002e0 98 8a c3 3c 56 c4 d9 bb 50 a4 53 bc f3 6f 12 bc
       0.023869798 -0.0066457195 -0.012917593 -0.008937824
0002f0 00 e3 a1 ba c7 a6 be bc ce 36 08 3d bf c0 da 3c
       -0.0012350976 -0.023272885 0.03325539 0.026703237
000300 eb 3d a1 bc 0a 1a 8f bc e5 36 a9 3c 67 00 eb 3b
       -0.019682845 -0.017468471 0.020656059 0.007171679
000310 49 e2 62 3b 8b 31 b8 3c 36 75 a8 bc 86 c8 bd 3b
       0.003461974 0.022484561 -0.020563703 0.0057917265
000320 ac bc f3 3c c7 bf b1 3c ce 82 dc 3a 58 47 31 bc
       0.029753052 0.021697892 0.0016823651 -0.010820232
000330 c2 77 08 3d 91 6b d4 3c 53 4b a1 3b 43 a8 ed bc
       0.033317335 0.025930198 0.0049223094 -0.029010898
000340 6c c0 40 3c fa 51 d7 3b 48 f3 be 3c f6 bd f1 ba
       0.011764627 0.0065710517 0.023309365 -0.0018443454
000350 6d 9f 1c 3c 41 39 a7 ba 5d 3a 62 bb f2 c1 29 bb
       0.009559494 -0.0012758152 -0.003451965 -0.0025902954
000360 26 9c 6c 3c 4c 99 91 bb 3c d9 a5 3b 44 ff d6 bb
       0.014441526 -0.0044433232 0.0050612967 -0.0065611918
000370 aa 8a 8e bb 56 d8 f5 ba e0 50 d1 3b d6 07 7f 3c
       -0.004350026 -0.001875649 0.006387815 0.015565833
000380 4b cc 59 3c 47 51 a4 bc 1c af a4 bc 41 75 76 bc
       0.013293336 -0.020058287 -0.02010303 -0.015042604
000390 bd d3 ee bb 32 b1 0c bc cb 1a d9 3b 14 ab 18 bc
       -0.0072884248 -0.0085871685 0.0066255084 -0.009318132
0003a0 5d 48 07 bd b5 6f 57 3c 44 a1 52 3c 07 16 67 3c
       -0.033027995 0.013149192 0.0128558315 0.014104373
0003b0 4d 22 07 bc c9 6c d7 3c e0 04 ef bc 0b c2 7d 3b
       -0.008247924 0.02629699 -0.02917713 0.0038720395
0003c0 c8 5f 49 bb d3 e4 d7 bc c2 b3 21 3b a1 6f fe bc
       -0.0030727256 -0.02635423 0.0024673794 -0.031059088
0003d0 76 ca da 3b 88 9f aa 3b 88 1a 08 bc ae fa 8a 3c
       0.0066769673 0.005207006 -0.008307107 0.016965237
0003e0 3f 06 6c 3b 55 22 77 3c 03 e6 ad 3b f6 9f e7 3c
       0.0036014465 0.015083869 0.0053069605 0.028274518
0003f0 29 10 0b 3d b6 3a 81 ba 75 d8 39 bc ed 0e 6d bd
       0.03395096 -0.0009859416 -0.011343111 -0.057875562

network_body._body_endoder.seq_layers.0.bias f4 [128]
000000 db 84 f2 3a 10 c3 2f ba fc 8b 79 39 40 06 02 bb
       0.0018502729 -0.0006704787 0.00023798639 -0.001984015
000010 c6 5a d6 b9 5f f8 2c 38 3e 24 9a ba 24 64 37 3b
       -0.00040884892 4.123931e-05 -0.0011760069 0.0027983272
000020 ff b8 25 b9 e9 71 28 ba 2a 26 12 bb da dd 11 ba
       -0.00015804543 -0.00064256653 -0.002230058 -0.00055643695
000030 e1 5b c3 b9 40 57 43 ba 74 67 a2 39 02 e3 85 b9
       -0.00037261753 -0.0007451661 0.00030976126 -0.0002553687
000040 ee 9f 6b 3a 2f a3 1f 39 ac 5a ab b9 f2 0b 6a b8
       0.000898837 0.00015224212 -0.00032683217 -5.5801072e-05
000050 8b b6 aa b8 44 c7 fb 3a 0c 0e 0e bb 3b cd 6c b8
       -8.140233e-05 0.0019209166 -0.0021675853 -5.645792e-05
000060 06 71 46 b9 3e a4 5b 38 7b 48 f6 b9 57 cd 3e 39
       -0.00018924856 5.236663e-05 -0.00046974779 0.00018196307
000070 48 b2 60 b8 a4 eb 0e 38 e9 f0 8c ba 58 e8 17 ba
       -5.35718e-05 3.4074896e-05 -0.0010752949 -0.0005794815
000080 4b 19 eb b9 66 bf a1 ba 54 44 8b 39 cd df 1a 37
       -0.00044841538 -0.0012340366 0.00026563054 9.231223e-06
000090 dd 13 2e b9 09 38 34 3a c5 c0 9a ba d4 13 45 ba
       -0.00016601333 0.0006874805 -0.0011806717 -0.0007517908
0000a0 ad c6 28 3a 30 c6 c2 b9 3a ed b4 b9 58 b4 bc 3a
       0.00064382964 -0.00037150225 -0.00034509023 0.0014397008
0000b0 46 11 26 3b 66 5e 19 b9 cd 1b 8a b9 e3 b3 33 3a
       0.0025339886 -0.00014626383 -0.00026342124 0.00068551133
0000c0 04 e0 1a ba b6 7e b6 3a ef f9 bb ba 15 6c 05 bb
       -0.0005908015 0.0013923261 -0.0014341454 -0.0020358611
0000d0 cc 10 a8 39 ad 71 18 ba e9 49 eb b9 59 b6 4c b9
       0.00032055972 -0.0005815279 -0.0004487776 -0.00019522886
0000e0 29 e4 20 b9 a3 fa 14 39 6c e9 f9 38 f0 f8 cc b8
       -0.00015343785 0.0001420775 0.000119167235 -9.773846e-05
0000f0 2b cc 13 3a 88 ba 88 ba 20 ac 4a ba 5d a4 58 b8
       0.00056380284 -0.0010431567 -0.0007731337 -5.165149e-05
000100 6f 37 f6 b9 6f fa 89 36 d7 14 84 b9 4e 78 3c b6
       -0.00046962078 4.1120725e-06 -0.0002519253 -2.808421e-06
000110 30 9c a4 b5 0f cf 89 bb fd 34 21 b9 a0 84 14 b9
       -1.2264409e-06 -0.0042055915 -0.00015373896 -0.00014163787
000120 8c 19 a0 39 8e 9f d3 ba 1f eb 9b ba d6 bb b1 3b
       0.00030536612 -0.0016145573 -0.0011895633 0.005424003
000130 a4 62 9d 39 4e 04 61 b9 cf 3b d9 ba 49 c7 a0 3a
       0.00030018867 -0.00021459276 -0.001657361 0.0012266423
000140 22 9b 81 ba 1f 23 d0 ba 07 d5 16 3a e4 c9 bb b9
       -0.0009888152 -0.0015879608 0.00057537894 -0.0003581784
000150 e7 36 28 3a 42 77 12 39 00 ba 41 b9 c7 2e 0c 3b
       0.00064168725 0.00013968072 -0.00018475205 0.0021390186
000160 3a f9 27 ba 87 59 0f ba ea c7 cc 39 7f cf 14 b9
       -0.0006407682 -0.00054683577 0.0003905886 -0.00014191678
000170 3f cf ac ba 44 4d 2a bb 58 13 18 3b fd 7e 1e 3b
       -0.0013184323 -0.0025985995 0.002320489 0.0024184578
000180 5d 0d 91 3a f2 d3 28 ba 16 7b 8b b9 49 33 44 3b
       0.0011066605 -0.0006440274 -0.00026603852 0.0029937795
000190 84 09 34 b8 2a e2 12 b9 f2 3b 45 39 fe 18 cd b9
       -4.2924206e-05 -0.00014007898 0.00018809715 -0.00039119268
0001a0 45 30 d2 38 97 ff 9d bb 1e 38 b3 ba 37 95 07 ba
       0.00010022571 -0.0048217284 -0.001367334 -0.0005172076
0001b0 3f e0 10 39 a9 20 17 b9 28 9f 2b ba a1 1f 17 3a
       0.00013816448 -0.00014412649 -0.00065468485 0.0005764906
0001c0 84 ef 57 b8 f9 11 9f ba f4 7e e6 3a 26 67 90 ba
       -5.148306e-05 -0.0012136094 0.0017585442 -0.0011017069
0001d0 0a 12 d9 36 5b cb 99 ba ff 44 33 b9 a0 b6 b2 39
       6.469204e-06 -0.0011733578 -0.00017096473 0.00034086872
0001e0 df 90 05 b9 b0 1d 10 3b cb 76 95 ba 87 b6 a3 b9
       -0.00012737837 0.0021990351 -0.0011403201 -0.00031225776
0001f0 0b df ea 39 a7 2e ff b9 77 ab ed 3a 81 49 d7 b9
       0.00044798138 -0.0004867215 0.0018132766 -0.0004106276

network_body._body_endoder.seq_layers.0.weight f4 [128, 6]
000000 cd 86 24 bf 0d b2 92 3f e1 b1 31 bf ed 6a b7 be
       -0.6426819 1.1460587 -0.69412047 -0.35823765
000010 ee 4c b0 3e 10 dc a3 bd 11 ca 6f 3e 16 1b d1 be
       0.34433693 -0.08000958 0.23416926 -0.40840977
000020 f2 5a 6f be d7 61 a7 3e b9 9d 48 bf aa 98 59 be
       -0.23374537 0.32691833 -0.78365666 -0.21249643
000030 1e 9d e0 3e 85 6c 8c 3e f9 e9 50 3f f1 f6 fb bd
       0.4386987 0.27426544 0.81607014 -0.1230296
000040 e1 20 37 3e 4c d0 31 bf 29 10 c1 3c 36 57 25 3e
       0.17883636 -0.6945846 0.023567276 0.1614655
000050 d4 2a f9 3e 33 be dd 3e ee 02 30 be 59 e2 54 3d
       0.48665488 0.43309173 -0.17188618 0.051973674
000060 02 5c 39 3c 85 07 f3 bc e3 6d 4f 3f 8f b1 04 bf
       0.01131344 -0.029666672 0.8102705 -0.5183343
000070 df c9 94 3e 1c 44 a9 be ae 12 a2 bd 28 9e 02 3f
       0.29060265 -0.33059776 -0.07913719 0.5102258
000080 51 93 35 be 59 3a c5 be c8 da c9 3e ee ac 99 bd
       -0.17731978 -0.38521078 0.3942473 -0.07503687
000090 6d b8 29 3e 46 9f 57 3d 8a e0 20 bf eb 83 2c 3e
       0.16574259 0.05264213 -0.6284262 0.16847198
0000a0 fb 29 a1 be 13 71 24 3b 06 e2 cb be f6 f5 af be
       -0.3147734 0.0025091812 -0.3982088 -0.3436734
0000b0 d6 c5 10 bf 4a 4d be bd 5a d9 8c 3e f9 c9 f2 be
       -0.56551874 -0.092920855 0.27509576 -0.47419718
0000c0 32 94 ec 3e 5c 14 5e 3f 65 68 00 bf 8b fa 6f bf
       0.46206814 0.86749816 -0.50159293 -0.93741673
0000d0 0e 51 ca be a5 ec 53 3e be 7a 96 be 40 63 a8 bd
       -0.39514965 0.20695741 -0.2939052 -0.082220554
0000e0 a1 33 a1 bd 11 b8 89 3f 8b 9c c3 be 70 cc 95 bc
       -0.078711756 1.0759298 -0.3820537 -0.01828596
0000f0 eb e3 4f be ec 90 89 3d 60 7d 37 bf d6 5d 5f be
       -0.20301788 0.06717095 -0.7167568 -0.2181314
000100 26 50 9e be 34 99 82 be 65 2c 5e 3e 59 54 5a be
       -0.30920523 -0.2550751 0.21696623 -0.21321239
000110 18 53 d1 3d 5d 20 50 bf 83 39 c0 be b1 e2 54 bc
       0.10220927 -0.8129938 -0.37543878 -0.012993501
000120 83 08 d8 bd b2 ab 1c bd af 43 97 3e a3 dd 1d 3f
       -0.105484985 -0.03824968 0.29543826 0.61666316
000130 85 bf 08 3e 5f 09 01 3e 22 77 5f bd 37 d1 b3 3e
       0.13354309 0.12601231 -0.054556973 0.35120556
000140 51 4b bf be fc 85 6d 3e 5b 7c bd 3b b8 2c 68 bd
       -0.3736215 0.23195642 0.0057826466 -0.056683272
000150 c1 fb 69 bd e5 b9 99 be 55 31 1d bf 49 7f b5 3e
       -0.057124857 -0.3002464 -0.614034 0.35448673
000160 51 e5 16 3f 61 f4 86 3d 8c 1b c3 be f7 5f b2 3d
       0.5894366 0.0658958 -0.38106954 0.0870971
000170 82 f4 98 3e 03 cf b4 be d5 9d 68 bc 72 dc 92 3e
       0.29874045 -0.35314187 -0.014197786 0.2868381
000180 a7 46 cc bc 98 b9 01 bf 44 96 db be 44 cb 8d 3e
       -0.024936033 -0.5067382 -0.4288808 0.27694142
000190 e9 87 53 be e7 87 97 3d 39 34 fa 3c 0c e2 74 3f
       -0.20657314 0.07398968 0.03054248 0.9565742
0001a0 7b 16 98 be f6 c2 e2 be c0 34 e5 3e ad 65 25 3e
       -0.2970465 -0.44289368 0.44766808 0.16152067
0001b0 19 17 a7 3e 05 e8 0b bf 05 66 42 3f 03 82 50 be
       0.3263481 -0.5465091 0.7593692 -0.20362096
0001c0 2e 82 7d bd 30 db 43 3e 0b 26 f1 3e e0 c4 c9 3e
       -0.061891727 0.19126582 0.47099337 0.39408016
0001d0 cd 40 f5 be 3f ab c3 3e 4d 20 a2 3d 6f e2 03 3f
       -0.47901002 0.38216588 0.07916317 0.51517385
0001e0 02 4c d5 3d 10 fe 27 3f b0 71 27 3c 75 52 9a be
       0.10414888 0.65622044 0.010219976 -0.30141035
0001f0 34 1d 6b 3d 22 18 b2 3e 21 85 98 be fa 53 a1 3e
       0.057400897 0.34784037 -0.2978907 0.31509382
000200 fa 81 a0 3e b3 04 05 3f 7d 2e 08 3c d2 e5 64 bf
       0.31349164 0.51960295 0.008311865 -0.8941318
000210 34 39 31 bf 05 55 12 3e 6d 5e fb bc 44 72 0f 3f
       -0.6922791 0.14290245 -0.030684674 0.5603373
000220 da e8 d2 3d cc 48 6f bc 67 ca c3 bd b5 54 f0 3e
       0.10298319 -0.0146047585 -0.095600896 0.46939626
000230 34 fc 6b 3f 02 3b cc 3d 54 a4 b6 3e 9b 75 6d 3e
       0.92181706 0.09972192 0.35672247 0.23189394
000240 8d f9 e5 3e be 58 23 3f 1c b7 02 bc d0 e7 f9 3d
       0.44916955 0.63807285 -0.007978227 0.12202418
000250 3d c4 d4 bd a4 d5 ad bd 85 9b 38 3d 12 7c da 3e
       -0.10388992 -0.08488014 0.04507019 0.42672783
000260 b0 e6 cc bd 5c ad 40 3d 64 d9 09 3e da 87 6e 3e
       -0.10004938 0.04704033 0.13461834 0.23294011
000270 4d 02 89 3e 75 89 e0 be 73 f0 10 3f 92 f4 6a 3d
       0.26759568 -0.4385487 0.56616896 0.057362147
000280 61 f8 38 3d df bb e2 be e1 b5 06 bc 59 9a 8b be
       0.045158748 -0.4428396 -0.008222074 -0.27266195
000290 aa 6a 48 3f d3 f1 77 bd c4 48 17 bf 28 7d 43 3d
       0.78287756 -0.060533356 -0.59095407 0.04772678
0002a0 8a 5b 2d 3f 0e 5c 46 3e 70 27 84 be be 3a fa be
       0.677178 0.19371054 -0.25811338 -0.48872942
0002b0 43 a6 d1 be fa 84 94 3e 7e c1 8e 3f 0d 4c 87 bf
       -0.4094716 0.29007703 1.1152799 -1.0570084
0002c0 d9 f6 32 3f e6 5a b4 be d7 57 fb be 0b da dc be
       0.6990791 -0.352256 -0.49090454 -0.43135104
0002d0 35 93 2d be 7d f1 6c 3f fa b9 4a 3f d9 95 cd be
       -0.16950686 0.9255598 0.7919003 -0.40153387
0002e0 75 50 e8 be 88 fb 36 bf d2 5c d6 be 5d 23 04 3e
       -0.45373884 -0.71477556 -0.4186769 0.12904115
0002f0 d3 66 87 3e d3 bb 10 3e fc 05 bd be 70 b7 2f be
       0.26445636 0.14134149 -0.36918628 -0.1715982
000300 ac 1e a8 bd 4e ec 07 3f 03 e7 a7 bd db d5 77 be
       -0.08208975 0.5309495 -0.08198359 -0.24202673
000310 4f 0b cc 3e d4 c2 71 3f f0 28 5a 3f 91 72 ba bd
       0.39852378 0.9443791 0.85218716 -0.09103883
000320 54 2e 8b be 2e 10 81 3d 6f e1 03 3e 42 de db 3e
       -0.27183783 0.06301914 0.12878965 0.42943007
000330 d1 f0 4d 3e a0 0f 3d bf 7a d9 da 3e d4 75 0b 3d
       0.20111395 -0.73851967 0.42744046 0.034047917
000340 73 eb 7c 3e da 06 16 bf 54 0a 0f 3c 44 94 e6 bd
       0.24699192 -0.58604205 0.00873049 -0.11258748
000350 34 cb 32 3e aa a8 0d 3f 63 da 40 3f 54 02 a1 3e
       0.17460328 0.55335486 0.7533323 0.3144709
000360 38 52 f4 3d e2 88 6e 3f 50 e6 8f 3e 7a b2 97 3e
       0.119297445 0.93177617 0.28105402 0.29628354
000370 04 01 de be 8b 89 25 be 68 24 0b be 90 e1 5b 3e
       -0.4336015 -0.1616575 -0.13588107 0.21472764
000380 31 02 d0 be d9 5b 1a bf cc 10 9b 3d 19 31 5e bc
       -0.40626672 -0.602964 0.07571563 -0.0135615105
000390 9e 34 6c 3e ce e9 5b 3d f8 7b 82 3d df d2 1d be
       0.23066947 0.05368977 0.063713014 -0.15412472
0003a0 0d b5 06 3e f2 ae 87 3f 42 22 22 bf 76 35 69 3f
       0.13155003 1.0600264 -0.63333523 0.910972
0003b0 ff fc 8e 3e 5b 8b 5b bc c3 7e 94 bc 97 f4 24 bd
       0.27927396 -0.013399924 -0.018126851 -0.04027232
0003c0 5b 3c 94 be ba 73 a9 3e 53 74 74 bb af cc 88 3e
       -0.28952298 0.33096105 -0.003730078 0.2671866
0003d0 26 d7 1b 3e c3 90 0b be 7e bf e3 3e ea ce 17 3f
       0.15218791 -0.13629441 0.44482034 0.593001
0003e0 18 e5 71 3e 74 6f 87 be 9e 80 b1 be f0 d8 ea bd
       0.23622549 -0.2645222 -0.3466844 -0.11467159
0003f0 d8 50 0f be d6 c2 5b 3f 60 fb ca be 2b 7d 87 be
       -0.13995683 0.8584417 -0.3964491 -0.26462683

network_body._body_endoder.seq_layers.2.bias f4 [128]
000000 2e e2 a8 ba 7d 34 65 b8 c4 9d 38 38 f3 75 08 3b
       -0.001288479 -5.4646738e-05 4.401595e-05 0.0020822256
000010 f4 d5 6e 38 55 d6 07 ba 22 b7 24 39 39 9f be b9
       5.694288e-05 -0.0005181779 0.00015708481 -0.00036358254
000020 1f 3c 64 bb a2 08 0f ba 0a 9d 9e 38 2a 9f 80 bb
       -0.0034825874 -0.00054563035 7.563278e-05 -0.003925224
000030 bf 41 95 b9 f5 8f b3 ba da e7 3c b9 6b b7 3c bb
       -0.0002846848 -0.0013699519 -0.00018015449 -0.002879585
000040 c1 60 8b 39 e8 7b c9 b9 a4 44 13 b9 c7 7b 25 ba
       0.00026584233 -0.00038430025 -0.00014044583 -0.0006312695
000050 ab 5d 91 39 5a 99 9c b9 9f 98 09 3b d1 6d a8 39
       0.00027726343 -0.00029868894 0.002099551 0.00032125277
000060 c5 eb 5a 3a 2c 28 b9 37 54 66 81 3a ad 07 8d b8
       0.00083511724 2.2072425e-05 0.0009872415 -6.724834e-05
000070 75 b0 02 39 79 ac 1d ba 30 dc 67 b8 5f 17 08 39
       0.00012463501 -0.0006014775 -5.5279757e-05 0.00012978677
000080 e7 7c d3 b8 5c de 2f b9 0d f2 d7 b9 14 ee ab b9
       -0.00010084529 -0.00016772136 -0.00041188337 -0.00032793044
000090 0e 26 03 ba 75 45 10 b9 b0 97 8b b8 18 80 08 ba
       -0.0005002924 -0.00013758785 -6.6562905e-05 -0.0005207076
0000a0 0b 3f 9c ba dd 1b 28 b9 ac 9d 3b 39 ef 80 88 b9
       -0.0011920644 -0.00016032108 0.00017892447 -0.00026036004
0000b0 5f 26 fd 39 73 5d 07 39 ba 05 f3 b8 9a 2a 1a ba
       0.0004828451 0.00012909416 -0.000115882096 -0.0005880982
0000c0 8d 25 cc b6 90 8d 18 b9 d3 9e c2 b8 ec 6a 65 3a
       -6.0840453e-06 -0.00014548586 -9.280224e-05 0.00087515893
0000d0 51 b8 d5 b7 d8 f3 4f ba b5 7a 10 b9 d9 ee cd 39
       -2.5477408e-05 -0.0007932759 -0.00013778622 0.00039278602
0000e0 ec 47 85 ba f4 4c 4e ba a4 98 34 3a b0 14 61 b7
       -0.0010168529 -0.0007869743 0.00068892003 -1.3415862e-05
0000f0 65 63 04 ba 3e 48 a7 ba b6 c9 c4 b8 db 6f 8d ba
       -0.00050502113 -0.0012762619 -9.38358e-05 -0.0010790782
000100 bf 97 37 38 16 77 a8 37 1e 46 fd b8 d3 ef 13 ba
       4.3771925e-05 2.0082614e-05 -0.000120770404 -0.00056433416
000110 9b 84 53 39 0d 9a 48 ba b9 98 c6 39 85 16 49 b9
       0.00020171927 -0.000765235 0.0003787929 -0.00019177243
000120 59 70 55 b9 5e 68 2f b9 62 6e 5b 39 4b c4 9a b9
       -0.00020355116 -0.0001672818 0.00020926588 -0.0002951942
000130 2d 0b 1e b9 a3 08 89 ba a6 72 92 b8 4e 46 88 ba
       -0.00015072218 -0.0010454844 -6.9831774e-05 -0.0010396929
000140 13 a4 09 b9 fd 3c b3 ba 6e ba 2f b8 df 76 de 38
       -0.0001312646 -0.0013674792 -4.1896878e-05 0.000106079264
000150 26 2d 94 b8 1d 02 a7 b8 6d 92 12 ba ff d1 11 b7
       -7.0655995e-05 -7.963574e-05 -0.0005591277 -8.691567e-06
000160 60 67 2f ba c2 0e 3d ba 27 48 0a b9 22 98 d6 b9
       -0.0006691124 -0.0007211977 -0.00013187584 -0.00040930609
000170 53 05 b0 39 73 e2 e8 39 c9 96 1b b9 9c b5 43 b8
       0.00033573303 0.00044419206 -0.00014838124 -4.666076e-05
000180 17 d1 b0 b8 ff 73 a2 3a 9f 31 e7 b9 cd f4 38 ba
       -8.43128e-05 0.0012394189 -0.00044096724 -0.0007055521
000190 8c 76 e1 ba c5 d6 13 b9 0b 7a bb 3a 26 9c a3 38
       -0.0017201467 -0.0001409902 0.0014303339 7.8015306e-05
0001a0 60 53 87 bb 4a c3 ef b9 09 96 ab 39 db 93 24 bb
       -0.004129812 -0.00045731134 0.00032727447 -0.0025112543
0001b0 b7 d0 54 b7 e5 84 88 ba c7 ab 0f ba f7 8f 30 ba
       -1.268478e-05 -0.0010415582 -0.0005480614 -0.00067353196
0001c0 86 d2 9a 39 7a dc 23 ba ef 32 31 b8 14 62 8a 3a
       0.0002953002 -0.000625081 -4.2247524e-05 0.0010557794
0001d0 77 15 86 b9 48 ab 13 b9 d1 c1 26 b6 83 40 fb b9
       -0.00025574464 -0.0001408282 -2.4848744e-06 -0.00047922516
0001e0 dc b3 1e b9 b8 b3 29 ba cb da 53 b8 98 25 f3 3a
       -0.00015135057 -0.00064736186 -5.0510087e-05 0.0018550633
0001f0 e5 4a 28 3b a0 8b 00 3a c2 6c ed b7 22 9f 98 b7
       0.0025679406 0.0004903618 -2.8303246e-05 -1.8193914e-05

network_body._body_endoder.seq_layers.2.weight f4 [128, 128]
000000 b4 c6 93 bd a8 c4 7b 3d 39 64 f3 3b af 8e 8b bc
       -0.07215634 0.061466843 0.007427719 -0.01703581
000010 80 4c ba bd 6e 0d 78 3e 7c 3b be bd 20 05 0f bd
       -0.090966225 0.24223873 -0.092886895 -0.034916997
000020 a4 d0 f9 bc 7a f3 a8 3c af b5 d4 3b e7 00 53 be
       -0.030494995 0.020623911 0.006491385 -0.20605813
000030 3d 51 1f 3d 6f ae 8e 3d 6d 88 45 3c f7 dc 3d 3d
       0.038895834 0.06966864 0.012056452 0.046353307
000040 8c 5a 01 bd 19 0b a5 bc cc 53 23 3e 62 ac a7 bd
       -0.031580493 -0.020146893 0.15949935 -0.08187176
000050 65 ba 83 bc df 53 2a 3e d6 fb 4e bd ae a6 25 be
       -0.01608009 0.16633557 -0.05053314 -0.16176865
000060 8a e6 e4 3c 18 4d 85 bd f9 df 4b 3c 37 f0 f7 bd
       0.02794196 -0.06508845 0.012443536 -0.12106364
000070 36 b3 18 3d 7d 13 2c be e2 f5 21 3d c2 50 e4 3d
       0.037280284 -0.16804309 0.039541133 0.11148216
000080 25 ac b3 3b b5 6f e9 3d 8a 25 01 be 3f 16 57 3d
       0.0054831677 0.113982596 -0.12611976 0.05251145
000090 54 6a d8 bb 1e d3 54 bc f4 9c 6f 3d 86 33 93 3e
       -0.006604472 -0.012989787 0.05849929 0.28750247
0000a0 9e fb 4b 3e f5 ac d0 3c cf 1d 72 bc 3f b1 9f bb
       0.19920203 0.025473097 -0.014777615 -0.0048734243
0000b0 4f b8 ca bc 20 e0 f4 3c ff fb 23 3d cf 02 af bc
       -0.024746088 0.029892027 0.040035244 -0.021363644
0000c0 fb 3a a6 bc 5d 23 44 3b a6 78 1e 3d 6e 0a b3 3d
       -0.020291796 0.0029928305 0.038689278 0.08742224
0000d0 1d 32 2f be 7a 6b 70 3e 28 20 c6 bd 05 4f 98 3d
       -0.1710896 0.23478499 -0.09674102 0.07436947
0000e0 06 2c 58 3d b7 b4 0f be f8 be 6e bd a2 79 2a bd
       0.05277636 -0.14033781 -0.05828759 -0.041619904
0000f0 d7 50 0f bd 8e a0 b1 3c 66 d0 5b be 34 aa 27 3e
       -0.034989204 0.021683004 -0.21466216 0.16373521
000100 1e 61 9a 3d f4 56 af 3d cb 04 4a bc 78 11 fd 3d
       0.07538055 0.08561507 -0.012330244 0.123568475
000110 ec c4 66 3d b8 b8 8a 3d e1 89 f5 bd be e3 9a 3d
       0.056340143 0.067735136 -0.11989189 0.075629696
000120 82 c7 e6 bb 9e 8a 75 3c 72 14 d5 bd 46 a5 c9 bc
       -0.007042826 0.014986662 -0.1040429 -0.024614941
000130 e8 86 3f be aa 0e 66 bd 4d b2 f0 3d 71 2b 8b 3c
       -0.18703806 -0.05616633 0.11752758 0.016988488
000140 a1 2e 6b 3c dc 13 b5 39 5f 2a 7e 3c 68 85 1f 3e
       0.014354379 0.00034537807 0.015513032 0.15578234
000150 66 f1 0f 3c 03 f7 7b bd cf 62 89 3d 38 d3 ee 3a
       0.008785581 -0.061514866 0.06708299 0.0018220907
000160 2a 87 33 3d 05 f3 e9 bc 5b e8 0e 3c 6a d3 a3 bd
       0.043830074 -0.028558264 0.00872239 -0.079993084
000170 9e 71 98 bd 06 bb 02 3e 14 2b e0 bd 25 c2 ca bd
       -0.07443546 0.12766656 -0.109457165 -0.099003114
000180 18 88 a0 bb c1 81 22 be 8e 45 14 bc 9c 71 c8 bd
       -0.004899036 -0.1586981 -0.009049786 -0.09787294
000190 5b 18 e0 bc bb 61 b0 3d 51 b1 9f 3d 7a a2 16 3e
       -0.027355364 0.086123906 0.07797492 0.14710417
0001a0 05 29 a9 3a 7b 59 85 3e d9 01 79 3d 0b 5e 0e 3d
       0.0012905902 0.2604483 0.060792778 0.034757655
0001b0 bf b9 0f 3d 48 e3 bb 3d 0f c7 be 3d dc 9e a8 3c
       0.03508925 0.0917421 0.09315311 0.020583563
0001c0 39 01 53 3d 55 40 44 bd e8 70 52 3d 97 12 31 bd
       0.051514838 -0.047912914 0.051377207 -0.04323062
0001d0 82 f0 71 3d 8d 61 69 3e 6b b2 ac bb e9 c6 f4 bc
       0.059067257 0.22791119 -0.0052702925 -0.029880004
0001e0 e6 2d f4 bd ce 86 65 3d 34 d2 cb bb f0 8a d4 bc
       -0.11922817 0.056036763 -0.0062201265 -0.025945157
0001f0 f6 0b 7b bd 4b 11 a1 3d a0 f7 a1 3d 8f f1 2e 3d
       -0.061290704 0.078646265 0.07908559 0.042710837
000200 c7 9e 31 3e 90 0e ce 3d 4d d8 ab bd c7 0e a8 ba
       0.17345725 0.10061371 -0.083908655 -0.0012821787
000210 d3 e6 b3 3d 89 45 e6 bd 83 98 e0 3d 99 ae c9 3d
       0.087842606 -0.112437315 0.10966589 0.09847755
000220 0d 7a 03 3e ab 2f 98 b8 b7 50 fc bd 64 aa 0e be
       0.12839527 -7.256804e-05 -0.12320083 -0.13932186
000230 0c f1 80 bd 3f 3b ac bd 18 6f 84 3d c1 e0 a7 3d
       -0.06295976 -0.08409738 0.06466502 0.08197165
000240 33 dc e8 3d 2d 77 e0 3c aa d9 2d 3e 3b dc 71 3d
       0.11370125 0.027400577 0.16977564 0.05904792
000250 dc a1 51 bd c3 7e 94 bd 04 4e 05 bd cd 8e 54 bd
       -0.05117975 -0.072507404 -0.032545105 -0.051893998
000260 1b 84 a5 3d 96 64 bd 3d fe 47 d4 3d a5 f4 14 bd
       0.08081838 0.09247701 0.10365294 -0.036366124
000270 96 d5 67 3d bc 7c c9 3d 1d a9 40 3d bf 24 43 3a
       0.056600176 0.09838244 0.04703628 0.0007444135
000280 70 eb 34 be 06 3c f9 3c 5a 6f 7f 3c 0f ff bf 3d
       -0.17667937 0.03042413 0.015590513 0.093748204
000290 3a a2 03 3e 0a c2 80 3b 0e 6d f4 bc 86 7e 22 3d
       0.12854853 0.0039293813 -0.029837158 0.039671443
0002a0 8e 66 84 be 81 ed 62 3d 6a 9f e9 3a 56 99 4e bd
       -0.25859493 0.055402283 0.0017823998 -0.0504392
0002b0 7a f1 02 be 4f 43 04 3e 26 1e ae bd f3 f4 b6 3d
       -0.12787428 0.12916301 -0.08501844 0.08933439
0002c0 6a 76 98 3d d9 4a 0a bd a6 35 b3 bd ea 1f 98 bc
       0.07444461 -0.033762787 -0.08750467 -0.018569905
0002d0 a1 59 ed ba 38 62 e0 3d 0c ab 93 bd 4f d3 3b 3e
       -0.0018108377 0.10956234 -0.07210359 0.18342327
0002e0 0f 3b b0 3d cd 4e a4 3c 8a f1 f3 3d 83 42 f8 3d
       0.086050145 0.020057106 0.11911304 0.12122061
0002f0 f1 9d 8f 3d b7 8a 2e bd 5c 12 3e bd 4b 60 99 bd
       0.07012547 -0.042612758 -0.046404228 -0.074890696
000300 5e ba 21 3e 8d 24 02 be 3e 7b 3b 3b 34 44 a2 bd
       0.1579375 -0.12709256 0.0028607394 -0.07923165
000310 41 44 23 3e 79 5b 3f be 05 f4 ca bc be 97 74 3c
       0.15944006 -0.18687238 -0.02477456 0.014928756
000320 41 12 ba 3b 53 80 8d bd 04 66 f8 bc 93 69 fc bb
       0.0056784456 -0.069092415 -0.030322082 -0.007703015
000330 1d 2b 59 be 58 2f 52 bc b4 08 51 bd cd 6d af bd
       -0.21207853 -0.01282867 -0.05103369 -0.08565865
000340 3c a3 af 3d 82 65 30 bb ff 6a 28 3e 5e 91 cd bd
       0.08576056 -0.0026915972 0.16447066 -0.10037492
000350 62 ad 09 3d dd 73 85 bd 37 4b bb 3d ff 56 1b 3c
       0.033612616 -0.0651624 0.091452055 0.009481191
000360 28 0e 02 3c ad 28 b7 bd 55 22 40 3d 90 8c 9b 3d
       0.007937945 -0.08943305 0.04690774 0.075951695
000370 4c 0f be 3d cd 94 96 bd a9 77 ee bd a5 57 95 3c
       0.092802614 -0.073526 -0.11643917 0.018230269
000380 c4 99 16 bd 2d 05 1c 3c 05 6b e2 ba 4b 3e fd 3c
       -0.036767736 0.009522718 -0.0017274326 0.030913493
000390 73 59 9b bc 6c 6d c6 bd ca 48 9e 3c 31 ca 32 bc
       -0.018963551 -0.09688839 0.019321818 -0.010912464
0003a0 22 83 67 3e 11 e8 3f 3e 9a c4 f0 bb 32 15 58 bd
       0.22608617 0.1874087 -0.0073476555 -0.05275459
0003b0 b0 8b 2f bd 9a a2 07 be 61 36 09 be a0 b2 ab bd
       -0.042857826 -0.13245621 -0.1339965 -0.083836794
0003c0 c5 b3 a9 bb e5 5a 33 be a2 5f 80 3d 77 74 1a bc
       -0.005178901 -0.17515142 0.062682405 -0.009427181
0003d0 f4 16 ce 3d 57 2f 8c bb 87 39 c6 3b 69 ff 58 bd
       0.10062972 -0.0042781043 0.0060493383 -0.052977953
0003e0 f7 4e 35 bd a7 3f 75 bd 5a b1 62 3d e4 e1 0e bd
       -0.04426476 -0.059875157 0.055344917 -0.034883395
0003f0 be ab 08 bd 29 4e e7 bd e6 2d 6e bc eb 66 45 3e
       -0.03336691 -0.11294205 -0.01453731 0.19277541
