MLAgentsProject/results/MoveToGoal4/MoveToGoal/MoveToGoal-15956.pt (torch, 440671 bytes, 36 tensors)

network_body._body_endoder.seq_layers.0.weight f4 [128, 6]
00000000: aa0b 443e 54ae 4b3f a73e ac3e 072f 65be
00000010: 730f 01bf 0026 0cbd 062a 403e bb3c a93d
00000020: 5f65 67be 2ff2 83bc cd69 fe3e 55ba 453f
00000030: dcaa 283e b85d 47bd 64f9 c83e fcdb aabe
00000040: d488 79bd 4185 a13e 3d68 f53e 1a62 b33e
00000050: a1d8 94bf 2b1a db3d 26d2 743e 4a4c 99be
00000060: b307 9fbd 53f8 613e 9e69 f4be 12e5 393e
00000070: 8751 95be 83b5 a73e 3f28 7f3d 741f df3e
00000080: d141 b63e e164 acbe 6b48 e23c db0a b73d
00000090: d936 6a3e c991 fabd 8796 2f3e ac47 ecbe
000000a0: 7b6d 91bf 181f 273e 211c ccbd 752b 35bf
000000b0: d3d9 593e b8f9 e93e e65b 653e 5b8e 3e3f
000000c0: 7f07 a03e d422 b53d 851f 973c 775b bbbd
000000d0: 5a54 3abe e5e2 ffbd bf9b 6fbe 1f21 973e
000000e0: 848f 51bf e7cd c43e 6b3a 053e 2571 e5be
000000f0: 4c46 3e3d 538b 5d3d 7920 913e 4783 febd
00000100: 7ed8 083f 9653 c33e 0435 3a3e debb 33bf
00000110: 1e43 1d3f de84 213d 87c3 143f d24c d6be
00000120: 4659 1abe 3519 b03e f8c2 d23e b2ba e83d
00000130: 0d4c f0be 4a58 fe3c c612 cfbe b7d0 08be
00000140: 00b4 bf3d e783 dbbe 2b19 943e bac9 bb3e
00000150: b8ff 0e3b 93f4 81bc 1423 bf3e e089 8cbd
00000160: 04b3 c1bd 705e f0bd c777 d7be a56d fc3d
00000170: 3d69 40be 5f73 66be b803 97bd eb23 ff3d
00000180: 306a 763d 5b15 2ebe 9ad5 1b3f 4c5e 103f
00000190: 3118 4f3c 3296 d53e 30db 38bc 9504 00bf
000001a0: 637d 5bbe 787d 6dbf 4c50 e33e 9b24 f23e
000001b0: 33de 0ebf 0252 8cbe 957e f2be 6f6a c1bd
000001c0: a9a0 78bd 44c8 7dbe 3dc0 fd3e ebdd 24bf
000001d0: 80c9 0e3e 6ea8 043e d143 eabe 6990 e0be
000001e0: b708 b8be a20e 463e f722 25bf f599 d13e
000001f0: 354e eb3d a525 9fbf c34d 5bbb 7273 d8be
00000200: c131 473e ab27 653f 3b15 03bf 5507 75bf
00000210: 7cf0 1dbf fd14 86bd ab2d 5c3e a003 9abe
00000220: 8091 aabd a457 1f3e 155f 8c3e 1ea5 c83e
00000230: 1126 403e 7bad 9d3e d98f cd3c 6401 303f
00000240: e43f 11bf 5999 b5bd 702f 11be 582b 063e
00000250: 0760 d03e 4bb2 0fbf 55fd b1bd a264 3ebf
00000260: c8d6 f1be d289 47bf 8476 ad3d 8b7a 84bf
00000270: 20e5 b73e 2cca b5be 8059 3a3f c1ce 693e
00000280: 75fd 1fbe 6046 a7be 66f6 a33e 89f3 aabe
00000290: d2b9 40bf ef65 8fbe 95b7 af3e c004 0b3f
000002a0: 221b 5dbf a858 8cbd a567 8e3e c56d eabe
000002b0: 1751 23be 6771 bb3e 13ae 6abf 0919 9ebd
000002c0: 3aae a73e 64fa 3f3e e543 48bf 276f a73e
000002d0: 386d c83e d35e 4e3f 5349 3fbf d03f 833e
000002e0: 4773 4fbe 35eb d33d ad91 5f3f d336 9cbc
000002f0: ead0 8fbe 55d5 763e d1a8 733d 9e9f 1cbe
00000300: 63ee f6bd dd04 1f3e 4f38 103f 8f8c cc3e
00000310: b90b 85bd d200 d9be 131f 24bf 9231 a53e
00000320: 5d65 0d3f 7eca 5a3e 82f5 6b3f 0c8e cfbe
00000330: 260e 1fbf 9d74 c83e c660 8e3e 6d9c 2c3e
00000340: 4350 d9be 16bb dc3e 0022 3dbe 83b3 923e
00000350: 8890 35be 4e0f 163f 2524 fd3e 6c8f febe
00000360: 3f19 b63e c0cd edbe 1fcb a33d 89e0 683e
00000370: 932f 72be 6403 02be a973 bd3e 03bb 04bb
00000380: 74e4 293f 2a9e 80bd 1da5 19bf a04f 06bd
00000390: e46b debe 99d1 ccbe 596e 78be 7b25 01bf
000003a0: 91e7 85bd 8e26 adbe 554f 843e 1d66 5f3e
000003b0: 6181 0fbf 6f94 213f b10b d33e 78f7 673f
000003c0: 606e 5f3d 2284 db3e 53d6 a9bd 06ac ccbe
000003d0: 8a12 923e 6d40 8e3d edce c83c aeaa 21be
000003e0: 4538 2bbe 14cf 59bd 1ceb a13d 5382 0cbd
000003f0: 0812 7a3c c2be b73e 6566 e3be 8589 65be
0.19145074 0.7956288 0.3364155 -0.22381221 -0.504142 -0.034215927 0.1876603 0.082635365
-0.22597264 -0.016106693 0.49690095 0.77237445 0.16471428 -0.04867336 0.3925277 -0.3337096
-0.060921505 0.31546977 0.4793109 0.35035783 -1.162861 0.106983505 0.2390829 -0.29941016
-0.077651404 0.22067384 -0.4773683 0.1815379 -0.29163763 0.3275567 0.06229424 0.43578684
0.3559709 -0.33670714 0.027622422 0.089376174 0.22872485 -0.122348376 0.17147265 -0.4614843
-1.1361536 0.16320455 -0.09966303 -0.70769435 0.212745 0.45698333 0.22398338 0.7443597
0.3125572 0.088445336 0.018447647 -0.09148305 -0.1819624 -0.124944486 -0.23399256 0.29517457
-0.8185961 0.3843834 0.13010566 -0.44812885 0.04645376 0.054087948 0.28345087 -0.12427383
0.5345534 0.38149709 0.18184286 -0.7020854 0.6143054 0.039433353 0.5811085 -0.41855484
-0.15073118 0.3439423 0.41164374 0.11363734 -0.46933022 0.031047959 -0.4044401 -0.13360868
0.09360504 -0.4287407 0.28925452 0.36677343 0.00218199 -0.015863692 0.3733145 -0.06862235
-0.09457973 -0.117367625 -0.4208357 0.123256005 -0.18790145 -0.22504948 -0.07373756 0.12458023
0.060159862 -0.17000334 0.60872805 0.56393886 0.012640045 0.41716152 -0.011282727 -0.5000699
-0.2143455 -0.92769575 0.443972 0.47293553 -0.558078 -0.27406317 -0.473622 -0.09444129
-0.060700092 -0.24783427 0.4956073 -0.6440112 0.13944054 0.12954876 -0.45754865 -0.43860176
-0.3594415 0.1934152 -0.6450648 0.40937772 0.11489526 -1.2433363 -0.0033463098 -0.42275578
0.19452573 0.89513654 -0.5120427 -0.9571431 -0.61695075 -0.06546972 0.21501796 -0.3008089
-0.08328533 0.15560776 0.27416292 0.39188474 0.18764521 0.30796418 0.025093006 0.6875212
-0.56738114 -0.08867139 -0.14178252 0.13102472 0.40698263 -0.5613143 -0.086908974 -0.74372303
-0.47234178 -0.7794467 0.08469871 -1.0349897 0.35916996 -0.35505807 0.72792816 0.22832777
-0.1562403 -0.3267088 0.32023925 -0.33388928 -0.7528354 -0.28007457 0.3431975 0.5430412
-0.86369526 -0.06852847 0.2781345 -0.45786873 -0.15948902 0.36609957 -0.91671866 -0.07719619
0.32750112 0.1874786 -0.782286 0.3270199 0.39145827 0.8061344 -0.7472126 0.25634623
-0.20258819 0.103475966 0.8733166 -0.019069111 -0.28089076 0.24104817 0.059487168 -0.15295264
-0.120571874 0.15529199 0.5633592 0.39950988 -0.064963765 -0.42383438 -0.64109915 0.32264382
0.55232793 0.21366307 0.9217149 -0.4053806 -0.62130964 0.3915147 0.27808207 0.16856547
-0.42444047 0.43111485 -0.18470001 0.28652582 -0.17730916 0.58617103 0.4944164 -0.49718797
0.35566136 -0.46446037 0.07997727 0.22741903 -0.2365096 -0.12696606 0.37002304 -0.002025307
0.66364217 -0.062801674 -0.6001757 -0.03279078 -0.4344169 -0.4000366 -0.24260844 -0.50447816
-0.065383084 -0.33818477 0.25841776 0.21816297 -0.5605679 0.63117117 0.41219857 0.9061198
0.05454862 0.42874247 -0.08292832 -0.39974993 0.2852977 0.06945882 0.024512732 -0.15787765
-0.16720684 -0.053176 0.07906172 -0.034303974 0.015263088 0.35887724 -0.44414058 -0.22415741

network_body._body_endoder.seq_layers.0.bias f4 [128]
00000000: eea4 70ba f4ef 9cb7 1f24 0bba 1450 25ba
00000010: e902 15b9 63da 50ba 86d4 8e39 63cd 07b9
00000020: 7a92 113a fe25 803b cec0 72ba dcff 163b
00000030: f42a 1dbb 6f8e 55b7 b62d 05ba 4361 e6ba
00000040: d78c 02ba 45c7 ddba f8f8 a63b fc16 e0b9
00000050: c6cf d2ba d23b bcbb 2766 de39 39dc 97b8
00000060: fdba 423a c261 2a3a 6b9c 0a3b 5b58 a339
00000070: 316e 7839 99dc 5739 e4a2 9db9 c44b b03a
00000080: 6140 efba 7da0 8abb c2b5 f3ba 2d6d 6e3a
00000090: b73e 17ba a5b7 16ba 3a22 053a 587b 6e39
000000a0: a252 f238 aa8d c539 5545 44b9 c8e3 3ab8
000000b0: 6879 4239 83da 07bb a9d8 06bb c174 3c3a
000000c0: e619 4bba 5e28 bbb7 6b5b 1fba 1fe7 eeb8
000000d0: eae7 8dbb 4daa ea39 1667 b239 432c 6fb9
000000e0: e999 303b 36f0 54ba dcc3 0fba f635 1439
000000f0: 9d67 2a3b fa0f d739 eff0 08ba 4997 61bb
00000100: 0b11 8a39 2189 843b afb8 8e3a 982c fbb9
00000110: 8d33 92b8 ea4d 8d3a 893c 68ba f207 9cba
00000120: e138 723a 1779 21bb b798 45ba 3eae 75ba
00000130: e86a 583a a58b 6dba 657f b6ba 39d3 9c37
00000140: 481b f9b9 7aa5 733b fb44 903b 7fff 23b7
00000150: cc90 3f3a fd3d 7bba 6ccd a839 dd79 c039
00000160: e6d7 5eba 604d d9b9 b182 443b dccd 34bb
00000170: 4f47 b4b9 7809 a03b dc74 ddba 8589 85ba
00000180: ffdf 71ba 61b3 7339 ffba 1839 c56a 5ab9
00000190: 9eb8 7e3a 049c ceba 4ba5 3cbb 4fb8 183b
000001a0: 09a4 0a3b 02a7 d639 e7c5 623a 4387 03ba
000001b0: 9d1d bbba 5e46 92b8 5c4c ceb9 6f96 31ba
000001c0: 3d42 173b 295a 6fba 28e9 a93a 8adb cc3a
000001d0: d92e a538 2ff2 0abb e15b 3038 cc4f aa39
000001e0: 67b6 cbba 3036 d6ba 9726 ea39 fd84 b8ba
000001f0: df31 923a ff06 41b8 993c a7bb 5f77 07bb
-0.000917985 -1.8708386e-05 -0.00053078117 -0.0006306183 -0.00014210831 -0.00079671125 0.00027242693 -0.00012951116
0.0005553138 0.003910779 -0.00092602975 0.0023040688 -0.00239819 -1.2728952e-05 -0.0005080359 -0.0017576594
-0.0004980093 -0.0016920349 0.0050955974 -0.00042741734 -0.001608365 -0.005744436 0.0004241925 -7.241261e-05
0.0007428376 0.00064995524 0.0021150361 0.00031155613 0.00023692173 0.00020586177 -0.00030066737 0.0013450314
-0.0018253439 -0.0042305575 -0.0018593597 0.0009095248 -0.0005769538 -0.0005749411 0.00050786475 0.00022743398
0.00011554851 0.00037680316 -0.00018717845 -4.4557994e-05 0.00018546509 -0.0020729608 -0.0020575917 0.00071890285
-0.00077476946 -2.2310935e-05 -0.0006078991 -0.00011391774 -0.004330625 0.00044758842 0.0003402761 -0.00022809305
0.0026947206 -0.00081229524 -0.00054842024 0.00014134482 0.00260017 0.000410199 -0.000522389 -0.0034422448
0.0002633411 0.0040446674 0.001088878 -0.00047907676 -6.9714246e-05 0.0010780666 -0.0008859118 -0.0011904223
0.0009240043 -0.0024638826 -0.000753771 -0.00093719724 0.00082556764 -0.0009061641 -0.0013923465 1.8695007e-05
-0.00047513307 0.003717749 0.0044027544 -9.775044e-06 0.0007307648 -0.0009584127 0.00032196508 0.0003671189
-0.00085007993 -0.00041447114 0.0029985125 -0.0027588522 -0.00034385404 0.0048839413 -0.0016895789 -0.0010188079
-0.00092267984 0.0002324111 0.00014565511 -0.00020829875 0.0009716841 -0.0015763049 -0.0028785046 0.0023303216
0.0021154901 0.0004094169 0.00086507056 -0.0005017409 -0.0014275793 -6.9749294e-05 -0.00039348274 -0.00067744305
0.0023080253 -0.00091305614 0.0012963163 0.0015629393 7.876539e-05 -0.0021201482 4.204724e-05 0.0003248438
-0.0015542031 -0.0016343053 0.0004466071 -0.001407772 0.0011153779 -4.60213e-05 -0.0051036594 -0.0020670516

network_body._body_endoder.seq_layers.2.weight f4 [128, 128]
00000000: dcda 013e df71 bcbc 9aba 84bd f950 6f3e
00000010: b472 9dbd b0ea 8b3d 841d 14be 267b c53c
00000020: 4921 83bd e0fe 983d a69a 453d e275 9b3d
00000030: 79ed 8ebd a96f 8e3d 9eb7 16bd ed64 2fbe
00000040: e5b6 043d 9414 ffbb baff 91bd 42bd 203e
00000050: a4f4 8c3d ba64 de3b 3989 cb3d 934a 923d
00000060: 0243 15bd 79e8 f13d 0271 2e3d 9798 193c
00000070: a06b b2bc 1307 c4bd 6adb 0dbd 8143 d73d
00000080: 2eb9 97bd 7e1f a4bd f3f2 e03d 1240 c23c
00000090: b284 04be 0887 fd3d d1b4 553d 02a2 babd
000000a0: d7e0 803d 6a46 36be 5229 eabd ff71 18bd
000000b0: e92b b3bd 355a 303d ae76 e6bd e51a 083e
000000c0: 19f1 d9bc 67aa f33d 4282 54be a367 edbd
000000d0: c240 e23d b291 983c 5503 fd39 dff8 8bbd
000000e0: a563 1f3e 9925 24bc b539 ffbc e06f 8e3d
000000f0: 24a0 393d 33c3 ad3d 8e3e bb3d d17a 48bc
00000100: d380 66bd 30fe c23d 8049 ba3d 880a ad3d
00000110: 84ff d9bc dc02 88bd 7133 6ebc f77d 19be
00000120: 2ce2 d03d 8a54 3a3d fbc7 87bc 536a 373e
00000130: 98a8 573d b653 46bd 99e9 02bd 7b3d b63c
00000140: ac66 b6bd c4cf 25bc 3fc8 d63d afbf 06be
00000150: 2bb3 2fbd b686 493d 08c6 e43c 9a5d 3ebe
00000160: 399f 70bd 35b1 7bbd e1ce 68bd e282 28bd
00000170: 06a4 e3bc 5195 4cbd cbf0 aebd 547c 383d
00000180: a59d b7bc 2bab 333d 24cd c3bd 86fd 64bd
00000190: 18e4 b53b 86f9 96bd c1f6 973d cf0f 07bd
000001a0: d2a7 593d 15f2 3abd eaa0 31bc 8ab2 a83d
000001b0: 0ce9 66bd a141 253d ea89 5fbd fca3 31bd
000001c0: d433 be3c 993d 2a3d 7d65 b03d f41b c13d
000001d0: be3e 623d 7870 87bd 9289 b1bd 8f3c 0fbd
000001e0: fb52 763d 2905 babd 105f c93c 4d2b 293d
000001f0: 9556 c23d bf7a 8c3c 340e 82bd 5267 103e
00000200: dca9 82bc 84b2 713d ed24 873d 6aaa 03be
00000210: 0947 c9bd e750 7cbc 9d31 643d f399 af3d
00000220: 9577 ecbd 869e 573d 7fdd 80bd 9b26 0dbe
00000230: df29 4e3d 3476 983d 4fa1 4ebd 37fe ca3d
00000240: 85be 30be 15f0 92bd d3d2 9fbd 6ec1 e6bc
00000250: 087c 423e ea1d 183d 6f8e a2bc 1880 163d
00000260: 9763 83bc 9e32 613e f2ee b1bd 049c 783d
00000270: eff6 e7bd 1578 2cbe a5f5 4d3c 7895 94be
00000280: cc4b 2f3d eb6a 40bd 3923 c9bd d09a 173e
00000290: dbf3 65be 5495 f0bb c63e 73bd 5ac1 20be
000002a0: fc01 383d f3a4 a33d 9762 1e3e 1d1b 60be
000002b0: e3ed 1a3e 07be 22be c259 7d3d f779 e1bd
000002c0: fa34 97bc dc5e 2bbd beae ac3b 7c4c c73d
000002d0: 6f85 c73d 746d 103d 8028 f2bd 296d a93d
000002e0: 482e cf3d 8890 323e 6411 9d3d 3034 96bd
000002f0: a467 243d 76c6 08be 8916 81bd ca95 03bd
00000300: fcce 5b3e e67d 133d 628b af3d e1d4 00be
00000310: 34e0 56bd d074 ba3d 77ad 8b3c ad07 203b
00000320: 0ee6 53be 50d2 dfbd f057 28bd fb06 283d
00000330: caba d03b f7ae 4c3d ed6d cb3c 6688 1e3e
00000340: 164c bb3c 278b 1fbd 9077 3c3d c691 7c3d
00000350: 9c86 aebd 03d1 c9bd 6d70 fb3c 1e42 873d
00000360: 0ddc c2bd 5a2d 08be 83e6 24bc fca2 0f3e
00000370: d51b 853c 5635 5abd 5661 12bd 9716 aebc
00000380: f501 30be 60af ac3d eb93 b3bd a270 313c
00000390: 0458 463e 6772 933c 281a d13c 7793 94bd
000003a0: 1af7 6bbd d862 34be d555 d8bc ad9c 493d
000003b0: 9ee7 d0bc 5d5b 43ba 1fc2 fdbc 6232 09bd
000003c0: b2b4 adbd ee27 a43d d8b8 723d 517d c03b
000003d0: 2491 c8bd a210 8e3d 43cf 31bd c3a4 78bc
000003e0: d3b4 043d 01a7 85bd 1a37 8fbc dea1 88bc
000003f0: 694e b3bc 4fcf 06be d1cc 133e 1176 ffbc
0.12681144 -0.023003517 -0.06480904 0.23370732 -0.076878935 0.068318725 -0.14464384 0.024106573
-0.06402833 0.074704885 0.048243187 0.07590844 -0.06978888 0.06954891 -0.036796205 -0.17128344
0.032400984 -0.0077844355 -0.07128854 0.15697196 0.06882599 0.00678691 0.099382825 0.0714313
-0.036440857 0.11811919 0.04258824 0.009374759 -0.021779835 -0.09571662 -0.034633078 0.10510922
-0.07408367 -0.08013819 0.10983839 0.023712192 -0.12941244 0.12379271 0.052174393 -0.09112932
0.06292885 -0.17800298 -0.114336625 -0.03721809 -0.087486096 0.043054778 -0.11253105 0.1329151
-0.026604222 0.11897736 -0.20752814 -0.11592033 0.11047508 0.01862416 0.00048258403 -0.06834578
0.15565355 -0.01001873 -0.031155447 0.06954932 0.045318738 0.08484497 0.09142791 -0.012236313
-0.0562752 0.09521139 0.0909605 0.08449274 -0.026611097 -0.066411704 -0.014538632 -0.14989458
0.10199389 0.04549078 -0.01657485 0.17911653 0.052651018 -0.048419677 -0.031961057 0.022246113
-0.08906302 -0.010120336 0.10487413 -0.13159059 -0.042895477 0.049200736 0.02792646 -0.18590394
-0.058745597 -0.061448295 -0.05683792 -0.041140445 -0.027788173 -0.049947087 -0.08542021 0.045040444
-0.022414038 0.04386441 -0.09560612 -0.05590584 0.0055508725 -0.073718116 0.074201114 -0.03297406
0.05313856 -0.045641024 -0.010841588 0.082371786 -0.056374595 0.04034579 -0.054574884 -0.04336928
0.023218073 0.04156265 0.08613107 0.0942916 0.055235617 -0.066132486 -0.086688176 -0.034969863
0.06013773 -0.090830155 0.024581462 0.04130106 0.094891705 0.017148374 -0.06350365 0.14101914
-0.015950136 0.059008136 0.0659884 -0.12857977 -0.09828002 -0.015400148 0.055711377 0.08574285
-0.11546246 0.052641414 -0.06292247 -0.13784258 0.0503329 0.074444205 -0.050446805 0.09911769
-0.17260177 -0.07174698 -0.078038834 -0.028168406 0.18992627 0.037137903 -0.019843308 0.036743253
-0.0160387 0.21991965 -0.08688153 0.060695663 -0.11326396 -0.16842683 0.012570773 -0.29020286
0.042796895 -0.046976965 -0.09821171 0.1480515 -0.22456305 -0.00734202 -0.059386037 -0.15698758
0.044923767 0.07990446 0.15467297 -0.21885343 0.15129809 -0.15892802 0.061853178 -0.11009591
-0.018457878 -0.04183851 0.0052698543 0.09731385 0.09742247 0.035260633 -0.11824131 0.08272774
0.10116249 0.17437947 0.076693326 -0.07334173 0.040137902 -0.13356957 -0.06303126 -0.03212527
0.21465677 0.036008738 0.08571507 -0.12581207 -0.05245991 0.091043115 0.017050488 0.0024418638
-0.20693228 -0.10928786 -0.04109949 0.041022282 0.0063699232 0.049971547 0.02483269 0.1548172
0.022863429 -0.038951065 0.04601246 0.061662458 -0.085217685 -0.09854319 0.030693257 0.06604408
-0.095146276 -0.1329855 -0.010064724 0.14027017 0.016248623 -0.05327352 -0.035737358 -0.021251006
-0.17188247 0.084318876 -0.087684475 0.010830076 0.19369513 0.017998887 0.025525168 -0.07254689
-0.0576087 -0.17615831 -0.026408115 0.049221683 -0.025501069 -0.0007452274 -0.030976353 -0.033495314
-0.084817305 0.080154285 0.059258312 0.005874314 -0.097933084 0.06936766 -0.04341055 -0.015176001
0.03239901 -0.06525994 -0.01748233 -0.016678747 -0.021887975 -0.1316502 0.144336 -0.031184228

network_body._body_endoder.seq_layers.2.bias f4 [128]
00000000: 4851 a1ba 7905 d5ba cf1a b33a cfd1 ecba
00000010: a44a 0d38 4eac 61b9 2b52 233b 3d65 3dba
00000020: b83f e4ba 3d73 333b 7b88 a6b9 44ad 483a
00000030: 152a 9bba d0d5 82b9 1cfd 3aba 9342 3439
00000040: e5f3 41b8 8c16 02ba 63eb 8f3b ec83 353b
00000050: e0f2 f7b9 5b3e c1b8 9a03 c039 32c2 f53a
00000060: c219 4b39 c2e5 2739 1bbb 17ba 6f50 353a
00000070: 8d46 853a 2f3f 913a 1f08 ef38 402d 0ebb
00000080: 7f48 86ba ad4b 023a 6386 8dba 2004 863b
00000090: dfc6 9ab4 1b63 583a 02ba 3a3b ee26 6d3a
000000a0: d631 c7ba 1ea7 f2ba 06c6 19ba 9f8d af3a
000000b0: dfe7 aeba caca b93a 80a2 a4ba e1ba 003b
000000c0: 4c91 003a 059e 41b8 b7fa 94b9 6b98 2339
000000d0: e5a5 30b7 5081 c53a 64aa ca39 a0f9 c5b9
000000e0: 2a15 4fba 2a22 43ba adb0 ad39 70cc 063a
000000f0: fef2 65ba 26a0 08b9 cb7b 4eb8 842f 23b9
00000100: 27b5 e2ba a176 e8b9 faca 49b9 720c a03a
00000110: 8f2a 1bba 6f5e c43a eb41 83b9 981c 4bba
00000120: bc4b 0abb 450c 21ba 8279 db37 4c62 c438
00000130: 404b 43ba 0346 dfb9 d6a3 09ba f245 0439
00000140: 05cc 45ba 0a1a 053a e08f 0f39 d56f 88b9
00000150: e3ab e839 67fa b63a 90f3 87b9 f25c 90ba
00000160: 1591 f8b9 9e6d fcb9 02ae 09b9 f576 87ba
00000170: 67fc bfb9 cb88 2cba d01e 08bb e262 eab9
00000180: dc86 ddba 66b2 4fb8 de3d 133b 8357 563b
00000190: 21ec e9ba 4b9d 5bba f632 383a 01f8 5bb8
000001a0: 1b09 f7b8 793b 4f3a 2be0 99b8 6fd8 4bb9
000001b0: b9a2 8db9 5bd9 563a 97f3 e5b8 9dc8 7539
000001c0: 6b29 d839 c0ad 483b 18e0 7eb7 d041 9eba
000001d0: 2241 5939 08a1 18ba 17cc aeb9 8019 a7b9
000001e0: 8457 06b8 c5ee 1f3a fa09 59b9 16eb df3a
000001f0: 1f50 0d39 b199 df39 157a 14b9 7a0b 1538
-0.0012307549 -0.0016252241 0.0013664606 -0.0018067899 3.3686534e-05 -0.0002152186 0.0024920802 -0.00072248635
-0.0017414009 0.002738192 -0.00031763673 0.0007655213 -0.0011838103 -0.00024954835 -0.0007133053 0.00017190939
-4.624193e-05 -0.0004962466 0.004392074 0.002769704 -0.00047292467 -9.214572e-05 0.00036623777 0.0018749891
0.00019369184 0.00016011953 -0.0005788074 0.00069165876 0.001016812 0.0011081452 0.00011397921 -0.0021694452
-0.0010244994 0.0004970383 -0.0010797497 0.004089847 -2.8829433e-07 0.0008254514 0.0028492217 0.00090466335
-0.0015197347 -0.001851294 -0.00058659946 0.0013393647 -0.001334425 0.0014174816 -0.0012560636 0.0019642639
0.00049044634 -4.6161953e-05 -0.00028415557 0.00015601671 -1.0529043e-05 0.0015068445 0.00038655393 -0.00037760753
-0.0007899577 -0.00074437505 0.00033128765 0.0005142158 -0.00087718654 -0.0001302963 -4.922952e-05 -0.00015562592
-0.0017296419 -0.00044338874 -0.00019244468 0.001221074 -0.00059191225 0.0014981757 -0.0002503538 -0.0007748096
-0.002110227 -0.0006143491 2.6163416e-05 9.3643175e-05 -0.0007449873 -0.00042586037 -0.0005250549 0.00012614558
-0.0007545355 0.00050774275 0.0001369114 -0.00026023263 0.00044378554 0.0013960124 -0.00025930675 -0.0011014028
-0.0004741034 -0.00048146857 -0.00013130161 -0.0010335135 -0.00036618413 -0.0006581663 -0.0020770319 -0.0004470563
-0.0016901153 -4.9518792e-05 0.0022467296 0.003270597 -0.0017846861 -0.00083776255 0.0007026637 -5.244464e-05
-0.00011779574 0.00079052855 -7.337363e-05 -0.00019440216 -0.00027014854 0.00081958406 -0.00010964943 0.00023439755
0.0004122959 0.0030621141 -1.5191756e-05 -0.0012074057 0.00020718997 -0.00058223354 -0.00033339925 -0.0003187172
-3.2029595e-05 0.0006100948 -0.00020698449 0.0017083611 0.00013476655 0.00042648384 -0.00014159859 3.5535057e-05

action_model._continuous_distribution.log_sigma f4 [1, 3]
00000000: 5a5f 1cbb 985b 92ba 5a72 5bbb
-0.0023860545 -0.0011166213 -0.0033484907

action_model._continuous_distribution.mu.weight f4 [3, 128]
00000000: 0ded 20bb 7f07 213c 57f3 40ba 2e48 9fbc
00000010: 7ba1 66bb 49fb 963c 5683 7abb a976 283a
00000020: 48a7 623c f0d0 7bbb fe73 32bd 36f5 383c
00000030: dab8 683c 5c4b 8c3c f288 413c e36d eebc
00000040: 4bd1 f7bc 9a76 5bbc 6303 b53b 21d5 a0bc
00000050: 2cc6 db3b 7e9d 22bc 02a9 4c3c 3aeb de3c
00000060: e7ae a1bc 73b6 063c 92eb 99bc 9600 83bc
00000070: 7769 11bc 3ffb 733c e930 52bc 9f3d bcbc
00000080: a280 663c b4f4 903b 9710 2cbc 2aba 80bb
00000090: 51dd 1ebc deaf 26bc 313c 55bc 5557 f73b
000000a0: d656 253c 78b0 3b3a b232 503c fbcb bc3b
000000b0: 2330 9a3a 1159 a5ba 1226 c33c 7b3e 783a
000000c0: 20b8 56bc 6244 85bc 0dcf 5abb 7778 023c
000000d0: c2b5 333c aecd 023d 5def f43c 8ede 71bb
000000e0: eee0 01bc 9cfc 5c3c 0287 f03c b440 c43b
000000f0: 826f 223d 1f1b bcbc bfa4 863b 59d8 a13c
00000100: 50d5 6c3a 8803 953b ce9a 1fbc 226b f43b
00000110: ecaa 3dbc 7dc1 88bc bfd9 27bd 038e 76ba
00000120: 0dad 9a3c 4411 1a3c 15fe 37bc 9063 483b
00000130: 3820 11bc b6d8 b33b 02e8 88bc 9d46 19bc
00000140: 20d1 63bb f8e1 20bd e432 cf3c b00f 233c
00000150: c892 7a3c ef15 863c ff4f 10bc 891c 333c
00000160: 2fca 623b 03de 353c 553f a23a 184e 7ebc
00000170: b98c 08bc 6841 3fbc 2c88 a53c f701 98bc
00000180: ff46 e8bc 9b31 eebc 75e2 3fbc 4dbc 95ba
00000190: 14f9 8ebb 505b 5d3c 1f04 35bc 26d2 75bc
000001a0: f815 c03c d812 7dbb 7f4b 10b9 931a 3abc
000001b0: 6d01 8e3c cf8a 6bbc dfe3 223c 0d85 3a3d
000001c0: 4143 66bb 4196 c93c 89fe 8a3c a8f4 fdbb
000001d0: 9f7c 53bc f5fd 1dba a28d 04bc 1069 84bc
000001e0: 3d5b 9cbc 5f53 1ebc 2f23 573c c58f 6e3c
000001f0: 78f7 f1bc d081 f43b 8b6d d7bb 86c4 a73c
00000200: 5d8a 713a e75d 1fbc 3a0c 92bc a983 c5ba
00000210: 5fcd acbc 88f1 07bb b6ff f03b 7fe3 aa3c
00000220: 3ea4 8eba 4393 0b3c c4b0 0b3c f827 cdbc
00000230: d364 46bc 1f65 2c3b 5de6 ae3c d5b4 a93c
00000240: ceea 0fba 2cf6 d03c 4f51 b43c ae79 3b3c
00000250: 305f 083d 4f4c 523c 4199 f0bb 96d4 bb3c
00000260: 46c2 5ebc 099a e63c 7136 953c db46 6fbc
00000270: 7106 31bc 4173 fd3c 4cec c23b dd9b 933c
00000280: 6aea 9bbc 2069 2f3c 509c 663c e58c 653b
00000290: 1366 c9bc 628b bd3c cc3e b6bb 12b5 0ebd
000002a0: 5d90 2c3d bf80 973c 3bbd 943c 41c4 ebbc
000002b0: e741 a23c 3cd8 88bb 77a6 0abc 21b0 293c
000002c0: d3da 8fbc b43e 843c 4d1d c93b 3f41 2cbc
000002d0: 4b7f 10bd 46a0 453c 4028 35bd d3e4 f63a
000002e0: 323a 8bbc 0cac 533c d22d 1abc 2c4a 85bc
000002f0: 48ec 28bb 6964 b03c e443 90bc df9f aa3b
00000300: 7f7d 51bc 26eb 2f3c 8b88 ed3b 77d7 bc3c
00000310: 0385 923c c238 2f3c fb14 edbc 41f7 d33c
00000320: eccd f5bb 9dec 54bc 46ce c8bb 70c8 6c3b
00000330: da1e e33a 3ae2 c13b ab0c 98bb 522a f1bc
00000340: 936b d239 1e09 023b f6b6 1b3d bd45 2d3b
00000350: 2de9 063a 13ab 8abc f0e4 09bb 870b 9bbb
00000360: 982a 9a3b 4ffd 823b 6f05 55bc 0512 5cbb
00000370: d0a1 7f3b 8c0d 8d3c c321 56bc 894c bb3c
00000380: 90c0 92bb c9af dd3a d1c0 69bc bb07 2e3c
00000390: cc22 b9bc 4441 203c 9eae 0cbd 22cc 32bc
000003a0: ccfc 083d a4c8 0bbc 989d 1e3d 4f8f d0bc
000003b0: f033 103c f6c3 40bd a772 913c 8dca 9d3c
000003c0: 1fa2 92bc 46f3 2f3c 9cf9 a4bb 07f4 89bb
000003d0: 99a0 bcbc b49f 883c 1d37 4d3c 49e7 023d
000003e0: 12c0 433b 2455 953c 93fd aebc 2b98 fa3b
000003f0: f1fc 4cbb 0a7e e53c 753d 6fbc aba3 35bc
-0.0024555356 0.009828447 -0.0007360479 -0.019443598 -0.0035191465 0.018430369 -0.0038225255 0.0006426373
0.013833828 -0.0038424097 -0.04356765 0.011288932 0.014204228 0.017125778 0.011812435 -0.029105132
-0.030251166 -0.013394976 0.0055240854 -0.019632878 0.0067069735 -0.009925244 0.0124914665 0.027211774
-0.01973672 0.00822221 -0.018789086 -0.01599149 -0.008875242 0.014891445 -0.012829044 -0.022978602
0.014068754 0.004423702 -0.010502002 -0.0039284425 -0.009696321 -0.010173766 -0.013014839 0.0075482526
0.010091504 0.000715978 0.012707399 0.005761621 0.0011763613 -0.0012615045 0.023821864 0.00094697595
-0.013105422 -0.016267959 -0.0033387572 0.007963291 0.010968627 0.031934433 0.029899294 -0.0036906335
-0.007927163 0.013487961 0.029361252 0.0059891585 0.039657123 -0.022962151 0.0041089947 0.019756483
0.00090344716 0.00454754 -0.009741498 0.0074590603 -0.0115763955 -0.016693825 -0.040979143 -0.00094053167
0.018881345 0.0094035305 -0.0112300115 0.0030576922 -0.008857779 0.0054884804 -0.016712192 -0.009355214
-0.00347621 -0.039278 0.025292821 0.009952471 0.015293784 0.01636788 -0.008808135 0.010932096
0.0034605374 0.011100295 0.0012378494 -0.015521549 -0.008334332 -0.011673309 0.020206533 -0.018555624
-0.028354166 -0.029076388 -0.011711706 -0.0011423916 -0.0043631885 0.01351054 -0.011048346 -0.015003717
0.023447976 -0.0038615968 -0.00013761035 -0.011358875 0.017334664 -0.014376356 0.009942024 0.045537043
-0.0035135301 0.02460778 0.016967075 -0.0077501126 -0.01290813 -0.0006026917 -0.0080904085 -0.016163379
-0.019086475 -0.009663432 0.013130947 0.0145606445 -0.029536948 0.007461764 -0.006574338 0.020479452
0.0009214038 -0.009726978 -0.017828096 -0.0015069145 -0.021094022 -0.002074333 0.007354702 0.020860432
-0.0010882688 0.008518997 0.008526031 -0.025043473 -0.012108999 0.002630539 0.02135008 0.02071611
-0.0005490006 0.025508009 0.022011427 0.011442585 0.033293903 0.012835576 -0.007342488 0.022928517
-0.013596123 0.028149622 0.018214436 -0.014604296 -0.010804758 0.030938746 0.005948579 0.018018657
-0.019032676 0.010706216 0.014075354 0.0035026607 -0.024584806 0.023137752 -0.005561685 -0.03484065
0.042129863 0.018494008 0.018156638 -0.028780105 0.019806815 -0.004176168 -0.00846254 0.010356934
-0.017560398 0.01614318 0.006137526 -0.010513603 -0.035277646 0.012062138 -0.04422784 0.0018836505
-0.016995523 0.012919437 -0.0094103385 -0.01627072 -0.00257756 0.021532254 -0.017610498 0.0052070464
-0.012786268 0.010737216 0.007248943 0.02305196 0.01788569 0.010694684 -0.028940668 0.025874736
-0.0075013544 -0.012995866 -0.0061281053 0.0036130212 0.001732792 0.005916861 -0.004640182 -0.029439125
0.0004013447 0.001984186 0.038016282 0.0026439272 0.000514644 -0.016927278 -0.0021040998 -0.004731599
0.0047047846 0.003997482 -0.013001784 -0.0033580076 0.003900636 0.017218374 -0.013069573 0.022863643
-0.0044785216 0.001691335 -0.014267162 0.01062196 -0.0225996 0.009781186 -0.034346215 -0.010912927
0.03344421 -0.008531723 0.03872451 -0.02545896 0.008801445 -0.047061883 0.017754866 0.019261623
-0.017899571 0.010739153 -0.0050346386 -0.0042099985 -0.023025798 0.016677715 0.012525347 0.031958852
0.0029869121 0.018229075 -0.021361148 0.0076475344 -0.0031278695 0.028014202 -0.014602055 -0.011086385

action_model._continuous_distribution.mu.bias f4 [3]
00000000: 516c 93b8 d303 eab9 2b32 5d39
-7.029682e-05 -0.00044634807 0.00021094891

exp_avg f4 [128, 6]
00000000: c88e 6f38 c7a0 f2b5 ea11 9fb8 6c7e 2839
00000010: fd40 4e38 6021 7137 8b33 85b8 af76 0337
00000020: e2e8 87b5 f7c7 4bb9 4cf8 19b8 cf3a 6eba
00000030: 6079 3739 7954 d738 4c74 8939 cf46 783a
00000040: 6beb 7d3a 40cf 343b e46d 0439 0de4 9237
00000050: 7929 acb7 a189 ec39 da91 ff38 f892 e839
00000060: 7000 2a39 b436 9236 7f06 9138 f6ec 4639
00000070: 2ce4 67b6 ff2b 0239 6823 92b8 0a48 33b7
00000080: 8f60 cab8 d6d4 b6b8 c945 5fb9 edba abb9
00000090: fb85 8939 ccdf 00b7 a670 f7b8 e625 80b9
000000a0: c787 86b7 ce0f c4b9 2358 16b7 a446 a6b5
000000b0: b15e a2b8 dc74 1438 6c78 1eb9 b0d8 c1b8
000000c0: e830 dc38 25d3 7236 046a 8438 b5a2 97b7
000000d0: 7e08 0cb8 7116 0139 b820 3c38 5819 8cb6
000000e0: 0a69 d836 6078 beb8 e18f e6b7 8176 00b9
000000f0: 5394 9a38 f52e 12b5 6973 ae38 1ee6 13b9
00000100: 0a5e 2db7 5d8f 96b8 0a91 edb8 9c8a 9cb6
00000110: 63f5 83b8 2a99 ce37 2c8c dcb7 704c 1cb9
00000120: 07cf 2d38 0faa 2937 d0c4 a236 3ddc 8f38
00000130: 12f3 5839 7272 9a39 76fc ff38 caef 6836
00000140: a170 b236 d339 5f39 6825 feb7 e681 113a
00000150: 0d53 6e35 8175 2535 7d96 e536 603a 6538
00000160: 18d9 9437 9f9e 9c37 8405 e0b8 db61 7a37
00000170: 8929 9938 6185 8c37 ff34 1739 2b89 6939
00000180: 1886 9039 4e1d 1a38 1413 8b38 d6cd c939
00000190: 0e6f b539 2ae7 873a b02b 8039 e144 2938
000001a0: 9fef 7739 1d12 313a b575 b539 8eef b03a
000001b0: 4be9 3538 4c7d 89b6 19bb 9836 5e45 a0b7
000001c0: 29bb c1b7 7bdb f7b8 5509 9b37 0621 6935
000001d0: ca9f ef37 a9db d1b6 b4b2 b2b6 beb1 de37
000001e0: 983f 76b3 29cf 8b31 313a f1b1 b282 d033
000001f0: e84d 1633 9872 f533 4651 2a37 72ab 7835
00000200: eef7 8635 c038 c837 9788 3536 7081 e237
00000210: 0687 9438 b329 cfb6 160b 83b7 6ba8 a0b8
00000220: 73d9 7338 abef f3b8 bfac 85b9 1c1c bfb7
00000230: 9538 1ab8 9859 7bb8 4eef 5fb9 14fa 80ba
00000240: 5195 3436 c6ad e2b4 0e5c 8cb6 c6b4 be36
00000250: 9a48 94b6 749f f2b6 88d2 ce31 ec67 0fb0
00000260: 011f 1b30 05ac 7231 a92f d3b1 6f0b 66b2
00000270: b286 2538 0315 27b6 8ee7 93b5 c77d 8fb8
00000280: 1d6c 4137 299c a0b8 4017 0439 c900 3937
00000290: c881 8038 d9e6 44b9 ae72 d838 b253 8839
000002a0: 5eba 9237 6bce 1235 a28a ab38 99fc 76b9
000002b0: 211d d938 8751 abb9 7d0a e537 b36c 8db7
000002c0: ddd9 0cb9 4899 1cb9 204f 20b9 dc2c 1cba
000002d0: 195b 1539 50aa 2a38 c865 05b9 7605 0b3a
000002e0: 5a47 043a cdad dc3a 731a 64b8 360f d3b6
000002f0: 7092 1138 2333 f3b7 fd6c 77b7 b447 7db9
00000300: 3bc1 f9b8 5130 c836 d43e 0838 a3ac 0239
00000310: b80c 2938 ba9a 3339 31fc 31b9 9522 0e38
00000320: 3d8f 8639 e217 0639 b922 9839 e848 8f3a
00000330: 9911 cd39 b127 0e38 a86f 9e38 1b37 5839
00000340: 3e5e 3e39 c8e8 953a e466 fc38 79ed d135
00000350: 0655 5f37 cdeb a938 bc6c bb37 a0ec 9f38
00000360: 6368 98b7 88bd 9635 b4ff bab8 720d 1939
00000370: eec4 7f37 7043 5137 a033 d8b6 c283 d1b5
00000380: dc04 6b38 db78 1b39 42ad 0738 3488 0e38
00000390: 31d9 2036 224b bfb4 78a6 3db5 72e4 d135
000003a0: b2a3 1db6 8623 5bb6 1203 2738 f9a6 4837
000003b0: dc1c af37 8b79 efb7 5bdb 5538 c5d3 f539
000003c0: 6a4b 7838 d42d 82b7 bc13 15b8 0311 9938
000003d0: 3a47 dbb7 731e 8bb9 98ca eeb7 6f48 acb6
000003e0: 2aeb 7937 bb61 9038 4f75 54b8 f4b9 36b9
000003f0: b481 2db9 f664 11b8 31df 00b9 b42a a2b9
5.7115016e-05 -1.8077197e-06 -7.5850476e-05 0.00016068824 4.9174752e-05 1.437249e-05 -6.351535e-05 7.835842e-06
-1.0126062e-06 -0.00019434081 -3.6709287e-05 -0.00090877427 0.00017497456 0.00010267733 0.00026217324 0.00094710005
0.0009686264 0.002758935 0.00012629438 1.751075e-05 -2.052331e-05 0.0004511597 0.000121865145 0.00044359989
0.00016212626 4.3575074e-06 6.915349e-05 0.00018971026 -3.4554496e-06 0.00012414156 -6.9684174e-05 -1.0686004e-05
-9.650096e-05 -8.71808e-05 -0.00021292934 -0.00032754932 0.000262305 -7.681501e-06 -0.0001179886 -0.000244423
-1.6037271e-05 -0.0003739581 -8.961218e-06 -1.2388523e-06 -7.7423996e-05 3.5394783e-05 -0.00015112915 -9.243318e-05
0.00010499527 3.6183712e-06 6.3139974e-05 -1.8076369e-05 -3.338651e-05 0.00012310759 4.4853165e-05 -4.1752755e-06
6.44953e-06 -9.0823276e-05 -2.7485135e-05 -0.00012251177 7.37092e-05 -5.445757e-07 8.3184634e-05 -0.00014104738
-1.0333499e-05 -7.179261e-05 -0.00011328056 -4.6652985e-06 -6.2922736e-05 2.4628436e-05 -2.6291316e-05 -0.00014905795
4.1439223e-05 1.011278e-05 4.850888e-06 6.859794e-05 0.00020689916 0.00029458437 0.00012206372 3.471027e-06
5.317925e-06 0.00021288478 -3.0296578e-05 0.00055506674 8.8782764e-07 6.163828e-07 6.842251e-06 5.465222e-05
1.7744067e-05 1.8670513e-05 -0.0001068218 1.4923945e-05 7.303345e-05 1.675141e-05 0.00014420225 0.0002227171
0.00027565728 3.6743753e-05 6.63159e-05 0.00038491067 0.00034605752 0.0010368575 0.00024446612 4.035689e-05
0.00023645021 0.0006754713 0.0003461071 0.0013499127 4.3371034e-05 -4.0975046e-06 4.551734e-06 -1.9105788e-05
-2.3094546e-05 -0.00011818759 1.8481785e-05 8.684732e-07 2.8565428e-05 -6.254257e-06 -5.325617e-06 2.654723e-05
-5.7334177e-08 4.068984e-09 -7.0206387e-09 9.709528e-08 3.4995452e-08 1.1429546e-07 1.0151713e-05 9.2636685e-07
1.0055935e-06 2.3868284e-05 2.7050608e-06 2.7001573e-05 7.08234e-05 -6.173935e-06 -1.562158e-05 -7.660765e-05
5.813823e-05 -0.000116317846 -0.00025496443 -2.2782064e-05 -3.6769157e-05 -5.9926504e-05 -0.00021356085 -0.0009840154
2.6909004e-06 -4.2222217e-07 -4.1830417e-06 5.683486e-06 -4.4191956e-06 -7.230725e-06 6.0193237e-09 -5.217078e-10
5.643273e-10 3.5313417e-09 -6.1463266e-09 -1.3390362e-08 3.946451e-05 -2.489717e-06 -1.1019745e-06 -6.842199e-05
1.15288685e-05 -7.6584816e-05 0.00012597162 1.1027042e-05 6.127689e-05 -0.00018778014 0.000103210434 0.000260023
1.749134e-05 5.4689616e-07 8.179738e-05 -0.00023554488 0.00010352792 -0.00032676404 2.7303811e-05 -1.6859127e-05
-0.00013432601 -0.00014934421 -0.00015288265 -0.00059576123 0.00014243684 4.0689774e-05 -0.00012721785 0.0005303243
0.00050460326 0.0016836465 -5.438407e-05 -6.290061e-06 3.4707075e-05 -2.899167e-05 -1.4747723e-05 -0.00024154672
-0.00011909237 5.9660892e-06 3.248344e-05 0.00012462078 4.0304585e-05 0.0001712841 -0.00016973984 3.3887645e-05
0.00025665193 0.00012788133 0.0002901757 0.0010931762 0.00039113758 3.3892404e-05 7.554825e-05 0.00020619894
0.0001815492 0.0011437172 0.00012035461 1.5640827e-06 1.3311632e-05 8.102469e-05 2.234277e-05 7.625786e-05
-1.816842e-05 1.1231032e-06 -8.9167996e-05 0.00014596226 1.5245036e-05 1.2473072e-05 -6.4433116e-06 -1.561006e-06
5.603289e-05 0.00014826974 3.2347867e-05 3.3982287e-05 2.396828e-06 -3.563119e-07 -7.065023e-07 1.56382e-06
-2.3490106e-06 -3.265422e-06 3.9818762e-05 1.1959805e-05 2.0875064e-05 -2.8547618e-05 5.0987448e-05 0.00046887822
5.9198042e-05 -1.5518548e-05 -3.5542747e-05 7.298777e-05 -2.6140002e-05 -0.00026534832 -2.8466151e-05 -5.134432e-06
1.489631e-05 6.884659e-05 -5.065399e-05 -0.00017426145 -0.00016546884 -3.466472e-05 -0.00012290177 -0.00030930864

exp_avg_sq f4 [128, 6]
00000000: 66e2 3333 8766 0b2f fd08 cb32 dfed 5232
00000010: a6cb 6131 2cb3 3f34 d34d a034 ca0f 1c31
00000020: b59a 6034 cec0 ad34 7e20 0a34 d6fb 5836
00000030: ea25 a434 949f 8631 d270 7334 62f1 c634
00000040: 2c09 7634 b66f b836 1b84 3733 67e9 f22e
00000050: 84f0 942f 6fae f932 5c66 2332 df09 0d34
00000060: 12ca eb32 2e8e e32e 1241 e031 cd09 c632
00000070: 1051 bc31 1de3 1c34 78cb a633 6116 e32f
00000080: 3e2a 4333 51b8 9c32 06bf b332 3b9a 2335
00000090: f638 2d33 df78 3b2f abfa e532 8950 1532
000000a0: 4c43 3631 b861 8334 afd1 e233 b136 4230
000000b0: 42f5 8c33 8a4f 8c33 412b 1e33 49e5 8435
000000c0: 9dee 1732 8f06 902d 5b5c 3931 2ede db30
000000d0: de63 1830 0555 c632 4a25 892f afa9 b02b
000000e0: 6341 7b2c 87bf 3330 0719 c72e 170e 9030
000000f0: 64ca da31 b3d8 662e 5b4b 0532 c35b 6d32
00000100: 547f 9631 ef67 ba33 f003 e031 3b07 d02d
00000110: a268 f231 b898 dd31 04a3 1031 228e f032
00000120: 83f3 2832 c26e 332f 8e54 a732 e5c7 2c33
00000130: 598c 0c32 8309 7e34 71d1 7333 ef65 3b30
00000140: 923f 8e33 5635 9c33 201c 3b33 4f82 7635
00000150: db2a 4d31 21a0 8b2d ea53 a331 2082 8730
00000160: ae5f 0b30 5506 cb32 d2ac 9831 c633 b12e
00000170: 062e 0e31 9004 2f32 e3d0 fe31 5551 e533
00000180: 9dd5 5633 a54c b02f f94f 8832 b3b9 9133
00000190: 73c3 9532 1b30 e334 4da6 f033 5a39 5a30
000001a0: 6def 3633 76ac 6833 1490 4433 5a24 9a35
000001b0: c1e1 402f b965 c52b 6dff 202c 471e 922e
000001c0: 7829 972e 7341 9c30 9111 7230 2a62 b52b
000001d0: 80a7 a52f 2715 2630 dcf6 2b2d 65fb e130
000001e0: 42ca 9026 75db bf22 057d 6e23 5d2d 5c27
000001f0: 78c5 fc25 bb15 9327 d421 202d 6a53 8629
00000200: b5ff 9a2b b750 272e 1f0d 872b 30e4 5f2e
00000210: 6d2e 0532 810e dc2e feb1 8d31 ccf4 e632
00000220: 5603 fd31 d723 0f34 4214 9233 a2c2 4f30
00000230: bec7 a033 a879 1834 271f 2033 990d 8a35
00000240: 3239 2d2f be86 8e2b d77a d42c 3745 f72f
00000250: 2493 e02e e660 6630 55e0 ad22 be44 0e20
00000260: af8f e620 d137 5323 5143 0523 d98e d324
00000270: 03e0 d331 0df9 b32d b401 ba31 c513 9831
00000280: 305e bc30 090e e732 6106 ec32 3dde 932f
00000290: 60bd 7032 6679 0033 ddce 9232 0ac5 d634
000002a0: a27a 8e32 b6c9 882f 40b7 2d32 c641 0733
000002b0: 1757 9132 5a07 b334 c087 5332 aee3 1a30
000002c0: 0318 2733 ab55 5633 9779 0933 c1ae 6635
000002d0: a6dc 9e34 c614 de30 1504 5b33 284e 6f34
000002e0: bde5 9833 6942 1636 76a1 5032 32e8 9b2e
000002f0: fd6d f430 1fcc 1a32 6107 bc31 9745 c433
00000300: df62 6032 b7e3 6c2e b4ff 6732 2d15 f332
00000310: a55f 9531 338b 7433 0d7c f731 4ca8 0c2f
00000320: 68b7 7532 15f5 8e32 3085 4e32 4cbe 3834
00000330: 1270 6d33 d41c e42f 06db b532 399d f132
00000340: 979a b832 5a04 2535 4a77 8230 2310 e62c
00000350: 8d87 122f 93bc 8731 a265 3230 285b e631
00000360: 3b2f df32 c130 a62e d012 5e32 2b69 a832
00000370: 0eda 7431 3f80 c933 e6c7 7933 54a1 812f
00000380: 737e 0c33 bf6b 3133 8b14 2132 54aa b234
00000390: adca bb2c d8d6 8e29 77ae 502a 8ee5 1c2c
000003a0: 55fb 0c2c edf2 702e b477 2533 004a 922f
000003b0: e371 ac32 40e8 1533 08d0 9332 bd73 da34
000003c0: 76df 3f32 cb02 b62e a05d bc31 f4d7 0131
000003d0: 2d00 9f31 1940 de33 7da6 cf30 2943 822d
000003e0: aad8 9d2f 9fa6 d430 ce09 ca30 0b56 a532
000003f0: 446f 2434 e74f e230 895a c333 8ff5 4f34
4.1882593e-08 1.2678401e-10 2.3636398e-08 1.2277694e-08 3.285757e-09 1.7853444e-07 2.9858947e-07 2.2709963e-09
2.0917908e-07 3.2364045e-07 1.2864072e-07 3.2333096e-06 3.0574967e-07 3.918055e-09 2.2672182e-07 3.7056003e-07
2.2913872e-07 5.496632e-06 4.2728157e-08 1.10463465e-10 2.709194e-10 2.9066738e-08 9.511123e-09 1.313524e-07
2.7449492e-08 1.0348021e-10 6.5266557e-09 2.305469e-08 5.480736e-09 1.4611255e-07 7.766988e-08 4.130696e-10
4.5440395e-08 1.8244608e-08 2.092521e-08 6.0946667e-07 4.0331507e-08 1.7050493e-10 2.67731e-08 8.691253e-09
2.652274e-09 2.447175e-07 1.0562086e-07 7.065451e-10 6.56387e-08 6.533726e-08 3.682658e-08 9.901497e-07
8.843611e-09 1.6373817e-11 2.6973541e-09 1.5997494e-09 5.54392e-10 2.3088896e-08 2.494665e-10 1.2552649e-12
3.5705542e-12 6.5392e-10 9.053918e-11 1.0481384e-09 6.367644e-09 5.2488413e-11 7.758753e-09 1.381608e-08
4.38005e-09 8.680205e-08 6.5197057e-09 2.3650073e-11 7.0550223e-09 6.4493086e-09 2.1047422e-09 2.8004312e-08
9.834255e-09 1.6319304e-10 1.947981e-08 4.0228674e-08 8.180984e-09 2.3659054e-07 5.6768332e-08 6.817506e-10
6.623954e-08 7.274018e-08 4.356491e-08 9.1831765e-07 2.9855787e-09 1.5873582e-11 4.7534643e-09 9.859527e-10
5.0703874e-10 2.363519e-08 4.4434296e-09 8.058225e-11 2.068988e-09 1.0187378e-08 7.4161206e-09 1.0678438e-07
5.0020038e-08 3.2068673e-10 1.5868851e-08 6.785867e-08 1.7434763e-08 4.2317046e-07 1.1206121e-07 7.938944e-10
4.2592934e-08 5.417356e-08 4.5765844e-08 1.1484474e-06 1.7542502e-10 1.4025926e-12 2.2879157e-12 6.64469e-11
6.874051e-11 1.1369096e-09 8.806405e-10 1.288807e-12 3.013234e-10 6.042051e-10 9.775038e-12 1.6442355e-09
1.0046829e-15 5.2003013e-18 1.292848e-17 3.0555725e-15 4.3848842e-16 4.0824256e-15 9.102458e-12 5.9652654e-14
1.1013331e-12 3.8043093e-11 9.595969e-13 5.0907e-11 7.752175e-09 1.0007018e-10 4.1238755e-09 2.6886845e-08
7.3636484e-09 1.3330951e-07 6.80234e-08 7.558275e-10 7.4869135e-08 1.4200361e-07 3.7281236e-08 1.0285759e-06
1.5754578e-10 1.0127105e-12 6.0390404e-12 4.4978218e-10 1.0212478e-10 8.3811214e-10 4.7129265e-18 1.2050613e-19
3.9058597e-19 1.14501525e-17 7.224199e-18 9.174866e-17 6.1663754e-09 2.0460545e-11 5.413506e-09 4.4260298e-09
1.370557e-09 2.6898322e-08 2.7476917e-08 2.6897054e-10 1.40128975e-08 2.9912734e-08 1.7090708e-08 4.000397e-07
1.6586743e-08 2.488158e-10 1.0111592e-08 3.1491957e-08 1.6919826e-08 3.3346697e-07 1.2312682e-08 5.6348426e-10
3.8904556e-08 4.9903672e-08 3.2008383e-08 8.593598e-07 2.9590336e-07 1.615853e-09 5.0993624e-08 2.2287043e-07
7.119841e-08 2.2390398e-06 1.2143905e-08 7.08983e-11 1.7784597e-09 9.0103915e-09 5.472359e-09 9.1396196e-08
1.3060997e-08 5.386244e-11 1.350411e-08 2.8298553e-08 4.3473443e-09 5.6937278e-08 7.202749e-09 1.2792717e-10
1.4302579e-08 1.6642426e-08 1.20210615e-08 1.7205565e-07 5.528279e-08 4.1493442e-10 2.1170774e-08 2.812759e-08
2.1490719e-08 6.147362e-07 9.492649e-10 6.5387847e-12 1.332678e-10 3.9504555e-09 6.490045e-10 6.7042443e-09
2.5982095e-08 7.5574665e-11 1.2926378e-08 1.9605599e-08 3.5630623e-09 9.38312e-08 5.8156637e-08 2.3579594e-10
3.2711295e-08 4.130902e-08 9.376104e-09 3.3279014e-07 5.337361e-12 6.343336e-14 1.8534641e-13 2.2296362e-12
2.0034714e-12 5.4785444e-11 3.8525926e-08 2.6609825e-10 2.0075225e-08 3.4902996e-08 1.7207654e-08 4.0689875e-07
1.1168472e-08 8.276898e-11 5.482164e-09 1.8894726e-09 4.627529e-09 1.034934e-07 1.5108551e-09 1.4809114e-11
2.8712083e-10 1.5472387e-09 1.4700221e-09 1.9247656e-08 1.5314168e-07 1.6466374e-09 9.096863e-08 1.9367711e-07

exp_avg f4 [128]
00000000: 762a 46b4 83e7 97b7 f1af 4739 6264 0e38
00000010: 747f 3737 2250 b2b7 ee46 72b7 da90 4eb7
00000020: 042c e236 003f 0eb7 8a3b a4b6 c2e5 02b7
00000030: ee64 8237 ce93 b737 f8e7 3d35 8045 9837
00000040: c8df 8638 32bc b738 28e4 e9b6 d43d fa35
00000050: 93a5 0b32 1d9c f735 a72f 05b7 65d8 5cb8
00000060: 59ad beb4 0055 6db0 815e a8b6 c33b b837
00000070: 0cc2 42b7 51df 16b8 b164 be38 232a 42b7
00000080: 00ea 4b37 251b 7738 1443 8638 bb92 6236
00000090: 42ea 4536 c586 9fb5 f2db 78b4 b796 ca37
000000a0: 6d16 86b7 d1ac 17b7 3f31 83b8 3eeb 1738
000000b0: fbdf 2337 b53a 6336 e06f 3e35 69c8 11b7
000000c0: 6fbd edb5 1203 0537 f975 79b7 66ad 8335
000000d0: 721a b734 9f8b a3b7 3e9f 8bb8 3dda 6b38
000000e0: 014d a2b2 f325 8637 5965 2bb8 f3c2 e2b5
000000f0: 56e5 29b6 9476 9535 7dd3 2038 f918 4c37
00000100: 86d0 3db8 f71a 19b8 e164 13b8 9d7b e138
00000110: 14bd f037 0bdb 0cb7 96e4 fa37 f39b 0b38
00000120: be17 c5b5 41a0 0338 1ff3 9638 6b97 ad35
00000130: 492a abb7 db8a fb37 1207 1138 cb4b c737
00000140: f238 9738 c053 61b6 912f 46b4 a204 4f36
00000150: b752 33b4 2ddd 8f35 c0b4 0fb7 b627 efb4
00000160: 77bc 8f38 5bb3 01b7 2e56 52b5 32d6 3d37
00000170: 0834 5bb6 2829 3ab7 474b 7f38 4092 f437
00000180: 5c51 eab3 a755 36b6 c1bf d036 840d b1b4
00000190: 970b 88b7 4820 1537 50b5 9d37 9e3d 61b7
000001a0: c144 9db6 2c09 88b8 6cdb dc37 41b9 9237
000001b0: 54ac c937 97a4 c3b7 ed2a 9b37 81af ae38
000001c0: 9247 f6b4 9b34 cd37 e5a6 efb6 a54c ccb3
000001d0: d25f 4bb8 09bd b737 dda6 7db6 f6fa dd36
000001e0: 1712 1338 064f 6c36 65e3 2bb8 5a32 7736
000001f0: 76eb 84b8 d4ba b0b7 5046 0537 90ac 0632
-1.8455634e-07 -1.8108409e-05 0.00019043662 3.3948927e-05 1.0937325e-05 -2.1256568e-05 -1.4440839e-05 -1.2312283e-05
6.740449e-06 -8.478528e-06 -4.894512e-06 -7.8020985e-06 1.5544207e-05 2.1884127e-05 7.0745546e-07 1.8152175e-05
6.4313004e-05 8.761174e-05 -6.970502e-06 1.8644446e-06 8.128512e-09 1.8448369e-06 -7.938513e-06 -5.265362e-05
-3.5516385e-07 -8.634089e-10 -5.017792e-06 2.1962338e-05 -1.1608481e-05 -3.5970766e-05 9.078661e-05 -1.1573112e-05
1.2154225e-05 5.891467e-05 6.402112e-05 3.3762033e-06 2.9491644e-06 -1.1885646e-06 -2.3176815e-07 2.4150459e-05
-1.5984488e-05 -9.040538e-06 -6.2557396e-05 3.622029e-05 9.767707e-06 3.3859808e-06 7.0943315e-07 -8.689335e-06
-1.7713008e-06 7.928133e-06 -1.4869024e-05 9.810726e-07 3.4105648e-07 -1.949613e-05 -6.657698e-05 5.6231616e-05
-1.88943e-08 1.5991716e-05 -4.0863964e-05 -1.689505e-06 -2.5316454e-06 1.1135876e-06 3.8343936e-05 1.2165162e-05
-4.5255314e-05 -3.6503156e-05 -3.5141482e-05 0.00010751861 2.8698276e-05 -8.39565e-06 2.9908766e-05 3.328542e-05
-1.4684554e-06 3.1382082e-05 7.197842e-05 1.2933573e-06 -2.0404479e-05 2.9986191e-05 3.457728e-05 2.3757942e-05
7.210848e-05 -3.3576362e-06 -1.8457492e-07 3.08481e-06 -1.6700766e-07 1.0718701e-06 -8.565548e-06 -4.4546113e-07
6.853876e-05 -7.730759e-06 -7.8356504e-07 1.1315149e-05 -3.266383e-06 -1.1096046e-05 6.0866845e-05 2.915517e-05
-1.0911273e-07 -2.716997e-06 6.221206e-06 -3.2978653e-07 -1.621786e-05 8.888608e-06 1.8800289e-05 -1.3425391e-05
-4.6869686e-06 -6.486694e-05 2.632822e-05 1.7490822e-05 2.4041314e-05 -2.3322455e-05 1.8497429e-05 8.329657e-05
-4.5873145e-07 2.44624e-05 -7.142184e-06 -9.513432e-08 -4.848821e-05 2.1903326e-05 -3.7797065e-06 6.615529e-06
3.506438e-05 3.5212738e-06 -4.0981355e-05 3.6835177e-06 -6.3381085e-05 -2.1067834e-05 7.943789e-06 7.839063e-09

exp_avg_sq f4 [128]
00000000: 8847 0230 e37a 0f32 5299 7832 7ed0 ed2f
00000010: b917 da2f 0d30 d830 cba7 3430 d2aa 3831
00000020: b35a 8d2e 6689 b32c 1733 6e2f 43a6 c32e
00000030: c5c7 3230 c12e 2631 b101 8c2e 9048 962f
00000040: d244 a330 564f 5431 aa21 8a2c 2e00 b22c
00000050: e366 bf23 ebc5 832a d1b9 cd2f 5f81 4031
00000060: 67a1 852c be9e 0621 b286 b12e e1fd 8a30
00000070: 756a 6a30 2e35 1131 fce3 d531 7df2 8c2f
00000080: 4cd9 6d2f 7f07 ff2f e6b6 cc30 c2f4 e72d
00000090: b5a8 a42f 75c1 8030 cc58 2a2a 1837 8c30
000000a0: 2b79 8d2f bb15 702e acb7 d031 8755 9f31
000000b0: 75d2 9230 0a10 582e a475 582b f3be 5430
000000c0: a703 ab2f c962 d82f 4231 202f 5542 a72b
000000d0: fc82 9428 2110 1832 53b8 ac31 3996 c931
000000e0: ccb1 b926 cee2 1231 f8a4 1731 2395 6630
000000f0: 9a47 982b f4c7 2a30 ed1c 4332 793a 092e
00000100: 2c7c d331 7b83 612f 2d82 8931 265b c031
00000110: c3f4 9b30 553d fe2f ebf3 1930 6f93 0d31
00000120: b35d 832b aa26 2530 3ef1 6b31 a6ab a22b
00000130: 2fda b72f 96c1 e92f 7389 e531 d313 ac30
00000140: 5610 8c31 3503 842c 8663 ad27 f9e4 9d31
00000150: db09 e529 2651 8f2b 85ec 622f e368 a02c
00000160: a7f6 5e31 856f 792f 099c e029 a470 9d2e
00000170: 7179 9c2d e8ca 732d 1e4a 1930 551e 5230
00000180: dfb6 1c2a fb2b ca2f 055e 782e a3ce 822d
00000190: d22e 9d2e 51e0 982f 97bb aa2e 3647 572e
000001a0: f51c 352e 3739 9731 c3e5 5530 51c6 d72f
000001b0: 3406 0b30 6220 c62f 1fbd 4930 e18e ab31
000001c0: 5cdd 252a 8857 5630 4e2d fe2e 0811 8728
000001d0: 4ff6 a431 645c df2e 09c0 492e 4090 7230
000001e0: 30fb 0030 28fd 3b2c 9131 8931 a557 5530
000001f0: 0f75 3f31 c191 a830 749d bf2c 5fd0 ac23
4.7395377e-10 8.351637e-09 1.4470361e-08 4.3258191e-10 3.9670825e-10 1.5729725e-09 6.5722067e-10 2.6872624e-09
6.428049e-11 5.1027403e-12 2.1664125e-10 8.8971074e-11 6.503991e-10 2.4182756e-09 6.3667634e-11 2.73364e-10
1.1879371e-09 3.0895158e-09 3.9259334e-12 5.0590842e-12 2.0751836e-17 2.3407608e-13 3.7421313e-10 2.8013216e-09
3.7980066e-12 4.561106e-19 8.072955e-11 1.0112978e-09 8.527999e-10 2.1130506e-09 6.2250347e-09 2.563815e-10
2.1632224e-10 4.6389556e-10 1.4894936e-09 2.6370354e-11 2.99513e-10 9.36821e-10 1.5129841e-13 1.0201999e-09
2.5733846e-10 5.4588983e-11 6.074478e-09 4.6372324e-09 1.0682714e-09 4.912696e-11 7.6901875e-13 7.7396506e-10
3.1107314e-10 3.9360362e-10 1.4569415e-10 1.1884475e-12 1.6488106e-14 8.851232e-09 5.026814e-09 5.8669483e-09
1.2885146e-15 2.137472e-09 2.2067166e-09 8.388545e-10 1.0820123e-12 6.212979e-10 1.1357071e-08 3.1202128e-11
6.155025e-09 2.0510342e-10 4.002024e-09 5.598298e-09 1.13473e-09 4.624591e-10 5.6007704e-10 2.0602007e-09
9.334117e-13 6.0081595e-10 3.433413e-09 1.1558434e-12 3.3442535e-10 4.2520004e-10 6.6804033e-09 1.2520281e-09
4.0763934e-09 3.7520217e-12 4.812505e-15 4.5953326e-09 1.01713526e-13 1.0183284e-12 2.0638609e-10 4.5591183e-12
3.2445457e-09 2.2686038e-10 9.974666e-14 7.1595424e-11 1.7789078e-11 1.3858005e-11 5.57664e-10 7.644066e-10
1.391903e-13 3.6774836e-10 5.6472178e-11 1.4871054e-11 7.1478504e-11 2.7808025e-10 7.7640276e-11 4.8948588e-11
4.1180354e-11 4.401183e-09 7.781546e-10 3.9249184e-10 5.057672e-10 3.6039e-10 7.339213e-10 4.9929985e-09
1.4731743e-13 7.7977136e-10 1.15586304e-10 1.4995397e-14 4.8010302e-09 1.0157278e-10 4.587267e-11 8.824408e-10
4.692309e-10 2.6714828e-12 3.99286e-09 7.76135e-10 2.7860698e-09 1.2265035e-09 5.4460273e-12 1.8736526e-17
