MLAgentsProject/results/MoveToGoal4/MoveToGoal/MoveToGoal-263049.pt (torch, 440735 bytes, 36 tensors)

network_body._body_endoder.seq_layers.0.weight f4 [128, 6]
000000 32 92 3f 3e 04 18 c8 3c 21 00 1e 3f 5a 38 e0 3e
       0.18708113 0.024425514 0.61718947 0.43792993
000010 4a d4 09 3d 90 5b b9 bd f5 b3 de 3d 4b 40 b8 be
       0.03364972 -0.09050667 0.10874168 -0.35986552
000020 1c 56 a0 3e 7b 32 b0 be aa 95 07 bf 88 e8 28 3f
       0.31315696 -0.34413514 -0.52962744 0.65979815
000030 44 4d b0 3e 36 62 12 3f df 0b 5b 3d 07 cc 84 3d
       0.3443395 0.5718111 0.053478118 0.06484228
000040 ce 4d 2d 3e 1d 2b 92 3e 5e fe 36 3e 26 ac 9f be
       0.16924211 0.28548518 0.17870471 -0.31186026
000050 b3 9a e8 bd 23 0b 02 3f 0a 3a 34 bd 34 de c5 3e
       -0.113576315 0.50798243 -0.044000663 0.3864609
000060 34 f7 51 3f 1e ec 19 3e 1d 86 a6 3e 81 19 96 3e
       0.8201783 0.15031478 0.32524195 0.29316333
000070 17 5b c2 be 90 d2 f8 3d 8e d4 1f 3d d4 e5 24 3f
       -0.3796012 0.121495366 0.039021067 0.6441319
000080 24 1e e3 3e 10 d4 52 3f 7d 8f 8d be 3f 7d ac 3e
       0.44358933 0.8235483 -0.27648535 0.33689305
000090 48 01 01 3f 0e c4 e1 be 72 53 0e bf 3b df 52 be
       0.5039258 -0.4409489 -0.5559608 -0.20592968
0000a0 8c fc ea 3d eb fe 6a be 12 19 bb 3a 24 76 53 be
       0.11473951 -0.22948806 0.0014274439 -0.20650536
0000b0 16 64 ac 3d 87 d7 86 3e 15 f8 95 be 52 49 b0 3d
       0.084175274 0.2633631 -0.29290834 0.08607735
0000c0 5a 92 f9 bd 2c 8a 09 be 3d 27 18 3e 4a 5e 76 3e
       -0.121861175 -0.13431615 0.14858718 0.24059406
0000d0 3d 72 b5 be 55 d7 29 3f b4 f8 89 be 79 6f 5e 3e
       -0.3543872 0.66344196 -0.26947558 0.21722211
0000e0 a3 11 19 be f9 0a 3c be 07 84 15 3e 1f 7d d4 bd
       -0.14948134 -0.1836356 0.14601146 -0.103754275
0000f0 44 c1 c9 3e af 14 a4 3e 8b ed 31 3d f4 da 46 3c
       0.39405262 0.3204703 0.04343943 0.012137163
000100 b8 9c a4 3e c4 7d 09 3f 35 d9 b8 3e 9d bc 83 be
       0.32150817 0.5370753 0.36103216 -0.25729838
000110 e8 47 d9 3e d8 81 85 bc 6f 43 ab 3e cd 9b 1d bf
       0.42437673 -0.016297266 0.33449885 -0.6156586
000120 0e 60 a0 be d5 85 b9 3e 4e 4e b2 bd 8f 32 00 3f
       -0.31323284 0.36234918 -0.08706342 0.50077146
000130 ec 14 37 3e a8 77 e3 3e fe b3 38 3d 31 f1 df 3e
       0.17879075 0.44427228 0.04509353 0.43738702
000140 93 de e0 3e 16 51 b2 3e 29 e0 44 bd 8b bf 4f 3f
       0.4391981 0.3482749 -0.04806534 0.81151646
000150 28 49 57 3e c6 01 0d bf d1 23 18 3f 8d 9b 42 3f
       0.21024 -0.5508083 0.5942965 0.760186
000160 c6 f8 0a bf f4 9d e0 bd df 64 9b bd d6 3a af be
       -0.5428585 -0.10967627 -0.07587599 -0.34224576
000170 7f 8c 8d 3e 7a f2 2d 3f 66 b6 3f 3f fc f3 1d 3f
       0.27646253 0.67948115 0.7488769 0.61700416
000180 a0 0e 0b be d1 48 29 3f a3 b6 e2 3d 29 a5 87 be
       -0.13579798 0.66126734 0.110699914 -0.26493195
000190 c8 24 3c 3f 94 92 2a be bd 63 ed 3b 6a 2c 0e bf
       0.73493624 -0.16657478 0.0072445557 -0.5553652
0001a0 86 eb 73 3e 98 21 dd 3d 99 12 15 3d 9b 20 00 bf
       0.23820314 0.10797423 0.03639469 -0.5004975
0001b0 de 3a ee 3e 04 26 cf 3c e6 37 1e 3f 5a 66 1c 3d
       0.46529287 0.025286682 0.61804044 0.038183548
0001c0 2c 76 33 bf a3 15 e6 3e 31 41 b5 3e 18 6f 1e 3e
       -0.7010219 0.44938383 0.354013 0.15472066
0001d0 53 b8 65 be e6 0f 5f 3c 1e 61 5e 3e ea e3 12 be
       -0.22433595 0.01361463 0.21716735 -0.14344755
0001e0 4b 50 9a bc d2 bb 9b 3e 32 cc 34 3c 91 95 31 3d
       -0.018837115 0.30416733 0.011035012 0.04335553
0001f0 94 99 ad 3d be bd 27 3e 09 9a c1 be 7c 4c a0 be
       0.08476558 0.16380975 -0.37812832 -0.31308353
000200 af a1 c9 3d ba b4 95 bc 70 7b e2 3e d3 70 8f be
       0.09845292 -0.018274654 0.442348 -0.28015766
000210 2a 2b 39 bf fc 68 ea 3c 04 09 9a 3d 9f 3c ec bd
       -0.7233149 0.028614514 0.07521251 -0.11535
000220 db e4 82 3b cb d8 ce 3d 45 3e 84 3e 96 a1 85 3e
       0.003994567 0.10099944 0.25828758 0.26099843
000230 ce fc 88 be e4 b9 75 be 93 e5 3a be b4 50 37 3c
       -0.26755375 -0.23996693 -0.18251638 0.011188675
000240 f5 97 a7 3c b2 9c fe 3e 00 6d 09 bf 5c 60 4e bf
       0.020458201 0.49728924 -0.53681946 -0.8061578
000250 85 dc f3 be 67 e7 28 be be d4 2c 3f 4f 1a bb 3d
       -0.4762918 -0.16494523 0.6751212 0.09135877
000260 45 ad e1 3e 0a 9b 42 3e e4 91 05 3e 0a 4b 01 bf
       0.44077507 0.19004455 0.13043934 -0.50505126
000270 05 8e 71 3e 53 ae 00 3f cb d9 c3 be cd 4d d9 be
       0.23589332 0.50266 -0.382521 -0.4244217
000280 30 17 f0 3e ba b0 7f 3f 83 ff 0a bc 00 77 53 3e
       0.4689269 0.9987904 -0.00848377 0.20650864
000290 4c 66 db 3e a1 fc 71 3e d3 33 91 3d e0 23 d8 be
       0.42851484 0.23631527 0.07089963 -0.4221487
0002a0 6f 97 05 3f 91 43 b1 3d 54 4c 48 bf 77 d9 ed 3e
       0.52184194 0.086554654 -0.7824147 0.46454975
0002b0 58 b4 d5 bb 29 d5 83 be 37 37 69 bd 72 53 02 bf
       -0.006521743 -0.25748566 -0.056937423 -0.5090858
0002c0 01 23 15 3f 6e bc 1b 3e 0b b4 2a be 9d 8a 38 3d
       0.58256537 0.15208599 -0.16670243 0.045054067
0002d0 e1 f7 87 bd 52 cf fd bd 32 7e d4 3e 4f 8a ed 3d
       -0.06639076 -0.12393059 0.4150253 0.11598646
0002e0 72 fc d0 3e a8 e6 35 3e 29 01 ec be c1 e9 a4 be
       0.408176 0.1776377 -0.46094635 -0.3220959
0002f0 4b b5 4d 3d 6d 80 d0 3e a1 21 68 3e a3 36 1d 3f
       0.050221723 0.4072298 0.22669078 0.61411494
000300 10 46 5d 3f f1 56 9e 3e 96 b7 df 3e c2 5b 95 3e
       0.8643503 0.30925706 0.43694752 0.29171568
000310 f0 08 48 bf d5 95 2d 3f 58 5b 6c bf 56 f7 12 bf
       -0.7813864 0.6780675 -0.9232688 -0.57408655
000320 20 24 b3 bc b4 26 38 bf d8 46 f5 bd 9f ac 1b bf
       -0.021867812 -0.71934056 -0.11976403 -0.60810274
000330 63 68 17 be 96 94 d5 be 3b 6a 8c 3e 25 d6 ac 3e
       -0.14785914 -0.41714925 0.27424797 0.3375713
000340 e1 91 00 bd b1 10 3a bd 4a 66 f8 3b 42 5d ae 3a
       -0.03138912 -0.045426074 0.007580553 0.001330294
000350 d0 cc 5e bf bc 44 5a 3f e4 07 e8 be ff 82 c8 3e
       -0.8703127 0.8526113 -0.4531852 0.39162442
000360 53 2a 40 3e 69 a9 25 bf 19 19 2a 3e 92 bd 4d 3e
       0.18766145 -0.64711624 0.16611136 0.20091847
000370 f4 04 c9 be c8 ab 38 be db 7f e8 3e 85 d0 aa 3e
       -0.3926159 -0.1803428 0.45410046 0.33362213
000380 f6 47 47 3f 7a 2c 46 bf de 7b aa 3e 5a 1a 80 bf
       0.7784418 -0.77411616 0.33297628 -1.0008042
000390 af 74 0d 3f 0c 45 fd be b0 bd d1 bb 9e 6b 7a 3f
       0.5525617 -0.4946674 -0.0064007863 0.9782046
0003a0 64 2a 8b 3e f7 e7 6d be d0 db aa be 24 f9 e9 3e
       0.2718078 -0.23233019 -0.3337083 0.45697892
0003b0 c1 40 8b 3e 59 35 43 bf 35 e3 56 bf 84 f0 5c bd
       0.2719784 -0.7625328 -0.8394044 -0.05394031
0003c0 8b bc 81 bd 58 13 ac 3c 8b 69 f9 be 92 64 07 3e
       -0.0633479 0.021005318 -0.48713335 0.13221958
0003d0 93 d5 6a be 88 97 ab be 0f 99 70 be e0 73 f4 3c
       -0.22933035 -0.33514047 -0.23495887 0.02984041
0003e0 f0 86 88 3f 12 8a 68 be ba 4b 41 bd 3d f9 78 be
       1.066618 -0.2270892 -0.04719136 -0.24313827
0003f0 13 5b 46 bf b9 96 32 bd 5b 10 2a 3e a1 67 52 3e
       -0.7748272 -0.04360077 0.16607802 0.20547344

network_body._body_endoder.seq_layers.0.bias f4 [128]
000000 8f 3d b5 b8 85 a1 a0 bb 3a 06 3c bb 28 d1 ed 39
       -8.642219e-05 -0.004902067 -0.0028690235 0.00045359996
000010 70 a1 4a bb a6 8c 0b bc f7 f6 80 3b 9e a5 21 bb
       -0.0030918978 -0.00851742 0.0039356905 -0.0024665366
000020 65 5f d7 bb 42 4b 2a 3c a0 ed 18 bc b7 ca 9f 3b
       -0.006572651 0.010393919 -0.009333998 0.0048764604
000030 4f fe 9f 3b 13 98 a3 bb fb 33 d9 b9 aa 82 21 bb
       0.004882611 -0.004992494 -0.00041428194 -0.0024644532
000040 81 16 aa 3b af 34 8f 3b c7 18 92 bb 55 4c fa ba
       0.005190671 0.004370294 -0.00445852 -0.0019096235
000050 54 8d 72 bb 38 d4 0f bc 04 95 ed bb a8 f5 33 3b
       -0.0037010508 -0.008778624 -0.00725043 0.0027459655
000060 db bd c8 3b f3 e6 ac b9 8e cf 32 ba 2c e1 71 3b
       0.006126148 -0.00032978467 -0.0006821089 0.0036907895
000070 4f 03 76 bb fd b0 40 3b e3 55 35 3b 6a a5 8f b8
       -0.0037538593 0.0029402368 0.00276696 -6.849582e-05
000080 da 04 55 3a aa b9 87 3c 70 c3 11 bc a1 14 b5 ba
       0.0008126028 0.016568024 -0.008896694 -0.0013815352
000090 df cf 25 3b 06 cd f6 3b 22 af fc bb 06 a7 42 3c
       0.0025300903 0.007531765 -0.007711307 0.011880642
0000a0 66 bf 46 bb 55 79 23 bb 20 bd 2f bc a4 43 6b 3c
       -0.0030326485 -0.0024944146 -0.010726243 0.0143593885
0000b0 fe 32 63 3b ad 98 03 bc 0d 15 a1 ba 43 c8 65 3b
       0.0034667845 -0.008032006 -0.0012289599 0.0035061992
0000c0 d8 11 21 bc 87 12 4e bb 79 1a d7 3b f5 83 1e 3b
       -0.009830914 -0.0031444149 0.006564435 0.002418754
0000d0 4f 86 aa ba 2d 11 6e 3a 19 57 25 bc 60 0c bf ba
       -0.0013009998 0.0009081539 -0.0100915665 -0.0014575832
0000e0 00 ff a7 ba 04 82 da 3a b8 5f 47 3b 36 c3 cb 3b
       -0.0012817085 0.0016670828 0.0030422043 0.0062183393
0000f0 f2 8f 30 3b fa 0e d5 39 50 e2 6c ba 8a 2c e1 ba
       0.0026941267 0.00040637684 -0.0009036409 -0.0017179411
000100 26 e5 33 3a 5d 1f 3d ba ea 5c c6 3a ea 85 c2 3b
       0.0006862454 -0.00072144513 0.0015133892 0.005936374
000110 5b 1b 27 3a 76 7a 1d bc d1 42 4a 3c 40 1e aa bb
       0.0006374621 -0.0096117165 0.012345032 -0.0051915944
000120 f0 d9 82 3b e9 f7 c2 ba db 12 fe 3a 54 42 20 bb
       0.0039932653 -0.0014874908 0.0019384281 -0.0024453597
000130 1b 40 3a bb 24 4f 5d bc 73 24 24 bb ab 05 76 bb
       -0.0028419557 -0.013507638 -0.002504614 -0.003754
000140 9e 54 e4 ba b2 07 9c 39 a6 a7 28 bc 73 78 78 bb
       -0.0017420237 0.00029760372 -0.010293877 -0.003791359
000150 25 ad 9c 3c 5b 09 d2 bb 44 8f b8 bb de 52 01 3c
       0.01912553 -0.0064098067 -0.005632313 0.007893292
000160 ed 32 06 bb bb 34 93 3b 8f 61 9e 3b 0c bc 13 3b
       -0.0020477131 0.00449237 0.0048334072 0.0022542505
000170 30 98 23 3a ff 21 3d ba a7 38 da bb af bd a3 38
       0.0006240634 -0.00072148436 -0.0066595855 7.807777e-05
000180 2a b1 c8 3a 6a d0 92 bb aa 4d 24 ba 83 5c 30 39
       0.0015311588 -0.0044804113 -0.00062676764 0.00016819131
000190 03 04 26 bc 82 3e 81 ba c0 af e2 39 5f 53 60 b7
       -0.010132792 -0.0009860548 0.00043237023 -1.3370852e-05
0001a0 d9 73 08 3c 51 5f f0 bb 9e 82 97 3a 8b f2 a6 3b
       0.0083284015 -0.0073355814 0.0011559313 0.0050948313
0001b0 9b 9d 04 3c 7a 76 79 bc a1 9d 3a 3a 58 94 5d bb
       0.008094217 -0.015226001 0.00071188255 -0.0033810344
0001c0 be 0a 01 b9 49 23 ea ba 8a 5a 31 3a ea c8 fc ba
       -0.000123064 -0.0017863299 0.00067655055 -0.0019285951
0001d0 5a c2 05 3d 53 b3 7a 3a 3c 62 26 bc 65 7c 82 bb
       0.03265605 0.00095634646 -0.010155257 -0.003982114
0001e0 d4 aa bb bb 6c ae b3 bb e4 30 37 3b 9b 11 02 bb
       -0.0057271514 -0.005483439 0.0027952725 -0.001984692
0001f0 fc 76 5f bb 93 b6 b2 bb 1a 16 35 ba ab 60 90 bb
       -0.003409802 -0.0054538934 -0.00069078954 -0.004406055

network_body._body_endoder.seq_layers.2.weight f4 [128, 128]
000000 01 27 ff bd 61 d3 cf bd 15 ef b8 bd 0e e5 0b bd
       -0.12458611 -0.10147739 -0.09029976 -0.03415399
000010 99 1f 84 bd 4d 1d 6d 3d ad 87 43 bd 28 ab 8d bc
       -0.06451339 0.05788927 -0.047736812 -0.017293528
000020 24 85 b6 3d ed b6 fb bb 4d a6 0d 3d c7 74 2b 3d
       0.08912113 -0.0076817186 0.034582425 0.041859414
000030 9f 33 21 3e e8 00 ed bc 7a ab 97 bc ea 06 00 3e
       0.15742348 -0.028931096 -0.018514384 0.12502638
000040 b1 c0 82 3d 6b 1a 62 bd 60 d5 70 3c 04 7d 93 bc
       0.06384409 -0.055200975 0.01469931 -0.018003948
000050 67 ac 1d be be 7b 56 bc d4 14 3b bd 0a 80 f6 3d
       -0.15397798 -0.013091026 -0.04567416 0.1203614
000060 3f 74 c3 bd 0f 2d 22 bd d8 fc 25 be 92 e3 4f bb
       -0.095436566 -0.039593752 -0.16209733 -0.0031721336
000070 f1 1a 07 3d 3a 91 fe 3d 0e 32 a5 3c 19 4b 17 bd
       0.032984678 0.124300435 0.02016547 -0.036936853
000080 93 7c 9c 3d bf 33 27 3e 36 77 00 be c2 72 12 3e
       0.07640948 0.16328333 -0.12545475 0.14301589
000090 50 9f 11 bc dd d1 87 3d fb 23 ea bd fd 82 47 bc
       -0.008888081 0.06631825 -0.11432644 -0.012177226
0000a0 d6 51 2e bc f7 0e 62 3b cb 1d bf 3d f2 3e 9e bd
       -0.010639628 0.0034493783 0.093318544 -0.077268496
0000b0 c1 64 5d 3d 99 60 f5 3d 69 86 ab bd 9e c5 c7 bd
       0.054051165 0.11981315 -0.08375246 -0.09754489
0000c0 61 34 a6 bd 79 84 88 bc f0 a0 34 3d 94 76 8e 3d
       -0.08115459 -0.01666473 0.044098794 0.06956211
0000d0 c2 88 af bd b3 7e a0 3d d7 ed 11 be 5e 9d d2 bd
       -0.08571006 0.07836666 -0.14250885 -0.10283922
0000e0 80 31 bc 3d 3c 73 98 3d 19 18 6e bc ae 58 6d 3d
       0.09189129 0.07443854 -0.0145321125 0.0579459
0000f0 56 30 44 be 6b 1d 87 bd 91 df c7 ba f1 1a d4 3d
       -0.19159064 -0.06597408 -0.0015249123 0.10356701
000100 a8 a0 cb bd 19 a5 09 3d c4 8f 8a 3d 9e 68 bd bc
       -0.09942752 0.033604715 0.06765702 -0.023121174
000110 ee 54 56 bd 24 d2 ff bd ee 6b 4b bd 1d aa 1f be
       -0.05232709 -0.12491253 -0.049663477 -0.15592237
000120 13 05 19 3e 5f c0 4a bd 27 3b eb 3d c2 83 d0 3b
       0.14943342 -0.049499866 0.11485892 0.006363363
000130 ab 9c 03 be a7 9f 81 3d f3 79 14 bc b7 da 83 bd
       -0.12852733 0.063292794 -0.009062278 -0.06438201
000140 ab 60 a8 3c 1c 6b 5c 3d bc 5c b0 3c 38 81 15 3e
       0.020553907 0.053813085 0.021528594 0.14600074
000150 a2 d9 6a 3d 13 30 6d bd d0 af 98 3c be 1a aa 3d
       0.057336457 -0.057907175 0.018638521 0.08305882
000160 1a b0 03 be 80 f9 b8 3c 37 77 9a bd e1 3a c5 3d
       -0.12860146 0.022579908 -0.0754227 0.09630371
000170 7a 41 d1 bd 4f ab ca 3b 75 d6 01 be e7 0b f6 bc
       -0.10217567 0.0061849724 -0.12679465 -0.030034972
000180 29 f4 c2 bc 4f f1 3d bd 81 b1 00 3d 57 26 47 3d
       -0.023798065 -0.046372708 0.03141928 0.048620548
000190 36 d3 b8 3d 79 77 a4 3c 1a 65 8d bc 0d 0e 83 bc
       0.0902466 0.0200765 -0.017260123 -0.01599791
0001a0 8d cc 2f 3d 23 31 c9 bd e3 b5 b8 3c 38 e8 2c 3d
       0.042919684 -0.09823825 0.022547668 0.04221365
0001b0 a8 6c c4 bc a8 c7 87 bd af 7a 1e be d4 1b 44 3c
       -0.023977593 -0.06629878 -0.15476488 0.011969525
0001c0 6f b8 96 3d 56 0c ce 3d 5d f0 11 bd 2d 0c 22 bd
       0.07359397 0.10060947 -0.03562962 -0.039562393
0001d0 ab b2 de 3d a0 e7 01 bc c1 74 96 bc ec f2 de bb
       0.10873922 -0.007928759 -0.01836622 -0.006803861
0001e0 68 e6 04 be d2 28 04 3d 85 98 f5 bd 32 7d 44 bd
       -0.12978518 0.03226549 -0.119919814 -0.047970958
0001f0 a7 66 a3 bd f1 b5 bb 3b e0 0b 56 3e 18 c9 37 3e
       -0.07978564 0.005728476 0.20902967 0.17947805
000200 0b f5 88 bc 28 d3 5b bd d9 de 9d 3d 91 32 d6 3d
       -0.016718408 -0.05366817 0.077085204 0.104588635
000210 97 97 00 3d 64 1b 38 bc 94 c3 8b 3c 1d f0 29 3e
       0.031394567 -0.011236999 0.017061032 0.16595502
000220 71 e4 ca bd 01 c3 fd bc 38 3e c5 3d bf f3 94 bd
       -0.09906853 -0.030976774 0.09631008 -0.072730534
000230 3c fc 7c bd b2 31 d1 3d 05 67 c0 3c 38 a0 55 3d
       -0.061763987 0.10214557 0.023486624 0.05215475
000240 8e 5b 35 3d f6 3d 7c 3c 18 7e d9 38 16 ea 9c bd
       0.044276766 0.015395632 0.00010370853 -0.07661836
000250 fb 73 d4 bc d5 1d 16 be 3c e5 96 bd f8 0e c9 3d
       -0.02593421 -0.14659818 -0.07367942 0.09817308
000260 33 b7 f5 bb 23 12 25 be 1a ad b4 bd 8f 3c 8d 3c
       -0.0074986457 -0.161202 -0.08822079 0.01724079
000270 5b d8 c5 3b 72 08 91 3d b3 5a fc bc 2f fa fc bc
       0.0060377545 0.07081689 -0.030804968 -0.030881016
000280 5a bd 28 be 0c 8f 3a be ee a8 00 bc dc 83 ca 3a
       -0.16478482 -0.1821863 -0.007852776 0.0015450674
000290 84 72 ab 3d c1 13 b7 bd ba 5b cb bc 78 fb 07 3c
       0.083714515 -0.08939315 -0.024824012 0.008299701
0002a0 1e 15 81 3d af 02 cd 3c 14 70 80 3c 0c c9 e2 3d
       0.06302856 0.025025694 0.015678443 0.11073503
0002b0 54 58 ec 3c 6f 69 f9 bc 3f 62 9e 3c 09 d1 a6 3d
       0.028850712 -0.030445782 0.019333957 0.08145339
0002c0 13 99 c2 bc a5 35 2e bc 72 a0 c2 bd b9 76 d8 3d
       -0.023754632 -0.010632907 -0.09503259 0.105695195
0002d0 a2 dc 10 be 3f a3 4a bd 36 1c 07 be e0 46 06 bc
       -0.14146665 -0.04947209 -0.13194355 -0.008195609
0002e0 1c ca fe bd 38 dc b7 bd 86 9f 63 3d 41 fb 7a 3d
       -0.12440893 -0.0897755 0.055572055 0.06127477
0002f0 ce 58 c9 3d 9e 45 0c 3c 1e 95 91 bc 50 b3 c2 bd
       0.09831391 0.00856152 -0.0177713 -0.095068574
000300 8e 72 dd 3d 97 4e 46 bd ff f0 9c 3d ca a6 cd bd
       0.10812865 -0.048414793 0.07663154 -0.10041578
000310 58 3a ca 3d 01 d0 b2 bb d7 b2 27 3e 40 28 e4 3d
       0.098744094 -0.005456925 0.16376816 0.111404896
000320 ac 00 34 be e9 90 08 bd 4a 8b 12 b9 b1 86 d7 bd
       -0.17578381 -0.033341322 -0.00013975534 -0.10523737
000330 7b 2c 23 3d 33 9c e7 3d b9 54 25 be 27 f0 c3 bd
       0.03983734 0.113090895 -0.161456 -0.0956729
000340 fd 27 d6 3d 6a 55 16 bd d6 73 37 be af 88 15 3e
       0.10456846 -0.03670255 -0.17915282 0.14602922
000350 94 61 a8 3c 88 44 7e 3d 96 6f 8b 3c 5d a9 00 3e
       0.020554341 0.062077075 0.017020982 0.12564607
000360 e3 69 d3 3c 1a 44 b3 bd 11 cd 35 3e d8 ea 5c bd
       0.025807327 -0.08753224 0.17754008 -0.053934902
000370 40 13 0e bd 4d 46 26 3d fe 68 3c bd c5 db a7 3d
       -0.034686327 0.040594388 -0.045998566 0.081962146
000380 2c c7 25 bc 91 96 db bd c8 bf a3 bb 71 57 3e be
       -0.010118287 -0.10722078 -0.0049972273 -0.18588044
000390 a3 ec c1 bd f7 28 ef bc 5a 14 0a 3d 92 9f 23 be
       -0.09468963 -0.029194338 0.033710815 -0.1597884
0003a0 aa ee 3d bd 94 08 4d 3d b7 4a c1 bd 2b a5 83 bd
       -0.046370186 0.05005701 -0.09438079 -0.06427988
0003b0 1a 24 e5 3c 73 b6 c0 3d 27 dd 47 3c 52 07 7b 3d
       0.027971316 0.094097994 0.012198723 0.061286278
0003c0 f0 1a 3e 3d 96 d8 91 3d 9b 5d f7 3d 95 03 d2 3c
       0.04641241 0.071213886 0.12078401 0.025636474
0003d0 8b 42 f4 3d b0 db 68 be 30 36 79 be 71 d2 14 be
       0.119267546 -0.22740054 -0.24337077 -0.14533402
0003e0 23 5b 6a bd 1e 2c 07 bd 6a f2 b3 bc 2f 05 7e bd
       -0.05721582 -0.033001058 -0.021966178 -0.062016662
0003f0 5a d7 88 3d 45 51 0e bd 25 00 f3 3c e0 71 34 be
       0.066817 -0.034745473 0.029663155 -0.17621565

network_body._body_endoder.seq_layers.2.bias f4 [128]
000000 a7 55 c4 3b 19 8f 9c bb 99 05 e4 3a ad 50 b8 bb
       0.005991656 -0.0047778008 0.0017396688 -0.0056248517
000010 06 c7 95 b9 c0 ca 1b bb 10 93 d3 b9 cd 30 25 b9
       -0.0002856778 -0.0023771971 -0.00040354626 -0.00015753806
000020 97 b6 a2 ba 48 e5 53 3b 7f 54 7d bb bf dc 1b 3a
       -0.0012414035 0.0032332707 -0.00386551 0.00059456745
000030 79 90 7c 3b 4b ac 9a ba 5f 3b 00 3b 98 87 76 bb
       0.003853826 -0.0011800615 0.0019566638 -0.0037617441
000040 7f 30 b1 3a d4 97 96 3a 74 f6 44 bb 8e 5a 99 3a
       0.0013518481 0.001148934 -0.0030054124 0.0011699961
000050 5c 92 b2 3a 5b 2e 19 bb 46 4a cf bb d1 17 06 bb
       0.0013623941 -0.0023373577 -0.0063259928 -0.0020460973
000060 22 83 22 3a 17 20 17 3b c9 f4 83 bb 68 6a 06 39
       0.000619935 0.0023059899 -0.0040269834 0.00012818875
000070 fb f7 32 3b 86 70 62 bb cd c2 da bb 9a 2f ee 39
       0.0027308452 -0.0034551932 -0.006676054 0.00045430363
000080 77 88 ea 3b 62 40 da bb 2f 17 4c 3a b8 72 13 ba
       0.007157381 -0.006660507 0.0007785437 -0.00056246994
000090 01 e9 be bb 92 c6 09 bb 8f 1d 14 ba cd 13 04 bc
       -0.005826116 -0.0021022898 -0.00056501565 -0.0080613615
0000a0 e7 ac bf ba 5f ab a3 bb d0 73 82 bb 9d bd 13 bc
       -0.0014623672 -0.0049947943 -0.003981091 -0.009017375
0000b0 83 a3 81 bb 06 70 33 ba 52 42 8b 39 ab 8f de bb
       -0.0039562597 -0.0006845001 0.00026561558 -0.006792029
0000c0 c4 62 e0 bb 02 be ed ba f8 c3 93 ba ce 90 fa ba
       -0.0068477113 -0.0018138292 -0.0011273613 -0.0019116641
0000d0 d5 e3 b5 3a 46 fd c9 bb 88 87 60 3a db 7c 9a 3b
       0.0013877103 -0.0061642257 0.00085651176 0.004714591
0000e0 be b6 84 bb 37 8b 99 bb ad 49 e4 3b 98 5f 9f bb
       -0.004050105 -0.004685785 0.0069667907 -0.0048636906
0000f0 25 22 d7 ba c4 9b 8e bb 7c 09 36 39 b8 92 b4 ba
       -0.0016413374 -0.004352065 0.00017360406 -0.0013776636
000100 b0 c1 ea ba 12 50 c6 bb 0a 03 b0 ba 39 84 4d 3b
       -0.0017910507 -0.0060520256 -0.001342864 0.0031359328
000110 e2 06 f0 ba ad 17 83 38 e4 09 dc ba f8 68 05 bc
       -0.0018312598 6.250977e-05 -0.0016787616 -0.008142702
000120 45 97 e5 ba 63 c1 dc 3b 99 57 11 bc 20 f3 6f 3b
       -0.0017516395 0.0067369207 -0.008870983 0.003661342
000130 a1 22 88 bb c2 f5 78 bb 47 e5 34 bb 31 47 71 bb
       -0.0041545187 -0.003798828 -0.002760248 -0.0036816115
000140 e3 88 a9 b9 15 68 20 bb 6a 51 ed b8 7a 83 d3 b8
       -0.0003233618 -0.00244761 -0.00011316205 -0.000100857535
000150 aa 65 8f 3b c5 ec 51 ba 8b 8f ea bb cb da c4 bb
       0.004376133 -0.00080079987 -0.007158225 -0.0060075275
000160 02 bc 25 3a f2 91 10 3c 9e 77 a8 3b f8 d9 d0 3b
       0.0006322266 0.008823859 0.0051412126 0.00637364
000170 22 77 fe bb 3b 0f e1 3a 92 db 67 3b b9 75 d1 ba
       -0.0077656666 0.0017170677 0.0035378677 -0.0015980519
000180 0f 75 25 bb f8 a4 95 3a 43 93 b1 b8 4c 44 0c 3c
       -0.0025246774 0.0011416962 -8.467447e-05 0.008561205
000190 25 64 b6 bb 07 06 8b ba a5 f1 1b 39 a4 cc c1 bb
       -0.0055661374 -0.0010606655 0.00014871972 -0.0059142876
0001a0 15 58 c4 ba 27 75 18 bb b5 0c d3 3c b9 2b 9e 3a
       -0.0014979864 -0.0023263188 0.025762895 0.0012067474
0001b0 51 b1 2c 3c 62 59 ec 39 35 f4 ec 3b 6f 82 af ba
       0.010540322 0.00045080023 0.00723126 -0.0013390313
0001c0 74 71 e3 bb 1e 25 66 bb c8 c8 00 3c db da 26 bb
       -0.006941015 -0.0035117338 0.00786037 -0.0025460038
0001d0 89 18 8b bb 65 ec d0 ba 9b a8 2c ba cc a1 93 3b
       -0.004244868 -0.0015939592 -0.00065864035 0.0045053717
0001e0 2a c3 44 b9 63 b1 82 bb ab 6f 0b bb f2 ad 8e ba
       -0.00018764721 -0.0039884313 -0.0021276276 -0.001088558
0001f0 dd 60 bb ba b0 e8 d6 bb c9 2c 3b 3c f1 dd ee 39
       -0.0014295835 -0.0065585 0.011424252 0.00045560257

action_model._continuous_distribution.log_sigma f4 [1, 3]
000000 6e 03 93 bc ca d1 b6 bc f2 51 4f 3b
       -0.017945971 -0.022316832 0.0031634537

action_model._continuous_distribution.mu.weight f4 [3, 128]
000000 27 d7 be 3c bf 6c 18 bc e0 d2 45 3d f5 da a1 bc
       0.023295952 -0.009303271 0.04829681 -0.019757727
000010 a5 cf c5 3b d3 70 c9 3c 98 21 e5 3c bb cf 01 bd
       0.006036716 0.024589932 0.02797012 -0.031692248
000020 ed f7 3e bd a9 5f ed 3a d5 5b 0d bc b4 77 41 3c
       -0.04662316 0.0018110174 -0.0086278515 0.011808325
000030 f2 66 24 3c 21 2c 84 3c 1a 9a 93 3c 56 0b b3 bb
       0.01003431 0.016134324 0.018017817 -0.005463998
000040 dd 56 8b 3b b8 5b fc bb a6 cb 4c bc 32 6e 97 bc
       0.0042522983 -0.0077013634 -0.012499725 -0.018485162
000050 63 30 83 3c a8 1b 17 bb 3b ba 90 bb c5 5f a0 bb
       0.016014284 -0.0023057256 -0.0044167317 -0.004894229
000060 85 01 ce 3c 2a e9 27 bb b2 d5 22 3c 59 c5 da bc
       0.025147209 -0.0025621154 0.009938644 -0.02670543
000070 d0 cf c9 3c 29 d7 0f bc 45 0b 35 39 c0 15 89 3c
       0.024635226 -0.0087793255 0.00017265703 0.016734004
000080 fa 53 f2 3c ce 93 1c bd 68 88 c6 bc 06 85 1c bd
       0.029581059 -0.038226895 -0.024234965 -0.0382128
000090 d1 60 a5 3b b6 be 17 3d 7f 0a d4 bc 0c 56 85 bb
       0.005046942 0.03704711 -0.025883911 -0.0040690955
0000a0 fd 38 51 b9 e2 4d 37 bc 97 c6 10 bd b3 ca a5 ba
       -0.00019953023 -0.011188002 -0.03534564 -0.001264891
0000b0 1c 50 61 3c a5 fd a5 bc 53 13 98 3b 61 bf 0b bc
       0.01375201 -0.020262549 0.0046409755 -0.008529515
0000c0 11 58 f5 3c b0 a4 ab 3a 9c 7c 9b 3b 6c 1f c2 bc
       0.02994922 0.0013095345 0.004745079 -0.023696624
0000d0 af 16 23 bc b4 49 03 3c 39 39 da bc 16 0d c6 3c
       -0.009954139 0.008013178 -0.026638614 0.024176162
0000e0 1f c0 18 bc cf af 35 3c 77 ae 0f bd f1 4e ee 3a
       -0.009323149 0.011089279 -0.035078492 0.0018181485
0000f0 62 d7 96 bb 1a f9 66 3c 52 92 85 bb fe 6a 4c 3c
       -0.0046033124 0.014097476 -0.0040762806 0.012476681
000100 05 d2 d4 bb d3 bb 69 bb 8c ab 4f 3c bc 06 4f bc
       -0.006494763 -0.003566493 0.012675177 -0.012635883
000110 c8 9b 15 3c 80 5d 83 3c 86 9f cb bc c7 43 df 3b
       0.009131379 0.016035795 -0.02485634 0.0068134996
000120 ee 01 07 3c f9 df e7 3c a3 79 51 3c 48 05 7e 3c
       0.008240206 0.02830504 0.012785348 0.015504189
000130 69 ae 39 3c 96 46 b6 bc b6 8a c6 bb e7 ea d7 bc
       0.0113330865 -0.022250455 -0.006059016 -0.026357127
000140 74 30 07 3d 7c 9d e7 bb ca 55 3a bc 0b ab 1a bd
       0.033005193 -0.007068334 -0.011372993 -0.037760776
000150 a9 69 84 ba 18 64 ad 3c 2b 51 c7 ba bc cd c9 3b
       -0.001010229 0.021165892 -0.0015206685 0.0061585587
000160 c7 0d 5e bc 19 e4 14 bb 93 42 22 bc 6a 92 bc bc
       -0.013553089 -0.0022718965 -0.009903568 -0.023019034
000170 80 68 a1 bb e4 50 b8 bc 67 89 18 3c 17 5b d7 3c
       -0.0049257874 -0.02249951 0.009310103 0.026288552
000180 db e6 b3 bc 3e e4 ac 3c f9 e9 54 3c 8b 60 0c bc
       -0.021960666 0.021104928 0.012995237 -0.0085679395
000190 18 77 92 3c f9 06 04 bc 78 5f 6b 3a 2f 70 00 3d
       0.017879054 -0.008058303 0.00089787645 0.031356987
0001a0 13 ab 1c bc d7 f7 53 3c 7a ae 55 3d 11 63 98 3c
       -0.009562272 0.012937508 0.052168347 0.018601926
0001b0 9a 06 06 3d 44 38 7e bc 58 7d fc bb dc 41 0d 3c
       0.03272114 -0.015516344 -0.007705372 0.008621659
0001c0 d0 ad 9a bb 5d e9 45 bc d0 ba 47 3b 92 d9 29 bc
       -0.004720427 -0.012079564 0.003047634 -0.010366814
0001d0 7f 3a d4 bc 9b c0 07 3d 9d 41 1b 3d 27 12 ef 3b
       -0.0259068 0.033142667 0.03790437 0.007295865
0001e0 f3 6f b9 3b be 36 7d 3b cd 6b 74 bc e0 c3 1e 3c
       0.0056590973 0.0038637365 -0.01491828 0.009690255
0001f0 a3 89 06 3c 78 5a 1f bd cf ce e2 3c a1 67 eb bc
       0.008211526 -0.038904637 0.027686505 -0.028735938
000200 aa 8e 10 bc 87 a1 8e bc a9 b6 e5 3c 6f e1 fa bb
       -0.008823076 -0.017411007 0.0280412 -0.0076562683
000210 83 6d 27 3d 49 be 8b 3c 3f d0 44 3a 5c 3b d2 bc
       0.040875923 0.017058508 0.0007507838 -0.02566307
000220 ac 22 2c bb 22 bc df 3c 55 c2 13 bd c8 bb b8 bb
       -0.0026265783 0.027311388 -0.036074 -0.0056376196
000230 9f 60 83 bc e2 43 79 bc 01 8b 1a 3c fb 10 a9 bc
       -0.016037283 -0.015213938 0.009432555 -0.02063798
000240 63 09 e7 3b 14 6c c1 ba 52 e1 3f 3c a0 52 1f 3c
       0.0070506795 -0.0014756941 0.011711435 0.009724289
000250 50 44 5f ba d7 9c 94 bc 85 37 b0 bc e7 44 32 3b
       -0.0008516954 -0.018141193 -0.021510849 0.0027201714
000260 c3 54 c4 bb f2 40 4d 3d be ee 1f bc f3 4d ad 3b
       -0.0059915497 0.050110765 -0.00976151 0.0052888333
000270 75 d9 f5 3b ae ac 16 bc e2 aa 88 b9 80 06 6f bc
       0.0075027295 -0.0091964435 -0.0002606726 -0.014588952
000280 51 51 37 bd 89 88 8c 3b 81 6f d5 bc c2 5c 84 bc
       -0.044755284 0.004288737 -0.026054146 -0.016157512
000290 49 e6 a2 bb 28 49 2b bd 78 95 03 bd 08 0d 3d 3c
       -0.0049713 -0.041817814 -0.032124966 0.011538751
0002a0 fa 67 48 3b 5b df 8b bc 29 d8 ff bc 24 1f 6f bc
       0.0030579553 -0.017074278 -0.031231003 -0.014594827
0002b0 85 a4 24 3c 33 5d d6 3b bc b4 ce 3c 7e b6 8b bb
       0.01004899 0.006541872 0.025232665 -0.004263698
0002c0 43 c5 af bc 86 8c 1e bd 02 cc 78 3c 0e f0 c6 ba
       -0.021456366 -0.038708232 0.015185358 -0.0015177743
0002d0 22 ba c5 3c 77 e2 a8 bc f0 98 2a 3c 55 70 8d bc
       0.024136607 -0.0206158 0.01041244 -0.017265478
0002e0 6b 56 f0 3a 27 c6 b0 3b 8b 9c 5f 3c 3d 70 0d bd
       0.0018336301 0.0053947154 0.013648163 -0.034530867
0002f0 f8 4d 28 ba 68 67 a0 3c 29 b1 0a 3c 72 6b b2 bc
       -0.00064203097 0.019580558 0.00846509 -0.02177975
000300 c6 da 72 3c 1f f5 1c 3b 5c 54 c9 3c a8 81 db 3b
       0.014822667 0.0023949814 0.024576358 0.006698806
000310 1c d3 42 3b a4 c2 2f b9 0b 70 07 bb ba 7b 61 3c
       0.0029727882 -0.0001676181 -0.0020666148 0.013762409
000320 65 d7 ce b8 70 12 92 3c 34 86 b2 bc 20 7d fc 3b
       -9.862966e-05 0.017831057 -0.021792509 0.0077053457
000330 d7 ba 95 3c 6f c2 24 3d f0 6e 8e bb c3 4a 58 bb
       0.018277569 0.04022449 -0.004346721 -0.0033003546
000340 e1 ae fd bb 84 0b 3d 3c 2d d3 7b 3c 95 ae b2 bc
       -0.0077417945 0.01153839 0.015370172 -0.021811763
000350 dd 80 51 bc 8a d1 9a bc c5 72 26 bb 42 d1 8e bc
       -0.012787071 -0.018898744 -0.0025397998 -0.017433766
000360 c7 2a 05 bc 00 ae 13 3d ff 03 40 3c be b5 9c bc
       -0.008127875 0.03605461 0.011719703 -0.01912963
000370 28 71 da 3b 3e 51 be bc 32 8d 06 3c 47 a8 04 bd
       0.0066663213 -0.023232099 0.0082123745 -0.032387044
000380 e0 af ed bb 1f 12 b5 bb 82 f4 a5 3c f4 9c 9b 3b
       -0.007253632 -0.005525842 0.020258192 0.004748935
000390 c4 9c 7d ba 4c 3c 1a bc 9a b6 84 3c bc 82 22 bc
       -0.0009674544 -0.00941379 0.016200352 -0.009918865
0003a0 98 a2 ab 3c ad bf 6e 3a b5 24 32 bc c5 a2 22 3c
       0.020951554 0.00091075414 -0.010873009 0.009926503
0003b0 3e 03 d7 bc c1 e8 f5 3b 2b 81 99 b8 02 6e 3e 3c
       -0.026246663 0.007504553 -7.319668e-05 0.011622908
0003c0 d3 30 2c bc ef 1c a8 bb c8 f8 0b bc 76 51 3a bc
       -0.0105096875 -0.0051304023 -0.008543201 -0.011371961
0003d0 57 6e 38 bc 29 f1 b8 3c 82 cb 7a 3c 58 e8 0d 3a
       -0.011256776 0.022575932 0.015307309 0.0005413345
0003e0 20 74 21 3c 41 9a f3 bb f3 f9 08 bb 36 06 d9 3c
       0.0098543465 -0.00743416 -0.0020900934 0.02649222
0003f0 fa c7 ab bc a5 a7 75 3c c5 eb 12 3d 62 cf 3c 3d
       -0.02096938 0.014993583 0.03586938 0.046096213

action_model._continuous_distribution.mu.bias f4 [3]
000000 73 42 c7 39 10 e2 b1 ba c2 f7 69 3b
       0.00038005746 -0.00135714 0.0035700654

exp_avg f4 [128, 6]
000000 31 39 3b 3a cc c5 e3 37 95 64 a8 37 b7 a8 12 3a
       0.0007142006 2.7152615e-05 2.0073998e-05 0.00055945985
000010 1a c5 82 39 83 ae 3d 3a bf e3 8d ba 1f c1 6b b8
       0.00024942384 0.0007235782 -0.001082532 -5.6208224e-05
000020 45 b9 8b b9 4b 67 93 b9 a0 5c e5 b9 32 ac 04 bb
       -0.00026650183 -0.00028114984 -0.00043747295 -0.0020244238
000030 fe a6 ab 39 b9 f8 71 37 0f 96 68 b9 89 8f 3b b7
       0.0003274008 1.442263e-05 -0.00022181145 -1.1179488e-05
000040 31 db 83 38 76 e7 a1 39 7e 0c 1e 3a d3 ec ed 37
       6.287394e-05 0.00030880765 0.0006029083 2.8362881e-05
000050 4f 02 f7 38 bb 18 06 3a ad 05 3b 39 5c c2 89 3a
       0.00011778308 0.00051153795 0.00017835824 0.0010510194
000060 b6 33 98 3a e1 d7 82 38 0b c3 a4 38 a7 d9 73 3a
       0.0011612091 6.239094e-05 7.856459e-05 0.0009302147
000070 0c 55 e2 39 83 be 09 3b 82 62 ea 39 e0 b4 f9 37
       0.00043169444 0.0021018095 0.00044705352 2.976734e-05
000080 32 bc 11 39 e9 bf 83 39 71 5c 70 39 22 5f 84 3a
       0.00013898386 0.0002512925 0.0002292262 0.0010099153
000090 75 57 df b9 e7 04 d2 b6 b7 e1 c1 b8 ee ec 2e b9
       -0.00042599035 -6.2590584e-06 -9.245e-05 -0.00016682196
0000a0 fc dd f5 b8 b5 df a0 b9 1c 38 9b 3a a1 a7 27 38
       -0.00011723858 -0.00030684253 0.0011842283 3.997202e-05
0000b0 85 6c ff b6 ff 38 31 3a 8f bf d6 39 26 10 86 3a
       -7.6122255e-06 0.0006760507 0.00040959983 0.0010228201
0000c0 43 d4 50 ba 2f 15 29 b8 26 8e 5c b8 da 6d f4 b8
       -0.00079662 -4.031247e-05 -5.2584473e-05 -0.00011655288
0000d0 13 1b 44 b9 ee 27 b2 ba be 08 68 38 47 fd c5 35
       -0.00018702103 -0.0013592222 5.5321252e-05 1.4751357e-06
0000e0 17 e3 a2 b6 e5 52 8d 37 21 07 6c 37 c3 6b 16 38
       -4.854413e-06 1.684711e-05 1.4068356e-05 3.5863148e-05
0000f0 d9 ec 25 b9 40 9c b8 b6 36 e7 b2 37 f6 77 9c b8
       -0.00015823859 -5.501817e-06 2.132692e-05 -7.461004e-05
000100 f4 09 79 b8 fc 56 57 b9 4c f0 9d b6 09 48 9f 32
       -5.9375496e-05 -0.00020536402 -4.706939e-06 1.8542794e-08
000110 07 a6 45 b7 1d 5f b0 b7 3a be ce b6 96 b7 8b 36
       -1.1780771e-05 -2.1025126e-05 -6.1614237e-06 4.163895e-06
000120 0d b6 9b 3a a6 67 af 38 25 bf 02 39 ec 09 ca 39
       0.0011879817 8.363956e-05 0.00012468973 0.00038535835
000130 5a 49 10 3a 34 18 47 3b 47 c9 f7 39 8d 0d a1 37
       0.00055040943 0.0030379416 0.00047261475 1.9199006e-05
000140 af 89 fd b8 74 8f a4 b8 32 65 ae 38 1f 50 ea 39
       -0.00012089626 -7.8468496e-05 8.315816e-05 0.00044691653
000150 16 5c 79 39 2a 91 e2 37 b9 44 cd 38 60 cb ab 39
       0.00023780795 2.7008897e-05 9.787962e-05 0.00032767188
000160 2b e5 4e 39 72 74 8a 3a 41 fd d1 b9 69 b9 13 b8
       0.00019731063 0.0010563268 -0.00040052275 -3.5220208e-05
000170 b9 73 80 37 b8 89 c2 b8 c7 93 1c b9 b9 ca 75 ba
       1.5312677e-05 -9.276293e-05 -0.0001493237 -0.00093762163
000180 58 44 41 39 ff 7a 3e 37 bd 52 6d b8 22 ea 31 b9
       0.00018431374 1.135352e-05 -5.658226e-05 -0.00016967257
000190 e4 e9 cc 38 17 8c a3 39 f7 ff 2d b6 46 9c eb b3
       9.7710436e-05 0.00031194158 -2.5928e-06 -1.0971466e-07
0001a0 43 02 14 b6 22 90 0d b6 ac 85 00 b6 9a ca 55 b6
       -2.2055035e-06 -2.1094534e-06 -1.9151294e-06 -3.1857403e-06
0001b0 4d 4d 08 39 69 6a fc 36 eb 3e 0e 37 36 f1 4a 39
       0.00012998767 7.522573e-06 8.478509e-06 0.00019354079
0001c0 c0 06 ea 38 27 09 3d 39 b1 84 d3 ba d5 cc 9c b8
       0.00011159247 0.00018027854 -0.0016137568 -7.4768126e-05
0001d0 d9 4a b2 b8 c6 eb 1a ba 3c f2 ec b9 8f a0 2b bb
       -8.501643e-05 -0.0005909767 -0.00045193906 -0.002618823
0001e0 17 3c 12 ba 5c 0e 30 b8 0f bc 79 b9 c8 14 e2 b9
       -0.0005578412 -4.1975043e-05 -0.00023816548 -0.00043121562
0001f0 4b 9c 91 b9 30 81 ca ba 48 e8 13 b6 f8 54 42 b5
       -0.00027773003 -0.0015449878 -2.2039912e-06 -7.239428e-07
000200 5e cf ac b6 c0 04 fb b5 2b d1 b9 b6 62 c3 d9 b7
       -5.15014e-06 -1.870234e-06 -5.53778e-06 -2.5959398e-05
000210 a4 53 f1 b6 dc d2 89 b7 83 78 a6 b8 d3 9e 87 b7
       -7.1920967e-06 -1.6429862e-05 -7.937944e-05 -1.6167212e-05
000220 da c8 99 b8 8f a2 1a ba e0 02 7e ba a2 7b 27 b8
       -7.33302e-05 -0.0005898857 -0.00096897595 -3.9931045e-05
000230 85 d6 4c 37 af 11 3b b9 ca 9f 9b b9 1f 5d af ba
       1.2209294e-05 -0.00017840297 -0.00029682956 -0.0013379193
000240 91 c9 84 37 2f ab 93 b6 cd f1 75 b6 3a 03 39 38
       1.5829488e-05 -4.40087e-06 -3.6648592e-06 4.4110442e-05
000250 93 61 d2 b6 f8 71 1d b9 fc 5b 8e 3a a1 2d 3f 38
       -6.269847e-06 -0.00015015143 0.0010861154 4.5580444e-05
000260 89 58 6e 39 bc cd b2 39 08 21 d8 39 2c 5f d2 3a
       0.0002273043 0.0003410409 0.0004122334 0.0016050092
000270 57 49 8f ba e2 0a 6e b8 45 00 02 b9 49 81 9e b9
       -0.0010931891 -5.6753757e-05 -0.00012397867 -0.00030232433
000280 ac 56 d4 b9 5c 70 05 bb 96 bc 8c b7 fe 09 7b 34
       -0.00040500367 -0.002036116 -1.6777118e-05 2.3379832e-07
000290 6a 7e ea 36 42 3f 6d 37 a0 08 b8 36 6f 4b 20 37
       6.98846e-06 1.4141029e-05 5.4846314e-06 9.554306e-06
0002a0 2c b1 7c b9 3c 75 26 b7 04 5b 40 b7 ad 8d 0b b9
       -0.00024098594 -9.921667e-06 -1.1465283e-05 -0.00013308851
0002b0 e8 42 be b7 5c b5 af b9 bc c6 b4 38 2a 0d b9 37
       -2.268092e-05 -0.00033513724 8.620086e-05 2.2059849e-05
0002c0 57 93 57 39 fd 8c 90 39 62 7c ed 38 c2 7b 7d 3a
       0.00020558886 0.00027570865 0.00011324209 0.00096696254
0002d0 49 e3 30 3a 64 1e 30 38 a4 fc a2 b7 8f 99 a6 39
       0.00067477353 4.1989973e-05 -1.942955e-05 0.00031776397
0002e0 40 23 83 39 af 4b b6 3a 6d 93 d9 3a c7 61 a0 38
       0.0002501253 0.0013908054 0.0016599722 7.647607e-05
0002f0 53 96 cc 38 8c 03 60 3a e4 23 14 3a 5b b4 2f 3b
       9.755478e-05 0.00085454504 0.00056511 0.002681038
000300 19 c5 30 3a f5 2b f1 37 8c a1 56 39 31 98 c4 39
       0.0006743237 2.8749908e-05 0.00020468811 0.00037497425
000310 c1 6f b2 39 a6 24 95 3a 2f db bb b2 48 62 1d b2
       0.0003403407 0.001137872 -2.1869338e-08 -9.160949e-09
000320 2a 81 8a 33 01 37 64 33 15 0a 69 b3 44 ad 86 b4
       6.4496206e-08 5.3135413e-08 -5.425871e-08 -2.5085512e-07
000330 cd 73 98 b9 af ad ff b7 91 40 13 b9 c4 c7 18 ba
       -0.00029077978 -3.0479247e-05 -0.00014043065 -0.0005828107
000340 2b 4f c4 b7 6b 61 98 ba 06 1d 48 ba 5b df 3a b8
       -2.3401886e-05 -0.0011625713 -0.00076337194 -4.455387e-05
000350 fb b4 80 38 be fd 5a b9 d5 2e a6 b9 9c 25 c2 ba
       6.137226e-05 -0.00020884626 -0.0003169688 -0.0014812234
000360 46 b7 a3 38 c1 eb f2 36 03 4a 69 b8 fa 47 91 39
       7.806583e-05 7.2396074e-06 -5.5620458e-05 0.00027710182
000370 bb ba 05 38 df 7e 56 39 4f 3e 63 39 66 84 d7 36
       3.1883577e-05 0.00020455894 0.00021671619 6.4229125e-06
000380 6b d6 fa 38 ef 50 63 b7 c4 ae 82 37 ad 49 49 39
       0.000119608674 -1.3549098e-05 1.557859e-05 0.000191963
000390 be df 68 ba 42 79 41 b8 2e 91 01 b9 f7 3f 19 b8
       -0.0008883438 -4.6127716e-05 -0.00012356482 -3.6537615e-05
0003a0 d4 4e 5d b9 a0 75 e1 ba e9 56 ba 37 a1 c1 d5 35
       -0.00021105568 -0.0017201193 2.2213399e-05 1.592609e-06
0003b0 33 f9 d4 b6 47 42 8e b7 ae 5f 90 37 28 1b 20 38
       -6.347103e-06 -1.6958582e-05 1.7210692e-05 3.8172264e-05
0003c0 60 e1 33 37 50 7a 0c 35 10 d5 b7 34 0d 19 16 37
       1.0721706e-05 5.233205e-07 3.424143e-07 8.946529e-06
0003d0 ad 94 e3 35 56 1b 89 37 d1 de c8 39 01 49 76 37
       1.6956088e-06 1.6344402e-05 0.00038312984 1.467974e-05
0003e0 be a8 8a 39 7d dd cb 38 ea 19 bb 38 94 6b e3 39
       0.00026447134 9.72105e-05 8.921682e-05 0.00043376966
0003f0 7e f9 25 b6 f7 cb cc 35 af 1f 45 37 a8 eb 8c 37
       -2.473214e-06 1.5258546e-06 1.1749492e-05 1.6799037e-05

exp_avg_sq f4 [128, 6]
000000 3e 76 ff 35 25 45 8c 31 2e 81 b7 34 4f 3f 94 35
       1.9033394e-06 4.082397e-09 3.4180397e-07 1.1045285e-06
000010 13 c8 75 34 92 c2 c9 36 f7 84 29 36 2a 75 ba 31
       2.289019e-07 6.0129178e-06 2.5260358e-06 5.4266325e-09
000020 1f 04 92 34 c3 0a 70 35 d9 b6 da 34 cd 48 02 37
       2.7197618e-07 8.942263e-07 4.0738703e-07 7.765554e-06
000030 ed d4 d1 36 4e 95 82 32 94 7e 11 35 b9 43 b0 35
       6.253473e-06 1.5201888e-08 5.4200905e-07 1.3132732e-06
000040 de dd 7c 35 81 58 bb 37 fc a6 12 36 3b 9b b9 31
       9.4200175e-07 2.233335e-05 2.1852893e-06 5.4018563e-09
000050 46 b1 8c 34 75 ad 7d 35 58 9c a2 34 3b 62 06 37
       2.6206015e-07 9.450226e-07 3.0288606e-07 8.0098935e-06
000060 5a 31 7b 36 83 fc f7 31 1d 74 a5 34 73 ed e5 35
       3.743064e-06 7.2173534e-09 3.0818128e-07 1.7130936e-06
000070 80 c4 ca 34 1c 20 31 37 20 ed 76 35 08 54 5a 31
       3.7768405e-07 1.0557498e-05 9.1987204e-07 3.1770941e-09
000080 69 4c 62 34 76 ca 2f 35 08 72 67 34 d2 1a 9a 36
       2.1075688e-07 6.54872e-07 2.1555036e-07 4.59268e-06
000090 dc 1e c3 35 b9 09 e1 30 82 7e 78 32 32 01 81 34
       1.4537613e-06 1.6373668e-09 1.44642645e-08 2.4028992e-07
0000a0 12 b2 02 34 51 76 0d 36 28 54 f2 36 ab cd 77 32
       1.2171975e-07 2.1079506e-06 7.221959e-06 1.4424056e-08
0000b0 f7 64 2e 35 98 7f 51 36 8d aa 4e 35 33 e1 b4 37
       6.4966974e-07 3.1217696e-06 7.6989164e-07 2.1562539e-05
0000c0 c4 40 8e 36 b0 c5 ff 31 ed 54 b6 34 de d9 93 35
       4.2394695e-06 7.4439512e-09 3.3961933e-07 1.1015761e-06
0000d0 79 1e ee 34 a1 c8 36 37 d5 c3 89 31 98 d9 d2 2d
       4.4353126e-07 1.0894758e-05 4.0094883e-09 2.3970867e-11
0000e0 01 d8 0e 30 e4 dc ef 30 3d a4 eb 30 3a 1a fe 32
       5.196626e-10 1.745232e-09 1.714518e-09 2.9581418e-08
0000f0 84 80 f0 34 6c 89 99 30 40 2e 96 33 5e 14 a4 34
       4.479699e-07 1.1171273e-09 6.993332e-08 3.05622e-07
000100 20 3c 81 33 90 01 d5 35 57 5f 90 32 a4 9c 87 2d
       6.017967e-08 1.5870191e-06 1.6807162e-08 1.5417286e-11
000110 d2 64 12 31 65 3c 09 31 2e 73 df 30 07 b4 6e 32
       2.1303106e-09 1.9970454e-09 1.6258122e-09 1.3894357e-08
000120 4b cf 9a 36 22 f9 5d 32 fe d1 18 35 63 be e0 35
       4.6136897e-06 1.2920539e-08 5.692999e-07 1.674471e-06
000130 d0 38 4f 35 ee 76 a0 37 70 a1 8c 36 ea be 4f 32
       7.719618e-07 1.9128867e-05 4.191119e-06 1.2092395e-08
000140 f0 51 46 35 b2 16 f9 35 74 b1 30 35 fb 3a 98 37
       7.387998e-07 1.8558551e-06 6.582334e-07 1.8147277e-05
000150 ac d2 91 35 30 6c 63 31 87 9f a1 34 7c 90 44 35
       1.0864655e-06 3.3094345e-09 3.0104658e-07 7.322594e-07
000160 c3 70 4f 34 68 25 aa 36 f0 f5 87 36 b6 5d 38 32
       1.93194e-07 5.0707495e-06 4.0519444e-06 1.0731517e-08
000170 a8 6d 05 35 bf 34 e1 35 fa 4b 21 35 8d 84 82 37
       4.970593e-07 1.6779157e-06 6.0087734e-07 1.5558931e-05
000180 ce d9 8d 34 f9 1b 82 30 eb 12 9a 33 42 99 5f 33
       2.642177e-07 9.466695e-10 7.174625e-08 5.206062e-08
000190 c2 69 07 34 0f 44 9a 35 1e 9b 97 2e d5 a0 8b 2a
       1.2611329e-07 1.1493702e-06 6.894239e-11 2.480296e-13
0001a0 65 f8 41 2e f6 e4 bb 2e 3a d8 a1 2d e6 34 7c 2f
       4.4103738e-11 8.544447e-11 1.8399605e-11 2.293806e-10
0001b0 06 ad bb 35 1f 89 43 31 d4 21 3b 34 81 3b 15 35
       1.3982942e-06 2.845418e-09 1.7428039e-07 5.5593415e-07
0001c0 39 a8 39 34 d0 d5 8a 36 41 ca e1 36 31 9d 19 32
       1.7290667e-07 4.1376115e-06 6.729068e-06 8.941513e-09
0001d0 1e df 4e 34 ef a9 b2 35 2c 0b 27 35 c8 a8 51 37
       1.9266415e-07 1.3311491e-06 6.2228605e-07 1.2496668e-05
0001e0 46 f2 a7 35 44 a2 90 31 ab fb a8 34 f6 6e 8e 35
       1.251298e-06 4.209399e-09 3.147555e-07 1.0612118e-06
0001f0 25 a8 76 34 bc 2d d0 36 64 29 02 30 24 5d 45 2d
       2.2971706e-07 6.2042072e-06 4.7352544e-10 1.1218835e-11
000200 fb e6 6d 31 57 91 b3 30 f1 49 cc 30 61 d2 42 32
       3.4619336e-09 1.3065272e-09 1.4863969e-09 1.1340121e-08
000210 77 1c a5 32 64 0e ac 30 a6 5e be 33 0a 62 17 34
       1.9221472e-08 1.2518737e-09 8.864781e-08 1.4098637e-07
000220 ad 4e c8 33 ca 37 ea 35 97 b7 3b 36 c5 f9 90 31
       9.327537e-08 1.7450595e-06 2.7972035e-06 4.219347e-09
000230 9d ee 84 33 2f 2c cd 34 96 db 64 34 2c c2 c9 36
       6.1901325e-08 3.8216373e-07 2.131404e-07 6.0128714e-06
000240 1c fa 8e 33 64 88 f3 2e af e5 c4 2f 6a 9f 14 32
       6.657885e-08 1.10745885e-10 3.5815392e-10 8.65098e-09
000250 6c 9e c3 30 34 95 f7 33 2c 9b 3c 36 05 bd 63 31
       1.4233144e-09 1.1528974e-07 2.8104505e-06 3.3140293e-09
000260 bb 3a 62 34 eb 2f 32 35 7c 50 63 34 fd 9e a1 36
       2.1069256e-07 6.6379897e-07 2.1170302e-07 4.8166826e-06
000270 fc 20 26 36 1c d1 94 31 80 2c 2f 34 c6 f0 24 35
       2.4755127e-06 4.33114e-09 1.6314334e-07 6.144513e-07
000280 13 c8 8f 34 f7 33 cc 36 86 95 71 31 3f 0b af 2d
       2.67814e-07 6.0857233e-06 3.515511e-09 1.9900191e-11
000290 6c 0a e7 31 af f2 4f 32 df ef b8 30 91 e5 a8 32
       6.7241697e-09 1.2104166e-08 1.3455937e-09 1.9662169e-08
0002a0 40 02 b7 35 a8 b6 f9 30 45 af 01 33 bd fa e2 34
       1.3635217e-06 1.8169048e-09 3.019456e-08 4.2278216e-07
0002b0 e4 7e ea 33 e1 d4 28 36 3c f1 b6 35 cf 9b ae 31
       1.09195554e-07 2.5157863e-06 1.3630265e-06 5.08178e-09
0002c0 0b bf f4 34 b3 4c b3 35 46 3a 8d 34 84 22 06 37
       4.5587544e-07 1.3358862e-06 2.6305696e-07 7.995059e-06
0002d0 9c 5e da 35 8f 8d 77 31 0a 59 09 34 d2 59 fc 34
       1.6269801e-06 3.6023697e-09 1.2791511e-07 4.700401e-07
0002e0 37 53 67 34 06 5c af 36 34 1c b7 36 61 48 40 32
       2.1543825e-07 5.2261194e-06 5.4571083e-06 1.1192328e-08
0002f0 59 a5 cf 34 d6 9e fa 35 c6 86 42 35 eb ab 89 37
       3.867706e-07 1.8672679e-06 7.2466753e-07 1.6411728e-05
000300 83 4d 41 36 99 75 00 32 b9 10 f4 34 98 bd 95 35
       2.8804359e-06 7.477319e-09 4.546071e-07 1.1156544e-06
000310 a7 a2 e1 34 19 d3 37 37 fd af 0e 2c 17 db 5e 29
       4.202786e-07 1.09568e-05 2.0277107e-12 4.9483932e-14
000320 72 02 9b 2b e1 47 27 2c e5 b1 91 2b d0 1c 39 2e
       1.1014091e-12 2.3772028e-12 1.0352245e-12 4.208972e-11
000330 52 76 ec 34 2a ea 17 31 d8 c7 50 34 b9 57 6e 35
       4.4044515e-07 2.2106499e-09 1.9444212e-07 8.878956e-07
000340 b6 af 01 34 1a 81 5b 36 9e ef 92 36 2a a3 2a 32
       1.2077984e-07 3.270869e-06 4.379034e-06 9.932402e-09
000350 14 6b 8a 34 0a ae af 35 7b cb 1e 35 f1 49 7a 37
       2.5782413e-07 1.3089168e-06 5.915569e-07 1.4918377e-05
000360 97 8b a3 35 b7 24 c7 30 71 b1 00 34 ad f8 3a 35
       1.2185072e-06 1.4489591e-09 1.1985482e-07 6.965227e-07
000370 0f d2 03 33 0c 42 fe 35 80 f2 dd 32 4d 92 c3 2d
       3.069186e-08 1.8943697e-06 2.5838062e-08 2.2233904e-11
000380 8a c3 aa 31 f2 e2 84 30 c7 bf 9f 30 92 95 a7 32
       4.9698814e-09 9.668766e-10 1.1623279e-09 1.9509375e-08
000390 8b 7c 8a 36 d8 61 0a 32 0a 29 fb 34 2d 39 f3 35
       4.127219e-06 8.054904e-09 4.6782253e-07 1.8121551e-06
0003a0 86 41 12 35 57 e2 45 37 6a 93 b4 31 05 cc 21 2f
       5.448459e-07 1.1794814e-05 5.2554485e-09 1.4715347e-10
0003b0 fd a4 2d 32 c0 bd 1f 32 52 e2 30 31 6d 9c 40 34
       1.0107439e-08 9.298162e-09 2.574002e-09 1.7938301e-07
0003c0 ee a1 3c 2f c6 45 09 2b 2c b2 b7 2b d0 06 3f 2f
       1.715603e-10 4.876901e-13 1.3052385e-12 1.7373769e-10
0003d0 2b b8 8d 2d 01 1a f5 2f a6 4d d4 33 28 74 33 30
       1.6111631e-11 4.4583717e-10 9.8861435e-08 6.528489e-10
0003e0 e8 96 51 34 90 d9 07 34 d7 43 31 33 19 ae 74 35
       1.9519541e-07 1.2652004e-07 4.1272724e-08 9.115043e-07
0003f0 37 e6 2e 31 ce 32 b9 2e 43 6f 7a 32 af 5e fa 32
       2.5451194e-09 8.421851e-11 1.4577213e-08 2.9146888e-08

exp_avg f4 [128]
000000 f0 8b 63 38 5b 84 eb b8 c9 b5 f1 37 77 ae 6d 38
       5.4251344e-05 -0.00011230326 2.881409e-05 5.6667686e-05
000010 04 b6 02 39 08 73 79 38 5a cf 51 b7 bc 7d a7 38
       0.00012465572 5.9473357e-05 -1.2505649e-05 7.9866004e-05
000020 9e e9 a8 b8 0f c3 45 36 7b 67 38 b7 49 f5 1c 33
       -8.054379e-05 2.9468827e-06 -1.0991348e-05 3.6544666e-08
000030 e6 39 2f 39 76 e4 20 38 9e 55 62 38 f7 92 93 b8
       0.0001671087 3.8359743e-05 5.3962336e-05 -7.0368806e-05
000040 e8 49 be 37 80 6f 6b b4 5b 2a 7c 37 c3 a4 1c b9
       2.268418e-05 -2.1926644e-07 1.5030232e-05 -0.00014938698
000050 98 e0 af b8 c1 25 c2 b5 65 b3 09 b8 54 50 a7 b8
       -8.386484e-05 -1.4465114e-06 -3.283042e-05 -7.978143e-05
000060 95 85 13 b7 81 fd be 38 31 cd ed b8 51 21 fb 34
       -8.792985e-06 9.107125e-05 -0.000113392605 4.6776634e-07
000070 95 4a a6 b7 05 dc 38 38 d5 f0 af 38 51 38 20 39
       -1.9823472e-05 4.4073928e-05 8.389509e-05 0.00015279769
000080 1c ed 70 38 c6 2a 9d b2 89 6a 7f b8 82 af ba b8
       5.7441284e-05 -1.8296657e-08 -6.0895956e-05 -8.901862e-05
000090 33 b9 72 37 d6 4d 57 37 90 47 c1 b8 7b 86 55 36
       1.4467444e-05 1.2833121e-05 -9.216287e-05 3.1817751e-06
0000a0 5b 56 8c 35 7d 0b f6 37 d7 9c 4c 36 68 f9 58 b8
       1.0455946e-06 2.9330835e-05 3.0489662e-06 -5.173069e-05
0000b0 9e 79 06 b3 80 94 13 38 5b 10 51 b6 b2 6d 72 b8
       -3.1309916e-08 3.5185833e-05 -3.1152947e-06 -5.7799458e-05
0000c0 3d be af 37 c0 ca 58 b9 e6 05 e7 34 18 53 fe b8
       2.0950212e-05 -0.00020674895 4.3031395e-07 -0.00012127141
0000d0 3b 7b ed 38 68 13 89 b8 07 8a bb b7 f0 81 cf b7
       0.00011323994 -6.536284e-05 -2.2356411e-05 -2.473683e-05
0000e0 1d 87 bd b8 5e 84 5f b8 c5 62 c6 b8 06 4c 9e b7
       -9.037389e-05 -5.329062e-05 -9.459773e-05 -1.8870469e-05
0000f0 72 81 07 38 03 69 a8 b8 a0 86 31 38 a7 7b 07 38
       3.2307064e-05 -8.030424e-05 4.2325468e-05 3.230167e-05
000100 23 75 0f 35 67 87 77 b8 02 a6 7d 36 d9 86 13 39
       5.344211e-07 -5.9015492e-05 3.7796567e-06 0.00014069247
000110 7f 68 5d b5 78 1c 80 30 5d d9 bf 35 8f 05 c9 b8
       -8.248098e-07 9.321317e-10 1.429387e-06 -9.585462e-05
000120 36 ee 13 b8 b3 b5 c1 38 09 3b f4 b5 ec 62 e6 b7
       -3.5269382e-05 9.236801e-05 -1.8196598e-06 -2.74642e-05
000130 13 42 0b 38 d8 b7 ab b5 ee 4c 50 36 34 77 cf b7
       3.320172e-05 -1.2793998e-06 3.1039194e-06 -2.4731831e-05
000140 b4 04 0c b8 8b eb 26 39 8b be 03 b8 90 55 4f b8
       -3.338298e-05 0.0001591874 -3.141029e-05 -4.9432332e-05
000150 17 79 32 36 43 6d 0b 38 76 0b 62 b8 fc 3d 32 37
       2.659455e-06 3.324194e-05 -5.3893273e-05 1.0624059e-05
000160 f8 47 e1 b8 44 cf 6c 38 37 79 e6 34 82 d9 43 36
       -0.00010742241 5.6459816e-05 4.2929034e-07 2.918387e-06
000170 f5 9d 61 38 cf 8c 66 b8 b0 ee 78 b5 61 56 26 38
       5.379129e-05 -5.496741e-05 -9.2734535e-07 3.965793e-05
000180 3a c3 5d 38 4f eb 55 36 0c da 0f b9 1a 19 c8 b6
       5.2872325e-05 3.187644e-06 -0.00013718772 -5.9633867e-06
000190 55 bd 81 36 bf 4d 20 b8 30 18 dc b8 6e 5d 7b 38
       3.8665407e-06 -3.821938e-05 -0.00010494923 5.9930077e-05
0001a0 4f 17 19 38 92 06 a4 36 82 e1 1a 38 3a fb f8 35
       3.649975e-05 4.8883458e-06 3.692648e-05 1.8550556e-06
0001b0 d3 39 20 34 eb 08 90 b6 a9 56 44 b5 21 66 40 35
       1.4922198e-07 -4.2925726e-06 -7.3141797e-07 7.167419e-07
0001c0 62 dd ed 38 c3 7e a6 b8 c7 d9 96 b8 ae 29 05 b9
       0.000113422764 -7.939108e-05 -7.1931216e-05 -0.00012699395
0001d0 c2 c4 ab 36 b7 61 40 b6 e1 86 dd b7 35 b3 b9 b7
       5.1191028e-06 -2.8667107e-06 -2.640806e-05 -2.2137168e-05
0001e0 e4 9d 0a b7 9d db 72 38 4c 16 a5 b7 97 94 ee 38
       -8.262203e-06 5.7901827e-05 -1.9679916e-05 0.000113764014
0001f0 d4 a3 f0 37 a5 85 b4 b8 54 fb 18 36 28 2c 4f b8
       2.8686518e-05 -8.607962e-05 2.2796057e-06 -4.939377e-05
