MLAgentsProject/results/MoveToGoal4/MoveToGoal/MoveToGoal-37123.onnx (onnx, 72981 bytes, 7 tensors)

action_model._continuous_distribution.log_sigma f4 [1, 3]
000000 3d dd d3 ba 3e f8 50 bc 01 36 b4 bb
       -0.0016163957 -0.012754498 -0.005499602

action_model._continuous_distribution.mu.bias f4 [3]
000000 c4 94 3e 3a 10 4d a0 b8 ef 6f 1e b9
       0.00072700926 -7.6437485e-05 -0.00015109753

action_model._continuous_distribution.mu.weight f4 [3, 128]
000000 64 3d 6f 39 e4 44 2a 3c f2 d8 34 bc 9c e7 be 3c
       0.00022815686 0.010392401 -0.011038052 0.0233038
000010 2d c6 c6 bc 02 22 a8 3b 1f ac 16 bc 4c 91 6b ba
       -0.02426442 0.005131007 -0.00919631 -0.00089861895
000020 12 41 3e bb 3b 25 8b bc a2 1d 6c bc b3 4a 60 bb
       -0.0029030484 -0.016985526 -0.014411362 -0.0034224212
000030 fa eb ee bc b9 60 3c ba a3 40 25 bd fb 50 5a bb
       -0.029165257 -0.00071860437 -0.040344846 -0.0033312428
000040 b7 79 17 3d 14 96 8b 3c 28 41 c5 bb ab bb bc bc
       0.03698131 0.017039336 -0.00601973 -0.023038706
000050 c1 c3 cb ba cf 54 b5 3c fc b3 42 3c ba 44 b8 ba
       -0.001554601 0.022135166 0.011883732 -0.0014058568
000060 b5 d7 11 3c 15 d2 04 bc 40 63 cb 3c 7b ee e9 3c
       0.008901526 -0.008106728 0.0248276 0.0285561
000070 7d 1c a5 bc 89 22 b5 bb 9c 5e 80 3b c5 d4 bf bb
       -0.020155186 -0.0055277986 0.0039175283 -0.0058542215
000080 00 a6 f1 bb 78 18 4a 3b da ac 37 bd f9 5f 8e bb
       -0.007374525 0.0030837338 -0.04484258 -0.004344937
000090 b5 af 8a 3b fa ed 2e 3c 00 cc a3 bc fd 61 6b bc
       0.0042323717 0.010676855 -0.019994736 -0.014366624
0000a0 92 00 9c bc 12 5e ab 3b 4f 93 27 bb 14 6d 9e 3c
       -0.01904324 0.00522972 -0.002556998 0.019339122
0000b0 c4 b7 7b bc 03 55 69 bc 0d 2f 8a bc 07 9a e0 bc
       -0.015363637 -0.01424146 -0.016868139 -0.027417196
0000c0 33 f4 63 bb 9a 63 be bb 56 39 2a 3c 8e fb e2 3b
       -0.0034783005 -0.0058102133 0.0103896465 0.0069269603
0000d0 b4 83 78 3c e7 f6 76 3d a5 1a 8a bc 27 33 65 3c
       0.015168119 0.06029406 -0.016858408 0.013989246
0000e0 46 f5 df 3c 6e 7e f5 ba 06 8e 98 3c cb 5d 2f 3c
       0.027338635 -0.0018729696 0.01862241 0.010703514
0000f0 24 92 ac 3c f6 15 88 bc 32 97 b0 3b 54 12 9c bb
       0.021065779 -0.016612034 0.0053891176 -0.004762927
000100 e6 b2 d8 bb 67 d1 5e bb 9e 0a 4f 3c 9f 33 8c bc
       -0.006613123 -0.0033999325 0.012636809 -0.017114459
000110 bb 95 c1 bc 63 2b 1f bc 64 6c 00 3d 99 35 42 3c
       -0.023630967 -0.009714934 0.03135337 0.011853599
000120 bb cb 14 bc ba a1 82 bc d2 fc 4f bc 86 f7 8b 3c
       -0.009081776 -0.015946258 -0.012694554 0.017085802
000130 70 79 02 ba 2e 1e 83 3c 4d e2 ed bb 39 11 87 bc
       -0.0004977202 0.016005602 -0.007259643 -0.016487705
000140 8e d4 a3 3c 40 99 31 bd f9 0d 69 bb a4 2c 50 bc
       0.019998815 -0.04335904 -0.0035561307 -0.012705956
000150 eb ea ac 3c bc 3f 86 3b 25 28 66 3c 72 17 be 3c
       0.021108111 0.004096953 0.014047657 0.023204539
000160 91 14 ce 3b 86 61 21 3d f8 db 20 bc 3f 23 15 bd
       0.006289073 0.039399646 -0.00981807 -0.036410566
000170 d4 c2 5d bc 68 da c3 3c f3 a0 cd bc a3 6c 1c 3c
       -0.01353522 0.023907855 -0.02510116 0.009547385
000180 9d ca 85 bb d4 1b ed bc 4f 95 77 bb dd dc ff bb
       -0.0040829913 -0.028943934 -0.0037778204 -0.0078083114
000190 e9 3d fa 3b a4 fc 2f 3c 3e 00 92 bc 14 52 8f bc
       0.007636775 0.010741387 -0.017822381 -0.017495193
0001a0 e2 b1 e3 bc 2a ef d5 3b 53 a6 ec 3b b9 bd 9e 3c
       -0.027794782 0.0065287547 0.007221976 0.019377576
0001b0 e1 ae 03 3c 7e 68 e3 3b 41 e8 c3 bc 0c 57 b8 bb
       0.0080373 0.0069399467 -0.023914458 -0.005625611
0001c0 9a 7e 81 ba e5 5b 02 bc 1e c3 04 bc cf 93 2a 3c
       -0.0009879649 -0.00795648 -0.00810316 0.010411217
0001d0 c2 71 2f ba 70 a6 57 bc c8 0f 42 3b 17 f1 36 bc
       -0.00066926714 -0.01316224 0.0029611457 -0.011165879
0001e0 53 74 40 bc 32 67 ad bc c3 e4 b2 bc 3b 55 8e 3b
       -0.011746484 -0.021167371 -0.021837598 0.0043436564
0001f0 fc 92 bf bc ee 34 0f 3d ad 95 31 bb fc b7 a8 3b
       -0.023385517 0.034962587 -0.002709727 0.005148886
000200 f0 79 b8 3c 81 72 aa 3b bc b0 db ba 53 4e 1a bc
       0.022519082 0.005201638 -0.0016761045 -0.009418088
000210 2b f6 85 36 9a 29 d2 bc 6f 61 4a bb 73 6f 19 bc
       3.9923666e-06 -0.025654603 -0.003088083 -0.0093649505
000220 97 51 9e bc 7f c2 04 3d b3 47 b0 bb 15 4e 59 3c
       -0.019326014 0.03241205 -0.005379641 0.013263245
000230 39 9d dc bc 2d 31 78 bc b7 96 aa 3b 3c f5 d5 35
       -0.026930438 -0.015148443 0.005205955 1.5941109e-06
000240 74 58 a8 bc 93 b8 c8 3c 08 97 f6 3b 7b 17 40 bb
       -0.02054999 0.024502074 0.0075253285 -0.002931087
000250 56 4a de bb db 43 9c bc 0a ea b8 3c c0 92 a8 3b
       -0.006783764 -0.019075325 0.022572536 0.005144447
000260 62 2e 44 3c cc a4 ea bb fa ea e1 ba 36 b4 44 3c
       0.011973949 -0.0071607586 -0.0017236166 0.012005856
000270 0e f1 2f 3c 08 22 42 3c f4 a6 5f 3b 7f 12 12 3c
       0.010738624 0.011848934 0.0034126611 0.008915543
000280 3e 59 75 bb 3f f8 b2 b9 d6 b9 69 bc ae 5f c8 3b
       -0.0037437226 -0.00034135763 -0.014265498 0.0061149215
000290 93 8c 55 bc 33 2d 34 bb 3d d3 35 bc 1f 9d bb bc
       -0.013034004 -0.002749276 -0.011097726 -0.02290207
0002a0 43 93 76 bc 18 d4 10 bb 58 56 b5 3c 6f df 13 3c
       -0.015049758 -0.0022099074 0.022135898 0.009025439
0002b0 d9 1f ff 3c ff ce ef 3b c1 bb 81 39 6b 0f 78 3b
       0.031143116 0.007318377 0.00024744685 0.0037850987
0002c0 b0 96 49 bb ff 19 03 3c 11 79 92 3c bf cb af bb
       -0.0030759983 0.008001803 0.017879995 -0.0053648646
0002d0 3b a2 ef 3a d0 45 3f 3c e1 91 6c 3c 9d 54 c5 3b
       0.0018282601 0.011674359 0.014439077 0.0060220496
0002e0 38 6e a5 bc bf b9 3e 3d 15 cf 84 bb af f1 de bb
       -0.020194158 0.04656386 -0.0040530064 -0.0068037133
0002f0 68 15 4a 3c 95 4c 72 3c 41 bf 2d 3c a2 6f 00 ba
       0.012334205 0.014788766 0.0106046805 -0.0004899447
000300 e8 5b b3 ba af 27 ba 39 14 78 cd bc c3 27 20 3c
       -0.0013684006 0.0003550625 -0.025081672 0.009775105
000310 04 93 af 3b 0f 86 12 3d 0f 79 4e bb 82 7e b4 3c
       0.005358102 0.03577238 -0.0031505262 0.02203298
000320 7c 34 e0 3c b1 86 28 bb f4 95 a1 3c df c4 ad bc
       0.027368777 -0.0025715048 0.019724824 -0.02121204
000330 4d 19 bd 3c cb 53 2f bc 71 f2 e1 3c ef a1 b5 bb
       0.023083353 -0.01070113 0.027581425 -0.0055429856
000340 fc 77 37 3c 15 7c 06 3c 1a f8 63 3c ce 07 9f bc
       0.01119804 0.008208294 0.0139141325 -0.019412901
000350 4a 47 18 bc 30 97 44 bc 4f 54 9c bb 47 15 0e bc
       -0.00929434 -0.0119989365 -0.0047707926 -0.008672065
000360 7f 6f 06 3c 7f b7 ed 3b fa f0 f2 bb de 13 b1 3c
       0.008205294 0.0072545405 -0.0074139806 0.021615919
000370 42 a4 a5 bc 38 00 1f 3c b6 e0 41 3c 1a 42 7f 38
       -0.020219926 0.009704642 0.01183336 6.08583e-05
000380 00 96 2b 3c 1d 4d 99 3c ba 98 cc bc 52 6e 98 3c
       0.0104727745 0.018713528 -0.02497517 0.018607292
000390 63 be 27 bb 64 12 8e 3b 8a ec 6c bc e1 ef ef 3c
       -0.0025595657 0.0043356884 -0.014460692 0.029289188
0003a0 f8 cd ad bc 90 5f a6 bb d3 6f 41 bc aa 91 c2 bc
       -0.021216378 -0.00507731 -0.011806446 -0.023751099
0003b0 4a f3 fc bb c1 28 b3 3b 8d da e3 3b a5 5f 11 3c
       -0.007719432 0.0054675047 0.0069535435 0.008872901
0003c0 3c ec a5 bc 8c 34 1b 3d d4 7b 3f bc 08 ea b9 bb
       -0.020254247 0.03789191 -0.011687238 -0.0056736507
0003d0 54 ad b3 3c 17 ec 1c bc db d4 50 3c e3 61 f4 bb
       0.021933235 -0.009577773 0.012746061 -0.007457958
0003e0 90 11 e9 3c 3d a0 58 bb 85 b2 a7 3b 82 f0 c9 3c
       0.028450757 -0.0033054494 0.0051177167 0.024650816
0003f0 96 0d 73 3a db 57 6a bc 7b c3 8c bc 21 e5 c9 3c
       0.0009271739 -0.014303173 -0.017183056 0.02464539

network_body._body_endoder.seq_layers.0.bias f4 [128]
000000 33 e2 2c 3b 28 e7 8e bb 3c 74 ee 3a b3 d4 84 ba
       0.0026379942 -0.004361052 0.00181926 -0.001013419
000010 68 95 53 bb c3 7d 9a ba db 10 28 3b 83 16 ab bb
       -0.0032285098 -0.0011786747 0.0025644812 -0.0052211895
000020 68 5e 0b ba 3d 89 06 bb de 49 23 ba 22 e2 c0 3a
       -0.0005316497 -0.0020528578 -0.00062289636 0.001471583
000030 7c c4 44 3b a1 6d bc b9 d1 e2 84 3a 02 65 de 38
       0.003002434 -0.00035939834 0.0010138397 0.00010604599
000040 b4 06 91 3b ce e4 90 ba 2e a8 b9 3a 76 b3 fb ba
       0.004425848 -0.0011054517 0.0014164501 -0.0019203264
000050 f5 a1 30 ba f7 dc 20 3a 2d 9f 20 bb 84 f6 93 bb
       -0.00067380007 0.0006136442 -0.0024508939 -0.004515471
000060 6c 04 7b 39 d1 e0 50 bb 86 4e 33 3b e3 3a 3f bb
       0.00023938873 -0.0031872282 0.0027360036 -0.0029179386
000070 c9 d3 98 ba c0 9a 9d b9 e3 25 7b 39 a1 e4 86 3a
       -0.0011659797 -0.0003006067 0.00023951339 0.0010291525
000080 df 9b 2d bb 79 f5 a8 ba 65 f6 74 3a 60 f4 53 ba
       -0.0026490611 -0.0012890539 0.0009344577 -0.0008085426
000090 9a 29 b4 ba 76 85 d8 b7 0b 26 59 3b 36 4a 58 ba
       -0.0013745308 -2.5811354e-05 0.0033134248 -0.00082508044
0000a0 f8 5f 7e bb c1 2c 6b bb ac 71 23 b9 b5 56 a7 3b
       -0.0038814526 -0.003588483 -0.00015587237 0.005106772
0000b0 ca 6f 8e bb 04 6b d7 3a 74 b6 c8 3b 69 c2 88 3a
       -0.0043468224 0.0016435091 0.0061252657 0.0010433915
0000c0 e6 aa c4 ba d6 b1 a9 3a dd 52 8b bb 97 08 2d bb
       -0.0015004545 0.0012946676 -0.0042518214 -0.0026402825
0000d0 50 70 91 3a 14 64 88 ba 5c fd c2 ba c2 35 0b 3a
       0.0011096094 -0.0010405802 -0.0014876532 0.000531044
0000e0 4d f9 86 ba 99 bf 2d 3b 88 76 47 3b fc 2f 95 39
       -0.0010297686 0.0026511906 0.003043564 0.00028455246
0000f0 f2 98 c3 b8 6f a3 18 3b fb 10 b0 3b c5 ac a9 b9
       -9.326813e-05 0.0023290773 0.005373118 -0.00032362915
000100 cb 49 7b ba 98 a8 23 ba 30 52 23 3b 9e 4e c2 ba
       -0.0009585886 -0.0006243079 0.0024920814 -0.0014824455
000110 c5 22 72 3b 22 f5 b2 ba ec c5 7f 3b ca 3b a8 ba
       0.0036946994 -0.0013653378 0.0039027883 -0.0012835201
000120 16 0a b7 ba f3 58 5f 3b 4b 98 f5 bb 6a 12 de 3b
       -0.0013964798 0.0034080117 -0.0074949614 0.0067770975
000130 d3 be 14 3a e0 18 c2 3a 52 1e 67 bb 69 b5 2c bb
       0.0005674187 0.0014808439 -0.0035265875 -0.0026353246
000140 46 54 71 b9 92 db cc b9 2c 22 33 3b f0 87 5e b9
       -0.00023014945 -0.00039073505 0.00273336 -0.0002122221
000150 eb 14 71 bb d3 d4 e7 bb 2c ff 48 b9 22 3a ce 39
       -0.003678615 -0.007074931 -0.00019168545 0.00039334694
000160 89 86 ea b8 78 19 47 3a 07 dc 26 bb e6 83 5e ba
       -0.000111830486 0.00075950427 -0.0025460736 -0.00084882823
000170 4f 88 4d 3a 10 aa 21 3b ba 55 29 3c f6 fe 95 ba
       0.0007840441 0.0024668016 0.01033538 -0.0011443782
000180 79 ce 0f 3c 4c e7 01 3b aa 8c 8f bb ea b2 53 ba
       0.008777254 0.0019821702 -0.004380782 -0.00080756715
000190 77 82 0d bb b7 ce 7f 39 9a aa 17 bb 8d ea 8b 3b
       -0.0021592656 0.00024395702 -0.0023142458 0.004269904
0001a0 2c b7 55 3b db 44 51 3a d1 c7 47 ba 67 61 b0 ba
       0.00326104 0.00079829775 -0.00076210225 -0.0013456763
0001b0 1b 9c f9 39 43 4c c0 ba e0 f3 4e 3b 09 1a 2a 3b
       0.0004760929 -0.0014671165 0.0031578466 0.002595546
0001c0 56 17 f6 ba 1b 66 aa b9 34 fc f6 3b 9a cc 07 3a
       -0.0018775265 -0.00032501 0.007537389 0.00051803293
0001d0 08 17 a3 3a d7 89 82 bb b7 ba 10 bb d1 a3 43 3b
       0.0012442777 -0.003983717 -0.0022083947 0.002985228
0001e0 e7 20 17 bc 70 0e 0b ba 6b 2d ce 38 80 4c 59 ba
       -0.009224153 -0.00053045806 9.831305e-05 -0.00082892925
0001f0 d0 5b ac 3a dd 8d ac 3a f0 6b df 3b 15 6e b8 37
       0.0013149921 0.0013164837 0.006818287 2.198577e-05

network_body._body_endoder.seq_layers.0.weight f4 [128, 6]
000000 d7 53 cc be 49 7e d0 3e c2 2d 3d 3f fe bf bd be
       -0.39907715 0.40721348 0.73897946 -0.3706054
000010 cb e7 c7 3e 13 dc f5 be 7c 1d 17 bf 96 b9 37 bf
       0.39044032 -0.48019466 -0.59029365 -0.71767557
000020 b1 5c 71 3d 67 27 a6 be c7 7e a2 be c6 bf cd 3e
       0.058926288 -0.32451937 -0.31737348 0.40185374
000030 de 15 b7 bc a7 40 a5 be 1f fa d2 3d ec 88 df bd
       -0.022349294 -0.32275888 0.10301613 -0.10914788
000040 10 1f 85 3e de 68 33 3f 2e 9c 2b be 27 c3 9e bb
       0.2600026 0.7008189 -0.16758797 -0.0048450413
000050 ba b2 6e 3e d1 71 44 3e 5e 79 b2 bd 44 86 15 3f
       0.23310366 0.19184043 -0.08714555 0.58408
000060 5b 7a bd 3e 59 a6 c3 be b3 b6 e9 bd a5 10 f5 bd
       0.37007412 -0.3821285 -0.114118 -0.11966065
000070 c6 2e 2d bf fa bd b2 bd c6 a5 36 3d 49 14 77 3e
       -0.67649496 -0.087276414 0.044591688 0.24128832
000080 22 2d 39 bf 7e fb b4 3e ba ad 3c 3d b8 3d 94 be
       -0.7233449 0.35348123 0.046064116 -0.28953338
000090 fe 9d 07 bf 87 74 13 bd 1a 42 d4 bd 54 08 76 be
       -0.5297545 -0.0359998 -0.1036417 -0.24026614
0000a0 3c 8a 89 be 3f 63 48 bd e2 8c 73 be f8 39 f4 3d
       -0.26863277 -0.048922773 -0.23784211 0.11925119
0000b0 e9 1a 07 be 47 a2 78 bf be dc b7 be 73 10 5d 3e
       -0.13193859 -0.97122616 -0.359106 0.21588306
0000c0 40 fb 8c 3c 46 69 4c 3e 12 bb 34 3e 85 a3 cd bd
       0.01720965 0.19962034 0.17649487 -0.100409545
0000d0 15 81 02 bf a3 9e 26 be 3e 4e 6d be 8e 42 88 be
       -0.50978214 -0.16271453 -0.23174378 -0.26613277
0000e0 73 98 a7 3d ad d6 df bd c5 ed 48 be 21 78 0c be
       0.08183374 -0.10929618 -0.19621952 -0.137177
0000f0 ae d3 4b 3d ff 9e 1a 3e d7 55 1e 3c 44 f2 b3 bd
       0.04976242 0.15099715 0.0096640205 -0.08786443
000100 24 65 9f be ac ac 1a 3f 3c 22 e9 3e 4d 46 9d be
       -0.31131852 0.60419726 0.4553393 -0.30717698
000110 b3 74 87 3e b1 c5 b0 bd ed 6d 2d bf cb e0 9d 3e
       0.26456222 -0.08631457 -0.6774586 0.30835566
000120 1b b3 10 be ae 15 0a 3f bf 20 f6 be 3c 40 19 3f
       -0.14130823 0.5393933 -0.48071858 0.5986364
000130 f5 4f aa 3d 39 86 95 bd 07 7a 2b 3e 30 b4 5d 3e
       0.08316032 -0.073009916 0.16745768 0.21650767
000140 89 c4 0a 3f 86 5a 28 3f 7d a9 c6 3e 31 ee 54 3e
       0.5420614 0.6576313 0.38801184 0.20793988
000150 b3 e9 b2 be e1 f6 5b 3e 51 d3 5f 3f 29 97 ac 3e
       -0.34943923 0.21480896 0.8743182 0.33709076
000160 95 5a 19 3d 73 2b ef bc 7d 35 72 be 4b fe a3 bd
       0.0374399 -0.029195523 -0.23653217 -0.08007487
000170 af 5f 14 bf 58 93 b8 bb 95 45 cb bd 49 41 a2 be
       -0.579585 -0.005632799 -0.09925381 -0.31690434
000180 fb 56 99 be c6 4b 8f be dc 54 46 3e 99 d5 41 bf
       -0.29949173 -0.27987498 0.19368309 -0.7571655
000190 91 37 39 bf a6 83 a3 be 02 a8 a7 3e 1b a7 f8 3e
       -0.7235041 -0.31936377 0.32745367 0.4856499
0001a0 85 82 ab 3d 4f 4f 1f 3f 79 04 ec 3e 4d 7b 96 3e
       0.08374504 0.6223039 0.46097162 0.29390946
0001b0 bf a8 b0 3e ed 64 af 3e 7d 7b 22 3e e4 b3 10 bf
       0.34503743 0.34256688 0.1586742 -0.5652449
0001c0 9d 21 37 3e 3f 0d 6a 3d 15 0b a6 bc a6 36 c7 bd
       0.17883916 0.05714154 -0.020268956 -0.0972722
0001d0 d1 a9 54 3f 5c 49 f8 3e 88 03 0c 3f 57 dc c2 3e
       0.8307162 0.4849347 0.5469289 0.3805873
0001e0 b3 61 61 bf 87 0b 0f 3f 06 ce 23 bf 63 12 43 3d
       -0.880397 0.55876964 -0.6398624 0.047624957
0001f0 c6 29 16 3e a0 6c 8a be 15 cb 92 be 84 85 05 3f
       0.14664373 -0.27036 -0.28670564 0.52156854
000200 64 3a 14 bf b2 a7 0a bd 7f f8 c1 bd f6 2d ec 3e
       -0.579016 -0.033851333 -0.09471225 0.46128815
000210 46 17 a5 be dc 92 2b 3e dd 16 31 bf aa bd 43 bf
       -0.3224432 0.16755241 -0.6917551 -0.7646128
000220 4d 0f 16 3d 6e 50 a4 3d d5 7a ac bf 46 c6 51 bf
       0.036635686 0.08023153 -1.3474985 -0.81943166
000230 26 b3 fa bc 32 d2 43 3f f8 c4 c2 be 45 e5 07 be
       -0.030603003 0.7649261 -0.380409 -0.13271053
000240 98 4b b6 bd 06 df 1d be e8 4c 84 be e6 75 c6 3d
       -0.08901137 -0.15417108 -0.25839925 0.09690456
000250 3f 62 7f bc c9 aa dc 3e 83 12 9c 3d 00 b2 92 bf
       -0.015587389 0.4309905 0.07620718 -1.1460571
000260 f6 a8 a8 3e 96 f1 45 3f 5c 50 4e 3f 5b eb da 3d
       0.32941407 0.77321756 0.8059137 0.10689422
000270 86 a3 83 bd 7b e6 87 3f 69 f7 26 bf 0e aa b6 3e
       -0.06427674 1.0617212 -0.6522127 0.35676616
000280 b4 46 cd bd 8e fc 56 3e f1 04 fc be 78 69 f1 3e
       -0.10023251 0.2099478 -0.4922252 0.4715078
000290 f9 c8 3f bf a8 4f 41 be c5 63 f9 3e 08 eb 22 3f
       -0.74916035 -0.18878043 0.4870893 0.6363988
0002a0 e1 14 01 3f 8d 33 4a bf 0c d5 9e 3e f6 96 09 bd
       0.50422484 -0.7898491 0.31021917 -0.033591233
0002b0 db 37 0f be 2e 1f 02 3f de 59 a2 3d 5a b8 62 be
       -0.13986151 0.50828826 0.07927297 -0.22140637
0002c0 7d 5a 4a 3d 1e e8 75 bc 7e 11 44 3e 09 b1 af 3e
       0.049402703 -0.015008954 0.19147298 0.34314755
0002d0 61 e1 3a 3e 65 72 bd 3b 97 a2 a6 3e cb f7 bd be
       0.18250038 0.005781459 0.3254592 -0.37103114
0002e0 18 c2 0b 3e 94 73 e1 3e f5 b7 57 bd a0 71 03 3f
       0.1364826 0.44033492 -0.05266567 0.51345253
0002f0 79 35 2f 3f d8 13 46 3d 28 56 89 3d 26 f8 88 3d
       0.6844097 0.04835877 0.06705886 0.066879556
000300 b4 15 04 3e 17 1a 93 3d 15 1d be 3e fb 71 ca be
       0.12898904 0.071827106 0.37131563 -0.39540085
000310 84 b9 4e be e9 f1 aa bd 23 ca f0 bd 5a d4 9b 3e
       -0.20187956 -0.08346922 -0.117573045 0.3043545
000320 ea a5 89 be 61 34 da 3d 84 57 81 3d 88 6f 09 3f
       -0.26884395 0.10654522 0.063155204 0.5368581
000330 d4 19 64 3e eb 5f 51 bb 1d ea 58 3e ac 66 07 be
       0.22275478 -0.003194804 0.21183057 -0.1322276
000340 57 ff c0 be 2e 31 0c bf 3f d9 91 be 9f 0c 42 bf
       -0.3769481 -0.5476254 -0.28486058 -0.7580051
000350 9c e2 bd bf e6 53 df bd 10 ae c6 3e 75 f9 14 bf
       -1.4834781 -0.10904674 0.38804674 -0.5819314
000360 2c c1 3a 3f 22 01 88 3e af 52 af 3e b3 30 10 3f
       0.72951007 0.26563364 0.3424277 0.5632431
000370 a2 ba 2e 3e ee 75 79 be bb 5f c4 be 11 3e e5 be
       0.17063382 -0.24361393 -0.38354287 -0.44773915
000380 92 99 48 be 4e b7 26 3e 44 d1 35 3e 46 22 fe 3c
       -0.19589832 0.16280863 0.1775561 0.031022202
000390 e2 f9 07 3e c8 3c 58 be 24 6c d9 be 4c 43 68 3e
       0.13278916 -0.21116936 -0.42465317 0.22681922
0003a0 37 99 68 bb 6e c3 04 bf 45 bf 90 bd 34 30 5d 3f
       -0.0035491714 -0.518607 -0.07067732 0.8640168
0003b0 cb 97 52 be 18 e7 6c be bc 38 0f 3f b3 07 e6 bd
       -0.20565717 -0.2313503 0.55945945 -0.11231937
0003c0 4c 24 14 be 9b dc 16 3e 9f 4b aa 3e 03 34 a1 3d
       -0.14466971 0.14732592 0.3326082 0.078712486
0003d0 90 66 26 3f 0a ff 68 3e 2e c5 60 3d 85 0f 0e be
       0.6500025 0.2275354 0.054875545 -0.13873108
0003e0 4c 68 c6 be 91 95 99 be c8 f1 5d 3f f3 8e f1 be
       -0.38751447 -0.29996923 0.86697054 -0.47179374
0003f0 c2 0b c9 3e f3 07 9c be 8c 64 89 bd de 53 8c 3e
       0.39266783 -0.30474815 -0.06708631 0.27407736

network_body._body_endoder.seq_layers.2.bias f4 [128]
000000 ff 14 ae b8 bd bc 08 bb 6d 76 60 bb ca e8 a7 bb
       -8.3008774e-05 -0.002086445 -0.0034250275 -0.005124186
000010 ce 92 db ba f0 46 ee 37 96 a7 8a ba 00 ae a6 b9
       -0.0016752125 2.8404844e-05 -0.0010578509 -0.00031791627
000020 35 da 10 3b 6d 03 23 bb 4c 77 1b bb 51 11 3a 3a
       0.0022102718 -0.0024873868 -0.002372223 0.0007097917
000030 b8 d7 d7 b8 be 29 05 3c 4f af c9 ba 99 79 8d 3b
       -0.0001029218 0.008127628 -0.0015387329 0.004317474
000040 b6 92 98 bb 86 e5 9e b7 e7 e0 87 ba 55 96 1d ba
       -0.004656161 -1.8941948e-05 -0.0010366709 -0.0006011476
000050 b7 1e fb b9 95 f2 e3 b9 de a0 50 b9 a3 93 54 b9
       -0.00047897335 -0.00043477552 -0.00019896353 -0.00020272894
000060 da 06 52 39 d1 e2 1d 3a 8e a2 93 b9 9f 50 cd ba
       0.00020029713 0.0006022873 -0.00028159138 -0.0015664286
000070 5d ce fd 39 5b 65 ab ba 94 b4 57 3a 23 d5 6e 3b
       0.00048409673 -0.0013076471 0.00082285074 0.0036442957
000080 8b 53 b4 b9 c4 38 df b8 7d 5d b0 3b 68 6e 58 3b
       -0.0003439452 -0.00010644042 0.0053822384 0.0033024792
000090 a8 2e 0e ba 6a a2 75 b9 36 35 75 ba cd 73 a4 ba
       -0.00054238224 -0.00023425525 -0.00093539373 -0.0012546718
0000a0 73 3a 27 3a 44 f1 4c bb ce c8 a1 38 fe 6d 11 3b
       0.0006379254 -0.0031271735 7.714481e-05 0.0022190805
0000b0 e2 d5 4f ba fb d7 20 ba e8 cc b3 3b 56 9e 11 bb
       -0.00079282944 -0.0006135699 0.005487073 -0.002221962
0000c0 2b 1c a6 39 43 ba 4e bb f2 2d b0 38 0c f2 ad 37
       0.00031682974 -0.0031544126 8.400892e-05 2.0735919e-05
0000d0 98 8b 1d bb a6 97 32 3b 67 26 03 ba 27 c0 39 3b
       -0.0024039503 0.0027251034 -0.0005002976 0.0028343291
0000e0 0f 5a d2 b9 53 01 9e b8 c1 7e ad ba 9d 5a 18 bb
       -0.0004012142 -7.534274e-05 -0.0013236628 -0.002324737
0000f0 6c 0f ed ba 91 be 4c ba d0 13 61 39 b1 36 12 3b
       -0.0018086261 -0.0007810379 0.00021465053 0.002231043
000100 13 14 99 3a 2d 2e e5 ba 44 be 32 ba 0a 43 6f 3b
       0.0011678956 -0.0017485075 -0.0006818513 0.0036508464
000110 12 9b 05 3b f4 a2 88 3b b9 bd a4 3a 03 a6 52 b9
       0.0020386619 0.004169816 0.0012568749 -0.00020089005
000120 40 20 c9 3b 2c 39 d9 b9 5e 8a 34 b8 21 82 00 3b
       0.0061378777 -0.00041432062 -4.304421e-05 0.0019608813
000130 e8 57 cf ba d0 f6 f3 38 4a 9c 14 3a 0d ff 21 3a
       -0.0015819045 0.00011633115 0.0005669041 0.0006179668
000140 c4 24 b5 bb ce d4 9a ba d9 03 47 3a 24 b5 45 3a
       -0.0055280644 -0.0011812688 0.0007591821 0.00075419457
000150 4c b6 40 3b fd ed 8a ba 31 be 43 bb f1 39 f8 ba
       0.0029405532 -0.001059949 -0.0029868002 -0.0018938166
000160 6f b1 a6 ba 2b d3 91 bb e4 55 7c bb e6 96 7d b9
       -0.0012717674 -0.004450222 -0.0038503343 -0.00024184174
000170 44 29 05 ba 78 50 54 b9 e2 6f 2e 39 dc 21 55 b9
       -0.00050796964 -0.00020247872 0.00016635613 -0.00020325877
000180 ca f0 b6 ba b3 26 88 ba 5e 89 b3 3a 8b 6d b1 b8
       -0.0013957259 -0.001038751 0.0013697555 -8.460422e-05
000190 9a fe c5 ba 6a 12 97 b7 2d 3b 3b b9 b5 cc b4 3a
       -0.0015105784 -1.8009177e-05 -0.00017855754 0.0013793918
0001a0 4b f3 81 b9 ab ad a0 3a b4 e0 9b bb 78 f9 0c 3b
       -0.00024786065 0.0012258788 -0.0047570113 0.0021511
0001b0 07 68 49 ba 3f 1f c8 3b 5c 77 fa 39 48 ce 0f ba
       -0.0007683043 0.0061072404 0.00047772645 -0.00054857554
0001c0 89 f7 29 ba a7 94 27 39 e3 8e 97 ba 77 01 df ba
       -0.0006483724 0.00015981738 -0.0011562969 -0.0017013986
0001d0 54 91 32 3b d0 50 ec 3a e2 d2 20 bb 89 45 b0 39
       0.0027247267 0.0018029455 -0.0024539758 0.00033621144
0001e0 83 1b 93 b9 6b 95 ee 3a c5 39 1d ba 8e c9 25 bb
       -0.00028058523 0.0018202489 -0.0005997683 -0.0025297138
0001f0 ba dc 94 38 c5 8c 55 3b c8 4e 57 ba d7 6b d1 ba
       7.0983035e-05 0.0032585126 -0.00082133384 -0.0015977573

network_body._body_endoder.seq_layers.2.weight f4 [128, 128]
000000 f8 f0 8c bd aa 43 99 3d 6d 64 6c bc aa 03 a0 bd
       -0.06881899 0.07483609 -0.01442824 -0.07813199
000010 c0 9a d7 3d e3 ec d6 bd 5d d4 cc 3d 17 f9 cc 3d
       0.10527563 -0.10494401 0.100014426 0.100084476
000020 a5 57 53 bb e1 58 cb 3d ab 3a 8c 3d 4a 76 5e 3c
       -0.0032248285 0.09929062 0.068471275 0.013578007
000030 70 20 9e 3d e5 f3 9c 3c 62 ee 0c 3d d4 44 73 bd
       0.07721031 0.019159267 0.034407027 -0.05939181
000040 a2 ca 20 3e f6 e7 80 be 7b c3 57 bd 51 70 f4 bd
       0.15702298 -0.25176972 -0.05267666 -0.11935485
000050 dd fe f6 3b ee e7 81 3c cf 9c ad bc bb d3 f8 38
       0.0075377063 0.015857663 -0.021192936 0.000118649994
000060 34 58 8f bd 0f bd 8d 3d 8a 2d e4 bb 85 00 b7 3d
       -0.06999245 0.06920826 -0.0069634365 0.08935646
000070 4c ff c0 bb d8 77 f2 bc d7 fb c4 bd 68 c2 f2 bd
       -0.0058898088 -0.029598162 -0.09618347 -0.11853486
000080 60 cd 28 be 29 6b be 3d 68 5c b6 bc b6 b9 ac bd
       -0.16484594 0.09297783 -0.02226086 -0.08433859
000090 04 fc 24 3d 68 33 76 3c 48 5d 25 3d 4a db 94 3d
       0.040279403 0.015026905 0.040372163 0.072683886
0000a0 ed 4c 1a be 1f 89 69 bd bc e8 58 3c cc 0c 93 bd
       -0.15068407 -0.057015534 0.013239082 -0.07180175
0000b0 44 98 b9 bc 6f 5a 03 3e ac fb 2a be ec cd 68 3d
       -0.022655614 0.12827466 -0.16697568 0.056837007
0000c0 86 3a b2 3d a6 02 dd bb c9 65 5a 3b a6 31 35 3d
       0.08702569 -0.0067447005 0.003332483 0.0442368
0000d0 91 30 1b 3a 76 f5 37 3e 02 48 9f 3d 04 bd b6 bd
       0.0005920018 0.1796473 0.07777406 -0.089227706
0000e0 2c 95 c5 3d 32 dd 0b 3c 67 c2 d3 3d 21 46 99 3d
       0.09647593 0.008536624 0.10339814 0.07484079
0000f0 a3 56 23 bd 55 9f bb bd 08 fd 91 bd d0 b4 12 3e
       -0.039877545 -0.091612495 -0.0712834 0.14326787
000100 2e ca b2 3d 52 76 1c 3e fd 16 e1 bd 09 42 15 3e
       0.08729969 0.1527951 -0.10990713 0.14575972
000110 0b fb e4 3c 54 9a 0b be eb 28 65 3d 9b 03 dd bd
       0.027951738 -0.1363309 0.055947226 -0.10791703
000120 1b 34 92 bc 49 d9 44 bd 54 c9 84 bd 2e 2d 95 3d
       -0.017847111 -0.04805878 -0.06483713 0.07284008
000130 c0 84 4b 3d 09 1d e0 bd 91 2c 4b 3d 1e ea 4b 3e
       0.049687147 -0.10943038 0.04960305 0.19913527
000140 e4 0b 24 bc f1 72 d3 3d c0 23 ac 3d fb 46 ad bd
       -0.010012601 0.10324658 0.08405256 -0.08460804
000150 48 ed 50 be bc 1e ef 3d 34 3a 8e 3d 1f e4 23 be
       -0.20403016 0.11675784 0.06944695 -0.1600499
000160 c8 ab bb 3d fc a6 ae 3d 14 e2 94 bc f1 53 c5 3d
       0.09163624 0.085279435 -0.018174209 0.09635151
000170 38 bf b1 bd 2e df 5e be 73 92 08 3e e5 2b 7a 3d
       -0.0867905 -0.21764824 0.13337116 0.061077017
000180 2b 61 cd 3d 54 81 fd bc 5f cd ac bd e4 60 2d 3e
       0.10028299 -0.030945458 -0.08437609 0.16931492
000190 cc 2e 88 bd 62 05 0e be 8a b5 15 3c ee c8 10 3e
       -0.06649551 -0.13869241 0.009137521 0.14139149
0001a0 59 33 19 3d 22 c9 34 3d 48 63 d2 3c 84 2d 18 3e
       0.037402485 0.044137128 0.025682107 0.14861113
0001b0 4b ac 4b bc 05 7f 39 bd 42 a1 2f bd 09 31 ed bc
       -0.012431215 -0.04528715 -0.042878397 -0.028954046
0001c0 12 72 fc bc ca 4c 09 3e 9e e9 c3 3d 7f d0 a5 3d
       -0.030816112 0.13408199 0.09566043 0.08096408
0001d0 71 b4 84 3d 57 3b 94 3c c9 e5 27 3d e1 1a e0 3d
       0.06479729 0.018094702 0.040990625 0.10942627
0001e0 d1 34 79 3d b5 03 b9 bd ce 2f e1 3d 8d 96 aa bd
       0.060841385 -0.0903391 0.10995446 -0.083294965
0001f0 e1 3f 27 be df 3d 8e bc a3 ca 79 be 78 4c cd 3b
       -0.16332962 -0.017363487 -0.24393706 0.0062652193
000200 77 f8 9e 3d 16 6f cb 3d e4 19 05 bd 5e 61 9c bc
       0.07762235 0.09933297 -0.032495394 -0.019089397
000210 ef 08 02 be 82 73 65 3d 1f fb c5 bd 08 54 38 3d
       -0.1269872 0.05601836 -0.09667038 0.045002013
000220 5f ff 05 3e 55 69 13 3d d0 79 c4 bc aa 93 02 bd
       0.13085698 0.035989124 -0.023983866 -0.031879105
000230 92 d7 b4 bd 17 c8 bb bd f6 04 08 be 07 14 8a 3b
       -0.08830179 -0.091690235 -0.13283142 0.004213813
000240 71 40 f1 bd 77 ff 1b be 69 ac 3e bd e3 44 e9 bc
       -0.11779869 -0.15234171 -0.046551142 -0.02847523
000250 46 f6 35 3e ce 89 82 3d 87 a9 fb bc e0 12 21 3e
       0.17769727 0.063739404 -0.030720485 0.15729856
000260 ab 55 cf bd 60 aa 20 be f9 f9 1f bd 9f 53 16 3d
       -0.10123762 -0.15689993 -0.039056752 0.03670084
000270 9b a2 84 3b 51 04 d4 bc 7d 93 bb bc 6e fd b6 3d
       0.0040477044 -0.025880964 -0.022897476 0.089350566
000280 3e 64 f8 bc 48 9c 90 3b dd 2e 50 3a a4 07 8b bb
       -0.030321237 0.0044131614 0.00079415535 -0.004242854
000290 52 3e c6 3d 78 af 80 bc 83 42 f4 bd 38 35 94 bc
       0.096798554 -0.01570867 -0.119267486 -0.018091783
0002a0 8d 9f 16 3e c4 f6 8a bd 93 81 80 be f9 37 44 bd
       0.14709301 -0.06785348 -0.25098857 -0.047904942
0002b0 6a 5a 5b 3d c0 8c 08 3d a9 b8 07 3e 3e c9 cf bc
       0.053553022 0.033337355 0.13254036 -0.025364514
0002c0 2c 18 01 3d 13 4d 9c bc 10 d5 a6 bd 0a dc fd bd
       0.031517193 -0.01907972 -0.08146107 -0.12395485
0002d0 fa 1d cb 3d 10 f8 c5 bc 4f c3 cd 3d f9 12 ee 3c
       0.09917827 -0.024166137 0.10047018 0.029061781
0002e0 de bc 2c be 02 d1 e3 bd ac fe 16 3e 4d 8e 68 bc
       -0.16868922 -0.111238495 0.14745587 -0.014194083
0002f0 1b b7 16 bd cc 04 2b 3e 22 a3 18 3d a0 22 10 bd
       -0.036795717 0.16701049 0.03726495 -0.03518927
000300 b0 0b 07 be 0c 55 8d 3d a5 63 86 bd 7e aa 8a 3d
       -0.13188052 0.06900987 -0.065619744 0.067708
000310 23 67 cb 3c 6b 54 96 3d 6b 86 ae 3c 15 d3 61 3c
       0.024829453 0.0734032 0.02130433 0.013783236
000320 35 c0 04 be 7a 59 5b 3d 48 3d fd bc 80 eb d4 bc
       -0.12963946 0.05355213 -0.03091301 -0.025991201
000330 49 9f 0e 3d 5d bd 5e 3c f6 7d ee bc e2 7c 09 bc
       0.034819875 0.013594952 -0.029112797 -0.008391591
000340 d9 ff 4b 3d 31 5c fb bd 94 6c 51 3c 44 1e 25 3c
       0.049804542 -0.122734435 0.012782235 0.010078017
000350 7e ca 6a 3d b3 02 b6 bc d1 fe 86 3d fa 6b 06 be
       0.057322018 -0.022218084 0.06591571 -0.13127127
000360 19 a1 68 3c 87 19 4e be fd b4 9f 3d 39 c2 16 3c
       0.014198565 -0.20126925 0.07798193 0.00920158
000370 42 31 33 3d ec 70 61 bd 20 41 21 be f8 da 18 3d
       0.043748148 -0.05503933 -0.157475 0.0373182
000380 5d d0 45 bc a4 90 20 3e 09 ec 70 3d c9 2d d7 bd
       -0.012073603 0.15680176 0.05881885 -0.1050678
000390 ae 45 c9 3d 3a 22 27 be 23 73 5b bd d5 44 cd bd
       0.098277435 -0.1632165 -0.0535766 -0.10022894
0003a0 21 c9 16 3d ca 46 1c 3e b2 a4 86 bd 9b 5b 24 bd
       0.036812905 0.15261379 -0.06574382 -0.040126424
0003b0 f6 e2 35 3d f3 65 d6 bc e7 8b 5d 3c 40 50 fc 3c
       0.0444059 -0.02617166 0.013522125 0.030799985
0003c0 fb a5 74 bd 88 76 59 3c b7 49 43 be 47 48 eb 3d
       -0.059728604 0.013272889 -0.19071089 0.11488395
0003d0 73 fa 53 3d ae b5 21 be 7f c4 4b 3e d3 d3 7b 3d
       0.05175252 -0.15791962 0.19899176 0.06148131
0003e0 5d db 1f bc 2a f1 1d be 60 16 78 bd 0b 01 3e 3d
       -0.00975689 -0.15424028 -0.060568213 0.046387713
0003f0 42 62 36 3c 85 e4 8b 3d 9d 5c 0a 3e 31 c2 9d be
       0.011131825 0.06830696 0.13511892 -0.3081222
