MLAgentsProject/results/MoveToGoal4/MoveToGoal/MoveToGoal-23034.onnx (onnx, 72981 bytes, 7 tensors)

action_model._continuous_distribution.log_sigma f4 [1, 3]
0	0xbb6b50c0	-0.0035906285
1	0x3bb3929a	0.0054801228
2	0x39d998e4	0.00041503378

action_model._continuous_distribution.mu.bias f4 [3]
0	0xb99b3d36	-0.0002960951
1	0xba199600	-0.00058588386
2	0x3a72bad0	0.00092594046

action_model._continuous_distribution.mu.weight f4 [3, 128]
0	0xbcbf581e	-0.023357447
1	0x3ca96804	0.020679481
2	0x3c3f3d18	0.011672281
3	0x3ab67319	0.00139198
4	0xbc80aff4	-0.015708901
5	0x3c1b817c	0.009491321
6	0x3c1304b5	0.00897329
7	0x3ccc8e8d	0.024970317
8	0x3cd181e6	0.025574636
9	0xbc8b24ef	-0.016985385
10	0xbcacb4e2	-0.021082345
11	0xbc7bd63a	-0.0153709
12	0x3c187d5a	0.00930723
13	0xbba31019	-0.004976284
14	0x3c789dda	0.0151743535
15	0xbcbbd1b7	-0.022927148
16	0x3c0ca112	0.008583324
17	0x3c71a491	0.014748708
18	0xbccc1a0a	-0.02491476
19	0xbcb3cfdd	-0.021949703
20	0x3cbbe008	0.022933975
21	0x3bcc6309	0.006237392
22	0x3c897731	0.016780468
23	0x3a3ae113	0.00071288756
24	0xbca5bfcb	-0.020233056
25	0xbcb3c6eb	-0.021945437
26	0x3c3e05e1	0.011598081
27	0x3caf1788	0.021373525
28	0xbc31af0e	-0.010844959
29	0x3b9dbd06	0.004813793
30	0x3ce99a95	0.028516093
31	0x3c6a67cb	0.014306973
32	0x3c22860b	0.009919654
33	0xbc79df31	-0.015250967
34	0x3b65a5ae	0.003504138
35	0x3b434e6a	0.0029801377
36	0xbae7bee6	-0.0017680794
37	0x3c62d5f3	0.013844955
38	0x3954f43e	0.00020308883
39	0xbc1839fb	-0.009291167
40	0xba95c3a6	-0.0011426106
41	0xbc13aec9	-0.00901384
42	0x3c8a186f	0.016857354
43	0xbbad1f11	-0.0052832444
44	0xbb00a89e	-0.0019631754
45	0x3d02879b	0.031867605
46	0x3ab5f460	0.0013882034
47	0xbbc04bc6	-0.005868408
48	0x3ce5cd4a	0.028051991
49	0x392a2926	0.00016227792
50	0x3bb19d1b	0.0054203398
51	0xbc4857c9	-0.012227961
52	0x3d0392ef	0.03212255
53	0xbcf85ed5	-0.030318657
54	0xbc98e8ca	-0.01866569
55	0x3cb45bfe	0.022016522
56	0xbb322228	-0.0027181003
57	0x3c973e98	0.018462464
58	0x3bfe27ac	0.007756194
59	0x3c541191	0.012943641
60	0xbc260ba5	-0.010134612
61	0x3c51f348	0.01281435
62	0x3c13c373	0.009018767
63	0x3c80759b	0.015681079
64	0x3b622ad1	0.0034510384
65	0xbbae9a21	-0.005328432
66	0x3b662c4e	0.0035121622
67	0xbcc0cea2	-0.02353603
68	0x3bf70e34	0.007539535
69	0x3bbaddcc	0.00570271
70	0x3b38e6e8	0.0028213803
71	0x3d1f62e6	0.038912676
72	0xbd472e4a	-0.04862813
73	0x3c842cc9	0.016134636
74	0xbcceb20b	-0.025231382
75	0x3cd39ab7	0.02583061
76	0xbc2bd885	-0.010488634
77	0x3caacbfa	0.020849217
78	0xbca5428b	-0.020173332
79	0xbcc68cc3	-0.024237042
80	0x3ca67293	0.020318305
81	0x3c9c0e68	0.019049838
82	0x3cbd6cd5	0.023123184
83	0x3bf7c5b3	0.0075614094
84	0x3b18ec6d	0.002333428
85	0x3c77d902	0.015127422
86	0x3ad920c5	0.0016565552
87	0xbce284ac	-0.027651154
88	0xbc50cfde	-0.012744872
89	0x3c587680	0.013211846
90	0xbc2db44c	-0.010602068
91	0x3c456e12	0.012050169
92	0x3cf73c4e	0.030180123
93	0xbb98e593	-0.0046660393
94	0xbb5ed1b1	-0.0033999498
95	0xbbaa10e2	-0.005190001
96	0xbbd90269	-0.0066226018
97	0x3bb1fe32	0.005431914
98	0xbcfcc3c3	-0.030855065
99	0x3c89ab75	0.01680539
100	0xbc37119c	-0.011173632
101	0xbbb5d3f3	-0.005548948
102	0x3c3d28ae	0.011545343
103	0x3cfc6528	0.030809954
104	0x3d2cd811	0.042198244
105	0xbbcd224d	-0.0062601925
106	0xbc370f3a	-0.011173064
107	0x3c930824	0.017948218
108	0xbc4de58d	-0.012566936
109	0x3d1fb997	0.03899535
110	0x3d25d851	0.0404895
111	0x3c135c1b	0.008994128
112	0x3d17a471	0.037022058
113	0x3c8bfa5e	0.017087158
114	0xbbe34c54	-0.0069365893
115	0x3c2d1e6a	0.010566333
116	0x3c0c04c2	0.008546056
117	0xbb9ea22b	-0.0048411093
118	0xbbba649d	-0.0056882636
119	0x3be7b912	0.0070716226
120	0x3c290600	0.010316372
121	0xbbf4ef01	-0.0074747805
122	0x3ca284a8	0.019838646
123	0x3ce49610	0.027903587
124	0xb9b58a81	-0.00034626204
125	0xbca160d0	-0.019699484
126	0x3ceaf7a0	0.02868253
127	0x3c050dd1	0.00812097
128	0x3c37dd6f	0.0112222275
129	0xbcf4b67b	-0.02987217
130	0xbc3f54cc	-0.011677932
131	0x3d26f3a4	0.040759698
132	0xbc543f93	-0.01295461
133	0xbb8b1a9f	-0.004245117
134	0x3cc64fac	0.024207912
135	0x3c8352ce	0.016030695
136	0xbc90b1e2	-0.017662946
137	0xbbc49215	-0.0059988596
138	0x3c732375	0.014839997
139	0xbb8b6717	-0.0042542326
140	0x3c5467d1	0.012964205
141	0xbc964bac	-0.01834663
142	0x3c3a5f6e	0.011375291
143	0xbc46d0c3	-0.012134734
144	0xbbb36e0b	-0.0054757646
145	0x3c4fcdde	0.01268336
146	0xbd59f727	-0.05321422
147	0x3ca9be1d	0.020720536
148	0x3b8d07d9	0.004303914
149	0xbc5ad4e7	-0.013356424
150	0xbb7030dd	-0.0036650219
151	0xbcecdd79	-0.0289142
152	0xbc8a20c4	-0.016861327
153	0xbb977168	-0.0046216734
154	0xbbf925a1	-0.0076033627
155	0xbc947bff	-0.018125532
156	0x3d357dd7	0.044309463
157	0xbbd4ade5	-0.0064904564
158	0x3c464b38	0.0121028945
159	0xbb9b8192	-0.0047456706
160	0x3c932c68	0.01796551
161	0x3c5eabf9	0.013590806
162	0xbc8e4951	-0.017368944
163	0x3b18fe47	0.002334492
164	0x3cd3796e	0.025814738
165	0xbc8c2d77	-0.017111523
166	0xbbb432cc	-0.0054992195
167	0xbc89dc39	-0.016828643
168	0x3b02588d	0.0019889206
169	0x3c8b3d4a	0.016996998
170	0x3cc836d4	0.024440207
171	0x3c38a7e1	0.011270494
172	0x3d2ac260	0.041689277
173	0x3c1888bb	0.009309943
174	0x3bc12750	0.005894579
175	0xbb91403d	-0.0044327066
176	0xbc992fd3	-0.018699562
177	0xbc81f3c6	-0.01586331
178	0x3c344eaf	0.011005088
179	0xbc440de0	-0.011966199
180	0xbb6bb872	-0.0035968092
181	0x3c8264d9	0.015917229
182	0x3ca79f43	0.020461684
183	0x3d24a6de	0.0401982
184	0xbcd37501	-0.025812628
185	0x3b599ee0	0.003320627
186	0xbbe3f83f	-0.0069570835
187	0xbc3b4aef	-0.01143144
188	0x3c92455b	0.017855337
189	0xbbd3ca31	-0.006463312
190	0xbce879f6	-0.028378468
191	0xbb9f5d8f	-0.004863448
192	0xbcee19ab	-0.029064974
193	0x3c5c79ed	0.013456804
194	0xbca433c1	-0.02004421
195	0xbb8c667c	-0.004284678
196	0x3c0e5d50	0.00868924
197	0xbb6b126c	-0.0035869135
198	0x3c1b1291	0.009464876
199	0xbba8af05	-0.005147817
200	0xbc999a6b	-0.01875039
201	0x3b3de610	0.002897624
202	0xbb514402	-0.0031931405
203	0xbbe86863	-0.007092522
204	0xb9f164f5	-0.0004604232
205	0x3cb68cf9	0.022284018
206	0xbb03627f	-0.0020047722
207	0xbc991a7d	-0.018689388
208	0x3c8b9e8e	0.017043378
209	0xbc6706f0	-0.014100775
210	0xbc9f98b1	-0.019481989
211	0xbc1d471c	-0.009599473
212	0x3c1d3317	0.0095947
213	0xbc7e2602	-0.015511991
214	0x3b42b4d1	0.0029709826
215	0xbd31f311	-0.043444697
216	0xbb9378f5	-0.004500503
217	0x3bcd180c	0.00625897
218	0xbc217718	-0.009855054
219	0x3c503d63	0.012709948
220	0xbbe57311	-0.0070022424
221	0xbad8025d	-0.0016480197
222	0x3cca3d11	0.024687322
223	0x3c112cb6	0.008860758
224	0x3bcff8a5	0.0063467794
225	0xbbc61b38	-0.006045725
226	0xbcb89bcf	-0.022535233
227	0xbc293ce1	-0.010329456
228	0xbcb046f0	-0.0215182
229	0xbc5a43a0	-0.013321787
230	0x3c40a276	0.011757484
231	0x3af40c52	0.0018619394
232	0xbbecda82	-0.0072281966
233	0x3bf732bb	0.0075438893
234	0xbd27e5e6	-0.040990733
235	0xbcddef59	-0.027091669
236	0x3c7ebb54	0.015547592
237	0xbbbfb8c7	-0.0058508846
238	0xbc0dac67	-0.008647061
239	0x3cc79fd0	0.024368197
240	0x3bb60afc	0.0055555087
241	0x3bf226a2	0.0073898593
242	0x3b9ab23c	0.004720954
243	0x3bb4a0fb	0.0055123544
244	0x3bfa08fe	0.0076304665
245	0xbae60106	-0.0017547912
246	0x3cbf9c5f	0.023389993
247	0xbb9000bb	-0.0043946183
248	0x3c08c455	0.00834759
249	0x3b8c1b8d	0.0042757452
250	0xbbc38d0a	-0.005967741
251	0xbcdb2866	-0.026752662
252	0x3b39fb51	0.0028378556
253	0x3cba4da8	0.022742108
254	0xbc06ef54	-0.008235771
255	0x3cbd6f4b	0.023124358

network_body._body_endoder.seq_layers.0.bias f4 [128]
0	0xbaf3770a	-0.0018574905
1	0x381afe48	3.695328e-05
2	0x3ae5582c	0.0017497591
3	0xb9fe0088	-0.0004844705
4	0x3a1aa4fa	0.0005899217
5	0xba8fad4e	-0.0010961683
6	0xba976bc9	-0.0011552508
7	0xb833a374	-4.2829153e-05
8	0x3a846c64	0.0010103104
9	0xb9a4cf88	-0.0003143514
10	0xbaa9e5c2	-0.001296215
11	0x3bb9c68d	0.005669421
12	0xbad3fad7	-0.0016172779
13	0xbb0f2787	-0.0021843628
14	0xb9f03466	-0.00045815407
15	0xb87195e6	-5.759848e-05
16	0x39f57985	0.0004682058
17	0xba09c44c	-0.0005255386
18	0xbabd6374	-0.0014449195
19	0x3abae8d6	0.0014260064
20	0xba208179	-0.00061228086
21	0xb94f9c7b	-0.00019799352
22	0x38c262ea	9.269065e-05
23	0xba798791	-0.0009518797
24	0x39aa3cbc	0.00032470177
25	0xbb5cbc75	-0.0033681665
26	0x39d1cabc	0.00040014635
27	0xb9f192cd	-0.00046076477
28	0x3b4f86e3	0.0031666092
29	0xbba5b5df	-0.005057081
30	0x3bcf4a4a	0.0063259946
31	0xba65469d	-0.0008746179
32	0x3a14da66	0.0005678296
33	0xba5791fa	-0.00082233513
34	0xba4196bb	-0.00073848263
35	0x3a64e0c0	0.0008731
36	0x3b176562	0.00231012
37	0xb9d66c3d	-0.00040897905
38	0xba999b74	-0.0011719302
39	0xba1700c4	-0.0005760307
40	0xba9885bf	-0.0011636539
41	0x38bec7f6	9.0971516e-05
42	0x3b878568	0.0041357763
43	0x3a928399	0.0011178135
44	0xba492d67	-0.0007674307
45	0x3b7d574e	0.0038656774
46	0xb994449e	-0.00028279884
47	0x3a52f379	0.00080471445
48	0x38e88841	0.00011088001
49	0x398584f5	0.00025466798
50	0x39b16017	0.00033831663
51	0x3ae6ad19	0.0017599195
52	0x3b1c42a3	0.002384343
53	0x3b9795e1	0.0046260213
54	0x3b85d746	0.0040845005
55	0xbb3d9eee	-0.002893384
56	0x3b1a1fcd	0.002351749
57	0xb9c75c17	-0.0003802485
58	0xba78f12c	-0.00094963866
59	0xbabc11b3	-0.0014348536
60	0xbb1e73b3	-0.0024177849
61	0xbb46f6f9	-0.003035961
62	0xb833161b	-4.2697513e-05
63	0xb9e2b628	-0.00043241796
64	0x3b2dd2e0	0.0026523396
65	0x3a2ca36d	0.00065856316
66	0xbb0e0109	-0.0021668097
67	0x3a7de503	0.00096853095
68	0x3ac96409	0.0015364896
69	0xbab30f58	-0.0013661189
70	0x3af481d1	0.0018654411
71	0x3b05afa2	0.0020398875
72	0x399a5433	0.00029435902
73	0x3a21d379	0.00061731745
74	0x38f9e0df	0.00011915131
75	0x39e8d32c	0.00044407824
76	0x3ac08461	0.001468789
77	0x39a01e1e	0.00030540017
78	0xb8f6b0df	-0.00011763139
79	0xb984d147	-0.00025332926
80	0xb9bb4365	-0.00035717632
81	0xbaf72279	-0.0018854878
82	0xb9ca32f2	-0.000385664
83	0xbade36e2	-0.0016953612
84	0xbb0173dd	-0.0019752898
85	0x3a87b56d	0.0010353752
86	0x38fb3f34	0.00011980385
87	0x3b853799	0.0040654656
88	0xba78f1bf	-0.0009496472
89	0x3a8498dc	0.0010116356
90	0xbacef82c	-0.0015790514
91	0x3a9a6efa	0.0011782341
92	0x3a51c87e	0.0008002593
93	0x3afe4813	0.0019400142
94	0xbb4d5a10	-0.00313342
95	0x39384af2	0.00017575527
96	0xbac2d617	-0.0014864829
97	0xb9df3e67	-0.00042580368
98	0xbb1f2ddf	-0.0024288816
99	0xba9ccefe	-0.0011963544
100	0xba84bc04	-0.0010126834
101	0xb9b45b81	-0.0003440045
102	0xbada1bf1	-0.0016640407
103	0x3acf10b0	0.001579782
104	0xba848b67	-0.0010112346
105	0xba8b4540	-0.0010625497
106	0xbb17f3ce	-0.002318609
107	0x3bc56531	0.006024026
108	0xbb0618c7	-0.0020461546
109	0x3a2fbdd1	0.0006704005
110	0xba8c7c1c	-0.001071814
111	0x3a86436d	0.0010243483
112	0x3b475d37	0.003042055
113	0xba8fc3e9	-0.001096842
114	0x3a1839be	0.0005806944
115	0xbb93ebd0	-0.004514195
116	0xba839fb5	-0.0010042103
117	0xb5a72c8c	-1.2455434e-06
118	0xbaf819a4	-0.001892854
119	0x3a207cf5	0.00061221357
120	0xbac9389d	-0.0015351955
121	0xb9a147ae	-0.00030761719
122	0xba16d0bf	-0.00057531515
123	0x350c9443	5.2369813e-07
124	0xbad02722	-0.0015880803
125	0xb97d3849	-0.00024148928
126	0xba0ecaf3	-0.0005447112
127	0x3b119d8a	0.0022219145

network_body._body_endoder.seq_layers.0.weight f4 [128, 6]
0	0xbee0bf6c	-0.43896043
1	0x3f121c1e	0.57074153
2	0x3d94c245	0.072636165
3	0xbe254720	-0.16140413
4	0xbe9ed4c9	-0.31021717
5	0x3eb1cbb2	0.3472572
6	0xbe792d28	-0.24333632
7	0xbe66a741	-0.2252474
8	0xbf1e57ea	-0.61852896
9	0x3ee1aed9	0.4407871
10	0xbdeac0b2	-0.11462535
11	0x3e563218	0.20917547
12	0x3edac009	0.42724636
13	0x3f844350	1.0333042
14	0xbf0729de	-0.5279826
15	0xbe3feea4	-0.18743378
16	0x3f1556cc	0.58335567
17	0x3db932db	0.09042903
18	0xbe9295ed	-0.2863001
19	0x3ddd568a	0.10807522
20	0x3e5fba15	0.21848328
21	0xbf696e5c	-0.9118402
22	0x3f1f5211	0.622346
23	0x3f58795e	0.8456019
24	0xbe772046	-0.24133405
25	0x3e37fbfd	0.1796722
26	0x3e7101be	0.23535821
27	0xbe97799f	-0.29584977
28	0x3efce162	0.49390703
29	0x3d7a505f	0.061111804
30	0x3df2a1e7	0.11847287
31	0xbef0c2ac	-0.47023523
32	0xbe9e2181	-0.30884936
33	0xbd4a1953	-0.049340557
34	0xbd5002e4	-0.050784007
35	0x3f56015b	0.8359582
36	0xbe524ebb	-0.20537846
37	0x3f055526	0.5208305
38	0xbe304aff	-0.17216109
39	0x3eac5e14	0.33665526
40	0x3ea1ea3f	0.31624028
41	0x3e2b49f1	0.16727425
42	0xbd4ca4b9	-0.04996178
43	0xbefeb67c	-0.497486
44	0xbf45aeca	-0.7721983
45	0x3e4857e4	0.19564778
46	0xbf70b023	-0.94018763
47	0x3ee86345	0.45388237
48	0x3e90d8e8	0.28290486
49	0xbd629ffc	-0.055328354
50	0xbe504722	-0.20339635
51	0x3efe2c11	0.49642995
52	0xbf3c58bf	-0.73572916
53	0x3f18648c	0.5952842
54	0x3cfe68a3	0.031055754
55	0xbd9a7417	-0.07541674
56	0xbea44497	-0.3208358
57	0x3e150ebc	0.14556402
58	0xbed977bd	-0.42474166
59	0x3db4314c	0.08798465
60	0x3e4b17f8	0.19833362
61	0x3e9bcffe	0.30432123
62	0xbe7eeec3	-0.24895768
63	0x3e5f4476	0.2180346
64	0xbeb751b9	-0.35804537
65	0x3f26a818	0.6510024
66	0xbeb8a901	-0.3606644
67	0x3ea009c6	0.31257457
68	0x3e8650f2	0.2623363
69	0x3c88315f	0.016625104
70	0xbda91ff4	-0.08258048
71	0xbe0fd77f	-0.14047049
72	0xbe268b1a	-0.16264
73	0x3d8f1820	0.06987023
74	0x3f3cad7e	0.7370223
75	0x3b96f558	0.004606884
76	0x3ed92711	0.42412618
77	0x3e2e9877	0.17050348
78	0x3f07fbe2	0.5311872
79	0xbf02a860	-0.5103817
80	0xbf090281	-0.53519446
81	0x3dc5ac37	0.09651988
82	0xbf08d4b8	-0.53449583
83	0x3f46b9c2	0.77627194
84	0x3dbbaa96	0.09163396
85	0xbd785ee3	-0.060637366
86	0xbebf9792	-0.37420326
87	0xbf2a9b29	-0.66643006
88	0x3cd9bb64	0.026578613
89	0xbeb79a14	-0.3585974
90	0xbe7624ed	-0.24037524
91	0xbf0e67ce	-0.55627143
92	0xbe883e7c	-0.26610172
93	0xbe268622	-0.16262105
94	0xbebe2f06	-0.3714525
95	0x3ea900d0	0.33008432
96	0xbec9114d	-0.39271012
97	0xbda1ab3f	-0.07893991
98	0xbf0a59d9	-0.54043347
99	0xbf33502b	-0.700442
100	0xbeebc42e	-0.4604811
101	0xbf000ab2	-0.5001632
102	0xbed41ec1	-0.41429713
103	0xbe949982	-0.29023367
104	0x3db3d9af	0.08781754
105	0x3db33f6a	0.0875233
106	0xbe8895ed	-0.26676884
107	0x3f2e1e1b	0.6801469
108	0xbdf86d6c	-0.121302456
109	0x3ec6f5f9	0.38859537
110	0x3e84730c	0.25869024
111	0x3f0022c3	0.5005304
112	0x3e9d244e	0.3069176
113	0x3eda2875	0.4260899
114	0x3e352994	0.17691642
115	0xbe311284	-0.1729222
116	0xbd9e7680	-0.07737446
117	0xbd59b8f1	-0.05315489
118	0xbf38dded	-0.7221363
119	0xbdd0da10	-0.10197842
120	0xbec52915	-0.38507906
121	0xbf112bdd	-0.56707555
122	0xbeaa32e7	-0.3324196
123	0x3d584008	0.05279544
124	0xbf6f66c8	-0.93516207
125	0xbe493105	-0.19647606
126	0x3dbe57ba	0.09294076
127	0xbe38dfa5	-0.18054064
128	0x3c3d8aa3	0.011568698
129	0x3e4dab9a	0.20084992
130	0x3efd03b2	0.49416882
131	0x3e249685	0.16073044
132	0x3ea7f72a	0.3280576
133	0xbe4379fa	-0.19089499
134	0x3bac2ce6	0.0052543757
135	0x3c31180f	0.010808959
136	0xbeb3a12e	-0.35083908
137	0xbf8c96bf	-1.0983504
138	0x3ec0596a	0.37568218
139	0x3e647a3e	0.22312257
140	0xbf13892e	-0.57631195
141	0xbdbc5967	-0.0919674
142	0x3d56a34e	0.052401833
143	0x3df5f4a8	0.12009555
144	0xbefe202b	-0.49633917
145	0xbef36374	-0.47536814
146	0xbe8094de	-0.25113577
147	0x3eb6454d	0.35599747
148	0x3df0571f	0.11735367
149	0x3f936298	1.1514463
150	0xbd46b3bd	-0.048511256
151	0x3e98bef4	0.29833186
152	0xbe88631c	-0.26638114
153	0xbe129820	-0.14315844
154	0xbd607a42	-0.054804094
155	0xbe5ffc96	-0.21873698
156	0x3e0f413e	0.13989732
157	0x3e9b8506	0.30374926
158	0xbe9d0feb	-0.30676207
159	0x3e9eefec	0.3104242
160	0x3dd39727	0.103315644
161	0x3ed942bb	0.42433724
162	0xbebe0fd7	-0.3712146
163	0x3e9558fd	0.29169455
164	0x3f05ec0d	0.5231331
165	0x3c3b2bc9	0.011424013
166	0x3eb73d23	0.3578883
167	0xbf00ab7c	-0.50261664
168	0x3d16ff0b	0.03686432
169	0x3ed7a4c8	0.42117906
170	0x3eb83f19	0.3598564
171	0x3efe4f8c	0.49670064
172	0x3f3ecd73	0.7453224
173	0xbeb5dfc2	-0.35522276
174	0xbee4779c	-0.44622505
175	0xbe12183d	-0.14267059
176	0xbea82c46	-0.32846278
177	0x3e316cb5	0.17326625
178	0x3d80eedb	0.06295558
179	0xbddffa0a	-0.10936363
180	0xbe54f093	-0.20794897
181	0x3e471482	0.19441417
182	0xbf04d4a1	-0.51886946
183	0xbf809c16	-1.0047634
184	0x3e3b5de2	0.18297532
185	0xbf0ae8bf	-0.5426139
186	0xbf05a95d	-0.5221155
187	0x3c70dc6d	0.014700991
188	0xbeb8c012	-0.36084038
189	0xbe652007	-0.22375499
190	0xbe84cb94	-0.25936568
191	0x3f6dab58	0.92839575
192	0xbdbdfcaf	-0.09276711
193	0x3f142b55	0.5787862
194	0x3ede71e7	0.43446276
195	0xbdb100ee	-0.086427554
196	0xbec508b4	-0.38483202
197	0x3ecc9a69	0.39961556
198	0x3c8c7aad	0.01714834
199	0x3e33a40a	0.17543045
200	0xbf4dabd2	-0.803403
201	0xbe9d2e2b	-0.30699286
202	0x3e79e479	0.24403562
203	0xbf340dea	-0.7033373
204	0x3e02bfc1	0.12768461
205	0xbf34df76	-0.70653474
206	0xbec2d47b	-0.38052735
207	0xbe08cb78	-0.13358867
208	0xbdf54412	-0.11975874
209	0x3e669cfd	0.22520824
210	0xbdd7dbd2	-0.10539974
211	0x3ea69b40	0.3254032
212	0xbe866379	-0.26247767
213	0xbb29332c	-0.0025817854
214	0x3e174c98	0.14775312
215	0x3ddee516	0.108835384
216	0xbe268e19	-0.16265143
217	0x3e2a77ad	0.16647215
218	0x3ec65e5d	0.38743868
219	0xbe19a6c4	-0.15005022
220	0x3e51788c	0.20456141
221	0xbf146478	-0.57965803
222	0x3f20dcdf	0.6283702
223	0x3e9f4d1a	0.3111351
224	0xbf0ff2ca	-0.5622984
225	0xbeb0ceee	-0.34532875
226	0x3b5f32f6	0.0034057475
227	0x3e94de92	0.29076058
228	0xbf33d240	-0.7024269
229	0xbe37c5dd	-0.17946573
230	0x3ddd68f9	0.108110376
231	0xbea666fa	-0.3250044
232	0xbef8fc18	-0.48629832
233	0xbf3b2b9b	-0.7311341
234	0x3e168c64	0.14701992
235	0xbeb5ea1a	-0.35530168
236	0xbf806d1b	-1.0033296
237	0x3d2b7902	0.04186345
238	0xbe9eb703	-0.30999002
239	0xbea9326b	-0.33046278
240	0x3f140739	0.5782352
241	0xbdcf3f55	-0.101195015
242	0x3df61c7f	0.12017154
243	0xbf1c0740	-0.6094856
244	0x3e2afa12	0.16696957
245	0x3ef8dbbd	0.48605147
246	0xbdfbb48b	-0.12290295
247	0x3c2807a5	0.010255729
248	0xbe711f1c	-0.23547024
249	0x3b5c0478	0.0033572
250	0xbeda8173	-0.42676887
251	0x3c38491b	0.011247898
252	0xbf2e2e19	-0.6803909
253	0xbedd20d1	-0.431891
254	0xbdaf63a0	-0.08563924
255	0xbd87f9c2	-0.066394344

network_body._body_endoder.seq_layers.2.bias f4 [128]
0	0x3a9a7c5d	0.0011786331
1	0xba10561a	-0.0005505994
2	0x3acbf20e	0.0015559809
3	0x3b42e90c	0.0029740958
4	0xb938ebe7	-0.00017635488
5	0xbb3155aa	-0.0027059116
6	0x3bbc7411	0.005751141
7	0xbabf587f	-0.0014598517
8	0xb8d5bbbe	-0.00010191601
9	0xbb59df75	-0.0033244763
10	0x3b373ff9	0.0027961715
11	0xba24e1c8	-0.00062897475
12	0xb993d1a4	-0.0002819422
13	0x3aa83f8b	0.001283632
14	0x39c4b791	0.000375208
15	0xba3d1945	-0.0007213543
16	0xba8ceb4a	-0.0010751274
17	0xb8ef4816	-0.00011409835
18	0xb82e95be	-4.162429e-05
19	0x398c71e5	0.0002678774
20	0xbabd6f26	-0.001445268
21	0xb8f90aeb	-0.00011875279
22	0xbaa030ae	-0.0012221539
23	0x3b238699	0.0024952053
24	0xbb0035cc	-0.0019563315
25	0x3ac76d02	0.0015214982
26	0xbaa87adb	-0.0012853997
27	0x3a830da4	0.0009998572
28	0x38d27c18	0.000100366946
29	0x3ab1649c	0.0013534012
30	0xb9c3de2c	-0.0003735883
31	0xbaf834ae	-0.0018936598
32	0x39d1b484	0.0003999808
33	0xba14e614	-0.0005680036
34	0xba4f9a8c	-0.00079194526
35	0xb9ef0861	-0.00045591875
36	0x3b51720b	0.0031958844
37	0x3ab27cc9	0.0013617511
38	0x3a6f75bf	0.0009134672
39	0x3a32162a	0.0006793464
40	0x3a23473e	0.00062285725
41	0x3a8be4e6	0.0010673075
42	0x3a7ca1d8	0.00096371537
43	0xbb8d07d4	-0.0043039117
44	0xb94dc3cd	-0.00019623265
45	0xbac63a4d	-0.0015123576
46	0xba2b360f	-0.00065311877
47	0xbb0dda2f	-0.002164494
48	0xba60096e	-0.0008546327
49	0xbb54749d	-0.003241814
50	0xbaacae8c	-0.0013174578
51	0x3a249e2b	0.00062796724
52	0x3b76db59	0.0037667362
53	0xba43c5fc	-0.00074681616
54	0x3a996160	0.0011701994
55	0xb9ccfa00	-0.00039096177
56	0xb96303a0	-0.00021649757
57	0xba54e600	-0.0008121431
58	0x39a03f11	0.00030564566
59	0xba8d46f0	-0.0010778587
60	0xb829c817	-4.0479088e-05
61	0x3a855b0f	0.0010174232
62	0x39c60e8a	0.00037776335
63	0xbb279d2d	-0.0025575862
64	0xbab1a56b	-0.0013553327
65	0xb8b680e5	-8.702445e-05
66	0xbaa64db6	-0.0012687955
67	0xba11a4a9	-0.00055558473
68	0xba6bbb86	-0.0008992482
69	0xb976827a	-0.00023508994
70	0x3965b4ef	0.00021906545
71	0x3a95cc5f	0.0011428705
72	0xba3ec86b	-0.00072777894
73	0xb956380f	-0.00020429514
74	0xbb272344	-0.0025503198
75	0xba1cf5f3	-0.0005987577
76	0x3aa187ae	0.0012323761
77	0xba6b5204	-0.000897676
78	0xb97609be	-0.00023464017
79	0x3a00e81c	0.00049173995
80	0xbad3bca5	-0.0016154243
81	0x3a14e150	0.0005679326
82	0xbb6f5a3a	-0.0036522285
83	0xba797d43	-0.00095172616
84	0xbad515d9	-0.0016257121
85	0xb96653e6	-0.00021965764
86	0xbafb0461	-0.0019151085
87	0xba120e4e	-0.00055715896
88	0xba1df5a8	-0.00060256803
89	0xba8a8628	-0.0010568546
90	0xb9137c0d	-0.00014065225
91	0x3a9c69c6	0.0011933378
92	0xba7fcee9	-0.000975831
93	0xb99f0f45	-0.0003033822
94	0xbb2231ca	-0.0024748915
95	0x3a1fe865	0.0006099998
96	0xba3f8937	-0.00073065184
97	0xba4aefb1	-0.0007741405
98	0xb965d491	-0.00021918329
99	0x3aed6854	0.0018112757
100	0x3bc21de2	0.0059239725
101	0x3a2f204f	0.00066805346
102	0x389671f8	7.173786e-05
103	0x3b0086a7	0.001961151
104	0x3b557d1c	0.0032575792
105	0xba8033d6	-0.0009781073
106	0xbad5897b	-0.0016291583
107	0x3a21fb3a	0.0006179098
108	0x3b4bbd21	0.0031088071
109	0xba083232	-0.0005195468
110	0xb90fec32	-0.00013725532
111	0xbaa82b76	-0.0012830335
112	0xbb029528	-0.001992533
113	0xba800be0	-0.0009769164
114	0x3b002891	0.001955543
115	0xbae48ce1	-0.0017437005
116	0xbaef3359	-0.0018249556
117	0xb96c0e8f	-0.00022512137
118	0xba879013	-0.001034262
119	0x397e1701	0.00024231897
120	0xba2c3922	-0.0006569793
121	0x3a3b560d	0.00071463065
122	0xbaacbb10	-0.0013178308
123	0x3a380559	0.000701984
124	0xba692d69	-0.0008895011
125	0x399282db	0.00027944785
126	0x3ae6e46a	0.001761568
127	0xba7c89e3	-0.0009633584

network_body._body_endoder.seq_layers.2.weight f4 [128, 128]
0	0xbdad7729	-0.084699936
1	0x3dbd00cb	0.09228667
2	0xbe4b32b4	-0.1984356
3	0xbbb0bf7d	-0.005393921
4	0x3d7dca48	0.06196049
5	0x3dad62a9	0.084660836
6	0xbcf24e1e	-0.029578265
7	0xbcc5f2a1	-0.024163546
8	0x3ddccecd	0.107816316
9	0xbdc39cab	-0.095513664
10	0x3c0f0a39	0.008730465
11	0xbc694e7e	-0.014239905
12	0x3dca1546	0.09867339
13	0x3d86197e	0.06547831
14	0x3c4fd432	0.012684869
15	0x3c2ca6b7	0.010537795
16	0xbdb542d7	-0.08850639
17	0xbcc5c5aa	-0.024142105
18	0xbcf1c6ea	-0.029513795
19	0x3dc045c9	0.093883105
20	0xbdceea70	-0.10103309
21	0x3cce2d42	0.025168065
22	0xbd1cc855	-0.03827699
23	0xbcf5de0f	-0.030013112
24	0x3dd77abf	0.10521459
25	0xbc563c76	-0.013075938
26	0xbe15406e	-0.14575359
27	0x3df96c9c	0.12178919
28	0x3e086a7d	0.13321872
29	0x3cc70d1e	0.024298247
30	0x3d0684d6	0.032841526
31	0x3ce670a6	0.028129887
32	0xbd5a4c85	-0.05329563
33	0x3df60697	0.12012976
34	0xbcfccc45	-0.030859122
35	0xbdf2bf08	-0.118528426
36	0x3c68ee5c	0.014216986
37	0x3bb7e01d	0.005611433
38	0xbddd5294	-0.10806766
39	0xbe367383	-0.17817502
40	0x3be88452	0.007095852
41	0x3e1270ef	0.14300893
42	0x3bfc4899	0.007699084
43	0xbde64f03	-0.11245539
44	0x3d1aea19	0.03782091
45	0x3d658261	0.056032542
46	0x3d357dd5	0.044309456
47	0x3e04cb07	0.12968074
48	0xbd0565c9	-0.032567773
49	0xbdf080e9	-0.11743338
50	0xbd33553c	-0.043782458
51	0xbc0349cc	-0.0080132
52	0xbca9de7b	-0.02073597
53	0xbcb3c750	-0.021945626
54	0xbdc7f217	-0.09762972
55	0x3d66cf2d	0.056349922
56	0xbc8c4d50	-0.01712671
57	0x3c881089	0.016609447
58	0xbe1d1725	-0.1534086
59	0xbd865d60	-0.065607786
60	0xbbacd154	-0.0052739773
61	0x3d27ae6f	0.040937837
62	0xbc3b8ac5	-0.011446659
63	0x3d845177	0.06460851
64	0x3d4e81b9	0.050416682
65	0xbc438605	-0.011933808
66	0x39a32030	0.00031113764
67	0x3e15cbce	0.14628527
68	0xbd5ee288	-0.054415256
69	0x3e293b1d	0.16526456
70	0x3dab1cfa	0.08355136
71	0x3cdf8739	0.027286159
72	0xbdca2051	-0.09869445
73	0xbc3d6cc4	-0.011561576
74	0x3e3e2904	0.18570334
75	0xbe29cf34	-0.16582948
76	0xbc2c74c8	-0.01052589
77	0xbd7d2488	-0.061802417
78	0xbe0f26c7	-0.13979636
79	0xbdaa340e	-0.0831071
80	0xbd6a5f61	-0.057219867
81	0x3dbf652e	0.0934547
82	0x3e10087e	0.1406574
83	0xbce3a724	-0.02778966
84	0x3cb6b59e	0.022303399
85	0xbcfc9bf7	-0.030836089
86	0xbe3bcc36	-0.18339619
87	0xbde3ae26	-0.111172006
88	0x3c5fcd4a	0.013659785
89	0x3e0e1677	0.13875757
90	0x3dd9851f	0.10621094
91	0xbcc07fd3	-0.023498451
92	0x3ce1f903	0.027584558
93	0x3e43f6a5	0.19137056
94	0xbe36f0c3	-0.17865281
95	0xbdc598e4	-0.09648302
96	0x3d758cf0	0.05994886
97	0xbdab50f0	-0.08365047
98	0xbe38e8e8	-0.18057597
99	0xbc337b3d	-0.010954675
100	0x3dfe5439	0.12418408
101	0x3d57619a	0.052583314
102	0x3dd0785f	0.10179209
103	0xbdd3b9a9	-0.10338146
104	0xbde11c0f	-0.1099168
105	0x3d448c78	0.047985524
106	0xbb88b900	-0.0041724443
107	0xbe39136d	-0.18073817
108	0x3d2c878a	0.042121448
109	0x3dddc6f7	0.10828965
110	0x3d4cb9df	0.049981948
111	0x3d72ebe4	0.059306994
112	0xbd9d50f5	-0.07681457
113	0x3e525dbc	0.2054357
114	0x3da3c56f	0.07996642
115	0xbe29b869	-0.16574253
116	0xbdef6c76	-0.11690609
117	0xbd1ee838	-0.03879568
118	0xbd9e55b7	-0.077311926
119	0xbd8135a5	-0.0630906
120	0xbc25db44	-0.010123078
121	0x3d29f3c0	0.041492224
122	0x3e01a1ea	0.12659422
123	0x3dc3a841	0.09553576
124	0xb89bbaa8	-7.4257434e-05
125	0x3d97aff1	0.07406605
126	0xbc78d939	-0.015188509
127	0xbcb0c28d	-0.021577144
128	0xbd917304	-0.071020156
129	0x3d802af2	0.06258191
130	0xbd86b6ad	-0.065778114
131	0xbdd5690e	-0.10420428
132	0xbc7018f9	-0.014654391
133	0xbd2f07d5	-0.04273208
134	0xbd021620	-0.03175938
135	0xbe44d033	-0.19220047
136	0x3ce841ae	0.028351631
137	0xbe35407a	-0.17700377
138	0x3dc4a25c	0.0960128
139	0xbd520050	-0.05126983
140	0x3c09e48c	0.008416306
141	0x3d9202bb	0.07129427
142	0xbd952ca1	-0.07283903
143	0xbe5882b8	-0.21143615
144	0xbe487e34	-0.19579393
145	0x3cb5d90f	0.022198228
146	0x3d945f88	0.07244784
147	0x3bf3cf2b	0.007440468
148	0xbbc71f5d	-0.006076737
149	0xbe2613d4	-0.16218501
150	0x3d2ea48e	0.0426374
151	0xbd965721	-0.07340837
152	0xbd858fdf	-0.06521582
153	0xbd88da82	-0.06682302
154	0xbc08d4fb	-0.00835156
155	0x3cf26209	0.029587762
156	0xbdba2037	-0.09088176
157	0xbc7de026	-0.015495336
158	0x3a91f2c2	0.001113497
159	0xbd788d6f	-0.060681757
160	0xbe36d0b2	-0.17853048
161	0xbd00d170	-0.031449735
162	0x3da15469	0.07877428
163	0xbdea2407	-0.11432653
164	0x3daed988	0.085375845
165	0xbd08de03	-0.033414852
166	0x3d79ab3c	0.060954317
167	0xbda8f2a6	-0.082494065
168	0x3d829184	0.06375411
169	0x3c963bb2	0.018339012
170	0xbe123697	-0.14278637
171	0xbda2265c	-0.07917473
172	0x3e5efb97	0.21775661
173	0xbcda0c4d	-0.026617194
174	0xbd60be73	-0.054869127
175	0x3e0ff2a6	0.14057407
176	0xbdcbb62e	-0.099468574
177	0x3d8c0099	0.068360515
178	0x3d77574f	0.060386
179	0x3dcfa593	0.10139003
180	0x3ce4f862	0.02795047
181	0x3dbd5e53	0.092465065
182	0xbc2ba2a8	-0.010475792
183	0x3e0fb542	0.14033988
184	0xbcaf81d2	-0.021424208
185	0xbcacacd9	-0.021078514
186	0x3cbbfd02	0.022947792
187	0xbd3ee528	-0.04660526
188	0x3d0050c2	0.031327017
189	0xbcea7757	-0.028621359
190	0x3db79818	0.089645565
191	0x3d6c001a	0.057617284
192	0xbc7bb30b	-0.015362511
193	0x3dba806a	0.09106524
194	0xbd0f2c33	-0.03495426
195	0xbdcbcfca	-0.09951742
196	0x3e071b34	0.13193971
197	0x3dc33921	0.09532381
198	0xbe3a5baf	-0.18199037
199	0xbd09306e	-0.03349345
200	0xbd6c471d	-0.057685006
201	0x3e1fc78f	0.1560347
202	0xbc651e2e	-0.013984246
203	0x3e155437	0.14582907
204	0x3da89954	0.0823237
205	0xbddfc316	-0.109258816
206	0xbdd8da08	-0.10588461
207	0xbd63cbf2	-0.05561442
208	0x3d9095f4	0.07059851
209	0xbdb4ccb4	-0.088281065
210	0x3e14ccda	0.1453127
211	0x3d578c24	0.052623883
212	0xbbb861ca	-0.0056268917
213	0x3bd0113f	0.006349712
214	0x3d946bb0	0.07247102
215	0xbe0413d0	-0.12898183
216	0x3dc2f9b3	0.095202826
217	0xbda866bb	-0.08222719
218	0x3d60cac1	0.05488086
219	0x3dcf2803	0.101150535
220	0x3d47252f	0.048619445
221	0xbdf82762	-0.12116887
222	0x3dbe91d5	0.09305159
223	0xbd916309	-0.070989676
224	0xbdf7ac0c	-0.12093362
225	0xbd3586f2	-0.044318147
226	0xbde39b95	-0.11113659
227	0x3d8a5734	0.06754914
228	0xbbf8d1e0	-0.0075933784
229	0xbdd4e2dd	-0.10394833
230	0xbc915863	-0.017742341
231	0xbbf74ea1	-0.007547215
232	0x3da85fb3	0.08221378
233	0x3e86b0f5	0.26306883
234	0x3d4e9516	0.05043515
235	0xbd0d2a53	-0.03446419
236	0x3d10f9d5	0.03539451
237	0xbd20a05d	-0.039215434
238	0x3d34a10c	0.0440989
239	0x3c859144	0.01630462
240	0x3b778088	0.003776582
241	0xbe0135cc	-0.12618178
242	0x3e4066bb	0.18789189
243	0xbe26e745	-0.1629916
244	0xbe1b9dea	-0.15196958
245	0xbd91d43e	-0.0712056
246	0x3e252f9a	0.1613144
247	0x3e0f0e23	0.13970236
248	0x3d8e0e88	0.06936365
249	0x3c22be94	0.009933133
250	0x3d550375	0.05200525
251	0x3bd025f9	0.006352183
252	0x3d6dfdee	0.058103494
253	0x3c79b5a6	0.015241062
254	0x3d45b0ab	0.048264187
255	0x3dc2e499	0.09516258
