MLAgentsProject/results/MoveToGoal6/MoveToGoal/checkpoint.pt (torch, 439199 bytes, 36 tensors)

network_body._body_endoder.seq_layers.0.weight f4 [128, 6]
00000000: b37a 66bd 5415 60bf 1acf c0bf 795c b93e
00000010: 18ad 78be eadf 063e f9fb c1be f357 67bf
00000020: 2a6a 9dbf d069 34bc 891f 44bf 1172 83bf
00000030: 8475 5e3f 3678 a8bd 935a 3bbf 1335 6ebf
00000040: 8bb7 893e 8f9f b3be 7d7d de3d 6076 34be
00000050: 0bcf c6bf 90fd 40bf f898 5cbf d036 86be
00000060: 71c7 12bd 2817 36bf 39a5 dabf 5fc5 64be
00000070: 4d09 94bf 709a 8fbf 972a 3dbf 0c16 983e
00000080: de8a 213f f466 f8be 0343 d83e 7d45 5cbf
00000090: cb3a 85be c16a d3bf ded9 debf a3ea a43d
000000a0: 39a7 a4bf 198f c2be c02e 95be e419 41bf
000000b0: 3007 e4be 57cb 51bc f5d6 99bf 95f2 88bf
000000c0: 1b1b 7d3e 2fbd babe 30a9 bebf 9ffa 1cbd
000000d0: 84c9 e2be 7cfc 863e a99d 1a3e 3a9f e03e
000000e0: 4f10 e03c e0ae d23e c9a0 883e af0c c4be
000000f0: e631 89bf 8b40 d8be 0200 83bf be74 863e
00000100: a1b5 59bf df91 c2be 3d6f be3e 9556 dfbe
00000110: 2978 a2be 83db 5b3d 1f51 53be 1be7 2cbf
00000120: 2ebe 40be b28e 86bf d384 a3bf d8ed 94bc
00000130: 2e5e d2bf 5b8d 6cbf 31f8 3dbd e659 533d
00000140: 977e 36bf 1c0c 45bd b9ab a2be 9cab 94bf
00000150: 56a6 31bf 6d14 f5bd 1a95 39bf fbd8 61be
00000160: 839b f2be 501e e2be 785a 6f3e ff41 1c3f
00000170: c8e2 cfbe 7e0e c8bd 752d 8b3e d2b2 563f
00000180: 9241 123f 0c92 b9be 2ae9 33bf 6ccd eabe
00000190: bf4b 98bf 4a32 413f ce93 043f 45a7 ab3e
000001a0: dfbd 42bf ed25 07bf 1370 75be 0d12 74bf
000001b0: bf59 efbc 6619 5abd 873c 9abd 2efa 9d3e
000001c0: 8885 adbe e586 06bf 07dd 803e 645e aebd
000001d0: 9c00 5bbd 1ffc ba3c 1581 063e d969 8cbf
000001e0: c937 dd3e 8e98 aabf 4cda a1bf b4ad 48bf
000001f0: f8b9 b1bf 4e18 d9bd ad6d 99be 0316 563f
00000200: 754e 2f3e 4437 a03d e332 2d3f 7d93 103f
00000210: 9f57 21bf 451a c4be 6c47 9abf 56bf a93e
00000220: 0ae6 04be 4f83 a5be aa8c 82be 93e6 7dbf
00000230: add9 3abf 747e 76bd 0b30 e7be fa9b 94bf
00000240: ee1d 13bf fdbb 573d 0fa4 71bf 41e2 693f
00000250: acc1 28bf 9ff2 5f3e 3cff 9abd b235 26be
00000260: 8ecf 0fc0 175d e0bd c1a0 cabf fcf0 6cbf
00000270: e0d5 42bf 1cf6 85bd 2be2 9dbf 7564 013e
00000280: 4164 0f3e a275 b9be c3cf c73e 136b 353f
00000290: 98f5 613e e0d6 82bd 7bc1 713f 52e6 d63e
000002a0: a277 5d3e be5f 1fbe ef36 92bf 3cd9 683e
000002b0: 0276 25bf 49cc 1dbf 1299 1b3f 3027 95be
000002c0: 1a68 b7be 0dc9 32bf aa01 bcbc a090 38bf
000002d0: 9144 773b 84b4 26bf c6d3 6ebf 18a1 eabd
000002e0: 7731 f0be 5119 96bf 8e36 393f 973c b93e
000002f0: eafa 513f 5eaa 31bf f837 cbbe 958a 1abf
00000300: 9a8b 46bf 82d3 fdbe 059a 36bf 3fff 463e
00000310: 1d30 aebf bd1e 06bf b965 c73d 114f a0bf
00000320: e3e8 1ec0 279a 15be d539 78bf 186f d5be
00000330: 1630 99be 6172 38bf 16ba 41bf c58d 713e
00000340: a031 d1be b038 28bf c3cf 3f3f 89d4 09bf
00000350: 45d8 a3bf 5383 9d3e e9bb 75bf 32cd 603c
00000360: 28dd dc3e ed4c 653d b18b 71bf a9a7 d93e
00000370: ae26 11bf 3839 fcbe 7700 1a3d 74fe 39bf
00000380: 9d46 3ebf 4f73 2dbe 070f 39bf 72cb aabf
00000390: 0e9e e7be 978d 3cbf 9799 c03e 4e0f 02bf
000003a0: ed5f 2bbf a9c5 80bf 5bd6 f1be e039 09be
000003b0: 3f8c 3cbf a893 b7be 1c0e 00bf c0a7 e2be
000003c0: fdbe 86bf c1ec dbbe 12f3 23bf 7686 bd3e
000003d0: 9591 c0be 3ae6 84bd 93d2 f13d 9689 81be
000003e0: 033d 97bf bfec 3ebe 013b f43c a9c8 9fbe
000003f0: fe7e 13bf 2923 573f 27b3 df3e c639 ef3e
-0.05626936 -0.87532544 -1.5063202 0.36203364 -0.2428478 0.13171354 -0.37887552 -0.90368575
-1.2298024 -0.011011556 -0.7661062 -1.0269185 0.86898065 -0.082260534 -0.7318508 -0.93049735
0.26897845 -0.3508267 0.10863779 -0.17623281 -1.5531934 -0.75386906 -0.8617091 -0.26213694
-0.035834733 -0.71129084 -1.7081672 -0.22340916 -1.1565338 -1.1219006 -0.7389311 0.2970432
0.6310252 -0.48516047 0.42238626 -0.8604353 -0.26021418 -1.6516954 -1.7410238 0.08052566
-1.2863532 -0.379998 -0.2913723 -0.7543013 -0.44536734 -0.012804828 -1.2018725 -1.069903
0.24717371 -0.3647246 -1.4895382 -0.03832495 -0.4429437 0.26364505 0.15099205 0.4387148
0.027351527 0.41149044 0.2668517 -0.38290927 -1.0718353 -0.42236742 -1.0234377 0.26260942
-0.8504277 -0.38001916 0.37194243 -0.43620744 -0.317323 0.05367614 -0.20636414 -0.6754014
-0.18822548 -1.0512297 -1.277491 -0.018179819 -1.6434991 -0.9240319 -0.046379272 0.051599406
-0.7128691 -0.04810725 -0.3177164 -1.1614871 -0.69394433 -0.119667865 -0.72493136 -0.22055428
-0.4738427 -0.44163752 0.23374355 0.610382 -0.40602708 -0.09768389 0.27183118 0.8386661
0.571313 -0.36244237 -0.70277655 -0.4585985 -1.1898116 0.7546736 0.5178803 0.33526054
-0.7607097 -0.52792245 -0.23968534 -0.95340043 -0.029217599 -0.053246878 -0.07531076 0.30854934
-0.3389094 -0.5254958 0.2516863 -0.08514097 -0.053467378 0.022825299 0.13135178 -1.0969802
0.43206623 -1.3327806 -1.2644744 -0.7839005 -1.3884878 -0.10600339 -0.29966488 0.8362734
0.17119773 0.07823041 0.6765577 0.5647505 -0.63024324 -0.38301292 -1.2053046 0.3315379
-0.12978378 -0.32326743 -0.25497943 -0.99179953 -0.72988397 -0.06017919 -0.4515384 -1.16101
-0.57467544 0.052669514 -0.9439096 0.9136086 -0.6592052 0.21869896 -0.07568213 -0.1623142
-2.2470431 -0.109552555 -1.5830308 -0.9255521 -0.761076 -0.06541082 -1.2334646 0.12635978
0.14003088 -0.3622256 0.39025697 0.7086651 0.22066343 -0.063886404 0.9443585 0.41972595
0.21627668 -0.15563866 -1.1423014 0.22739118 -0.6463319 -0.6163984 0.6078044 -0.2913146
-0.3582161 -0.6983803 -0.022950012 -0.7209568 0.0037730078 -0.65119195 -0.9329189 -0.114565074
-0.4691274 -1.1726476 0.7234887 0.3617904 0.8202349 -0.69400585 -0.39691138 -0.6036771
-0.77556765 -0.4957543 -0.71328765 0.19433306 -1.3608433 -0.5239065 0.09736199 -1.2524129
-2.4829643 -0.14609586 -0.96963245 -0.4168632 -0.299195 -0.7204953 -0.7567457 0.23589237
-0.40858173 -0.657115 0.74926394 -0.5383993 -1.2800375 0.30764255 -0.95989853 0.013720797
0.4313748 0.055981565 -0.9435378 0.42510727 -0.56699646 -0.49262404 0.0375981 -0.7265389
-0.743265 -0.16938518 -0.72288555 -1.3343337 -0.45237774 -0.7365355 0.3761718 -0.50804603
-0.66943246 -1.0060321 -0.47233853 -0.13400984 -0.736515 -0.3585484 -0.5002153 -0.44268608
-1.0527035 -0.42954066 -0.6404277 0.37016648 -0.3761107 -0.06489225 0.11807742 -0.25300282
-1.1815494 -0.18644999 0.029813292 -0.3120778 -0.5761565 0.84038025 0.4369137 0.46723765

network_body._body_endoder.seq_layers.0.bias f4 [128]
00000000: 30da ccbe a8e4 82bf 6080 7abd fb1e b6be
00000010: ae64 90bf e552 9abd de3c bdbf 3a7e dabe
00000020: ab77 0bbe c2bf ee3d b760 48bf a3a9 d6be
00000030: e601 84bf 4507 19be 5a1d 95be 347c 093f
00000040: b90f 32be 5d19 e0be 8e37 02bf 228a a1be
00000050: ff20 66bf fe69 283f fb64 a7be 15ee 5fbf
00000060: 554a a0be 553b 65bf 4545 cabe a0bf 483f
00000070: 14ec 1ebf c588 79bd 7d61 55bf bdd1 733c
00000080: a010 54bf beee 0dbf 3a5e f7be dcc9 11bf
00000090: a044 52be 4e26 62bf 2673 95be ec7a f2be
000000a0: de63 c3be 130b cbbe 9497 ab3e c4b5 04bf
000000b0: 7b9a 65bf 27cb 41be 8d10 6dbf b289 b4bf
000000c0: 8da2 c8be db03 20bf fb63 3cbf f5ba 49bf
000000d0: 2fb5 0fbf ce72 a0be f89c 87bf f715 efbd
000000e0: 56a0 a5be f41a 06bf ea5d 47be bb08 d33d
000000f0: db5e d53e c44b dbbe 866f b4be cea6 42bf
00000100: 535e aebf d54e aabe cb4a dbbd 3126 3f3d
00000110: 6e2d 67be fb89 e03c a6d5 20bd f072 e83d
00000120: 9ee2 86bf cb7c 4cbe 68c5 14bf 39b3 8ebe
00000130: b287 083e 5218 27be 7dfd 21bf f4c4 c4be
00000140: 341a 6b3e a5b9 c83e 4369 e8be 28d5 b4bd
00000150: 177f 91bd 51bb 3fbf 30e5 8abf 7208 71bf
00000160: 7f60 1fbf 5496 70bf b7bc 48be 50d9 efbe
00000170: c2f6 c63e c53b 33bf 4fd5 5b3e bf2d 473e
00000180: 9eeb 7bbe 7486 29bf be39 89bf 0921 1bbf
00000190: 7f72 67bf 742f 83bf 9045 77bd d20e 53bf
000001a0: 1242 27bf dc28 573e e9c5 01bf 3555 e8be
000001b0: 2426 f6be 09c3 47bf 42aa 91be 0349 09be
000001c0: 3af0 eb3e 20a1 b5be 1f44 a3bf 6ecc 24bf
000001d0: 2604 9c3e bd3b 7dbe 5737 c33c 8520 093f
000001e0: 8fb8 223f 9ff1 acbe 46f6 97bd 1b4e 32bf
000001f0: 08d3 69bf 9998 16bf 6d7d 2bbf 8ebd 87be
-0.40010214 -1.022603 -0.061157584 -0.3557051 -1.1280725 -0.07535342 -1.47842 -0.42674428
-0.13619868 0.11657669 -0.78272575 -0.41926298 -1.0313079 -0.1494418 -0.29123956 0.53705144
-0.1738881 -0.4376935 -0.5086602 -0.315507 -0.898941 0.6578673 -0.3269423 -0.8747266
-0.3130671 -0.8954366 -0.39505973 0.78417397 -0.62078977 -0.06092145 -0.8335188 0.0148815485
-0.8283787 -0.55442417 -0.48314077 -0.5694864 -0.20533991 -0.883397 -0.29189414 -0.47359407
-0.3816213 -0.39656886 0.33514082 -0.5183985 -0.89688843 -0.18925153 -0.9260338 -1.4104521
-0.39186516 -0.6250588 -0.7359006 -0.788009 -0.5613584 -0.3133759 -1.0594778 -0.11674111
-0.3234889 -0.5238488 -0.19469419 0.103043996 0.4167393 -0.42831242 -0.35241336 -0.76035774
-1.3622535 -0.3326327 -0.10707625 0.04666728 -0.22575924 0.027409544 -0.03926625 0.113500476
-1.0537908 -0.1996948 -0.5811372 -0.2787111 0.13333014 -0.16317871 -0.6327742 -0.38431513
0.22959214 0.39204136 -0.45392808 -0.08829719 -0.071043186 -0.748952 -1.0851192 -0.9415351
-0.62256616 -0.9397938 -0.19603239 -0.46845484 0.38860136 -0.70013076 0.2146809 0.19451044
-0.246016 -0.66220784 -1.0720747 -0.6059728 -0.9040908 -1.0248857 -0.060369074 -0.8244449
-0.6533519 0.2101168 -0.5069261 -0.45377508 -0.48075974 -0.78031975 -0.2845021 -0.13406758
0.46081716 -0.3547449 -1.2755164 -0.64374435 0.30471915 -0.2472982 0.023830099 0.53565246
0.63562864 -0.33778092 -0.0742002 -0.6965043 -0.91337633 -0.58826596 -0.6698826 -0.26511806

network_body._body_endoder.seq_layers.2.weight f4 [128, 128]
00000000: ccdf e93e f6d9 b4be 12d8 89be 82d2 9bbe
00000010: d89e d7be eff4 1bbe 6cfa ba3d daf7 d03d
00000020: 8a88 b7be 7dc3 263e 65cb 59bf c535 36be
00000030: d203 163e c240 bd3d 9fe5 f7be 9197 a6bf
00000040: d8b2 813e 997b b93e 7108 c03e f91b ccbe
00000050: e5cf e63b dbf4 00be 8ed6 b13d fd1a d0bd
00000060: 1c1b f8bc c6c3 783e 560d 1dbe 4a66 843e
00000070: df7f 8e3d d02c 953e 1610 9d3d 32b4 8ebf
00000080: 05b5 efbe 81dd 023e 9106 5bbc 7320 13bf
00000090: 8a30 bb3e 67d0 0bbf bb37 f7be fcf5 853e
000000a0: f6d3 e9bd 4542 b43e 6f04 353e 53a9 3b3e
000000b0: 9a8f 57be a1df 72bf f4ae e5be ba15 233e
000000c0: 62b7 1abf 46aa fd3e 99b3 31bf 7ba2 a0bd
000000d0: 7aa2 283d 15c0 843e 8a73 ac3d b62b 23bf
000000e0: 7128 28bf 06c6 31be 7085 89be aa0d 6b3d
000000f0: 9687 833e dc58 b9be 4d30 99bf a38c b23c
00000100: d8bb 17bf 6154 01bf 3a50 a0be f9fe 7f3d
00000110: 4489 b8be daae 4ebf 55c4 1fbe c2b1 76bf
00000120: 397e be3d 9cf0 c1bd d44e aebe 09fd 16bf
00000130: f5da 32be e1fc 17bf 0960 aa3c bb87 083f
00000140: ec62 b33e cf7b 633e 62bf 8cbd 747f 0dbd
00000150: bf91 f73d 71e6 683e 4c50 e13d 7b4f 083d
00000160: 4085 f23e ca21 c9bd 3a28 a53e efd0 f8be
00000170: 9246 06bf 5ef9 ddbe 0ffa 183f 91ba d4be
00000180: 103a b4bd 54fe 6a3d 7ea4 a7be f2fd 23bc
00000190: 66ed 74bd 68f8 ecbe 191b b7be 345b be3c
000001a0: d2ca 093f f2df ecbd 8df8 53be d1d6 0bbf
000001b0: cc5a 5c3e c937 2bbe 39e6 323e a479 9fbe
000001c0: dd1e 653e d3e2 b4be aba2 e3bc 1c03 00be
000001d0: 1a64 38bd aad4 493e 83f0 c6bd bab5 3f3e
000001e0: 3934 acbe 7079 85be a796 d03e 5e9c c8be
000001f0: 368a f63d db86 4f3f 9007 9fbe a0dd 1dbf
00000200: 4204 c2bf 92c5 2ebf 37ff 99bb 47d0 a73f
00000210: af77 ac3d 1b87 12bf 79c6 bb3e d9b3 a4be
00000220: d61d 833f 1f7f 82bf 29f4 2abf 5c91 15bf
00000230: fb47 0e3e a66f 453d a813 7ebf e7ca 9e3e
00000240: dcbd ba3e cb87 7cbf c9c7 04bf d855 7c3e
00000250: 3c6b 3dbf b036 8dbe 0ccd 46bf aae2 2abf
00000260: 3cde eebe a884 263e a467 963e 0e8d c4be
00000270: 3853 81be ac98 dbbe e08a aebe 82ba 4bbf
00000280: 28f2 e3be 3ee4 10bf 5c19 27bf 9f53 3abf
00000290: ac89 6e3e da9a b9be 023e 4bbe 13e8 c8be
000002a0: 3a9c 0dbf 3635 54bf 1354 34be 44cf adbe
000002b0: 4337 0cbf 76e1 e6be 8e5b 92be d269 f13d
000002c0: 9a20 dcbe 16bf 36bf af91 f6be 3322 acbf
000002d0: a131 bebd 797d 10bf 7c15 8fbf 335a 2dbc
000002e0: 0128 88bc 5fc7 2ebf a111 60bf 9dd6 1e3f
000002f0: 4174 85be 3b65 6ebe 7267 cbbe c434 273d
00000300: 3fe1 903e a543 23bf 962e b6be 7414 383f
00000310: 686d 06bf e2a7 91be c775 acbf e86c adbf
00000320: 14f6 ee3e a2e6 adbe 0173 423c 1812 65bf
00000330: 4486 04bf a0b1 1ebf c8f7 9d3e 79e9 dd3d
00000340: d8a2 07bc f4c9 a43e e4ac 57bf 5343 d53e
00000350: 6fa6 a5bf 5f2c 6dbd 299d 05be b8c4 bfbe
00000360: cb93 2b3e 3bd6 b3be 5f78 a2bd bbb2 92bd
00000370: eefa f0be 9e10 833d aea4 7b3c ac94 06bf
00000380: bcce dfbc 505b 8fbe 0f60 553d 12ca 0ebc
00000390: b82e 0fbf 7fea 31bf e25d 72be f8f3 33bf
000003a0: 4310 36bf cf76 95bf 2bed b8be 3a7a ec3e
000003b0: 62d5 9bbf 2dee ffbe a9e3 103e 70e5 7dbf
000003c0: 0ab5 99be af11 44bf 2354 e03d 3e70 b6be
000003d0: e760 50bf 72d0 26bf 86ba 5fbf f3d5 2cbf
000003e0: 49ce 16bf f9c8 d7be d440 82bf 213d 2fbe
000003f0: 7f20 e9be 700e 373e 86b5 edbe 0ab2 b3bf
0.45678556 -0.3532254 -0.2692266 -0.30434042 -0.42113376 -0.15230154 0.091297954 0.10203524
-0.3584636 0.1628551 -0.8507598 -0.17793949 0.14649895 0.09240867 -0.48417374 -1.3015004
0.2533176 0.3622711 0.3750644 -0.3986509 0.007043826 -0.12593405 0.08683501 -0.101613976
-0.030286364 0.24293432 -0.15337119 0.2585929 0.06957983 0.29135752 0.07669084 -1.1148741
-0.46817794 0.1277981 -0.013368265 -0.5747139 0.3656047 -0.5461487 -0.48284706 0.26164234
-0.114173815 0.3520681 0.17677473 0.18326311 -0.21050873 -0.9487248 -0.4486004 0.15926257
-0.6043607 0.4954397 -0.6941467 -0.07843491 0.041170575 0.25927797 0.08420475 -0.6373857
-0.6568671 -0.17360696 -0.26859617 0.057386078 0.2568938 -0.36200607 -1.1967865 0.021795576
-0.59271 -0.50519377 -0.31311208 0.06249902 -0.36042225 -0.8073555 -0.15602238 -0.96364987
0.09301419 -0.09469721 -0.34044516 -0.5897985 -0.17466338 -0.5937024 0.020797746 0.5333211
0.3503641 0.22215198 -0.06872441 -0.034545377 0.12088346 0.22744156 0.110016435 0.033278923
0.47367287 -0.09820898 0.32257253 -0.48596904 -0.5245143 -0.43354315 0.5975656 -0.4154859
-0.08800137 0.057371452 -0.32742685 -0.010009276 -0.059796713 -0.4628327 -0.3576286 0.023236848
0.53825104 -0.11566152 -0.20700283 -0.5462466 0.21519011 -0.16720499 0.17470635 -0.31147492
0.22375055 -0.35329303 -0.027787527 -0.12501186 -0.04501734 0.19710031 -0.09713843 0.18721667
-0.33633593 -0.26069212 0.4073994 -0.391818 0.120380804 0.8106515 -0.31060457 -0.616663
-1.5157549 -0.6827022 -0.0046996134 1.3110436 0.08421265 -0.57237405 0.3667486 -0.32168463
1.024348 -1.0195044 -0.6677881 -0.58424926 0.13894646 0.04820218 -0.99248743 0.31014177
0.36472976 -0.98644704 -0.5186735 0.24642122 -0.7399175 -0.27580786 -0.77656627 -0.6675211
-0.46653926 0.16261542 0.29375947 -0.38388866 -0.25258803 -0.42889917 -0.34090328 -0.79581463
-0.44520688 -0.5659827 -0.6527307 -0.72783846 0.23294705 -0.36250955 -0.19847873 -0.3923956
-0.5531651 -0.82893693 -0.17610197 -0.33947194 -0.5477182 -0.45093888 -0.28585476 0.11787762
-0.42993623 -0.71385324 -0.48158023 -1.3447937 -0.0928681 -0.56441456 -1.1178432 -0.010580587
-0.016620638 -0.68272966 -0.875269 0.62046224 -0.26065257 -0.23280804 -0.3972736 0.040821806
0.2829685 -0.6377509 -0.35582417 0.7190621 -0.5251069 -0.28448397 -1.3473443 -1.354886
0.46672118 -0.3396502 0.011868239 -0.89480734 -0.51767373 -0.61989784 0.30853105 0.10835547
-0.008278571 0.32185328 -0.84248185 0.41652927 -1.2941417 -0.057903644 -0.13048233 -0.37454772
0.16755597 -0.35124382 -0.07933115 -0.071629964 -0.47066444 0.06399654 0.015359087 -0.52570605
-0.027320258 -0.27999353 0.05209356 -0.0087151695 -0.5593066 -0.6949844 -0.23668626 -0.7029414
-0.71118563 -1.1676883 -0.36118445 0.46187 -1.2174494 -0.499864 0.14149345 -0.9917822
-0.30020934 -0.76589483 0.10953548 -0.3563251 -0.8139786 -0.6516181 -0.8739399 -0.6751396
-0.58908516 -0.42145517 -1.0176034 -0.17113163 -0.45532605 0.17876601 -0.46427554 -1.4038708

network_body._body_endoder.seq_layers.2.bias f4 [128]
00000000: 4990 153e c0ad 253e a868 033f 723d 703d
00000010: 7d82 6b3e 051e 14bf 30d9 113f d2b8 863f
00000020: 6e82 1dbd a880 e53e e7e1 dcbe 5394 1ebf
00000030: 262e 29bc bd8a 0c3e ab97 57be 1fdd 7bbe
00000040: e79f 723e 25bc 443d 9e27 113f d03b 273e
00000050: 8bbf 82be bf55 2cbe 0625 8ebc a0d1 b33e
00000060: ceb0 02bf f588 303f 3129 983e 961a b6be
00000070: 5a64 babe f4c4 79be 7624 823f b619 753d
00000080: 3025 d23c 6c32 833e a59f 2a3e a313 123e
00000090: 5c3e dfbd dbec 38be 9f9c c5be 9e0d 46be
000000a0: 9675 06bf 10a7 88be c9a1 b03e 76e4 8bbe
000000b0: 95ac 753f 37e6 0e3f 3238 31bf f9ec 2fbd
000000c0: 60c1 d53e 430f 04bc 94b6 933e 4a48 5abe
000000d0: 8fd1 b83e 718a fd3d 36f3 95bd c02f 453d
000000e0: 6268 9cbe d808 34bf a7b9 f23e 3ded 1ebf
000000f0: 320f 603f b91e d63e fc3c 24bf 4e20 7f3e
00000100: 13d9 993d f986 ec3e 119f 50bf 609b 223c
00000110: 9a30 eebe e592 173e 2209 223e 0b26 0f3f
00000120: 73a5 973c 6262 613d 2fe0 a73e 6f2a c23d
00000130: e1fc 403f 562e 843e ef1a d8be 4af6 6bbe
00000140: fc00 b73d 3a5c efbe 6445 ad3e 1b61 cf3e
00000150: 69a2 f8bd 0ab4 433f a04b 9e3e 4d10 063f
00000160: 0bd8 533e a9e4 ad3e 12c0 a13e a343 ccbb
00000170: 02a3 13be a3a0 9bbd 74dc 8bbf b16a 0ebe
00000180: 2187 f3be f296 33be 63f3 f43e f840 a13e
00000190: 6fdb f1bd 5af1 50be e29e d3bc 59a9 853f
000001a0: acc7 773f 8b1e c6bc 763b a8bd 27da 5b3e
000001b0: 88f8 d7bd 9898 72be 8509 b6be 9ee0 5cbe
000001c0: bbaa a83e 8393 8e3e 38e8 223e 791a f2be
000001d0: dbea a73e 6af6 91be 3a45 9f3e dbb8 a3bf
000001e0: 54ea 2a3e b8e4 c33b 1c5e d1be 6061 923e
000001f0: 66ab 093f 47e4 213f 6001 ca3e 4a2a a73e
0.14605822 0.16179562 0.5133157 0.05865235 0.22998996 -0.57858306 0.56972027 1.0525153
-0.038454466 0.4482472 -0.431411 -0.61945075 -0.010325944 0.137248 -0.2105395 -0.2459607
0.2369381 0.04803099 0.56701076 0.1633141 -0.2553676 -0.16829585 -0.017351639 0.3512087
-0.5105103 0.6895898 0.29718927 -0.35567158 -0.36404687 -0.24391538 1.0167377 0.059838973
0.025652498 0.25624406 0.16662462 0.14265303 -0.10900566 -0.18059103 -0.38596055 -0.19341132
-0.5252317 -0.2668996 0.34498432 -0.2732274 0.95966464 0.5582003 -0.6922637 -0.042950604
0.41749096 -0.008060279 0.28850234 -0.21316639 0.3609738 0.12379921 -0.073217794 0.04814124
-0.30548388 -0.70325994 0.47407266 -0.62080747 0.87523186 0.41820315 -0.64155555 0.24914667
0.07512107 0.46196726 -0.81492716 0.00992474 -0.46521455 0.1480213 0.15823796 0.55917424
0.01851151 0.055025466 0.32788226 0.0948075 0.7538586 0.25816602 -0.4220805 -0.2304317
0.08935735 -0.4675005 0.33842003 0.40503773 -0.12140352 0.7644659 0.30917072 0.52368623
0.20687883 0.33963516 0.3159185 -0.006233649 -0.14417651 -0.075989984 -1.0926652 -0.13907887
-0.47564033 -0.1753805 0.4784194 0.3149488 -0.11809432 -0.20404568 -0.025832597 1.0442306
0.9678905 -0.024184486 -0.08214466 0.21469937 -0.105454504 -0.23691022 -0.35554138 -0.2157006
0.32942757 0.27846918 0.15908897 -0.47285822 0.32796368 -0.28508312 0.31107503 -1.2790788
0.16690952 0.005978193 -0.40892112 0.28589916 0.5377716 0.6323895 0.39454174 0.32649451

action_model._continuous_distribution.log_sigma f4 [1, 2]
00000000: 2ec4 d3bd 1926 7fbe
-0.10340153 -0.24916877

action_model._continuous_distribution.mu.weight f4 [2, 128]
00000000: 216f 47bf a59b f33e b063 9e3f 54e4 83be
00000010: 44c1 17bf 9d92 b73c 42a5 533f 3790 b43e
00000020: 1cec 67be bfd7 7fbf 25a5 f6bd a2a8 debb
00000030: 32ca dd3e 8c2b 9ebe 5a7e b2bb b77d 17bd
00000040: 6f5c b8bd c32e eabe bb66 c73d f0ab 87bf
00000050: b5f9 64be 5cd2 183e c86c 81bd 00a8 793e
00000060: ae1c 12bf 2a93 8f3f dc07 03bf 2c2a 7c3e
00000070: e70e a73e cab7 c6bd c7b3 78bd 5f2c 9b3e
00000080: 5be3 9b3d 6978 1a3f 4c52 26be e054 003f
00000090: 7de0 91be 85d0 b93e bbd5 4a3d 74b7 08bf
000000a0: 5ceb 063f 733d 1d3d 4a7e 393f cbb6 92bc
000000b0: 06b5 42bf b655 a83e ae53 9d3e f8d0 3abd
000000c0: b2d3 f5be c079 acbc 7c47 31bf 6e58 00be
000000d0: 19f5 3e3e ffd9 e8be 84a3 a43e 4ca2 143f
000000e0: 7ffc fe3d 5467 17be 9677 57be bdd3 0abc
000000f0: a549 2ebe 70bd 213e d93b 243f 054d ce3d
00000100: c7fd 293d ac64 1a3f f59e 0dbe 5f0b 723e
00000110: 498b ae3d bd9b d83e 7c02 cfbd 99d7 4c3f
00000120: 4f48 cebe dbf5 3abd 4067 4ebf 1431 1f3d
00000130: dc9b 873e 0e23 cabe ab34 a1bc 652c 1fbe
00000140: 26a4 d63e 0f53 e7bc 4df8 69bf 7863 e1be
00000150: 2fb3 bcbe 52dc 58bf 31e9 193e 59c4 163f
00000160: ff37 d4bd fd41 73bf f054 42bf e1ec 03be
00000170: 6005 0dbf 7529 f5be 0849 9bbd 1d1b f63d
00000180: 287a 043f 4694 bfbe 868f 243f 03bf 54bf
00000190: f639 92be a159 283d 0d60 5abf d6c3 91be
000001a0: 2184 f5bf 793d 6e3d 833d a1b9 3e90 03bf
000001b0: cad5 adbd 6eaf 323f 9fbb 30be 62c3 ab3d
000001c0: 5817 0cbf a859 973f 0c03 7d3c 04e7 36be
000001d0: 7280 f73d 3f0f 70be 48fe 743f 4c20 89be
000001e0: 1910 4b3f 67ea 4bbf ffc3 b8bd 41fd 5ebe
000001f0: 71d8 bbbe 414e 27bf e3b8 3c3e 2ce5 a23e
00000200: 40be 09be 9254 62be d677 7ebe bb0b 63be
00000210: 5f01 21be 34b1 5e3e 6206 1d3e 50e1 8d3e
00000220: 65a0 21bd fb8b 68be 11cf c03d 8617 9cbd
00000230: ce4e a03e 1cad 86be 0f9a e73b 9a02 033f
00000240: 7e89 f9be dfea e3bd 1e66 ccbe b967 983e
00000250: e977 7a3e d53e 36bf 2606 7b3e 5dff 96bf
00000260: d53c 5abd e3b9 243e 24f3 633e b62a 023f
00000270: b988 073d 63ed cd3d 9f91 983e 51c6 843e
00000280: f3ad e03e 5c2e 57bd 38e9 8fbd 93e4 afbc
00000290: 6d60 04be fafd b53c 892b 42be f071 df3e
000002a0: 1238 af3e f3ad 96bd 435b f83e a828 2a3f
000002b0: 8b3e 2fbf 2142 fcbe 0508 b7bd c1c4 d9be
000002c0: e735 4e3e e0e6 d7bd 07ab 1ebe 50ea 113e
000002d0: 22f4 a43d 730f 76be 5a68 1c3e c533 d4bd
000002e0: e96f 0a3e 347b fe3d 0d2f 60bf 0e91 4ebd
000002f0: a236 26bf d64e 68bf 94e6 fb3d c126 f5be
00000300: cefa 49be ce30 08bf c753 453d 31fe abbd
00000310: cd3f d73e 512b 623e 0e3f f2bd cd69 9a3d
00000320: b199 28be 5161 34be 25df acbe 56a5 b6be
00000330: 628b 613e 7ff4 b4be de25 a63d 37a1 c13d
00000340: 2af4 dd3c b517 0f3e e590 88be f1ce 6e3d
00000350: 6b49 dfbb 1f0a 6fbf 34c4 86be eaa3 ec3b
00000360: ca8b cebd 219a dfbc c396 9bbd 2403 153e
00000370: 26fe f2be d0c3 b6be ff64 113e f8cf 72bd
00000380: 61ed bdbd 70ec bd3b e14e dd3e da78 063e
00000390: 64df fabe 61ff 033f e905 ff3b d041 843c
000003a0: 4582 fdbd 1314 6a3e 472e d63b f70b 6b3d
000003b0: 1fc1 333f e69d 273d cdee 233e 4b3b 733e
000003c0: 18b7 273e 06e4 003f 3a84 b2be 689a eb3e
000003d0: b3a2 c7be c7c1 f73e 471a 863d 9e91 633d
000003e0: 8cf4 103e 8ae5 c0bd 17fc 8fbe 84c0 48be
000003f0: 582d 11be 9a04 923e 623f c4be a2ea 06bf
-0.77903944 0.47579685 1.2374172 -0.25760138 -0.59279275 0.022408778 0.8267404 0.35266277
-0.22648662 -0.9993858 -0.120432176 -0.006795005 0.43318325 -0.308926 -0.005447191 -0.036985125
-0.09002005 -0.457388 0.09736391 -1.0599346 -0.2236088 0.14923996 -0.063195765 0.24380493
-0.5707501 1.1216786 -0.5118387 0.24625462 0.32628557 -0.09703024 -0.060718324 0.3030729
0.07611724 0.6033998 -0.16242331 0.5012951 -0.28491583 0.362919 0.049520236 -0.5340493
0.5270288 0.03838868 0.72458327 -0.017909428 -0.7605747 0.32877892 0.30727905 -0.045609444
-0.48013073 -0.021054149 -0.692497 -0.12533733 0.18648185 -0.45478818 0.32156003 0.58060145
0.124505036 -0.1478551 -0.21041712 -0.008473334 -0.1702028 0.15794921 0.6415382 0.10073284
0.041501787 0.60309863 -0.13830169 0.2363715 0.0852266 0.4230632 -0.10107896 0.80016476
-0.40289542 -0.045644622 -0.80626297 0.038865164 0.264861 -0.3947987 -0.019678434 -0.15544279
0.4192211 -0.028237848 -0.913945 -0.440212 -0.36855456 -0.8471118 0.15030362 0.5889335
-0.10362243 -0.95022565 -0.75910854 -0.12883331 -0.55086327 -0.47883192 -0.07582289 0.1201689
0.51748896 -0.3741781 0.642815 -0.8310396 -0.28559846 0.0411011 -0.8530281 -0.28469723
-1.9180948 0.058164094 -0.00030754143 -0.5139197 -0.08488043 0.69798934 -0.17259072 0.08386876
-0.5472312 1.1824236 0.015442621 -0.17861563 0.12085046 -0.23443316 0.957005 -0.26782453
0.7932144 -0.79654545 -0.09021758 -0.21776296 -0.3668857 -0.6535378 0.18429904 0.3181547
-0.13451481 -0.22102574 -0.24850401 -0.22172444 -0.1572318 0.21747285 0.15334466 0.27710962
-0.039459605 -0.22709648 0.09414495 -0.07621674 0.31310123 -0.26303947 0.0070679258 0.51175845
-0.4873771 -0.111287825 -0.3992166 0.29766634 0.24459805 -0.71189624 0.24514064 -1.1796681
-0.05328067 0.16086535 0.2226072 0.5084642 0.033089373 0.100550435 0.297986 0.25932553
0.43882713 -0.052534446 -0.07026905 -0.021471297 -0.12927409 0.022215832 -0.1896192 0.43641615
0.34222466 -0.07357397 0.48507127 0.66468287 -0.6845481 -0.49269202 -0.089370765 -0.42532924
0.2013775 -0.10542083 -0.15494929 0.1424954 0.08054377 -0.24029331 0.15274182 -0.10361437
0.13519253 0.12425843 -0.87571794 -0.050431304 -0.64927113 -0.90745294 0.12299839 -0.4788113
-0.1972458 -0.5319947 0.0481756 -0.083980925 0.42040864 0.22086836 -0.11828433 0.07539711
-0.16464879 -0.17615248 -0.33763996 -0.35673016 0.22025827 -0.35342786 0.08112691 0.094545774
0.027093966 0.13973887 -0.26673046 0.058302823 -0.006814172 -0.9337482 -0.26321566 0.0072216885
-0.100852564 -0.027295174 -0.07597115 0.1455198 -0.47459525 -0.35696268 0.14198683 -0.059280366
-0.09273792 0.005796008 0.43224242 0.13132039 -0.4899856 0.5156155 0.007782687 0.016144663
-0.123783626 0.2285922 0.0065362784 0.057384457 0.70216554 0.040922068 0.16009064 0.23753087
0.16378438 0.50347936 -0.34866506 0.4601624 -0.38991317 0.48390028 0.06547981 0.055558793
0.14155787 -0.09418781 -0.28122017 -0.19604689 -0.14177454 0.28519136 -0.38329607 -0.5270177

action_model._continuous_distribution.mu.bias f4 [2]
00000000: 009b c33d 28a3 b23f
0.09551048 1.3956041

exp_avg f4 [128, 6]
00000000: b1dd ea37 2453 9db6 c0c1 a3b8 7931 85b8
00000010: cc6f 9db6 b47c 53b9 57f3 022c 0a8d 92ab
00000020: 46a3 7dad 3ceb b12c fd68 92ab a510 00ae
00000030: a40e 34ba e972 b9b7 a67c ecb9 fdbb f738
00000040: b942 b9b7 9a45 4fba 1c06 f431 40ae 3433
00000050: 974a 1c35 7ca3 b3b4 6182 3433 c725 9e35
00000060: 4716 e5a8 cb9a 0128 4f0e b629 2bd2 04a8
00000070: c57a 0128 d294 622a cc6a 0fbc c50d 93b9
00000080: 4e30 63bc ad8e a8ba a3e7 92b9 3b73 4ebc
00000090: 0d91 d730 82be 23af 1957 05b1 1f84 f1af
000000a0: a595 23af 9723 8cb1 d136 00af 2188 c6ae
000000b0: 0031 02b1 ddfb 7430 8155 c6ae df8a 2db1
000000c0: 721d 19ba 3869 49b8 2f75 42ba 9d63 2cba
000000d0: cc37 49b8 1c62 d1ba 56e9 c9b8 d7db 9cb9
000000e0: b972 aabc a72e b33b 91ad 9cb9 7573 23bc
000000f0: 530e 3ab7 f6fd 5f35 bbed c136 65a4 a136
00000100: 73c7 5f35 23a6 c337 d45c f0b3 ee65 c5b2
00000110: 8a9d ae35 de6f f6b4 3434 c5b2 a83c 6fb5
00000120: cb26 d4ac 2c00 9529 71b2 16ac af37 cd2c
00000130: 92dc 9429 27e7 012c 4d1d 462c 3a71 5eab
00000140: 46e3 d2ac 726e f3ac c63b 5eab 12cf c2ad
00000150: d305 24b6 ec7b 6eb3 870c ed35 e488 1cb6
00000160: b65b 6eb3 4c85 d0b5 a777 4cbe 6368 95bc
00000170: 2e16 32bf 56eb 373d e941 95bc da24 29bf
00000180: c77b 593f d4d6 9c3d 4f77 3640 0f90 d8bd
00000190: 8fae 9c3d 3e46 3340 23a5 6ab0 e9e2 0eb0
000001a0: b64a feb1 617a 8b31 08c0 0eb0 02e7 7db2
000001b0: d07c 8a38 6c28 b6b3 d230 de36 c2a7 0539
000001c0: 09eb b5b3 d045 42b7 c08b 4d33 44e6 0230
000001d0: f94c 0f33 3bc7 4633 cec5 0230 eb81 d732
000001e0: d423 28b6 ec84 e2b5 0cec c2b7 d036 5e37
000001f0: db4d e2b5 cae3 48b8 8e98 02be a3e6 2cbc
00000200: fe43 c0be 2276 abbc 7db9 2cbc 5df0 c8be
00000210: 2e60 1fb6 52f5 b533 6170 5cb5 5d99 5e35
00000220: eace b533 8671 1f36 524e b82d 40aa fdab
00000230: 8d1f bead b4aa d32c a06c fdab 79b4 5dae
00000240: 773f 173d 2e03 3c3b fd55 723d 66e9 763d
00000250: c9cc 3b3b b513 d33d 26b3 b4a8 f934 2028
00000260: 0fc1 08a9 6ac0 fd29 b212 2028 ef3e 8c2a
00000270: 27d7 9cb4 b54d 5ab3 86e2 a4b5 b39b 83b4
00000280: a213 5ab3 7999 bdb5 6c52 bd3e b32e 093d
00000290: a102 a33f a757 3fbd 740b 093d 4301 9d3f
000002a0: ac05 5533 c350 4031 ed1a 3f33 ba47 7c33
000002b0: 971e 4031 d823 c833 6632 09b5 dd42 d7b4
000002c0: d1a9 84b6 0a4e 7936 570e d7b4 e5a9 36b7
000002d0: 77c3 82ab 3067 afaa 5bd5 a2ac 5519 532c
000002e0: 8b3c afaa 6f81 19ad 9e88 a6bf 3080 12be
000002f0: 39ff a3c0 88a0 be3e 8d5a 12be d9c6 a2c0
00000300: aebb 0fb5 fed9 a732 209b 80b3 33c9 6434
00000310: 71b1 a732 5a0e 1235 b9ae eeac ee32 d82c
00000320: daba 882d ab1a 512e 24ff d72c 95e3 3b2f
00000330: c37f 9ab3 f41b 22b0 c053 92b3 0a98 3b32
00000340: 63d5 21b0 f7e5 9cb2 901a dfba e435 bfb8
00000350: c11a b7ba c9c0 0fbb 7506 bfb8 b5f6 4abb
00000360: e4b1 1638 2829 0036 4b34 f137 fdcf 4038
00000370: 5008 0036 a231 8838 aca8 3e2a 95cf d72a
00000380: 8a44 ab2c 3877 3eac 159c d72a e8b1 3c2d
00000390: 0e30 d238 6ac5 4ab7 74cd 8db9 a726 d138
000003a0: 4191 4ab7 6c2f afb9 d46a 2fb6 a658 6034
000003b0: 3f23 bf36 a70d 19b6 101a 6034 7918 c436
000003c0: 819a 5eba c50e bf38 6589 a73a 8726 7938
000003d0: 03df be38 b09c 183b c671 97b2 e2c9 f1b2
000003e0: 255a ccb4 7612 5e34 fa8d f1b2 eba3 51b5
000003f0: 1112 35be 4e6b 55bc 5403 06bf 2298 47bb
2.7998207e-05 -4.6886435e-06 -7.8085344e-05 -6.351149e-05 -4.6919795e-06 -0.00020168984 1.8609192e-12 -1.041307e-12
-1.4417639e-11 5.056759e-12 -1.0403064e-12 -2.9118614e-11 -0.00068686367 -2.2107228e-05 -0.00045106298 0.00011812893
-2.2084789e-05 -0.0007906795 7.102029e-09 4.2067995e-08 5.822307e-07 -3.34603e-07 4.2028095e-08 1.1782912e-06
-2.5433769e-14 7.194504e-15 8.084906e-14 -7.373045e-15 7.18756e-15 2.0124465e-13 -0.00875349 -0.00028048284
-0.013866497 -0.0012859904 -0.00028019873 -0.012600715 1.5684535e-09 -1.4892446e-10 -1.9403557e-09 -4.3931522e-10
-1.4877928e-10 -4.0785824e-09 -1.1661007e-10 -9.028179e-11 -1.8945343e-09 8.91246e-10 -9.019186e-11 -2.5253752e-09
-0.00058408745 -4.8020127e-05 -0.00074179744 -0.0006576123 -4.79741e-05 -0.0015974673 -9.627889e-05 -0.00029918432
-0.020806657 0.005468208 -0.00029883956 -0.009976258 -1.1089799e-05 8.3443535e-07 5.7795237e-06 4.817312e-06
8.336421e-07 2.3323175e-05 -1.1192756e-07 -2.298017e-08 1.300986e-06 -4.5902465e-07 -2.2957558e-08 -8.9122705e-07
-6.0297093e-12 6.616959e-14 -2.1415337e-12 5.8326326e-12 6.610783e-14 1.8460318e-12 2.8153758e-12 -7.9027377e-13
-5.9937914e-12 -6.9187373e-12 -7.8953196e-13 -2.2147204e-11 -2.4441294e-06 -5.55264e-08 1.7661522e-06 -2.3325492e-06
-5.5497104e-08 -1.5536002e-06 -0.19967519 -0.018238252 -0.69565094 0.04490217 -0.018219905 -0.66071856
0.84954494 0.07658163 2.851032 -0.10574352 0.07650482 2.8011622 -8.536338e-10 -5.198176e-10
-7.4008666e-09 4.0593453e-09 -5.193219e-10 -1.4779063e-08 6.603601e-05 -8.482388e-08 6.621799e-06 0.00012746363
-8.471222e-08 -1.1579556e-05 4.7857384e-08 4.762095e-10 3.336479e-08 4.6281666e-08 4.757482e-10 2.5088374e-08
-2.5054806e-06 -1.6876998e-06 -2.323652e-05 1.3244993e-05 -1.6860971e-06 -4.789586e-05 -0.12753507 -0.010553035
-0.37551874 -0.020930354 -0.010542271 -0.39245883 -2.374883e-06 8.473093e-08 -8.211992e-07 8.292462e-07
8.466107e-08 2.3758926e-06 2.095316e-11 -1.8023985e-12 -2.161451e-11 6.0159325e-12 -1.8006881e-12 -5.0409874e-11
0.03692576 0.0028688419 0.059164036 0.06028118 0.0028655997 0.10306493 -2.0061708e-14 8.893271e-15
-3.0365518e-14 1.12688355e-13 8.885838e-15 2.4912665e-13 -2.9213808e-07 -5.0827754e-08 -1.2284879e-06 -2.4513938e-07
-5.0774936e-08 -1.4126264e-06 0.36976945 0.0334918 1.2735177 -0.04671445 0.03345819 1.226601
4.9598086e-08 2.7985585e-09 4.4495142e-08 5.8738557e-08 2.7957066e-09 9.319746e-08 -5.1109816e-07 -4.009552e-07
-3.953676e-06 3.7149316e-06 -4.0057304e-07 -1.0887602e-05 -9.291308e-13 -3.1157845e-13 -4.628004e-12 2.9998966e-12
-3.1128255e-13 -8.725783e-12 -1.3010442 -0.14306712 -5.124905 0.3723185 -0.14292355 -5.0867734
-5.354476e-07 1.954049e-08 -5.9886816e-08 2.130735e-07 1.952205e-08 5.441012e-07 -6.783765e-12 6.1447436e-12
1.5544389e-11 4.7544784e-11 6.138994e-12 1.7088404e-10 -7.1944235e-08 -5.897498e-10 -6.813889e-08 1.0919402e-08
-5.88747e-10 -1.8265366e-08 -0.0017021466 -9.1176276e-05 -0.0013969765 -0.0021934977 -9.1087924e-05 -0.0030969803
3.592846e-05 1.9097442e-06 2.875379e-05 4.597007e-05 1.9078325e-06 6.49423e-05 1.693391e-13 3.833571e-13
4.8677217e-12 -2.7066804e-12 3.8299976e-13 1.0726066e-11 0.00010022531 -1.2086102e-05 -0.0002704669 9.973096e-05
-1.2073958e-05 -0.00033413933 -2.6139214e-06 2.0893876e-07 5.6963468e-06 -2.2806723e-06 2.0871107e-07 5.844104e-06
-0.0008491651 9.110341e-05 0.0012782036 5.9402108e-05 9.101445e-05 0.0023286752 -1.7630452e-08 -2.8147898e-08
-3.806355e-07 2.0682077e-07 -2.8120656e-08 -7.80971e-07 -0.17682673 -0.013026072 -0.5234883 -0.0030455668

exp_avg_sq f4 [128, 6]
00000000: f7d6 2c3c 0dbc 3638 4e06 553a a559 793c
00000010: 3060 3638 e912 623d 060b 2a24 3e7c 2b20
00000020: 3017 1c21 296b 7723 d624 2b20 8e73 1325
00000030: 90e3 9b3c 0a30 3e38 cd15 953b 1b47 5a3b
00000040: ded0 3d38 328b 333d 7e50 8d38 a946 5234
00000050: c03a 2435 60b3 9e37 d1db 5134 3d06 3939
00000060: b8aa 0025 c1c8 da20 a064 0821 a345 2924
00000070: 3759 da20 e1a9 bf25 6dc8 793b 42a1 2438
00000080: 812c 7f3d 1791 553b b54c 2438 8a5f 833d
00000090: e894 4b2f 9f89 522b 9443 012c 16af 0d2f
000000a0: 721f 522b 4bfc 4230 ca3e b324 3c7f 8a21
000000b0: 5808 8124 2cc8 1f25 e639 8a21 6df9 5b26
000000c0: a9fc 433d 497a 4439 3c1b d93b 839d 943c
000000d0: 9217 4439 c66e 793e 9906 953d 7788 5139
000000e0: cc05 533e db4e 083e 5f1d 5139 f13e 683e
000000f0: 2457 2234 4812 3531 69ab a133 d808 9435
00000100: a8b6 3431 d2c4 5636 0896 4633 c871 c82e
00000110: 85bb 0d32 2f37 e432 410f c82e a443 a533
00000120: d580 b325 166a a121 4d4a e221 d238 f924
00000130: c217 a121 a129 8d26 5ee1 fe21 f678 271e
00000140: fb65 1420 5efd 8221 c424 271e 633a 0723
00000150: bd9d fe33 f400 c830 fb41 ff32 e12f a733
00000160: 3e9b c730 f1b1 b335 287a 1f3e 52f6 c43a
00000170: 2eaa 9c3f ab0f 0b3f b091 c43a f38d 0240
00000180: 33ab 923f 3b63 c83b beae f040 4bd3 853f
00000190: 9efc c73b fe3d 1741 136b 0934 1399 bf2f
000001a0: cfb9 7230 11de 1233 8b37 bf2f 9fab a734
000001b0: d127 a237 b04b 8933 187f 2f38 5b2e 2938
000001c0: 0006 8933 de4c 6c38 1018 742d c7d3 0029
000001d0: 48cf b32d e951 2d2d 9193 0029 15d2 c82d
000001e0: 1491 083c 4e1f c137 ecf8 e138 880d 0a3b
000001f0: aebd c037 297f ad3c dc56 cb3d 0b93 223a
00000200: b076 093f 9497 0e3e 6240 223a 0961 5e3f
00000210: ccbe 8735 323b 6d32 988a 4434 6d7a 0a37
00000220: 1dc4 6c32 f0c3 8e37 2589 8d21 c647 341e
00000230: 1cd3 8520 16a2 4221 d5eb 331e 4044 0a23
00000240: c16a d23c d0e2 ad39 9bf6 d03d 91a0 f43d
00000250: a18a ad39 47bc e73e ee68 3728 3c70 2124
00000260: c370 4724 dbcc 7a27 e41d 2124 7b86 0d29
00000270: e0d8 dd34 1e02 b931 be6e 7033 b81e 3336
00000280: 40a4 b831 b1d5 db36 e215 693e 8de2 033b
00000290: ed6c 0440 3d8a 093f 239f 033b 0882 3740
000002a0: 0e18 c232 8bc5 512e c966 972f ea50 ba32
000002b0: 035b 512e 61c4 3233 fe77 3839 10fa f234
000002c0: 8333 fd36 98cd 2c38 287e f234 2788 d339
000002d0: 3538 ee23 2927 d11f c197 3b20 1744 1f23
000002e0: 89bc d01f 1fa1 b624 ad95 2240 761e 5a3c
000002f0: 18eb 9941 8967 b03f b5ae 593c c141 a441
00000300: 013a 3431 a228 182e efbe 2a30 08ab 9832
00000310: 74db 172e d677 2a33 97c6 c034 981d aa30
00000320: 0b3b d730 169a 0434 c3c6 a930 eb36 9535
00000330: 354b 5a2d 0fee ca2a 0bb3 9f2d c7b7 4c2f
00000340: 5f8c ca2a 1970 b62f 95e7 033d df56 d138
00000350: 9004 123b 19e0 a53c 45ed d038 fafa fa3d
00000360: a3b0 0039 b01f 6434 dbf4 5236 18ea 2039
00000370: 1bac 6334 254b 3a39 e3e9 0321 96ac b81c
00000380: 6cb5 f41d a7b1 f01f 1b4f b81c e6c4 9d21
00000390: 5706 4b34 2522 2031 6d61 e335 37c4 5534
000003a0: f2cf 1f31 a59e 0836 c6fc cc33 a411 9830
000003b0: 9a3f b432 a827 8a33 2bc4 9730 a475 7f35
000003c0: 902c 3c3a 6be0 b437 3f29 1f3b e718 1b3c
000003d0: 6286 b437 1808 ed3c 93a5 3236 8005 1332
000003e0: ff1f 7632 d7c1 6235 acba 1232 060b 0137
000003f0: 579b 013e ad90 813a 96c7 493f b1de 633e
0.0105492985 4.3567317e-05 0.00081262446 0.015219127 4.3481763e-05 0.055193815 3.687221e-17 1.4525372e-19
5.2885544e-19 1.3412589e-17 1.4496451e-19 1.2789369e-16 0.019029409 4.534427e-05 0.004549718 0.0033306542
4.5255634e-05 0.04383392 6.738397e-05 1.958348e-07 6.1180253e-07 1.8918596e-05 1.954461e-07 0.00017645299
1.1160072e-16 3.7063484e-19 4.621177e-19 3.6705018e-17 3.6989674e-19 3.3248333e-16 0.0038113848 3.925083e-05
0.0622983 0.00325877 3.9172086e-05 0.06414707 1.8515645e-10 7.4797975e-13 1.8369516e-12 1.2886078e-10
7.4650626e-13 7.093532e-10 7.7735244e-17 9.384922e-19 5.595897e-17 1.3858873e-16 9.366569e-19 7.6318923e-16
0.047848377 0.00018737571 0.006625561 0.018141514 0.00018700797 0.24358663 0.07276649 0.0001998263
0.2060768 0.13311331 0.00019942735 0.2268026 1.5119127e-07 2.6349358e-09 7.528326e-08 1.1029433e-06
2.6297275e-09 3.200305e-06 4.623692e-08 9.1151586e-11 8.249917e-09 2.6567788e-08 9.097657e-11 7.695715e-08
3.113885e-16 1.0937865e-18 1.5334023e-18 1.08082794e-16 1.0916073e-18 9.795124e-16 1.7271364e-18 8.8659205e-21
1.256983e-19 8.876208e-19 8.848509e-21 7.3307285e-18 1.1856489e-07 1.4552186e-09 2.9715912e-08 7.7852526e-08
1.4523278e-09 1.3388327e-06 0.15573943 0.0015027022 1.2239435 0.5432078 0.0014997032 2.039914
1.1458496 0.006115345 7.521331 1.0455106 0.0061031124 9.452635 1.2798073e-07 3.4851463e-10
8.8303137e-10 3.4195242e-08 3.4782163e-10 3.1231045e-07 1.9330446e-05 6.393327e-08 4.1841617e-05 4.033591e-05
6.380651e-08 5.6338373e-05 1.3875137e-11 2.8605397e-14 2.0441995e-11 9.852099e-12 2.8549703e-14 2.2830663e-11
0.008335371 2.302197e-05 0.000107752014 0.0021065194 2.297651e-05 0.021178799 0.099286765 0.00062017207
0.5369673 0.1392501 0.00061894034 0.86866814 1.0113813e-06 1.3808675e-08 1.8304343e-07 8.253945e-06
1.3781599e-08 1.701896e-05 9.590834e-19 9.543963e-21 2.2670777e-19 6.5944276e-19 9.52495e-21 7.4954475e-18
0.02568567 0.0003316612 0.10203286 0.11944688 0.00033100418 0.45260832 1.0181294e-14 3.5006376e-17
4.324676e-17 3.4805522e-15 3.4936628e-17 3.1424933e-14 4.1322255e-07 5.3844493e-09 5.5980074e-08 2.669096e-06
5.373778e-09 6.5515856e-06 0.22762254 0.0020124048 2.0691483 0.5372656 0.0020083867 2.8673115
2.2595511e-08 4.769655e-11 2.7539773e-10 2.1690045e-08 4.7601933e-11 4.162246e-08 0.00017592308 4.5257957e-07
7.5459843e-06 4.119947e-05 4.5167803e-07 0.00040346498 2.5827816e-17 8.857973e-20 1.5889727e-19 8.633826e-18
8.840333e-20 7.920287e-17 2.5403855 0.0133129265 19.239792 1.3781596 0.013286282 20.532106
2.6226419e-09 3.4596888e-11 6.211697e-10 1.7772905e-08 3.452834e-11 3.96902e-08 3.590728e-07 1.2377539e-09
1.566009e-09 1.2349514e-07 1.235286e-09 1.1117348e-06 1.2408565e-11 3.6047594e-13 1.8155718e-11 1.8618983e-10
3.597981e-13 3.3185257e-10 0.032203276 9.9820776e-05 0.0022280551 0.02024846 9.962408e-05 0.12254901
0.00012272834 2.1245683e-07 3.1434963e-06 0.00015345996 2.1203634e-07 0.00017766336 4.4694073e-19 1.2220711e-21
6.477385e-21 1.01937855e-19 1.2196547e-21 1.0690852e-18 1.8908155e-07 2.3302473e-09 1.6941173e-06 1.9908553e-07
2.3255748e-09 2.0357922e-06 9.5454695e-08 1.1064469e-09 2.098368e-08 6.433339e-08 1.104245e-09 9.516609e-07
0.0007178271 2.1562175e-05 0.002428606 0.009466386 2.1520249e-05 0.028934523 2.6620444e-06 8.557777e-09
1.432636e-08 8.4473635e-07 8.540763e-09 7.691566e-06 0.12656914 0.0009885036 0.7882017 0.22252919

exp_avg f4 [128]
00000000: ce6f 1db7 fc68 12ac b942 39b8 6182 b433
00000010: c57a 8128 a2e7 12ba a695 a3af 8055 46af
00000020: cb37 c9b8 93ad 1cba 76c7 df35 2634 45b3
00000030: 94dc 142a c23b deab b65b eeb3 ea41 15bd
00000040: 8eae 1c3e 08c0 8eb0 49eb 35b4 c8c5 8230
00000050: da4d 62b6 7bb9 acbc eace 3534 a06c 7dac
00000060: c8cc bb3b b212 a028 a113 dab3 760b 893d
00000070: 971e c031 540e 57b5 8c3c 2fab 8d5a 92be
00000080: 6fb1 2733 24ff 572d 81d5 a1b0 7506 3fb9
00000090: 5008 8036 189c 572b 4291 cab7 0a1a e034
000000a0: 04df 3e39 fa8d 71b3 b234 d5bc 02a8 b933
000000b0: 253c 67b3 6610 91ba acaa bf2b b7ba c22b
000000c0: a7fc 3637 5331 a2b4 f0c5 0eb2 1b46 89ae
000000d0: bf47 ef2f 38f1 10b5 df21 8aae d301 fab5
000000e0: 1482 1eb7 8d87 b5b3 c7d7 71b9 58ab 81b7
000000f0: 9dfc 56be ebb1 c037 a499 c9b6 2b84 d3b2
00000100: d89a b7af 038b b0b5 d8b5 a52f ec29 f53b
00000110: 332a 2a38 ae3e 83ba 9e5b 3434 3b48 3abe
00000120: c777 8eab d2b1 1036 0564 95b7 66d0 b9b7
00000130: baea b0b6 6360 c9b8 9369 2bab d7cd 20af
00000140: b151 2c3d 9b63 8b3e 7da9 49b7 ccd6 aab8
00000150: b0bf 8eb7 f453 502c 7870 b2ab 970d f3ac
00000160: 1b1a 33ad 976d 3127 1eba 1733 5631 5136
00000170: 0edb bdba a0f9 6b28 ef7b 4bbc fff1 ff39
00000180: 1520 a538 0748 782b 3d99 37aa 3fee 4aab
00000190: d486 7baf 1fa0 9eab 4ec4 7635 a004 52b4
000001a0: 171c 8c32 39ad 8bb6 cdf4 4437 106a 873e
000001b0: d94e d8b6 e2b7 45ab 29d3 dbb3 2b99 9dbb
000001c0: 7caf a33e 5880 adb3 0960 6db3 718b cdb4
000001d0: 64db 29bb ee3a 17b7 5794 83b5 ecdc d33b
000001e0: 5905 fbbd 3f2d 5b35 54ec a4bd 3af4 27ac
000001f0: bc3c 9cae b234 cd2d ef05 cb30 a1cb 4035
-9.383961e-06 -2.0806126e-12 -4.4169577e-05 8.405619e-08 1.437512e-14 -0.0005603974 -2.975586e-10 -1.8038371e-10
-9.594819e-05 -0.00059767923 1.6672846e-06 -4.5915066e-08 1.3221569e-13 -1.5790635e-12 -1.1099421e-07 -0.036439814
0.15300962 -1.0386438e-09 -1.6942535e-07 9.514958e-10 -3.372194e-06 -0.021084538 1.6932213e-07 -3.6013761e-12
0.005731199 1.7771676e-14 -1.01549865e-07 0.06691639 5.591413e-09 -8.011459e-07 -6.2256515e-13 -0.2858471
3.9044092e-08 1.2277988e-11 -1.1774973e-09 -0.00018217585 3.815665e-06 7.659997e-13 -2.4147917e-05 4.1742197e-07
0.00018202892 -5.6241312e-08 -0.026026104 8.645294e-08 -5.383858e-08 -0.0011067509 1.3618737e-12 1.3836353e-12
1.0906871e-05 -3.021074e-07 -8.310494e-09 -6.242492e-11 4.3524825e-10 -5.39952e-07 -6.28153e-11 -1.8626982e-06
-9.44782e-06 -8.453126e-08 -0.00023063934 -1.5457787e-05 -0.20994802 2.2971033e-05 -6.008153e-06 -2.4623736e-08
-3.339753e-10 -1.315348e-06 3.0142533e-10 0.007481804 4.057046e-05 -0.0010013187 1.6797136e-07 -0.18191616
-1.0122952e-12 2.1561177e-06 -1.780876e-05 -2.2150762e-05 -5.2725345e-06 -9.60238e-05 -6.089792e-13 -1.4625044e-10
0.042070094 0.2722443 -1.2019996e-05 -8.146241e-05 -1.701698e-05 2.9605181e-12 -1.2678877e-12 -6.907984e-12
-1.01807686e-11 2.4623093e-15 3.53267e-08 3.1172144e-06 -0.0014484839 1.3099249e-14 -0.012419685 0.0004881769
7.873789e-05 8.8207257e-13 -1.630683e-13 -7.209545e-13 -2.2876218e-10 -1.1271018e-12 9.19278e-07 -1.9559457e-07
1.6310919e-08 -4.1626886e-06 1.17395075e-05 0.26448107 -6.4464807e-06 -7.024365e-13 -1.0236392e-07 -0.004809519
0.3196982 -8.079286e-08 -5.5268206e-08 -3.8285683e-07 -0.002591812 -9.014022e-06 -9.803433e-07 0.006465545
-0.12256879 8.16497e-07 -0.080528885 -2.38677e-12 -7.104847e-11 2.3329203e-11 1.477188e-09 7.182189e-07

exp_avg_sq f4 [128]
00000000: 3060 3639 d624 2b21 ded0 3d39 d1db 5135
00000010: 3759 da21 b54c 2439 721f 522c e639 8a22
00000020: 9317 443a 5e1d 513a aab6 3432 3f0f c82f
00000030: c217 a122 c324 271f 409b c731 b091 c43b
00000040: 9ffc c73c 8b37 bf30 0106 8934 9193 002a
00000050: b0bd c038 6340 223b 1cc4 6c33 d5eb 331f
00000060: a18a ad3a e41d 2125 40a4 b832 249f 033c
00000070: 045b 512f 2a7e f235 89bc d020 b5ae 593d
00000080: 74db 172f c3c6 a931 5f8c ca2b 45ed d039
00000090: 1bac 6335 1b4f b81d f2cf 1f32 2bc4 9731
000000a0: 6386 b438 acba 1233 694e 813b c5a6 4937
000000b0: f5df db2d b916 1e3b f8af 5524 f7c8 f82c
000000c0: 2c5b 1a36 e53b 1b32 85a0 7034 a5d7 7522
000000d0: 2bdc c428 3eab 7433 803a ae1f a982 4f33
000000e0: 0800 d434 baa6 3030 ed4c 8038 b31c a036
000000f0: 3165 f23c 3f17 b437 e778 a234 1989 422d
00000100: 4fbf 952a 87e3 8f32 5dc3 a135 fc3e 2e3b
00000110: 12d8 b538 f760 6039 70f1 b739 e460 d53c
00000120: 68f7 9022 20a0 0331 8f74 4137 186a 9336
00000130: 1def 8d33 50c2 9339 d6ee e524 9e3b a630
00000140: b59a 9b3b 0d87 1a3d 2ec5 8939 62a5 113a
00000150: c698 9f37 08ef e920 96e6 fa1e 04f0 421e
00000160: 2183 bc1d 93ea 8427 4e45 112d 2c1a a333
00000170: 3e43 2d3a ae9c a31f cbea 243c 306d b83a
00000180: d20f 7e35 0742 501c b7b0 2f22 83a2 a51a
00000190: 9b14 de21 1a40 002e 8a70 8832 e4c8 972e
000001a0: 0de2 9e36 f5f0 e233 0c24 2136 8c3f c93c
000001b0: ea99 cf37 7a63 281f 2845 fb29 ac0e de3a
000001c0: 98a9 453d 89af dd2e 4199 a932 2b89 e32f
000001d0: 88cf 373b 8a88 cb35 5d9e e635 93e7 123c
000001e0: 96bd 123c 2ba0 a22e 94d3 df3b 8a40 241e
000001f0: 0098 1927 8c04 0c2b 5c77 2c32 c03b 3139
0.00017392705 5.7985806e-19 0.00018102254 7.817844e-07 1.479587e-18 0.00015668834 2.986025e-12 3.7466277e-18
0.00074803195 0.00079770933 1.0518912e-08 3.639062e-10 4.366429e-18 3.5394034e-20 5.809312e-09 0.0059988126
0.024412451 1.3912865e-09 2.5522607e-07 1.1419881e-13 9.1906055e-05 0.0024757616 5.5126392e-08 3.80998e-20
0.0013240167 1.3974651e-16 2.1495111e-08 0.008033548 1.9040775e-10 1.8067124e-06 3.5361333e-19 0.05314513
1.3811335e-10 4.941144e-09 1.4391924e-12 0.0003984963 8.4814536e-07 4.8786188e-21 9.302299e-09 4.41698e-09
8.6081e-05 3.416305e-08 0.003946115 1.2019363e-05 2.4996874e-11 0.002412243 4.6336064e-17 7.0708955e-12
2.3000857e-06 9.035806e-09 2.2410138e-07 3.3317853e-18 2.1855854e-14 5.696642e-08 7.3788647e-20 4.8314778e-08
3.94881e-07 6.426536e-10 6.117844e-05 4.7717126e-06 0.029589267 2.1468497e-05 3.026282e-07 1.1058065e-11
2.6600464e-13 1.6750858e-08 1.2052293e-06 0.0026587835 8.670999e-05 0.00021398427 0.00035084365 0.026047178
3.929323e-18 1.915403e-09 1.1530835e-05 4.3932923e-06 6.6093186e-08 0.000281828 9.971752e-17 1.2095034e-09
0.004748667 0.03772645 0.00026277587 0.0005555955 1.9025418e-05 3.9629913e-19 2.6565148e-20 1.03199086e-20
4.989877e-21 3.6891686e-15 8.2576845e-12 7.5950396e-08 0.0006609446 6.929239e-20 0.010065745 0.0014070626
9.4645395e-07 6.8906765e-22 2.3810475e-18 6.850495e-23 1.5048759e-18 2.9160764e-11 1.588366e-08 6.90237e-11
4.7350827e-06 1.0567775e-07 2.4011852e-06 0.024566434 2.4747995e-05 3.565767e-20 1.1158636e-13 0.0016941628
0.04825744 1.0081098e-10 1.9743881e-08 4.1388523e-10 0.0028047282 1.5164417e-06 1.7182425e-06 0.008966344
0.008956334 7.3953586e-11 0.006830642 8.695434e-21 2.1315415e-15 4.97443e-13 1.0038857e-08 0.00016902294
