MLAgentsProject/results/MoveToGoal6/MoveToGoal/MoveToGoal-15999954.pt (torch, 439199 bytes, 36 tensors)

network_body._body_endoder.seq_layers.0.weight f4 [128, 6]
000000 11 5c b0 be c5 24 9b bf bf 1a cc bf a6 47 11 3e
       -0.3444524 -1.2120596 -1.5945662 0.14187488
000010 db 61 14 bf 72 74 2c be 38 bb eb be dd 4c 5e bf
       -0.57961816 -0.16841295 -0.46041274 -0.86836034
000020 64 a1 93 bf 56 59 07 3d 33 16 3b bf c8 b7 59 bf
       -1.1533628 0.03304418 -0.7308075 -0.8504605
000030 52 77 49 3f aa 68 f5 bd 5d 8c 3d bf 60 ec 67 bf
       0.78697693 -0.11982854 -0.740423 -0.90595055
000040 b0 eb 6c 3e e9 c7 cb be 68 2f 7c 3e f7 94 d8 bd
       0.23136783 -0.39800957 0.24627459 -0.10575288
000050 f2 3c 9c bf 2e 9d 4f bf 90 8e 4a bf 32 37 0a be
       -1.2206099 -0.8109921 -0.79123783 -0.13497618
000060 6a 68 2a 3c 1d 6d 38 bf 9e a2 d9 bf 3a 44 6d be
       0.010400871 -0.72041494 -1.7002752 -0.23170558
000070 a9 35 95 bf a0 2c 8b bf bf 11 39 bf 47 24 ba 3e
       -1.1657001 -1.0872993 -0.72292703 0.36355802
000080 fc 14 32 3f 51 5d 0d bf 9e 51 fa 3e 51 63 4b bf
       0.6956327 -0.55220515 0.48890394 -0.7944842
000090 a5 17 87 bd 87 55 e2 bf 7b 36 ef bf 7d 51 5f bc
       -0.06596307 -1.7682351 -1.8688501 -0.013630268
0000a0 eb 8f b3 bf 26 1f 1a bf e9 6c 97 be cd 0f 32 bf
       -1.4028295 -0.6020378 -0.2957528 -0.6955536
0000b0 f3 cb e2 be 90 55 ff 3d 31 54 92 bf 09 af 73 bf
       -0.44296226 0.124674916 -1.1431943 -0.9518896
0000c0 11 1f c0 3e bc 08 67 be 65 9b 9b bf 26 09 43 be
       0.37523702 -0.22561926 -1.2156798 -0.19046459
0000d0 ca 93 9b be 20 c1 d0 3e ff 63 7c 3e f0 12 c6 3e
       -0.30386192 0.40772343 0.2464752 0.38686323
0000e0 9f 9f 21 3d c5 6a b7 3e b4 32 5c 3e ca ec de be
       0.039458867 0.35823646 0.21503717 -0.4354003
0000f0 7b a0 a9 bf d4 f2 e2 bd f9 74 49 bf 52 d7 0d 3f
       -1.32521 -0.11081472 -0.7869411 0.5540668
000100 ba f4 09 bf 39 a1 b3 bd 7a aa a9 3e 47 dc fb be
       -0.5388905 -0.08770985 0.33137876 -0.49191496
000110 00 1c 0c bf 1e 1f 89 bd 84 2c 86 be 8b 5f 3d bf
       -0.54730225 -0.06695388 -0.26205838 -0.7397391
000120 e6 42 6a be c9 45 86 bf b8 9f 9e bf d0 4a 32 3d
       -0.22877082 -1.0490047 -1.2392492 0.043528378
000130 3b 15 d2 bf 7f 0c 68 bf 0a 59 8d bd a3 a6 4d 3d
       -1.6412729 -0.9064407 -0.069017485 0.050207745
000140 08 82 34 bf c2 22 18 bd c2 63 a3 be c6 96 94 bf
       -0.7051091 -0.037142523 -0.31912047 -1.1608512
000150 42 15 20 bf 4f 62 89 be 06 ad 42 bf 32 65 07 be
       -0.62532437 -0.26832816 -0.7604526 -0.13222197
000160 ea 59 1f bf 40 68 1a bf 3f 95 e9 3e 91 84 d7 3e
       -0.6224657 -0.6031532 0.45621678 0.42093328
000170 12 43 33 bf 4e 44 2e bd a9 a3 a8 3d 60 28 1a 3f
       -0.70024216 -0.04254561 0.08234341 0.6021786
000180 7d 1b 20 3f f7 31 c3 be 73 fd 29 bf 2c 11 ea be
       0.62541944 -0.38124058 -0.6640236 -0.45716226
000190 f2 b2 9a bf bc 0d 41 3f 7d 0e ee 3e a4 e0 a0 3e
       -1.208586 0.7541158 0.4649543 0.31421387
0001a0 fc 13 3f bf e2 de 04 bf 8e 7c 85 be 38 82 7a bf
       -0.7463987 -0.5190259 -0.2607159 -0.9785495
0001b0 40 3d 38 3d 9a cd d1 bd cf cf a6 bd 7e 78 9a 3e
       0.044980288 -0.102442935 -0.08145105 0.30170053
0001c0 03 b7 c6 be dd e6 0e bf 1a dd 67 3e 10 60 80 bc
       -0.38811502 -0.5582102 0.22642937 -0.015670806
0001d0 27 1a 2e be da bb 15 be 40 b5 4d 3e d1 19 88 bf
       -0.17002164 -0.14622441 0.20088673 -1.0632879
0001e0 7c ef 6f 3e a1 33 ce bf 79 9b be bf c9 4e da be
       0.234312 -1.6109506 -1.4891196 -0.42638233
0001f0 2c 56 d5 bf bc ac d2 be 19 68 92 be 75 ef 37 3f
       -1.6666923 -0.4114741 -0.28595045 0.7184976
000200 77 f6 54 3d 2f 70 35 3e 00 0a 0f 3f 61 95 f2 3e
       0.05199286 0.17718576 0.55874634 0.47379592
000210 74 fc 11 bf d9 c3 f2 be 8e d7 a0 bf 36 b5 95 3e
       -0.5702584 -0.47415045 -1.2565782 0.29239815
000220 93 28 62 be 82 0b c7 be 73 59 7a be 22 c2 7d bf
       -0.2208579 -0.38875967 -0.24448185 -0.9912435
000230 9d 21 40 bf 97 61 fc bb 91 e6 e6 be 41 1b 97 bf
       -0.7505129 -0.0077020633 -0.45097783 -1.1805192
000240 a3 fa 61 bf e6 f4 27 bd 8d e7 82 bf f2 86 34 3f
       -0.88273066 -0.041005038 -1.0226914 0.7051841
000250 18 bd 40 bf bf 72 12 3e 1d bf e7 bd e5 2e 11 be
       -0.75288534 0.14301585 -0.11315749 -0.14178045
000260 79 75 0a c0 43 94 8f bd 60 01 c8 bf 95 df 47 bf
       -2.16342 -0.070107006 -1.562542 -0.78075534
000270 7d 51 0f bf 65 6e ad be 18 fa a0 bf 08 d1 9d 3d
       -0.55983716 -0.33873287 -1.2576323 0.07705885
000280 af 76 08 be c4 3a 27 bf ec 13 a5 3e 5a 9a 4b 3f
       -0.13326524 -0.65324044 0.32241762 0.79532397
000290 35 ee a1 3e 95 eb 1c bd 9c f9 83 3f 53 e2 08 3f
       0.3162705 -0.038310606 1.031055 0.53470343
0002a0 90 20 b5 3e a2 1f d1 39 d4 6d 81 bf b8 be 7e 3e
       0.35376406 0.00039887155 -1.0111642 0.24877441
0002b0 ba 08 fb be 0a 2c eb be 2d f8 17 3f 3c ee 9c be
       -0.49030095 -0.45932037 0.5936306 -0.30650508
0002c0 be 57 97 be f2 d3 19 bf 9f 5a 1c bd 4b fc 3c bf
       -0.2955913 -0.6008903 -0.03817236 -0.7382247
0002d0 1f ad 9c bb 4a 3e 26 bf 37 fa 70 bf 2b f4 dc bd
       -0.00478138 -0.64938796 -0.941318 -0.10788759
0002e0 ae 43 ef be d7 c4 99 bf 92 a3 4e 3f ec 33 dd 3e
       -0.46731323 -1.2013196 0.8071834 0.43203676
0002f0 e5 57 4c 3f db e8 08 bf 11 3f a7 be 21 91 11 bf
       0.79821616 -0.5348031 -0.32665303 -0.56862074
000300 2e ce 76 bf dc 3f 80 be 86 0c 0a bf 92 aa c0 3e
       -0.96408355 -0.2504872 -0.5392536 0.37630135
000310 82 ca 8e bf 4d 38 8c be e2 73 8c bd ea 6a a5 bf
       -1.115555 -0.27386704 -0.068580404 -1.2923253
000320 1e 62 12 c0 be 0c a9 bd b8 37 81 bf 0c 66 e7 be
       -2.2872386 -0.082543835 -1.0095129 -0.45195043
000330 01 c1 80 be 2e 33 2b bf 9b e6 29 bf 5f 1f 9d 3e
       -0.2514725 -0.6687497 -0.663675 0.30687997
000340 5a b0 b6 be 58 5d 1f bf e3 7d 35 3f 35 fc 09 bf
       -0.3568142 -0.62251806 0.7089521 -0.5390046
000350 53 dd b7 bf 4c e0 d7 3c 4d e5 75 bf 44 d8 29 bd
       -1.4364418 0.02635207 -0.9605301 -0.041466013
000360 31 20 ea 3e 1c 06 4a 3d 1a aa 70 bf 7a 00 88 3e
       0.45727685 0.049322233 -0.94009554 0.26562864
000370 b2 de 12 bf b9 c9 f7 be 18 17 57 3d 32 9e 39 bf
       -0.57371056 -0.4839609 0.05251226 -0.7250701
000380 11 c4 3e bf 6c 6b 31 be c0 ae 38 bf ed 6c a8 bf
       -0.74517924 -0.17326134 -0.7214165 -1.3158242
000390 ed c1 18 bf 4f 5f 1f bf a0 ac 00 3f ce f1 0e bf
       -0.5967091 -0.62254804 0.50263405 -0.55837715
0003a0 8d 31 0e bf 22 f3 64 bf 61 0b d3 be e1 31 aa be
       -0.5554436 -0.8943349 -0.4121962 -0.3324118
0003b0 31 07 50 bf ee 23 a3 be 53 d6 32 bf a7 28 25 bf
       -0.81260973 -0.3186335 -0.6985828 -0.64515156
0003c0 dd 80 77 bf 81 14 25 bf 2b 68 3a bf 1c be 20 3e
       -0.96681005 -0.6448441 -0.728152 0.15697521
0003d0 ee 65 17 bf 4c 96 75 be 78 ea 30 3e 74 e4 dd bd
       -0.5913991 -0.23983115 0.17276943 -0.108345896
0003e0 83 7c 82 bf fd 4c 1a bf b7 a8 32 3e 6f 5d 2c be
       -1.0194248 -0.60273725 0.17447172 -0.16832517
0003f0 3d 16 30 bf b8 1a 48 3f c5 d7 df 3e c7 8f 17 3f
       -0.6878393 0.7816577 0.43719307 0.5920376

network_body._body_endoder.seq_layers.0.bias f4 [128]
000000 85 a7 3c bf d9 aa 77 bf 78 45 ca bd b4 09 92 be
       -0.73693115 -0.9674507 -0.09876531 -0.28523028
000010 6f 6b 91 bf 94 f0 10 bc 65 00 d0 bf 60 bf b0 be
       -1.1360911 -0.008846421 -1.625012 -0.34521008
000020 62 52 3d 3b 71 a4 84 3d bb 3d f1 be f3 90 f3 be
       0.0028888215 0.06476677 -0.4711741 -0.47571525
000030 21 29 83 bf 40 f1 1a be 30 80 e1 be 2b f5 b1 3e
       -1.0246927 -0.15131092 -0.44043112 0.3475736
000040 fc 45 45 be 96 bf eb be b2 d0 0e bf 46 d0 83 be
       -0.19264978 -0.46044606 -0.55787194 -0.25744838
000050 f6 af 96 bf 13 41 0a 3f 65 07 d6 be a4 01 60 bf
       -1.1772449 0.54005545 -0.41802517 -0.87502503
000060 f5 41 d0 be a2 44 5b bf e3 c7 2b bf 74 ee 5e 3f
       -0.4067532 -0.856516 -0.6710188 0.870826
000070 e4 40 ee be 0c f3 9b bd b8 3b 55 bf 96 5b ae 3d
       -0.46533883 -0.07614717 -0.8329425 0.085135624
000080 b4 3d 15 bf f4 71 18 bf 58 f1 dd be 89 f4 11 bf
       -0.58297276 -0.5954888 -0.43348193 -0.57013756
000090 fc 22 59 be 58 70 61 bf cd 3d 36 be 16 04 2d bf
       -0.21204752 -0.8806205 -0.17797013 -0.6758436
0000a0 e1 ce 18 bf cb 19 81 be e9 89 8d 3e cf bf b0 be
       -0.5969067 -0.2521499 0.2764428 -0.34521338
0000b0 a4 20 66 bf 02 33 2d be 7f 44 4f bf 1a 68 b6 bf
       -0.89893556 -0.16913989 -0.8096389 -1.4250519
0000c0 07 b9 65 be ba 2d 2f bf 96 4c 74 bf 18 ce 49 bf
       -0.22433864 -0.6842915 -0.9542936 -0.788301
0000d0 2f 46 02 bf 01 62 0c bf f4 23 88 bf 42 82 a2 bc
       -0.5088834 -0.5483704 -1.0635972 -0.019837502
0000e0 54 27 5b be 8c 3e 17 bf 13 c6 00 bf 7d 3b d5 3c
       -0.21401721 -0.59079814 -0.5030224 0.026029343
0000f0 01 31 d6 3e ec 71 d3 be 40 9d 94 be 11 d7 33 bf
       0.41834262 -0.41297853 -0.29026222 -0.7025004
000100 b1 f8 b6 bf 69 39 e6 be 62 fd 75 3e 38 65 30 3e
       -1.4294645 -0.44965675 0.24022439 0.17226112
000110 59 b6 35 be 94 8b 05 3e 2a 28 fa bb ae f9 03 3e
       -0.17745341 0.13041526 -0.0076341825 0.12888214
000120 0d 69 81 bf e3 1c 95 bd b9 4c 3a bf da 2a 0f be
       -1.0110184 -0.072809 -0.7277332 -0.1398119
000130 66 a0 4b 3e 5a b6 96 be 69 c6 f9 be b4 bb af be
       0.19885406 -0.29435998 -0.48784187 -0.34322894
000140 69 8e 5a 3e 49 4c 06 3f 58 25 0a bf 8c 31 72 bc
       0.21343388 0.5246015 -0.5396323 -0.014782321
000150 49 60 98 be cd a4 3e bf c2 57 8b bf 21 83 70 bf
       -0.2976096 -0.74470216 -1.0886157 -0.93950087
000160 55 ab 1f bf 8c 03 6e bf 28 83 81 be f2 fe ec be
       -0.62370807 -0.9297416 -0.25295377 -0.46288258
000170 13 16 82 3e 93 ad 35 bf 1c 0c 5b 3e 4f aa 16 3e
       0.25407466 -0.7096798 0.21391338 0.14713405
000180 9b 26 0f bf ff 2f 29 bf 31 c0 8a bf a7 f9 1a bf
       -0.5591828 -0.6608886 -1.0839902 -0.6053719
000190 be 39 65 bf 2a b5 71 bf 07 a1 9c 3c 1a c6 75 bf
       -0.8954123 -0.9441706 0.019119753 -0.96005404
0001a0 ba a6 d9 be a7 9a 84 3b 2a 43 78 be 55 1a db be
       -0.42510015 0.0040467563 -0.24244371 -0.42793527
0001b0 98 9c 28 bf 99 a4 46 bf 55 cd 14 be 61 2c bb be
       -0.65863943 -0.77594906 -0.14531453 -0.36557296
0001c0 88 90 cf 3e c9 6e a1 be 09 6e c5 bf 4f 9b 21 bf
       0.40539956 -0.31529835 -1.5424205 -0.6312761
0001d0 d5 86 68 3e 9e af e7 be 0d 85 f2 bd 80 79 d1 3e
       0.22707684 -0.45251173 -0.11841784 0.4091301
0001e0 e3 37 34 3f 7d 2d c0 be 24 12 9e bd d4 63 32 bf
       0.70397776 -0.37534705 -0.07718304 -0.69683576
0001f0 76 08 6c bf e8 69 e8 be 33 3a 4a bf bf 72 71 be
       -0.9220041 -0.453933 -0.78995055 -0.23578928

network_body._body_endoder.seq_layers.2.weight f4 [128, 128]
000000 31 cf 76 3e b7 e4 b4 be 7c 91 5a be ce 6c 93 be
       0.24102475 -0.35330746 -0.2134456 -0.2879395
000010 5f 9f d7 be 74 64 36 be 5c 48 b7 3d 37 65 d4 3d
       -0.42113778 -0.17811757 0.08949348 0.10370868
000020 09 7b f3 be df dd 9a bd 91 1f 6d bf 83 e8 d7 bd
       -0.47554806 -0.0756185 -0.9262629 -0.10542395
000030 03 ff 15 3e fa 59 bd 3d 65 d9 dd be 2f bf c5 bf
       0.1464806 0.09245677 -0.4332992 -1.544897
000040 0d da 3e be bd 45 c0 3e cc c5 e2 3e 08 33 78 be
       -0.18637867 0.37553206 0.44291532 -0.24238217
000050 f6 fe b7 bb 3e 0c bf be 78 4d 8d bb 66 1f d0 bd
       -0.0056151105 -0.37314028 -0.0043122135 -0.10162239
000060 1f f5 99 be c2 c2 78 3e f0 55 5c be cb 55 09 bc
       -0.30069825 0.24293044 -0.21517158 -0.008382271
000070 5a db 19 bd 11 c3 ca 3e f4 13 9d 3d 9b 76 98 bf
       -0.037562706 0.3960195 0.076698214 -1.1911196
000080 86 42 13 bf 1b 34 04 3e f3 a1 30 bd 5c f4 ad be
       -0.5752338 0.12910502 -0.043123197 -0.33975494
000090 ac fe ba 3e 35 d0 0b bf 09 bd 1f be e2 67 88 3e
       0.36522424 -0.54614574 -0.15599455 0.26641756
0000a0 16 81 18 be c3 96 9e 3e 1c 13 ad bc bf 48 f6 3d
       -0.14892992 0.30974397 -0.021127276 0.12025594
0000b0 b2 fe 5e be 42 93 59 bf 47 c4 e5 be 24 1a 27 3e
       -0.21776846 -0.8499032 -0.4487631 0.16318566
0000c0 1c 47 37 bf 9e ed ce 3e 8f 40 35 bf 35 ff 9f bd
       -0.7159288 0.40415663 -0.70801634 -0.07812349
0000d0 b3 b9 2d 3d b0 04 07 3e ea 8f ae 3d 83 9c de be
       0.042413425 0.13185382 0.08523543 -0.43478784
0000e0 1e 45 cf be 14 00 2b be d8 ac 5c be 8c f5 e7 3c
       -0.4048242 -0.16699249 -0.2155031 0.028315328
0000f0 47 f4 e4 bd 38 49 06 bf 2d 94 aa bf ea 5d 72 3c
       -0.11179405 -0.5245547 -1.332647 0.014792899
000100 2c ec 17 bf 39 8c f9 be 76 98 dd be f0 f5 06 be
       -0.59344745 -0.48739794 -0.4328038 -0.13179755
000110 00 47 29 bf e8 85 1d bf fd 30 24 be 22 79 13 bf
       -0.6612396 -0.6153245 -0.16034313 -0.5760671
000120 03 70 be 3d c3 e5 1f 3d c4 2e ba be 44 84 40 bf
       0.09298708 0.039037477 -0.36363804 -0.7520182
000130 be 1e 92 bc 4e fc 33 bf 1d 43 a7 3c c4 2e 09 3f
       -0.017836925 -0.7030686 0.020417744 0.53586984
000140 0a 38 56 3d de 47 92 3d b9 4f 07 be 2c 7d 93 3e
       0.052299537 0.07142614 -0.13214006 0.28806436
000150 c6 01 88 be d2 ea 68 3e 1b 48 e1 3d 50 b9 08 3d
       -0.26563853 0.22745827 0.11000081 0.033379853
000160 45 84 f2 3e 02 53 c9 bd 6c e2 c7 3e f5 61 c8 be
       0.4736654 -0.098302856 0.39039934 -0.39137235
000170 92 82 0d bf c3 f9 dd be 9d 5c ef 3e 00 23 5c be
       -0.5527736 -0.43354616 0.46750346 -0.21497726
000180 f8 ca 0d 3e 2d f8 6a 3d 0c a5 a7 be 71 f3 23 bc
       0.13846958 0.057365585 -0.32743108 -0.010006771
000190 89 ec 4f bd bb fc f0 be 1f b9 c1 be c5 8a 27 bd
       -0.050762687 -0.47067818 -0.3783655 -0.040903825
0001a0 75 9e dc 3e 94 8c 05 be 2d 94 77 be 80 c0 55 bf
       0.43089643 -0.13041908 -0.24177618 -0.83496857
0001b0 ad 54 26 be f4 36 2b be 8e a2 81 3e 26 68 b8 be
       -0.16243239 -0.16720182 0.25319332 -0.3601696
0001c0 68 d4 b4 be 48 43 c2 be 84 f6 44 bd 23 54 f5 bd
       -0.35318303 -0.37941957 -0.048086658 -0.119789384
0001d0 e7 ac dc be e7 df 06 3e 6c b5 21 be 48 69 0b be
       -0.43100664 0.1317135 -0.15791863 -0.1361438
0001e0 cc 88 01 bf ef 03 6a be 18 62 80 3e ab a1 c8 be
       -0.5059936 -0.22853063 0.2507484 -0.39185843
0001f0 ca 2d ae 3d 28 97 4f 3f 3d a1 ca be a0 55 27 bf
       0.08504827 0.8109002 -0.3957614 -0.6536503
000200 7f ac 8e bf 8b 63 2b bf dd 5d 7f 3d e1 76 9c 3f
       -1.1146392 -0.66948766 0.062345374 1.2223779
000210 25 ee 7f 3d f9 5d 14 bf c0 cd cb 3e 60 10 a5 be
       0.06248297 -0.5795589 0.39805412 -0.32239056
000220 5a 2a 81 3f 1b e7 22 bf 40 f8 e3 be 10 b1 75 be
       1.009105 -0.6363389 -0.44525337 -0.23993325
000230 df 48 06 3e b9 18 2b 3d 66 06 61 bf c0 c0 6d 3e
       0.13113736 0.041771624 -0.8790039 0.2321806
000240 84 e8 a1 3e f7 d7 82 bf 5b cd 19 be eb 8e 8d 3e
       0.31622708 -1.0222157 -0.15019743 0.276481
000250 32 cd 1c bf 64 ae b6 be 1b b1 13 bf 47 68 2b bf
       -0.61250603 -0.35679924 -0.57692116 -0.6695599
000260 4c ba 9f be 2a ea 2c 3e ab d2 97 3e f0 66 f3 be
       -0.3119682 0.16886202 0.29652914 -0.47539473
000270 63 86 9d 3d 4a 4a b4 be ce a8 b2 be 82 30 46 bf
       0.07691648 -0.35212928 -0.34894413 -0.7741777
000280 2e 4f 57 be 57 45 74 be e2 79 18 bf f1 26 3a bf
       -0.21026298 -0.23854576 -0.5956098 -0.7271567
000290 ea 5e 2b 3f b7 d4 ba be e9 c8 28 be e6 d1 9b be
       0.669417 -0.36490414 -0.16482891 -0.30433577
0002a0 9a 5b 9c be b0 d1 0c bf 73 bd d9 be f7 3f 5f be
       -0.30538636 -0.5500746 -0.4252735 -0.21801744
0002b0 de 15 0a bf ed 7c 50 bd dd 0f 8a be 69 35 67 3e
       -0.53939617 -0.05090039 -0.26965228 0.22578968
0002c0 46 e3 52 be a4 e0 03 bf 11 75 af be c6 7a ac bf
       -0.2059451 -0.5151465 -0.34269002 -1.3474967
0002d0 f6 4d bb bd 55 97 a6 be 11 5f 8f bf dd 94 36 3e
       -0.09145729 -0.32537332 -1.1200887 0.17830224
0002e0 63 be b8 3e ad aa 1b bf d9 5a 39 bf 5a 5d 46 3f
       0.36082754 -0.60807306 -0.7240425 0.77486193
0002f0 d8 53 91 be 58 f9 8a 3d f7 1e d7 3c 3e 7d da 3d
       -0.2838428 0.0678584 0.026259882 0.10668419
000300 e5 ee 9b 3e c3 b4 f1 be 9b be 41 3d 19 1b f4 3e
       0.304557 -0.47208223 0.047300916 0.47676924
000310 65 b1 a9 be 9f da 94 be b2 fc 7f bf 08 07 6f bf
       -0.33143154 -0.29073045 -0.9999496 -0.93370104
000320 d5 e8 eb 3e 0e 75 12 be 77 3d 93 3d a1 4e 29 bf
       0.46076074 -0.14302465 0.07189458 -0.66135603
000330 ab 2a d8 bd e6 ae 3b bf 49 7a 91 3e bf 52 b6 3d
       -0.10555013 -0.7331375 0.2841361 0.08902501
000340 e4 b5 a4 bd 80 58 96 3e e5 33 3f bf 26 b2 95 3e
       -0.080425054 0.29364395 -0.7468856 0.2923748
000350 67 5a 71 bf 3d c5 85 bd b3 0c 08 be c6 0c c0 be
       -0.9427857 -0.06531761 -0.13286094 -0.37509745
000360 e8 5b 2b 3e 77 c3 b1 be 7e 53 90 bd 01 36 4d 3d
       0.16734278 -0.3471944 -0.07047175 0.05010033
000370 b5 9c f5 bd 41 33 58 3d 4b 0a 4b 3d 16 5a f1 be
       -0.1199278 0.052783255 0.049570363 -0.47139043
000380 1d 17 5d bd de 6d 8f be 24 c4 22 3d 54 b8 16 bc
       -0.05397712 -0.2801351 0.039737836 -0.009199221
000390 29 17 11 bf af d3 c4 be 22 38 2b be 27 8b 10 bf
       -0.56675965 -0.38442752 -0.16720632 -0.5646233
0003a0 06 ce 05 bf e3 62 51 bf 37 38 d1 be 14 d2 24 3f
       -0.5226749 -0.81791514 -0.408632 0.64383054
0003b0 bb ae 71 bf 4e 4f 01 bf 56 04 54 3e ad e1 e1 be
       -0.9440724 -0.50511634 0.20704779 -0.4411749
0003c0 c9 0c be be 19 1b 27 bf 3c b0 15 3e 90 d3 ae 3c
       -0.3711913 -0.6527572 0.1461801 0.021341115
0003d0 a2 e4 3e bf 40 e7 05 bf 6f e7 04 bf ba d4 4b bf
       -0.74567616 -0.52305984 -0.5191564 -0.7962147
0003e0 60 b1 3a bf 8d bc c6 be 48 1a 42 bf ed 96 2f be
       -0.729269 -0.38815728 -0.7582135 -0.17147417
0003f0 2e ef ea be aa a0 3e 3e dc 3f 14 be 95 13 89 bf
       -0.45885605 0.18615976 -0.14477485 -1.0709101

network_body._body_endoder.seq_layers.2.bias f4 [128]
000000 03 58 b4 bd 24 3e ee 3c f6 d7 03 3f 77 73 83 3d
       -0.088058494 0.029082365 0.51501405 0.064185075
000010 1f d2 72 3e 60 b4 13 bf 73 59 0f 3f c0 84 79 3f
       0.23712967 -0.57697105 0.55995864 0.97468185
000020 9f 62 21 bd 69 6f e5 3e ef 24 df be 71 ef 1e bf
       -0.039400693 0.44811562 -0.43582866 -0.6208411
000030 8c c2 28 bc ef c8 07 3e 5e 07 1d be 81 08 9f be
       -0.01030029 0.13260244 -0.15334842 -0.31061175
000040 94 4b 73 3e 89 51 ba bd e3 6d 02 3f 9a 26 b9 3e
       0.237593 -0.09097583 0.50948924 0.36162263
000050 cb 9b c8 be c3 11 2b be db f1 d9 3d d7 c9 b9 3e
       -0.3918136 -0.16705994 0.106418334 0.36286804
000060 d8 aa 93 be 3c 43 2b 3f 31 29 98 3e ed 45 8c be
       -0.2884128 0.66899467 0.29718927 -0.273971
000070 81 55 a9 be 40 03 6d be 99 0f 6d 3f 5b 84 4e 3b
       -0.33073047 -0.23145771 0.92601925 0.0031511995
000080 22 d0 d3 3c 23 38 ec 3e de 40 2a 3e d6 92 11 3e
       0.025856081 0.4613658 0.16626307 0.1421617
000090 90 41 ea bd 27 55 5e bd 5f 43 d0 be eb 68 93 be
       -0.11438286 -0.054280426 -0.406764 -0.28790984
0000a0 7a 8f 0b bf 23 fd c7 bd c0 2a b4 3e 1d ee 8b be
       -0.545158 -0.09765079 0.35188866 -0.27330104
0000b0 95 c5 3e 3f 59 ec 31 3f af 92 33 bf d7 5b db 3d
       0.74520236 0.6950126 -0.70145696 0.107108764
0000c0 9f ed d5 3e 1e 1c 04 bc c2 b6 93 3e d2 db 58 be
       0.41782853 -0.008063344 0.2885037 -0.21177605
0000d0 e5 03 a6 3e d3 3e 6b 3d 9b 97 64 3d f7 e8 2e 3d
       0.32424846 0.05743296 0.055808645 0.04270264
0000e0 1a f2 8c be 4c 9d 46 bf 36 40 0c 3f 07 01 15 bf
       -0.2752846 -0.77583766 0.5478548 -0.5820469
0000f0 53 7f 56 3f 72 19 a7 3e 74 db 17 bf 07 36 51 3e
       0.8378803 0.326366 -0.59319234 0.20430766
000100 91 d8 99 3d 38 44 db 3e ac 81 2b bf a5 2b cc 3c
       0.0751201 0.42825484 -0.6699474 0.024923155
000110 33 9e 00 bf fb 48 26 3e 52 83 31 3e e0 dd 0e 3f
       -0.5024139 0.16238777 0.17335251 0.55807304
000120 4e a7 24 3e a5 68 61 3d 6a 67 c0 3e c5 63 c8 3d
       0.16079447 0.055031437 0.375789 0.097846545
000130 21 35 13 3f 64 ff 19 3e ef b8 93 be ba b3 6b be
       0.57502943 0.1503883 -0.2885203 -0.23017779
000140 3f 84 cc 3d 31 6c d1 be 9a 8d c3 3e 3c 7c c7 3e
       0.099861614 -0.40902856 0.3819397 0.3896197
000150 ae 6f ee bd 80 24 31 3f c4 d2 9e 3e 87 e0 22 3f
       -0.11642395 0.6919632 0.31020176 0.6362385
000160 02 78 53 3e 34 a5 63 3e 65 52 81 3e 58 92 46 be
       0.20651248 0.22230989 0.25258175 -0.19391763
000170 e7 92 76 be 85 34 59 bd a8 fc 4c bf 7a f3 f9 bd
       -0.24079476 -0.053028602 -0.8007302 -0.122046426
000180 88 8c dc be 3e 6f 28 be ca 16 ab 3e 5c 8b ce 3e
       -0.43075967 -0.16448686 0.33415824 0.40340698
000190 b7 de f1 bd d7 df 4b be 94 f3 6b 3c 41 be 83 3f
       -0.118100576 -0.19909607 0.014401335 1.0292436
0001a0 1e d4 4e 3f a0 25 00 3e ba a6 9c bd cd 77 5b 3e
       0.80792415 0.12514353 -0.07648988 0.21432419
0001b0 c7 b1 11 bd 16 39 8f be c1 e1 54 be a2 51 28 be
       -0.035569932 -0.2797324 -0.20789243 -0.1643739
0001c0 2e cd b8 3e 7e 2e 59 3e 28 c9 22 3e 15 e5 12 bf
       0.3609404 0.21209142 0.15897048 -0.573808
0001d0 a1 94 2d 3e 37 a3 81 be ae 68 c3 3e 5f f6 90 bf
       0.16951229 -0.25319836 0.38165802 -1.1325186
0001e0 e3 15 3c 3b b5 11 ac 3c fe f7 0c bf 9c cb 8e 3e
       0.002869957 0.021004537 -0.55065906 0.27889717
0001f0 88 10 13 3f 60 fb 44 3f 64 2f f4 3e 3e 25 e0 3e
       0.574471 0.7694607 0.47692406 0.43778414

action_model._continuous_distribution.log_sigma f4 [1, 2]
000000 7c f1 ba 3d 46 ee 46 3b
       0.09128091 0.0030354424

action_model._continuous_distribution.mu.weight f4 [2, 128]
000000 12 bb 06 bf 0a 1c 9b 3e 4d 9e a4 3f 8f 2f 6e be
       -0.52629197 0.3029483 1.286081 -0.2326033
000010 4b 06 28 bf 46 76 be 3c ef 47 50 3f 80 3f 7e 3e
       -0.656346 0.023249757 0.8135976 0.24828911
000020 c3 f5 64 be c2 d2 7f bf 0b 92 e2 bd d0 6e 8e bb
       -0.22359376 -0.99930966 -0.11063012 -0.004346706
000030 30 d9 dd 3e 8a 87 98 be 1f 60 25 bd 45 62 9a bd
       0.43329763 -0.29790908 -0.04037487 -0.07538275
000040 09 43 b1 bd 62 1d e2 be b0 ff 11 3f 09 5a 9b bf
       -0.08655364 -0.44163042 0.57030773 -1.2136852
000050 82 b7 4e be 9b 2d 18 3e 3e 0c f5 bd ae f7 8f bd
       -0.2018719 0.14861147 -0.11965226 -0.07029663
000060 ac 28 36 bf e8 cf 8c 3f dc 07 03 bf 3e a3 89 3e
       -0.7115581 1.1000948 -0.5118387 0.26882356
000070 71 ea a7 3e 69 e4 d1 bd c6 30 61 bd bb d2 ac 3e
       0.32796052 -0.10248644 -0.054978155 0.33754525
000080 a9 41 9f 3d 6c 00 1e 3f b2 c3 24 be b1 89 fe 3e
       0.077761956 0.61719394 -0.16090277 0.49714425
000090 30 c4 94 3c 4e 75 ef 3e 17 e6 17 bc 5e cb 05 bf
       0.018159956 0.46769184 -0.009271166 -0.5226344
0000a0 29 22 10 3f 40 2e 27 3e 05 19 3b 3f dd 4a 92 bc
       0.56302124 0.16326237 0.7308505 -0.017857963
0000b0 c9 8b 04 bf 0c 13 9f 3e ca d4 e0 3e 89 2d 6c 3a
       -0.51775795 0.3106922 0.43912345 0.0009009471
0000c0 75 00 f6 be be c6 ac bc 9a 47 31 bf 14 04 02 be
       -0.48047224 -0.021090861 -0.6924988 -0.12696868
0000d0 f9 4f cf 3d b9 2d 03 bf 59 a1 24 3f 95 ea 12 3f
       0.101226754 -0.5124164 0.64308697 0.57389194
0000e0 cf c4 26 3e 1e 1c 9f bd 77 e8 72 be 1f 60 d0 3c
       0.16286014 -0.07769035 -0.23721491 0.02543646
0000f0 fe a0 00 be ff 93 8a 3e 47 c8 15 3f 90 7d 1c 3e
       -0.12561414 0.27066037 0.58508724 0.15282273
000100 cc 03 2a 3d c8 68 28 3f 63 bf 29 be df b5 80 3e
       0.041507527 0.65784883 -0.16576914 0.25138757
000110 67 59 9e bc 3d 87 f9 3e 13 9f fd bd d0 76 4c 3f
       -0.01932974 0.4873599 -0.123838566 0.79868793
000120 b6 6b 09 bf f5 88 42 bd e5 4c 4b bf 71 62 49 3d
       -0.5367998 -0.047493894 -0.79414207 0.049166147
000130 4d 9c 85 3d 23 2f b1 be ae fb 72 3c 5d cb 1f be
       0.06523953 -0.34606275 0.014830513 -0.1560492
000140 51 76 e0 3e 5b 5c 5c bd 9c 98 71 bf 8d 84 41 bf
       0.43840268 -0.053799015 -0.9437349 -0.7559288
000150 7b fb c1 be ba 8d 0e bf 7f 98 14 3e ca e4 5f 3f
       -0.37887177 -0.5568501 0.14511298 0.8745848
000160 f7 22 b0 bd 9b 22 3d bf 37 49 49 bf 5c 28 10 be
       -0.08600419 -0.7388093 -0.7862734 -0.14077896
000170 d6 22 3e bf 14 a0 ec be 0a a9 99 be 00 13 09 3e
       -0.74271905 -0.4621588 -0.3001178 0.13386154
000180 e8 d8 ff 3e c9 d6 c7 be 66 8b 15 3f 6e 19 66 bf
       0.49970174 -0.39031056 0.5841583 -0.8988255
000190 55 38 92 be 78 31 3d bc da 7c 6c bf 8c c0 97 be
       -0.28558603 -0.011547439 -0.9237801 -0.2963909
0001a0 f0 dd e2 bf bc c1 ab 3d 6e be b8 3c f6 5c 03 bf
       -1.772398 0.08386561 0.022551741 -0.5131372
0001b0 0c 7a 9f bd f4 87 d8 3e 77 b7 b1 be c5 dc 86 3e
       -0.077869505 0.42291224 -0.34710285 0.2634031
0001c0 72 1e 0a bf 38 16 62 3f e5 d7 75 3c 69 b0 78 be
       -0.53952706 0.88315153 0.015005087 -0.24286045
0001d0 71 5f c7 3d b0 a3 37 3e 1e a5 7f 3f 93 6d 66 be
       0.09735001 0.17933536 0.99861324 -0.22502737
0001e0 83 9f 30 3f f1 57 4b bf 72 c2 f7 bd 86 d5 86 be
       0.68993396 -0.7943106 -0.120976344 -0.2633478
0001f0 9f ef 17 bf 7b 22 39 bf 3d 0f 32 3e ef 9d 08 3f
       -0.5935001 -0.7231824 0.17388625 0.5336599
000200 6f fb 74 be 2c 8c dd bd 97 0a 6b be 9b cf 83 be
       -0.2392404 -0.10817751 -0.22953258 -0.25744328
000210 e9 c3 cd bd 65 a7 65 3e 79 c3 3e 3e 81 6b e1 3d
       -0.100471325 0.22427137 0.18629254 0.11006833
000220 49 74 0b bd 21 4a 68 be 20 6d 17 3d c2 0a b6 bd
       -0.034046445 -0.22684528 0.036969304 -0.08888771
000230 43 43 a0 3e f4 d8 84 be 62 5c 9a 39 1f b8 99 3e
       0.31301317 -0.25946772 0.00029442 0.30023286
000240 8f 8f fa be ca 5d 78 be 77 ca dc be 1a d9 18 3f
       -0.48937652 -0.24254528 -0.43123218 0.5970627
000250 0a 92 89 3d 89 bf 36 bf 6d 66 55 3d 4f d1 84 bf
       0.06717308 -0.7138601 0.052099634 -1.0376376
000260 a2 8b bc bd dc bb 46 3e 24 f3 63 3e 67 08 e3 3e
       -0.0920632 0.194076 0.2226072 0.44342348
000270 01 8b 05 3e fb ee a5 3d e2 d0 87 3e ec 77 88 3e
       0.13041307 0.081022225 0.26526552 0.26653993
000280 19 c7 e0 3e fc 5a 44 be 37 10 8c bd c0 ad 14 bc
       0.439019 -0.19175333 -0.0683903 -0.009074628
000290 1b aa d9 bd b7 05 86 3d f0 0c 62 be bc 49 96 3e
       -0.10628148 0.06544059 -0.22075248 0.2935313
0002a0 12 de 90 3e 6b 93 63 be 59 25 01 3f a7 21 2a 3f
       0.28294426 -0.22224204 0.50447613 0.664576
0002b0 bb bb 1b bf 0f 39 44 bf 20 80 56 3d 9f 31 16 bf
       -0.6083333 -0.76649565 0.052368283 -0.58669466
0002c0 9e 3b 4f 3e c7 d3 d7 bd 66 ab 1e be 26 99 18 3e
       0.20237586 -0.1053844 -0.15495071 0.14902171
0002d0 db 03 15 3e cf cd f8 bd 96 e0 a6 bd 2b 4b ed bd
       0.14552252 -0.1214863 -0.08148305 -0.11586603
0002e0 12 2b 37 3e a8 ce 2e bd 5f a5 72 bf 2f c5 b2 bd
       0.17887524 -0.04267755 -0.94783586 -0.08729016
0002f0 1b d0 1e bf a9 09 68 bf c1 f6 8e 3d bc d3 ce be
       -0.62036294 -0.9063974 0.06980658 -0.40395916
000300 dc f8 49 be 20 31 06 bf 2d 6b 45 be 60 e0 0e be
       -0.19723839 -0.5241871 -0.19279166 -0.1395278
000310 a6 ac d2 3e 5d e3 22 3d 21 ce 05 be 4a 29 9c 3d
       0.41147345 0.03976761 -0.13066913 0.07625063
000320 98 9d 0e 3d 83 e6 33 be c0 9e af be 63 11 ba be
       0.03481826 -0.17568402 -0.34300804 -0.3634139
000330 c2 b9 d0 3e 09 be bb be 47 99 56 3e 0d 69 c4 3d
       0.40766722 -0.36668423 0.20956908 0.09590349
000340 7f d5 e9 3c 56 b0 99 3d 7d 51 59 3d 7c a1 22 3e
       0.028544186 0.075043365 0.05305623 0.15881914
000350 d1 f1 23 bb 4e a6 57 bf c0 42 8a be e0 c6 2d 3e
       -0.002501596 -0.84238136 -0.2700405 0.16970396
000360 af 33 dc bd d1 5d 77 3e 65 04 39 3e a8 f0 5a bd
       -0.10752045 0.24156882 0.18068083 -0.053452164
000370 ba 93 87 be 84 89 d4 be cc a7 cc 3e 06 2e 28 bd
       -0.26479894 -0.41511166 0.3997177 -0.041059516
000380 f2 04 9a bd 56 f9 ff bc 25 17 81 3e 3b 4e 54 3e
       -0.075204745 -0.031246822 0.2521297 0.20732968
000390 9b df fa be 25 3f 12 3f 40 b8 56 bc 37 a4 a1 3d
       -0.48998722 0.571276 -0.013105452 0.078926496
0003a0 e0 59 d8 bd c0 52 76 3e b0 ac 77 3d a4 94 6c 3d
       -0.10564017 0.24055004 0.060467422 0.057758942
0003b0 e6 e2 44 3f 6c a5 36 be de 40 b4 3e 26 71 d7 3d
       0.7690872 -0.17836541 0.3520574 0.10519628
0003c0 ed 71 4b 3b 39 5e ad 3e 86 57 b2 be 7b 01 14 3e
       0.0031043247 0.3386095 -0.348324 0.1445369
0003d0 e7 54 99 be 19 e5 03 3f 17 c3 28 3e ff 7a 4c 3e
       -0.29947588 0.5152145 0.16480671 0.19968794
0003e0 5c 1f ef 3c eb 8b 5c be f5 95 9e be 47 41 04 be
       0.029189758 -0.2153775 -0.30973783 -0.12915526
0003f0 3b 5f 81 be d5 a6 57 3e 33 34 f2 be f3 a7 01 bf
       -0.25267968 0.21059735 -0.4730545 -0.50646895

action_model._continuous_distribution.mu.bias f4 [2]
000000 23 d8 d5 bc 8d fe aa 3f
       -0.026104039 1.3358933

exp_avg f4 [128, 6]
000000 54 05 c0 2b 47 44 69 29 87 0d a6 2b 4b 34 69 2b
       1.3643899e-12 5.1795614e-14 1.1798764e-12 8.28508e-13
000010 45 fe 68 29 c2 2b 30 2c 0c 93 43 23 cc 85 88 21
       5.1734892e-14 2.5035395e-12 1.06021096e-17 9.251134e-19
000020 34 b3 9d 23 4b 3c 89 23 9b 7e 88 21 ff 94 32 24
       1.709787e-17 1.4879105e-17 9.249231e-19 3.8723802e-17
000030 4c 52 39 b3 a4 17 f5 b0 0f 45 36 b3 d3 52 f5 b2
       -4.3148518e-08 -1.7832815e-09 -4.2437986e-08 -2.8559418e-08
000040 0b dc f4 b0 82 a8 b7 b3 6f 70 b5 af 24 54 59 ad
       -1.7815877e-09 -8.552253e-08 -3.3003597e-10 -1.2353705e-11
000050 f4 ac 90 af 7f b2 5b af 12 2e 59 ad cd 05 23 b0
       -2.6316338e-10 -1.9981349e-10 -1.23452516e-11 -5.93073e-10
000060 0e e6 6b 1b 3d 42 9e 19 4a e4 71 1b 8c b6 b4 1b
       1.9513079e-22 1.636357e-23 2.0008817e-22 2.989647e-22
000070 9d 49 9e 19 e4 27 1d 1c 1f 0a 54 34 88 bb 98 b1
       1.636655e-23 5.19985e-22 1.974772e-07 -4.445102e-09
000080 bb 73 27 b4 d1 2e 9e 33 3a 94 98 b1 b2 e5 02 b4
       -1.559519e-07 7.365964e-08 -4.4406336e-09 -1.2190756e-07
000090 7c bc a4 22 9d 07 42 20 ea 53 87 22 8b b6 41 22
       4.4651855e-18 1.6434958e-19 3.668067e-18 2.6253015e-18
0000a0 46 da 41 20 d3 c7 13 23 24 0e 85 a9 ad 33 38 a7
       1.6419957e-19 8.0112e-18 -5.9088395e-14 -2.5563143e-15
0000b0 3f 05 a0 a9 f0 86 34 a9 5a 03 38 a7 6b a1 0c aa
       -7.1063374e-14 -4.008507e-14 -2.5536946e-15 -1.2490501e-13
0000c0 2c d6 09 3c 54 b0 bf 39 0a 6d 15 3c 39 7d bf 3b
       0.008412879 0.00036561734 0.009120235 0.005843785
0000d0 09 7d bf 39 1c 9f 8f 3c 8b a0 04 bb 3f e5 b4 b8
       0.00036523517 0.017531924 -0.0020237293 -8.625769e-05
0000e0 d3 65 18 bb 02 13 b2 ba d1 b9 b4 b8 ca 68 87 bb
       -0.0023254051 -0.0013585987 -8.61768e-05 -0.004132365
0000f0 cd 3e 78 b1 76 5b e0 2f c4 30 a6 32 0e 60 3f 32
       -3.6124448e-09 4.081035e-10 1.934712e-08 1.11395035e-08
000100 02 ef df 2f 59 c3 59 32 bc 49 1d b0 4a 02 d3 ad
       4.073329e-10 1.2675479e-08 -5.722105e-10 -2.398894e-11
000110 24 1a 1f b0 bc a7 d2 af 2c ce d2 ad 03 4a 9e b0
       -5.788101e-10 -3.831796e-10 -2.3965795e-11 -1.1517048e-09
000120 23 3e 37 21 c8 50 d7 9f df ee 95 a1 31 fc d5 a1
       6.208505e-19 -9.118968e-20 -1.0159861e-18 -1.4500196e-18
000130 eb ab d7 9f e5 b1 59 a2 54 53 69 a3 02 c2 17 a1
       -9.1340456e-20 -2.950316e-18 -1.2648601e-17 -5.1417557e-19
000140 e7 4c 64 a3 be 10 14 a3 15 9c 17 a1 e3 88 ca a3
       -1.23761895e-17 -8.026641e-18 -5.1367363e-19 -2.1958858e-17
000150 f1 9a 29 29 89 e0 f9 26 01 29 64 29 24 8f ec 28
       3.765993e-14 1.7338706e-15 5.0661735e-14 2.626334e-14
000160 bd 84 f9 26 4b 25 c0 29 31 9a dd 3c ca 50 27 3a
       1.7313825e-15 8.532982e-14 0.027051063 0.0006382583
000170 52 aa be 3b 1a 3f 80 3c a9 2b 27 3a 0b 73 09 3d
       0.0058186436 0.01565509 0.00063770503 0.03355698
000180 29 1b e1 3d 2e f8 52 3b d3 54 51 bc 47 19 dc 3c
       0.109915085 0.0032191384 -0.012776571 0.026867522
000190 69 c4 52 3b 72 e9 0e 3e 9b 3f 80 a8 d5 b8 1d a6
       0.0032160527 0.1395624 -1.423844e-14 -5.472081e-16
0001a0 57 2a 58 a8 a3 ee 1c a8 a4 96 1d a6 c7 8e ec a8
       -1.199959e-14 -8.711486e-15 -5.4674473e-16 -2.6263183e-14
0001b0 74 e0 9d 35 21 a8 bc 33 b7 d6 28 36 b6 67 c2 35
       1.1762736e-06 8.785015e-08 2.5158931e-06 1.448431e-06
0001c0 1c 78 bc 33 c6 d6 8b 36 02 83 fa ac c3 cc b5 aa
       8.77628e-08 4.1675257e-06 -7.119972e-12 -3.229414e-13
0001d0 ff 0e 1b ad 9d 3f af ac 19 9f b5 aa 54 61 8d ad
       -8.81406e-12 -4.9808616e-12 -3.2262455e-13 -1.6073066e-11
0001e0 0b b3 6d 29 8f 6b 18 27 b3 b4 5c 29 b5 c9 18 29
       5.2779866e-14 2.1152545e-15 4.9006545e-14 3.3925733e-14
0001f0 95 48 18 27 37 b2 e4 29 e3 23 87 bd cf 40 32 bb
       2.1133584e-15 1.0156149e-13 -0.06598642 -0.0027199273
000200 95 11 aa bd 4c a3 36 bd 6d 13 32 bb 18 93 06 be
       -0.08304135 -0.044589326 -0.0027172223 -0.1314205
000210 4c 28 2a 2a 51 bf 30 28 10 72 81 2a 88 3e 38 2a
       1.5113014e-13 9.811448e-15 2.299415e-13 1.6364178e-13
000220 52 80 30 28 20 e4 f2 2a 6d ee b5 21 21 18 1b 1f
       9.797788e-15 4.314613e-13 1.2328148e-18 3.2842486e-20
000230 ef ef f3 20 c3 7e c0 20 9e 07 1b 1f 11 4b 3f 22
       4.1324576e-19 3.260995e-19 3.2828827e-20 2.5925067e-18
000240 35 da 46 35 74 01 dd 32 8e ab 54 35 55 8f f7 34
       7.407828e-07 2.5728447e-08 7.92258e-07 4.6111623e-07
000250 36 91 dc 32 7d 36 af 35 86 8c 30 9d 0f ce 3c 9c
       2.5677405e-08 1.3054374e-06 -2.3366055e-21 -6.2470307e-22
000260 f9 6e 2e 9e 9a dd 3a 9e 7e ee 3c 9c fd 7a d0 9e
       -9.234432e-21 -9.892584e-21 -6.2512226e-22 -2.2073723e-20
000270 a2 d0 86 24 12 b5 48 a0 fe 75 44 24 16 86 9f 22
       5.8466674e-17 -1.700057e-19 4.260067e-17 4.3239005e-18
000280 21 a9 59 a0 80 d6 e3 23 b3 78 c0 bc 72 83 b0 b9
       -1.8436575e-19 2.4702234e-17 -0.023495054 -0.0003366727
000290 a2 7d 94 3c 2d f3 88 bb bc 5f b0 b9 5a 0c 7a bc
       0.018126313 -0.0041793794 -0.00033640664 -0.015261734
0002a0 65 6c 59 b1 c7 e7 13 af 4c 6e 63 b1 87 17 14 b1
       -3.1639271e-09 -1.3451916e-10 -3.3095544e-09 -2.1550208e-09
0002b0 93 bf 13 af be 7f dd b1 53 64 ee b1 83 24 a7 af
       -1.3437633e-10 -6.446469e-09 -6.938117e-09 -3.0403066e-10
0002c0 26 bd 02 b2 3a 9b a7 b1 43 ff a6 af ec f3 79 b2
       -7.610003e-09 -4.877987e-09 -3.0376598e-10 -1.4549169e-08
0002d0 d6 34 31 21 26 38 99 1e e7 24 11 21 4f ff 99 20
       6.003986e-19 1.6222728e-20 4.917675e-19 2.6088157e-19
0002e0 30 e2 98 1e 0e 0d 7c 21 1e 1d 86 be 62 73 3c bc
       1.6187175e-20 8.53982e-19 -0.2619409 -0.011502119
0002f0 15 98 50 be 8a bd 3b be 6c 44 3c bc 89 be 0c bf
       -0.20370515 -0.18334022 -0.011490922 -0.54978234
000300 b4 f2 74 31 ae 24 b0 ae 67 c2 17 b1 20 8d 72 b1
       3.5644634e-09 -8.010069e-11 -2.2083897e-09 -3.5295855e-09
000310 c6 fb af ae e7 9c 37 af 12 9d d3 22 5d 4e e1 1f
       -8.0028026e-11 -1.6699496e-10 5.735797e-18 9.542085e-20
000320 ca c7 5f 22 b9 51 ec 21 76 9f e0 1f ea fb e1 22
       3.0327903e-18 1.6013614e-18 9.5131496e-20 6.1253097e-18
000330 ee 28 3e ac 1c eb a8 aa 52 30 4a ad 17 c8 ad ac
       -2.7023344e-12 -3.0005935e-13 -1.14931e-11 -4.93917e-12
000340 b5 cd a8 aa 6a 4d 7f ad 8b 89 15 b8 0c 91 b7 b5
       -2.9985533e-13 -1.4512261e-11 -3.5652465e-05 -1.3676777e-06
000350 9f 32 fb b7 c4 6b b7 b7 c4 6b b7 b5 0b 91 89 b8
       -2.9945104e-05 -2.1865482e-05 -1.3665926e-06 -6.5596854e-05
000360 85 10 9c b2 4e 29 83 b0 c7 fa ec b2 f3 f0 82 b2
       -1.8168302e-08 -9.543244e-10 -2.7588056e-08 -1.5243563e-08
000370 a7 f7 82 b0 8a 86 44 b3 3e 5e ab a0 98 c0 42 9e
       -9.529132e-10 -4.575717e-08 -2.903089e-19 -1.0310102e-20
000380 60 b0 a3 a0 76 55 48 a0 f1 7a 42 9e 1a 92 1f a1
       -2.772999e-19 -1.6968936e-19 -1.0295698e-20 -5.406466e-19
000390 ad 28 5b 31 40 f4 65 2f e4 f9 20 32 3f d1 4e 31
       3.1891816e-09 2.0914204e-10 9.370044e-09 3.0095888e-09
0003a0 48 b9 65 2f b4 22 2c 32 8f d7 72 27 27 60 83 25
       2.0893254e-10 1.0019608e-08 3.37011e-15 2.2790033e-16
0003b0 5b b4 ce 27 21 8f 83 27 84 51 83 25 e5 2c 38 28
       5.7372028e-15 3.6514985e-15 2.2780115e-16 1.0223787e-14
0003c0 c6 aa dc aa eb d2 0f ac 65 5e 74 ae 56 61 46 ae
       -3.9198348e-13 -2.0438605e-12 -5.5563016e-11 -4.510644e-11
0003d0 37 ca 0f ac d8 2b a1 ae a0 b2 f4 b1 3e 0a a2 af
       -2.0433774e-12 -7.3292206e-11 -7.121642e-09 -2.9474906e-10
0003e0 e6 9f f1 b1 55 df a1 b1 05 e7 a1 af 9f f7 72 b2
       -7.0322015e-09 -4.7111066e-09 -2.944988e-10 -1.41425565e-08
0003f0 c4 0c 04 be a3 c1 c9 bb c6 53 37 be 16 92 bd bd
       -0.12895495 -0.0061571165 -0.17903051 -0.09256379

exp_avg_sq f4 [128, 6]
000000 8d 85 c2 30 3a f2 ce 2d 7e 01 24 2f 4e 97 1b 32
       1.4153315e-09 2.3527059e-11 1.4916243e-10 9.05659e-09
000010 a7 b6 ce 2d d8 f6 a2 32 55 5c 3e 26 73 94 fd 22
       2.3500603e-11 1.8971534e-08 6.6044625e-16 6.8732964e-18
000020 e1 0c 4e 24 4c fa bb 26 bc 87 fd 22 f8 b9 c2 27
       4.468004e-17 1.3043575e-15 6.87195e-18 5.4047444e-15
000030 a1 63 fe 3c c7 92 d3 38 c1 0c 93 3b cb 9a 21 3c
       0.031053366 0.000100886034 0.0044876044 0.009863566
000040 68 27 d3 38 18 63 05 3e 82 62 94 3a f4 7b 18 36
       0.00010068604 0.13026083 0.0011320862 2.2721915e-06
000050 2c 35 77 38 dc 40 50 39 df 2f 18 36 bc fc 39 3b
       5.893891e-05 0.00019860588 2.267763e-06 0.0028379401
000060 cc 97 1b 21 ad b9 95 1c 8d 27 14 1e 0d 5c 99 1e
       5.2716944e-19 9.907989e-22 7.843234e-21 1.6237576e-20
000070 b5 6d 95 1c ff 25 65 21 62 78 95 3a 5c 9f 80 37
       9.888352e-22 7.7638505e-19 0.0011403675 1.5332997e-05
000080 88 6b 76 3c 8a a0 f1 3a 67 5d 80 37 e0 e9 9e 3c
       0.015040286 0.0018434685 1.5302283e-05 0.01939863
000090 31 8a 11 28 01 e8 85 23 a7 89 9f 24 04 0e cb 25
       8.079082e-15 1.4518146e-17 6.918845e-17 3.5224384e-16
0000a0 9e a4 85 23 58 db 4c 28 ea 6a 25 25 50 fd 97 22
       1.4489607e-17 1.13718374e-14 1.4347693e-16 4.1196837e-18
0000b0 e2 b9 26 26 a9 25 63 26 c2 b0 97 22 15 3b 69 27
       5.784474e-16 7.8807485e-16 4.111578e-18 3.2367274e-15
0000c0 e4 7a 87 3d 19 a1 9f 39 7d 30 67 3d 24 a2 c5 3c
       0.066152364 0.0003044687 0.056442726 0.024125166
0000d0 d1 50 9f 39 61 54 e3 3e 28 47 33 3d e8 3a a2 38
       0.00030387056 0.44400313 0.04376903 7.735734e-05
0000e0 95 44 83 3d 87 e5 55 3d ed e7 a1 38 67 c0 a3 3d
       0.06409565 0.052220847 7.720278e-05 0.07995682
0000f0 00 bf 13 39 56 19 5c 36 ea c0 c6 3a 14 d8 ee 3a
       0.00014090165 3.2797302e-06 0.0015163694 0.0018222355
000100 cf b0 5b 36 e3 48 68 3b 49 08 91 30 a8 5b 0d 2c
       3.273646e-06 0.0035443834 1.0552493e-09 2.0088185e-12
000110 a6 f8 bc 2d c0 fa 2e 2e bf 13 0d 2c c5 8a db 30
       2.1483548e-11 3.978573e-11 2.0048266e-12 1.5973788e-09
000120 a1 fe 9e 21 82 97 b0 1d e8 26 9f 1f 07 25 2c 21
       1.0773896e-18 4.6743468e-21 6.7403484e-20 5.832487e-19
000130 3e 47 b0 1d 9a be 8a 22 03 80 a3 20 b4 f1 08 1d
       4.6660475e-21 3.7606782e-18 2.7697985e-19 1.8124408e-21
000140 71 df b6 1f c7 87 11 20 d6 ab 08 1d a7 89 d1 21
       7.744965e-20 1.2326903e-19 1.8088287e-21 1.4198827e-18
000150 af a6 93 2e cf 10 26 2b ab 46 48 2e 44 f1 e9 2d
       6.714395e-11 5.8998374e-13 4.55375e-11 2.6596177e-11
000160 fd be 25 2b 63 fd 17 30 f7 8f ca 3d 7c 82 a5 3a
       5.8884825e-13 5.5293564e-10 0.0989074 0.0012627388
000170 d5 a6 88 3f f7 96 01 3e f3 2d a5 3a 69 c3 fa 3f
       1.0675913 0.12655245 0.0012602195 1.9590884
000180 ff ed dd 3f b2 ed fb 3b 45 1b 0c 41 67 64 ed 3f
       1.7338256 0.0076882476 8.756658 1.8546265
000190 ab 6c fb 3b f4 a6 36 41 d6 fe 08 31 51 6c 78 2c
       0.0076728663 11.41576 1.9935462e-09 3.5303047e-12
0001a0 fc 4d a0 2d 38 63 80 2e 0d ee 77 2c 49 aa 3e 31
       1.8224526e-11 5.838391e-11 3.5232956e-12 2.7745435e-09
0001b0 e6 f6 91 36 49 c1 1b 32 e5 64 ca 36 27 93 c3 36
       4.3500795e-06 9.066135e-09 6.031815e-06 5.8285837e-06
0001c0 96 71 1b 32 3e a7 00 37 52 68 72 2b dc ac 37 27
       9.048014e-09 7.668334e-06 8.6120445e-13 2.549006e-15
0001d0 a0 1a 65 2a ae 5a ec 29 80 4f 37 27 34 2b 10 2c
       2.0348523e-13 1.0496236e-13 2.5439449e-15 2.0487613e-12
0001e0 b8 d1 8c 32 58 c5 09 2e 3f 9e a6 2f 3f ce 5e 30
       1.6393514e-08 3.132547e-11 3.0307665e-10 8.1056223e-10
0001f0 21 80 09 2e e8 1a e8 32 1f fc 84 3d 9a 29 e9 39
       3.1263995e-11 2.702059e-08 0.06493401 0.0004447222
000200 1a 45 ee 3e 2a c4 6d 3d ff b2 e8 39 70 dc 30 3f
       0.46537095 0.058048405 0.0004438385 0.6908636
000210 34 c8 99 2e 66 48 4a 2c ab be 51 2e ed 52 d1 30
       6.993198e-11 2.8746116e-12 4.7690445e-11 1.523032e-09
000220 89 e3 49 2c 6e 23 1f 31 fe 65 ab 1e 01 19 a7 1b
       2.8690125e-12 2.3157685e-09 1.8147512e-20 2.764399e-22
000230 df 4a ac 1e 1d 61 01 1f 66 ca a6 1b 5b 44 80 20
       1.8242174e-20 2.7397143e-20 2.7593193e-22 2.1729277e-19
000240 a3 1b 90 3a 65 30 00 38 18 c1 8c 3c e1 29 9b 3c
       0.0010994565 3.056265e-05 0.017181918 0.018940868
000250 27 de ff 37 78 45 f1 3c 3c cd 13 24 45 86 fd 1f
       3.0501817e-05 0.02945207 3.2049384e-17 1.073718e-19
000260 9f 53 8e 21 90 a7 54 23 37 11 fd 1f b6 83 d0 24
       9.644429e-19 1.1528026e-17 1.0717815e-19 9.042875e-17
000270 2c f9 72 2a dd fd 3b 27 b3 0c c4 28 26 61 13 2b
       2.1580367e-13 2.6089083e-15 2.1765879e-14 5.235971e-13
000280 5e d4 3b 27 2e 76 14 2c 06 7d a2 3d 94 87 c9 39
       2.6066588e-15 2.1097668e-12 0.079340026 0.0003843872
000290 60 c9 8c 3e 20 5b 80 3d a9 20 c9 39 99 51 0e 3f
       0.27497387 0.06267381 0.0003836204 0.5559326
0002a0 8e 93 09 34 be 56 93 2f a8 66 b8 31 bb 39 c8 32
       1.28128e-07 2.6800778e-10 5.3667755e-09 2.3309317e-08
0002b0 eb 0b 93 2f 89 7c 69 34 c9 7c 30 37 6c 62 be 32
       2.6747612e-10 2.1745122e-07 1.0519471e-05 2.2163668e-08
0002c0 4f 93 13 35 16 d4 b8 35 95 01 be 32 7e 17 c6 37
       5.497613e-07 1.3770793e-06 2.211963e-08 2.3614379e-05
0002d0 2d 25 f4 20 18 c4 6f 1c a8 be ee 1d be 78 89 1e
       4.1359809e-19 7.933191e-22 6.319521e-21 1.4555377e-20
0002e0 66 4a 6f 1c 18 3a 37 21 4b d6 3a 3f 00 b7 5f 3b
       7.9174624e-22 6.20797e-19 0.72983235 0.0034136176
0002f0 30 7a 7a 40 64 a0 45 3f 7c 44 5f 3b b2 1e a7 40
       3.9137077 0.7719786 0.003406792 5.222497
000300 bd aa ee 36 34 07 ed 33 60 3b 86 38 d3 33 66 38
       7.1128293e-06 1.1037483e-07 6.4006774e-05 5.488454e-05
000310 f6 92 ec 33 45 e3 e1 38 02 58 38 2a 1f 9d 8c 26
       1.10163384e-07 0.00010771168 1.6373017e-13 9.757039e-16
000320 4e 44 ce 27 94 dd 85 29 e4 5f 8c 26 24 40 83 2b
       5.725054e-15 5.944824e-14 9.740443e-16 9.325912e-13
000330 9d ed cb 2b fa bb a1 29 71 0d b3 2c f7 74 40 2e
       1.4489968e-12 7.182445e-14 5.0889783e-12 4.375963e-11
000340 20 6a a1 29 76 91 7b 2e 22 a4 7d 3b cc 49 0e 37
       7.168246e-14 5.7199988e-11 0.0038702567 8.481042e-06
000350 8a ef 91 39 33 a2 3f 3a 82 03 0e 37 80 f0 34 3c
       0.00027835026 0.00073102413 8.464676e-06 0.011043668
000360 80 b9 5c 35 ee 45 be 30 91 9d 16 34 f5 8b bf 34
       8.2226325e-07 1.3844195e-09 1.4027161e-07 3.5678354e-07
000370 30 e5 bd 30 bf e3 9e 35 5d 2a f8 1f 4e 97 93 1b
       1.3816699e-09 1.18382e-06 1.0510217e-19 2.4416888e-22
000380 81 b1 95 1d 5e f0 a5 1d 1f 4c 93 1b 71 a3 61 20
       3.9623506e-21 4.392367e-21 2.4368302e-22 1.911232e-19
000390 ea 45 b7 38 2e e1 b3 35 e8 c2 84 3a 27 a2 e7 38
       8.7391425e-05 1.3402075e-06 0.0010128887 0.000110451416
0003a0 f3 84 b3 35 05 ce a5 3a e9 5b d0 2c 4c fe 77 29
       1.3375233e-06 0.00126499 5.9219196e-12 5.5065585e-14
0003b0 4e b4 73 2c ee 90 4f 2c 09 88 77 29 c7 f7 69 2e
       3.4632466e-12 2.9496921e-12 5.496301e-14 5.3198137e-11
0003c0 bb 15 14 36 8f 45 84 32 f6 eb d9 35 7e 7f 89 35
       2.2066367e-06 1.5398454e-08 1.6236434e-06 1.02444e-06
0003d0 15 07 84 32 a9 6a 80 37 36 f8 10 37 60 32 d8 32
       1.5370043e-08 1.5308457e-05 8.64086e-06 2.5168617e-08
0003e0 9e 4d 7d 35 96 8e ee 35 4b c5 d7 32 43 5a f4 37
       9.436279e-07 1.777388e-06 2.5119013e-08 2.9129098e-05
0003f0 31 e5 3f 3e 81 39 81 3a a6 da 5a 3f 00 e3 16 3e
       0.18739773 0.0009859056 0.8548988 0.14735031

exp_avg f4 [128]
000000 45 fe e8 29 9b 7e 08 22 0b dc 74 b1 13 2e d9 ad
       1.03469784e-13 1.8498461e-18 -3.5631753e-09 -2.4690505e-11
000010 9d 49 1e 1a b3 94 18 b2 46 da c1 20 58 03 b8 a7
       3.27331e-23 -8.881375e-09 3.2839913e-19 -5.1073884e-15
000020 09 7d 3f 3a cb b9 34 b9 fe ee 5f 30 2c ce 52 ae
       0.00073047035 -0.00017235351 8.1466556e-10 -4.793159e-11
000030 e9 ab 57 a0 14 9c 97 a1 bb 84 79 27 aa 2b a7 3a
       -1.8268089e-19 -1.0273472e-18 3.4627645e-15 0.0012754102
000040 68 c4 d2 3b a4 96 9d a6 1c 78 3c 34 1a 9f 35 ab
       0.006432105 -1.0934895e-15 1.755256e-07 -6.4524915e-13
000050 95 48 98 27 6d 13 b2 bb 52 80 b0 28 9e 07 9b 1f
       4.226717e-15 -0.0054344446 1.9595575e-14 6.5657655e-20
000060 36 91 5c 33 78 ee bc 9c 24 aa d9 a0 bc 5f 30 ba
       5.135481e-08 -1.2502439e-21 -3.687382e-19 -0.0006728133
000070 93 bf 93 af 45 ff 26 b0 30 e2 18 1f 6c 44 bc bc
       -2.6875266e-10 -6.075321e-10 3.237435e-20 -0.022981845
000080 c5 fb 2f af 84 9f 60 20 b8 cd 28 ab c4 6b 37 b6
       -1.6005604e-10 1.9026317e-19 -5.997108e-13 -2.7331853e-06
000090 a5 f7 02 b1 f1 7a c2 9e 47 b9 e5 2f 84 51 03 26
       -1.905826e-09 -2.0591396e-20 4.1786505e-10 4.556023e-16
0000a0 37 ca 8f ac 04 e7 21 b0 a9 8e 49 bc 11 86 4f b2
       -4.086755e-12 -5.889975e-10 -0.012302079 -1.2079469e-08
0000b0 d5 31 17 2a b1 ce b4 35 29 bb 9a a3 c3 d1 09 1e
       1.3428783e-13 1.34712e-06 -1.6775979e-17 7.296097e-21
0000c0 c4 7e 5f b0 97 a2 44 29 9c 3c f0 1f 57 c2 a7 26
       -8.130707e-10 4.3661767e-14 1.01744223e-19 1.1640629e-15
0000d0 02 3a d9 23 75 33 40 25 c7 d4 b5 a2 e8 73 ab 34
       2.3551754e-17 1.667078e-16 -4.9285435e-18 3.1935565e-07
0000e0 ee 87 2f 39 c6 58 9d a9 2d 9b 9b aa f9 d2 a9 2d
       0.00016739938 -6.9876e-14 -2.7641206e-13 1.9306766e-11
0000f0 e9 d0 46 bc fe 9d cf af fc 86 85 32 9f 60 84 2d
       -0.012134769 -3.776534e-10 1.5544622e-08 1.5049571e-11
000100 41 a7 bd 1f 43 e5 0d 26 dd a2 2b b8 f0 a9 0a b8
       8.032131e-20 4.922991e-16 -4.0921255e-05 -3.306003e-05
000110 3d fb 24 b1 ca 9a 48 3b da b7 f2 b5 18 9f f2 3b
       -2.4007953e-09 0.003060984 -1.8083913e-06 0.0074042194
000120 e5 96 05 20 65 3f 9b b8 ca 52 14 ab 1e 10 f1 31
       1.1315465e-19 -7.402784e-05 -5.2695055e-13 7.0158555e-09
000130 ef f4 68 39 89 d9 99 ae 19 ba 02 a3 8d c3 75 27
       0.00022216489 -6.9962765e-11 -7.086722e-18 3.4106588e-15
000140 06 b2 01 3d b9 dd 1e 3c a8 88 0c ae 50 22 0a af
       0.031663917 0.0096964175 -3.195369e-11 -1.2563217e-10
000150 71 6e 76 ab fd c8 67 a1 7d 90 0b 1e 7c e2 68 a3
       -8.7550025e-13 -7.853185e-19 7.388478e-21 -1.2624705e-17
000160 3a 50 fe a3 3b 8f 82 1d 47 ec c9 27 70 0e 4f b1
       -2.7572712e-17 3.455881e-21 5.604488e-15 -3.0130671e-09
000170 c4 9b 48 af 81 b4 d9 1b 29 f2 a5 ba 04 a9 9c 39
       -1.8245233e-10 3.6016287e-22 -0.001266067 0.00029880565
000180 ae 3c dd 26 2c 80 c8 a2 b6 39 af 1c e6 be 94 9d
       1.5351403e-15 -5.4345816e-18 1.1595447e-21 -3.937266e-21
000190 98 78 63 23 10 90 f8 a4 7a 9e 1f 33 80 28 ca 29
       1.2331231e-17 -1.0779691e-16 3.7164206e-08 8.977628e-14
0001a0 57 0c 2d b2 cf bd 1f 2c f2 68 2b 3b 7e 4f bf ba
       -1.0072731e-08 2.2700624e-12 0.0026155082 -0.0014595834
0001b0 98 80 0f 2f 48 af 7b 1e 98 e5 a4 31 90 56 48 b3
       1.305146e-10 1.3324077e-20 4.79913e-09 -4.6644857e-08
0001c0 85 c1 10 bc cd 7d cd a9 18 e7 df 22 3d 82 c1 31
       -0.008835201 -9.125652e-14 6.068895e-18 5.6318457e-09
0001d0 da 13 ad bc d7 38 87 a7 cd aa b2 2a 08 35 c6 b0
       -0.02112763 -3.7531653e-15 3.1737669e-13 -1.4421468e-09
0001e0 f6 e5 68 3c 9d f9 90 29 0e 03 07 3c 6f f5 a5 a3
       0.014214983 6.4381856e-14 0.008240474 -1.7993281e-17
0001f0 64 2e 78 23 4c 96 3b 28 27 e9 79 27 25 28 03 b3
       1.34539305e-17 1.0413176e-14 3.4682084e-15 -3.0537326e-08

exp_avg_sq f4 [128]
000000 a7 b6 ce 2e b6 87 fd 23 68 27 d3 39 e0 2f 18 37
       9.400241e-11 2.748779e-17 0.00040274416 9.071053e-06
000010 b3 6d 95 1d 66 5d 80 38 9e a4 85 24 c2 b0 97 23
       3.9553398e-21 6.1209124e-05 5.795843e-17 1.6446313e-17
000020 d1 50 9f 3a f0 e7 a1 39 ce b0 5b 37 c0 13 0d 2d
       0.0012154822 0.0003088112 1.3094583e-05 8.0193074e-12
000030 3e 47 b0 1e d5 ab 08 1e fc be 25 2c f3 2d a5 3b
       1.866419e-20 7.235314e-21 2.3553928e-12 0.005040878
000040 a9 6c fb 3c 0d ee 77 2d 96 71 1b 33 80 4f 37 28
       0.030691462 1.4093182e-11 3.6192056e-08 1.01757795e-14
000050 21 80 09 2f ff b2 e8 3a 89 e3 49 2d 66 ca a6 1c
       1.2505598e-10 0.001775354 1.147605e-11 1.1037277e-21
000060 27 de ff 38 37 11 fd 20 5e d4 3b 28 a8 20 c9 3a
       0.000122007266 4.287126e-19 1.0426635e-14 0.0015344815
000070 eb 0b 93 30 97 01 be 33 66 4a 6f 1d 7b 44 5f 3c
       1.0699045e-09 8.847854e-08 3.166985e-21 0.013627167
000080 f4 92 ec 34 e4 5f 8c 27 20 6a a1 2a 82 03 0e 38
       4.4065348e-07 3.896177e-15 2.8672984e-13 3.3858705e-05
000090 30 e5 bd 31 1f 4c 93 1c f4 84 b3 36 10 88 77 2a
       5.5266796e-09 9.747321e-22 5.3500935e-06 2.1985213e-13
0000a0 15 07 84 33 4b c5 d7 33 77 f7 80 3b 42 f5 1b 39
       6.148017e-08 1.0047605e-07 0.00393575 0.00014873318
0000b0 b7 28 14 2a fe 35 15 3a 81 bd 5e 25 bc a1 0e 27
       1.3159166e-13 0.00056919444 1.9319637e-16 1.9794135e-15
0000c0 50 72 13 37 9c 19 de 2c 32 6e a8 26 20 59 a1 20
       8.788498e-06 6.3124627e-12 1.168721e-15 2.733344e-19
0000d0 e9 0b 0a 29 05 21 26 2b 0e 60 d8 1e d6 f5 e2 34
       3.0652486e-14 5.902087e-13 2.2909617e-20 4.227465e-07
0000e0 1d e2 dc 36 37 e8 96 2a 20 70 5b 2d 76 42 3b 32
       6.582834e-06 2.6806484e-13 1.24736055e-11 1.0899944e-08
0000f0 26 27 fd 3b e8 6b 8a 35 1f 14 b5 33 6e bd 8e 2b
       0.007725614 1.0313206e-06 8.432129e-08 1.0142284e-12
000100 2a a0 9e 24 97 83 fa 2e 97 13 9f 39 f4 04 60 3a
       6.8792906e-17 1.1392059e-10 0.0003034144 0.000854566
000110 24 75 36 37 fc 6d 23 3b ef a8 0f 3a 30 d9 ac 3b
       1.0875319e-05 0.0024937382 0.000548019 0.005274914
000120 bd 17 9f 20 e9 88 83 39 3c fb 0b 31 df a4 4c 38
       2.6951356e-19 0.00025088273 2.0369972e-09 4.879094e-05
000130 24 7f 57 39 c0 2e 0f 35 60 33 90 26 75 c2 35 2c
       0.00020551361 5.333968e-07 1.0005932e-15 2.5829592e-12
000140 90 1c c0 3b 88 b1 6e 3a 67 bc f0 36 6b 7a 28 3a
       0.00586278 0.0009105434 7.1744903e-06 0.0006426933
000150 07 8e a8 2f 16 09 71 1e 6d 70 47 1d a9 b0 4a 1e
       3.0659938e-10 1.2760313e-20 2.6395553e-21 1.07303234e-20
000160 cb d3 ea 1c 1c a7 90 22 77 08 b1 26 f3 16 60 31
       1.5539568e-21 3.9208212e-18 1.2284137e-15 3.2609335e-09
000170 55 c4 44 36 a1 98 8d 1d 14 30 a6 3c d1 bb f9 3a
       2.9320556e-06 3.7480204e-21 0.020286597 0.0019053166
000180 79 ad bc 26 6b c5 1d 1c 82 0e 79 1c 2d 04 44 1a
       1.309214e-15 5.22021e-22 8.240594e-22 4.0535223e-23
000190 5c 67 11 21 42 1f 20 2a 3d cd 80 37 c8 27 5a 28
       4.9264706e-19 1.42217e-13 1.535436e-05 1.2110057e-14
0001a0 39 27 31 38 5d 62 e0 2c d7 b2 37 3a 48 11 e8 3a
       4.2236617e-05 6.3773834e-12 0.0007007545 0.0017705346
0001b0 b0 8e 27 31 63 09 0d 1c 10 bf 8c 31 67 a6 71 32
       2.4382807e-09 4.666512e-22 4.0962576e-09 1.4065882e-08
0001c0 ee 24 80 3b e9 a7 55 2c 1c 02 a4 23 21 ab fd 2e
       0.0039106524 3.036233e-12 1.7781809e-17 1.15355066e-10
0001d0 a4 8a a3 3a 9f 6e 80 2d 5f 11 df 30 e0 f9 5d 3a
       0.0012477231 1.460104e-11 1.6230323e-09 0.0008467715
0001e0 b3 9a 67 3b 53 5e 2c 2a 08 bf 32 3b 6f c1 aa 1c
       0.003534001 1.5309394e-13 0.0027274508 1.1299658e-21
0001f0 f0 82 33 24 ed d3 13 2c 27 d2 7a 29 66 49 2f 37
       3.8925346e-17 2.1007599e-12 5.569343e-14 1.0447902e-05
