MLAgentsProject/results/MoveToGoal6/MoveToGoal/MoveToGoal-16999987.pt (torch, 439199 bytes, 36 tensors)

network_body._body_endoder.seq_layers.0.weight f4 [128, 6]
-0.013663178 -0.9599864 -1.4900951 0.33236045 -0.3275088 0.08477861 -0.40935028 -0.8738476
-1.1689193 0.0029971548 -0.73629403 -0.8740128 0.7921711 -0.15787159 -0.8361318 -0.85952693
0.19335805 -0.42758533 0.11982145 -0.100005485 -1.4287255 -0.87052995 -0.7854828 -0.14520329
0.01260671 -0.69550854 -1.732629 -0.25992414 -1.140771 -1.076515 -0.5910611 0.22436309
0.5658467 -0.36929902 0.34971628 -0.95914686 -0.18245694 -1.6196699 -1.6762449 0.16070342
-1.2543098 -0.37275857 -0.2856291 -0.75259525 -0.4573958 -0.061489984 -1.200169 -1.0758482
0.2553506 -0.35134885 -1.4820932 -0.1684938 -0.42956063 0.2746234 0.15194984 0.3641373
-0.026991373 0.34448835 0.19228458 -0.4560523 -1.2036974 -0.29825082 -0.96695274 0.41147366
-0.7262967 -0.24604358 0.400872 -0.40266883 -0.27037063 0.07424071 -0.17283726 -0.6406751
-0.19295456 -1.0453776 -1.264752 0.034350723 -1.6376553 -0.868271 -0.062825784 0.05128412
-0.7068346 -0.030285 -0.31803346 -1.1615804 -0.648328 -0.1775401 -0.70997894 -0.25770912
-0.53168124 -0.5157316 0.36053216 0.5874939 -0.4355341 -0.040982347 0.24891703 0.78341633
0.5663735 -0.36815342 -0.6780377 -0.47812974 -1.1955042 0.7747768 0.45461148 0.27805147
-0.72712797 -0.537703 -0.29690588 -1.0139717 0.09929762 0.05854929 0.037358288 0.43027163
-0.22711065 -0.40927905 0.25249398 -0.061328884 -0.060265686 0.07121106 0.15516753 -1.07741
0.3741684 -1.412587 -1.3615038 -0.66034293 -1.4683068 -0.20540987 -0.14981116 0.8161812
0.146373 0.18139385 0.65646094 0.5481388 -0.5999169 -0.4068186 -1.2657044 0.32648388
-0.15356605 -0.33108538 -0.27023187 -0.98729193 -0.7199342 -0.04962879 -0.44701838 -1.1060951
-0.7299241 -0.09907847 -1.128079 0.69825906 -0.8109526 0.07602144 -0.124743424 -0.17722169
-2.1951346 -0.027647369 -1.597956 -0.8558374 -0.7007966 -0.1501133 -1.2715799 0.052047867
0.055352546 -0.46045348 0.37708113 0.7181007 0.24694537 0.036602717 0.953784 0.45785418
0.2443056 -0.1406616 -1.1007216 0.14792064 -0.6313404 -0.6088805 0.5728429 -0.32363927
-0.3330451 -0.69086885 -0.055297524 -0.75741285 -0.015200299 -0.65037996 -0.9375237 -0.102997474
-0.46831697 -1.1796213 0.7595189 0.3766926 0.7953891 -0.6313363 -0.3820076 -0.61524975
-0.73909014 -0.49096954 -0.68394446 0.1926676 -1.3560494 -0.5199448 0.11981342 -1.1483524
-2.3521287 0.07442308 -0.8655907 -0.31670186 -0.27714097 -0.69570196 -0.74994206 0.25996265
-0.38378492 -0.6438271 0.67401546 -0.59793746 -1.375647 0.26065046 -1.0194567 -0.055691034
0.42329586 0.03406816 -0.9034298 0.3869149 -0.5889117 -0.50599915 0.038713187 -0.72587335
-0.7456057 -0.1702652 -0.7222208 -1.3294773 -0.5849367 -0.669339 0.42873073 -0.5994132
-0.6022361 -0.9366729 -0.4513583 -0.18867788 -0.7185609 -0.377587 -0.55485225 -0.5047024
-0.99425703 -0.5742782 -0.6913 0.2595528 -0.52085507 -0.18742642 0.12780085 -0.23141077
-1.1731497 -0.32467484 0.05138202 -0.29355696 -0.594844 0.8108194 0.4371447 0.5261106
00000000: 86db 5fbc abc1 75bf 70bb bebf 262b aa3e
00000010: 3caf a7be 68a0 ad3d 5c96 d1be 7ab4 5fbf
00000020: 269f 95bf ea6b 443b c47d 3cbf 4ebf 5fbf
00000030: bacb 4a3f 17a9 21be bc0c 56bf f509 5cbf
00000040: a7ff 453e 77ec dabe f364 f53d adcf ccbd
00000050: 7ae0 b6bf 0ddb 5ebf 6715 49bf 2cb0 14be
00000060: 608c 4e3c d90c 32bf c9c6 ddbf c714 85be
00000070: c904 92bf 3ecb 89bf c84f 17bf 70bf 653e
00000080: 54db 103f c314 bdbe 030e b33e a68a 75bf
00000090: fed5 3abe 5851 cfbf 318f d6bf 708f 243e
000000a0: 398d a0bf 36da bebe fa3d 92be 15aa 40bf
000000b0: c82f eabe ecdc 7bbd 239f 99bf 65b5 89bf
000000c0: 50bd 823e ffe3 b3be 3bb5 bdbf a489 2cbe
000000d0: 5fef dbbe 709b 8c3e bd98 1b3e 3470 ba3e
000000e0: 031d ddbc c760 b03e 40e6 443e b07f e9be
000000f0: c212 9abf 55b4 98be 378a 77bf adac d23e
00000100: 95ee 39bf d9f2 7bbe 183f cd3e 9c2a cebe
00000110: 056e 8abe 830b 983d 40fc 30be 4903 24bf
00000120: e195 45be efce 85bf 65e3 a1bf 58b3 0c3d
00000130: b09e d1bf 0247 5ebf ceaa 80bd 4c0f 523d
00000140: 1df3 34bf 4018 f8bc 48d5 a2be abae 94bf
00000150: d3f8 25bf 12cd 35be 2ec1 35bf 73f2 83be
00000160: 431c 08bf fc06 04bf ac97 b83e 0066 163f
00000170: 53fe debe 1bdd 27bd 1be4 7e3e f98d 483f
00000180: dbfd 103f 9b7e bcbe e193 2dbf 6ccd f4be
00000190: 4806 99bf c657 463f d6c2 e83e c35c 8e3e
000001a0: 0f25 3abf e7a6 09bf 0c04 98be d3c9 81bf
000001b0: 8d5c cb3d 61d1 6f3d 0105 193d 904c dc3e
000001c0: b28f 68be 068d d1be e446 813e ff33 7bbd
000001d0: 27d9 76bd 1bd7 913d 3de4 1e3e 92e8 89bf
000001e0: 0093 bf3e a7cf b4bf c245 aebf 3c0c 29bf
000001f0: 7af1 bbbf f756 52be 1968 19be 40f1 503f
00000200: cee2 153e 4fbf 393e d30d 283f d352 0c3f
00000210: 2794 19bf 874a d0be 9a02 a2bf e528 a73e
00000220: 6b40 1dbe 0684 a9be d55b 8abe 2abf 7cbf
00000230: 9c4d 38bf 8f47 4bbd 98df e4be 8694 8dbf
00000240: 4edc 3abf a7e9 cabd e564 90bf 1bc1 323f
00000250: 979a 4fbf 21b1 9b3d 7b79 ffbd 9a79 35be
00000260: 167d 0cc0 bc7c e2bc d289 ccbf 2918 5bbf
00000270: 6867 33bf 4db7 19be 21c3 a2bf 2530 553d
00000280: 5ab9 623d 8fc0 ebbe c710 c13e 73d5 373f
00000290: 3fdf 7c3e bbec 153d 302b 743f dd6b ea3e
000002a0: 3f2b 7a3e 9809 10be 72e4 8cbf 8278 173e
000002b0: 869f 21bf 98df 1bbf d5a5 123f 0cb4 a5be
000002c0: e384 aabe c8dc 30bf a87f 62bd cfe5 41bf
000002d0: ad0a 79bc 4d7f 26bf 8e01 70bf 57f0 d2bd
000002e0: 3ec7 efbe d5fd 96bf d56f 423f dadd c03e
000002f0: 9f9e 4b3f 419f 21bf 8096 c3be 0281 1dbf
00000300: 0335 3dbf 5c60 fbbe fc16 2fbf a84a 453e
00000310: 0793 adbf 1a1b 05bf bd60 f53d 36fd 92bf
00000320: 4789 16c0 216b 983d 5a97 5dbf bf26 a2be
00000330: 6ce5 8dbe 8619 32bf 34fc 3fbf d319 853e
00000340: 757f c4be dad1 24bf 478c 2c3f 6e12 19bf
00000350: 3315 b0bf fa73 853e 8f7d 82bf 481c 64bd
00000360: 3cba d83e 0e8b 0b3d 2d47 67bf b619 c63e
00000370: ebc2 16bf 2989 01bf b891 1e3d d6d2 39bf
00000380: 04e0 3ebf 005a 2ebe 76e3 38bf 502c aabf
00000390: 69be 15bf cd59 2bbf 9882 db3e 2573 19bf
000003a0: 252c 1abf ccc9 6fbf 6f18 e7be c634 41be
000003b0: 9bf3 37bf 1553 c1be cc0a 0ebf 2d34 01bf
000003c0: a187 7ebf e503 13bf 09f9 30bf 1be4 843e
000003d0: c256 05bf b6ec 3fbe 3ade 023e f2f6 6cbe
000003e0: c529 96bf c83b a6be f475 523d 194d 96be
000003f0: b247 18bf dc91 4f3f 6ed1 df3e 2faf 063f

network_body._body_endoder.seq_layers.0.bias f4 [128]
-0.4847676 -0.9725558 -0.13677798 -0.27946743 -1.1046019 -0.14802556 -1.4481553 -0.42298046
-0.12281033 0.042013936 -0.6585912 -0.3859296 -1.0207717 -0.14995767 -0.34909633 0.51413965
-0.17959206 -0.4955087 -0.39686283 -0.29328007 -0.97878844 0.6377703 -0.35073543 -0.86627346
-0.46480623 -0.9074862 -0.47980288 0.7935998 -0.60599303 -0.0932706 -0.83294934 0.029782917
-0.8234751 -0.4494647 -0.45930177 -0.6290485 -0.2272606 -0.8822243 -0.22471543 -0.52826357
-0.5263616 -0.37500498 0.30558863 -0.45211378 -0.97333443 -0.23089525 -0.91009444 -1.3201655
-0.29197907 -0.61455184 -0.8053079 -0.78644234 -0.5180378 -0.39977697 -1.0545157 -0.0074004736
-0.23333357 -0.60855174 -0.37357426 0.030248554 0.46037263 -0.44282308 -0.45574626 -0.7881215
-1.3262349 -0.36936906 0.05364278 -0.031191671 -0.099875465 0.05293496 0.01755698 0.11667354
-0.98472875 -0.09497581 -0.53626657 -0.22377095 0.23300098 -0.3632974 -0.5869957 -0.34746343
0.25046408 0.38543043 -0.5196903 -0.089685775 -0.12185952 -0.75003433 -1.0853016 -0.94207954
-0.6228784 -0.81431603 -0.24195282 -0.32491058 0.32339883 -0.6946126 0.2392447 0.22036412
-0.43479878 -0.66170514 -1.0649316 -0.6058382 -0.8617289 -0.83710235 -0.05600292 -0.8540789
-0.53724843 0.10935393 -0.40103602 -0.48280105 -0.5183661 -0.7793574 -0.20397906 -0.14524063
0.42815164 -0.25821432 -1.3510544 -0.6400048 0.25630483 -0.41170332 -0.16400005 0.47471988
0.6878603 -0.46143928 -0.07360274 -0.6974306 -0.89462256 -0.60458106 -0.6915585 -0.17274642
00000000: 7533 f8be 6bf9 78bf 870f 0cbe 5b16 8fbe
00000010: 9863 8dbf 0394 17be 275d b9bf e590 d8be
00000020: fb83 fbbd ce16 2c3d 6f99 28bf 9198 c5be
00000030: a6a8 82bf 818e 19be c1bc b2be a89e 033f
00000040: fbe6 37be 51b3 fdbe 9b31 cbbe ce28 96be
00000050: e191 7abf ea44 233f 9893 b3be 19c4 5dbf
00000060: 15fb edbe 0451 68bf b9a8 f5be 5b29 4b3f
00000070: 5c22 1bbf a804 bfbd 2b3c 55bf 4efb f33c
00000080: 44cf 52bf 3d20 e6be 9a29 ebbe 5309 21bf
00000090: 01b7 68be 74d9 61bf cd1b 66be 483c 07bf
000000a0: a2bf 06bf a700 c0be 1d76 9c3e 757b e7be
000000b0: 722c 79bf ce6f 6cbe f3fb 68bf 2ffb a8bf
000000c0: 487e 95be 4553 1dbf a928 4ebf 4954 49bf
000000d0: 209e 04bf 91af ccbe 5ffa 86bf ac7f f2bb
000000e0: ffee 6ebe 0cca 1bbf 2045 bfbe d1cb f73c
000000f0: f6b5 eb3e b5b9 e2be 9357 e9be 55c2 49bf
00000100: 11c2 a9bf f11d bdbe 88b8 5b3d ad85 ffbc
00000110: 828b ccbd 54d2 583d a8d3 8f3c 89f2 ee3d
00000120: 2f17 7cbf ad82 c2bd c448 09bf 3624 65be
00000130: cf97 6e3e 1e02 babe 5a45 16bf bae6 b1be
00000140: d43c 803e 2357 c53e 6c0a 05bf 2dad b7bd
00000150: 7c91 f9bd 4002 40bf 2aeb 8abf 202c 71bf
00000160: f574 1fbf 0477 50bf 7bc2 77be ae5a a6be
00000170: 8894 a53e 22d2 31bf 90fc 743e 22a7 613e
00000180: f29d debe 8265 29bf ae4f 88bf 3618 1bbf
00000190: 449a 5cbf 574c 56bf 5163 65bd eaa4 5abf
000001a0: 1d89 09bf f4f4 df3d 9854 cdbe b331 f7be
000001b0: a4b3 04bf f783 47bf e3df 50be f6b9 14be
000001c0: b136 db3e ab34 84be 5aef acbf 5bd7 23bf
000001d0: 633a 833e c7ca d2be a1ef 27be 7c0e f33e
000001e0: 9d17 303f c541 ecbe 09bd 96bd d08a 32bf
000001f0: fc05 65bf d3c5 1abf fa09 31bf 70e4 30be

network_body._body_endoder.seq_layers.2.weight f4 [128, 128]
0.29208583 -0.3532501 -0.32512096 -0.3626102 -0.42113778 -0.23950702 0.089747526 0.104618266
-0.45421946 0.08252599 -0.7603534 -0.066431314 0.14647782 0.09246531 -0.44187826 -1.38905
0.18167032 0.37524766 0.4814149 -0.21600936 -0.032236632 -0.18760489 0.01382535 -0.10161716
-0.21819459 0.24293022 -0.21383783 0.19006325 -0.038707692 0.2851782 0.07669791 -1.1737304
-0.46078134 0.14346017 -0.02673187 -0.4617756 0.2619801 -0.54614574 -0.29021725 0.2640853
-0.016735869 0.27381265 0.12764066 0.09757399 -0.21747683 -0.9574869 -0.44874218 0.16361019
-0.5423376 0.42664355 -0.7125555 -0.078035414 0.04247165 0.20234527 0.08504417 -0.4719609
-0.46174756 -0.1704528 -0.32249108 -0.017003579 0.171439 -0.3487236 -1.2948611 0.03201069
-0.59353817 -0.49124157 -0.37745297 -0.093022846 -0.4526456 -0.72606343 -0.24713345 -0.6550248
0.09299589 -0.0047105225 -0.2773246 -0.5777658 -0.06317585 -0.649579 0.02040782 0.5354267
0.29023054 0.39706877 -0.19791451 0.0798571 -0.08316869 0.22745702 0.1100045 0.033390403
0.4736811 -0.09822634 0.36831105 -0.364952 -0.3995984 -0.43354616 0.55268127 -0.30628777
0.13972338 0.05737079 -0.32743105 -0.010006743 -0.054706402 -0.45342532 -0.41259077 -0.01623874
0.5059474 -0.13864823 -0.26531088 -0.4606427 0.0891927 -0.16720168 0.16403374 -0.44162962
0.10737264 -0.45233712 -0.05227294 -0.119992286 -0.0034023484 0.15469056 -0.17120853 -0.0153062
-0.3819203 -0.25094298 0.39562008 -0.39184856 0.08176658 0.81084335 -0.3562821 -0.59532046
-1.4591116 -0.68403924 0.06495124 1.3113939 0.08395825 -0.69652724 0.3356466 -0.3243112
1.0033513 -0.9656817 -0.7622972 -0.39844185 0.13768883 0.047688235 -1.069051 0.31898525
0.37380657 -0.9949702 -0.5033794 0.27954593 -0.7354929 -0.25759956 -0.83565176 -0.6679364
-0.6135118 0.16230944 0.20961699 -0.38186237 -0.13691083 -0.39653534 -0.34103155 -0.797837
-0.5392876 -0.4894979 -0.69428736 -0.77443457 0.4021114 -0.36254147 -0.24233432 -0.45585826
-0.61576986 -0.7355799 -0.07008445 -0.29832476 -0.6093801 -0.4434448 -0.2793422 0.12271937
-0.50525725 -0.75901306 -0.4439756 -1.3452626 -0.1147934 -0.5940678 -1.1183534 -0.023354638
0.14299396 -0.66490674 -0.8673095 0.6510711 -0.25465634 -0.28895307 -0.38061547 -0.013925831
0.24855886 -0.6718467 -0.20171894 0.6880259 -0.56569684 -0.23038565 -1.1858532 -1.2645551
0.46352732 -0.31712115 0.06067516 -0.99300176 -0.2912577 -0.6261385 0.3018506 0.08072135
0.003526002 0.3298737 -0.8649013 0.400939 -1.250169 -0.058058176 -0.13070734 -0.37461692
0.16754146 -0.35516495 -0.07796039 -0.12356629 -0.46864825 0.063964 -0.032065775 -0.4765493
-0.061107256 -0.2799984 0.051586572 -0.00877456 -0.56467634 -0.63953793 -0.2786989 -0.7394231
-0.5972948 -1.1352844 -0.24839886 0.5341147 -1.1764773 -0.4999592 0.12949829 -0.75377446
-0.31671286 -0.74778223 0.12185929 -0.267685 -0.7886096 -0.7069291 -0.8097408 -0.7037876
-0.42945722 -0.4354246 -0.8575968 -0.17112811 -0.48664117 0.17343028 -0.33041093 -1.3391097
00000000: 468c 953e 32dd b4be 4176 a6be 0ba8 b9be
00000010: 5f9f d7be 5441 75be 8dcd b73d 1a42 d63d
00000020: 748f e8be 6303 a93d 85a6 42bf 240d 88bd
00000030: 48fe 153e 745e bd3d de3d e2be 64cc b1bf
00000040: c907 3a3e 7620 c03e 047c f63e 8f31 5dbe
00000050: 8f0a 04bd 7f1b 40be b983 623c a81c d0bd
00000060: 676e 5fbe b3c2 783e 4ef8 5abe f19f 423e
00000070: f58b 1ebd e102 923e cb13 9d3d cc3c 96bf
00000080: 88eb ebbe 39e7 123e cbfc dabc da6d ecbe
00000090: 4122 863e 35d0 0bbf 5b97 94be 3036 873e
000000a0: a919 89bc 2c31 8c3e 3cb4 023e dfd4 c73d
000000b0: 3fb2 5ebe dd1d 75bf 89c1 e5be 6e89 273e
000000c0: a3d6 0abf 0671 da3e 0a6a 36bf 08d1 9fbd
000000d0: c1f6 2d3d 9933 4f3e a32b ae3d dca4 f1be
000000e0: 2d6a ecbe 2e8b 2ebe 8d1d a5be 174b 8bbc
000000f0: b58d 2f3e e68b b2be 02be a5bf a41d 033d
00000100: 1ef2 17bf 0484 fbbe 8441 c1be c382 bebd
00000110: 2ac1 e7be 4bdf 39bf 8d10 7dbe b5af 27bf
00000120: a174 be3d ba5a 9abb 7dfd 8dbe 76e8 13bf
00000130: 5762 81bd cf4a 26bf 4d2e a73c b911 093f
00000140: 1999 943e 994c cb3e 1aaa 4abe 1f8c a33d
00000150: 5954 aabd 7eea 683e 0a4a e13d 60c4 083d
00000160: 5486 f23e e42a c9bd 4493 bc3e fdda babe
00000170: 2998 ccbe c3f9 ddbe 857c 0d3f c0d1 9cbe
00000180: a513 0f3e a2fd 6a3d 0ba5 a7be 52f3 23bc
00000190: d213 60bd 5d27 e8be 193f d3be 1b07 85bc
000001a0: c585 013f cdf9 0dbe d4d6 87be 5cd9 ebbe
000001b0: aaaa b63d eb36 2bbe 76f8 273e 471d e2be
000001c0: 30e6 db3d bb98 e7be 261c 56bd 84be f5bd
000001d0: eff9 5ebb 3467 1e3e 4a51 2fbe dbc6 7abc
000001e0: 0f8b c3be 997b 80be b78e ca3e 60a0 c8be
000001f0: 3d75 a73d 6e93 4f3f 9b6a b6be ec66 18bf
00000200: 2bc4 babf 321d 2fbf 2805 853d c1db a73f
00000210: 4ef2 ab3d 9c4f 32bf dfd9 ab3e 1e0c a6be
00000220: d16d 803f ea36 77bf e925 43bf 9200 ccbe
00000230: 4dfe 0c3e bd54 433d aad6 88bf 0952 a33e
00000240: 9363 bf3e 5eb6 7ebf 79dd 00bf a520 8f3e
00000250: 4349 3cbf 17e4 83be 46ed 55bf e1fd 2abf
00000260: 1c0f 1dbf 7234 263e d6a5 563e 7783 c3be
00000270: 5a32 0cbe ae06 cbbe b09b aebe 0c3f 4cbf
00000280: c10e 0abf 789f fabe d1bc 31bf 5841 46bf
00000290: 8ce1 cd3e 099f b9be 7d26 78be 4166 e9be
000002a0: 18a3 1dbf f74e 3cbf 7088 8fbd 06be 98be
000002b0: 5600 1cbf 320b e3be f105 8fbe 4b54 fb3d
000002c0: 8a58 01bf ae4e 42bf c550 e3be 9131 acbf
000002d0: cd18 ebbd d414 18bf 3426 8fbf 3a52 bfbc
000002e0: 026d 123e 5437 2abf ff07 5ebf 98ac 263f
000002f0: 5162 82be a8f1 93be 08e0 c2be 2b29 64bc
00000300: 3786 7e3e 25fe 2bbf 698f 4ebe 7722 303f
00000310: 82d1 10bf 37ea 6bbe 0aca 97bf f1dc a1bf
00000320: 7453 ed3e b45d a2be 8486 783d 5d35 7ebf
00000330: bb1f 95be 9d4a 20bf 298c 9a3e 3c51 a53d
00000340: 7f14 673b 35e5 a83e 2c6a 5dbf e047 cd3e
00000350: 8a05 a0bf 69ce 6dbd 25d8 05be cacd bfbe
00000360: fd8f 2b3e 2ed8 b5be b2a9 9fbd 5310 fdbd
00000370: aaf2 efbe 8fff 823d 6757 03bd 45fe f3be
00000380: 9a4b 7abd f35b 8fbe 714c 533d 2cc3 0fbc
00000390: a18e 10bf c2b8 23bf 9fb1 8ebe d54a 3dbf
000003a0: 50e8 18bf 0051 91bf 455c 7ebe bebb 083f
000003b0: cf96 96bf a7fa ffbe 339b 043e 5df7 40bf
000003c0: 3028 a2be a86e 3fbf 5d91 f93d 020e 89be
000003d0: 52e2 49bf 4ef9 34bf 2c4b 4fbf 6d2b 34bf
000003e0: d1e1 dbbe f9ef debe 778b 5bbf 353c 2fbe
000003f0: 0829 f9be b597 313e 9f2b a9be f267 abbf

network_body._body_endoder.seq_layers.2.bias f4 [128]
0.08500315 0.1594061 0.47664788 0.06004077 0.15283239 -0.57858294 0.56006235 1.0279971
-0.039230507 0.4481048 -0.435476 -0.61828715 -0.010297738 0.1370536 -0.15383036 -0.31682953
0.237016 0.034607045 0.52077436 0.20974004 -0.29066518 -0.16825595 0.07118177 0.30551332
-0.5205134 0.66854817 0.29718927 -0.29199633 -0.3395555 -0.2367076 0.97877395 0.14302015
0.02552108 0.28856415 0.1665735 0.14166918 -0.22182584 0.07057422 -0.40185547 -0.3316301
-0.5298073 -0.26660892 0.35047618 -0.27324155 0.82842344 0.5588484 -0.6484311 -0.042923406
0.41776583 -0.008064302 0.2885037 -0.21337365 0.27546084 0.19514363 -0.003018707 0.042931676
-0.2956324 -0.73411137 0.59453845 -0.607725 0.88611853 0.37933663 -0.60461324 0.15390967
0.07512025 0.50301063 -0.8219439 0.0138477925 -0.5527353 0.13407613 0.15823725 0.5580732
0.18046331 0.055107515 0.25560263 0.09473442 0.71891314 0.2608436 -0.4203901 -0.23040108
0.090033114 -0.43651423 0.28475806 0.4115821 -0.121103205 0.74274737 0.31016776 0.64476675
0.20724738 0.25087038 0.4142179 -0.15886945 -0.1407113 -0.07549994 -0.97875273 -0.13494842
-0.48458284 -0.16983792 0.415482 0.31789255 -0.1180877 -0.19644947 -0.10974759 0.99361295
0.7773496 0.04434726 -0.07928349 0.21422903 -0.047298588 -0.30820125 -0.22471228 -0.22367764
0.33600992 0.22424859 0.15904234 -0.42238075 0.28466958 -0.29984203 0.3343431 -1.2903497
0.06572338 0.01884039 -0.48873785 0.2264138 0.4805077 0.66431826 0.4241996 0.32592124
00000000: 2216 ae3d 5a3b 233e 310b f43e 4fed 753d
00000010: 1880 1c3e 031e 14bf 3f60 0f3f 6995 833f
00000020: 2bb0 20bd fe6d e53e b6f6 debe 1148 1ebf
00000030: d8b7 28bc c757 0c3e b585 1dbe 7b37 a2be
00000040: 53b4 723e 1ec0 0d3d 7851 053f 18c6 563e
00000050: 11d2 94be 4a4b 2cbe bfc7 913d 3e6c 9c3e
00000060: 5e40 05bf f925 2b3f 3129 983e 8b80 95be
00000070: 38da adbe 7a63 72be ee90 7a3f e073 123e
00000080: 9511 d13c aebe 933e 3e92 2a3e ba11 113e
00000090: 5026 63be 3789 903d 00c0 cdbe 6ccb a9be
000000a0: 74a1 07bf f780 88be 9d71 b33e 51e6 8bbe
000000b0: 8f13 543f b010 0f3f 95ff 25bf 74d0 2fbd
000000c0: 67e5 d53e 2220 04bc c2b6 933e 9f7e 5abe
000000d0: 3409 8d3e bbd3 473e 80d5 45bb 20d9 2f3d
000000e0: 215d 97be b9ee 3bbf ac33 183f de93 1bbf
000000f0: aad8 623f 6938 c23e efc7 1abf 7f9a 1d3e
00000100: a5d8 993d 4ec5 003f ea6a 52bf dae1 623c
00000110: 1080 0dbf 414b 093e f208 223e e3dd 0e3f
00000120: 60cb 383e 6bb8 613d 59de 823e 1f04 c23d
00000130: b10a 383f 4b8d 853e 5f3d d7be 43ee 6bbe
00000140: 4863 b83d cb7e dfbe cfcb 913e e4ba d23e
00000150: f504 f8bd b124 3e3f 4fce 9e3e 6f0f 253f
00000160: a838 543e 1572 803e 5e14 d43e acae 22be
00000170: 9f16 10be b69f 9abd 8a8f 7abf eb2f 0abe
00000180: 3e1b f8be fee9 2dbe 0fba d43e d0c2 a23e
00000190: f7d7 f1bd 0d2a 49be 58c3 e0bd 6b5d 7e3f
000001a0: 6200 473f 79a5 353d 625f a2bd db5e 5b3e
000001b0: 2abc 41bd 8ecc 9dbe fa1a 66be c00b 65be
000001c0: 7e09 ac3e 6ca1 653e ffdb 223e 4a42 d8be
000001d0: 36c0 913e e584 99be 052f ab3e 2e2a a5bf
000001e0: fb99 863d 2957 9a3c d93b fabe 05d9 673e
000001f0: 1b05 f63e c310 2a3f b130 d93e 26df a63e

action_model._continuous_distribution.log_sigma f4 [1, 2]
-0.12960689 -0.29908207
00000000: abb7 04be 4921 99be

action_model._continuous_distribution.mu.weight f4 [2, 128]
-0.7703872 0.3743582 1.0915241 -0.25868627 -0.59632134 0.02169368 0.8135863 0.36960545
-0.22326833 -0.9992942 -0.1161697 -0.00587341 0.4332019 -0.3078597 -0.029815312 0.047993682
-0.08686065 -0.41918352 0.5827983 -1.0870492 -0.2875068 0.14911051 0.013795144 0.06829079
-0.5522595 1.0997783 -0.5118387 0.24870685 0.30916882 -0.08317542 -0.03530796 0.477446
0.07627505 0.6336136 -0.16223037 0.4968306 0.061276365 0.5481042 0.04946609 -0.49285585
0.588981 0.038291667 0.73081046 -0.017910823 -0.6055994 0.3288093 0.34382665 -0.045595527
-0.48039564 -0.021059994 -0.6924988 -0.11832093 0.17838944 -0.47200578 0.5396771 0.5742585
0.14973207 -0.090614624 -0.26605153 -0.023907043 -0.16678874 0.2429813 0.62963086 0.1016917
0.04150852 0.6725502 -0.105635926 0.2368391 0.039313357 0.43622035 -0.10106732 0.7986885
-0.5478734 -0.046740215 -0.716644 0.03831835 0.2794059 -0.43967843 -0.009606989 -0.15579976
0.4208841 -0.0022091568 -0.86901045 -0.58492315 -0.3678482 -0.66637075 0.144959 0.64302933
-0.105102316 -0.79822934 -0.77645266 -0.11751352 -0.6462409 -0.47865903 -0.16235715 0.081112
0.48106277 -0.3825132 0.6341586 -0.834321 -0.28561765 0.15955967 -0.69784564 -0.24452409
-1.7183825 0.10739949 0.02889883 -0.5129254 -0.08302969 0.444089 -0.2781489 0.11595596
-0.55908763 0.990543 0.015236359 -0.35507128 0.07120413 -0.14768553 0.9944574 -0.18410525
0.75537944 -0.8089409 -0.052227937 -0.16623606 -0.42074156 -0.68701535 0.1887926 0.37392431
-0.22313291 -0.22078308 -0.1774573 -0.2261317 0.028268484 0.21753533 0.18701316 0.14088419
-0.038396597 -0.22685921 0.033762716 -0.08611894 0.3131624 -0.2635242 0.0020681783 0.35862678
-0.48809353 -0.11949109 -0.36829326 0.4528035 0.1427926 -0.71198684 0.21850786 -1.0561627
-0.043485906 0.19345671 0.2226072 0.5687145 0.11161471 0.08277801 0.27338728 0.0834847
0.43848574 -0.09371934 -0.06998454 0.0038644488 -0.06867925 0.07676152 -0.16543071 0.25721264
0.2754591 -0.074742176 0.5016575 0.6646645 -0.693273 -0.49403167 -0.04261637 -0.42539605
0.20220935 -0.10538095 -0.1549507 0.14610301 0.13540459 -0.10358113 0.013669667 -0.11612932
0.14926429 0.083381295 -0.8963225 -0.058767695 -0.5948024 -0.8399148 -0.11236012 -0.3677917
-0.19724019 -0.46583018 -0.011727227 -0.11192286 0.39079633 0.14234807 -0.11828561 0.07625112
-0.2593247 -0.17634024 -0.29976696 -0.3565748 0.43224332 -0.42452914 0.09515148 0.09422103
0.024147438 0.086269304 -0.1445702 0.04323413 -0.012262005 -0.9783854 -0.26998854 -0.048958015
-0.10274904 0.08752953 0.051953133 0.23333324 -0.36225238 -0.35860786 0.25950956 -0.07882287
-0.037328005 0.009653918 0.33878508 0.13395867 -0.4899869 0.50366503 -0.07819254 0.05697615
-0.20734371 0.18818626 0.035586298 0.05786427 0.7546759 0.07363076 0.28109714 0.08230586
0.14907189 0.45318714 -0.3485288 0.28449753 -0.45919007 0.3707699 0.090806596 0.13441916
0.07755587 -0.10321357 -0.2354163 -0.111168645 -0.121974036 0.3067548 -0.44616938 -0.50586236
00000000: 1838 45bf e1ab bf3e 10b7 8b3f 8772 84be
00000010: 84a8 18bf f2b6 b13c 3147 503f ed3c bd3e
00000020: 74a0 64be bfd1 7fbf 61ea edbd bc75 c0bb
00000030: a4cc dd3e c99f 9dbe 3e3f f4bc 0695 443d
00000040: ffe3 b1bd 399f d6be 4532 153f 6e24 8bbf
00000050: 1734 93be 6db0 183e 0705 623c 0bdc 8b3d
00000060: e160 0dbf 89c5 8c3f dc07 03bf 02ad 7e3e
00000070: 604b 9e3e e057 aabd 149f 10bd cd73 f43e
00000080: 1836 9c3d 8034 223f b81f 26be 9560 fe3e
00000090: edfc 7a3d 8f50 0c3f f49c 4a3d 9a57 fcbe
000000a0: 75c7 163f b9d7 1c3d 6516 3b3f b8b9 92bc
000000b0: 9008 1bbf b159 a83e 0c0a b03e 60c2 3abd
000000c0: 6bf6 f5be 0286 acbc 9a47 31bf 3e52 f2bd
000000d0: b9ab 363e beaa f1be 4728 0a3f 9b02 133f
000000e0: 5d53 193e 2994 b9bd e837 88be b4d8 c3bc
000000f0: abca 2abe 17d0 783e 7d2f 213f bd43 d03d
00000100: d604 2a3d 402c 2c3f a657 d8bd f385 723e
00000110: 0b07 213d 4658 df3e 62fc cebd d976 4c3f
00000120: 6e41 0cbf ab72 3fbd fb75 37bf b4f3 1c3d
00000130: 4a0e 8f3e 881d e1be a266 1dbc f989 1fbe
00000140: 1f7e d73e 80c7 10bb 7877 5ebf 86bd 15bf
00000150: 9956 bcbe 4697 2abf 2270 143e 929d 243f
00000160: e23f d7bd c258 4cbf 9ac5 46bf eeaa f0bd
00000170: 0b70 25bf cc12 f5be f440 26be 0c1e a63d
00000180: dc4d f63e c5d8 c3be 3858 223f 1096 55bf
00000190: 7a3c 92be 9c63 233e 03a6 32bf 8664 7abe
000001a0: f5f3 dbbf 44f4 db3d 3dbd ec3c 144f 03bf
000001b0: 780b aabd a25f e33e 8869 8ebe 517a ed3d
000001c0: 5e20 0fbf 3a94 7d3f eca1 793c e7cb b5be
000001d0: 79d3 913d e03a 17be c394 7e3f 1686 3cbe
000001e0: 8c60 413f c016 4fbf f6ec 55bd c939 2abe
000001f0: 706b d7be 3de0 2fbf d952 413e 0273 bf3e
00000200: f47c 64be f614 62be 5eb7 35be 128f 67be
00000210: 4f93 e73c 95c1 5e3e 6180 3f3e f243 103e
00000220: c045 1dbd c84d 68be c64a 0a3d 205f b0bd
00000230: d256 a03e a5ec 86be 468a 073b ee9d b73e
00000240: 65e7 f9be bfb7 f4bd ef90 bcbe dcd5 e73e
00000250: 3938 123e c544 36bf 86c0 5f3e 5730 87bf
00000260: 471e 32bd 8419 463e 24f3 633e 4697 113f
00000270: 4196 e43d 8487 a93d 6bf9 8b3e 07fa aa3d
00000280: 3481 e03e edef bfbd 0e54 8fbd b142 7d3b
00000290: b5a7 8cbd 2535 9d3d ab66 29be 60b1 833e
000002a0: fa08 8d3e 6d12 99bd a06c 003f 7427 2a3f
000002b0: 577a 31bf b8f1 fcbe 818e 2ebd 83cd d9be
000002c0: f80f 4f3e f8d1 d7bd 65ab 1ebe 079c 153e
000002d0: 80a7 0a3e 5822 d4bd bdf6 5f3c 35d5 edbd
000002e0: bdd8 183e d0c3 aa3d 6475 65bf 65b6 70bd
000002f0: f844 18bf a804 57bf 101d e6bd 324f bcbe
00000300: 55f9 49be 4b81 eebe 8e23 40bc d037 e5bd
00000310: 7516 c83e b1c3 113e ba3f f2bd 8c29 9c3d
00000320: 35c6 84be 8992 34be 0e7b 99be f990 b6be
00000330: ff4e dd3e e25b d9be c7de c23d f5f6 c03d
00000340: d9d0 c53c f6ad b03d 360a 14be 4516 313d
00000350: 94e6 48bc 7777 7abf f03b 8abe 3388 48bd
00000360: 176e d2bd af42 b33d cfcc 543d e9ee 6e3e
00000370: 2579 b9be 739b b7be 70de 843e e36d a1bd
00000380: 40e5 18bd 782b 1e3c 3d75 ad3e 762c 093e
00000390: 90df fabe 31f0 003f 6923 a0bd d35f 693d
000003a0: e951 54be e6b3 403e f0c2 113d 1603 6d3d
000003b0: 7132 413f b9cb 963d f7eb 8f3e fa8f a83d
000003c0: 4da6 183e 2508 e83e 5e72 b2be a9a9 913e
000003d0: f61a ebbe 8dd5 bd3e cff8 b93d 2da5 093e
000003e0: 9dd5 9e3d a361 d3bd f810 71be 63ac e3bd
000003f0: 86cd f9bd f70e 9d3e 5070 e4be 3280 01bf

action_model._continuous_distribution.mu.bias f4 [2]
0.08602901 1.3834115
00000000: fa2f b03d a113 b13f

exp_avg f4 [128, 6]
8.936566e-05 3.1759316e-06 -3.675436e-05 -5.7817157e-05 3.1729842e-06 7.958238e-05 3.1221423e-13 3.1407463e-15
-7.3967053e-13 -1.4237316e-12 3.1478817e-15 3.470303e-13 -0.004711389 -0.00018526755 -0.0030478109 0.0012499936
-0.0001850833 -0.006254773 -3.9775092e-05 -5.4402026e-06 -6.386098e-05 5.30448e-05 -5.434776e-06 -0.00022674324
1.6020876e-11 8.3795113e-13 2.400872e-12 4.2788558e-16 8.3711797e-13 2.678963e-11 0.0003723195 -0.00010746659
-0.0033111577 0.0006884229 -0.00010735888 -0.0035572888 1.0377315e-08 5.4634625e-10 1.6297241e-09 -1.1547512e-10
5.458016e-10 1.751465e-08 1.1009475e-11 1.5398947e-12 2.7477336e-11 3.2191003e-12 1.5383886e-12 4.9565393e-11
-0.0024243658 -9.276169e-05 0.0005914607 -0.00022296104 -9.266744e-05 -0.0027740118 0.002613555 0.00020921226
0.004953257 0.004196828 0.00020901122 0.0066913133 6.062835e-07 -7.532129e-08 -1.2711394e-06 6.1489055e-07
-7.524487e-08 -3.1128372e-06 1.395861e-05 7.5819946e-07 1.3558288e-05 5.8046976e-06 7.574575e-07 2.4265239e-05
8.2409435e-12 3.7819354e-13 1.1290131e-14 -2.7398832e-13 3.778205e-13 1.21168015e-11 -8.124913e-12 -4.5823274e-13
-2.1061943e-12 4.748642e-14 -4.577745e-13 -1.464885e-11 1.6613653e-08 4.7156803e-09 4.6049124e-08 -4.679404e-08
4.7109854e-09 1.9160804e-07 -0.016782064 0.00013879378 0.023616005 0.0027825185 0.00013866255 0.0014201995
0.080342256 -0.007232894 -0.16305974 -0.021820983 -0.0072256164 -0.25223082 -1.310042e-09 -1.1915102e-10
2.821618e-09 7.2888146e-10 -1.1903149e-10 -4.6383755e-09 0.0034646937 0.00026726117 0.0062964805 0.0052687423
0.00026700468 0.008556447 -1.6008786e-07 -7.2936284e-09 -2.5249412e-07 -1.8048154e-07 -7.2863515e-09 -2.32951e-07
-9.5190895e-05 -4.78202e-06 -1.04294595e-05 -4.539175e-06 -4.777269e-06 -0.00014840651 0.018589301 0.00043105864
0.008840624 0.03754571 0.00043063262 0.01383522 -7.200466e-08 -6.116238e-09 -6.173465e-08 -4.8130737e-08
-6.109264e-09 -2.022791e-07 1.0092563e-12 4.8729694e-14 -3.271262e-13 -5.907699e-13 4.86886e-14 1.5857356e-12
-0.0001959276 -1.8739498e-05 -0.00032550568 -0.00038406692 -1.871705e-05 -0.0005971494 -2.8392226e-12 -2.4024657e-13
-2.4025645e-12 1.1910212e-15 -2.4000666e-13 -7.669198e-12 -2.8882952e-09 1.1238597e-10 2.6132077e-09 -2.671975e-09
1.1227933e-10 5.8184617e-09 0.024875058 0.004083943 0.08979343 0.016898757 0.0040799025 0.1450985
4.1340627e-07 2.2555714e-08 8.427214e-08 1.0910038e-08 2.2532653e-08 7.2074596e-07 7.6248616e-05 3.0037916e-06
7.331113e-05 -1.5214154e-05 3.000803e-06 9.33344e-05 6.4096953e-12 3.3523477e-13 9.210191e-13 -1.2763856e-14
3.34902e-13 1.0718546e-11 -0.018292254 -0.005745569 -0.14126195 0.005132165 -0.00573982 -0.18790378
2.5820718e-10 -1.3289014e-09 -1.7258827e-08 1.0018602e-09 -1.3274928e-09 -5.0651476e-08 1.2406489e-06 6.3075156e-08
1.4580185e-07 2.5237904e-12 6.3012465e-08 2.0164769e-06 -2.5550364e-09 -4.0336484e-10 -4.166183e-09 -1.3001071e-08
-4.0268877e-10 -1.2605493e-08 -0.0028175812 -0.00013792046 -0.0005020188 0.00013789663 -0.00013778378 -0.004438161
1.707941e-05 7.637505e-07 -1.3643313e-06 -4.2453444e-06 7.628339e-07 2.4453791e-05 1.4205389e-12 7.5115966e-14
2.80703e-13 -3.3632636e-14 7.5041176e-14 2.4013797e-12 0.00011080356 -1.617958e-05 -0.00051141507 0.00012552534
-1.616335e-05 -0.00059229415 -2.823228e-08 1.3078171e-09 4.018673e-08 -2.0473712e-08 1.3065031e-09 6.2504306e-08
-7.061451e-06 -6.9334794e-07 -1.3701278e-06 3.0369254e-06 -6.9265656e-07 -2.7939033e-05 6.4440646e-06 3.3229102e-07
4.2465572e-07 3.1317458e-07 3.31961e-07 1.043314e-05 -0.0044315266 0.0043959706 0.09716961 -0.031310987
00000000: d369 bb38 1722 5536 b228 1ab8 b380 72b8
00000010: 74ef 5436 77e5 a638 d0c2 af2a 8b50 6227
00000020: e132 50ab 565f c8ab 2bd4 6227 565c c32a
00000030: ff61 9abb 6144 42b9 c8bd 47bb d3d6 a33a
00000040: ec12 42b9 d7f4 ccbb 2ed4 26b8 fc8a b6b6
00000050: 1aed 85b8 6c7c 5e38 5f5c b6b6 edc1 6db9
00000060: ceeb 8c2d bedc 6b2b 44f2 282c c4a8 f625
00000070: b5a0 6b2b e2a4 eb2d e133 c339 b05f e1b8
00000080: 0200 59bb 4777 343a dc25 e1b8 6721 69bb
00000090: ea47 3232 b32d 1630 d2fc df30 b7ee fdae
000000a0: 6007 1630 1f73 9632 44ae 412d 8eb8 d82b
000000b0: 76b1 f12d 2886 622c 4a82 d82b acfd 592e
000000c0: 1ce2 1ebb 0e89 c2b8 410c 1b3a a6ca 69b9
000000d0: 7456 c2b8 32cc 35bb 2d48 2b3b fd5f 5b39
000000e0: ee4e a23b 8c85 893b 062a 5b39 ce42 db3b
000000f0: 7cbf 2235 51c0 a1b3 049c aab5 f50e 2535
00000100: 4e96 a1b3 23e6 50b6 c62f 6a37 1287 4b35
00000110: 6778 6337 f9c5 c236 1554 4b35 348d cb37
00000120: e9f9 102d 6fe7 d42a 8a62 4b28 e13d 9aaa
00000130: acb1 d42a 3929 552d 5bef 0ead 26fb 00ab
00000140: d335 14ac 1ddc 5529 21da 00ab 47da 80ad
00000150: cfb5 8e32 9007 a231 8cc7 4533 97fa 48b3
00000160: 44de a131 d1bc 4d34 8a7a 89bc 2c89 1139
00000170: 5a76 c13c ea5a 363b f265 1139 fd25 ba3a
00000180: 7b8a a43d ea01 edbb 22f9 26be ebc1 b2bc
00000190: ddc4 ecbb 6624 81be 010d b4b0 0802 03af
000001a0: 6ee6 4131 795a 4830 63e0 02af 955f 9fb1
000001b0: ea0f 633b 301f 8c39 b552 ce3b 6aa5 ac3b
000001c0: c3fc 8b39 5730 0c3c 9ee4 2bb4 6f9b fab1
000001d0: 878e 87b4 63ca 41b4 6d5b fab1 1521 7ab4
000001e0: 39a1 c7b8 3d75 a0b6 30fa 2eb7 374f 98b6
000001f0: 6e4c a0b6 929d 1bb9 9748 983c b6ff e139
00000200: 44d8 103c 88c9 193d 88c6 e139 1ead 623c
00000210: fba0 9ab3 0027 d2b1 fc92 84b3 4eb8 4eb3
00000220: a8e9 d1b1 0e32 59b4 4a0a 8e2b 8375 5b29
00000230: db27 b8aa 7549 26ab 2246 5b29 252c df2b
00000240: ea71 4db9 c432 9db7 a2a8 aab9 975c c9b9
00000250: 8f02 9db7 058a 1cba e3ca 47ac 2e3f 87aa
00000260: c110 29ac eda4 ab26 9b1c 87aa ffea 06ad
00000270: 6d7b 46b1 ad23 f72e 0994 3331 e29d 37b1
00000280: a5e7 f62e bbeb c731 c7c6 cb3c 99d2 853b
00000290: 9ee5 b73d 436f 8a3c b4b0 853b b494 143e
000002a0: 20f2 dd34 8ac0 c132 19f9 b433 db6e 3b32
000002b0: d48d c132 4979 4135 aae7 9f38 bf94 4936
000002c0: 9dbe 9938 4b40 7fb7 6761 4936 86bc c338
000002d0: 6785 e12c 6cb8 bc2a 369f 812b e5ee 65a8
000002e0: 7788 bc2a 0a90 3c2d a3d9 95bc 5345 bcbb
000002f0: f9a6 10be b82b a83b 1a15 bcbb d969 40be
00000300: 6ef3 8d2f 90a4 b6b0 9040 94b2 d2b1 8930
00000310: 0073 b6b0 e38b 59b3 5f84 a635 ef73 8733
00000320: b58d 1c34 9198 312c 7851 8733 cf52 0736
00000330: ad94 2fb1 8ec0 ddaf 2226 8fb1 515b 5fb2
00000340: 6861 ddaf 8b8f 58b2 2ba7 38bb be9e 10b9
00000350: e999 03ba 5898 1039 0d7a 10b9 fe6d 91bb
00000360: c145 8f37 8904 4d35 111e b7b5 3b73 8eb6
00000370: 8cc5 4c35 1e22 cd37 4fec c72b 6825 a929
00000380: 9105 9e2a ca77 17a9 4bfa a829 69fb 282c
00000390: 355f e838 62b9 87b7 7c10 06ba 749f 0339
000003a0: 8896 87b7 3044 1bba 7183 f2b2 b9be b330
000003b0: c799 2c33 2bde afb2 7e90 b330 1b3a 8633
000003c0: 67f1 ecb6 821e 3ab5 3ce5 b7b5 fbcd 4b36
000003d0: ffee 39b5 9e5e eab7 183a d836 bb65 b234
000003e0: 3dfc e334 6322 a834 5f38 b234 ff09 2f37
000003f0: 5736 91bb 130c 903b dc00 c73d f33f 00bd

exp_avg_sq f4 [128, 6]
0.0042216866 2.0649748e-05 0.00021832623 0.008127904 2.0609037e-05 0.029947562 9.019683e-16 1.0174197e-17
1.6848753e-16 2.0242188e-16 1.01539696e-17 8.0981635e-15 0.0066805296 1.7981172e-05 0.0019178619 0.0016793971
1.7945384e-05 0.018733382 0.00051927037 2.090531e-06 2.3146453e-05 0.00020352071 2.0863795e-06 0.0024759702
4.6178e-19 2.2564245e-21 1.9026338e-20 1.4762078e-19 2.2519419e-21 1.8206543e-18 1.7209313e-05 1.9708327e-07
0.00012355075 1.4675772e-05 1.9668863e-07 0.00018053487 1.5489654e-10 8.7882636e-13 4.466523e-12 2.3547672e-10
8.770795e-13 1.0845818e-09 2.5923467e-17 3.7274723e-19 3.4531895e-17 1.7585471e-17 3.7200403e-19 2.96674e-16
0.090249546 0.00035982084 0.009581104 0.056339946 0.00035910666 0.52071077 0.006164007 1.2831012e-05
0.010956294 0.008881015 1.2805377e-05 0.010853874 8.123142e-06 2.2592366e-07 8.896054e-06 0.000113709495
2.25474e-07 0.0003807346 9.75415e-07 1.6540859e-09 4.4047596e-07 5.3802995e-07 1.6507937e-09 1.3303653e-06
1.1964051e-17 1.3372795e-19 1.8354929e-18 1.4292675e-17 1.3346306e-19 1.116302e-16 1.6930531e-19 2.0755723e-21
4.0967435e-20 2.2741958e-19 2.0714475e-21 1.6827399e-18 1.0530821e-08 1.2216768e-10 3.89459e-09 2.229631e-09
1.2192437e-10 9.7598026e-08 0.19821616 0.0006341488 0.3651186 0.22632132 0.00063288206 0.73335725
1.5669733 0.006181206 7.278587 1.5972282 0.006168843 8.97153 6.0316474e-10 7.8544923e-13
6.0203223e-12 5.9045754e-12 7.8388755e-13 6.1552635e-10 0.040091537 0.000101178906 0.090614386 0.06772514
0.00010097694 0.0864856 1.11412324e-10 2.1599337e-13 1.6663415e-10 1.4269799e-10 2.1556232e-13 1.6960792e-10
4.579532e-06 1.303329e-08 2.2655809e-07 6.414449e-07 1.300736e-08 1.3592756e-05 0.08217527 0.0003211908
0.27893454 0.08475278 0.0003205495 0.40973893 7.571015e-08 1.3119391e-09 1.4389802e-08 7.351881e-07
1.3093251e-09 2.2833528e-06 2.9627554e-18 4.156585e-20 1.4454096e-18 1.3429696e-18 4.1483033e-20 3.310722e-17
0.0011247563 1.62376e-05 0.0016812214 0.0070525366 1.62054e-05 0.022641253 1.28960965e-17 1.6333853e-19
8.140066e-19 3.2409704e-17 1.6301347e-19 1.314422e-16 3.8538954e-09 5.11473e-11 8.2750906e-10 1.4860643e-09
5.104562e-11 4.4011912e-08 0.066384174 0.0003045137 0.20609342 0.095406204 0.00030390618 0.3910252
1.8553151e-09 4.351348e-12 6.258109e-11 1.7363123e-09 4.342766e-12 3.908657e-09 6.925795e-05 9.923613e-08
3.3078195e-05 9.163291e-06 9.9038324e-08 7.8484154e-05 5.8849527e-19 1.2614553e-21 1.3506336e-20 9.75232e-20
1.2589551e-21 1.006687e-18 1.016444 0.0038460214 3.9000702 0.9610031 0.0038383354 4.989231
1.4940373e-09 1.870966e-11 4.678116e-10 1.8680468e-09 1.8672775e-11 1.9142504e-08 2.7124377e-08 1.0046318e-10
4.4740234e-10 2.7732375e-08 1.0026372e-10 1.2361318e-07 2.5296714e-11 2.5018678e-13 1.3996208e-11 1.2855082e-10
2.4969008e-13 2.0934664e-10 0.0047504045 9.65031e-06 0.00029170225 0.002568484 9.631593e-06 0.012341002
1.0701866e-05 2.2062675e-08 1.0178665e-06 9.170463e-06 2.2021844e-08 2.3151268e-05 2.6368552e-20 6.502559e-23
1.4233596e-21 2.6186862e-21 6.4896337e-23 5.1667976e-20 1.1586162e-05 1.5065844e-07 0.000111261776 1.2793587e-05
1.5035658e-07 0.0001352946 6.376155e-09 7.182978e-11 1.765827e-09 1.2284843e-09 7.16864e-11 5.6673684e-08
7.240661e-05 1.225109e-06 5.1831477e-05 0.0006171351 1.2226692e-06 0.0020828245 1.9184145e-06 6.4724714e-09
7.330308e-08 6.0729377e-07 6.459608e-09 7.1888326e-06 0.11332647 0.00054955634 0.5534931 0.13306041
00000000: 1356 8a3b ff38 ad37 80ee 6439 e62a 053c
00000010: 92e1 ac37 9754 f53c c2fc 8126 49ae 3b23
00000020: be40 4225 6560 6925 c44e 3b23 30e2 1128
00000030: 58e8 da3b 46d6 9637 c460 fb3a 371f dc3a
00000040: 6b89 9637 c076 993c a51f 083a 0d4b 0c36
00000050: a12a c237 2d68 5539 ba03 0c36 e343 223b
00000060: 1c4b 0821 997d 2a1d ddb2 b31e a547 2e20
00000070: e426 2a1d 3057 0622 b85c 9037 d69d 5334
00000080: 678d 0139 f637 7637 5c31 5334 f64d 3d39
00000090: 804f 2a2f 1d5e 772b dd26 9d2c 6774 812f
000000a0: 3de0 762b 5410 9530 0e1a ef23 f807 dc20
000000b0: 1140 1f24 8532 a223 a997 db20 5b05 ab25
000000c0: c1d4 b83d 56a6 bc39 10fa 1c3c b7c4 663d
000000d0: 7b46 bc39 4d4d 053f 70fb c93b c744 5737
000000e0: 0782 333c ad81 113c add6 5637 72d4 313c
000000f0: a148 0837 6c95 7234 4340 1537 5277 ee38
00000100: d219 7234 559d c739 01eb 8235 f955 e330
00000110: 8e7a ec34 236d 1035 24e2 e230 018f b235
00000120: a2b2 5c23 cbe0 1d20 7b6f 0722 a0d3 8323
00000130: bc90 1d20 6bb3 0025 64e1 4720 68d3 1c1d
00000140: 9776 411f ad3e 8620 9f83 1c1d 1e54 f821
00000150: 0aeb 3432 2553 062f 2dd1 8531 1538 1931
00000160: a90e 062f 1597 d133 2df9 4a3e 013d 263a
00000170: d3f0 ba3e c7c0 673e ffe7 253a 4dbd 3b3f
00000180: 9592 c83f b78b ca3b 2fea e840 f971 cc3f
00000190: 0124 ca3b 638b 0f41 f2cb 2530 9515 5d2b
000001a0: 3ed2 d32c b0bf cf2c 0da5 5c2b d131 2930
000001b0: 0637 243d 0330 d438 0994 b93d 7ab3 8a3d
000001c0: 95c3 d338 5d1f b13d 90ff f42e da2f 732a
000001d0: 5837 372f eae5 1c2f 9cb3 722a 637c 3a2f
000001e0: e1a9 9936 04e9 5f32 d043 7334 c22f 2c35
000001f0: f976 5f32 710c 6437 824b a83d 8065 a839
00000200: 82d0 8e3e de92 ad3d 6d0f a839 4dc9 d13e
00000210: 1896 a233 c14f b430 0537 7732 be59 4535
00000220: c8f3 b330 b43b 1936 de9c 5a22 074a 441f
00000230: 084e d521 f52f c621 e9e5 431f 1bae 1824
00000240: 8f6c 933a fb35 8837 6e5c dc3a f718 e73b
00000250: d5f0 8737 267a b93c 18e4 6d23 0bd6 4020
00000260: 9a40 7021 a076 1524 cc73 4020 e48a 1725
00000270: 396b 8431 bef2 602e c676 6330 3d3e cc30
00000280: 4280 602e 9c07 3d33 6df4 873d 23a7 9f39
00000290: 270a 533e 5464 c33d 9955 9f39 7434 c83e
000002a0: 19fe fe30 7519 992c 069e 892e 0fa3 ee30
000002b0: 29cc 982c e94c 8631 943e 9138 a41b d533
000002c0: 71bd 0a38 09bc 1937 e5ae d433 dc97 a438
000002d0: 72b1 2d21 30a0 be1c a220 7f1e 2845 e61f
000002e0: 773f be1c 8f8f 9421 d61a 823f 880d 7c3b
000002f0: c09a 7940 4d04 763f 958c 7b3b c8a7 9f40
00000300: c456 cd30 6992 a42d 5197 0030 075f 0031
00000310: 5a3f a42d d06e a432 23ff e832 beeb dc2e
00000320: 48f6 f52f 2338 ee32 757b dc2e 88ba 0434
00000330: 2383 de2d b7d7 8c2a 5139 762d d757 0d2f
00000340: 2290 8c2a d72d 662f 48a9 9b3b c4e7 2137
00000350: 9def 9839 0354 283b 6097 2137 ea31 4a3c
00000360: 2a8c 3337 5684 bd32 a09d 8835 d7da 1937
00000370: 8c2a bd32 f834 c237 3f0b f91e e438 9d1a
00000380: 8f17 d71c c2dc 451d e3e8 9c1a c0fe 731f
00000390: 3062 4237 adc4 2134 3655 e938 0aa4 5637
000003a0: b471 2134 dedd 0d39 4115 db31 92f4 9d2e
000003b0: 84b1 f230 73d7 a830 dba3 9d2e 6069 7333
000003c0: 01d9 9738 6d6e a435 a065 5938 3cc7 213a
000003d0: 981a a435 ff7f 083b 1cbe 0036 7664 de31
000003e0: cb6a 9d33 e904 2335 50f3 dd31 9a37 f136
000003f0: b517 e83d 1a10 103a b9b1 0d3f fd40 083e

exp_avg f4 [128]
6.345965e-06 6.295827e-15 -0.0003701666 -1.0869553e-05 1.6742359e-12 -0.00021471776 1.091603e-09 3.0767775e-12
-0.00018533497 0.00041802242 -1.5048973e-07 1.514915e-06 7.55641e-13 -9.15549e-13 9.4219725e-09 0.00027732475
-0.014451235 -2.3806268e-10 0.00053400925 -1.4572703e-08 -9.554542e-06 0.000861266 -1.2218528e-08 9.73772e-14
-3.7434093e-05 -4.8001333e-13 2.2455866e-10 0.008159805 4.5065306e-08 6.0016064e-06 6.69804e-13 -0.011479639
-2.6549851e-09 1.2602487e-07 -8.053776e-10 -0.00027556755 1.5256677e-06 1.5008235e-13 -3.2326698e-05 2.6130063e-09
-1.3853132e-06 6.63922e-07 0.008783207 -5.7977827e-06 3.0506632e-11 -8.03361e-07 2.0777807e-11 -2.857074e-10
-4.6463612e-07 -1.9968875e-08 -3.1593633e-08 -1.3669642e-11 1.3560682e-10 -1.4451255e-09 -1.4413185e-12 -9.985635e-05
7.462886e-05 4.9794244e-09 -2.4452868e-07 -1.5183883e-07 -0.001380265 -1.7106039e-07 -7.3911146e-08 -5.233228e-10
-3.3175743e-11 6.217699e-07 6.4318688e-06 0.00051667535 -7.879919e-05 0.0011477257 0.00050908927 0.0005005603
-3.5200166e-11 5.2044783e-05 3.092281e-05 -2.578573e-07 0.0013024515 -1.6813023e-05 4.2043303e-11 -1.9233374e-08
-0.0027139315 0.0014467271 -1.213734e-05 -0.0029696699 -3.284752e-06 5.6473267e-13 -1.18302915e-14 3.295797e-13
-9.293595e-14 1.0736171e-09 2.7976126e-09 0.00021613631 -1.1469188e-05 1.3710919e-12 0.011237625 -0.0045623616
1.2844043e-07 -1.6888552e-13 6.434763e-13 -1.7073597e-14 1.227449e-11 6.961824e-09 -1.0002083e-06 -9.443018e-09
-2.3845294e-05 1.016803e-07 -0.00020661739 -0.0011904455 -2.6488633e-06 -2.1359082e-13 -3.0090595e-07 0.0014379761
0.0087621445 -3.34235e-08 -2.6829335e-08 6.397284e-07 -0.0069468007 -1.00713775e-08 -4.076838e-08 0.0004783403
0.0016465754 2.0405632e-11 -0.005197212 -2.03592e-13 1.3333989e-11 1.0860082e-10 2.0848003e-07 -0.0003010496
00000000: 6def d436 c1d4 e227 ec12 c2b9 605c 36b7
00000010: b5a0 eb2b dc25 61b9 5e07 9630 4c82 582c
00000020: 7a56 42b9 052a db39 4d96 21b4 1554 cb35
00000030: acb1 542b 21da 80ab 46de 2132 e665 9139
00000040: dfc4 6cbc 58e0 82af c1fc 0b3a 6d5b 7ab2
00000050: 724c 20b7 95c6 613a a8e9 51b2 2246 db29
00000060: 8d02 1db8 9b1c 07ab a5e7 762f b4b0 053c
00000070: d48d 4133 6861 c936 7788 3c2b 1915 3cbc
00000080: fe72 36b1 7451 0734 6961 5db0 0d7a 90b9
00000090: 8bc5 cc35 4bfa 282a 8796 07b8 7e90 3331
000000a0: 00ef b9b5 5f38 3235 71e7 0f3c 938a c2b6
000000b0: 6a2b 062e 8ca6 57b5 76c3 b62d be11 9daf
000000c0: 1a73 f9b4 0588 abb2 91b1 07b3 987a 70ad
000000d0: ed19 152f d59d c6b0 f9d8 caab f869 d1b8
000000e0: 1082 9c38 7b17 ab31 c447 83b4 2409 23b4
000000f0: 02ea b4ba b9ac 37b4 15b9 9eb3 91d9 0fb0
00000100: 91e8 11ae b4e7 2635 55d1 d736 7f71 073a
00000110: fe40 a5b8 496f 963a 6774 053a 0838 033a
00000120: ddcf 1aae a94a 5a38 1db3 0138 a36f 8ab4
00000130: 05b7 aa3a b109 8db7 8de8 382e a336 a5b2
00000140: 37dc 31bb 1ba0 bd3a 7aa1 4bb7 cb9e 42bb
00000150: 9c6f 5cb6 47f5 1e2b 971d 55a8 7189 b92a
00000160: ed45 d1a9 8b8e 9330 1f40 4031 a6a2 6239
00000170: ca6b 40b7 cbf6 c02b 041e 383c dd7f 95bb
00000180: 70e9 0934 f025 3eaa 5b1f 352b 09c9 99a8
00000190: 63ef 572d da34 ef31 e53e 86b5 d53a 22b2
000001a0: 6107 c8b7 565b da33 6fa7 58b9 b908 9cba
000001b0: 20c3 31b6 5d7b 70aa 338c a1b4 797a bc3a
000001c0: 198f 0f3c 878d 0fb3 5576 e6b2 cdb9 2b35
000001d0: fda1 e3bb 6306 2db2 4f19 2fb3 c0c9 fa39
000001e0: e7d1 d73a 667d b32d 604d aabb 6639 65aa
000001f0: f392 6a2d d4d0 ee2e 8eda 5f34 31d6 9db9

exp_avg_sq f4 [128]
8.243615e-05 4.0615878e-17 7.1781535e-05 8.345518e-06 9.0077675e-21 7.867546e-07 3.508318e-12 1.4880161e-18
0.0014364267 5.122151e-05 9.01896e-07 6.603175e-09 5.3385234e-19 8.28579e-21 4.876975e-10 0.0025315285
0.024675371 3.1355502e-12 0.00040390776 8.622493e-13 5.2029446e-08 0.001282198 5.2373004e-09 1.6593215e-19
6.48216e-05 6.5205386e-19 2.0418248e-10 0.0012156246 1.7371065e-11 3.9615333e-07 5.0358194e-21 0.01535334
7.46911e-11 4.0105488e-10 9.987602e-13 3.852637e-05 8.8087376e-08 2.5958535e-22 6.0142634e-07 2.867456e-10
4.8906763e-06 2.5838428e-08 0.0021938295 1.7458623e-06 7.5028796e-14 0.00033517383 1.5548556e-18 5.678299e-13
5.2114497e-06 2.0077522e-09 3.745355e-11 1.77812e-18 5.5410158e-14 8.7273566e-10 6.649938e-19 8.240018e-06
4.943489e-06 9.385818e-14 5.900097e-08 3.9155246e-08 0.009072171 1.3255789e-05 1.0821647e-08 1.1405457e-13
1.5721567e-13 3.2365866e-09 5.5747487e-06 3.7290934e-05 0.00027801667 0.0004802422 0.00015193938 0.008491404
4.9810672e-17 2.465075e-06 2.3240016e-06 3.811651e-06 0.00083404244 3.2554071e-06 5.9168457e-18 1.1171641e-11
0.0041076792 0.00063690584 6.553044e-08 0.00033521396 6.70303e-06 1.3491484e-20 2.7793278e-20 1.3238281e-21
2.3336472e-21 1.9991837e-13 6.818465e-14 0.0001524676 0.00013465603 8.112753e-21 0.0176331 0.0014797986
7.2581624e-12 2.6552336e-22 5.825325e-20 1.1024152e-21 9.470162e-17 4.4105353e-10 4.136622e-09 1.4305913e-11
1.0878953e-05 8.6370816e-10 0.00011159456 0.0010814593 1.0637259e-05 9.924507e-22 1.0771404e-11 0.0026956557
0.0037552651 3.2606265e-10 1.0478363e-11 1.2752714e-09 0.001689331 1.1296741e-09 4.0544576e-10 0.00074738
0.0022403528 1.0986815e-14 0.0018269602 8.671158e-22 2.5584003e-15 1.8089752e-15 3.2076657e-09 4.1527575e-05
00000000: 92e1 ac38 c44e 3b24 6b89 9638 ba03 0c37
00000010: e426 2a1e 5d31 5335 3de0 762c a997 db21
00000020: 7b46 bc3a add6 5638 d219 7235 24e2 e231
00000030: be90 1d21 9f83 1c1e a90e 0630 00e8 253b
00000040: 0124 ca3c 0da5 5c2c 95c3 d339 9cb3 722b
00000050: fb76 5f33 6d0f a83a c8f3 b331 eae5 4320
00000060: d5f0 8738 cc73 4021 4280 602f 9855 9f3a
00000070: 29cc 982d e6ae d434 753f be1d 938c 7b3c
00000080: 5a3f a42e 757b dc2f 2190 8c2b 6097 2138
00000090: 8c2a bd33 e3e8 9c1b b471 2135 dba3 9d2f
000000a0: 971a a436 4ef3 dd32 5ac6 0f3b 5f53 ea35
000000b0: 28f3 a829 45ba af39 c974 e521 75d4 1f2b
000000c0: 03de ae36 c0f8 0931 f3b8 242e bd33 0322
000000d0: 908b 7929 50e5 6f30 8345 4421 9c3e 0a37
000000e0: 3fe0 a536 8f59 d329 4168 7d33 a62b 2833
000000f0: 71a3 143c 2e65 5e37 1bea 3932 fe69 002a
00000100: 5502 312a a26a 5e31 ba0e bb36 d668 1c38
00000110: c4c2 9139 04c9 fb39 eb51 1f39 881f 0b3c
00000120: 10b6 6524 ab6d 2536 0bf6 1b36 aacb 7f36
00000130: a4a3 5a3a 7877 5a36 074b da22 9988 442d
00000140: b699 863b 07f6 263a beb9 8c33 a8bf af39
00000150: 97ea e036 d0d8 7e1e 0340 031f 1e0d c81c
00000160: 4d53 301d 8c16 612a c689 9929 b6df 1f39
00000170: 7432 0d39 de3e 191e 4a73 903c cdf5 c13a
00000180: b75f ff2c c07f a01b ee8b 891f 9f97 a61c
00000190: f85d da24 c478 f22f 1d22 8e31 1bac 7b2d
000001a0: bf84 3637 0f6a 6d30 e007 ea38 c1bf 8d3a
000001b0: ae76 3237 94f9 951c 177e 3d2d 99a9 303b
000001c0: e51a 763b 3d41 b32f 5a56 382d a045 af30
000001d0: 8b6c dd3a e042 9b30 6be5 de2f d3eb 433a
000001e0: e2d2 123b beeb 4528 9d76 ef3a eb08 831c
000001f0: 285a 3827 b459 0227 da6d 5c31 e52d 2e38
