MLAgentsProject/results/MoveToGoal6/MoveToGoal/MoveToGoal-16499979.pt (torch, 439199 bytes, 36 tensors)

network_body._body_endoder.seq_layers.0.weight f4 [128, 6]
-0.14869457 -1.081288 -1.6884238 0.23955347 -0.44883284 -0.027295057 -0.46265942 -0.78964543
-1.1585134 -0.046988524 -0.6521045 -0.77251124 0.80988026 -0.12932566 -0.74946284 -0.8857184
0.22189736 -0.4013833 0.1397469 -0.17655842 -1.4096345 -0.80460477 -0.86205953 -0.20725922
0.03977821 -0.6932067 -1.7278416 -0.28113315 -1.1384817 -1.046138 -0.79137814 0.39947897
0.7164406 -0.5206126 0.5248285 -0.76416093 -0.060973566 -1.7590257 -1.8597841 -0.07133081
-1.3936485 -0.5134798 -0.23772098 -0.73560303 -0.43788773 0.072519645 -1.1832118 -1.0166013
0.29646322 -0.28663433 -1.3012356 -0.313207 -0.36486214 0.34103593 0.15298668 0.3157235
-0.043088593 0.2958919 0.14388399 -0.50426453 -1.3270235 -0.14264555 -0.81860435 0.51126844
-0.57071203 -0.10902084 0.46091294 -0.3713181 -0.39669135 0.069030926 -0.14148426 -0.610582
-0.16692615 -1.0497397 -1.2767435 0.033492886 -1.6420132 -0.8952408 -0.05583895 0.05113916
-0.71018755 -0.035630263 -0.31817684 -1.1686707 -0.6082947 -0.21489681 -0.7516349 -0.24601555
-0.56904185 -0.54787445 0.37510064 0.52095425 -0.53421265 -0.05949418 0.18239503 0.72276974
0.58698606 -0.39031196 -0.67041093 -0.44541457 -1.2176626 0.7424595 0.49474996 0.31299987
-0.736941 -0.5439235 -0.2619424 -0.9802981 0.025810566 -0.037237413 -0.016061082 0.33753827
-0.3228935 -0.5090442 0.26410753 -0.017870992 -0.11060242 -0.00028514813 0.1986462 -1.0399516
0.2744546 -1.5258024 -1.4716554 -0.5247087 -1.5815289 -0.32241338 -0.18996465 0.7589201
0.113819204 0.17369634 0.59919095 0.49879822 -0.45231923 -0.53722864 -1.3968047 0.23958306
-0.28395295 -0.43745533 -0.25170508 -0.990807 -0.73540086 -0.03145435 -0.45054004 -1.1255513
-0.85984457 -0.07588113 -1.0677656 0.70856535 -0.7877591 0.09326682 -0.029645588 -0.12072871
-2.1281765 -0.09004245 -1.5415059 -0.7108098 -0.59252477 -0.26828295 -1.3191411 -0.026538754
-0.062813535 -0.57160085 0.29782283 0.7702362 0.27600974 0.004386989 1.0059425 0.49322125
0.23084405 -0.13200822 -1.0463579 0.1607577 -0.62271255 -0.60646445 0.5684103 -0.34092292
-0.37189376 -0.62235904 -0.072571136 -0.77754754 -0.011827448 -0.6501748 -0.9381211 -0.11461288
-0.46810502 -1.1761873 0.7143192 0.3325417 0.74502534 -0.6563119 -0.42615557 -0.64565146
-0.8668315 -0.34138986 -0.5576699 0.3439376 -1.2064457 -0.37018389 0.16350825 -1.0826193
-2.2880816 0.08105234 -0.7998493 -0.2413203 -0.11783437 -0.7551962 -0.8013774 0.25729787
-0.44324413 -0.7084273 0.72154015 -0.51458055 -1.3583142 0.21212476 -0.9361001 0.023879372
0.48267376 0.044359308 -0.8743934 0.33592716 -0.5786492 -0.48505396 0.04294982 -0.72549826
-0.74391323 -0.17189726 -0.72184503 -1.3194627 -0.47593373 -0.78454936 0.30448943 -0.462847
-0.71744704 -1.0631467 -0.40507486 -0.20841053 -0.7487342 -0.36826628 -0.5745769 -0.52124566
-0.8495736 -0.7545843 -0.792119 0.13175195 -0.7011333 -0.35043105 0.009075512 -0.34608287
-1.2399867 -0.3941902 -0.06326597 -0.41255984 -0.62574106 0.764607 0.39521447 0.57960457
00000000: 6443 18be a567 8abf 451e d8bf 814d 753e
00000010: 6bcd e5be e299 dfbc b2e1 ecbe 3426 4abf
00000020: 2b4a 94bf 0a77 40bd 52f0 26bf 4cc3 45bf
00000030: 5054 4f3f f26d 04be ccdc 3fbf 71be 62bf
00000040: 1039 633e 1d82 cdbe d019 0f3e bbcb 34be
00000050: e76e b4bf 94fa 4dbf efaf 5cbf c33b 54be
00000060: 7aee 223d ff75 31bf ea29 ddbf aff0 8fbe
00000070: c5b9 91bf dae7 85bf c297 4abf 8288 cc3e
00000080: a768 373f de46 05bf 295b 063f 0da0 43bf
00000090: 6bbf 79bd c127 e1bf 680d eebf e315 92bd
000000a0: 1363 b2bf 6a73 03bf 216d 73be 7b50 3cbf
000000b0: d232 e0be 2e85 943d 7c73 97bf fe1f 82bf
000000c0: 07ca 973e bcc1 92be e38e a6bf ab5c a0be
000000d0: 36cf babe 439c ae3e 8aa8 1c3e 83a6 a13e
000000e0: aa7d 30bd 257f 973e 5356 133e 7b17 01bf
000000f0: e8db a9bf ad11 12be 0e90 51bf 7de2 023f
00000100: 2f1a 12bf 5146 dfbd c8fc eb3e 681d bebe
00000110: 211b cbbe 1660 8d3d 40e1 10be 1a4f 1cbf
00000120: b0ee 2abe df5d 86bf 556c a3bf d62f 093d
00000130: 7d2d d2bf 802e 65bf 62b7 64bd 4c77 513d
00000140: dace 35bf 0af1 11bd 13e8 a2be 0097 95bf
00000150: 34b9 1bbf e90d 5cbe 256b 40bf 80eb 7bbe
00000160: baac 11bf 8041 0cbf 310d c03e 425d 053f
00000170: 29c2 08bf 2bb0 73bd c3c5 3a3e 7007 393f
00000180: b844 163f f8d6 c7be 0da0 2bbf 610d e4be
00000190: 5edc 9bbf d311 3e3f de4f fd3e 8541 a03e
000001a0: 2aa8 3cbf 923e 0bbf 501d 86be d1f4 7abf
000001b0: ae70 d33c 4286 18bd 8892 83bc d1d1 ac3e
000001c0: 4c52 a5be b850 02bf 1a39 873e 3066 92bc
000001d0: 8683 e2bd ef7f 95b9 e969 4b3e 221d 85bf
000001e0: 5085 8c3e 7e4d c3bf 345f bcbf 4f53 06bf
000001f0: 8a6f cabf 5e13 a5be 1886 42be 9648 423f
00000200: 0b1a e93d 74dd 313e 9464 193f 7b62 ff3e
00000210: 6396 e7be d187 09bf 7fca b2bf 4355 753e
00000220: 4862 91be 25fa dfbe 7ddf 80be 87a5 7dbf
00000230: 3b43 3cbf 47d6 00bd 2fad e6be 1112 90bf
00000240: c61e 5cbf 9167 9bbd 8bac 88bf 8a64 353f
00000250: 95aa 49bf ad02 bf3d 4edb f2bc 9d40 f7bd
00000260: 0b34 08c0 2d68 b8bd 1150 c5bf a2f7 35bf
00000270: b4af 17bf 625c 89be 9ed9 a8bf cd67 d9bc
00000280: 62a4 80bd 6f54 12bf 3c7c 983e 332e 453f
00000290: 2651 8d3e bbc0 8f3b b9c2 803f 7f87 fc3e
000002a0: 6262 6c3e 2a2d 07be 0eef 85bf ab9d 243e
000002b0: 176a 1fbf 4141 1bbf 5683 113f 738d aebe
000002c0: dc68 bebe ec52 1fbf 2da0 94bd 5b0d 47bf
000002d0: eac7 41bc db71 26bf b428 70bf 28ba eabd
000002e0: 76ab efbe 4e8d 96bf a0dd 363f e842 aa3e
000002f0: fbb9 3e3f 0f04 28bf 1031 dabe 6a49 25bf
00000300: abe8 5dbf a7ca aebe 74c3 0ebf 9718 b03e
00000310: d06c 9abf be88 bdbe b56e 273e 4593 8abf
00000320: ee6f 12c0 c5fe a53d ecc2 4cbf ab1c 77be
00000330: 2553 f1bd 8a54 41bf 1227 4dbf 8cbc 833e
00000340: e5f0 e2be 7e5b 35bf dbb6 383f 8dbb 03bf
00000350: 3ddd adbf 3c37 593e 42a4 6fbf ac9e c33c
00000360: 0421 f73e 1bb2 353d 3fd8 5fbf a5fe ab3e
00000370: 5b22 14bf fe58 f8be 27ec 2f3d 41ba 39bf
00000380: 1971 3ebf d605 30be d6ca 38bf 27e4 a8bf
00000390: 96ad f3be 3ad8 48bf 0ae6 9b3e 48fa ecbe
000003a0: 9caa 37bf 3115 88bf f965 cfbe 9269 55be
000003b0: 0bad 3fbf 668d bcbe 7917 13bf 5b70 05bf
000003c0: a87d 59bf 702c 41bf 50c8 4abf fce9 063e
000003d0: 797d 33bf b36b b3be 75b1 143c c631 b1be
000003e0: e2b7 9ebf 4cd3 c9be 9791 81bd 0b3b d3be
000003f0: 9130 20bf 49bd 433f 8d59 ca3e f760 143f

network_body._body_endoder.seq_layers.0.bias f4 [128]
-0.6060997 -0.8780202 -0.108238086 -0.35605174 -1.1002235 0.027082847 -1.5984571 -0.39813763
-0.05811249 -0.006388731 -0.5030052 -0.35459262 -1.0276407 -0.15026405 -0.3865682 0.44762176
-0.20174636 -0.4606165 -0.4926444 -0.25169474 -1.0920523 0.58050025 -0.48118398 -0.87254477
-0.44161138 -0.826941 -0.59841126 0.8457354 -0.59779155 -0.110544115 -0.8325308 -0.014367371
-0.67387533 -0.3837457 -0.5205214 -0.5457078 -0.21699107 -0.881455 -0.3399736 -0.54809594
-0.7066432 -0.4899745 0.25937027 -0.5218798 -1.0213647 -0.29807305 -0.8743536 -1.4118167
-0.28106603 -0.7545352 -0.8032122 -0.79612744 -0.60042804 -0.3797532 -1.0603068 -0.042183302
-0.26590103 -0.6656382 -0.50388706 0.1420305 0.4407399 -0.38248244 -0.45730722 -0.8164476
-1.4569614 -0.3601479 0.13654792 -0.00064376486 -0.17765325 0.062187463 -0.018641198 0.11834838
-1.0089723 -0.003433524 -0.67153686 -0.19707118 0.23506916 -0.23776543 -0.5363147 -0.35983965
0.29329902 0.4310236 -0.51948845 -0.00740204 -0.20833462 -0.74815685 -1.0767267 -0.94258595
-0.62421733 -0.8605687 -0.33326203 -0.4169989 0.30963254 -0.6883801 0.21319109 0.11721386
-0.50754523 -0.6614246 -1.0682406 -0.6048217 -0.8929859 -0.79696834 -0.045388497 -0.93107
-0.4369092 0.090582326 -0.35163552 -0.4809774 -0.5727299 -0.7791397 -0.21753559 -0.26338962
0.38294077 -0.3989834 -1.4715797 -0.63545394 0.23349859 -0.5805446 -0.11336598 0.4836689
0.7190827 -0.3656078 -0.049084663 -0.6982565 -0.88833874 -0.58548474 -0.8157829 -0.27476627
00000000: 5a29 1bbf efc5 60bf eeab ddbd 6a4c b6be
00000010: 20d4 8cbf d9dc dd3c 3e9a ccbf b2d8 cbbe
00000020: 5d07 6ebd 8f58 d1bb f3c4 00bf 2a8d b5be
00000030: bb89 83bf d2de 19be 44ec c5be ae2e e53e
00000040: 9996 4ebe edd5 ebbe e33b fcbe 22de 80be
00000050: 5fc8 8bbf aa9b 143f bf5d f6be 185f 5fbf
00000060: e31a e2be 68b2 53bf 7b31 19bf 1d82 583f
00000070: de08 19bf f464 e2bd bd20 55bf 1f65 6bbc
00000080: 1883 2cbf 517a c4be e440 05bf 82b3 0bbf
00000090: e832 5ebe 09a7 61bf 0511 aebe 0450 0cbf
000000a0: 92e6 34bf f0dd fabe 2ecc 843e ea99 05bf
000000b0: 14bc 82bf 089d 98be a3d5 5fbf 69b6 b4bf
000000c0: e3e7 8fbe 3829 41bf 519f 4dbf 02cf 4bbf
000000d0: a7b5 19bf 036f c2be 22b8 87bf 66c8 2cbd
000000e0: 2e24 88be 4467 2abf befe 00bf 7270 113e
000000f0: a9a8 e13e bdd4 c3be 2c24 eabe b602 51bf
00000100: b67d babf 4e65 b8be 38d3 0b3e 54c2 28ba
00000110: bcea 35be 48b8 7e3d 6db5 98bc a360 f23d
00000120: 0126 81bf f904 61bb d7e9 2bbf 07cd 49be
00000130: f8b5 703e c878 73be ec4b 09bf e73c b8be
00000140: 4a2b 963e 20af dc3e 32fd 04bf d08c f2bb
00000150: ac55 55be 3587 3fbf 2ed2 89bf 504d 71bf
00000160: b5cc 1fbf 3b4e 5cbf 52a1 aabe e180 d5be
00000170: 2888 9e3e ae39 30bf c44e 5a3e d20d f03d
00000180: 7cee 01bf 1f53 29bf 1cbc 88bf 98d5 1abf
00000190: b99a 64bf 1e06 4cbf 4ae9 39bd 9b5a 6ebf
000001a0: 90b2 dfbe 3a83 b93d 9209 b4be ab42 f6be
000001b0: 6d9e 12bf b375 47bf a6c1 5ebe 01db 86be
000001c0: d010 c43e 8d47 ccbe b95c bcbf 1cad 22bf
000001d0: 411a 6f3e 929e 14bf 6c2c e8bd 73a3 f73e
000001e0: ce15 383f f230 bbbe 000d 49bd f0c0 32bf
000001f0: 2b6a 63bf 54e2 15bf 26d7 50bf 2aae 8cbe

network_body._body_endoder.seq_layers.2.weight f4 [128, 128]
0.24789667 -0.35332036 -0.25416523 -0.27723044 -0.42113778 -0.091771774 0.08949383 0.10369071
-0.52984005 -0.06918391 -0.9729582 -0.14147085 0.14648063 0.092455596 -0.476886 -1.5199478
0.044933513 0.37551543 0.38375124 -0.24056582 -0.0056560826 -0.29091898 -0.003945734 -0.10162105
-0.44255352 0.24293044 -0.21502185 0.07785189 -0.055054706 0.40624353 0.07669805 -1.2632396
-0.6569854 0.12904641 -0.043998886 -0.48181093 0.3310851 -0.54614574 -0.27078846 0.25277647
-0.22333784 0.30850142 0.04402502 0.124870285 -0.22517732 -0.93586516 -0.4487647 0.16318735
-0.82160234 0.4038215 -0.7080068 -0.07811372 0.042413797 0.095005915 0.08524226 -0.4661342
-0.45313188 -0.16700597 -0.21979319 0.002984129 0.022705289 -0.61004007 -1.3450576 -0.004513661
-0.5934403 -0.51796854 -0.4510093 -0.09869582 -0.73698896 -0.6309291 -0.26023996 -0.43919137
0.0929871 0.0127976565 -0.36642364 -0.8252182 -0.048188265 -0.7211675 0.020417158 0.535854
0.17595987 0.3152372 -0.1361411 0.31013525 -0.2470925 0.22745796 0.10999701 0.033376914
0.47366828 -0.098302856 0.3897694 -0.3786711 -0.5490509 -0.43354616 0.5063801 -0.25994813
0.11216324 0.05736745 -0.32743108 -0.010007971 -0.050886557 -0.47056478 -0.5231284 -0.040858027
0.4340793 -0.1611972 -0.36358318 -0.7039227 -0.14467123 -0.16720182 0.21912576 -0.41036278
-0.13840146 -0.37969407 -0.048085995 -0.14070797 -0.15257327 0.13157856 -0.15559328 -0.10006108
-0.44803736 -0.2949322 0.3135316 -0.3918566 0.07664052 0.8108956 -0.39576182 -0.67304695
-1.4033376 -0.68461394 0.08085278 1.1797372 0.08394604 -0.71970946 0.3491365 -0.3244565
1.0727316 -0.7621188 -0.69796896 -0.30960053 0.13776837 0.047729254 -1.0297618 0.29861745
0.36984575 -1.002715 -0.31899032 0.27844596 -0.71411514 -0.2783753 -0.7913231 -0.66792595
-0.5433872 0.16173996 0.22828889 -0.40954325 -0.1039718 -0.41590688 -0.341031 -0.7615266
-0.50015724 -0.45218307 -0.6883107 -0.8108399 0.5058806 -0.36254263 -0.24042952 -0.41794494
-0.54252744 -0.68777937 -0.11065086 -0.27859098 -0.6094133 -0.4271036 -0.27976122 0.13067116
-0.43213344 -0.7233303 -0.42265695 -1.3451871 -0.1115805 -0.5169578 -1.118364 0.07078443
0.28460315 -0.6673911 -0.83780026 0.74944746 -0.26602924 -0.2276558 -0.28008357 -0.01169543
0.2552953 -0.6077619 -0.0148507655 0.50989527 -0.58456326 -0.19393037 -1.133212 -1.1327149
0.46502337 -0.14009367 -0.057628583 -0.92082083 -0.08612538 -0.61417526 0.30091998 0.06647364
-0.011874649 0.32719204 -0.85146093 0.34347168 -1.2246609 -0.05806674 -0.13071944 -0.37461656
0.16754594 -0.3543196 -0.07647257 -0.032378152 -0.45131642 0.06396689 0.15818727 -0.42361778
-0.060860712 -0.27999842 0.051595174 -0.008775184 -0.56468004 -0.5997238 -0.26882783 -0.7094041
-0.45681795 -1.043743 -0.19627474 0.6234238 -1.1858639 -0.49995396 0.1296378 -0.58921206
-0.3433417 -0.7337439 0.12915216 -0.16391918 -0.7485395 -0.6813518 -0.7271742 -0.7893882
-0.43624595 -0.43673962 -0.87058693 -0.17112574 -0.4884402 0.17149937 -0.2564536 -1.1851625
00000000: a0d8 7d3e 68e6 b4be f221 82be 26f1 8dbe
00000010: 5f9f d7be d7f2 bbbd 8b48 b73d cc5b d43d
00000020: 99a3 07bf 4bb0 8dbd ca13 79bf bcdd 10be
00000030: 05ff 153e 5c59 bd3d 672a f4be a68d c2bf
00000040: 340c 383d 8f43 c03e 0b7b c43e e356 76be
00000050: a956 b9bb 55f3 94be 374b 81bb b21e d0bd
00000060: 6096 e2be c2c2 783e b02e 5cbe d070 9f3d
00000070: 0b81 61bd 27ff cf3e de13 9d3d d6b1 a1bf
00000080: 3230 28bf be24 043e 2d38 34bd ecaf f6be
00000090: fc83 a93e 35d0 0bbf c9a4 8abe eb6b 813e
000000a0: adb2 64be e6f3 9d3e 9453 343d febb ff3d
000000b0: e294 66be dc94 6fbf 7dc4 e5be 961a 273e
000000c0: 8854 52bf b1c1 ce3e ef3f 35bf 16fa 9fbd
000000d0: 17ba 2d3d 7692 c23d 7e93 ae3d 24a9 eebe
000000e0: e700 e8be 9d03 2bbe 7711 61be 6091 433b
000000f0: 7100 ba3c 962b 1cbf d92a acbf 55e7 93bb
00000100: b4eb 17bf 9699 04bf b1ea e6be 0921 cabd
00000110: 4fab 3cbf 9284 21bf 2c3e 85be b1dd e0be
00000120: 0570 be3d 43ad 513c e19b bbbe 8041 53bf
00000130: 0f61 45bd 6f9e 38bf e241 a73c ba2d 093f
00000140: d32e 343e c566 a13e 9368 0bbe 0cca 9e3e
00000150: d105 7dbe bdea 683e 1d46 e13d 3bb6 083d
00000160: a684 f23e 0253 c9bd db8f c73e 2ee1 c1be
00000170: 9a8e 0cbf c3f9 ddbe 20a2 013f ec17 85be
00000180: d7b5 e53d 22fa 6a3d 0ca5 a7be 79f8 23bc
00000190: 6c6e 50bd deed f0be beeb 05bf bf5a 27bd
000001a0: a43f de3e e110 25be 9327 babe 4734 34bf
000001b0: b224 14be f436 2bbe 8162 603e 121b d2be
000001c0: 1db9 0dbe 4367 c2be d2f5 44bd c015 10be
000001d0: 2b3c 1cbe 88bc 063e d853 1fbe d3ec ccbd
000001e0: 2765 e5be 5a01 97be 3787 a03e 6ea1 c8be
000001f0: b4f5 9c3d db96 4f3f 4ba1 cabe ce4c 2cbf
00000200: 91a0 b3bf dc42 2fbf 2496 a53d a101 973f
00000210: e7eb ab3d e13e 38bf 05c2 b23e 2a1f a6be
00000220: 454f 893f 381a 43bf 18ae 32bf f683 9ebe
00000230: 2713 0d3e c07f 433d 3ccf 83bf 63e4 983e
00000240: 6c5c bd3e f758 80bf b352 a3be 7890 8e3e
00000250: 40d0 36bf 3587 8ebe 2794 4abf 32fd 2abf
00000260: 6c1b 0bbf 299f 253e 90c4 693e a7af d1be
00000270: 2bef d4bd bff1 d4be 9d9b aebe 68f3 42bf
00000280: 4e0a 00bf 8a84 e7be 2135 30bf 3493 4fbf
00000290: 6481 013f 309f b9be 2833 76be e1fc d5be
000002a0: 14e3 0abf 4f12 30bf eb9c e2bd 7aa3 8ebe
000002b0: 8302 1cbf 53ad dabe dd3c 8fbe a9ce 053e
000002c0: 9840 ddbe 2d2c 39bf 7e66 d8be 172f acbf
000002d0: 5184 e4bd 5957 04bf 8d26 8fbf 6df7 903d
000002e0: 81b7 913e 25da 2abf 147a 56bf cadb 3f3f
000002f0: fc34 88be 9a1e 69be 1d67 8fbe 309e 3fbc
00000300: 11b6 823e 4996 1bbf a050 73bc 7f88 023f
00000310: f0a5 15bf af95 46be 170d 91bf cdfc 90bf
00000320: 8b17 ee3e b774 0fbe f30b 6cbd eaba 6bbf
00000330: 8162 b0bd 973a 1dbf 2f12 9a3e 5523 883d
00000340: e38d 42bc b785 a73e 58f9 59bf 85db af3e
00000350: b0c1 9cbf 64d7 6dbd 51db 05be becd bfbe
00000360: 2a91 2b3e 6169 b5be a79d 9cbd f49e 04bd
00000370: f212 e7be 1301 833d d8fb 213e 6ee4 d8be
00000380: 1549 79bd f45b 8fbe 7655 533d cac5 0fbc
00000390: df8e 10bf 8087 19bf cda3 89be 829b 35bf
000003a0: 0be4 e9be 5f99 85bf 3ffc 48be b498 1f3f
000003b0: 63ca 97bf f7f9 ffbe c5bf 043e 9ad6 16bf
000003c0: 7cca afbe a4d6 3bbf 7740 043e 6eda 27be
000003d0: 49a0 3fbf 126d 2ebf 1728 3abf 5815 4abf
000003e0: a15b dfbe 569c dfbe c9de 5ebf 963b 2fbe
000003f0: d514 fabe 889d 2f3e e34d 83be 68b3 97bf

network_body._body_endoder.seq_layers.2.bias f4 [128]
-0.009529136 0.12191219 0.535678 0.06365507 0.08742157 -0.57857776 0.5598313 1.0005301
-0.03874865 0.44812286 -0.43587804 -0.61832285 -0.010323694 0.13597429 -0.15351726 -0.3230197
0.23745954 0.009514228 0.33254325 0.32999715 -0.3936482 -0.16807257 0.113591455 0.284796
-0.4260617 0.668665 0.29718927 -0.2491214 -0.3393769 -0.23161308 0.94984144 0.073822916
0.02572978 0.44200695 0.16657688 0.1429521 -0.17085351 0.026186937 -0.39370462 -0.31007567
-0.54576516 -0.18235816 0.35143563 -0.2732644 0.8452423 0.6414422 -0.6396103 -0.04347782
0.41779608 -0.008064018 0.2885037 -0.21199708 0.27858815 0.2083285 -0.0311551 0.04284452
-0.29128727 -0.6736286 0.606811 -0.5833747 0.8197451 0.38762262 -0.66072375 0.1618244
0.075120114 0.42154852 -0.7764077 0.020045772 -0.5505513 0.047262028 0.1582151 0.55807304
0.22189261 0.055090323 0.32206622 0.09487653 0.72233117 0.16794176 -0.38180143 -0.23034549
0.093009755 -0.40857092 0.4859725 0.33157 -0.1197259 0.75028455 0.31019127 0.6560024
0.2072608 0.3302834 0.44229952 -0.11648282 -0.1480379 -0.05689436 -0.8862596 -0.12943508
-0.42440635 -0.17002946 0.3317634 0.3585326 -0.11808707 -0.25305054 -0.0015744445 1.003674
0.90396345 0.06680505 -0.079406485 0.2144273 -0.05053612 -0.44035822 -0.20602016 -0.21456115
0.26204014 0.22661498 0.15900338 -0.5067699 0.22943074 -0.2630859 0.3452825 -1.2301443
0.01547585 0.102224804 -0.41473544 0.32421756 0.52631956 0.79540116 0.39029288 0.39228752
00000000: 1820 1cbc 19ad f93d 3222 093f 975d 823d
00000010: 150a b33d ac1d 14bf 1b51 0f3f 5f11 803f
00000020: e8b6 1ebd 5c70 e53e 682b dfbe 684a 1ebf
00000030: b624 29bc d83c 0b3e a133 1dbe d762 a5be
00000040: 9828 733e 91e1 1b3c 1c43 aa3e 63f5 a83e
00000050: 428c c9be 371b 2cbe a3a2 e83d c8d0 913e
00000060: c224 dabe a12d 2b3f 3129 983e ae19 7fbe
00000070: cfc2 adbe fb2b 6dbe cf28 733f 7830 973d
00000080: 42c7 d23c bc4e e23e 2193 2a3e 0962 123e
00000090: 39f4 2ebe fd85 d63c a793 c9be 3dc2 9ebe
000000a0: 44b7 0bbf 19bc 3abe 5fef b33e 50e9 8bbe
000000b0: cd61 583f 8e35 243f 80bd 23bf cc15 32bd
000000c0: 5ee9 d53e f11e 04bc c2b6 933e c315 59be
000000d0: 1ba3 8e3e 1154 553e fb38 ffbc bc7d 2f3d
000000e0: 9b23 95be ed72 2cbf f757 1b3f 0b58 15bf
000000f0: d1da 513f 7976 c63e 3125 29bf 4cb5 253e
00000100: 93d8 993d 35d5 d73e a8c2 46bf 0837 a43c
00000110: eef0 0cbf d495 413d 2403 223e e0dd 0e3f
00000120: d137 633e 64a6 613d dde5 a43e a04e c23d
00000130: b2ea 383f edf8 2b3e 7a7b c3be b0df 6bbe
00000140: e67b be3d 3530 d1be 63d1 f83e 8bc3 a93e
00000150: da32 f5bd a612 403f 64d1 9e3e c6ef 273f
00000160: 2d3c 543e e81a a93e 1575 e23e 8b8e eebd
00000170: 3f97 17be 0f0a 69bd e9e1 62bf a18a 04be
00000180: ca4b d9be 341c 2ebe e4dc a93e 9691 b73e
00000190: a2d7 f1bd d78f 81be 975d ceba 6478 803f
000001a0: 266a 673f 16d1 883d de9f a2bd d592 5b3e
000001b0: f6fe 4ebd a276 e1be f3f6 52be ebb5 5bbe
000001c0: 202a 863e c20d 683e c8d1 223e acbb 01bf
000001d0: e4ef 6a3e 32b3 86be dec8 b03e 5e75 9dbf
000001e0: 6b8e 7d3c 3d5b d13d 3458 d4be d8ff a53e
000001f0: e1bc 063f 699f 4b3f 78d4 c73e e9d9 c83e

action_model._continuous_distribution.log_sigma f4 [1, 2]
-0.1189109 -0.12972048
00000000: 8f87 f3bd 72d5 04be

action_model._continuous_distribution.mu.weight f4 [2, 128]
-0.67118305 0.32726583 1.2361116 -0.25991088 -0.57220834 0.02174787 0.8134582 0.32576996
-0.22548167 -0.9993119 -0.11078049 -0.005850408 0.4331624 -0.30702424 -0.036615454 -0.083219305
-0.08751203 -0.58737046 0.35180175 -1.2164739 -0.28325266 0.14945264 0.0904511 -0.057862017
-0.6501273 1.0998619 -0.5118387 0.20090549 0.3052089 -0.104241855 -0.012999396 0.38839912
0.07658377 0.6917055 -0.16247593 0.49880937 0.02103355 0.5578227 0.04987473 -0.5138837
0.5979542 0.08680696 0.7302755 -0.017939327 -0.6178414 0.34668484 0.35380894 -0.043868244
-0.48043504 -0.021129379 -0.6924988 -0.12974723 0.035426643 -0.5803909 0.46318227 0.5739818
0.15214589 -0.18920013 -0.18920498 -0.009329583 0.032169294 0.17875032 0.6111907 0.0791062
0.04150651 0.6250986 -0.13496912 0.23984495 -0.05690262 0.3490269 -0.101052105 0.79868793
-0.71068215 -0.047552522 -0.7638772 0.037632804 0.31148252 -0.42079496 -0.017913822 -0.15608507
0.42465326 -0.067300886 -1.02589 -0.6337573 -0.37158638 -0.6729302 0.14507523 0.7158582
-0.10516298 -0.8339836 -0.9999118 -0.27287996 -0.7684392 -0.4741965 -0.108390585 0.06509307
0.48497865 -0.38201845 0.5810763 -0.8836346 -0.2856235 -0.009224786 -0.8262311 -0.26302594
-1.8064889 0.034609277 0.009164915 -0.51332676 -0.08276604 0.28561857 -0.32296062 0.04773458
-0.49760345 0.93963957 0.015136565 -0.36758912 -0.039832294 0.10428995 0.9841874 -0.25951314
0.64497083 -0.88955873 -0.084453605 -0.2607343 -0.49851924 -0.7112878 0.17529075 0.33602697
-0.30737126 -0.12249079 -0.10787287 -0.23268284 -0.07868748 0.21755268 0.18621261 0.06875476
-0.03832591 -0.22685221 0.03597372 -0.08573001 0.31313244 -0.2604767 0.0032591699 0.2917659
-0.4889331 -0.2214718 -0.37577447 0.55869895 0.04473404 -0.7121923 0.21282089 -0.99124485
-0.09043201 0.19364078 0.2226072 0.52729166 0.11924817 0.085672446 0.22199094 0.33234033
0.43892494 -0.1435522 -0.06947627 -0.008675958 -0.098227076 0.102881946 -0.2521521 0.26341847
0.29218918 -0.1992523 0.5043754 0.66463053 -0.61997116 -0.5866934 0.17800678 -0.42424566
0.20229533 -0.105369374 -0.15495071 0.14544345 0.1459619 -0.2764872 -0.059393544 -0.11666391
0.17319177 -0.044565734 -0.96029377 -0.09093756 -0.5511011 -0.8989896 -0.0060394183 -0.3825734
-0.19723868 -0.42767262 -0.10396604 -0.14134243 0.38309747 0.13019297 -0.118089 0.07625063
-0.17291597 -0.17602013 -0.29831567 -0.35706267 0.4641654 -0.38999736 0.14244054 0.09436225
0.029168086 0.07363163 -0.047607172 0.20782049 -0.009131246 -0.9502606 -0.27001646 0.073357984
-0.10282582 0.14970234 -0.029112613 0.058132473 -0.4550787 -0.40990314 0.4114165 -0.12616271
-0.031392667 0.006824513 0.24985613 0.1006167 -0.4899846 0.5415295 -0.03289448 0.088575184
-0.28486973 0.20435488 0.03603028 0.057840794 0.750602 -0.010039412 0.39195436 0.01411608
0.13138281 0.29557887 -0.34841406 0.0775873 -0.369639 0.46169847 0.04651839 0.11591833
-0.048451163 -0.11601787 -0.35017908 -0.117885865 -0.24505222 0.3275243 -0.38022366 -0.6252039
00000000: a7d2 2bbf 638f a73e e838 9e3f 0a13 85be
00000010: 3f7c 12bf 9728 b23c cc3e 503f 52cb a63e
00000020: abe4 66be e8d2 7fbf e2e0 e2bd c8b4 bfbb
00000030: 76c7 dd3e 4832 9dbe 16fa 15bd e26e aabd
00000040: 8239 b3bd e95d 16bf 5c1f b43e 6bb5 9bbf
00000050: 7e06 91be 1d0a 193e 6d3e b93d b900 6dbd
00000060: be6e 26bf 46c8 8c3f dc07 03bf 2bba 4d3e
00000070: 5744 9c3e c17c d5bd 6bfb 54bc 40dc c63e
00000080: f4d7 9c3d 9d13 313f 1760 26be f163 ff3e
00000090: 8d4e ac3c 78cd 0e3f 7249 4c3d e28d 03bf
000000a0: 8713 193f d9c7 b13d 56f3 3a3f 7ff5 92bc
000000b0: db2a 1ebf ad80 b13e 7226 b53e 30af 33bd
000000c0: 95fb f5be 8517 adbc 9a47 31bf 75dc 04be
000000d0: 871b 113d 7f94 14bf 3a26 ed3e 79f0 123f
000000e0: 22cc 1b3e aebd 41be f3be 41be 1bdb 18bc
000000f0: f3c3 033d 530a 373e fe76 1c3f 6e02 a23d
00000100: bb02 2a3d 7606 203f 5835 0abe ea99 753e
00000110: b912 69bd a7b3 b23e 68f4 cebd d076 4c3f
00000120: 44ef 35bf 6fc6 42bd 758d 43bf db24 1a3d
00000130: a37a 9f3e 7072 d7be 02c0 92bc c4d4 1fbe
00000140: 276c d93e 0cd5 89bd 5d50 83bf eb3d 22bf
00000150: 9240 bebe 2745 2cbf 9a8e 143e 7c42 373f
00000160: b05f d7bd f37f 55bf 38fa 7fbf ecb6 8bbe
00000170: 6eb8 44bf e2c9 f2be e2fb ddbd 844f 853d
00000180: 1f4f f83e ec97 c3be 6bc1 143f e135 62bf
00000190: 3e3d 92be 8f23 17bc e283 53bf 56ab 86be
000001a0: 073b e7bf 75c2 0d3d 7128 163c 6269 03bf
000001b0: 3e81 a9bd 993c 923e 185b a5be 5685 433d
000001c0: e1c5 febe 388c 703f 5bff 773c a434 bcbe
000001d0: 3027 23bd f895 d53d b5f3 7b3f e8de 84be
000001e0: cf1c 253f 1fba 63bf 03f6 acbd f77e 85be
000001f0: ea3d ffbe f516 36bf 6b7f 333e ba0b ac3e
00000200: c45f 9dbe 74dc fabd 74ec dcbd 6944 6ebe
00000210: e726 a1bd 21c6 5e3e 85ae 3e3e 4ccf 8c3d
00000220: a1fb 1cbd f24b 68be 2e59 133d 3793 afbd
00000230: e552 a03e 345d 85be cc97 553b 5762 953e
00000240: 7055 fabe 81c9 62be 8365 c0be e506 0f3f
00000250: 0a3b 373d 3c52 36bf b8ed 593e 39c2 7dbf
00000260: 6b34 b9bd c549 463e 24f3 633e 96fc 063f
00000270: 6238 f43d 0975 af3d 9851 633e 8328 aa3e
00000280: c5ba e03e 59ff 12be 9349 8ebd 9b25 0ebc
00000290: 472b c9bd c5b3 d23d 141a 81be c9de 863e
000002a0: d299 953e cc08 4cbe bf1e 013f 3a25 2a3f
000002b0: 6eb6 1ebf 8a31 16bf 6947 363e ba36 d9be
000002c0: 8226 4f3e e6cb d7bd 66ab 1ebe 21ef 143e
000002d0: 0977 153e bb8f 8dbe a546 73bd 7ded eebd
000002e0: 2f59 313e 8f8a 36bd d0d5 75bf 793d babd
000002f0: f614 0dbf 2f24 66bf 50e6 c5bb a9e0 c3be
00000300: f0f8 49be e8f7 dabe 26ec d4bd 12bc 10be
00000310: 5a25 c43e 4e51 053e a5d8 f1bd 4a29 9c3d
00000320: e210 31be 9f3e 34be d5bc 98be ebd0 b6be
00000330: 16a7 ed3e bcad c7be efdb 113e ff40 c13d
00000340: e9f1 ee3c 2ecc 963d bdff 42bd e5ce 543e
00000350: 399b 15bc 4744 73bf 993f 8abe b63c 963d
00000360: 5896 d2bd 924b 193e 937d eebc 511c 6e3d
00000370: 1300 e9be d3de d1be 2fa5 d23e cc30 01be
00000380: 9995 00bd 2aa0 df3b 49da 7f3e 2110 ce3d
00000390: 43df fabe ada1 0a3f 5dbc 06bd e866 b53d
000003a0: 72da 91be 6842 513e 7d94 133d 78ea 6c3d
000003b0: 7427 403f 597c 24bc 3eae c83e 2147 673c
000003c0: 3789 063e 1d56 973e 5463 b2be 17e6 9e3d
000003d0: 5341 bdbe be63 ec3e 118a 3e3d 9766 ed3d
000003e0: ba74 46bd c79a edbd ac4a b3be 256e f1bd
000003f0: f8ee 7abe 44b1 a73e adac c2be 5d0d 20bf

action_model._continuous_distribution.mu.bias f4 [2]
0.032825693 1.3635427
00000000: 3c74 063d 9188 ae3f

exp_avg f4 [128, 6]
-3.8183975e-06 -1.6654988e-06 -1.4012901e-05 -4.3762724e-05 -1.6637891e-06 -7.17467e-05 3.262993e-11 1.8319925e-12
1.6287997e-11 1.4066888e-12 1.83028e-12 4.3676552e-11 -3.152684e-05 -2.129133e-06 -1.5548498e-05 1.6566239e-05
-2.1269923e-06 -0.00010176307 6.3833927e-06 3.7629067e-07 1.9059768e-06 -3.0821795e-06 3.7592105e-07 1.8116782e-05
3.5929384e-15 6.0106385e-15 4.870732e-14 2.681635e-14 6.0059773e-15 1.7478835e-13 -0.0006553436 4.050592e-05
0.001504536 -0.00029807954 4.046528e-05 0.0019423325 2.1266601e-10 1.2181656e-11 4.8827633e-11 1.5979902e-10
1.217018e-11 3.692081e-10 1.0895496e-11 1.4427723e-12 5.258452e-12 1.4896384e-11 1.441676e-12 4.4633873e-11
-0.0011947266 -6.2630905e-05 -0.00062401383 0.0003225034 -6.2566636e-05 -0.0018983777 -0.00039356816 -4.087535e-05
-0.0008993326 -0.00080539135 -4.0834617e-05 -0.0014482449 -0.003970221 0.0007088777 0.0130590135 0.014099554
0.00070816826 0.028533963 3.126501e-06 1.8379345e-07 2.587073e-06 3.3521953e-06 1.836104e-07 6.1714436e-06
1.0337724e-12 6.863242e-14 3.6684433e-13 1.5272425e-12 6.853946e-14 2.5090136e-12 7.653232e-13 5.948047e-14
3.4421345e-13 5.8086457e-13 5.943269e-14 1.7872395e-12 7.0218813e-09 -3.1360226e-10 2.6161486e-09 -7.0097634e-09
-3.1331343e-10 -1.3475711e-08 -0.003001108 -0.0029861154 -0.072103135 -0.05750911 -0.0029830458 -0.12649037
-0.020240443 -0.008073976 -0.09797462 -0.1575519 -0.008065871 -0.25178283 -1.6773154e-10 -1.0163035e-11
-3.903288e-11 -1.3239014e-10 -1.0153892e-11 -3.08943e-10 -0.0002281255 -2.0238287e-05 -0.00042643017 -0.00040658165
-2.0218158e-05 -0.00068886054 1.9741007e-08 1.4632426e-09 3.2293126e-08 2.7656903e-08 1.4617957e-09 5.1176894e-08
-1.2470461e-07 -7.515527e-09 -4.2101497e-08 7.5166234e-08 -7.508065e-09 -3.7332632e-07 0.007916315 7.3975956e-05
0.006716597 0.00669515 7.3792326e-05 -0.00077049364 2.3045523e-07 -2.4068036e-08 -1.8616038e-07 -4.799844e-07
-2.4044393e-08 -9.60925e-07 -9.815778e-13 -8.7524755e-14 -4.0088617e-13 -6.8633977e-13 -8.745982e-14 -2.5626129e-12
-0.008606443 0.0013467752 0.022542803 0.026247058 0.0013454292 0.05591575 4.3467976e-11 2.610435e-12
1.2967971e-11 3.269171e-11 2.607985e-12 8.083918e-11 3.5428465e-09 -4.0428141e-10 -3.1901284e-09 -7.969585e-09
-4.0388112e-10 -1.6067855e-08 -0.014235868 -0.00012725737 0.00068698183 -0.0038272883 -0.00012725458 0.006070866
1.9904228e-08 9.425453e-10 8.457936e-09 1.4135808e-08 9.416037e-10 2.907455e-08 -3.341552e-11 3.353762e-10
3.9298165e-09 6.392302e-10 3.3510894e-10 1.1383033e-08 -5.747214e-14 -7.638608e-15 -6.520542e-14 -8.18315e-14
-7.635001e-15 -2.387878e-13 -0.02773717 -0.00092763815 -0.020871615 -0.03572732 -0.0009267179 -0.016877094
-0.00023163228 2.381916e-05 0.00015237319 0.00047580156 2.379536e-05 0.0009532335 5.7477234e-07 2.3123802e-08
5.999331e-08 1.6346631e-07 2.3101508e-08 5.705102e-07 5.196888e-09 6.877282e-11 -2.6391345e-10 -1.145497e-09
6.873217e-11 2.6286914e-10 -0.0013652645 -7.261902e-05 -0.0008301646 -0.0025211715 -7.254645e-05 -0.0025970282
-2.4576655e-05 -1.2997494e-06 -9.377326e-06 -3.9202405e-05 -1.2984623e-06 -5.37418e-05 1.0145317e-14 3.849395e-15
2.8341531e-14 2.0192396e-14 3.8463656e-15 1.1286896e-13 1.9542308e-09 -9.775603e-11 -2.6667197e-09 1.2201333e-09
-9.765817e-11 -4.6973407e-09 3.5489955e-09 -1.246555e-10 -4.2520837e-10 -3.5054009e-09 -1.2452792e-10 -6.2562355e-09
3.302538e-05 -3.3780766e-06 -2.1797085e-05 -6.749452e-05 -3.374717e-06 -0.00013497156 1.0517946e-08 1.2521053e-09
7.946532e-09 -2.0847084e-09 1.2511095e-09 4.8026426e-08 0.00041863843 0.003425333 0.04939919 0.058069512
00000000: c91f 80b6 1a8a dfb5 f418 6bb7 de8d 37b8
00000010: 5c4f dfb5 b776 96b8 0982 0f2e 3eea 002c
00000020: 4f45 8f2d 4ef9 c52b 65cb 002c 6d17 402e
00000030: b03b 04b8 3ae2 0eb6 256e 82b7 baf7 8a37
00000040: 73bd 0eb6 a269 d5b8 ed30 d636 ff04 ca34
00000050: ddd0 ff35 71d7 4eb6 32d2 c934 7ef9 9737
00000060: 0273 8127 5b8e d827 b75b 5b29 4b8a f128
00000070: 5d63 d827 50cb 442a 5dcb 2bba e7e4 2938
00000080: da33 c53a 8f47 9cb9 43b9 2938 dd95 fe3a
00000090: 29d4 692f 4d4d 562d 07bf 562e 6db3 2f2f
000000a0: 9e19 562d 6cf9 ca2f f4ac 3f2d 5a0d cb2b
000000b0: ed03 b92c ad07 832d dae5 ca2b 464d 442e
000000c0: 5f98 9cba b658 83b8 dc94 23ba ac15 a939
000000d0: 3536 83b8 fcd2 f8ba d357 ceb9 9371 2bb8
000000e0: 30c1 6bba e620 53ba d645 2bb8 09d3 bdba
000000f0: a118 82bb fad3 393a 79f5 553c d101 673c
00000100: 5ea4 393a 0fc0 e93c e1d0 5136 c258 4534
00000110: 939d 2d36 47f6 6036 7126 4534 4c14 cf36
00000120: 937d 912b e58b 9a29 d783 ce2a b6f0 d62b
00000130: 4f56 9a29 5f8e 302c 596b 572b 28f0 8529
00000140: 63c6 c12a b47f 232b 9dd4 8529 1788 fb2b
00000150: 1f45 f131 9867 acaf c6c7 3331 88da f0b1
00000160: f23e acaf ce82 67b2 3dae 44bb b4b2 43bb
00000170: cfaa 93bd ac8e 6bbd 347f 43bb b186 01be
00000180: 49cf a5bc b648 04bc eba6 c8bd 4955 21be
00000190: b726 04bc aee9 80be 3b6c 38af 3eca 32ad
000001a0: 1eab 2bae 8390 11af 10a1 32ad ddd7 a9af
000001b0: f934 6fb9 64c5 a9b7 7d92 dfb9 772a d5b9
000001c0: 2a9a a9b7 a694 34ba ef92 a932 461b c930
000001d0: abb2 0a33 2c92 ed32 5de8 c830 97cd 5b33
000001e0: 8be6 05b4 a31d 01b2 16d3 34b3 136b a133
000001f0: d2fc 00b2 946d c8b4 6fb3 013c 8a23 9b38
00000200: e616 dc3b fd62 db3b f4c0 9a38 f4fa 49ba
00000210: 0d73 7734 2cbe ceb2 60e3 47b4 47d8 00b5
00000220: 2e8a ceb2 22f9 80b5 1125 8aab 9616 c5a9
00000230: c9ad e1aa fe2f 41ab 27f1 c4a9 ee53 34ac
00000240: 0a02 0dbc 4786 b03a afab b83c 1204 d73c
00000250: 1d59 b03a ea07 653d 972c 3f2e 6bb1 372c
00000260: 8d22 642d 98c7 0f2e 4885 372c 6ac4 b12e
00000270: 6a76 7331 8d41 deaf 5539 5bb1 9bea 08b2
00000280: 3709 deaf 9605 8ab2 8f3d 69bc 6470 05b9
00000290: 9216 343a 3ed3 7abb a46f 05b9 1dee c63b
000002a0: dcf9 aa32 dd8a 8130 654e 1132 f1d9 7232
000002b0: bc69 8130 9dbf f932 88f6 12ae 0160 b82f
000002c0: 0807 8731 d4b5 2f30 643a b82f 1c8f 4332
000002d0: 6f6a 81a9 dd9a 09a8 5ed4 92a9 a644 b8a9
000002e0: 3a8a 09a8 f36c 86aa 1039 e3bc be2c 73ba
000002f0: f3fa aabc cf56 12bd fcee 72ba d541 8abc
00000300: 51e2 72b9 42cf c737 5ec6 1f39 0175 f939
00000310: 269c c737 6be2 793a 0e4a 1a35 c7a1 c632
00000320: acd5 8033 4785 2f34 c170 c632 2a25 1935
00000330: 4f90 b231 a83b 972e 8416 91af 986f 9db0
00000340: c624 972e 8b83 902f adf2 b2ba 0a4b 98b8
00000350: 679f 59ba 3d3a 25bb 1424 98b8 e732 2abb
00000360: f729 ceb7 0d73 aeb5 4f53 1db7 436d 24b8
00000370: d346 aeb5 d168 61b8 04c3 3628 67b0 8a27
00000380: 1f47 ff28 7fe0 b528 7694 8a27 8728 fe29
00000390: 314b 0631 c1f7 d6ae 6e41 37b1 a0b1 a730
000003a0: aac0 d6ae 3f66 a1b1 97e2 7331 670f 09af
000003b0: c2c2 e9af aae3 70b1 7eeb 08af 6ef6 d6b1
000003c0: bb84 0a38 eab2 62b6 e2d8 b6b7 d88b 8db8
000003d0: 3279 62b6 2787 0db9 6ab2 3432 8a16 ac30
000003e0: 3885 0832 9442 0fb1 81f3 ab30 9d45 4e33
000003f0: b37c db39 8d7b 603b ce56 4a3d 4cda 6d3d

exp_avg_sq f4 [128, 6]
1.0875327e-05 2.7986565e-07 3.4947227e-06 0.00017998955 2.7932785e-07 0.00032061574 3.0986647e-14 5.2195864e-16
7.189108e-15 1.04867226e-13 5.210726e-16 4.331258e-13 0.021296956 9.4016126e-05 0.005271688 0.007260283
9.382925e-05 0.080743864 3.7584978e-05 2.6884805e-07 5.991677e-06 1.4398248e-05 2.6833013e-07 0.0002515714
5.2357994e-19 3.5869146e-20 1.9222064e-19 3.495185e-18 3.5797782e-20 3.2067228e-17 0.013728982 0.00012247806
0.11526104 0.008432952 0.00012223277 0.1627762 2.943455e-14 4.2809633e-16 4.0791675e-15 4.1376113e-14
4.272559e-16 3.8031001e-13 1.934004e-15 3.635211e-17 1.0855245e-15 1.2053667e-14 3.628419e-17 2.8582564e-14
0.10280111 0.0003235847 0.028907774 0.025624655 0.00032295202 0.4759071 0.00012073179 7.7061844e-07
0.00038022804 0.00047538895 7.690846e-07 0.0006758567 0.0039802724 7.1973656e-05 0.009636812 0.025319058
7.184187e-05 0.08690147 8.2151985e-07 1.4245188e-09 9.642161e-08 4.549646e-07 1.4217261e-09 1.25958e-06
3.9405226e-18 1.614064e-19 1.8604547e-18 2.856113e-17 1.6109127e-19 1.4214784e-16 3.2342059e-18 2.6787099e-20
6.8155226e-19 2.9768226e-18 2.6734369e-20 2.130972e-17 6.9383577e-10 1.6140263e-11 8.406997e-10 1.1664038e-09
1.6109931e-11 1.7195237e-08 0.1486407 0.0006057169 0.28741667 0.12639558 0.00060453307 0.78147477
0.62527883 0.003088769 3.4485705 0.7342656 0.0030826293 4.973565 1.3682626e-08 2.1694199e-11
1.9688784e-09 2.1345778e-09 2.1652295e-11 1.6977651e-08 7.741971e-05 8.098213e-07 0.00044522903 0.00050747
8.082034e-07 0.0006655887 1.8304911e-11 5.0769823e-14 1.1488719e-11 1.0840298e-11 5.0669165e-14 4.070533e-11
1.0418012e-07 7.47248e-10 1.616102e-08 5.7324286e-08 7.457633e-10 6.344512e-07 0.04675014 0.00021584763
0.13219652 0.04720275 0.0002154208 0.31186956 1.0493517e-08 2.2405534e-10 3.7409307e-09 1.12448966e-07
2.2362628e-10 1.9722758e-07 3.760806e-17 5.990635e-19 9.973207e-18 1.2995007e-16 5.9807635e-19 4.697087e-16
0.001960186 3.448657e-05 0.0053639286 0.014917307 3.442238e-05 0.04580674 5.3804337e-15 2.3461704e-16
1.4815204e-15 2.367762e-14 2.3415665e-16 2.1182149e-13 3.0526946e-11 5.717533e-13 8.423572e-12 1.2948664e-10
5.707689e-13 4.8009124e-10 0.054170884 0.00034290948 0.16398135 0.10236645 0.00034223025 0.4287908
2.1366338e-09 5.0419105e-12 7.0125614e-11 1.2345018e-09 5.0319054e-12 4.149687e-09 4.0843795e-05 6.59095e-08
5.951809e-06 6.5045865e-06 6.578185e-08 5.162742e-05 4.435997e-19 4.580235e-21 9.019346e-20 7.0650406e-19
4.57153e-21 3.7858067e-18 0.25162375 0.0008344718 0.80340296 0.20224045 0.0008328548 1.17304
8.0694435e-06 1.6014523e-07 1.05582685e-05 6.0464237e-05 1.598637e-07 0.0001700615 1.6874667e-07 5.887011e-10
3.9330352e-09 2.1179238e-07 5.875532e-10 6.205035e-07 1.8621629e-11 3.760606e-13 7.585554e-12 1.8751234e-10
3.753223e-13 3.0192387e-10 0.046760198 0.00012929032 0.00600078 0.013965155 0.00012903719 0.21574308
3.94452e-05 6.560549e-08 2.0441769e-06 3.5368448e-05 6.5477224e-08 6.267822e-05 2.2713576e-19 1.2624518e-21
4.430522e-20 1.011799e-19 1.2599408e-21 1.0135539e-18 3.292455e-08 2.1000768e-10 1.3548473e-07 1.9813276e-08
2.0958706e-10 1.9504927e-07 7.5405643e-10 2.1400659e-11 9.762913e-10 1.963197e-09 2.135844e-11 2.0711525e-08
6.798203e-07 1.2982257e-08 3.2294517e-07 4.074549e-06 1.2957964e-08 1.12272555e-05 5.6676375e-09 7.425439e-11
9.700805e-10 5.4745684e-09 7.410719e-11 6.397656e-08 0.10382709 0.0005570523 0.4390463 0.08863645
00000000: 2c75 3637 7140 9634 e186 6a36 94bb 3c39
00000010: 87f6 9534 5118 a839 2c8d 0b29 c071 1626
00000020: e981 0128 d723 ec29 5f30 1626 02d4 f32a
00000030: f476 ae3c 862a c538 20be ac3b abe7 ed3b
00000040: 32c6 c438 0a5d a53d 90a4 1d38 3256 9034
00000050: 1d0c c936 0190 7137 030f 9034 57e5 8339
00000060: 9588 1a21 2363 291f 20ef 6220 17f3 8022
00000070: dd0c 291f 4de2 1324 86ef 603c 746d 0039
00000080: fb0d ec3d 5d2a 0a3c 9c2b 0039 ceae 263e
00000090: ba8f 0429 dec7 f625 aef7 9227 6957 3a29
000000a0: d84b f625 7318 d62a 145c 0b27 ffa4 2724
000000b0: c970 9c26 ba23 5928 d054 2724 74b9 0029
000000c0: 6389 d23d cea6 a939 ffcf ec3c ccea d13c
000000d0: e351 a939 18aa f33e 6331 fd38 7fdc 4e35
000000e0: 5859 c739 a03d f939 1773 4e35 fa2b 313a
000000f0: f26c 823b 90f0 9638 b8e3 1d3c ea69 cf3c
00000100: cfa9 9638 66f9 b13d 6a86 5c35 cdc8 c330
00000110: 5710 cf33 dc41 f434 8a66 c330 d70e a935
00000120: 2f61 9122 178e 3e20 ff46 0922 08b7 0324
00000130: d92e 3e20 a3e2 2325 6ca4 6e22 3bff fc1e
00000140: a228 4921 97a6 5b22 bd7f fc1e 278c c423
00000150: 5ab8 3e30 a4f8 8d2d fb16 6730 2f4f a030
00000160: 57b4 8d2d bab4 9332 4535 183e f9c8 1e3a
00000170: 4728 933e d86d 013e 8779 1e3a bb0e 483f
00000180: 4612 203f f26c 4a3b 61b5 5c40 d5f8 3b3f
00000190: f005 4a3b 7227 9f40 d310 6b32 fed2 be2d
000001a0: e04c 0731 e4af 1231 a274 be2d 40d6 9132
000001b0: 645c a238 7f62 5935 a16d e939 bc07 053a
000001c0: 51f3 5835 e77a 2e3a ff02 a12d 9fa5 6429
000001d0: 971c 4a2d 5db4 3e2d 9231 6429 2106 332e
000001e0: a0b9 df33 e766 4d30 75d2 8a32 b834 7633
000001f0: 6dfe 4c30 284f 2a35 137d 3f3d 2855 6239
00000200: 865e 073e ac57 413d 95e2 6139 5ead 9f3e
00000210: fa46 3432 f959 762f 9389 8031 797b f133
00000220: 34e1 752f 81c5 5334 c36f 2d24 f5cf 3021
00000230: 23f9 3723 7ed2 1525 5f85 3021 6262 0726
00000240: 7776 003b aca5 1038 e5c3 af3b b867 743c
00000250: c060 1038 d99f 3b3d bed9 c127 5d3f 8725
00000260: 7582 d526 e044 d528 6cfb 8625 637d 6e2a
00000270: 4942 062e 2bef 202b 6530 142d 405f 0e2f
00000280: 3ca8 202b 6bf7 0330 4ae2 5d3d 88c8 b339
00000290: baea 273e 80a5 d13d 5e6d b339 788a db3e
000002a0: 0fd4 1231 7e65 b12c 3635 9a2e 2cab a930
000002b0: 600b b12c 0895 8e31 b14f 2b38 218a 8d33
000002c0: a6b5 c736 f941 da36 f443 8d33 858a 5838
000002d0: 72ed 0221 5109 ad1d 9af6 d41f f085 5021
000002e0: 20b5 ac1d efab 8b22 d4d4 803e 74c0 5a3a
000002f0: d1ab 4d3f 1f18 4f3e f153 5a3a 2d26 963f
00000300: ff61 0737 63f4 2b34 6b23 3137 fb9a 7d38
00000310: 00a7 2b34 8952 3239 bb30 3534 28d2 2130
00000320: 5823 8731 0c69 6334 6181 2130 ad90 2635
00000330: 2ecc a32d 0bb4 d32a 4c72 052d 082c 4e2f
00000340: a549 d32a 02fc a52f 9f87 3f3d 1b92 0739
00000350: 31a2 c43b 1bce 643c 284e 0739 c1eb 5c3e
00000360: f671 2538 00e3 8c33 b12e 0936 9558 1438
00000370: 7c9c 8c33 1d72 8338 c913 8620 bdc6 be1c
00000380: b939 511f 7fe7 ee1f 9965 be1c fc92 9521
00000390: ed68 0d33 e8e7 662f c279 1134 db31 aa32
000003a0: 8371 662f bc6e 5134 0146 4f30 003e bc2d
000003b0: 322e 8630 ede8 0631 eede bb2d 20e9 b132
000003c0: e57c 3635 9208 5f32 3f61 ad34 1cb8 8836
000003d0: ba9d 5e32 b25c 3c37 11bd c231 8149 a32e
000003e0: ac53 8530 d01a bc31 a4f6 a22e 7c63 8933
000003f0: 4ca3 d43d 2607 123a adca e03e 0787 b53d

exp_avg f4 [128]
-3.3275783e-06 3.6605606e-12 -4.2539846e-06 7.518421e-07 1.2011955e-14 8.09306e-05 2.434036e-11 2.883352e-12
-0.00012513329 -8.1669226e-05 0.0014163363 3.6722088e-07 1.3707892e-13 1.1886534e-13 -6.2662686e-10 -0.0059660906
-0.01613174 -2.0307771e-11 -4.0436313e-05 2.9235914e-09 -1.501613e-08 0.00014758538 -4.8088786e-08 -1.7491972e-13
0.0026908587 5.21597e-12 -8.0776225e-10 -0.0002545087 1.8832074e-09 6.702179e-10 -1.5269995e-14 -0.0018534347
4.759072e-05 4.6203045e-08 1.3746435e-10 -0.0001450929 -2.5969246e-06 7.692731e-15 -1.9531618e-10 -2.4905578e-10
-6.749434e-06 2.502219e-09 0.0068439487 -4.523656e-07 5.6028612e-11 0.0026527483 -2.3598651e-12 2.9365572e-11
-0.0025386182 -2.3165796e-08 -2.7738936e-10 -1.004966e-12 2.2510377e-11 -1.2149566e-07 -1.738277e-13 9.497218e-06
2.4395622e-05 6.175488e-11 4.5105192e-10 2.4068177e-05 -0.026262583 0.0025339304 3.4741592e-07 4.8297205e-10
-6.262256e-12 -4.1406145e-10 1.7294502e-05 -3.8843922e-05 0.0007568532 0.00045888498 3.2474027e-06 0.00078757305
-1.7938474e-12 -6.681828e-05 -3.1375228e-07 -0.0012042796 -0.0011382526 4.2302787e-07 1.9585009e-12 5.804018e-11
-0.0007372969 0.0011908999 -3.7103412e-06 0.0010661858 -2.145181e-06 -1.7401204e-14 -1.4447104e-14 8.409331e-15
-6.957927e-14 -2.546927e-13 1.2480627e-13 5.008234e-06 0.0014161352 2.8004498e-13 0.01890418 3.0289586e-05
-2.2250245e-10 1.5665956e-14 -1.18019515e-14 -2.0822289e-14 2.2518559e-13 1.3946925e-08 5.629554e-07 -7.4673184e-10
-3.5826295e-05 -3.0985195e-08 0.00054619374 -0.00032714906 -3.1445932e-05 4.4710147e-15 -1.7558651e-08 -2.4182233e-05
-0.006614913 6.8462146e-12 1.1750724e-11 -7.24882e-07 -0.0010459964 5.837361e-11 -5.5441728e-08 0.0026198153
-0.002201515 -4.83698e-09 -0.00392982 -3.5813353e-14 4.5985923e-12 2.4930787e-12 1.6230416e-09 4.535809e-06
00000000: 5c4f 5fb6 66cb 802c 73bd 8eb6 32d2 4935
00000010: 5d63 5828 49b9 a938 9e19 d62d dae5 4a2c
00000020: 3636 03b9 d545 abb8 5ca4 b93a 7426 c534
00000030: 4f56 1a2a 9ad4 052a f23e 2cb0 327f c3bb
00000040: b626 84bc 09a1 b2ad 299a 29b8 5de8 4831
00000050: d2fc 80b2 26c1 1a39 2e8a 4eb3 2df1 44aa
00000060: 1e59 303b 4885 b72c 3709 5eb0 946f 85b9
00000070: bc69 0131 643a 3830 368a 89a8 f3ee f2ba
00000080: 269c 4738 c970 4633 c624 172f 1424 18b9
00000090: d346 2eb6 7694 0a28 9ec0 56af 7ceb 88af
000000a0: 3279 e2b6 81f3 2b31 3443 e03b a8dc f2b4
000000b0: 9c6a 762e bbd9 2d3b 8d0f 26ac b226 012e
000000c0: f25e 26bb 20fe c6b2 157f 98af b76f 8dab
000000d0: dd00 c62d 7974 02b4 6cb6 43aa 3e56 1f37
000000e0: 33a5 cc37 e8cc 872e eaf7 f72f 04e6 c937
000000f0: a124 d7bc 4c10 263b 7b84 ba34 23c2 0430
00000100: 6355 dcac f8a1 e3af a913 9137 58ec 22b8
00000110: 8f67 463a 8096 f039 f4ed 5936 2275 4e3a
00000120: 2a76 fcab ca20 8cb8 c971 a8b4 ebd8 9dba
00000130: 6b31 95ba 821c e334 37d1 092c 6f43 7f2e
00000140: 2847 41ba f817 9c3a 2dff 78b6 42bf 8b3a
00000150: eef5 0fb6 72bc 9ca8 c120 82a8 327d 1728
00000160: b8ad 9ca9 1661 8faa f584 0c2a 670c a836
00000170: 9d9d b93a bca6 9d2a f0dc 9a3c 6416 fe37
00000180: dfa4 74af 3c1b 8d28 e59a 54a8 ee8c bba8
00000190: 5489 7d2a 3a9b 6f32 001e 1735 9542 4db0
000001a0: 3144 16b8 9514 05b3 712e 0f3a 3485 abb9
000001b0: d0e4 03b8 d515 a127 e2d3 96b2 f3da cab7
000001c0: eac1 d8bb 38e1 f02c 8eb8 4e2d 8395 42b5
000001d0: d119 89ba 6c5d 802e d31e 6eb3 35b1 2b3b
000001e0: 4b47 10bb 8732 a6b1 b8c5 80bb fc49 21a9
000001f0: 70cc a12c 506f 2f2c b311 df30 4d32 9836

exp_avg_sq f4 [128]
1.1173114e-06 2.0842904e-15 0.000375317 1.0733205e-06 1.4319113e-19 0.000488931 1.7090239e-15 1.4513677e-16
0.0012918081 3.0763383e-06 0.00028736747 5.6869043e-09 6.4436506e-19 1.06937477e-19 6.443971e-11 0.0024181323
0.012330517 8.6609185e-11 3.2328135e-06 2.0267666e-13 2.9830531e-09 0.0008616833 8.9450525e-10 2.3923054e-18
0.00013768952 9.366266e-16 2.283076e-12 0.001368921 2.0127618e-11 2.631274e-07 1.8286118e-20 0.0033314193
6.394548e-07 2.3502125e-09 1.5012891e-12 0.00051614875 2.619089e-07 5.039763e-21 8.383482e-10 8.5433764e-11
5.1831854e-08 2.964288e-10 0.0022238223 8.468323e-07 7.862499e-14 0.00032542253 9.3112684e-17 6.974766e-14
0.00017900916 2.0825007e-10 9.077667e-11 3.166995e-19 3.7753465e-14 2.2187818e-09 6.193059e-19 1.6972977e-07
1.136299e-06 1.2174461e-13 3.0261635e-10 2.3845021e-05 0.00828788 0.00021573663 7.552495e-08 1.5542125e-12
4.2471096e-15 2.3915467e-08 5.7467267e-05 0.00095905893 0.0002976001 0.0014687171 0.00019870604 0.0024815195
2.1906006e-17 0.00021326721 1.2423088e-07 0.00017397337 0.00032392045 0.00017704982 8.921301e-16 1.9017466e-12
0.0034180796 0.00077996607 2.698946e-06 0.0018136376 3.0618958e-07 2.854226e-19 7.438278e-20 1.097814e-20
5.9920737e-21 9.900206e-16 2.5469713e-15 2.0567417e-07 0.00018815955 1.2375622e-19 0.013426012 0.0005085279
5.618612e-14 4.8079817e-21 7.183166e-20 1.1162477e-20 9.5234255e-18 8.067716e-10 6.428178e-08 9.674156e-13
0.000105187566 1.478471e-08 0.00023480093 0.002609752 4.1605936e-06 8.427801e-21 2.4683143e-11 1.3008132e-06
0.002287821 2.8011137e-12 1.8536593e-14 4.4174273e-09 0.0021608379 8.8223664e-11 4.239121e-08 0.0017150391
0.001329655 1.3133658e-11 0.00157735 1.0927123e-21 4.2963108e-15 1.24563945e-14 4.3277887e-13 6.3737443e-06
00000000: 87f6 9535 5f30 1627 32c6 c439 030f 9035
00000010: dd0c 2920 9b2b 003a da4b f626 d054 2725
00000020: e351 a93a 1773 4e36 cfa9 9639 8a66 c331
00000030: d92e 3e21 bd7f fc1f 55b4 8d2e 8779 1e3b
00000040: f005 4a3c a374 be2e 50f3 5836 9231 642a
00000050: 6dfe 4c31 96e2 613a 36e1 7530 5f85 3022
00000060: c060 1039 6cfb 8626 3ea8 202c 5e6d b33a
00000070: 5e0b b12d f443 8d34 1fb5 ac1e f153 5a3b
00000080: 00a7 2b35 6081 2131 a449 d32b 284e 073a
00000090: 7c9c 8c34 9965 be1d 8371 6630 efde bb2e
000000a0: ba9d 5e33 a5f6 a22f 8cbd 113b df51 6335
000000b0: 390c b129 799d aa39 07b4 d624 ca0e 9d29
000000c0: 68b4 3b39 2ff9 642f b99e c72e 46f2 ba20
000000d0: c806 2a29 3979 1831 6ec9 3621 f73e 3634
000000e0: f082 9835 7f12 092a 775d a62f cb06 c837
000000f0: e3c9 073c 5c37 6239 4830 a233 68bc da2b
00000100: ac04 9927 ab6e cd32 0209 7138 5b69 7b3a
00000110: 3607 9c39 f881 c03a bf5b 5039 fda0 223b
00000120: 180c ca23 7ba0 5f39 5364 0534 9f6c 3639
00000130: ded3 a939 73a6 3939 cb91 8026 d2d2 052c
00000140: dc01 603b a376 4c3a 8a1f 3536 94b7 ed3a
00000150: 6062 a434 d87b a820 a2a1 af1f 075f 4f1e
00000160: c85f e21d 50ad 8e26 5487 3727 49d7 5c34
00000170: b24c 4539 061b 1220 c7f8 5b3c bb4e 053a
00000180: 300a 7d29 f2a3 b51d 939b a91f 6dda 521e
00000190: 1bad 2f23 81c3 5d30 480b 8a33 d226 882b
000001a0: 2598 dc38 d8ff 7d32 e534 7639 5f08 2b3b
000001b0: 3a9b 8b36 5832 1f1e 7f1d d92d 9a97 ae35
000001c0: 44ef 153b 611c 452c 79f6 a628 1ac8 9731
000001d0: d89c 0d3b 8201 c22e a111 3633 2acb e03a
000001e0: d147 ae3a bd0c 672d 15bf ce3a 4220 a51c
000001f0: 79ca 9a27 fb64 6028 02a2 f32a 0cde d536
