MLAgentsProject/results/MoveToGoal6/MoveToGoal/MoveToGoal-17499994.pt (torch, 439199 bytes, 36 tensors)

network_body._body_endoder.seq_layers.0.weight f4 [128, 6]
0	0xbda259dd	-0.07927296
1	0xbf68d024	-0.909426
2	0xbfbda572	-1.4816115
3	0x3ec74318	0.38918376
4	0xbe8dcd2e	-0.27695602
5	0x3dd0cbe5	0.1019514
6	0xbec1f053	-0.37878665
7	0xbf663bd9	-0.8993507
8	0xbf9cec87	-1.2259682
9	0xbd0c08da	-0.03418813
10	0xbf43039f	-0.761774
11	0xbf81ded7	-1.014613
12	0x3f56ae35	0.8385957
13	0xbddb0167	-0.10693627
14	0xbf40a823	-0.75256556
15	0xbf6d7720	-0.92759895
16	0x3e7a29ff	0.24430083
17	0xbebbaa9d	-0.36653605
18	0x3dd18f78	0.102324426
19	0xbe412a33	-0.18863754
20	0xbfc6c621	-1.5529214
21	0xbf40b20d	-0.75271684
22	0xbf5fc622	-0.874117
23	0xbe8d6011	-0.27612355
24	0x3c9932e0	0.018701017
25	0xbf316ee8	-0.69309855
26	0xbfdd5f98	-1.7294798
27	0xbe89bc3b	-0.2690142
28	0xbf91b59d	-1.1383549
29	0xbf8813fc	-1.0631099
30	0xbf377424	-0.7166159
31	0x3e9410e6	0.28919142
32	0x3f1b2c5c	0.6061456
33	0xbef24a1f	-0.47322175
34	0x3ed43de9	0.41453484
35	0xbf60ad95	-0.87764865
36	0xbe97c5fc	-0.29643238
37	0xbfcfb350	-1.6226597
38	0xbfd7183b	-1.680427
39	0x3e1b0b64	0.15141064
40	0xbfa0efc4	-1.2573171
41	0xbeb2a321	-0.34890082
42	0xbea56f85	-0.32311645
43	0xbf3f1206	-0.74636877
44	0xbecdab5b	-0.40169796
45	0x3b675457	0.0035298073
46	0xbf98d38d	-1.193956
47	0xbf837cd3	-1.0272468
48	0x3e643932	0.22287443
49	0xbec7420f	-0.38917586
50	0xbfc20d2e	-1.5160272
51	0xbc439f49	-0.011939832
52	0xbeef4cda	-0.4673832
53	0x3e6d5260	0.23175955
54	0x3e2785d4	0.16359645
55	0x3edd22d5	0.43190637
56	0x3ce7706c	0.02825185
57	0x3ecd9b75	0.40157667
58	0x3e8524e9	0.26004723
59	0xbec8329b	-0.3910111
60	0xbf894915	-1.0725428
61	0xbed8d5e7	-0.42350695
62	0xbf7df083	-0.99195117
63	0x3e88445f	0.26614663
64	0xbf5a004d	-0.8515671
65	0xbec2b22b	-0.38026556
66	0x3ebb750c	0.36612737
67	0xbee03416	-0.43789738
68	0xbe9fac48	-0.31186128
69	0x3d665e90	0.056242526
70	0xbe550b5a	-0.20805112
71	0xbf2da4ea	-0.67829764
72	0xbe4d93dd	-0.20075937
73	0xbf86c6f9	-1.0529472
74	0xbfa3abe1	-1.2786828
75	0xbae8b398	-0.0017753718
76	0xbfd2966e	-1.6452157
77	0xbf6f8871	-0.9356757
78	0xbd75bc27	-0.05999389
79	0x3d4e838f	0.050418433
80	0xbf357dce	-0.7089509
81	0xbd295184	-0.041337505
82	0xbea34628	-0.31889462
83	0xbf9659a5	-1.1746107
84	0xbf3b2bc0	-0.7311363
85	0xbdb6da49	-0.08928353
86	0xbf2b9c9b	-0.67035836
87	0xbe707228	-0.23481047
88	0xbee30d06	-0.44345874
89	0xbed37a66	-0.4130432
90	0x3e824665	0.25444332
91	0x3f2087d8	0.6270728
92	0xbec45f06	-0.38353747
93	0xbdc57eca	-0.09643324
94	0x3e93b875	0.28851667
95	0x3f58e7fe	0.8472899
96	0x3f182e4e	0.59445655
97	0xbec4f6c9	-0.38469532
98	0xbf34ddd9	-0.7065101
99	0xbeecb9e7	-0.46235582
100	0xbf9b250f	-1.2120684
101	0x3f402c9f	0.75068086
102	0x3ee85362	0.45376116
103	0x3e8b6a25	0.2722942
104	0xbf47d7d3	-0.78063697
105	0xbef06644	-0.46953022
106	0xbe9af57c	-0.30265415
107	0xbf8212bb	-1.0161966
108	0x3adbc1e7	0.0016766161
109	0xbcfa9377	-0.030587895
110	0xbd5865ad	-0.05283134
111	0x3ea92608	0.33036828
112	0xbea1ebf6	-0.31625336
113	0xbf00f942	-0.5038034
114	0x3e941496	0.28921956
115	0xbd4b64f3	-0.04965682
116	0xbc81a5f0	-0.015826195
117	0x3dc92e11	0.098232396
118	0x3e2ad764	0.16683728
119	0xbf87d0de	-1.0610616
120	0x3ee64c54	0.4498011
121	0xbfa91c56	-1.3211772
122	0xbfa3c18d	-1.2793442
123	0xbf43cdae	-0.7648572
124	0xbfb03d7a	-1.3768761
125	0xbdd7ca91	-0.10536683
126	0xbe99d946	-0.3004858
127	0x3f54b57e	0.83089435
128	0x3e182a92	0.1485999
129	0x3d81745f	0.06321024
130	0x3f2bd240	0.6711769
131	0x3f0de936	0.55433977
132	0xbf2cddbb	-0.67525834
133	0xbeb517e4	-0.3536979
134	0xbf972eed	-1.1811196
135	0x3eaf8cad	0.34287015
136	0xbdcdbecc	-0.10046157
137	0xbe93f975	-0.28901258
138	0xbe8471ae	-0.2586798
139	0xbf7db34e	-0.9910172
140	0xbf3a9acb	-0.72892445
141	0xbd71b50e	-0.059010558
142	0xbee6c9da	-0.45075876
143	0xbf92f492	-1.1480887
144	0xbf1302e2	-0.57426274
145	0x3cf8a330	0.030351251
146	0xbf7b1e5a	-0.9809319
147	0x3f62c5f8	0.88583326
148	0xbf2e78b7	-0.68152946
149	0x3e4bfc57	0.19920479
150	0xbdf893c0	-0.12137556
151	0xbe41f7c3	-0.1894217
152	0xc00d945c	-2.2121801
153	0xbd887847	-0.06663566
154	0xbfce1903	-1.6101383
155	0xbf756f44	-0.958729
156	0xbf519706	-0.8187107
157	0xbbbc8276	-0.005752857
158	0xbf96e0f2	-1.1787398
159	0x3e2c6f25	0.16839273
160	0x3e4c7d4c	0.19969672
161	0xbe9acff9	-0.30236796
162	0x3ec30c53	0.3809534
163	0x3f334301	0.70024115
164	0x3e62ea88	0.22159779
165	0xbd2e8873	-0.042610597
166	0x3f6f9945	0.93593246
167	0x3ed81cf7	0.42209598
168	0x3e85c9f7	0.2613065
169	0xbdd66db4	-0.10470143
170	0xbf93e074	-1.1552873
171	0x3e404b8b	0.18778817
172	0xbf186b42	-0.5953866
173	0xbf11891b	-0.5684983
174	0x3f0ac459	0.5420585
175	0xbeb618b4	-0.35565722
176	0xbed95d9d	-0.42454234
177	0xbf20e075	-0.62842494
178	0xbdb2c693	-0.08729281
179	0xbf4854b8	-0.7825427
180	0xbbf9857e	-0.0076147905
181	0xbf267520	-0.6502247
182	0xbf6ff8ea	-0.9373919
183	0xbde392bf	-0.11111974
184	0xbeefb304	-0.46816266
185	0xbf971e89	-1.1806194
186	0x3f3b17d9	0.73083264
187	0x3eb72b03	0.35775003
188	0x3f52f0a8	0.8239846
189	0xbf273ff7	-0.6533198
190	0xbecd49b0	-0.40095282
191	0xbf1b8be2	-0.6076032
192	0xbf53391c	-0.82509017
193	0xbee9f29a	-0.45692903
194	0xbf2b1103	-0.6682283
195	0x3e49905f	0.1968398
196	0xbfa93866	-1.3220336
197	0xbef831bc	-0.48475444
198	0x3da564a2	0.08075835
199	0xbfa0e4b1	-1.2569791
200	0xc01d8a4e	-2.4615664
201	0xbe115622	-0.14193013
202	0xbf7965d1	-0.97420985
203	0xbed6ae63	-0.41929922
204	0xbeb754a6	-0.3580677
205	0xbf3058ae	-0.68885314
206	0xbf3b4737	-0.7315554
207	0x3e8227f5	0.2542111
208	0xbec0fd95	-0.37693468
209	0xbf1f97ac	-0.6234081
210	0x3f3c1b8e	0.73479545
211	0xbf0ce40e	-0.55035484
212	0xbfa509e2	-1.2893641
213	0x3ea35b42	0.31905562
214	0xbf78cc6a	-0.9718691
215	0x38e962bc	0.000111286965
216	0x3ee01895	0.43768755
217	0x3d82e765	0.06391791
218	0xbf7399ea	-0.9515673
219	0x3ecab9d0	0.3959489
220	0xbf0f1ef3	-0.559066
221	0xbefa21fc	-0.48854053
222	0x3d347b3f	0.04406285
223	0xbf39ba04	-0.7254946
224	0xbf3ef99f	-0.7459964
225	0xbe3037c0	-0.17208767
226	0xbf38caa3	-0.721842
227	0xbfa9921a	-1.3247712
228	0xbeea0131	-0.45704034
229	0xbf3b9850	-0.73279285
230	0x3ec2052c	0.3789457
231	0xbf05d61a	-0.5227982
232	0xbf2a6aa4	-0.6656897
233	0xbf7fbddb	-0.9989907
234	0xbefc1701	-0.492363
235	0xbdf50e85	-0.1196566
236	0xbf33921a	-0.7014481
237	0xbeb87dba	-0.36033422
238	0xbef8c2e2	-0.48586184
239	0xbeda4e6f	-0.42637965
240	0xbf833373	-1.0250076
241	0xbf01f76d	-0.50768167
242	0xbf32426f	-0.6963262
243	0x3e9bc1ee	0.30421394
244	0xbee89424	-0.45425522
245	0xbe09a081	-0.13440134
246	0x3dd859f1	0.1056403
247	0xbe85def3	-0.2614666
248	0xbf95d5a2	-1.170582
249	0xbe48a788	-0.19595158
250	0x3caee23c	0.021348111
251	0xbea1e7f6	-0.31622285
252	0xbf141005	-0.57836944
253	0x3f5ddd02	0.86665356
254	0x3ee1509f	0.44006822
255	0x3eecfc84	0.46286404

network_body._body_endoder.seq_layers.0.bias f4 [128]
0	0xbede50a7	-0.43420908
1	0xbf81f68f	-1.0153369
2	0xbdafca67	-0.08583527
3	0xbebc7901	-0.3681107
4	0xbf8ce2f1	-1.1006757
5	0xbdaa6644	-0.08320287
6	0xbfb97fa5	-1.4492079
7	0xbed337a4	-0.41253388
8	0xbe247ed3	-0.16064005
9	0x3de0d01d	0.109771945
10	0xbf48ab33	-0.7838623
11	0xbed7879f	-0.42095658
12	0xbf846ca4	-1.0345654
13	0xbe1b4009	-0.15161146
14	0xbe858e8a	-0.2608531
15	0x3f0dc1a9	0.55373627
16	0xbe48d823	-0.196137
17	0xbf00373e	-0.5008429
18	0xbef8d56e	-0.48600334
19	0xbe8f1f86	-0.27953738
20	0xbf6327cd	-0.88732606
21	0x3f27095b	0.6524865
22	0xbe9861a8	-0.29762006
23	0xbf5f8b5a	-0.8732201
24	0xbeabb7f9	-0.33538797
25	0xbf6dde25	-0.9291709
26	0xbeabb860	-0.33539104
27	0x3f469769	0.77574784
28	0xbf11dfe1	-0.5698224
29	0xbe0045a9	-0.12526573
30	0xbf552a9c	-0.8326814
31	0x3c3199bd	0.010839877
32	0xbf4a1f16	-0.78953683
33	0xbf0f1167	-0.5588593
34	0xbee7179e	-0.45135206
35	0xbf14da5e	-0.581457
36	0xbe4a253b	-0.19740765
37	0xbf61aa2d	-0.8815029
38	0xbe93898b	-0.28815874
39	0xbeeb21a0	-0.4592409
40	0xbeeb6670	-0.4597659
41	0xbecf60d1	-0.40503553
42	0x3eb90bce	0.3614182
43	0xbf0d166f	-0.55112356
44	0xbf64d81e	-0.8939227
45	0xbe5374a4	-0.20649964
46	0xbf6706c7	-0.90244716
47	0xbfb7abd4	-1.4349313
48	0xbeabe1ad	-0.33570614
49	0xbf151450	-0.5823412
50	0xbf3ca9c6	-0.73696554
51	0xbf4c5420	-0.79815865
52	0xbef9fbba	-0.48824865
53	0xbe91883e	-0.28424257
54	0xbf878121	-1.0586282
55	0xbd91c368	-0.07117349
56	0xbea968d3	-0.33087787
57	0xbf06c68c	-0.5264671
58	0xbe6eaf71	-0.23309113
59	0x3d8a069f	0.06739544
60	0x3ed76220	0.4206705
61	0xbed12cb8	-0.4085443
62	0xbea70758	-0.3262279
63	0xbf3b0be2	-0.73065007
64	0xbfa9a311	-1.3252889
65	0xbe9b1ed9	-0.30296972
66	0xbda876d2	-0.08225788
67	0x3d7f8f3c	0.06239246
68	0xbe719484	-0.2359181
69	0x3d270624	0.04077734
70	0xbd5f3eff	-0.054503437
71	0x3df29b3d	0.118460156
72	0xbf860b28	-1.0472155
73	0xbe368c99	-0.17827071
74	0xbf1b8458	-0.60748816
75	0xbe8263e6	-0.2546684
76	0x3da5eb6b	0.08101543
77	0xbe33af2f	-0.17547296
78	0xbf1b600d	-0.60693437
79	0xbee5b8fb	-0.4486769
80	0x3e5b12d1	0.21393897
81	0x3ecedabd	0.4040126
82	0xbedc0e94	-0.42979872
83	0xbd5df820	-0.05419171
84	0xbde23c4f	-0.11046659
85	0xbf3fd5e0	-0.7493572
86	0xbf8ae1df	-1.085018
87	0xbf711756	-0.9417623
88	0xbf1f915b	-0.6233117
89	0xbf737234	-0.95096135
90	0xbe70b586	-0.23506746
91	0xbed724ca	-0.42020255
92	0x3ebc56e5	0.36785045
93	0xbf321133	-0.69557494
94	0x3e7d75df	0.24751996
95	0x3e6959f9	0.22788228
96	0xbe826740	-0.25469398
97	0xbf297770	-0.6619787
98	0xbf88694a	-1.0657132
99	0xbf1b1df4	-0.6059258
100	0xbf654e36	-0.89572465
101	0xbf81cba6	-1.0140274
102	0xbc8046f7	-0.015658839
103	0xbf4feb9d	-0.8121889
104	0xbf3146dd	-0.69248754
105	0x3e82f8e7	0.25580522
106	0xbeebc69b	-0.4604996
107	0xbef738dc	-0.48285568
108	0xbf05897c	-0.5216291
109	0xbf47f086	-0.78101385
110	0xbe91ab1d	-0.28450862
111	0xbddcdcbb	-0.107842885
112	0x3ee54481	0.44778827
113	0xbeb1a1bb	-0.34693703
114	0xbfa53f6c	-1.290998
115	0xbf24c015	-0.64355594
116	0x3e9c935e	0.30581182
117	0xbe57dbf9	-0.21080007
118	0x3d2aa59e	0.04166185
119	0x3f0f5ee9	0.56004196
120	0x3f2dc6aa	0.6788126
121	0xbe915bf9	-0.28390482
122	0xbd99b8ed	-0.07505975
123	0xbf329667	-0.69760746
124	0xbf6ac8e3	-0.9171278
125	0xbf212b95	-0.62957126
126	0xbf2a910c	-0.66627574
127	0xbe858258	-0.26076007

network_body._body_endoder.seq_layers.2.weight f4 [128, 128]
0	0x3ec1f43b	0.37881646
1	0xbeb4da2e	-0.35322708
2	0xbe8d0c3c	-0.27548397
3	0xbea976c8	-0.33098435
4	0xbed79edb	-0.42113385
5	0xbe4c4e46	-0.19951734
6	0x3db8dcfc	0.090265244
7	0x3dd0fcf0	0.10204494
8	0xbeda90c5	-0.42688575
9	0x3e335166	0.1751152
10	0xbf4f44dd	-0.8096445
11	0xbe1f98d8	-0.15585649
12	0x3e16034b	0.14649694
13	0x3dbd5098	0.09243888
14	0xbedf3905	-0.4359819
15	0xbfa9542f	-1.3228816
16	0x3e86bb79	0.26314905
17	0x3ebbef9a	0.3670624
18	0x3ec6a007	0.38793966
19	0xbec0793c	-0.37592494
20	0xbc863014	-0.016380347
21	0xbe0f8954	-0.1401723
22	0x3da801a4	0.08203438
23	0xbdd01a6b	-0.10161289
24	0xbcec5532	-0.028849218
25	0x3e78c367	0.2429329
26	0xbdf72759	-0.12068052
27	0x3e72b38f	0.23701309
28	0x3d9ae4cb	0.0756317
29	0x3eb3eb18	0.351403
30	0x3d9d119a	0.07669373
31	0xbf8cbd5d	-1.0995289
32	0xbee69da2	-0.4504214
33	0x3e021686	0.12703905
34	0xbcf95155	-0.03043429
35	0xbf05689b	-0.5211274
36	0x3ec1be2b	0.378404
37	0xbf0bd065	-0.5461486
38	0xbee1f39f	-0.4413118
39	0x3ea1e4b8	0.3161981
40	0xbda10063	-0.07861402
41	0x3eb20f61	0.34777358
42	0x3e24a526	0.16078624
43	0x3e23b956	0.15988669
44	0xbe5f7aeb	-0.21824233
45	0xbf7d64f7	-0.98982185
46	0xbee5aed5	-0.4485995
47	0x3e22dc19	0.15904273
48	0xbf10af37	-0.56517357
49	0x3efb79d4	0.49116385
50	0xbf354d5a	-0.70821154
51	0xbda04a95	-0.078267254
52	0x3d28aa89	0.04117826
53	0x3eab7081	0.3348427
54	0x3dac8f3b	0.084257565
55	0xbf1d2692	-0.6138698
56	0xbf1ed50f	-0.6204385
57	0xbe282249	-0.16419329
58	0xbe5792ab	-0.21052043
59	0x3d8266f0	0.0636729
60	0x3e725411	0.23664881
61	0xbeace1ca	-0.33766013
62	0xbf8fe450	-1.124155
63	0x3c7b7a61	0.015349002
64	0xbf17e0a5	-0.59327155
65	0xbed7f3ec	-0.42178285
66	0xbe974b7f	-0.29549786
67	0x3ce90a62	0.028447334
68	0xbea3ab14	-0.3196646
69	0xbf4e320a	-0.80545104
70	0xbe4ed33e	-0.2019777
71	0xbf69b6e6	-0.91294706
72	0x3dbe7fd2	0.093017235
73	0xbd9abf3d	-0.07556007
74	0xbe796273	-0.24353962
75	0xbf131833	-0.574588
76	0xbe1b7e53	-0.15184908
77	0xbf1b5fff	-0.60693353
78	0x3caa56de	0.020793375
79	0x3f08bbfa	0.5341183
80	0x3eac8fa0	0.33703327
81	0x3e8540ae	0.2602591
82	0xbdb74f79	-0.08950705
83	0xbdf0ecaf	-0.11763894
84	0x3e2e00b5	0.16992457
85	0x3e68e88b	0.22744958
86	0x3de150f6	0.1100177
87	0x3d08586c	0.03328745
88	0x3ef2861d	0.47367945
89	0xbdc9246d	-0.09821401
90	0x3eb070b0	0.34460974
91	0xbeee88f0	-0.4658885
92	0xbef7584b	-0.4830955
93	0xbeddf961	-0.43354324
94	0x3f14428f	0.5791406
95	0xbee2a61b	-0.44267353
96	0xbda8736b	-0.08225139
97	0x3d6b038f	0.05737644
98	0xbea7a4b6	-0.32742852
99	0xbc23fb42	-0.010008635
100	0xbd747a5c	-0.059687003
101	0xbeed62de	-0.46364492
102	0xbebd3ff4	-0.36962855
103	0x3d1afadf	0.037836906
104	0x3f02d08d	0.51099473
105	0xbd7fed86	-0.06248238
106	0xbe50e099	-0.20398177
107	0xbf0fb7c4	-0.5613978
108	0x3e8680eb	0.26270232
109	0xbe2b3795	-0.16720422
110	0x3e35a725	0.17739542
111	0xbea67d5e	-0.32517523
112	0x3e496234	0.19666368
113	0xbeb35e92	-0.3503309
114	0xbd0e2f1f	-0.034712907
115	0xbdee3cf5	-0.116327204
116	0xbc534189	-0.012894043
117	0x3e660712	0.22463635
118	0xbd6722fb	-0.056429844
119	0x3e4796be	0.19491097
120	0xbeb44fa1	-0.35217002
121	0xbe9333f2	-0.2875057
122	0x3ed631bd	0.41834822
123	0xbec89a25	-0.39180103
124	0x3dfb2f98	0.12264937
125	0x3f4f8803	0.8106691
126	0xbe9f0f18	-0.31066203
127	0xbf27ffa9	-0.6562448
128	0xbfc124a4	-1.5089307
129	0xbf2ec61b	-0.68271035
130	0x3c8c6e29	0.017142372
131	0x3fa92f91	1.3217641
132	0x3dac749d	0.0842068
133	0xbf11a825	-0.56897193
134	0x3eb726df	0.35771844
135	0xbea4b83c	-0.3217181
136	0x3f822e6e	1.0170419
137	0xbf737bb6	-0.9511064
138	0xbf2b6f3d	-0.6696661
139	0xbf10824a	-0.56448805
140	0x3e0e3d83	0.13890652
141	0x3d454a49	0.048166547
142	0xbf800022	-1.000004
143	0x3e8f7157	0.2801616
144	0x3eaf772c	0.34270608
145	0xbf7d7bde	-0.9901713
146	0xbefb414b	-0.49073252
147	0x3e7bdbef	0.24595617
148	0xbf3823bd	-0.7192953
149	0xbe9eb43d	-0.30996886
150	0xbf476eaa	-0.77903235
151	0xbf2ae307	-0.66752666
152	0xbf018252	-0.5058948
153	0x3e267999	0.16257323
154	0x3e93f1e2	0.2889548
155	0xbed6c0d9	-0.41944006
156	0xbe7bb8ea	-0.24582258
157	0xbed797d0	-0.4210801
158	0xbeae8c30	-0.3409133
159	0xbf459dd5	-0.7719396
160	0xbee55462	-0.4479094
161	0xbf12ffae	-0.57421386
162	0xbf287677	-0.65805763
163	0xbf3682b9	-0.71293217
164	0x3e922e4a	0.2855094
165	0xbeb99b0d	-0.36251107
166	0xbe4b2f2e	-0.19842216
167	0xbecda11c	-0.4016198
168	0xbf08cd07	-0.53437847
169	0xbf4e85a0	-0.80672646
170	0xbe6aaf8b	-0.22918527
171	0xbea17553	-0.31534824
172	0xbf0da7de	-0.5533427
173	0xbecfa61c	-0.4055642
174	0xbe926813	-0.28595027
175	0x3de64719	0.112440296
176	0xbed99193	-0.42493877
177	0xbf37cd61	-0.7179776
178	0xbefcaeb5	-0.4935204
179	0xbfac2326	-1.3448226
180	0xbdc04f4a	-0.09390123
181	0xbf10974f	-0.5648088
182	0xbf8f15b6	-1.1178501
183	0x3c7bfce4	0.015380118
184	0x3cbac575	0.022799233
185	0xbf2feb97	-0.68718857
186	0xbf58b938	-0.8465762
187	0x3f233248	0.637486
188	0xbe9080d8	-0.282233
189	0xbe6877b2	-0.2270191
190	0xbeba61d8	-0.36402774
191	0x3d0ea374	0.03482385
192	0x3e8e84e4	0.27835763
193	0xbf249f67	-0.6430573
194	0xbeaa5d16	-0.33274144
195	0x3f47884e	0.7794236
196	0xbf03ca74	-0.51480794
197	0xbe84f47f	-0.25967786
198	0xbfa4fa36	-1.2888858
199	0xbfa7d993	-1.3113273
200	0x3eeee8f8	0.46662116
201	0xbea3f828	-0.32025266
202	0x3d82e503	0.06391337
203	0xbf650838	-0.89465666
204	0xbef56c53	-0.47934207
205	0xbf2cb1df	-0.6745891
206	0x3e9dee84	0.30846035
207	0x3dd3e7c5	0.10346941
208	0xbd1a6c71	-0.037701074
209	0x3e9e26b8	0.30888915
210	0xbf54a3ee	-0.83062637
211	0x3efdf8e9	0.49603966
212	0xbfa17f52	-1.261698
213	0xbd6d365e	-0.057913177
214	0xbe059dd3	-0.13048486
215	0xbebfc514	-0.37455046
216	0x3e2b935b	0.1675543
217	0xbeb3f8ba	-0.351507
218	0xbdac230d	-0.08405123
219	0xbd4db4fc	-0.05022143
220	0xbeddca28	-0.43318295
221	0x3d830f14	0.0639936
222	0x3cd3bcf7	0.025846941
223	0xbf096c4d	-0.5368088
224	0xbcdfe6fb	-0.02733182
225	0xbe8f5b66	-0.2799942
226	0x3d5552e8	0.05208102
227	0xbc0ecc7f	-0.008715748
228	0xbf0f3063	-0.5593321
229	0xbf342fa4	-0.70385194
230	0xbe72b4cb	-0.2370178
231	0xbf35c63a	-0.71005595
232	0xbf2af7c1	-0.6678429
233	0xbf924362	-1.1426814
234	0xbea9b2cf	-0.33144233
235	0x3eef669d	0.46757975
236	0xbf97ad76	-1.1849811
237	0xbeffeed7	-0.49986908
238	0x3e109a15	0.14121278
239	0xbf6e541c	-0.9309709
240	0xbea7b64a	-0.32756263
241	0xbf46bebf	-0.77634805
242	0x3dcf27c3	0.10115006
243	0xbeb7abb3	-0.35873184
244	0xbf528e5f	-0.8224849
245	0xbf24fb05	-0.64445525
246	0xbf562325	-0.83647376
247	0xbf262cba	-0.64912
248	0xbf1fc706	-0.6241306
249	0xbed7f9af	-0.4218268
250	0xbf7ef458	-0.9959159
251	0xbe2f3d77	-0.1711329
252	0xbee93ad8	-0.45552707
253	0x3e364ab7	0.17801939
254	0xbee3d204	-0.44496167
255	0xbfb2dd33	-1.3973755

network_body._body_endoder.seq_layers.2.bias f4 [128]
0	0x3e003b5d	0.12522645
1	0x3dfd1fcf	0.12359583
2	0x3f028528	0.5098443
3	0x3d71f855	0.05907472
4	0x3e66cb72	0.22538546
5	0xbf141ea0	-0.5785923
6	0x3f1365d7	0.5757727
7	0x3f87ae0d	1.0599991
8	0xbd227db0	-0.039670646
9	0x3ee56b45	0.44808403
10	0xbee5acfa	-0.44858533
11	0xbf1e8f43	-0.6193735
12	0xbc2846e5	-0.010270809
13	0x3e0c89e7	0.1372448
14	0xbe3d0c1e	-0.18461654
15	0xbe67aa8a	-0.22623649
16	0x3e73f09e	0.23822257
17	0xbd4b7103	-0.049668323
18	0x3f078b10	0.5294657
19	0x3e3a692c	0.18204182
20	0xbe616245	-0.22010143
21	0xbe2c55a3	-0.16829543
22	0x3b97b5fc	0.0046298485
23	0x3e85ce58	0.2613399
24	0xbf05788b	-0.5213706
25	0x3f318660	0.69345665
26	0x3e982931	0.29718927
27	0xbebf0911	-0.37311605
28	0xbeb636cd	-0.35588685
29	0xbe7a7a00	-0.24460602
30	0x3f802024	1.0009809
31	0x3dfef10d	0.124483205
32	0x3cd1e5ab	0.02562221
33	0x3e83f6ee	0.2577433
34	0x3e2a8bb0	0.16654849
35	0x3e101f51	0.14074446
36	0xbdbcee51	-0.09225143
37	0xbdfff36e	-0.124976024
38	0xbedb2669	-0.42802742
39	0xbe0b3cfe	-0.13597485
40	0xbf0f7b7a	-0.56047785
41	0xbe88a4af	-0.26688144
42	0x3eb81c25	0.35958973
43	0xbe8be898	-0.27325892
44	0x3f6e4fab	0.93090314
45	0x3f0ee503	0.55818194
46	0xbf380295	-0.7187894
47	0xbd2fed14	-0.042950705
48	0x3ed5ef03	0.41783914
49	0xbc041ebf	-0.008063971
50	0x3e93b6b8	0.2885034
51	0xbe5adf7f	-0.2137432
52	0x3eacdae1	0.3376074
53	0x3dcef3c9	0.10105092
54	0xbd7eae97	-0.06217822
55	0x3d308224	0.04309286
56	0xbe9c5b6d	-0.30538502
57	0xbf3fa28b	-0.74857396
58	0x3ef25de8	0.4733727
59	0xbf1e4826	-0.6182884
60	0x3f49cdd5	0.788297
61	0x3ee27640	0.44230843
62	0xbf1ae095	-0.60498935
63	0x3e762046	0.24035749
64	0x3d99d921	0.07512117
65	0x3efd2300	0.49440765
66	0xbf56f120	-0.8396168
67	0x3c28497f	0.010271429
68	0xbefc4216	-0.4926917
69	0x3e0ccb6f	0.13749479
70	0x3e2208e2	0.15823701
71	0x3f0f08f1	0.5587302
72	0x3c7bcfe6	0.015369391
73	0x3d60f5d0	0.054921925
74	0x3e93ad45	0.28843132
75	0x3dc27e43	0.09496739
76	0x3f3eaaa7	0.74479145
77	0x3e903c6b	0.28171095
78	0xbed7bee1	-0.42137817
79	0xbe6bf8d8	-0.23044145
80	0x3db66d7b	0.089076005
81	0xbef0f5b2	-0.4706245
82	0x3e9318ae	0.28729767
83	0x3ec64eea	0.38732082
84	0xbdf85053	-0.12124696
85	0x3f475c10	0.7787485
86	0x3e9e6371	0.30935243
87	0x3f141ba3	0.5785467
88	0x3e53dfd6	0.20690855
89	0x3e943bc0	0.28951836
90	0x3ea8d799	0.32976988
91	0xbaaf5bad	-0.0013378762
92	0xbe2df04e	-0.169862
93	0xbd9a4a1b	-0.07533666
94	0xbf85250d	-1.0401932
95	0xbe146976	-0.14493355
96	0xbeec06be	-0.46098894
97	0xbe2dfb79	-0.1699046
98	0x3ee9cc03	0.4566346
99	0x3ea1ae85	0.3157846
100	0xbdf1dba0	-0.11809468
101	0xbe3b0832	-0.18264845
102	0xbc12ca2d	-0.008959335
103	0x3f824066	1.0175903
104	0x3f6d300f	0.92651457
105	0xbd077e76	-0.033079587
106	0xbda8391e	-0.08214019
107	0x3e5b5d91	0.21422412
108	0xbdbf7a92	-0.0934955
109	0xbe8a0572	-0.2695728
110	0xbec2f362	-0.3807631
111	0xbe6995ff	-0.22811125
112	0x3e9df6aa	0.30852252
113	0x3e9c1004	0.3048097
114	0x3e22d594	0.15901786
115	0xbf0609ae	-0.5235852
116	0x3eae98e8	0.34101033
117	0xbea1b105	-0.31580368
118	0x3ea01922	0.31269175
119	0xbfac0bfe	-1.344116
120	0x3e0af3be	0.13569543
121	0x3bcf3560	0.0063235015
122	0xbed13513	-0.40860805
123	0x3e9d4a02	0.30720526
124	0x3f05f837	0.5233187
125	0x3f234539	0.637775
126	0x3ec89969	0.39179543
127	0x3ea9b678	0.33147025

action_model._continuous_distribution.log_sigma f4 [1, 2]
0	0xbdd599fa	-0.10429759
1	0xbe6c2d73	-0.23064213

action_model._continuous_distribution.mu.weight f4 [2, 128]
0	0xbf387da3	-0.72066706
1	0x3eda69ba	0.42658788
2	0x3f99c694	1.2013726
3	0xbe83f2d5	-0.25771204
4	0xbf14fc7a	-0.5819775
5	0x3cb1e51b	0.021715691
6	0x3f54178a	0.8284842
7	0x3eb27df1	0.3486171
8	0xbe61fb58	-0.22068536
9	0xbf7fcbe5	-0.99920493
10	0xbdb3c836	-0.087784216
11	0xbbf7dcfe	-0.007564186
12	0x3eddd4c6	0.43326396
13	0xbe9e28d0	-0.30890512
14	0xbbaf63ba	-0.0053524645
15	0xbc8fbc33	-0.017545795
16	0xbdb2c765	-0.08729438
17	0xbebad72b	-0.36492285
18	0x3e4f0745	0.20217617
19	0xbf8a5a91	-1.0808889
20	0xbe9634da	-0.29337198
21	0x3e18d251	0.1492398
22	0xbc9c16df	-0.019053875
23	0x3e085bff	0.13316344
24	0xbf0d9365	-0.5530303
25	0x3f8fa16a	1.1221135
26	0xbf0307dc	-0.5118387
27	0x3e753403	0.23945622
28	0x3eaf1958	0.34199023
29	0xbd9a97cb	-0.075484835
30	0xbd5bcfb4	-0.053664878
31	0x3eaf27e9	0.34210137
32	0x3d9c37da	0.0762784
33	0x3f1b246c	0.6060245
34	0xbe260c08	-0.16215527
35	0x3eff0bfe	0.49813837
36	0xbe9caaf3	-0.30599174
37	0x3ed67e7d	0.41893378
38	0x3d5da79f	0.054114934
39	0xbf14e252	-0.5815784
40	0x3efb325c	0.4906186
41	0x3d1f406a	0.03887979
42	0x3f3a33a4	0.7273505
43	0xbc927b7c	-0.017881148
44	0xbf37ff73	-0.7187416
45	0x3ea85528	0.3287747
46	0x3e9568dd	0.29181567
47	0xbd3ad17a	-0.04560993
48	0xbef62228	-0.48072934
49	0xbcac7b12	-0.021054778
50	0xbf314797	-0.6924986
51	0xbdfe2047	-0.124085
52	0x3e249e7b	0.1607608
53	0xbeedf877	-0.46478626
54	0x3eaa41c0	0.33253288
55	0x3f1363a2	0.575739
56	0x3e0009ef	0.1250379
57	0xbe05a767	-0.1305214
58	0xbe64f88f	-0.22360443
59	0x3b105e8c	0.002202901
60	0xbdc594b2	-0.09647502
61	0x3dc2a02e	0.09503208
62	0x3f2e9164	0.681906
63	0x3df7de20	0.12102914
64	0x3d29fc9c	0.041500673
65	0x3f2784bf	0.6543693
66	0xbdc6afe3	-0.097015165
67	0x3e732804	0.23745733
68	0x3da53c63	0.080681585
69	0x3edd49d8	0.432204
70	0xbdcefc98	-0.10106772
71	0x3f4cafb8	0.79955626
72	0xbecd5f55	-0.40111795
73	0xbd3cc8fb	-0.046090107
74	0xbf44ee79	-0.7692638
75	0x3d1f95fd	0.0389614
76	0x3e811bd8	0.25216556
77	0xbec231f3	-0.37928733
78	0xbc368723	-0.011140618
79	0xbe1f695c	-0.15567535
80	0x3ed64b43	0.41854295
81	0xbc2505b2	-0.010072159
82	0xbf59287d	-0.84827405
83	0xbee6f6c5	-0.45110145
84	0xbebc80a7	-0.36816904
85	0xbf4cc4a9	-0.7998758
86	0x3e1a990e	0.15097448
87	0x3f23169e	0.63706386
88	0xbdd4776f	-0.10374343
89	0xbf611dad	-0.87935907
90	0xbf465084	-0.7746661
91	0xbe1bfdd3	-0.15233545
92	0xbf0f723d	-0.5603369
93	0xbef4f3c2	-0.47842222
94	0xbd81711e	-0.063204035
95	0x3df3046f	0.1186608
96	0x3f077a7c	0.5292127
97	0xbec3c9aa	-0.38239795
98	0x3f235159	0.63796
99	0xbf550595	-0.8321164
100	0xbe923aa1	-0.28560355
101	0x3da5865c	0.08082268
102	0xbf56b31c	-0.8386705
103	0xbe91c3e3	-0.28469762
104	0xbfeb3bf1	-1.8377668
105	0x3e04a245	0.12952526
106	0xba556ba8	-0.0008141347
107	0xbf035745	-0.5130504
108	0xbdb2c2f5	-0.08728591
109	0x3f2659ec	0.6498096
110	0xbe356a32	-0.17716292
111	0x3da3818c	0.079836935
112	0xbeff7f6f	-0.49901912
113	0x3f9800dd	1.1875263
114	0x3c7bad4c	0.015361141
115	0xbe46a488	-0.19398701
116	0x3dbd6fd8	0.09249848
117	0xbe8125a8	-0.25224042
118	0x3f74f4cc	0.9568603
119	0xbe494a4a	-0.19657245
120	0x3f44539d	0.76690084
121	0xbf4bfdb7	-0.79684013
122	0xbd5c3cec	-0.053769037
123	0xbe655adc	-0.22397941
124	0xbec8aded	-0.39195195
125	0xbf29ad9b	-0.66280526
126	0x3e362bde	0.17790172
127	0x3eae6cb1	0.340673
128	0xbe1e6000	-0.15466309
129	0xbe4f089d	-0.2021813
130	0xbe676ac9	-0.22599329
131	0xbe64a97f	-0.22330283
132	0xbe201605	-0.156334
133	0x3e5eb69c	0.21749347
134	0x3e3e8c9e	0.18608329
135	0x3e799033	0.24371414
136	0xbd2c8d36	-0.042126857
137	0xbe6898d5	-0.22714551
138	0x3dc64b80	0.09682369
139	0xbd9e0210	-0.07715237
140	0x3ea05738	0.31316543
141	0xbe86af05	-0.26305404
142	0x3d2309ba	0.039804198
143	0x3ef9813b	0.48731408
144	0xbefb2b48	-0.49056458
145	0xbe1f4241	-0.15552618
146	0xbea6e0f8	-0.32593513
147	0x3e97a501	0.29618075
148	0x3e7b0c5e	0.24516436
149	0xbf363ed7	-0.71189636
150	0x3e4501cf	0.19238971
151	0xbf8a509a	-1.0805848
152	0xbd3a6989	-0.045510802
153	0x3e4457fe	0.19174191
154	0x3e63f324	0.2226072
155	0x3f04dff8	0.5190425
156	0x3d440c41	0.04786325
157	0x3de6629d	0.11249278
158	0x3e96f953	0.29487094
159	0x3e83acb3	0.25717697
160	0x3ee0a0c5	0.43872657
161	0xbd508923	-0.050912034
162	0xbd8ee47e	-0.06977175
163	0x3c2404cc	0.010010909
164	0xbe05c5c9	-0.1306373
165	0xbc7a4fb9	-0.015277796
166	0xbe278cdf	-0.16362332
167	0x3edf1801	0.43573
168	0x3ea2ffd6	0.31835812
169	0xbd9685c5	-0.07349733
170	0x3f041470	0.51593685
171	0x3f2a257b	0.6646344
172	0xbf2dcf7f	-0.6789474
173	0xbefc3ccf	-0.49265143
174	0xbd85b19e	-0.065280184
175	0xbed9c4ab	-0.42532858
176	0x3e4e9f19	0.20177878
177	0xbdd7d3f5	-0.105384745
178	0xbe1eab4d	-0.15495034
179	0x3e0ec2a6	0.1394144
180	0x3def30b1	0.11679209
181	0xbe34dfbe	-0.17663476
182	0x3e0a3a08	0.134987
183	0xbde3aaa1	-0.11116529
184	0x3e0ab73a	0.13546458
185	0x3d548bd3	0.05189116
186	0xbf5f1dda	-0.87154925
187	0xbd1d8b5f	-0.038462993
188	0xbf1148f6	-0.56751955
189	0xbf73fe3a	-0.95309794
190	0x3db74d63	0.08950307
191	0xbeee02fd	-0.46486655
192	0xbe49fb82	-0.19724849
193	0xbf06ea84	-0.5270159
194	0x3cfc30f1	0.030785056
195	0xbdae3abd	-0.08507297
196	0x3ee2d078	0.44299674
197	0x3e6a08c8	0.22854912
198	0xbdf23f8c	-0.11828527
199	0x3d9c162e	0.07621418
200	0xbe22df49	-0.15905489
201	0xbe33a1b5	-0.17542155
202	0xbe980d86	-0.29697818
203	0xbeb6e107	-0.35718557
204	0x3e901b3e	0.28145784
205	0xbec108a4	-0.37701905
206	0x3dad2b40	0.08455515
207	0x3dc09e9e	0.09405254
208	0x3cde62ea	0.027146775
209	0x3dee982b	0.116501175
210	0xbe8c76ba	-0.2743433
211	0x3ca8e3a3	0.020616358
212	0xbc11d18d	-0.008900058
213	0xbf61a2bc	-0.8813894
214	0xbe86eda8	-0.26353192
215	0xbd7f9433	-0.062397193
216	0xbdcef14c	-0.101046175
217	0xbda280d7	-0.079347305
218	0xbd340b20	-0.043955922
219	0x3e128fa1	0.14312603
220	0xbef0bfb7	-0.47021267
221	0xbeb8021b	-0.35939106
222	0x3e3c6afa	0.18400183
223	0xbd0ef0ef	-0.03489774
224	0xbd9e95de	-0.07743429
225	0x3bf56cac	0.0074897613
226	0x3ecaceb6	0.39610833
227	0x3e064bdb	0.13114874
228	0xbefadf08	-0.48998284
229	0x3f0a12c5	0.5393489
230	0xbb9a5283	-0.004709543
231	0x3d1c8a93	0.038218092
232	0xbe2be891	-0.16787936
233	0x3e485fc6	0.19567785
234	0x3ba23abd	0.00495085
235	0x3d678080	0.05651903
236	0x3f3744b5	0.71589214
237	0x3dcf44ad	0.10120521
238	0x3dffb90b	0.12486466
239	0x3e3d3178	0.18475902
240	0x3e5e95aa	0.2173678
241	0x3efd9689	0.49528912
242	0xbeb26897	-0.3484542
243	0x3ed682c1	0.41896632
244	0xbece90f7	-0.40344974
245	0x3ece20f8	0.40259528
246	0x3dcbc26c	0.099491924
247	0x3da7dcb1	0.081963904
248	0x3e30794f	0.17233776
249	0xbdbdac76	-0.0926141
250	0xbe91852a	-0.2842191
251	0xbe5069a1	-0.20352794
252	0xbe139f84	-0.14416319
253	0x3e908cd7	0.28232452
254	0xbec0661e	-0.3757791
255	0xbf05d82e	-0.5228299

action_model._continuous_distribution.mu.bias f4 [2]
0	0x3dc0b4a6	0.09409456
1	0x3fb2a851	1.3957616

exp_avg f4 [128, 6]
0	0xbac9d81c	-0.0015399489
1	0xb89511fb	-7.108223e-05
2	0xb8e7418e	-0.00011027149
3	0xb8d8e852	-0.00010342956
4	0xb894ed73	-7.101418e-05
5	0xbb2122e2	-0.0024587442
6	0x2c1ad7ad	2.200444e-12
7	0xa904f8f6	-2.9525827e-14
8	0xaa45cf5d	-1.7569058e-13
9	0xaba6af7e	-1.1843718e-12
10	0xa9053892	-2.9581e-14
11	0xab33ca50	-6.387434e-13
12	0xbc3c423e	-0.011490403
13	0xb9fd4b91	-0.00048312222
14	0xba8ca702	-0.0010730925
15	0xbaf97760	-0.0019032769
16	0xb9fd0cfc	-0.00048265595
17	0xbc8e5838	-0.01737605
18	0x38a6f178	7.960474e-05
19	0x3660e6f5	3.3513036e-06
20	0x36f9c08e	7.4431946e-06
21	0x3760b4f6	1.3393574e-05
22	0x3660af64	3.3480692e-06
23	0x38fcc532	0.00012053027
24	0x2d4359b3	1.1104384e-11
25	0x2b03daa0	4.684395e-13
26	0x2b918b88	1.0341597e-12
27	0x2c046f1e	1.882001e-12
28	0x2b03ba0d	4.6798747e-13
29	0x2d94283d	1.6843521e-11
30	0x380fa346	3.4245917e-05
31	0xb78ab74e	-1.653624e-05
32	0xba2da67f	-0.0006624236
33	0x37905e5d	1.7210079e-05
34	0xb78a93aa	-1.6519643e-05
35	0xba2b36d7	-0.0006531304
36	0xb49268d8	-2.7270903e-07
37	0xb244d778	-1.14576935e-08
38	0xb2dd97ec	-2.5796872e-08
39	0xb3439110	-4.553391e-08
40	0xb2449fb0	-1.144501e-08
41	0xb4dd3fcd	-4.121088e-07
42	0xac8a5e9e	-3.9327005e-12
43	0xab50f532	-7.423672e-13
44	0xace81f78	-6.5973303e-12
45	0xad0a996a	-7.878457e-12
46	0xab50d157	-7.418696e-13
47	0xadd80572	-2.4558775e-11
48	0x39085dc7	0.00013004905
49	0xb8003217	-3.0564228e-05
50	0xba11a2b8	-0.0005555558
51	0x39cc4265	0.0003895938
52	0xb8000c1b	-3.0528852e-05
53	0xba64f4d9	-0.0008733995
54	0x3ce13972	0.027493212
55	0x3a99a83f	0.0011723115
56	0x3d6baea6	0.057539605
57	0x3d0cf0f9	0.034409497
58	0x3a99807f	0.0011711268
59	0x3d5e91f1	0.0543384
60	0x348d120f	2.6276436e-07
61	0xb37f9d90	-5.9515116e-08
62	0xb3c42ae4	-9.134763e-08
63	0xb55fbdf2	-8.335038e-07
64	0xb37f4fb9	-5.944432e-08
65	0xb5fefea9	-1.8998591e-06
66	0xb7a0db07	-1.9175479e-05
67	0xb557e6fc	-8.042987e-07
68	0xb5f5cb8f	-1.8313166e-06
69	0xb65df56d	-3.3074423e-06
70	0xb557b173	-8.0351964e-07
71	0xb7f2fb8e	-2.8965787e-05
72	0xaba1eab3	-1.150488e-12
73	0xa9bb8f13	-8.3292876e-14
74	0xaa3076de	-1.567318e-13
75	0xab282e81	-5.9750127e-13
76	0xa9bb4b77	-8.317559e-14
77	0xac4b3ecf	-2.88829e-12
78	0xad1724d8	-8.591537e-12
79	0xaac97c06	-3.579083e-13
80	0xab4607b3	-7.0354416e-13
81	0xabc41c9d	-1.3934579e-12
82	0xaac948f8	-3.5755405e-13
83	0xad62b5c3	-1.2886972e-11
84	0xb17ba5a1	-3.6619456e-09
85	0xb1c07615	-5.60136e-09
86	0xb2d32ef2	-2.4584981e-08
87	0xb37884c9	-5.7862767e-08
88	0xb1c03a55	-5.594567e-09
89	0xb44779e6	-1.8577666e-07
90	0x3c897591	0.016779693
91	0x3ad2bbfb	0.0016077751
92	0x3d9573f2	0.072975054
93	0x3bc4de01	0.0060079102
94	0x3ad28678	0.0016061803
95	0x3da3ed14	0.080042034
96	0x3e774096	0.24145731
97	0x3c5435cd	0.01295228
98	0x3f030829	0.51184326
99	0x3e961cb5	0.29318777
100	0x3c53ff8d	0.012939346
101	0x3f1ae579	0.605064
102	0x33740bac	5.6821293e-08
103	0x3124939b	2.3949045e-09
104	0x31b7a25e	5.34446e-09
105	0x3224b833	9.587938e-09
106	0x31246ad0	2.3925857e-09
107	0x33b8f8ca	8.613422e-08
108	0xb8e616d1	-0.000109715045
109	0xb6b92451	-5.5176574e-06
110	0xb98954b9	-0.000261938
111	0xb90df6d0	-0.00013538753
112	0xb6b8f445	-5.512064e-06
113	0xb980eab4	-0.0002458893
114	0x32e64936	2.6808817e-08
115	0x309163e3	1.0578528e-09
116	0x31e13dc1	6.5553825e-09
117	0x31224b4e	2.3616908e-09
118	0x30913fb5	1.0568245e-09
119	0x33240965	3.819277e-08
120	0xbae2e083	-0.0017309341
121	0xb899e23c	-7.337748e-05
122	0xb937d370	-0.00017531007
123	0xb999d705	-0.00029342636
124	0xb899bbca	-7.330587e-05
125	0xbb2cf308	-0.0026389975
126	0xbd9b5136	-0.07583849
127	0xbb911570	-0.0044276044
128	0xbe032555	-0.1280721
129	0xbd9fa574	-0.077952296
130	0xbb90f02e	-0.004423163
131	0xbe3770ef	-0.17914174
132	0x354b7248	7.5789694e-07
133	0xb4978578	-2.8223053e-07
134	0xb519b36c	-5.7258035e-07
135	0xb67fc6fc	-3.8113785e-06
136	0xb49757ae	-2.8189737e-07
137	0xb7185117	-9.078786e-06
138	0xaaedeee5	-4.2265423e-13
139	0xa8d58ba6	-2.3708313e-14
140	0xa9933dd0	-6.538834e-14
141	0xaa18f98e	-1.3586894e-13
142	0xa8d54257	-2.367652e-14
143	0xab6b3d74	-8.3574055e-13
144	0xbd060a9e	-0.03272497
145	0xba9e63ff	-0.0012084245
146	0xbc6e77c6	-0.014554923
147	0xbcfda55f	-0.030962644
148	0xba9e3d3a	-0.001207269
149	0xbd5d4343	-0.054019224
150	0xae43b88b	-4.4501774e-11
151	0xac0648d6	-1.9082977e-12
152	0xac931690	-4.1804962e-12
153	0xad0bd8f5	-7.949409e-12
154	0xac062749	-1.9064353e-12
155	0xae96a351	-6.850221e-11
156	0x34dd53cf	4.1225437e-07
157	0xb4076425	-1.2609287e-07
158	0xb4990a50	-2.8505974e-07
159	0xb5e9e359	-1.742602e-06
160	0xb407243a	-1.2586034e-07
161	0xb6874b2b	-4.032064e-06
162	0xbd51964e	-0.051168732
163	0xbaca39b7	-0.0015428577
164	0xbd203a08	-0.039117843
165	0xbd6cc0fb	-0.057801228
166	0xbaca0645	-0.0015413245
167	0xbda4dc7b	-0.08049866
168	0x3705c45b	7.973135e-06
169	0x34b42f06	3.3561827e-07
170	0x3543d722	7.295622e-07
171	0x35b48da4	1.3452268e-06
172	0x34b402b5	3.3529582e-07
173	0x374a7952	1.2068385e-05
174	0x372dbd35	1.0355657e-05
175	0x34e97ea0	4.3491764e-07
176	0x35652355	8.536056e-07
177	0x35f02a1b	1.7893648e-06
178	0x34e944b5	4.3449623e-07
179	0x37833870	1.5642698e-05
180	0x2d057eda	7.588341e-12
181	0x2ab888b5	3.2779825e-13
182	0x2b4a4468	7.185975e-13
183	0x2bc578fb	1.4031271e-12
184	0x2ab85b59	3.274835e-13
185	0x2d4ebef7	1.1752147e-11
186	0x3e25ca4c	0.16190451
187	0x3bd85d69	0.0066029322
188	0x3e7f867d	0.24953647
189	0x3e489509	0.19588102
190	0x3bd825c4	0.006596299
191	0x3e7c7363	0.24653392
192	0x3320918f	3.7385288e-08
193	0xb21d14c2	-9.1433225e-09
194	0xb27fcaa4	-1.4889029e-08
195	0xb40910ce	-1.2765233e-07
196	0xb21d039e	-9.139425e-09
197	0xb49d025c	-2.9245246e-07
198	0xb5996044	-1.1427405e-06
199	0xb34de040	-4.7934236e-08
200	0xb3dc856c	-1.02688176e-07
201	0xb44d8a39	-1.9142398e-07
202	0xb34dad8c	-4.7888122e-08
203	0xb5e764ff	-1.7240235e-06
204	0xb2055105	-7.760041e-09
205	0xb0891d37	-9.976365e-10
206	0xb181438f	-3.7620747e-09
207	0xb21f6635	-9.278257e-09
208	0xb088ec1c	-9.962409e-10
209	0xb310990e	-3.3666815e-08
210	0x3c2cd18a	0.010548005
211	0x39e2d8b1	0.00043267527
212	0x3aa93d88	0.0012912014
213	0x3b203b1b	0.0024449292
214	0x39e2a039	0.00043225454
215	0x3c818894	0.015812196
216	0xb9b3e6f1	-0.00034313605
217	0xb7720f56	-1.4427895e-05
218	0xb7d0f0c5	-2.490765e-05
219	0xb8491557	-4.794201e-05
220	0xb771d34c	-1.4413916e-05
221	0xba070794	-0.00051509705
222	0x2c0af5f0	1.9747502e-12
223	0x29bbc652	8.338871e-14
224	0x2a574537	1.911985e-13
225	0x2abadd5f	3.3193844e-13
226	0x29bb97c0	8.3307927e-14
227	0x2c53137f	2.9995726e-12
228	0xb5d98644	-1.6206836e-06
229	0x348fbc37	2.677277e-07
230	0x371df4e7	9.41495e-06
231	0xb61e3324	-2.3573602e-06
232	0x348f9741	2.6745877e-07
233	0x37218c06	9.62895e-06
234	0xb378ff86	-5.7974397e-08
235	0xb166a135	-3.356104e-09
236	0xb26e12b1	-1.3857673e-08
237	0xb2985ead	-1.7738182e-08
238	0xb1665ca1	-3.3522058e-09
239	0xb3fe9677	-1.1855166e-07
240	0xb6032275	-1.9540578e-06
241	0x35a0d926	1.1984127e-06
242	0x36bd45ca	5.6407634e-06
243	0x378d05b3	1.6811164e-05
244	0x35a0aec0	1.1971788e-06
245	0x38211351	3.840338e-05
246	0xb8317cd8	-4.231636e-05
247	0xb5ef694c	-1.7837533e-06
248	0xb6857687	-3.9775073e-06
249	0xb6efac75	-7.1428317e-06
250	0xb5ef2e20	-1.7820312e-06
251	0xb88686f3	-6.414754e-05
252	0xbd5c1082	-0.05372668
253	0xbb424397	-0.0029642337
254	0xbe12820b	-0.1430742
255	0xbd784ca3	-0.06061996

exp_avg_sq f4 [128, 6]
0	0x3ae8c450	0.0017758701
1	0x36d69ba7	6.3958173e-06
2	0x3923fed1	0.00015639818
3	0x3b10739a	0.002204156
4	0x36d63288	6.3835796e-06
5	0x3c0f99b3	0.008764672
6	0x21beba73	1.2924253e-18
7	0x20420fec	1.6437707e-19
8	0x21e49b21	1.5490943e-18
9	0x223a06ec	2.5211365e-18
10	0x2041b0e2	1.6406261e-19
11	0x2526d58a	1.4470555e-16
12	0x3bd6b388	0.0065521635
13	0x374aa1c0	1.2077799e-05
14	0x3b121690	0.002229128
15	0x3a46a03f	0.0007576979
16	0x374a3c73	1.2054213e-05
17	0x3c4defe0	0.012569398
18	0x33b55295	8.443491e-08
19	0x2fa9b406	3.0868835e-10
20	0x3182afa2	3.803465e-09
21	0x329a94f4	1.7995696e-08
22	0x2fa965f0	3.0813352e-10
23	0x34fdadf6	4.7251496e-07
24	0x1ecabd0a	2.1465767e-20
25	0x1c2623ef	5.4971236e-22
26	0x1d8837cd	3.6056597e-21
27	0x1e6051a2	1.18753425e-20
28	0x1c25d555	5.4869646e-22
29	0x210e95ab	4.8309555e-19
30	0x3a4a5af6	0.0007719243
31	0x3758bfb9	1.2919242e-05
32	0x3c60c5ae	0.0137190055
33	0x3a86d24b	0.0010286061
34	0x37585072	1.2893333e-05
35	0x3c7ff50d	0.0156223895
36	0x2e6fed1d	5.4552907e-11
37	0x2bb5c059	1.2914211e-12
38	0x2d1bbf46	8.853201e-12
39	0x3029a0fe	6.1710625e-10
40	0x2bb56661	1.2889239e-12
41	0x30aa4423	1.2388494e-09
42	0x25014dd3	1.1215334e-16
43	0x22f8dcc6	6.7454288e-18
44	0x25dfa8c0	3.8798683e-16
45	0x26b0985d	1.2253751e-15
46	0x22f85e69	6.7320495e-18
47	0x27c47147	5.4523744e-15
48	0x3d2b1d8d	0.04177623
49	0x392eaa0a	0.00016657278
50	0x3bb521f0	0.0055277273
51	0x3c91ed18	0.01781325
52	0x392e521f	0.00016624526
53	0x3e98e9fb	0.29866013
54	0x3d3051ce	0.043046765
55	0x38f69f88	0.00011759909
56	0x3dc2b54e	0.095072374
57	0x3da24675	0.07923595
58	0x38f621d0	0.00011736492
59	0x3e04c80d	0.12966938
60	0x345d2dcf	2.0598894e-07
61	0x315610bb	3.1150609e-09
62	0x33764c6a	5.7345837e-08
63	0x35cfd47a	1.5484541e-06
64	0x3155a54e	3.1089544e-09
65	0x365eb456	3.3185547e-06
66	0x32144971	8.6314325e-09
67	0x2d90038e	1.6372483e-11
68	0x3158e589	3.1562613e-09
69	0x318aa184	4.034691e-09
70	0x2d8fbc81	1.634093e-11
71	0x3279cdc8	1.4540497e-08
72	0x20d0882a	3.5326676e-19
73	0x1ed52178	2.2566095e-20
74	0x206e663d	2.0193212e-19
75	0x21850319	9.01325e-19
76	0x1ed4bbb4	2.2524005e-20
77	0x23b4ef5d	1.9617013e-17
78	0x1f2a9663	3.6123297e-20
79	0x1d3a34da	2.4644219e-21
80	0x1fecac38	1.002348e-19
81	0x1fc7b3e2	8.457737e-20
82	0x1d39d635	2.4595289e-21
83	0x220f779a	1.944343e-18
84	0x34674036	2.1536911e-07
85	0x3132d484	2.602321e-09
86	0x3465fff1	2.1420398e-07
87	0x33aa768a	7.937804e-08
88	0x31327a5c	2.5971962e-09
89	0x362844e9	2.5074062e-06
90	0x3d9cf18d	0.0766326
91	0x39d87003	0.00041282186
92	0x3e8e2f79	0.27770594
93	0x3dcbe268	0.09955293
94	0x39d80943	0.0004120563
95	0x3f0ee3cd	0.55816346
96	0x3ed6ffcd	0.41992036
97	0x3b3f6701	0.0029205682
98	0x4056cd05	3.3562634
99	0x3ede35ad	0.43400326
100	0x3b3f051e	0.0029147337
101	0x4099fc13	4.812021
102	0x2cea72d6	6.6634294e-12
103	0x285f46ec	1.23943655e-14
104	0x2bb71de4	1.3011228e-12
105	0x2b6930a7	8.284575e-13
106	0x285ed9bd	1.237069e-14
107	0x2d372ef2	1.041277e-11
108	0x384cc77b	4.882317e-05
109	0x3440c6a6	1.7953661e-07
110	0x38e448a1	0.000108854154
111	0x38f703fe	0.000117786214
112	0x3440649d	1.7917996e-07
113	0x392cb664	0.00016471144
114	0x328986a8	1.6010134e-08
115	0x2d8ba1ff	1.5874411e-11
116	0x32f5f863	2.8634707e-08
117	0x3009f182	5.0183513e-10
118	0x2d8b5a7f	1.5842659e-11
119	0x3255e7ab	1.2450907e-08
120	0x39362a98	0.0001737274
121	0x34c56933	3.6770652e-07
122	0x3779e2b6	1.4894342e-05
123	0x37a2ec23	1.9421865e-05
124	0x34c50951	3.6700888e-07
125	0x3a0e95b2	0.00054391765
126	0x3d8be84f	0.06831419
127	0x39dbaa35	0.0004189775
128	0x3eb1f694	0.34758437
129	0x3da4ab21	0.08040453
130	0x39db3a38	0.0004181431
131	0x3f231bf8	0.6371455
132	0x3538565c	6.867101e-07
133	0x3247301a	1.15942616e-08
134	0x3480bf85	2.3981207e-07
135	0x36d8050d	6.4378896e-06
136	0x3246cace	1.1571229e-08
137	0x3752669c	1.2540866e-05
138	0x2029c9d7	1.438164e-19
139	0x1d8aaefb	3.670922e-21
140	0x2041756d	1.6386589e-19
141	0x206330fd	1.9243857e-19
142	0x1d8a69aa	3.663755e-21
143	0x22612a32	3.0515524e-18
144	0x3cc689f6	0.024235707
145	0x399975c6	0.00029270182
146	0x3dbd3ec5	0.09240488
147	0x3e0f8161	0.14014198
148	0x3999280c	0.0002921227
149	0x3ecb8229	0.39747742
150	0x1fa26013	6.876861e-20
151	0x1d419600	2.5620885e-21
152	0x1ebc088e	1.9908812e-20
153	0x20e4c07b	3.8752075e-19
154	0x1d41476c	2.5580262e-21
155	0x22218f69	2.189549e-18
156	0x34b07177	3.286511e-07
157	0x3225978a	9.63872e-09
158	0x34514f24	1.9493433e-07
159	0x36092348	2.0435127e-06
160	0x32254476	9.61983e-09
161	0x37225b49	9.677206e-06
162	0x3e148d6b	0.14507072
163	0x3a46c1ae	0.0007581961
164	0x3f0df962	0.5545865
165	0x3e4eeba8	0.20207083
166	0x3a46658d	0.0007568233
167	0x3f764fc0	0.9621544
168	0x32959c36	1.741692e-08
169	0x2e07ce0f	3.0878463e-11
170	0x2f4d8c0b	1.8694395e-10
171	0x318fff03	4.1908392e-09
172	0x2e078b9e	3.081945e-11
173	0x32f7688a	2.8802123e-08
174	0x3574ed38	9.124228e-07
175	0x30f16dfa	1.7566315e-09
176	0x3486b054	2.508774e-07
177	0x341f87ad	1.4857387e-07
178	0x30f0f4f9	1.7531924e-09
179	0x35c09358	1.4347997e-06
180	0x1e9b0793	1.6414396e-20
181	0x1c2835dc	5.565615e-22
182	0x1e4c51e1	1.0816602e-20
183	0x1ec3e179	2.0739681e-20
184	0x1c27e117	5.5546587e-22
185	0x2102f774	4.4373215e-19
186	0x3f71224e	0.9419297
187	0x3b8be0e4	0.0042687524
188	0x40b4ef77	5.6542315
189	0x3f1e30ce	0.6179322
190	0x3b8b995a	0.0042602243
191	0x40c94fc1	6.2909856
192	0x321d13c3	9.143096e-09
193	0x2f18d8cc	1.3901341e-10
194	0x317d5298	3.6863295e-09
195	0x33aea239	8.1320145e-08
196	0x2f188b42	1.3873794e-10
197	0x3416eec6	1.4056704e-07
198	0x2d726b5c	1.3779946e-11
199	0x29291d80	3.7551125e-14
200	0x2a523f63	1.8673738e-13
201	0x2c24231f	2.3325298e-12
202	0x2928cca8	3.7481005e-14
203	0x2e29f58f	3.864425e-11
204	0x2de9c461	2.6576243e-11
205	0x2bc71f13	1.4148425e-12
206	0x2eaa3d75	7.741622e-11
207	0x3054547f	7.7245227e-10
208	0x2bc6b9f8	1.4120363e-12
209	0x309dc9e6	1.1480636e-09
210	0x3c250543	0.010072055
211	0x37c202cd	2.3127906e-05
212	0x3a65ddd5	0.0008768712
213	0x3b94326e	0.0045226132
214	0x37c1a256	2.3082986e-05
215	0x3d0ad49b	0.033894163
216	0x3666d329	3.4395582e-06
217	0x3211ae53	8.479748e-09
218	0x34f6f463	4.5998885e-07
219	0x367ad222	3.7375216e-06
220	0x3211678a	8.463653e-09
221	0x371581d6	8.911322e-06
222	0x1e39b042	9.830268e-21
223	0x1a3ea7b1	3.942654e-23
224	0x1d772341	3.2708404e-21
225	0x1cf7d8ec	1.6401162e-21
226	0x1a3e4c05	3.9352487e-23
227	0x1f145a09	3.1414694e-20
228	0x34ac8802	3.2136455e-07
229	0x31ae9b8b	5.0817497e-09
230	0x367d9341	3.778565e-06
231	0x34ec702f	4.404005e-07
232	0x31ae41ed	5.0715614e-09
233	0x368e49ac	4.2405063e-06
234	0x33592b76	5.0563777e-08
235	0x3027ec61	6.109016e-10
236	0x333db750	4.4171713e-08
237	0x329f1236	1.8518318e-08
238	0x302797bf	6.096989e-10
239	0x3519365c	5.7076045e-07
240	0x37f23127	2.8871536e-05
241	0x351a8148	5.75576e-07
242	0x38595f2f	5.182548e-05
243	0x39049124	0.0001264257
244	0x351a34f2	5.7446516e-07
245	0x3a4297e4	0.0007423146
246	0x31f311ba	7.074246e-09
247	0x2de2951b	2.5759441e-11
248	0x2fccdc14	3.726376e-10
249	0x30620f14	8.223975e-10
250	0x2de225d1	2.571002e-11
251	0x32e7e1f3	2.699469e-08
252	0x3dbb5fc9	0.09149129
253	0x3a2c0d31	0.0006563245
254	0x3f12f37e	0.5740279
255	0x3de94096	0.11389272

exp_avg f4 [128]
0	0xb914ed72	-0.00014202835
1	0xa985388d	-5.9161965e-14
2	0xba7d0cfc	-0.0009653119
3	0x36e0af64	6.6961384e-06
4	0x2b83ba0d	9.359749e-13
5	0xb80a93aa	-3.3039287e-05
6	0xb2c49fb0	-2.289002e-08
7	0xabd0d155	-1.483739e-12
8	0xb8800c22	-6.1057755e-05
9	0x3b19807f	0.0023422537
10	0xb3ff4fb9	-1.1888864e-07
11	0xb5d7b171	-1.607039e-06
12	0xaa3b4b72	-1.6635112e-13
13	0xab4948f8	-7.151081e-13
14	0xb2403a55	-1.1189134e-08
15	0x3b528677	0.0032123604
16	0x3cd3ff8f	0.025878696
17	0x31a46acf	4.785171e-09
18	0xb738f449	-1.1024132e-05
19	0x31113fb3	2.1136486e-09
20	0xb919bbca	-0.00014661174
21	0xbc10f02e	-0.008846326
22	0xb51757ae	-5.6379474e-07
23	0xa9554259	-4.7353048e-14
24	0xbb1e3d3a	-0.002414538
25	0xac862749	-3.8128706e-12
26	0xb487243a	-2.5172068e-07
27	0xbb4a064a	-0.0030826502
28	0x353402b5	6.7059165e-07
29	0x356944b5	8.6899246e-07
30	0x2b385b59	6.54967e-13
31	0x3c5825c4	0.013192598
32	0xb29d039e	-1.827885e-08
33	0xb3cdad8c	-9.5776244e-08
34	0xb108ec1c	-1.9924817e-09
35	0x3a62a039	0.0008645091
36	0xb7f1d34e	-2.8827835e-05
37	0x2a3b97c0	1.6661585e-13
38	0x350f9741	5.3491755e-07
39	0xb1e65ca5	-6.7044135e-09
40	0x3620aec0	2.3943576e-06
41	0xb66f2e20	-3.5640624e-06
42	0xbbc2120e	-0.0059225624
43	0x370109d4	7.6912875e-06
44	0xb122ade1	-2.3672941e-09
45	0xb90b3583	-0.00013276008
46	0x2d8429a6	1.5025158e-11
47	0x30e1a5bd	1.641801e-09
48	0x35836b25	9.791444e-07
49	0xb4d36df2	-3.9381808e-07
50	0xb40cfe12	-1.3130946e-07
51	0xac3fe292	-2.7268504e-12
52	0xafacf47c	-3.1460334e-10
53	0xb381e104	-6.047961e-08
54	0xaa8b8e3f	-2.4790063e-13
55	0xb63c1ef2	-2.8032196e-06
56	0xb7fb6f16	-2.997326e-05
57	0xb4729aa0	-2.2594259e-07
58	0xb88f87bd	-6.8440546e-05
59	0xb52e0966	-6.483373e-07
60	0x3bcbc648	0.0062187053
61	0x36188a26	2.2730178e-06
62	0xb5512036	-7.790544e-07
63	0xb13a058c	-2.7069715e-09
64	0x2de9ef39	2.659527e-11
65	0xb16d2564	-3.4509293e-09
66	0x386adb8e	5.5994424e-05
67	0x37b2b203	2.1302147e-05
68	0x359fe7b3	1.1913856e-06
69	0xba31912f	-0.0006773648
70	0x3a821d17	0.0009926882
71	0x3cc291d4	0.023751177
72	0xacb532cb	-5.1499686e-12
73	0xb4c9094f	-3.744594e-07
74	0x34a761c5	3.117731e-07
75	0x352e6681	6.4969214e-07
76	0xb706d820	-8.037343e-06
77	0x39592957	0.00020710133
78	0x2aa848ac	2.989322e-13
79	0x30dbc61d	1.5990654e-09
80	0xbb056beb	-0.0020358514
81	0x3c2d02e7	0.010559774
82	0xb732d212	-1.0658538e-05
83	0xb703e5b2	-7.861689e-06
84	0xb40deb1c	-1.321718e-07
85	0x2b492313	7.145822e-13
86	0x28928ecb	1.6271183e-14
87	0x27281665	2.3326824e-15
88	0xa9d980a2	-9.65905e-14
89	0xaef4aeb3	-1.1126868e-10
90	0x2f813a46	2.350637e-10
91	0xb70ed1fb	-8.512749e-06
92	0xb68c6fd6	-4.1853446e-06
93	0xab2db59b	-6.1713975e-13
94	0xbc91c66e	-0.017794814
95	0x3b019a75	0.0019775901
96	0x35a66d4e	1.2399776e-06
97	0x27a6e79e	4.6325375e-15
98	0x2b339d3b	6.3811776e-13
99	0xa69d1597	-1.0899915e-15
100	0xabb7dee4	-1.3064797e-12
101	0xb290e575	-1.6868151e-08
102	0x341ff028	1.4895397e-07
103	0xb343963a	-4.5538606e-08
104	0x382c5068	4.108288e-05
105	0xb606dd67	-2.009643e-06
106	0x3861d64a	5.3843753e-05
107	0xbb48adc8	-0.003062116
108	0x365133bb	3.1173538e-06
109	0x29f0938a	1.0683735e-13
110	0x30887c2c	9.930594e-10
111	0x3c4e325c	0.012585249
112	0x3b028f15	0.001992171
113	0xb367ba1a	-5.3953137e-08
114	0xb48bc1ef	-2.6031873e-07
115	0xb29a9880	-1.7997309e-08
116	0x3c377916	0.011198303
117	0x36e6a22c	6.8734134e-06
118	0xb58172e1	-9.644683e-07
119	0xba3fba48	-0.000731383
120	0xbaa43673	-0.0012528434
121	0x2fcbaa91	3.704668e-10
122	0x3a9289df	0.0011180005
123	0x29992bac	6.802141e-14
124	0xaca2dc4d	-4.6287752e-12
125	0x2b8db463	1.006872e-12
126	0xb543656a	-7.279074e-07
127	0x39b34282	0.00034191093

exp_avg_sq f4 [128]
0	0x37d63288	2.5534318e-05
1	0x2141b0e2	6.5625046e-19
2	0x384a3c73	4.821685e-05
3	0x30a965ef	1.232534e-09
4	0x1d25d555	2.1947858e-21
5	0x38585072	5.1573334e-05
6	0x2cb56662	5.155696e-12
7	0x23f85e69	2.6928198e-17
8	0x3a2e521f	0.000664981
9	0x39f621d2	0.00046945974
10	0x3255a54e	1.2435818e-08
11	0x2e8fbc81	6.536372e-11
12	0x1fd4bbb6	9.0096034e-20
13	0x1e39d635	9.8381154e-21
14	0x32327a5c	1.0388785e-08
15	0x3ad80943	0.0016482252
16	0x3c3f051f	0.011658936
17	0x295ed9bd	4.948276e-14
18	0x3540649d	7.1671985e-07
19	0x2e8b5a7f	6.3370635e-11
20	0x35c50951	1.4680355e-06
21	0x3adb3a38	0.0016725725
22	0x3346cacd	4.6284914e-08
23	0x1e8a69a9	1.4655018e-20
24	0x3a99280b	0.0011684907
25	0x1e41476b	1.0232104e-20
26	0x33254476	3.847932e-08
27	0x3b46658e	0.0030272934
28	0x2f078b9e	1.232778e-10
29	0x31f0f4f9	7.0127695e-09
30	0x1d27e117	2.2218635e-21
31	0x3c8b995a	0.017040897
32	0x30188b43	5.549518e-10
33	0x2a28cca8	1.4992402e-13
34	0x2cc6b9f8	5.648145e-12
35	0x38c1a257	9.233195e-05
36	0x3311678a	3.385461e-08
37	0x1b3e4c06	1.5740996e-22
38	0x32ae41ec	2.0286244e-08
39	0x312797bf	2.4387956e-09
40	0x361a34f2	2.2978606e-06
41	0x2ee225d4	1.028401e-10
42	0x3b2bb5ca	0.0026200884
43	0x31244555	2.3904552e-09
44	0x2d2065c9	9.117548e-12
45	0x3a22a36c	0.00062041613
46	0x21154e04	5.0586416e-19
47	0x26861ac1	9.30537e-16
48	0x3540be7a	7.1802754e-07
49	0x331146ae	3.3824726e-08
50	0x2d5d5bed	1.2582807e-11
51	0x208104d6	2.185665e-19
52	0x2c065147	1.9087663e-12
53	0x33722e08	5.638688e-08
54	0x1f349bbc	3.8245303e-20
55	0x35008035	4.787028e-07
56	0x35e228a7	1.6850144e-06
57	0x2c1e2839	2.2475479e-12
58	0x3588d295	1.0194077e-06
59	0x3480284f	2.3871186e-07
60	0x3bf711cf	0.0075399647
61	0x36374b4c	2.7312954e-06
62	0x352038ae	5.9687125e-07
63	0x2d71cbd6	1.3744525e-11
64	0x2ba6ed7f	1.1860928e-12
65	0x32c7effb	2.327578e-08
66	0x332a1dec	3.9608423e-08
67	0x3add8f9c	0.0016903761
68	0x3806519a	3.2024087e-05
69	0x398827c0	0.00025969557
70	0x38c8d888	9.577075e-05
71	0x3c469b75	0.012122025
72	0x2273d88f	3.3047286e-18
73	0x322efe58	1.0185964e-08
74	0x355cb5fe	8.222122e-07
75	0x34cfd5e5	3.8712383e-07
76	0x314c5d6d	2.9739013e-09
77	0x399b50ce	0.00029624108
78	0x1fa5cf3b	7.022305e-20
79	0x26d8cc16	1.5043328e-15
80	0x3b38700b	0.0028142955
81	0x3b19c742	0.0023464714
82	0x3722c40b	9.701597e-06
83	0x3ab46086	0.0013761676
84	0x361fac43	2.3793116e-06
85	0x1dd3e65b	5.6089417e-21
86	0x1d089604	1.8077006e-21
87	0x1ce3e4ab	1.5080709e-21
88	0x1d0ee271	1.891061e-21
89	0x233b9bb2	1.017026e-17
90	0x28f3c34c	2.7063116e-14
91	0x35544204	7.907222e-07
92	0x390382a6	0.00012541804
93	0x1cbd68e0	1.253408e-21
94	0x3c419107	0.011814362
95	0x3a6b12a1	0.00089673145
96	0x3506ca73	5.021349e-07
97	0x1c407102	6.367353e-22
98	0x1e51f729	1.1115479e-20
99	0x1afdd219	1.0497778e-22
100	0x2217e82d	2.0587229e-18
101	0x2a0f1049	1.2706601e-13
102	0x3264e102	1.33225075e-08
103	0x2f1f949f	1.4513767e-10
104	0x31b931bf	5.389864e-09
105	0x34a69f8d	3.1035998e-07
106	0x361339a9	2.193827e-06
107	0x3b89bff2	0.00420379
108	0x36633444	3.3856059e-06
109	0x1b91f1f0	2.4144586e-22
110	0x2a35ee82	1.6158778e-13
111	0x3af6a7d0	0.0018818323
112	0x3bd48116	0.006485115
113	0x2bb1213f	1.2585834e-12
114	0x2c82ae22	3.714155e-12
115	0x2f99d6de	2.798321e-10
116	0x3aec9500	0.0018049777
117	0x35570a74	8.010895e-07
118	0x34c3abfd	3.6446718e-07
119	0x3b34fad3	0.0027615323
120	0x3b029737	0.0019926557
121	0x2f667b5f	2.0962208e-10
122	0x3ac94031	0.0015354214
123	0x1bc17fcf	3.2011766e-22
124	0x26600eee	7.7735845e-16
125	0x22507a2c	2.8253934e-18
126	0x2f7abae7	2.2803769e-10
127	0x37891d4e	1.6345319e-05
