MLAgentsProject/results/MoveToGoalForces1/MoveToGoal.onnx (onnx, 72461 bytes, 7 tensors)

action_model._continuous_distribution.log_sigma f4 [1, 2]
00000000: 8d15 fdbe 7714 0abf
-0.49430504 -0.53937477

action_model._continuous_distribution.mu.bias f4 [2]
00000000: 8928 9e3d 4469 803d
0.07722575 0.06270078

action_model._continuous_distribution.mu.weight f4 [2, 128]
00000000: 174e 32bd 4334 06bd feeb c23d e509 e7bc
00000010: ee63 923d 5fe5 10bd a4fb 86bd e3ac f23b
00000020: 5ea8 923d 2fbc f9bc bb1b 34bc 0412 9bbd
00000030: e8a9 68bd 1cef ecba 1412 5fbc 8b5e 593d
00000040: 234e 9abc a0ff 7dbc 4307 85bc e2e1 043d
00000050: d16a 5a3d 7dbe 4ebd 9c2c 353d ee33 c3bc
00000060: 25c2 60bd 285c d7ba 086f 87bd a5e3 893d
00000070: 8ad0 80bd 9f69 dc3d 661a 64bc 6611 bfbc
00000080: 8318 8dbc d12a 9c3d 04ba 74bc 0635 623d
00000090: eee6 6b3c 4ab1 573d a6fd 55bd 279b 9d3d
000000a0: 3011 1a3e c2d3 243d 7dad 1fbe 47fc 4d3d
000000b0: c1d7 ba3c 02d7 96bd 1487 033e 269d 8e3d
000000c0: 74cf 923d 7a7a 2ebd a88a 18bc ccd3 43bc
000000d0: 062a d4bd 0dec edbc ff83 033d 764b e33d
000000e0: 927a 683b 102b 133e 17fd 1a3e 6d33 8bbc
000000f0: d441 68bc af7f 5e3c a545 21bd 80e2 7dbd
00000100: 1b92 45bc c7a3 a4bb 8769 843c 7797 a1bc
00000110: 5db6 21bc 4110 70bc eda9 6ebc e8ab 8ebd
00000120: 97ae 67bc e85b ccbc 0264 9fbd d653 c63c
00000130: 9e46 3a3c 484a fa3b 57f5 aa3d 8d59 4d3d
00000140: 08a8 c63c bd56 ce3d 77c9 583c 606a 243e
00000150: 32f6 ab3d c775 99bc 1c24 72bd 8b48 9cbd
00000160: 168c a53d 872c 153e bdaa 83bc bc06 db3d
00000170: 310b 623d 79e8 093d 7bf2 36bd bd1c b6bc
00000180: aa03 e33d dee1 b63d 5c49 cdbc 5d57 f63b
00000190: 315f 7cbd eac5 643d 31e5 eabc c09f 68bd
000001a0: b838 ef3b 370a 2f3d 4a85 efbc 1495 3bbc
000001b0: bfda 9f3d 70f7 963d 71f9 1b3d 3fa3 a73c
000001c0: 886c 123d 2b99 4fbd 7caf ccbc e543 60bd
000001d0: 5e0f debd 7342 9dbd c193 f33a 03bc 1bbd
000001e0: 0de9 463c 4d16 5bbd 49a6 a4bd 7f3e 203d
000001f0: f005 39bc 6ee6 21bd 1a31 dd3d bcd2 3a3d
00000200: eece a03c beef 9bbc 2afa b43c c640 2d3c
00000210: a092 8dbc 83e4 8cbc 9fd2 4dbd 4e48 c3bc
00000220: 6e8c b5bd 0d60 563d b31d e8bc 2500 78bd
00000230: e8ce 15bd e35b 99bd ad27 a93c 8ce1 15be
00000240: 93bf fabc 3d8c d5bc ed79 94bc b92a 543c
00000250: 33f1 083c 2d3e 3a3b ec0b 6bbb a334 413c
00000260: dc95 1d39 ab11 5ebd dfde e73c a78e dd3d
00000270: 7c2c bb3a 9652 a1bd 1eb0 36bd d3ee e2bc
00000280: 20e8 c6bc e5f3 3abd 4a60 17bd 3fa8 1dbd
00000290: c1ef 25bd 8693 b6bc 093c c0bc 472e 03be
000002a0: f2b2 cbbc eaca be3c 3c99 f33d f7b2 72bc
000002b0: da89 123d 60e0 80bb bb99 2cbd 7cea 09bd
000002c0: 470c 44bd b983 02bd 4c81 fdbd c075 93bd
000002d0: e923 f5bd 8175 91bd b9ec a2bd 4d1c dabd
000002e0: de29 08bd 60a1 0cbd 16f1 6c3d 0f67 10bd
000002f0: afaf d9bc 93ba e4bc cf47 aabc 1dfa abbc
00000300: 5819 00bd 5f28 a3bd a712 18bd 7d5e c53c
00000310: ab77 a3bc 00d9 17bc 346f dfbc 5df3 00bd
00000320: 847c 1cbd 132b f6bc 0aec 3bbd 2d70 d0bc
00000330: 02b6 3abd ad52 dfbc 14b5 28bd b5b7 a8bc
00000340: 3793 96bc 3f0f 0bbc 2af8 a0bd 2382 363c
00000350: 16fd 38bd 898f 093d a1d5 fabc 6b74 823c
00000360: 9568 d2bb f464 ebbb 00c2 96bc bcb9 c5bd
00000370: bd4c c5bd 44bc 65bd 01bc 65bb 78d8 a0bc
00000380: 277b 94ba f24f c33c 0d82 00bd 9d14 753c
00000390: 2dcb e4bc f91f c6bd 7b01 d9bc 36f6 ccbd
000003a0: c710 91bd 94ad 36bd df28 10bd 11b6 b6bd
000003b0: da94 89bd ab4e 61bd 1828 9dbd 7bd9 783c
000003c0: b205 133d a9d1 16bc 7010 b4bc b661 30bd
000003d0: d054 d43b 7b49 7bbc 376f d03c e446 c63c
000003e0: 4a37 9fbc c661 28bd eb88 a7bc 32c3 49bd
000003f0: eda0 46bd 0310 94bc 6740 a83c 654e b0bd
-0.043531504 -0.032764684 0.09517668 -0.02820296 0.07147966 -0.035374995 -0.065909654 0.0074058636
0.0716102 -0.03048524 -0.01099294 -0.075717956 -0.05680266 -0.0018076631 -0.01361515 0.05306868
-0.018836087 -0.01550284 -0.016238814 0.03244198 0.053324524 -0.050474633 0.044231996 -0.023828473
-0.05487265 -0.0016430663 -0.066129744 0.06732873 -0.06289776 0.10762333 -0.0139223095 -0.023323726
-0.017223602 0.07625354 -0.014936928 0.05522635 0.01439832 0.05265931 -0.05224385 0.076956086
0.15045619 0.04024101 -0.15593524 0.05028942 0.022807958 -0.07365228 0.12844497 0.069635674
0.07168475 -0.04259727 -0.009310402 -0.011952352 -0.10359578 -0.029043222 0.032108303 0.110983774
0.0035473448 0.14371896 0.15135609 -0.016992295 -0.014175851 0.013580247 -0.03937306 -0.061983585
-0.01205876 -0.0050244066 0.0161636 -0.019725544 -0.009870139 -0.014652313 -0.014566881 -0.06966382
-0.014140747 -0.024946168 -0.07782747 0.024209898 0.0113693755 0.0076382495 0.08347576 0.05013423
0.024250045 0.10075138 0.013231627 0.16056204 0.083965674 -0.018732918 -0.059116468 -0.07631024
0.0808336 0.14567767 -0.016072625 0.10694644 0.055186454 0.03366897 -0.04466484 -0.0222305
0.11084683 0.089297995 -0.025059395 0.0075177387 -0.06161422 0.055852808 -0.02867374 -0.056792974
0.0073004626 0.04273435 -0.029238362 -0.011449117 0.078053944 0.07371414 0.038079683 0.020463584
0.035748035 -0.05068318 -0.024986021 -0.05475225 -0.10842775 -0.0767869 0.0018583463 -0.0380211
0.012140525 -0.053488065 -0.08039529 0.0391221 -0.0112929195 -0.039526395 0.10800381 0.04561113
0.019629922 -0.019035216 0.022091944 0.010574525 -0.01728183 -0.017198807 -0.050249692 -0.023838188
-0.088646755 0.052337695 -0.028334474 -0.060547013 -0.036574274 -0.07488229 0.020648802 -0.1463682
-0.030608928 -0.026067847 -0.018124545 0.012949639 0.008358288 0.0028418407 -0.003586526 0.011792335
0.00015028514 -0.05421607 0.028304515 0.108182244 0.0014280225 -0.0787708 -0.044601552 -0.02770177
-0.024280608 -0.045642752 -0.036957063 -0.03849053 -0.04051185 -0.022287142 -0.023466127 -0.12810622
-0.024865601 0.023290116 0.118944615 -0.014813176 0.035775997 -0.0039329976 -0.042138796 -0.033670887
-0.04786327 -0.0318639 -0.12378177 -0.072001934 -0.1196974 -0.0710249 -0.079553075 -0.10649929
-0.033243053 -0.034333587 0.057847105 -0.035254534 -0.02657303 -0.027920997 -0.020786194 -0.020993287
-0.03127417 -0.079666846 -0.037127163 0.024092907 -0.019954523 -0.009268045 -0.027274705 -0.03148209
-0.038204685 -0.030049836 -0.0458794 -0.025444115 -0.045583732 -0.027261103 -0.041188315 -0.02059541
-0.018380744 -0.008487522 -0.078598335 0.011139425 -0.045163237 0.03358415 -0.030619444 0.015924653
-0.0064211586 -0.0071836654 -0.018403053 -0.09654567 -0.09633777 -0.056087747 -0.0035054686 -0.01963447
-0.0011328206 0.023841832 -0.031374026 0.014958528 -0.027928913 -0.09674067 -0.026489964 -0.100078985
-0.07083278 -0.04459913 -0.035195228 -0.08921445 -0.06717844 -0.055006664 -0.07673663 0.01518857
0.035894103 -0.00920526 -0.021980494 -0.043061934 0.006479837 -0.015337343 0.025443656 0.024203725
-0.019435544 -0.04110887 -0.02045103 -0.04925842 -0.048493315 -0.018074041 0.020538522 -0.086087026

network_body._body_endoder.seq_layers.0.bias f4 [128]
00000000: 16c9 88bd cba6 0d3d cfc3 1dbd 48c3 79bd
00000010: 997d ce3d 0fee 01be b251 a23d 72fe 06be
00000020: 3bc8 263e 6082 c4bd 1367 30be f3a1 1a3e
00000030: 222a 67be acf8 b4bd e2df c73b 6959 41be
00000040: f748 90be 620a d13d 2625 563c a22b 9fbd
00000050: 058d a4be 82a5 333e fe6c 3cbe 609c be3c
00000060: 3cc9 f63d 065f f3bd 03a2 1ebe 074a 503e
00000070: 4dec 2abe e290 c43c c445 acbd 42e7 89be
00000080: 56c6 79bb a023 d73b 93de c8bc 472c b9bd
00000090: e4d4 3cbe 9fa6 36be b238 8fbb 013f ecbc
000000a0: 3e96 00bd 0f88 6bbe 66b6 003e 4e9f 37bd
000000b0: d0b5 7bbd 78a5 b1be eb4b e7bd 8b58 70bb
000000c0: 81ed 0cbe adc0 d53d 6b5b 56bd b60c efbd
000000d0: 6d2f a23c b463 7f3d 2d45 8fbd be65 49be
000000e0: 31ad 923d 054e 88bc b619 bfbd b3a6 693e
000000f0: 2ca7 6dbe 334d 6a3d 4e00 6cbe 9e3c 07be
00000100: f692 f53c e006 45bd dcde 31be d6e3 39be
00000110: 0053 e13d f2a7 30be c61e 483e 1932 80be
00000120: fa17 d6bd d12a b13d 7c86 573e dd3a da3d
00000130: b4e1 be3d 8203 83bd 0173 b3be 4cba bb3d
00000140: b7e7 463d 6eb1 0fbb 9d2e 22be 76df 38bd
00000150: 1afd cabc f2c7 123e 269f 23bd 822c 9cbc
00000160: 981a 4abc 5e90 b6bd a807 bcbd 54b9 6ebd
00000170: b1c6 bfbd 4612 11bd 4162 7fbd fafe 763d
00000180: a8d6 71be cbff ddbd 04ee d7bd 63af 9d3d
00000190: d1df d1bb 1a6f 873d c637 e3bb 3575 f6bd
000001a0: a6df a23d ce9f 9e3d f9ca 16be 91c0 78bc
000001b0: 73b8 ecbd c113 bd3d c6d2 67bd b975 c7bc
000001c0: 6134 9dbd 9f41 8fbd b46c 1cbc f30c 0b3e
000001d0: ff32 a5bd 1653 01be c918 d83c 96f8 4fbe
000001e0: 064e 063e 8743 c1bd 994d 95bd a150 41bd
000001f0: 47f2 003b e1d7 af3d d27f 4fbd 4f13 45be
-0.06678979 0.034582894 -0.038516816 -0.06097725 0.100825496 -0.12688468 0.079257384 -0.13183
0.1628732 -0.095951796 -0.1722682 0.15100841 -0.22574666 -0.08836493 0.006099687 -0.18881764
-0.28180668 0.102070585 0.01307038 -0.07771994 -0.3213884 0.17543605 -0.18400952 0.023267925
0.12050101 -0.11883359 -0.1549149 0.20340739 -0.16691704 0.023994867 -0.08411744 -0.26934248
-0.0038112602 0.006565526 -0.024520194 -0.09041648 -0.18440586 -0.17836998 -0.0043707723 -0.028838636
-0.031393282 -0.23001121 0.1256958 -0.04482966 -0.061452687 -0.34696555 -0.11293777 -0.003667387
-0.13762476 0.104371406 -0.052333277 -0.11672346 0.019798005 0.062350944 -0.06995616 -0.19667718
0.0716194 -0.016638765 -0.09331076 0.22817497 -0.23208302 0.05720253 -0.23046991 -0.13206717
0.029977303 -0.04810226 -0.1737017 -0.18153319 0.11002159 -0.17251566 0.19542989 -0.2503822
-0.10453792 0.08650745 0.21047395 0.106557585 0.09320393 -0.063971534 -0.3504868 0.09166393
0.048560824 -0.0021925825 -0.15838094 -0.045134984 -0.024778891 0.14334086 -0.039946698 -0.019064192
-0.012335442 -0.089142546 -0.09181148 -0.05828221 -0.09364069 -0.035417818 -0.06234956 0.06030176
-0.23617041 -0.10839804 -0.10543445 0.07699468 -0.006404855 0.06612988 -0.006934139 -0.12034074
0.07952814 0.07745324 -0.14725865 -0.01518263 -0.115586184 0.092322834 -0.056597494 -0.024348127
-0.07676006 -0.06994938 -0.009547401 0.13579158 -0.08066367 -0.12629351 0.026379006 -0.20309672
0.13115701 -0.09436708 -0.07290191 -0.047196034 0.0019675659 0.085860975 -0.05065901 -0.19245647

network_body._body_endoder.seq_layers.0.weight f4 [128, 6]
00000000: 1737 28be 928f 9d3d c403 c3be 4e73 f33e
00000010: 3ef7 ab3e a58e 86be 51e7 13bf 0796 b6be
00000020: 3631 393e dac8 76bf 70ca a4bd 03ae e4be
00000030: 6598 5bbf dc77 a8bd 92ae 123e 38cd c63e
00000040: 3954 1abf d604 913d 2caa 773e d65e 2dbe
00000050: 3d2a 483e e5c3 113f 94ef c03e 4086 24bf
00000060: e8d3 8ebf 0b35 2b3f b03d e33e f631 d23e
00000070: 0bd6 4c3e a240 ecbd c885 ad3e c674 753e
00000080: 069e 57bd ea54 b53d b605 fabe b278 c03e
00000090: 7e3b 4d3e 6472 96be 3da5 913e 5c96 6ebf
000000a0: 930b 9ebc 7fa4 b3be 8443 04bf 4900 8b3e
000000b0: 2cbe 66bf dac7 113e c923 05bf 0bf4 cebe
000000c0: e5e5 a43f 9b31 163f 4b90 39be 9eee 30be
000000d0: 6833 663e b66b 6cbe b3cb b93e 95d2 76be
000000e0: d3cc 893e 22f9 8d3d 0ab3 823e b352 61bd
000000f0: 14b4 0abe d583 efbe 6223 a6be 6f47 a0bd
00000100: a4d9 623e 0b26 6bbd f47b dc3d a8b4 90be
00000110: 583f a33d f1c5 ac3e 8263 3f3f be5a 873e
00000120: e9bf 59bd d673 f9bc 9327 26be d6ed 93bd
00000130: b4e7 17be 6f94 b5be d6b8 013f 11fe d03e
00000140: 64c1 723e 361f ccbd ccc8 333d 1363 493d
00000150: 07b1 dc3d 6173 063f 61e0 973e 9277 0cbf
00000160: afe5 0abe 5845 5ebe 74f3 3bbd 985f 093f
00000170: dfc0 babe 0176 7a3e bb80 45bf 95f6 cdbe
00000180: f69c 60be 73b3 62bf f1ec 133e a879 b7be
00000190: c84c 25bf c11e 4c3e d37f 293f 40f7 d03e
000001a0: 66ab 55bc efc2 bdbe da0c e6be c8c8 8cbd
000001b0: 088e 67bb fc40 8abd 525c 81be 4dda b53e
000001c0: eb6f 033e 5e80 b7bc 159d 8e3d 35c3 ea3e
000001d0: 8333 ed3d 90e6 d2be 767b 733e 6086 dd3e
000001e0: 8981 103f 53ba 07bf 2a41 2b3e 15c2 aabe
000001f0: 48b9 16bf a4ca 443f cdae dfbe 3525 af3c
00000200: d561 93be 3080 b13d 1067 f6be 9e13 533d
00000210: a37b c6be 897c 1e3f 8113 b2bd e9a9 0d3f
00000220: 451a b8be 8ea4 423e ad50 893e 1f13 c63e
00000230: fdbc 72be b987 313e 6352 953d 9ff9 9ebd
00000240: ad3f 77be 3586 4abd 1164 4bbe 9fe8 69bd
00000250: 2272 7bbf 96a6 21be e988 e9be 0051 4f3e
00000260: f8c8 26bf 762f c4bc 0fe3 c8bf 05cc 123e
00000270: a203 6abd a3fc 293f 796c 8b3e 2053 e4be
00000280: 3c19 6e3c 48b4 553d b1dd 4abf fce9 ac3e
00000290: b87b eebe 80ff 833c 6bf7 57bf 30b8 a53e
000002a0: 22d8 803e 3e9e b0bd 167a fa3e 8b97 293f
000002b0: 06ac 02be f348 0d3e 4c64 03bf 3493 50bf
000002c0: ef16 2b3d 28db efbe 6402 113d bcd5 043e
000002d0: 928d 04bf 323e 14bf 1b21 7abc aa63 95be
000002e0: 53a9 553e 509b 5f3e a5ce 823c 7aea 773e
000002f0: f75c 8f3e 674f 34be 96df b5be f3d2 c53e
00000300: 0aa9 793e 5445 933f 306e f23d 1f81 91be
00000310: 15cd 10bf 1447 bebe 4235 a43e d91e 11bc
00000320: 4c1d a6bd 7edf 76bf 71ee 55be 8c54 bf3e
00000330: 4a6f 2b3f b762 613e a4d0 ecbd 6996 34bd
00000340: c567 d23e f9b8 b7bc 4665 fc3d 8efb 123f
00000350: 4d96 743f ac6a f3be 29c2 3fbe 30e7 a6be
00000360: 034f 3e3f be36 19bd 1682 a33d c8cc 883c
00000370: b2f7 babd d1a8 63bd a3a9 983c 245a a6bd
00000380: a60b 4b3e 9d4c 573e a656 c8be b6ca 22bb
00000390: bd38 2abd 56a5 38bf f481 e53d 4130 55bf
000003a0: d6de eabe 08c5 c83c b31d e63d e0c3 643d
000003b0: f388 d0bd 51cb 0b3e 0741 84be ac5f 123f
000003c0: ea6a 733e 9b18 94bc 66f9 0f3f c91d 00bf
000003d0: ee24 b53d 9dd3 ebbe f512 a53d 80dc bb3e
000003e0: 153a d0be 97da 443e 8815 dcbe 9b55 533e
000003f0: 58e3 f4be c5f7 c6be 4244 b4be 9591 f1be
-0.16427265 0.076933995 -0.3808881 0.47548908 0.33587068 -0.26280704 -0.57774836 -0.35661337
0.18085179 -0.96400225 -0.080464244 -0.4466401 -0.8577941 -0.08225986 0.14324406 0.38828444
-0.60284764 0.070810005 0.24186009 -0.16930708 0.19547363 0.56939536 0.37682784 -0.6426735
-1.1158419 0.6687781 0.44383 0.41053742 0.20003526 -0.11535765 0.3389113 0.23970327
-0.052640937 0.08854087 -0.48832482 0.37592083 0.20042226 -0.29384148 0.2844638 -0.9319818
-0.019292628 -0.35086438 -0.5166552 0.27148655 -0.9013393 0.14236394 -0.5200773 -0.40420565
1.2882658 0.5866944 -0.1812145 -0.17278525 0.22480547 -0.23087963 0.36288223 -0.24103768
0.2691408 0.06932284 0.2552722 -0.05501051 -0.13545257 -0.46780267 -0.3244887 -0.07826125
0.22153336 -0.057409327 0.1076583 -0.2826283 0.07971066 0.33744767 0.7476121 0.26436418
-0.053161535 -0.030450743 -0.16226034 -0.07223098 -0.14834481 -0.35464808 0.5067266 0.40818837
0.23706585 -0.099668905 0.043892667 0.04916675 0.10775953 0.52519804 0.29663375 -0.5486995
-0.1356418 -0.2170614 -0.045886472 0.5366149 -0.36475274 0.24459077 -0.7714955 -0.4022719
-0.21934876 -0.8855507 0.14445855 -0.35835004 -0.64570284 0.19933607 0.6621067 0.40813637
-0.013041353 -0.37062785 -0.4493168 -0.068742335 -0.003533246 -0.06750676 -0.25265747 0.35518113
0.12835662 -0.022400077 0.06963555 0.45852056 0.11582091 -0.4119153 0.23777565 0.43266582
0.56447655 -0.53018683 0.16724077 -0.33351198 -0.58876467 0.76871705 -0.4368805 0.021380046
-0.28785577 0.08667028 -0.48125505 0.05153238 -0.38766202 0.61908776 -0.08695126 0.5533739
-0.35957542 0.19008085 0.26819363 0.38686463 -0.23704906 0.1733693 0.07291105 -0.07762455
-0.24145384 -0.049444396 -0.19862391 -0.05710661 -0.9822103 -0.15786204 -0.45612267 0.20245743
-0.65150404 -0.023948412 -1.5694293 0.1433564 -0.05713237 0.6640112 0.27231196 -0.4459467
0.0145323835 0.052173883 -0.79244524 0.33772266 -0.46578765 0.016113043 -0.84361905 0.32367086
0.25164896 -0.08623932 0.4892127 0.6624686 -0.12760934 0.13797359 -0.51324916 -0.81474614
0.041769918 -0.4684689 0.03540267 0.12972158 -0.5177852 -0.579074 -0.015266682 -0.291776
0.20865373 0.21836591 0.015967676 0.2421054 0.28000614 -0.17608415 -0.35522145 0.38637504
0.2438089 1.1505532 0.11837423 -0.28418824 -0.5656293 -0.37163603 0.32071882 -0.008857452
-0.08111057 -0.9643477 -0.2089174 0.37369192 0.6696669 0.22010313 -0.115632325 -0.044088755
0.41094795 -0.022427069 0.12324004 0.5741509 0.9554184 -0.47542322 -0.1872641 -0.32598257
0.7433931 -0.03740572 0.07983796 0.01669921 -0.091292754 -0.055580918 0.018635577 -0.08122662
0.19828662 0.2102532 -0.39128608 -0.0024840063 -0.041558016 -0.7212728 0.11206427 -0.83276755
-0.45873135 0.024508014 0.112361334 0.055850863 -0.10182371 0.13651778 -0.25830862 0.57177234
0.23771253 -0.018078139 0.56239927 -0.5004545 0.088449344 -0.46059886 0.080602564 0.36691666
-0.40669313 0.1922401 -0.42985177 0.20638125 -0.478297 -0.38860908 -0.35208327 -0.47181383

network_body._body_endoder.seq_layers.2.bias f4 [128]
00000000: 0bc0 2cbd c006 aabd 83c7 e6bc d503 b8bd
00000010: a78b 8ebd c833 80bd 9831 b5bd c807 02be
00000020: c2ec 94bd 550a ac3d b23f 83bd 8d80 cdbd
00000030: 4739 ef3c bb06 21bc abda d7bd 468b 19bd
00000040: 0176 54bd 78ac babd 5e61 5cbd ed5a bdbd
00000050: 170f bcbd d248 05be a207 2abd fe22 d9bd
00000060: f756 6bbc 57d4 7bbd b53f a0bd ead5 913d
00000070: 6192 c2bd c27c 13bd f999 dcbc cd98 96bd
00000080: 7a37 b6bd c603 c6bd d817 babd 09c2 c8bd
00000090: 1c39 d1bd cfed d9bd ee50 ebbd ef76 3bbd
000000a0: 98e4 a6bb a654 a3bd b5f3 83bc 72cf 7f3d
000000b0: 3b14 e1bd be5e 88bd 7b7d bbbc 944e f3bd
000000c0: fe4d 54bd b53d dfbd daf6 a9bd 7a75 aabd
000000d0: 59e3 363c 30f1 9f3c 52e7 d23b d564 84bd
000000e0: be9a e2bd 50c4 4d3d a4fc 87bd 7fda babd
000000f0: 82e5 57bd 56d9 a8bd 30e1 b4bd 1174 f0bd
00000100: 5848 1cbd 0350 89bd f936 debd edb8 4ebd
00000110: f0be aebd c3a0 ccbd 5f59 81bd 7be0 8ebd
00000120: 3c47 bcbd 5ae5 a0bd 6ac1 d2bd 4edb 9fbd
00000130: 279b 73bc 2aa6 56bd f65a 12bd 0e65 01be
00000140: bfba cbbd 1cae f1bd 05bc a6bd c39d f9bb
00000150: d4a3 5fbd ae16 15bb 5f33 a5bd 2dd1 b8bc
00000160: 455c 7dbd 2278 633c d27e aebd 1c54 eabc
00000170: 1ac7 6ebd 0a4c 93bd cd18 d9bd 8810 8fbd
00000180: 8fbf debc 2fbb 8abd 3c98 d4bd 989d a7bd
00000190: dde7 ccbd 5f73 033d 139e bcbd eef1 153b
000001a0: 7f83 98bd ef1c d0bd 5897 95bd f7fd e5bd
000001b0: 8be3 1ebd 8aff a1bd 897f 94bd 07d3 94bd
000001c0: ebd4 c6bd 319f 94bd 693e 8fbd 829d 18be
000001d0: 3c90 d8bd a9bf 97bd 0fdd 1dbd d984 87bd
000001e0: 9b96 97bd f61e 39ba a1af c4bd 819b d0bd
000001f0: 53f7 e5bd 85f5 d5bd e9d4 95bd 1ae4 b0bc
-0.042175334 -0.08302069 -0.028171306 -0.08985106 -0.0696023 -0.062598765 -0.0884735 -0.12698281
-0.072717205 0.08400408 -0.06408633 -0.10034285 0.029202117 -0.009828265 -0.105397545 -0.037486337
-0.05187035 -0.09114927 -0.053803794 -0.09245858 -0.09182566 -0.1301606 -0.041511185 -0.10602377
-0.014363996 -0.0614818 -0.07824651 0.07120879 -0.09500576 -0.03600765 -0.026928889 -0.07353363
-0.088973 -0.096686885 -0.09086579 -0.09802634 -0.10215971 -0.106410615 -0.114900455 -0.04576772
-0.0050931685 -0.0797513 -0.01610742 0.062453695 -0.10990187 -0.06658696 -0.022886982 -0.11880222
-0.05183219 -0.109004416 -0.08299036 -0.08323188 0.011162602 0.019524187 0.006436267 -0.06464545
-0.11064671 0.050236046 -0.06639984 -0.09123706 -0.05270911 -0.082445785 -0.088320136 -0.11740888
-0.03815493 -0.06704714 -0.10850329 -0.050469328 -0.08532512 -0.099916 -0.06315874 -0.0697641
-0.091932744 -0.07856245 -0.10290797 -0.07805501 -0.014868534 -0.05240456 -0.03573128 -0.12636206
-0.09947728 -0.11800787 -0.08141331 -0.0076176836 -0.054599598 -0.0022749114 -0.08066439 -0.02256068
-0.061855573 0.013883622 -0.08520283 -0.02860456 -0.058295347 -0.07192238 -0.106004335 -0.06985575
-0.027190952 -0.06773984 -0.10380599 -0.081843555 -0.10005162 0.03209245 -0.09209838 0.0022879797
-0.07446956 -0.10161769 -0.07304257 -0.112300806 -0.03879122 -0.07910068 -0.07250888 -0.07266813
-0.0970858 -0.07256926 -0.06994326 -0.14903834 -0.105743855 -0.07409603 -0.038540896 -0.066171356
-0.074017726 -0.00070618035 -0.09603811 -0.1018591 -0.11228814 -0.1044722 -0.07316 -0.021593142

network_body._body_endoder.seq_layers.2.weight f4 [128, 128]
00000000: bb8b a83e f397 fc3d efcb 133d 8ff2 d2bc
00000010: 04ec cc3c d942 0ebd 7043 913e f0da 3c3e
00000020: 1a4d c3be 6e6b 083e aefc 2cbe 3e95 503e
00000030: ac10 21bd f2e4 0b3e 77f8 a63d cfdb 1fbe
00000040: bc5a 91be 4184 71be 8d90 eebc 3e70 27be
00000050: d16e aa3d dbef 0dbe 5719 423d defc b1bd
00000060: c0a0 e9bc 7775 26be ebf0 80bd fe1b 2cbe
00000070: 3baa bc3c f24e ddbd bb8b 03be e7a3 a63c
00000080: b8fe 303e 42ef 02be 33c7 46be ee82 5ebe
00000090: 3fa9 f23d 4b0e a83c e2cf 0bbc c64c 48bd
000000a0: 3ec9 313e 4d1c 51bd b1ed e23d c25a 4abe
000000b0: 1e54 aa3d 24ca e3bc 0692 09be c78c 2abd
000000c0: 3966 773e 893a a1bc 64b5 cabb 8e87 223d
000000d0: 0d7d 55bd 9814 a8bb b3c1 0f3d fdd5 a5bd
000000e0: 6d57 283e 4b49 5c3d f883 0fbe 4a51 3dbd
000000f0: 28cd 8e3d 45d4 9e3d 3430 a3bd 34f5 91be
00000100: e53e 8cbe 030d 8ebe 57e5 14be 8eb2 593e
00000110: 6976 b63c 5a09 fdba 0be8 a4bc b677 d13d
00000120: d726 cb3e b72a de3d fae4 79bd c067 5e3e
00000130: 85c9 f23d a229 ae3d b429 04be d090 7bbd
00000140: a0cf e0be 1e1f 863d e5ce 423c ce07 a73d
00000150: 9b21 cfbd f4f0 a4be 2d9d 06bc a0d2 083d
00000160: f5a6 9cbc 2672 893d 428b 4bbe b9cf 213b
00000170: 1d1f 933e fe40 13be 3809 21be ac73 4fbd
00000180: 947b 973d ef41 52bc e4a5 d13c 305f 4bbe
00000190: 24da 7ebd df90 633e 92ea 7ebd d139 33bd
000001a0: 2d3a 0f3d f7a7 37be 8fd5 f9bc 626a b8bc
000001b0: 46cd febd eb26 85be 280f 5dbe 827a f23d
000001c0: 3773 cfbd 9118 253c 4d85 263e 447b eeb8
000001d0: 2fa3 a0be f6fb 00be 88a7 6d3d 6a7d eb3b
000001e0: ff3d e43d cff7 87be 025c 953d 3754 04bd
000001f0: 5aa6 273e 42a7 fa3d 0604 2cbe c19e 6a3d
00000200: 386c 9a3d 71a7 053d b594 22be 98bf 38be
00000210: ecb4 dfbd d08f bbbd b677 bb3e bc05 663e
00000220: ce50 a5be 061b 153c 416e 1e3d 2556 0abe
00000230: 45d8 ce3d 112b d4bd 6c08 f0bd 75b3 443e
00000240: 5285 01be 92fa c1bd 02e0 bbbd 861e 19be
00000250: 7f6f 49be 5b46 cc3d 7c23 bfbc 5ceb e23d
00000260: 1f75 be3d 6df5 31be ec85 ddbd 30b1 85bc
00000270: 988a e7bc a6f3 08bd 2b63 1e3d cde8 60be
00000280: 97f4 833d dab6 6ebe 1e7a 81bd 4aa1 3dbe
00000290: a36a 7bbc 974f abbc 8a0b 0dbe 8d28 3fbd
000002a0: bc67 3c3d 4327 f43c 5b05 073e e7fd 23be
000002b0: f7e5 19bd 26bb ef3d 8687 6bbd 6f7b 23be
000002c0: 5559 c1bc 9185 c7bc f589 cdbd 683e 15be
000002d0: 6e37 4cbd e5ae 69be d70b 06be 1cf7 553e
000002e0: 5e5b ff3d 1590 0dbd 24c3 423d 673d fbbd
000002f0: 7600 ccbd 43a6 f23d 4beb a53e 813b e7bd
00000300: e1a6 4fbd 040e afbd 9c93 133e 87d3 7abb
00000310: a305 2b3e 6172 d03c 235e 9bbd 8f64 d43d
00000320: 17f1 1d3e 388d a03e c127 cbbb 62a5 24bc
00000330: dc39 cb3c c81a fabd 4662 50be d935 f1bd
00000340: 33f7 c4be f0df 3abe 630d 08be ce40 2e3e
00000350: d910 f23d d16a 64be ed55 50bd 2fee d9bd
00000360: 7e68 1bbe 7d42 d83d 2556 8cbe 3314 aebc
00000370: f525 913d c546 a63d ddc9 63be e85c 2cbe
00000380: 1729 5ebc cf87 6e3d 8c33 a3be eac4 4bbd
00000390: 8354 273d 8751 a53b eb95 823d 657a 3ebd
000003a0: c636 35be fbb4 643d dc3d 97bd 343b 50bd
000003b0: e01d b53d bcf3 06be 9b8f 4c3d 8b69 9a3c
000003c0: 4058 1bbe 409a 503d 2323 ce3d 9ab4 be3d
000003d0: 4494 35be e462 9ebd 3081 493c 3af5 7dbc
000003e0: f788 4fbd 6e00 88ba 6862 fbbd a661 b3bd
000003f0: 2065 02be 1da6 dabd a381 ebbd 457b 1a3d
0.32919106 0.123336695 0.036083158 -0.025750427 0.025014885 -0.03473172 0.28371763 0.18442893
-0.3814476 0.13322231 -0.16893265 0.20369431 -0.03932254 0.13661554 0.0815286 -0.15611194
-0.28389537 -0.23585607 -0.029121662 -0.16351411 0.08321918 -0.13861029 0.047387447 -0.08690809
-0.028519034 -0.16255747 -0.062959515 -0.16807553 0.023030391 -0.10806073 -0.12846272 0.020341827
0.17284667 -0.12786582 -0.19411926 -0.21729633 0.118486874 0.020514628 -0.00853345 -0.04890134
0.17361924 -0.05105238 0.11080492 -0.19761184 0.08316825 -0.02780635 -0.1343461 -0.041638162
0.24160089 -0.019681232 -0.006186174 0.039680056 -0.05212121 -0.005129408 0.035096835 -0.08097456
0.164396 0.053780835 -0.14015186 -0.0462201 0.06972724 0.07755331 -0.079681784 -0.28507388
-0.27391735 -0.27744302 -0.14540611 0.2125952 0.02227326 -0.0019305155 -0.020130178 0.10227911
0.3967807 0.10847991 -0.061009385 0.21719265 0.11854843 0.085040346 -0.12906533 -0.0614174
-0.43908405 0.06548904 0.011890148 0.081557855 -0.101138316 -0.32215083 -0.008216185 0.033403993
-0.01912258 0.06711225 -0.19877341 0.0024690463 0.28734675 -0.14380261 -0.15726173 -0.050647423
0.073966175 -0.012833103 0.025591798 -0.1986053 -0.062219754 0.22223233 -0.062235422 -0.04375631
0.03496759 -0.17935167 -0.03049734 -0.022511665 -0.124414966 -0.26006255 -0.21587813 0.11839773
-0.10129397 0.010076658 0.16261788 -0.000113716844 -0.313745 -0.12596115 0.0580211 0.0071865814
0.11144637 -0.2655625 0.0729294 -0.032306876 0.16372052 0.12238933 -0.1679841 0.057280306
0.07540172 0.032630388 -0.1587704 -0.18041837 -0.1092318 -0.091582894 0.3661477 0.22463125
-0.32288212 0.009100681 0.038679365 -0.13509424 0.10099844 -0.10359777 -0.11720356 0.19209082
-0.12648514 -0.094716206 -0.091735855 -0.1495305 -0.19671439 0.09974357 -0.02333235 0.110800475
0.09299683 -0.17378779 -0.10816559 -0.016319841 -0.028264329 -0.033435486 0.038668793 -0.21963806
0.06443136 -0.2331194 -0.0632212 -0.18518558 -0.015345248 -0.020911975 -0.13773933 -0.04666953
0.045997366 0.029803878 0.13185637 -0.16014825 -0.037572827 0.117056176 -0.057502292 -0.15965055
-0.023602167 -0.024355682 -0.10036079 -0.14574587 -0.04985755 -0.22820623 -0.13090454 0.20895046
0.12468599 -0.034561235 0.04754938 -0.12267571 -0.099610254 0.11848118 0.32406077 -0.11290646
-0.050696258 -0.08547595 0.14411777 -0.0038273053 0.16701369 0.025445165 -0.075863145 0.103707425
0.15424 0.3135774 -0.0061998074 -0.010049196 0.024807863 -0.12212139 -0.20349988 -0.11777849
-0.38469848 -0.18249488 -0.13286357 0.17016909 0.1181962 -0.22306372 -0.050863195 -0.10641133
-0.1517658 0.10559557 -0.27409473 -0.021249866 0.07087318 0.08118967 -0.22244973 -0.16832316
-0.013559601 0.058234986 -0.31875265 -0.04974834 0.04085208 0.005045119 0.06376251 -0.046503443
-0.17696676 0.05583666 -0.073848456 -0.05083771 0.08843589 -0.13178915 0.04994164 0.018849155
-0.15170383 0.050928354 0.100652955 0.09311791 -0.1773234 -0.07733706 0.012298867 -0.015500361
-0.05066773 -0.0010376105 -0.12274629 -0.08758859 -0.12733889 -0.10676215 -0.114993356 0.037715215
