MLAgentsProject/results/MoveToGoal2/MoveToGoal/MoveToGoal-465403.pt (torch, 439199 bytes, 36 tensors)

network_body._body_endoder.seq_layers.0.weight f4 [128, 6]
000000 32 d3 24 bd 97 fb 13 3e 84 d3 2a be d6 17 c9 3c
       -0.040240474 0.14451443 -0.1668225 0.024547499
000010 4c 1a 6b be 46 00 6f 3e 99 52 f1 bd 20 8e 8a 3e
       -0.2295925 0.23339948 -0.117833324 0.27061558
000020 b9 1e 08 3f b2 af d8 3e 72 97 11 be 2a 69 09 be
       0.5317188 0.42321545 -0.14217928 -0.13419023
000030 7a 82 a5 be 59 97 6f be 4a 0a 0c 3f 1d e8 14 3f
       -0.32326108 -0.23397578 0.547032 0.58166677
000040 75 65 c0 3d 00 27 32 bf 7e 56 c6 be df fd 2d 3f
       0.093943514 -0.6959076 -0.38737863 0.679655
000050 49 f7 6c bf 25 e5 07 bf 32 7e f0 bd 6d 78 75 3e
       -0.9256483 -0.5308402 -0.1174282 0.2397172
000060 c5 51 94 be e5 bc 19 bf aa 3e cc 3e d9 b9 94 3e
       -0.28968635 -0.60053855 0.3989156 0.2904804
000070 34 85 7c bf 7f 8c 60 3e c0 0f 13 bf c4 4e a6 3e
       -0.9864075 0.21928595 -0.5744591 0.32481968
000080 af 6c 86 3e 3b 25 a4 3d be f9 3a 3f b4 e2 d9 be
       0.26254794 0.08014914 0.73037326 -0.42555773
000090 34 e3 8f bd 45 e7 2d bf 05 5b 22 3f 33 e7 38 bf
       -0.070257574 -0.67931014 0.63420135 -0.7222778
0000a0 27 5b 39 3e 0e ba d3 bd ad 76 bc be a7 c8 5e bf
       0.18101178 -0.103382215 -0.36809292 -0.8702492
0000b0 97 ae 91 3f 42 1a 9c 3e 13 df 38 3e 67 4d 91 be
       1.1381406 0.30488783 0.18053846 -0.28379366
0000c0 57 7b e6 be 85 f2 89 be 31 36 e1 bd 6c fe 83 bf
       -0.45015976 -0.2694284 -0.10996664 -1.0312018
0000d0 07 1a e1 be 58 53 f8 3e e4 07 d4 be b1 b7 ba 3e
       -0.4396517 0.48501086 -0.4141227 0.3646827
0000e0 b8 ee 8b bf 8e 9e 1e 3f 29 d7 06 bf d4 ce 4c 3e
       -1.0932226 0.61960685 -0.5267206 0.20000774
0000f0 fd fc ed be 53 6e 90 be 96 f4 b4 be 82 8c da 3d
       -0.46482077 -0.2820917 -0.35342854 0.10671331
000100 01 1f 0e 3f 29 f6 11 bf 75 91 66 be 21 e3 dc be
       0.5551606 -0.57016236 -0.22516425 -0.43142036
000110 62 c2 bd bd a6 ce 27 3f 1a b2 3d 3f 66 aa bb be
       -0.09265591 0.65549695 0.74099886 -0.3665344
000120 ec 0e 05 3f ae a1 41 3e fa 38 cc bd 96 87 71 bd
       0.51975894 0.18909332 -0.09971805 -0.058967195
000130 c9 4d a2 be dc dc 14 bf 63 b4 1c 3e 83 34 d6 3e
       -0.3169997 -0.58149505 0.15303187 0.41836938
000140 53 88 59 3f 6b 53 c4 be 80 b8 0e bf 85 a5 85 3e
       0.8497364 -0.38344893 -0.55750275 0.26102844
000150 ea 3c 97 3d cd 33 77 3e 2a 43 74 3e 39 e0 39 be
       0.07384665 0.24140854 0.23853746 -0.1815194
000160 9a 89 8c 3f a2 b8 44 bf 05 98 ac bd b5 f1 b3 be
       1.0979493 -0.7684423 -0.08427433 -0.35145345
000170 d9 2c 18 be 57 3f 12 bf 76 e7 19 3d c3 bb dc 3e
       -0.14860858 -0.571279 0.037574254 0.43112
000180 71 58 67 bd 29 1f 80 be 78 d1 99 3c 9e 78 53 3e
       -0.05648083 -0.25023773 0.01877664 0.2065148
000190 c7 3b c4 be 26 7f 7b 3d f3 63 c8 3d 2a 54 ff 3e
       -0.38326856 0.061400555 0.09784689 0.498689
0001a0 d1 65 12 bf 3c b8 67 bf 29 28 a2 be ab 82 d5 3e
       -0.5718661 -0.90515494 -0.31671265 0.41701254
0001b0 72 fb c9 3d 48 e8 8b 3e 7b c7 e3 3e 99 24 54 be
       0.098624125 0.27325654 0.4448813 -0.20717086
0001c0 ff 6e 19 be 09 9e 19 be 8f fe 86 3e 67 b5 15 bf
       -0.14983748 -0.15001692 0.26366088 -0.58479923
0001d0 dc da c1 3e 77 7c ff 3d 6c 99 73 3e 0b c9 9f be
       0.3786229 0.12474912 0.23788995 -0.3120807
0001e0 84 88 c2 3e 2c 80 83 be 2b 90 4d 3f 24 10 d8 3e
       0.37994778 -0.25683725 0.8029811 0.42199814
0001f0 5c 69 a3 3e 77 64 a7 be 47 c0 98 bd 80 d9 dd bc
       0.3191632 -0.32693836 -0.07458549 -0.027081251
000200 36 da ba 3c 24 a4 0e bf 03 11 06 3f 14 5a e4 3e
       0.02280913 -0.5571921 0.5236971 0.44599974
000210 14 6f 63 3d c1 8e bc bd 25 ad ec 3e cd 72 32 be
       0.055525854 -0.09206916 0.4622585 -0.17426606
000220 2b 5d 88 be 44 5a 00 3f 8b 00 01 bf c3 34 cf bd
       -0.26633582 0.50137734 -0.50391454 -0.101174854
000230 41 80 b3 be 64 ff d8 3e 86 75 f0 bd 85 03 8e bd
       -0.35058787 0.42382348 -0.11741166 -0.06934265
000240 d6 29 72 bd 31 38 3a 3f e8 69 0f 3d fe cc 61 3f
       -0.05912193 0.7274199 0.03501311 0.8820342
000250 05 dc eb 3c 61 e2 50 bd 50 ae a4 3d cf 62 c4 be
       0.028791437 -0.05099714 0.0804106 -0.38356635
000260 ca 24 49 bf 0a bd 21 3e 41 3c a7 be c0 6e 6a bf
       -0.7857176 0.15794769 -0.32663158 -0.9157524
000270 6d c4 60 be a9 d7 a8 bb b9 3f 95 be c6 97 3e 3d
       -0.2194993 -0.005152662 -0.2915018 0.04653146
000280 64 31 2d be ce 20 80 be 32 3d 95 bd e9 14 8b 3f
       -0.16913372 -0.25025028 -0.07287063 1.0865756
000290 31 47 71 3e c4 84 f6 be e8 1a 8f bd 34 5e 84 be
       0.23562314 -0.48148167 -0.06987554 -0.2585312
0002a0 18 cd e3 3e 61 d3 ba 3e 55 93 0a 3f 31 4a b8 be
       0.44492412 0.36489394 0.5413106 -0.35994104
0002b0 77 bb 8b 3e 2e a2 d2 be 66 7b ae 3e b6 75 98 be
       0.27291462 -0.41139358 0.3407852 -0.29777306
0002c0 d6 f2 64 3d a9 31 83 3c 41 d0 b9 3e 1a c0 30 3f
       0.05589565 0.01601489 0.36291698 0.69043124
0002d0 9e af d5 3e 08 a7 56 bf c5 dd d7 be d7 da 49 be
       0.41735548 -0.8384862 -0.42161384 -0.19712387
0002e0 2d db cc be 32 a2 39 bd 92 d4 d1 3b 41 07 9e 3d
       -0.40010968 -0.045320697 0.006403514 0.07716227
0002f0 8a bf 6e 3d 31 a2 e3 3d 82 28 41 3f 5a bb 2b 3e
       0.058288135 0.1111492 0.75452435 0.16770688
000300 4e 54 91 be b0 c9 8e bd d4 5f 76 be 8d 06 8d 3d
       -0.28384632 -0.069720626 -0.24059993 0.06886015
000310 86 7a 4b 3e ca 42 91 3e df 5f 6a 3f bc d7 36 bf
       0.19870958 0.2837127 0.9155254 -0.71422935
000320 8c 1b 8f 3e 7a 70 7f be 1c 9d 1d 3f b4 6a 88 be
       0.27950704 -0.2494525 0.61567855 -0.26643908
000330 e6 05 66 be 4a 48 b1 be 23 22 aa 3e 29 a5 c7 3c
       -0.22463188 -0.34625465 0.3322917 0.024370747
000340 6e f3 e3 bd fb 10 49 3d b8 b0 29 3e c6 f5 81 3d
       -0.11130415 0.04908846 0.16571319 0.06345706
000350 9c c9 4a be d6 8f 0b 3e 0d 63 91 be 47 34 a5 be
       -0.1980347 0.13629088 -0.28395882 -0.32266447
000360 b5 ea 58 be 33 db 30 3f 44 d9 13 3f be 3a b9 3e
       -0.21183284 0.6908447 0.57753396 0.3617763
000370 6e 8e d9 3b 0c ac 45 3e ce a2 d6 3e 6f 93 c6 be
       0.0066392934 0.19303912 0.41921085 -0.38784358
000380 38 b1 99 bf 91 85 5f 3e 84 7f 91 3f 2b aa b5 3d
       -1.2007208 0.21828295 1.136704 0.088703476
000390 25 13 76 3e 4b 55 99 bf 22 ea e3 3c 4d ea 07 be
       0.2403074 -1.1979154 0.027821604 -0.13272972
0003a0 de d7 b4 3e ce 47 28 3f ae 35 24 3d d9 00 0b be
       0.35320944 0.65734565 0.040090255 -0.13574542
0003b0 1c f4 2f 3e 7a b2 02 bd 26 ec db 3d 09 27 ce 3e
       0.17182964 -0.03190849 0.10738401 0.40264156
0003c0 dd 21 f4 3e 34 d2 84 3d 87 e1 a7 3e b9 40 4c 3b
       0.47682086 0.064854056 0.3278925 0.0031166507
0003d0 6d aa 62 be f1 e2 68 bd cb 6b 5a 3e cd e8 a8 bd
       -0.22135325 -0.056857053 0.21330182 -0.08247528
0003e0 26 ed ad 3e f3 aa b7 3e 1e fd 5e 3e 30 86 07 be
       0.33969992 0.3587261 0.21776244 -0.13234782
0003f0 6a f7 71 be d0 bc 0f 3f 43 55 03 bf 7a be 4c 3d
       -0.23629537 0.5614748 -0.51301974 0.04998634

network_body._body_endoder.seq_layers.0.bias f4 [128]
000000 fb d5 3c 3c d8 e5 4e bc 25 20 f8 ba bb 3f 08 3c
       0.011525626 -0.012628041 -0.0018930478 0.008315976
000010 c7 cc 6f bc 5e e7 23 bc 22 3a 10 bc b4 2c aa 3a
       -0.014636225 -0.010003893 -0.008802922 0.0012983293
000020 10 11 60 3c 31 c3 3d 3c 65 88 91 3d 44 82 ea bb
       0.013675943 0.011582182 0.07106093 -0.007156642
000030 18 6f 56 3c aa ef 3e bc 97 18 58 bc 22 8b 17 3c
       0.01308801 -0.01165382 -0.013189456 0.00924948
000040 00 06 8f 39 20 96 e8 3c 12 b7 6c 3b 68 c1 c1 b9
       0.00027279556 0.028391898 0.003611986 -0.00036955927
000050 85 05 d2 bb 55 18 e6 bb fc a1 44 bb 22 d5 23 3c
       -0.0064093494 -0.0070219436 -0.0030003777 0.009999545
000060 60 f6 4d bb e2 c3 c3 ba 34 38 db 3d 8d 2e ec 3b
       -0.0031427369 -0.0014935697 0.10704079 0.0072076977
000070 5e fa e8 b8 7e bf c6 3b 5b 21 55 bc 72 c4 26 bc
       -0.000111092566 0.006065308 -0.013008441 -0.010178672
000080 e0 dc 7d 3c fa 07 fe 3b 9e 49 fd ba cd df e2 3c
       0.015494555 0.0077524157 -0.0019324308 0.027694607
000090 5b d1 ea bb 99 a5 26 ba 9e 7c 48 bc 90 a2 0d 3c
       -0.0071660704 -0.00063570734 -0.012236742 0.008644715
0000a0 3b 19 2d 3b 4c b8 3b bb 77 a9 82 3d 14 f1 b9 bb
       0.0026412744 -0.0028643785 0.06379979 -0.0056744907
0000b0 63 00 79 3d bc 2e 9f ba 5b dc 5f 3c 63 6d 37 3c
       0.060791384 -0.0012144665 0.013663377 0.011195513
0000c0 c6 79 02 bc f8 cd 47 bb 03 bf 0a 3d c8 8f 52 bc
       -0.007963603 -0.0030487757 0.03387357 -0.012851663
0000d0 58 0a 4c bc 01 91 92 3b 3b ba 39 3c 18 d9 f6 3b
       -0.012453638 0.004472852 0.011335905 0.007533204
0000e0 3b 0b 4f 3b 34 af 08 3c 11 f6 83 3d 5b bc 18 bc
       0.0031592387 0.008342553 0.06443418 -0.009322251
0000f0 d0 52 e1 3b 8c 57 03 3c 4e 5f 50 3a 17 78 5f bc
       0.006876327 0.008016478 0.0007948772 -0.0136394715
000100 8a d9 c4 bb 5d 64 d1 bb 26 46 3c bc 64 bf 87 3b
       -0.006007378 -0.006390138 -0.011491334 0.0041426886
000110 39 28 7e bc 61 30 04 ba 24 d3 ab 3c a0 6f f2 3c
       -0.0155125195 -0.00050426094 0.020974703 0.029594243
000120 3f e0 5b 3c 55 55 0f 3c 73 34 41 3b fb 3f a0 bb
       0.013420164 0.008748372 0.0029480725 -0.0048904396
000130 58 a7 af bc 3a a6 ce ba c8 3b 15 3c b3 17 87 3c
       -0.0214421 -0.0015766092 0.009108491 0.016490793
000140 55 e4 ee bb eb 33 9d 3b 95 9a 89 3b 50 6b 37 bb
       -0.007290403 0.004797449 0.004199336 -0.0027987547
000150 63 b2 59 3b 84 84 b2 3d f8 0b af 3c 4f 9c dc bb
       0.00332179 0.087166816 0.021368012 -0.0067325006
000160 bc 26 72 3c 01 c8 be b9 03 49 3d 3b b4 f7 14 bc
       0.014779743 -0.0003638864 0.002888263 -0.00909226
000170 f1 39 72 bb b3 ac 1e bb ef d1 67 3b 41 bd ab 3b
       -0.0036960805 -0.0024211823 0.0035372933 0.0052410667
000180 a8 a2 3b 3b 72 82 04 bc 92 5e 25 bc 93 10 56 3b
       0.0028630886 -0.008087741 -0.010093348 0.0032663688
000190 ca cd 15 3c 98 95 5b bc 77 cb 90 bb c0 b7 99 3b
       0.009143302 -0.013402365 -0.004418786 0.004691094
0001a0 23 27 25 bc 6e 58 95 bb 61 49 7e 3a 9c 92 fa bb
       -0.010080132 -0.004557661 0.00097002654 -0.0076468717
0001b0 00 a4 d4 bb 30 a7 04 bc a1 1c d6 3b 57 b7 a5 bb
       -0.006489277 -0.008096501 0.0065341746 -0.005057256
0001c0 f3 a6 c3 3b 95 41 8b 39 db a2 e4 3d 06 69 ce 3c
       0.0059708296 0.00026561008 0.11163875 0.025196563
0001d0 2d 03 1c bc fd e4 ec 3b 18 04 f8 b9 c2 6e a4 3d
       -0.009522242 0.007229446 -0.00047305296 0.08028938
0001e0 c3 9e 8d 3d 34 8b 41 bc 52 bf 9e 3b 08 95 0d bc
       0.06915047 -0.011812974 0.0048445845 -0.008641489
0001f0 b9 37 46 bc 09 86 88 3b ab 3f ae 3b 1c cf af bb
       -0.012098246 0.004166369 0.0053176484 -0.0053652655

network_body._body_endoder.seq_layers.2.weight f4 [128, 128]
000000 85 14 51 bc ce 7d 94 bc 40 d2 39 3d 00 12 3a bd
       -0.01276124 -0.018126395 0.045366526 -0.045427322
000010 33 c9 7c 3e bb 6a 6c bd 39 85 7a bb 1e 0c 51 bd
       0.24686126 -0.057718974 -0.003822638 -0.051036946
000020 e3 51 b5 bc ff 21 bd bd 3a dc 65 be de 27 17 be
       -0.022133773 -0.09235 -0.22447291 -0.14761302
000030 04 9d 97 bd fa 90 c1 3c f1 33 49 bd 17 0e 3a 3d
       -0.07402995 0.0236287 -0.0491218 0.045423593
000040 2e 00 85 3d 7f ff ab 3d 13 e4 be 3d c7 47 60 bd
       0.06494175 0.083983414 0.093208455 -0.054755952
000050 c0 32 1e 3e 54 13 d8 3c fe 3e ce 3d 8f 3f 00 bd
       0.15449047 0.026376404 0.100706086 -0.031310614
000060 f2 43 2d 3e 9d 91 e0 3d c0 e1 b6 bc 18 ba 1a be
       0.1692045 0.109652735 -0.022324443 -0.15110052
000070 c1 c6 48 bd 33 89 99 3d 85 ed ea bd 5e aa 36 be
       -0.04901767 0.07496872 -0.114710845 -0.17838427
000080 f3 f2 82 bd f3 d6 d4 bd ef 56 54 bd a0 75 9f bd
       -0.06393995 -0.10392561 -0.05184072 -0.07786107
000090 b7 81 69 3c 5d b5 2f 3e 81 f1 f0 bd d3 25 2a 3c
       0.014252118 0.17159028 -0.11764813 0.010384995
0000a0 db f4 2a bd da e4 bd bd 6f 58 e1 bd ea 1f 6e 3c
       -0.04173742 -0.092721656 -0.110031955 0.014533976
0000b0 73 e9 f6 3a 45 45 9f bd 0c 91 8d 3d 9e 04 5d 3d
       0.0018837884 -0.07776884 0.06912431 0.05395948
0000c0 6a 69 6e bd ad 52 29 bd a7 5f a9 3d ca 98 e0 3d
       -0.058206 -0.04133861 0.08270197 0.10966642
0000d0 5f 5e bc 3d a9 11 0d 3d 54 30 7a bd fd c3 bd bd
       0.09197687 0.03444067 -0.061081246 -0.092658974
0000e0 4d 80 60 3e 37 8c 35 bd bc c9 a5 bc 37 7b 1e 3e
       0.21923943 -0.044323172 -0.020237796 0.1547669
0000f0 9e 23 96 3d be 01 5e bd 7d 97 7c bd d3 d4 cb 3d
       0.07331012 -0.05420088 -0.061667908 0.099527024
000100 58 9e d9 3d 43 ed 59 3d 6f 56 66 bd a1 b6 13 bd
       0.10625905 0.053204786 -0.056234773 -0.03606284
000110 86 11 ce bd 96 40 5d bd 73 95 d5 3d 13 a2 e0 b9
       -0.10061936 -0.054016672 0.10428896 -0.00042845364
000120 6e ab 44 bd 1d 89 b9 3d b7 30 08 be 7f 20 c9 bd
       -0.04801505 0.090593554 -0.13299833 -0.09820651
000130 97 c3 88 3c 1e f3 6e bc 52 12 eb 3d 28 64 ed bd
       0.016694827 -0.014584331 0.11478104 -0.11591369
000140 2d d5 25 3d 61 3f 1e 3d ef 69 2e ba 63 f9 fa bc
       0.040486503 0.03863466 -0.00066533586 -0.030636495
000150 3b eb f2 bb c3 0b 3d be bc 58 b1 bd e3 3d 27 be
       -0.0074132956 -0.18461518 -0.08659503 -0.16332202
000160 3e 9b f7 bd c6 20 53 bd 6a a3 95 bc 68 f3 cc bd
       -0.12090157 -0.051544927 -0.018266398 -0.100073636
000170 f8 21 33 be 18 a5 b4 bb de 8b b0 3c 16 e4 b1 bc
       -0.17493427 -0.005512845 0.021551069 -0.021715205
000180 07 a5 d2 3d f3 76 f1 bd d8 dc eb bc 17 1f 8e bd
       0.10285383 -0.11790266 -0.02879183 -0.06939524
000190 ca cf c3 bd e4 a5 52 3d a2 c9 c8 3d ae cf 55 3d
       -0.09561117 0.051427737 0.098040834 0.052200012
0001a0 6c 26 14 be 5a 90 80 bd ab 17 7f bb c6 78 9b bc
       -0.14467782 -0.06277533 -0.003892402 -0.018978488
0001b0 39 0b ce bd f0 a9 e0 3d 46 4f ec 3a b2 73 da 3c
       -0.10060734 0.10969913 0.0018028996 0.026666496
0001c0 99 c2 3a 3e cb da 2d 3d 29 5d 8d 3d ca d4 48 3e
       0.18238296 0.042444985 0.069025345 0.19612423
0001d0 22 ec 80 bc 76 9b c7 bd 15 6e f1 3c d9 31 35 3b
       -0.015737597 -0.09746449 0.029471437 0.002764812
0001e0 cf 9c 9b 3d 9a 56 99 bd 24 b0 02 be 19 b6 99 be
       0.07598268 -0.07487221 -0.12762505 -0.30021742
0001f0 70 26 40 bc 86 47 2e be e6 61 03 bd 1a 87 3d bc
       -0.011727914 -0.17019472 -0.032075785 -0.011567855
000200 1f c4 30 bc 1e de fd 3d 58 f2 43 bd 73 65 e6 bc
       -0.010788946 0.12395881 -0.04783854 -0.028124547
000210 f7 a2 89 3e e3 cb 11 3d 39 6d 2f be 66 30 42 3e
       0.26882145 0.035594832 -0.17131509 0.18963775
000220 90 36 3c 3c 9e ad a9 3c 75 f1 2c 3e 32 9f 52 be
       0.011487618 0.02071267 0.16888984 -0.2056854
000230 08 44 86 bd ba e1 16 bd 7e b6 10 3e df 89 94 bd
       -0.06555945 -0.036836363 0.14132115 -0.07252859
000240 cb 34 ef 3c b6 cc fb bd fb 27 f0 bd ce 49 8c 3d
       0.029199978 -0.12294905 -0.11726376 0.068500146
000250 13 f1 71 bd 07 48 51 3d fd 04 c1 bd ec 73 97 3d
       -0.059067797 0.05109408 -0.094247796 0.07395157
000260 b0 8f 79 3d 4c a3 a6 3d 35 c5 03 3e 11 62 85 bd
       0.060928047 0.08136615 0.12868197 -0.06512845
000270 05 8f bb bc f4 0e d5 3d 06 9b 9e 3d 26 ef b3 bb
       -0.022895345 0.10403243 0.07744412 -0.005491155
000280 c1 e1 94 bc 4d 6e 8c bb af ad 9d bd 04 3f ea bd
       -0.018174054 -0.00428561 -0.07699143 -0.114378005
000290 06 e9 da bd e3 0e 06 3d e2 6f de 3d 9c 06 ff 39
       -0.10688977 0.03272904 0.10861184 0.00048642315
0002a0 47 8d 7d bc 68 2c 0b 3c 17 0a ed 3d 05 64 84 3d
       -0.015475578 0.008494474 0.1157419 0.0646439
0002b0 57 a0 64 3d f2 d7 95 3d 95 7b 09 3e 50 5b 2f bc
       0.055816974 0.07316579 0.13426049 -0.010702923
0002c0 3b c3 e1 bb b8 2c 2d 3d 82 da c6 bd a4 76 c2 bc
       -0.0068897284 0.042278975 -0.09709646 -0.023738213
0002d0 d2 b8 4d bd df a2 32 bd 59 aa 25 3e 1d ea d6 3d
       -0.050225087 -0.043612357 0.16178264 0.10493872
0002e0 70 02 96 3c d8 2a 71 3e 5c 24 11 3e 72 df 13 3c
       0.01831171 0.235515 0.14174026 0.0090254415
0002f0 31 ea 8e 3d 6f 71 a3 bc fb a2 bc 3d 13 8f d9 bd
       0.06978262 -0.01995155 0.092107736 -0.10622992
000300 4c 62 f5 bc bc 26 4e bd 68 fe ab bd ef 8e 05 be
       -0.029954098 -0.05032991 -0.083981335 -0.13042806
000310 0c 1d 86 bd 0e c8 0d 3e 43 88 a9 3d 86 79 1c be
       -0.06548509 0.13845846 0.08277943 -0.15280733
000320 f5 0d 9c 3d 76 2e 03 be 5c 64 0a be d2 7e 93 3d
       0.076198496 -0.12810692 -0.13514847 0.072019234
000330 ff cf 34 3d 21 b2 17 bc 7d 4b 90 3e 34 6d 21 be
       0.044143673 -0.009258778 0.28182593 -0.15764314
000340 d2 e8 25 39 b1 51 ab bd 40 46 07 bd af 59 fe bd
       0.00015822359 -0.08365191 -0.03302598 -0.124194495
000350 51 69 66 bc 7e cc 0d 3e 20 eb fe bd 5d c0 3a be
       -0.014063195 0.13847539 -0.1244719 -0.18237443
000360 32 f8 97 bd e9 b6 9b 3d cd 5e 96 bc 6d 52 71 3c
       -0.074203864 0.07603247 -0.018355751 0.0147291245
000370 e8 30 99 bd 90 86 82 bd e0 95 ef 3d 95 f6 1e bb
       -0.07480031 -0.06373322 0.11698508 -0.002425586
000380 d6 81 cb 3c 6a b4 82 bd a9 68 2a bd 24 13 07 bc
       0.024842184 -0.063820675 -0.041603718 -0.00824431
000390 20 ca 6f bd 40 b3 d5 3c 95 64 83 3d 22 0c a6 bc
       -0.05854237 0.02608645 0.06415669 -0.020269457
0003a0 5b 38 44 3d 61 57 59 3e 8e 84 70 3d bb 0a c9 3d
       0.047905307 0.21224739 0.058720164 0.098165
0003b0 d9 99 8d 3d d2 92 57 3c 64 d1 d6 bc 06 29 be 3d
       0.0691411 0.013157563 -0.026222892 0.09285168
0003c0 34 bf 6b bd 9b c0 28 bd ac 3d f6 3d 1d 78 ae bd
       -0.057555392 -0.041199308 0.12023482 -0.085190035
0003d0 7a 5e 1f 3d ee d0 41 bd ed d7 75 3d 61 ef a3 3d
       0.03890846 -0.04731839 0.060020376 0.08004642
0003e0 f5 93 62 be 28 2f 94 bd fb bf 4a 3a db a7 36 3c
       -0.22126754 -0.07235557 0.0007734296 0.011148418
0003f0 af 5c 74 bd 10 33 45 3d 56 17 05 3d 10 83 33 3d
       -0.059658702 0.0481444 0.032492958 0.043826163

network_body._body_endoder.seq_layers.2.bias f4 [128]
000000 bc 45 90 3b 72 4a f0 bb ac 96 9b 3b 6e c8 87 3b
       0.0044028442 -0.0073330933 0.004748186 0.004143766
000010 6f 29 f4 bb 42 c9 fb 3c d7 4f e5 bb 01 81 05 bc
       -0.0074512283 0.030735616 -0.006998043 -0.008148433
000020 20 a4 05 bc c2 87 30 bb 79 a3 88 39 d7 31 c6 bb
       -0.008156806 -0.0026936387 0.00026061738 -0.006048422
000030 b3 10 27 bc 31 d5 4c bc b3 85 26 bc 7f 66 60 bb
       -0.0101968525 -0.012502001 -0.010163712 -0.003424078
000040 42 42 97 bb 44 9a d6 3b b0 88 aa 3b 8a b4 29 3c
       -0.004616053 0.0065491516 0.0052042827 0.010357985
000050 7d da 91 ba 00 23 dc 39 d6 03 66 3b b4 17 f2 3c
       -0.0011127737 0.00041987747 0.0035097501 0.029552318
000060 c5 67 6c 3b 27 d5 ca ba 8b b9 b4 3b 87 0a 10 3c
       0.0036072594 -0.0015474901 0.0055152825 0.008791572
000070 01 f3 86 39 b9 0e df bb fe 4b ea ba 80 fe 19 3c
       0.00025739524 -0.006807175 -0.0017875431 0.009399056
000080 d1 b5 42 3b 62 91 cb 3b 55 2b 25 3c 39 7a 41 bb
       0.0029710422 0.0062123993 0.010081132 -0.0029522313
000090 3d ca a2 ba 50 c0 e1 39 6a f7 a8 bb 2f 27 ae ba
       -0.0012419891 0.00043058628 -0.005156447 -0.0013286824
0000a0 51 e8 09 bc f3 2a 85 3c 5b 3b 0b 3c b0 e2 a4 3c
       -0.008417205 0.016255831 0.008498038 0.020127624
0000b0 b5 75 14 bc 8b ca 71 bb a5 2f 2a bb 71 e5 27 ba
       -0.009061267 -0.0036894407 -0.002596834 -0.0006404734
0000c0 82 bb 0d 3d c5 ba b5 bb ff 47 2e bc 85 68 a0 ba
       0.03460265 -0.0055459463 -0.010637282 -0.001223818
0000d0 d6 50 93 ba aa 09 9d 3b 76 45 ba bb 77 ce ea bb
       -0.0011239301 0.004792412 -0.00568455 -0.007165726
0000e0 01 e1 4c 3b 2a 67 3e bb 8b da 36 bc ec fa ec ba
       0.0031262042 -0.002905319 -0.011160503 -0.0018080152
0000f0 37 9f b0 3c 33 41 7b bb af 55 0d 3c 6d 5d e7 3a
       0.021560295 -0.0038338422 0.008626386 0.0017651744
000100 30 61 96 3b 74 51 3b bc bd af de 3c 96 5f 5a bb
       0.0045892224 -0.011432994 0.027183408 -0.0033321134
000110 c6 0d a8 bb 4e a1 b6 3b 5a c6 f2 ba 5d 6d 73 bb
       -0.005128595 0.0055734282 -0.0018522248 -0.0037144043
000120 4f b9 83 3c 89 2b 92 bb aa a4 0f 3b 97 cd a9 bb
       0.016079573 -0.004460756 0.0021918216 -0.005181979
000130 b0 72 d6 39 5e 38 67 3b f3 f2 28 3c 4c 07 0e 3c
       0.0004090271 0.00352814 0.01031183 0.008668732
000140 dd f6 1e 3c da 5e d8 bb 43 1b 7c 3b 6e c4 3e 3a
       0.0097024115 -0.006603104 0.0038468398 0.0007277195
000150 89 36 dc 3b d4 4b a1 3c 5b fd 08 3c e0 04 2b 3c
       0.0067203683 0.019689478 0.008361186 0.010438174
000160 a3 10 1d bc 3a 49 1d bc 46 25 e8 3b 38 e2 10 bc
       -0.009586486 -0.009599978 0.0070845215 -0.008842997
000170 79 f4 8e 39 c6 c4 5b 3b 1f a5 d5 3b e6 07 c7 3a
       0.00027266497 0.0033534034 0.006519928 0.0015184849
000180 82 d4 c0 3b 22 46 1b bc 8a 57 bd 3a d7 c6 20 bc
       0.005884708 -0.00947717 0.0014445644 -0.009813032
000190 6f 0c 03 3d 33 19 32 bc 5f 24 ae 3c 38 0b 05 3c
       0.03199428 -0.010870266 0.021257577 0.008120351
0001a0 4c a7 a4 3b 65 23 69 bb af 21 5d 3b 5c 29 22 bc
       0.005024826 -0.0035574075 0.0033742 -0.009897556
0001b0 42 ef ff 3b 39 c9 0a 3c b7 a5 ae 39 a3 ae 10 ba
       0.007810504 0.008470827 0.00033311333 -0.0005519187
0001c0 48 05 95 3c 07 9a f6 3b d5 23 a0 3c 13 35 a6 3a
       0.018190995 0.0075256857 0.019548336 0.0012680612
0001d0 25 4b 3f bc db 3f b8 3b a0 d0 1b ba e5 2f 36 bb
       -0.011675631 0.0056228465 -0.00059438683 -0.0027799543
0001e0 9d be 14 bc 39 08 10 bc 51 c9 56 3d bd 65 0a 3c
       -0.009078649 -0.008791023 0.052438084 0.008447108
0001f0 7d 5b 09 3c 5a e8 ca bb a5 f0 7e bb 7e b4 e8 3c
       0.008383629 -0.0061922492 -0.003890076 0.028406378

action_model._continuous_distribution.log_sigma f4 [1, 2]
000000 2b 3c cc bb cd 45 fa bc
       -0.0062327585 -0.030550862

action_model._continuous_distribution.mu.weight f4 [2, 128]
000000 68 a3 6f 3c cf 68 81 3b a2 7c 85 bc a5 c9 04 bd
       0.014626361 0.0039492617 -0.016294781 -0.032418866
000010 23 52 2a 3c 32 e4 02 bd 33 bb b5 bc b4 d6 3c 3c
       0.0103955595 -0.031955905 -0.02218399 0.011525799
000020 35 8e e0 3c 36 3c ce 3b 7d 5e 88 bc 64 07 d1 bc
       0.02741156 0.006293799 -0.016646618 -0.02551622
000030 ab 8e 32 bc 1d 74 4d 3c 5c 55 15 bc 4e cf fe bc
       -0.0108982725 0.012539891 -0.00911459 -0.03110471
000040 f5 5a 98 3c 43 99 2a bc 5a 22 ec bb 15 04 aa 3a
       0.01859806 -0.010412517 -0.0072062435 0.0012971187
000050 93 70 0a bc cf 9e 6e 3c 08 d8 de bb 3d 96 39 3b
       -0.008449691 0.01456423 -0.0068006553 0.0028318309
000060 74 67 6f bc 37 c0 d9 bc 86 77 33 bc a9 b2 21 3b
       -0.0146120675 -0.026580913 -0.01095379 0.002467314
000070 b8 06 c9 3c 09 47 18 bb 68 7d 35 bc a6 8d b0 3c
       0.024539337 -0.00232357 -0.011077262 0.021551918
000080 26 ab d3 bc 07 31 75 bc 0b ac 2c 3d 09 51 29 3c
       -0.025838446 -0.014965302 0.04215626 0.010334262
000090 f9 71 86 bc b4 d8 4d 3b 6d 56 2e 3d 43 c3 02 bd
       -0.016411768 0.0031409683 0.04256289 -0.031924497
0000a0 54 bd c1 3b a6 92 06 bd 29 66 d0 bc 5f f0 08 3c
       0.0059124622 -0.0328547 -0.025439339 0.00835809
0000b0 37 59 a5 bc 2d 93 76 bc 54 36 89 3c 6b 2f 2b 3c
       -0.020184143 -0.015049738 0.016749538 0.010448317
0000c0 4c 6d e5 bb 08 22 a9 3c 69 03 0d bb 13 ae 3c 3c
       -0.0070015546 0.02064611 -0.0021516925 0.011516112
0000d0 10 c5 81 3c 80 b8 d0 bc a7 16 8b bb c7 8d cf bc
       0.015841037 -0.025478601 -0.0042446437 -0.02533616
0000e0 21 91 8e bc c7 da bc bc 47 44 28 bc 70 38 5c 3c
       -0.017403187 -0.02305354 -0.010270185 0.01344119
0000f0 2d 45 68 bc e0 44 37 bc 6f 07 86 3c ae 93 f0 3b
       -0.014176649 -0.011185855 0.016360966 0.0073418235
000100 a3 1b 11 bd 4d 9e 9f bb 78 1a 33 bc 85 39 68 bc
       -0.035426747 -0.004871166 -0.010931604 -0.01417387
000110 f9 86 17 3c 58 45 82 ba f7 b2 22 bd c7 3e b9 3c
       0.009248489 -0.0009938879 -0.039721455 0.022612942
000120 cb b3 36 3c 46 d2 88 3c 9c 90 91 bc c0 8a 26 3c
       0.011151264 0.016701829 -0.01776915 0.0101649165
000130 3f f2 d6 3c 8e 50 55 bb e3 62 25 3c 04 ce 47 bd
       0.026238559 -0.0032549235 0.010094377 -0.048780456
000140 24 73 a2 3c bb 29 39 3b e0 ba 52 3b ce 65 5a bc
       0.019830294 0.0028253633 0.0032154843 -0.013329936
000150 46 9e 32 bb 3a e6 40 3c 22 90 0a bd f3 d6 82 bb
       -0.0027254983 0.01177364 -0.033828862 -0.003992909
000160 0e 3b 6a bb e1 3b 3d 3b 21 16 bd 3c 6e 7a 35 bc
       -0.0035740766 0.0028874802 0.023081841 -0.011076553
000170 e1 2d f5 3c ad 42 85 3b cb f3 b7 3c 8f 8f 09 bd
       0.029929103 0.0040667863 0.022455117 -0.033584174
000180 32 4c 45 3c c6 9d c5 3b b9 09 6b bc ff 87 19 bc
       0.012042092 0.006030771 -0.01434558 -0.009370803
000190 24 63 06 3d bb af e2 3a a5 aa dc 3b 62 06 ae 3a
       0.03280939 0.0017294803 0.0067342096 0.0013277049
0001a0 f6 15 4a 3b af 70 60 3c bc 93 e9 bc 48 00 4d bc
       0.0030835844 0.013698741 -0.028512828 -0.012512274
0001b0 c6 de af 3c c6 65 c2 3b 7e fc 45 3b 1f 74 42 3c
       0.021468531 0.0059325425 0.0030210312 0.011868506
0001c0 7b 66 b8 3c 29 43 48 3c 50 40 31 3c d1 28 96 bc
       0.022509804 0.0122230435 0.010818556 -0.01833001
0001d0 67 6a 78 bb 3a 6f ba 3c f8 25 20 3c d6 7e 16 bc
       -0.0037905218 0.022758115 0.009774677 -0.0091855135
0001e0 8a 13 0a bc 0d 87 56 3c 65 52 4f bd 56 07 ce bc
       -0.00842751 0.013093722 -0.050615687 -0.025149982
0001f0 41 19 e3 3c 22 0e 71 3c 86 58 ef 3b 7c 01 cf 3b
       0.027722003 0.014712842 0.007304254 0.0063173156
000200 88 2b ea bc dc 6e 14 bc 96 61 eb 3c 25 0b 21 3c
       -0.02858521 -0.009059634 0.028733056 0.009829317
000210 0c e4 bf bc 48 4e 59 bd 8a 6e 73 bc ab 54 df ba
       -0.02342417 -0.05305317 -0.014857898 -0.0017038783
000220 31 1b b9 bb f1 64 e2 bb 68 75 bd 3c 42 f8 ff bb
       -0.0056489934 -0.006909006 0.023127273 -0.007811577
000230 95 d9 f5 bc 99 05 fc bb 92 cd c0 bc 14 c0 88 3b
       -0.030010978 -0.007691097 -0.023535524 0.004173288
000240 7d d1 bf bc a8 c7 58 3c 86 19 6f 3c 31 fc 03 bd
       -0.023415321 0.0132311955 0.014593488 -0.03222293
000250 65 88 91 3b cd 43 c5 bc d1 61 0a 3c e8 e2 2d 3d
       0.0044413083 -0.024080181 0.008446173 0.042452723
000260 df 0f 71 3c 43 51 6c 3b 00 7b c1 3c 79 bc dc bc
       0.014713257 0.0036059178 0.023618221 -0.02694534
000270 53 e0 81 bc 85 06 37 bc 95 a4 c0 3c 8e f5 2f 3d
       -0.015854036 -0.011170988 0.023515979 0.04295879
000280 3a c5 b7 bc 36 96 c1 bc e0 39 1c bd 22 14 1d bc
       -0.022432912 -0.023631196 -0.03814113 -0.00958732
000290 0c 13 c3 3b 40 90 a4 bb b5 ab 83 3c 46 99 e3 bb
       0.0059531983 -0.0050220788 0.016073087 -0.006945762
0002a0 9a 82 1d bd 92 bf 87 bd 79 7a b0 3b 72 9d f5 3c
       -0.03845463 -0.06628336 0.0053856936 0.029982302
0002b0 7f 7c f8 bc 03 ef dc bb 05 8d 94 bb ba 60 b5 3c
       -0.030332802 -0.0067423596 -0.0045334124 0.02214085
0002c0 a1 6b 06 3d b6 ed b6 bc 49 e8 25 bc 26 f4 15 bd
       0.032817487 -0.022330146 -0.010126182 -0.03660979
0002d0 36 64 1c bd 36 42 c1 3c da bc be 3c ab d8 e3 bb
       -0.038181506 0.023591142 0.02328341 -0.006953319
0002e0 03 a8 7b 3c c9 fc 0e 3c 81 a4 4e bc 8b 2b 80 bc
       0.015359881 0.008727261 -0.012612463 -0.015645763
0002f0 8f a3 79 bd 77 5c 50 bc 83 a2 4d 3c de 22 ad ba
       -0.060946997 -0.012717358 0.012550953 -0.0013209244
000300 7f d6 ad bc 55 2f 85 bc fd 9b 7e 3c 1b f4 23 bc
       -0.021220444 -0.016257921 0.01554012 -0.01000693
000310 d7 b5 8f bb 9d ed d7 3c 90 3f 87 3b 4f 3b ad bc
       -0.0043856907 0.02635842 0.0041274503 -0.021146445
000320 b3 23 1a 3c ec bb 01 3d c3 71 50 3c 14 87 c8 b9
       0.009407925 0.031673357 0.012722435 -0.00038247614
000330 8c d0 2e bc eb f7 14 3c 71 8b 29 3c dd 9a 23 bc
       -0.010669839 0.009092311 0.010348187 -0.009985653
000340 a8 e0 1f 3d a0 63 b3 ba 41 83 62 3d a3 dc 69 3c
       0.03903261 -0.0013686307 0.055300955 0.014273795
000350 b9 27 25 3d 46 b7 d3 3c e3 ab bb 3c 0c db 85 3c
       0.040321086 0.025844228 0.02290911 0.016339801
000360 94 c2 05 3c 24 25 46 3b 80 5c f9 3c d0 16 46 bc
       0.008164067 0.003023454 0.030439615 -0.0120904
000370 41 d3 14 bc 30 63 0e 3c c4 e7 80 3c 85 cb aa 3c
       -0.00908357 0.00869064 0.015735514 0.020848999
000380 3d 19 24 37 be c5 9c 3a 60 1c 82 3c b0 6a 3f bc
       9.781038e-06 0.0011960787 0.01588267 -0.011683151
000390 44 7a 29 3c d0 c0 9b bb 74 a4 c7 3c b1 5d 6a 3c
       0.010344092 -0.0047532097 0.02437041 0.014304564
0003a0 39 c4 d6 3c e8 a5 d7 3c 7b 78 3a bc 57 f6 15 bd
       0.026216613 0.026324227 -0.011381264 -0.03661188
0003b0 ab 58 c1 3b 03 4c 24 3d 2f ea 8e bb 05 81 28 3b
       0.0059004626 0.040111553 -0.004361413 0.0025711667
0003c0 bb 4e e8 3c 3c 79 f8 3b f8 bf 96 bd c3 73 93 bc
       0.028357854 0.0075828116 -0.07360834 -0.017999535
0003d0 72 33 20 bc 10 f3 9f 3b d4 98 8d bb bf 8a 3a 3c
       -0.0097778905 0.00488127 -0.004321197 0.011385619
0003e0 f7 64 41 bc 5a 2a 67 bc 05 bd d8 bd 38 ec ba 3c
       -0.011803857 -0.0141092185 -0.105829276 0.022817716
0003f0 c6 51 3a bc a0 1a b7 bc 14 05 dc bc 02 f1 6e 3d
       -0.011372035 -0.022351563 -0.02685789 0.05833531

action_model._continuous_distribution.mu.bias f4 [2]
000000 01 90 46 3b b3 45 10 3c
       0.0030298235 0.00880568

exp_avg f4 [128, 6]
000000 1d a6 03 ba fb e6 c5 b7 f3 d8 9a ba 8b c1 4b 3a
       -0.0005022006 -2.3591789e-05 -0.0011813923 0.00077726756
000010 6f b5 c5 b7 e1 8f 0e ba e0 4a 50 b9 61 48 d0 b8
       -2.3568717e-05 -0.000543831 -0.00019864319 -9.9316945e-05
000020 aa 9b 17 bb 95 93 25 ba 01 13 d0 b8 e7 41 4e bb
       -0.0023133554 -0.0006316242 -9.921753e-05 -0.0031472386
000030 25 85 4c b8 38 bc b3 b7 75 2d a5 b9 a0 a9 9f b9
       -4.876139e-05 -2.1426109e-05 -0.0003150512 -0.00030453224
000040 47 8e b3 b7 c9 58 f8 b9 10 f0 c4 38 09 3e 1f b7
       -2.1404716e-05 -0.00047368396 9.3907234e-05 -9.491582e-06
000050 49 25 1c 38 83 c8 5d b9 3f 15 1f b7 4e 1d b4 b9
       3.7228023e-05 -0.00021150899 -9.482085e-06 -0.0003435411
000060 ff fd ff 39 a9 81 39 37 99 40 b6 3a 3a 20 59 ba
       0.00048826632 1.1057048e-05 0.001390475 -0.0008282695
000070 88 59 39 37 64 13 69 39 c2 3c 04 38 80 9e 53 b7
       1.1047705e-05 0.00022227835 3.1527838e-05 -1.2613484e-05
000080 70 b6 12 ba 34 65 d0 b8 50 68 53 b7 f3 8a 01 ba
       -0.00055966433 -9.9370634e-05 -1.2600867e-05 -0.00049416645
000090 87 eb 4f 39 a9 03 bc 38 1a 75 10 3b 0c d7 ac 39
       0.00019828799 8.96522e-05 0.0022042454 0.0003296662
0000a0 63 d3 bb 38 ff aa 2d 3b d1 8d 9a 39 1a 79 2a b8
       8.956229e-05 0.0026499627 0.0002947883 -4.0643943e-05
0000b0 42 d0 84 ba e8 9c 23 ba 9f 4d 2a b8 21 08 01 bb
       -0.0010132866 -0.00062413374 -4.060345e-05 -0.0019688683
0000c0 26 11 63 39 d7 f7 06 37 96 0a a7 3a 60 ff 16 38
       0.00021654795 8.044727e-06 0.0012744244 3.6000623e-05
0000d0 60 d8 06 37 2f 11 19 3a ba 3c 8e b8 14 b3 8c 37
       8.037401e-06 0.00058390474 -6.782399e-05 1.677269e-05
0000e0 42 7f 40 39 37 a1 95 39 1d 90 8c 37 4f f6 13 3a
       0.00018357954 0.0002853961 1.6756409e-05 0.0005644308
0000f0 d6 f6 6d 35 7d bb e1 b3 49 1d 82 34 5f cb b7 b4
       8.8648574e-07 -1.0511483e-07 2.4235695e-07 -3.4234378e-07
000100 c5 82 e1 b3 e5 f4 27 b6 ab 17 8c b8 b4 42 d1 b6
       -1.0501166e-07 -2.5027487e-06 -6.680129e-05 -6.2364506e-06
000110 ff 50 d9 b7 a5 aa 45 b9 37 0e d1 b6 47 d5 d3 37
       -2.5906133e-05 -0.00018850954 -6.23034e-06 2.5252475e-05
000120 3a 0c d7 34 6f bc d0 b2 60 0d 54 b5 44 b8 54 34
       4.0055767e-07 -2.4300077e-08 -7.899562e-07 1.9811074e-07
000130 76 95 d0 b2 bc a5 44 b5 57 c6 8b b7 be 60 56 37
       -2.4282354e-08 -7.3256865e-07 -1.666245e-05 1.27779185e-05
000140 c9 b0 08 3a 85 c2 0d 38 02 2a 56 37 b1 60 da 39
       0.00052143313 3.379818e-05 1.2765175e-05 0.0004165224
000150 7a b0 02 b4 35 56 36 b3 db 0b 82 b5 3a 8d 28 b4
       -1.2171395e-07 -4.2453582e-08 -9.689205e-07 -1.5697597e-07
000160 a9 27 36 b3 5e eb aa b5 6a 22 c8 39 27 f2 8f 37
       -4.2411248e-08 -1.2734488e-06 0.00038172613 1.715969e-05
000170 85 36 ae 3a db 2f 8a b9 88 cd 8f 37 cc 44 13 3a
       0.0013291395 -0.00026357066 1.7142636e-05 0.00056178565
000180 d7 1c 84 39 e2 97 81 b8 b8 df 46 ba 18 ad 95 ba
       0.0002519849 -6.17949e-05 -0.0007586437 -0.0011419384
000190 61 76 81 b8 1c c7 03 bb fd 67 da b7 87 9e e1 b6
       -6.173249e-05 -0.0020107692 -2.6036048e-05 -6.7239775e-06
0001a0 11 d5 3d 39 8f 83 85 b9 12 69 e1 b6 1e 4c 46 b9
       0.00018103818 -0.00025465756 -6.7177543e-06 -0.00018911107
0001b0 a4 92 ca b8 b9 5e 88 b7 f4 1f df b9 df 10 9d b8
       -9.6594245e-05 -1.6256572e-05 -0.0004255768 -7.489486e-05
0001c0 a1 3b 88 b7 43 eb 0c ba 8f e0 40 39 99 48 1e 38
       -1.624023e-05 -0.0005375633 0.00018394201 3.7737747e-05
0001d0 ab e9 4c 3a 5e 27 28 b7 27 20 1e 38 a0 ec 7b 3a
       0.00078168017 -1.0022746e-05 3.770008e-05 0.000961015
0001e0 1a a9 28 38 03 99 9d b7 bd 02 a5 ba 65 46 e0 b9
       4.021181e-05 -1.878711e-05 -0.0012589317 -0.00042777057
0001f0 e6 70 9d b7 b5 78 82 ba 6a 67 4f b9 43 46 48 b8
       -1.876843e-05 -0.0009954186 -0.00019779583 -4.7749152e-05
000200 55 a4 89 ba cd d1 f9 b8 b2 13 48 b8 9d 90 c3 ba
       -0.0010501245 -0.00011912324 -4.770206e-05 -0.0014920417
000210 9a ab 48 3a 9b d1 71 38 a6 25 f0 3a 95 c9 29 ba
       0.0007654965 5.7654088e-05 0.0018321767 -0.00064768764
000220 1a 95 71 38 25 57 ba 3a 0c 71 9e b9 49 3e 79 38
       5.759774e-05 0.0014216645 -0.00030220335 5.9424234e-05
000230 76 e2 aa 39 16 8f 81 3a bb fe 78 38 ac ec df 3a
       0.00032593653 0.0009884562 5.9365044e-05 0.0017084084
000240 34 e3 8c b8 68 e6 b1 37 ea af b7 b9 fb 77 ff b8
       -6.71804e-05 2.1207336e-05 -0.00035035546 -0.00012181696
000250 b6 b4 b1 37 fa ec 05 39 7a 06 b0 30 70 8c 90 af
       2.1184194e-05 0.00012772149 1.2807526e-09 -2.6293234e-10
000260 b8 92 f9 b0 4e d3 c9 b1 5a 65 90 af 15 af 01 b2
       -1.8158834e-09 -5.8738925e-09 -2.6265462e-10 -7.548597e-09
000270 4b 8f bb b6 8f 61 58 35 a2 34 14 38 ce 04 28 38
       -5.589716e-06 8.0608237e-07 3.5334968e-05 4.0058796e-05
000280 b9 22 58 35 96 28 59 38 09 5a e4 b7 69 dc 19 36
       8.05168e-07 5.177463e-05 -2.7221644e-05 2.2927072e-06
000290 80 3d d6 38 2c 96 e9 b7 1e b4 19 36 8a 97 e2 38
       0.000102157705 -2.7845694e-05 2.2903619e-06 0.00010804746
0002a0 6c f9 96 b9 7d 78 60 b8 4c 67 f1 ba f7 0f f6 b9
       -0.00028796063 -5.3517975e-05 -0.0018417626 -0.0004693267
0002b0 50 3f 60 b8 81 f6 f5 ba 40 9e 81 38 a7 30 f4 36
       -5.3464726e-05 -0.001876548 6.180676e-05 7.2774305e-06
0002c0 16 7d 0e 3a dd ed 46 39 cd f7 f3 36 58 65 c9 39
       0.00054355094 0.00018971362 7.270812e-06 0.00038413214
0002d0 23 90 18 b7 8f 34 ea b4 5a 72 d9 b6 8f 3a b8 b6
       -9.093465e-06 -4.3624138e-07 -6.4804162e-06 -5.4904444e-06
0002e0 56 fe e9 b4 ac e2 7c b7 2b e0 7f 39 2f 87 30 b7
       -4.3584686e-07 -1.5073147e-05 0.00024402204 -1.0521892e-05
0002f0 32 b9 1b b9 70 91 3b ba c0 5a 30 b7 33 04 41 ba
       -0.00014850943 -0.0007155156 -1.0511547e-05 -0.00073629915
000300 d0 e6 1c ba 30 81 d7 b8 8d ec 48 bb 3f d8 8f 3a
       -0.00059853215 -0.00010276062 -0.0030658573 0.001097448
000310 25 4a d7 b8 6b 63 2f bb 89 6a dd b8 43 f5 d4 b5
       -0.000102658094 -0.0026762139 -0.00010557945 -1.5866611e-06
000320 1f 9c 0d b9 b0 c5 03 b8 bf be d4 b5 36 e5 d1 b8
       -0.00013504968 -3.1416945e-05 -1.5850745e-06 -0.000100085905
000330 62 3a a3 b9 28 54 e5 37 b8 38 d4 b7 1b 4d 78 3a
       -0.0003113328 2.7338116e-05 -2.5298781e-05 0.0009471939
000340 e3 16 e5 37 8f cb 38 3a 4e e0 1f 36 2b fc 8b b5
       2.7309585e-05 0.00070493756 2.3823409e-06 -1.0429698e-06
000350 5d 4a 4f b6 f3 fd b4 b7 97 d8 8b b5 60 1e ed b7
       -3.0888689e-06 -2.1575926e-05 -1.0419343e-06 -2.8266746e-05
000360 0d 12 d9 39 17 43 90 37 39 d3 e9 39 e7 cc 4c ba
       0.00041402914 1.7197379e-05 0.00044598596 -0.0007812515
000370 8e 1f 90 37 d3 c7 46 39 79 f7 fd b6 2c d9 a9 36
       1.7180831e-05 0.00018957192 -7.568797e-06 5.0618746e-06
000380 a6 6d a8 38 4c 2f a6 38 9c 9b a9 36 d7 13 de 38
       8.031288e-05 7.9243066e-05 5.054708e-06 0.000105894804
000390 d3 92 6c b9 65 d6 b6 b6 62 02 31 b9 87 6a 1b 39
       -0.0002256141 -5.4489815e-06 -0.00016880923 0.00014821636
0003a0 77 a7 b6 b6 b0 8b 0c b7 c2 9e c5 b9 17 3b 3f 37
       -5.443518e-06 -8.377174e-06 -0.00037693052 1.1398245e-05
0003b0 f1 e8 54 b8 d3 4d a5 3a 8a 05 3f 37 76 9d 5a 3a
       -5.0761682e-05 0.0012611694 1.1385777e-05 0.00083395035
0003c0 79 b7 27 39 b1 ea 70 38 10 3d fa 3a 38 04 19 39
       0.0001599471 5.7439032e-05 0.0019091684 0.00014592789
0003d0 41 ab 70 38 11 91 01 3b f6 2e 9c b8 62 ea a3 b8
       5.737995e-05 0.0019770304 -7.447407e-05 -7.816103e-05
0003e0 67 99 df ba 33 98 03 ba 55 c0 a3 b8 25 06 23 bb
       -0.0017059267 -0.0005019933 -7.80827e-05 -0.0024875489
0003f0 c8 e5 73 b7 45 79 14 36 de 5f f8 37 50 d7 73 38
       -1.4537429e-05 2.2124307e-06 2.9608545e-05 5.813624e-05

exp_avg_sq f4 [128, 6]
000000 7e a5 68 36 dc 0b fe 32 2d cf b3 37 bb 92 a6 36
       3.4667023e-06 2.9574885e-08 2.1434937e-05 4.964267e-06
000010 fd 89 fd 32 a6 d7 36 38 25 47 bf 35 57 ce 8d 32
       2.9515826e-08 4.359302e-05 1.4251315e-06 1.6508393e-08
000020 12 64 ae 37 65 75 f8 35 ab 85 8d 32 52 57 ce 37
       2.0789015e-05 1.8511606e-06 1.6475346e-08 2.4597775e-05
000030 cd 93 5c 35 25 a7 a7 31 38 b4 0d 37 01 46 a4 35
       8.2171465e-07 4.879342e-09 8.446215e-06 1.2239326e-06
000040 22 51 a7 31 59 52 c5 36 bb b8 1f 35 d4 44 2e 31
       4.8695634e-09 5.880644e-06 5.9500934e-07 2.5359457e-09
000050 a2 dd 39 34 6a a8 03 35 99 eb 2d 31 65 b8 8d 36
       1.7310097e-07 4.904638e-07 2.5308735e-09 4.223594e-06
000060 f4 b7 33 36 79 45 d0 32 fd c3 81 37 d8 e1 92 36
       2.6780153e-06 2.424598e-08 1.5469263e-05 4.3774307e-06
000070 07 db cf 32 78 07 16 38 f7 5e d4 35 4c 89 da 31
       2.4197574e-08 3.5769743e-05 1.5822869e-06 6.360244e-09
000080 78 7b 35 37 97 9a 5e 35 19 19 da 31 31 b2 0e 37
       1.0817188e-05 8.29264e-07 6.3474883e-09 8.505348e-06
000090 12 b1 ae 35 84 cc 77 32 af fb 98 37 d5 58 42 35
       1.3015544e-06 1.4423794e-08 1.8237011e-05 7.23999e-07
0000a0 81 4d 77 32 05 1b b4 37 fe b0 5c 36 4f 67 c7 32
       1.4394915e-08 2.1470254e-05 3.2885578e-06 2.3213628e-08
0000b0 e0 5d 82 37 26 61 9e 36 46 01 c7 32 b7 d3 09 38
       1.5540922e-05 4.7200765e-06 2.3167228e-08 3.286052e-05
0000c0 5b ec a8 35 46 5c 8b 32 38 96 9f 37 3c fa 6c 35
       1.2585764e-06 1.622369e-08 1.9024228e-05 8.828099e-07
0000d0 e0 14 8b 32 1b 10 d1 37 c3 95 6b 35 39 d4 a7 31
       1.6191223e-08 2.4922241e-05 8.7762254e-07 4.8844666e-09
0000e0 f1 00 33 34 79 82 14 36 6c 7e a7 31 1f 4a e8 36
       1.6671017e-07 2.2129664e-06 4.874712e-09 6.9227676e-06
0000f0 66 af f0 30 6a 1a d7 2c 3a 1b 00 2f 8a 6f 58 31
       1.751215e-09 6.1136e-12 1.1651205e-10 3.149554e-09
000100 3b ac d6 2c 27 2b c0 31 de 52 7b 35 ef af e9 31
       6.1013672e-12 5.5928413e-09 9.3625374e-07 6.801194e-09
000110 6e a3 0d 35 d8 e3 87 36 91 38 e9 31 42 ed 0c 37
       5.2764415e-07 4.049838e-06 6.7876234e-09 8.399891e-06
000120 f0 1f 89 30 e3 56 ce 2b 57 d1 ab 30 96 fa 22 30
       9.977139e-10 1.4661296e-12 1.2501385e-09 5.929136e-10
000130 29 ee cd 2b 96 5b bb 30 c4 44 69 35 11 5f a4 31
       1.4632229e-12 1.3632071e-09 8.689933e-07 4.783836e-09
000140 11 24 85 36 02 34 8b 35 04 0b a4 31 86 f1 e3 36
       3.9679076e-06 1.0371443e-06 4.7742805e-09 6.793244e-06
000150 51 6d 43 2d 0d 13 94 29 b1 c0 20 2f b8 37 d9 2c
       1.110874e-11 6.575825e-14 1.4620373e-10 6.173697e-12
000160 41 c7 93 29 68 60 74 2e 6f 59 b0 35 ad f4 6c 32
       6.5626764e-14 5.5564803e-11 1.313905e-06 1.3792641e-08
000170 0a 47 82 37 2d f2 98 35 4c 7b 6c 32 1a 0c a8 37
       1.5530288e-05 1.1395365e-06 1.3765042e-08 2.0032796e-05
000180 f8 02 a1 36 0b 41 17 33 84 26 28 38 70 b0 ed 36
       4.7985195e-06 3.5216583e-08 4.009019e-05 7.0836904e-06
000190 a5 f3 16 33 71 00 54 38 7c 73 28 35 96 bc d8 31
       3.514619e-08 5.054515e-05 6.275293e-07 6.307867e-09
0001a0 60 f4 57 36 b5 00 b0 34 a4 4d d8 31 dd d7 1a 37
       3.2179742e-06 3.278307e-07 6.295254e-09 9.229375e-06
0001b0 24 78 0e 35 b6 2a 90 31 e9 4d b9 36 38 22 aa 34
       5.307395e-07 4.1958073e-09 5.5224996e-06 3.1689865e-07
0001c0 dd e0 8f 31 e3 89 c9 36 c5 c6 2b 35 f3 de c1 31
       4.1874118e-09 6.006319e-06 6.399171e-07 5.6423857e-09
0001d0 da 1b 25 37 fd 1b 70 35 89 7b c1 31 33 40 05 37
       9.841251e-06 8.9447695e-07 5.6310836e-09 7.942365e-06
0001e0 1e 49 e5 35 c7 75 be 32 93 c5 fb 37 69 af be 35
       1.708311e-06 2.217247e-08 3.0013534e-05 1.4207154e-06
0001f0 21 14 be 32 61 38 09 38 5f 1a ce 35 d8 be 9e 32
       2.2128065e-08 3.2715852e-05 1.5355871e-06 1.8480407e-08
000200 9f bd cf 37 29 bb ab 35 85 6d 9e 32 ce e1 ea 37
       2.4764622e-05 1.2794964e-06 1.8443425e-08 2.8000122e-05
000210 77 26 c8 36 6d 02 53 33 de a8 42 38 c9 fd e6 36
       5.9649424e-06 4.9129472e-08 4.6410474e-05 6.8840786e-06
000220 97 96 52 33 b1 03 96 38 ee d1 82 35 57 0a e1 31
       4.9031396e-08 7.153245e-05 9.746852e-07 6.5495374e-09
000230 a2 c5 b9 34 03 a9 41 36 59 97 e0 31 51 a1 1b 37
       3.4602732e-07 2.885762e-06 6.5364643e-09 9.276279e-06
000240 83 ff 0b 36 e8 d6 9f 32 ad 8c 7a 37 ec f0 40 36
       2.0861341e-06 1.8607764e-08 1.4933915e-05 2.8750464e-06
000250 1e 85 9f 32 ff cc e4 37 ec 2a 29 25 cd 79 96 21
       1.857057e-08 2.7275177e-05 1.4672956e-16 1.0196636e-18
000260 b9 d6 b9 22 1e f2 2a 26 fb 2c 96 21 66 d4 6d 26
       5.0371697e-18 5.930873e-16 1.0176302e-18 8.2513746e-16
000270 90 38 3d 33 a9 73 ac 2f f3 3b e7 31 ca 12 d8 33
       4.4056435e-08 3.13688e-10 6.7298003e-09 1.00617015e-07
000280 86 1b ac 2f d6 f1 c9 34 c6 3a b0 34 9b fe 5c 31
       3.1306174e-10 3.7615126e-07 3.2825318e-07 3.215894e-09
000290 6f 7b c3 36 e9 b0 19 34 37 8d 5c 31 95 d1 ac 36
       5.8258224e-06 1.4313595e-07 3.2094485e-09 5.150398e-06
0002a0 da 92 b5 36 c6 79 15 33 a4 43 3c 38 9f fd 82 36
       5.411316e-06 3.4802518e-08 4.4885688e-05 3.9038273e-06
0002b0 55 2d 15 33 9a 8a 46 38 3c c9 7b 35 f7 9b 3c 32
       3.4732995e-08 4.733596e-05 9.379762e-07 1.09785026e-08
0002c0 5f bb 6e 37 00 5f 94 35 48 3b 3c 32 eb e0 89 37
       1.4229531e-05 1.1054508e-06 1.0956519e-08 1.6436408e-05
0002d0 fa 7a 47 32 f5 67 e0 2d 13 64 03 31 22 89 24 31
       1.1611286e-08 2.5512018e-11 1.9119895e-09 2.3943092e-09
0002e0 12 f7 df 2d 87 43 23 33 01 61 18 36 92 6b af 32
       2.5461886e-11 3.801281e-08 2.2706229e-06 2.0421599e-08
0002f0 5e ca bf 37 16 2d 1f 36 c2 11 af 32 5b ff f9 37
       2.2863209e-05 2.371909e-06 2.0380757e-08 2.9802022e-05
000300 8c 62 1b 37 e9 d1 e2 33 91 9f 07 39 c0 ea 02 37
       9.261665e-06 1.05621275e-07 0.00012934046 7.803261e-06
000310 ab 5d e2 33 12 60 2f 39 d0 01 f5 35 74 d5 0b 32
       1.0540983e-07 0.0001672509 1.825445e-06 8.1393985e-09
000320 54 ce 08 37 ac de be 35 0d 8e 0b 32 9d 82 2a 37
       8.154271e-06 1.4220909e-06 8.1231635e-09 1.01632e-05
000330 ff 7a 21 36 1a de b4 32 4d 1b 3e 37 f9 df 96 36
       2.4062463e-06 2.1055758e-08 1.1331239e-05 4.496422e-06
000340 99 81 b4 32 b1 ab 02 38 bd 5b b5 30 a5 5a cd 2c
       2.1013692e-08 3.1154315e-05 1.3195557e-09 5.836514e-12
000350 b2 40 a5 30 7e c7 59 31 28 f2 cc 2c d3 b2 bd 31
       1.2023718e-09 3.1691054e-09 5.8249135e-12 5.520954e-09
000360 bd a3 a0 36 f6 66 38 33 ce ea 43 38 80 cc a3 36
       4.787433e-06 4.293448e-08 4.6710302e-05 4.8815855e-06
000370 9a 08 38 33 30 a6 84 38 2d ad 08 35 65 21 7d 31
       4.284866e-08 6.325205e-05 5.091595e-07 3.6835328e-09
000380 86 a0 49 33 73 85 e8 35 80 a0 7c 31 3c c3 c3 36
       4.6944955e-08 1.7324186e-06 3.676206e-09 5.834181e-06
000390 47 a4 bd 35 5a 54 d8 31 20 b7 ab 36 c4 7d 9f 35
       1.4129408e-06 6.296017e-09 5.1175157e-06 1.1883026e-06
0003a0 d3 e5 d7 31 92 3f 0c 37 7e b6 b1 36 fc 5c 64 33
       6.2834515e-09 8.359451e-06 5.296256e-06 5.3169956e-08
0003b0 95 1f 69 38 d8 0f a3 36 00 e8 63 33 c3 c9 a5 38
       5.5580942e-05 4.859623e-06 5.306356e-08 7.905394e-05
0003c0 5d 16 94 36 ba a8 3a 33 3b 83 6b 38 3d da 92 36
       4.413347e-06 4.3459956e-08 5.6150584e-05 4.3765453e-06
0003d0 2f 49 3a 33 64 ac 84 38 60 ba 57 36 56 87 ea 32
       4.337306e-08 6.326361e-05 3.214598e-06 2.7302729e-08
0003e0 c8 d1 0a 38 d6 5a 60 36 48 0f ea 32 99 2e 25 38
       3.3097138e-05 3.3431475e-06 2.7248134e-08 3.9382463e-05
0003f0 75 2c be 32 10 e9 39 2f 04 58 3d 31 6f 2d 78 33
       2.2139128e-08 1.6908452e-10 2.755315e-09 5.778332e-08

exp_avg f4 [128]
000000 6c b5 45 b8 03 13 50 b9 46 8e 33 b8 40 15 9f b7
       -4.7137422e-05 -0.00019843508 -4.2809428e-05 -1.8964172e-05
000010 8c 59 b9 37 4d 68 d3 b7 62 d3 3b 39 9f 4d aa b8
       2.2095417e-05 -2.5201729e-05 0.00017912456 -8.12069e-05
000020 78 d8 86 37 1d 90 0c 38 be 82 61 b4 3f 0e 51 b7
       1.6074846e-05 3.3512817e-05 -2.1002322e-07 -1.2460688e-05
000030 99 95 50 b3 03 2a d6 37 a4 27 b6 b3 8d cd 0f 38
       -4.8564832e-08 2.5530351e-05 -8.482246e-08 3.428529e-05
000040 61 76 01 b9 19 69 61 b7 a2 3b 08 b8 26 20 9e 38
       -0.00012346498 -1.3435515e-05 -3.2480464e-05 7.540015e-05
000050 e6 70 1d b8 b3 13 c8 b8 1d 95 f1 38 bd fe f8 38
       -3.753686e-05 -9.5404124e-05 0.0001151955 0.0001187301
000060 a2 b4 31 38 59 65 10 b0 a6 22 d8 35 20 b4 99 36
       4.2368316e-05 -5.253092e-10 1.6103338e-06 4.5807246e-06
000070 4c 3f e0 b8 d2 f7 73 37 53 fe 69 b5 b5 5a b0 b7
       -0.00010692942 1.4541629e-05 -8.7169354e-07 -2.1023074e-05
000080 23 4a 57 b9 4a be 54 b6 e5 16 65 38 97 d8 0b b6
       -0.00020531616 -3.1701225e-06 5.4619177e-05 -2.0838686e-06
000090 8b 1f 10 38 9b 9b 29 37 7a a7 36 b7 a4 05 bf 37
       3.4361652e-05 1.0109415e-05 -1.0887039e-05 2.2771601e-05
0000a0 3f ab f0 38 54 c0 23 b9 6f 51 94 36 ad cf b6 38
       0.00011475989 -0.00015616539 4.420224e-06 8.717119e-05
0000b0 c1 ea f1 b6 07 83 52 b7 a2 53 08 b7 d7 c7 da b8
       -7.2096886e-06 -1.2547483e-05 -8.125704e-06 -0.00010432273
0000c0 4b 77 64 38 49 54 92 2f d0 22 9e 36 cf e9 01 36
       5.4470536e-05 2.6617133e-10 4.7128196e-06 1.9358592e-06
0000d0 60 f8 d8 36 a2 5f 94 b2 05 64 d9 b3 30 cc d8 33
       6.4662163e-06 -1.7272956e-08 -1.01230434e-07 1.0095425e-07
0000e0 4c 8b bc 37 39 af 9e 39 37 6d 30 b6 13 e9 34 b9
       2.2476212e-05 0.0003026666 -2.6289615e-06 -0.00017252965
0000f0 b2 f2 14 38 ff 5e f6 36 3a ed d2 38 5b 92 f8 37
       3.5511977e-05 7.3424303e-06 0.00010057767 2.9632056e-05
000100 08 2b 4c b9 e0 bd d1 b6 3e 67 27 38 a2 38 49 b8
       -0.00019470986 -6.2507897e-06 3.9912054e-05 -4.7974878e-05
000110 38 3a 2b b9 2b bd d6 38 ad 6c 58 b7 36 f1 21 b8
       -0.00016329519 0.000102395505 -1.2899906e-05 -3.8610036e-05
000120 98 a5 27 38 4b 7e b0 38 23 a2 25 b9 1e 91 29 b8
       3.9970124e-05 8.415858e-05 -0.00015796027 -4.042789e-05
000130 9e f6 76 b3 b7 ad 8c b9 bd aa 5d b5 c4 84 07 38
       -5.7500635e-08 -0.00026832309 -8.257737e-07 3.2310156e-05
000140 db 9f 22 b9 67 b5 6a 39 1c 82 82 38 69 a1 1c b8
       -0.00015509075 0.00022383557 6.223118e-05 -3.7343623e-05
000150 ec cb 28 38 bd aa 10 b6 77 a9 9c b7 d2 9b d8 b8
       4.024424e-05 -2.1557055e-06 -1.8675562e-05 -0.000103287064
000160 97 53 d1 b8 05 76 79 b3 9b b2 01 38 fc 62 91 b8
       -9.9814664e-05 -5.808217e-08 3.0922336e-05 -6.932576e-05
000170 77 3d 87 39 90 bb 52 b8 d3 1d 86 b8 42 2a 8d 38
       0.00025795 -5.0242583e-05 -6.395173e-05 6.731275e-05
000180 37 c7 58 b9 1f dc 4e 38 57 56 12 36 af f5 9c 31
       -0.00020673579 4.931923e-05 2.1805952e-06 4.5681285e-09
000190 1c 5c c4 38 88 65 8c b9 19 ed 5f b8 97 1e df 36
       9.363165e-05 -0.00026778528 -5.3388158e-05 6.649479e-06
0001a0 f9 30 03 b3 39 fe 53 b6 94 62 5e 38 24 61 c3 35
       -3.0545355e-08 -3.1589427e-06 5.3020733e-05 1.4556904e-06
0001b0 bd b2 1d b9 31 e2 be 38 c5 c2 30 39 c3 70 57 b9
       -0.00015039272 9.1020374e-05 0.00016857225 -0.00020546005
0001c0 14 2e 9a 33 c0 80 92 39 d6 7c f8 b4 31 75 5d 37
       7.1795654e-08 0.00027943216 -4.628443e-07 1.3199912e-05
0001d0 94 1c 00 b9 2a c4 f6 36 92 9e c7 b8 83 b5 22 b6
       -0.00012217677 7.354208e-06 -9.5185955e-05 -2.4245535e-06
0001e0 5b 7e db b7 86 f6 82 b8 d0 53 2d b8 a2 10 8e b8
       -2.6165673e-05 -6.2448016e-05 -4.132447e-05 -6.774186e-05
0001f0 f3 63 9e b8 83 73 91 36 5c 68 20 39 ef 05 a1 b8
       -7.552644e-05 4.334784e-06 0.00015297666 -7.6781835e-05
