MLAgentsProject/results/MoveToGoal2/MoveToGoal/MoveToGoal-123371.onnx (onnx, 72461 bytes, 7 tensors)

action_model._continuous_distribution.log_sigma f4 [1, 2]
0.029478531 -0.0276688
00000000: f67c f13c aea9 e2bc

action_model._continuous_distribution.mu.bias f4 [2]
0.0040405523 -0.0031681885
00000000: 9c66 843b 62a1 4fbb

action_model._continuous_distribution.mu.weight f4 [2, 128]
-0.017715547 -0.05012401 0.010561813 -0.0124749495 -0.0072546867 -0.0030658592 -0.039514683 -0.0008472951
-0.025691101 -0.008667519 -0.023932427 -0.01718829 0.0071834098 0.009122102 0.012305217 -0.012045482
0.029661475 -0.0125276605 -0.018626025 -0.029311135 -0.027621808 -0.019453438 -0.024585132 0.035915602
0.00024611928 -0.020541249 0.019251183 -0.017318474 -0.0014782611 -0.03187058 0.014703074 -0.0128821945
-0.020175073 -0.013855323 -0.019449282 0.024620172 -0.014774816 -0.04201473 -0.017655473 -0.018177293
-0.011515101 -0.014165847 0.024032062 -0.006757652 -0.028468816 0.011429768 0.020382416 0.011144112
0.0046900418 0.030118693 0.04987893 -0.0075581223 0.008437653 -0.009050982 0.009714495 0.039099406
0.003693112 -0.016081052 0.0016405898 0.0011156684 -0.011214831 -0.046744388 -0.00335116 0.0041901516
0.0032048721 -0.03983587 0.003230692 -0.035198074 0.025270335 0.022114035 -0.015522128 -0.0006040892
0.0173867 -0.0013541336 -0.0007855525 0.004106952 0.012235119 -0.029549856 -0.040217906 -0.009443184
0.005966036 0.022104291 0.01019274 0.028257167 -0.02014058 0.0051360005 0.018935135 -0.030258406
-0.019513447 0.032113224 -0.0035561272 0.0032520755 0.008518714 -0.030236883 0.019135421 -0.021724386
-0.02553637 -0.010931734 -0.036467187 -0.028672913 -0.015549709 -0.0324042 -0.0025378368 -0.03892892
0.016491612 -0.00521381 -0.017683873 0.020013379 0.005856239 -0.013319901 -0.027908916 0.051090963
-0.007642771 -0.0116747385 -0.017373692 0.010740979 -0.01746413 0.007141472 0.009510234 -0.010721206
0.0058610193 -0.029579412 0.022882562 -0.01014106 -0.008862863 -0.006569544 -0.002921981 0.044753242
0.0052613644 0.0057596755 0.009974136 0.026726084 0.00884351 -0.011605486 0.021922668 0.033705484
0.0013406358 0.026123421 -0.004148554 0.021784918 0.020217653 -0.017140293 -0.009679969 0.027253889
-0.0055692033 0.019493628 -0.015719319 0.0049317023 -0.0017821264 -0.015350972 0.017480979 0.011166869
0.002512998 0.020045346 0.010947015 -0.0012755768 -0.039035104 0.015982384 0.02953258 -0.02238919
0.011852882 0.013566271 0.014885874 -0.0010332168 -0.005389969 -0.003962252 0.0041685863 -0.0059672026
-0.008901315 0.009572408 0.0032448038 0.026489105 -0.021486653 -0.0014533917 0.022799509 -0.04582169
0.021209111 -0.026753208 -0.008387908 0.010048629 -0.010966665 0.012699866 0.013725437 0.013386486
0.010233503 -0.02993216 -0.001322372 0.033086084 0.0038614483 0.026144793 -0.033518884 -0.015072576
0.016531311 -0.03533615 -0.0031013598 -0.009382215 0.00186309 -0.01836477 0.013297048 0.004799424
-0.002855729 -0.019040069 -0.0028361364 0.013920926 0.01516636 0.022057641 0.012605975 -0.024052076
0.0049105138 -0.011094385 -0.00307901 -0.022885907 -0.015699776 -0.0092876125 -0.009862789 0.03327237
0.01925992 -0.035589654 -0.02889857 0.030282008 -0.0051343353 -0.015877241 -0.0025291769 0.0055863643
0.002752011 -0.009039185 0.030843252 0.012499583 -0.00021529534 0.009974481 -0.020198608 -0.03891739
-0.021054806 0.02504956 -0.021940451 0.010680052 0.01781274 -0.007894449 0.027453233 -0.032443002
-0.019744713 0.0009280467 0.00494611 0.028279673 0.024569008 0.027552176 -0.019778442 0.0074485927
0.022041118 -0.000442353 0.03945733 -0.020747947 -0.013220476 0.011356028 -0.0054065995 0.0005507863
00000000: 3220 91bc d54e 4dbd 740b 2d3c bb63 4cbc
00000010: b9b8 edbb 95ec 48bb 26da 21bd 031d 5eba
00000020: 2576 d2bc 3602 0ebc f00d c4bc 75ce 8cbc
00000030: cf62 eb3b de74 153c d29b 493c 6a5a 45bc
00000040: 9ffc f23c d140 4dbc 9b95 98bc e81d f0bc
00000050: 2147 e2bc d15c 9fbc c266 c9bc 3d1c 133d
00000060: 9209 8139 1f46 a8bc a8b4 9d3c 79df 8dbc
00000070: 36c2 c1ba ba8a 02bd 29e5 703c d70f 53bc
00000080: 3246 a5bc 7001 63bc 1a54 9fbc 3eb0 c93c
00000090: 1212 72bc a317 2cbd 36a2 90bc 8ce8 94bc
000000a0: d6a9 3cbc de17 68bc e3de c43c 4b6f ddbb
000000b0: 6f37 e9bc ec43 3b3c 06f9 a63c cb95 363c
000000c0: ecae 993b 7abb f63c d94d 4c3d 20aa f7bb
000000d0: 153e 0a3c 924a 14bc 8c29 1f3c b326 203d
000000e0: 2308 723b 69bc 83bc 0f09 d73a 9f3b 923a
000000f0: 69be 37bc 0b77 3fbd 239f 5bbb 8a4d 893b
00000100: d508 523b f02a 23bd 04ba 533b db2b 10bd
00000110: bc03 cf3c 7e28 b53c 8650 7ebc bd5b 1eba
00000120: 8d6e 8e3c 2f7d b1ba 89ed 4dba 9c93 863b
00000130: cf75 483c 8a12 f2bc 88bb 24bd 96b7 1abc
00000140: bd7e c33b 0f14 b53c 73ff 263c 937b e73c
00000150: dcfd a4bc e54b a83b db1d 9b3c 7ae0 f7bc
00000160: aada 9fbc 2889 033d ea0d 69bb c620 553b
00000170: 1492 0b3c 57b3 f7bc e3c1 9c3c 57f7 b1bc
00000180: a631 d1bc 041b 33bc 9e5e 15bd 75e3 eabc
00000190: 35c4 7ebc 44ba 04bd d651 26bb ee73 1fbd
000001a0: 6b19 873c 9cd8 aabb c5dd 90bc 19f3 a33c
000001b0: b1e5 bf3b b73b 5abc 3da1 e4bc c244 513d
000001c0: 3670 fabb 6747 3fbc 4653 8ebc eefa 2f3c
000001d0: ef10 8fbc 0203 ea3b d0d0 1b3c ffa7 2fbc
000001e0: cb0d c03b 8650 f2bc 3674 bb3c b026 26bc
000001f0: 8b35 11bc 5445 d7bb b57e 3fbb 2d4f 373d
00000200: 8667 ac3b a9bb bc3b 8f6a 233c a9f0 da3c
00000210: 5fe4 103c f024 3ebc 2b97 b33c c30e 0a3d
00000220: 46b8 af3a c900 d63c 98f0 87bb 4976 b23c
00000230: 7e9f a53c cd69 8cbc bc98 1ebc 8c43 df3c
00000240: dd7d b6bb 1ab1 9f3c cdc5 80bc 1e9a a13b
00000250: 3d96 e9ba a582 7bbc 4534 8f3c 3ef5 363c
00000260: 1cb1 243b 2336 a43c 1c5b 333c 4131 a7ba
00000270: 46e3 1fbd 7ded 823c 4fee f13c 8969 b7bc
00000280: 9732 423c 1145 5e3c e2e3 733c 016d 87ba
00000290: 569e b0bb c7d5 81bb a398 883b 8688 c3bb
000002a0: d2d6 11bc 97d5 1c3c c6a6 543b aeff d83c
000002b0: c704 b0bc bc7f beba 09c6 ba3c 86af 3bbd
000002c0: bbbe ad3c 8b29 dbbc 706d 09bc 01a3 243c
000002d0: 87ad 33bc 1913 503c a8e0 603c fe52 5b3c
000002e0: 6caa 273c 4a34 f5bc 7153 adba 4685 073d
000002f0: 5a10 7d3b 9b2d d63c 194b 09bd f7f2 76bc
00000300: ac6c 873c a4bc 10bd 2f40 4bbb ddb7 19bc
00000310: ed32 f43a b771 96bc dddb 593c 7d44 9d3b
00000320: 2f27 3bbb ebf9 9bbc 79de 39bb 9814 643c
00000330: 537c 783c 3ab2 b43c 4b89 4e3c dc08 c5bc
00000340: 60e8 a03b 39c5 35bc 37c9 49bb 3a7b bbbc
00000350: d19c 80bc 122b 18bc 8997 21bc 9c48 083d
00000360: fbc6 9d3c 75c6 11bd b2bc ecbc f911 f83c
00000370: ed3d a8bb fd10 82bc 8cc0 25bb d20d b73b
00000380: 155b 343b 1719 14bc fdaa fc3c 0dcb 4c3c
00000390: e7c0 61b9 016c 233c 8d77 a5bc d767 1fbd
000003a0: 217b acbc bc34 cd3c 76bc b3bc 63fb 2e3c
000003b0: 06ec 913c b857 01bc 9ae5 e03c f4e2 04bd
000003c0: aabf a1bc 2948 733a fa12 a23b c6aa e73c
000003d0: f244 c93c 1ab5 e13c 6606 a2bc 5313 f43b
000003e0: 938f b43c 9deb e7b9 029e 213d 99f7 a9bc
000003f0: b29a 58bc a20e 3a3c d829 b1bb a562 103a

network_body._body_endoder.seq_layers.0.bias f4 [128]
-0.003533824 0.017173234 0.0014814729 0.035821605 0.014697766 -0.0041400273 -0.005433124 -0.0013771985
-0.005068249 -0.0067404686 0.027338838 -0.005687729 0.005067207 -0.0037554102 0.005323867 -0.000861747
0.0034332413 0.0050137984 0.0014904018 -0.010964509 0.006812108 -0.010188093 0.020177176 0.013479041
0.0049561244 0.013152082 -0.0008815001 0.0022735663 -0.005966451 -0.008120609 0.009788843 -0.008577131
-0.0030799983 0.0068247677 -0.006178049 -0.0031225425 -0.0034983729 0.005243719 -0.0035768845 -0.0021506515
-0.0033201654 -0.0042612366 0.008537391 0.009439308 0.016485196 -0.0014562773 0.001448601 0.002000877
-0.007288011 0.002443345 -0.0024429606 -0.0016222339 -0.0061229337 -0.005257183 0.0002808783 0.00045483062
0.0101589 0.015008047 -0.0030236857 -0.0030237266 0.003853096 -0.0066216053 -0.0037882417 0.0006315328
-0.0037059041 -0.0025976128 -0.007821735 -0.0031882343 0.0032696917 0.022396704 -0.018375607 0.0070804367
0.021854306 0.013596187 0.0044294256 0.010038032 0.003278042 -0.003994279 -0.012101338 -0.0002212351
-8.8765475e-05 -0.008069837 0.0026203643 0.0039409683 -0.0011909509 -0.015365641 -0.0036289333 -0.01023209
-0.0039265174 0.00076513685 -0.008676253 0.004952501 0.009828402 0.004343371 0.0036836618 0.006302379
-0.0047258115 0.010213841 0.00025288045 -0.0026674028 0.004097221 -0.0008652931 -0.006844053 0.0055240663
0.0004115475 -0.0005941565 -0.004362889 0.0042878175 0.008732603 0.00330076 -0.0020412155 0.004548742
-0.0054913983 -0.0021453109 0.0067260074 0.0028662093 -0.0027031617 0.0021949115 0.005732726 0.007445014
0.0022923101 0.0013584682 -0.007650104 0.0046077697 0.0027766256 0.00050802756 -0.007532383 -0.0036249245
00000000: bb97 67bb e2ae 8c3c fb2d c23a adb9 123d
00000010: e6ce 703c 11a9 87bb 5908 b2bb 1d83 b4ba
00000020: 8e13 a6bb 26df dcbb b3f5 df3c 2160 babb
00000030: d00a a63b 541d 76bb d573 ae3b dde6 61ba
00000040: 3b00 613b ca4a a43b 9659 c33a 7ca4 33bc
00000050: 1b38 df3b f6eb 26bc 9b4a a53c 32d7 5c3c
00000060: fc66 a23b d57b 573c 7814 67ba 1d00 153b
00000070: 3882 c3bb 4e0c 05bc 6261 203c 1887 0cbc
00000080: ccd9 49bb 4da2 df3b 3b71 cabb 92a3 4cbb
00000090: f544 65bb 81d3 ab3b 2a6a 6abb f2f1 0cbb
000000a0: 2297 59bb d8a1 8bbb 6ae0 0b3c 54a7 1a3c
000000b0: f60b 873c 8fe0 beba fcde bd3a 2521 033b
000000c0: 44d0 eebb 8720 203b 141a 20bb 23a1 d4ba
000000d0: e4a2 c8bb 7344 acbb d942 9339 5576 ee39
000000e0: 8471 263c 50e4 753c 0729 46bb b729 46bb
000000f0: 3984 7c3b 0dfa d8bb 2644 78bb 738d 253a
00000100: c1de 72bb b63c 2abb bc26 00bc b2f1 50bb
00000110: 5348 563b 4b79 b73c 7188 96bc 0203 e83b
00000120: cd07 b33c 8bc2 5e3c b724 913b 8f76 243c
00000130: 6bd4 563b 71e2 82bb b144 46bc 58fb 67b9
00000140: 9a27 bab8 5937 04bc 6bba 2b3b 3d23 813b
00000150: ae19 9cba 2bc0 7bbc 66d3 6dbb 7fa4 27bc
00000160: 04aa 80bb 7793 483a d826 0ebc 9748 a23b
00000170: 4e07 213c d652 8e3b 9769 713b 3084 ce3b
00000180: fbda 9abb f457 273c 0a95 8439 98cf 2ebb
00000190: fb41 863b d6d4 62ba 1444 e0bb 3a03 b53b
000001a0: f8c4 d739 2bc1 1bba 91f6 8ebb d280 8c3b
000001b0: 3113 0f3c 9051 583b eac5 05bb 9d0d 953b
000001c0: 30f1 b3bb 5898 0cbb d765 dc3b 03d7 3b3b
000001d0: 8727 31bb 81d8 0f3b 97d9 bb3b 4ef5 f33b
000001e0: 953a 163b a10e b23a b9ad fabb c6fc 963b
000001f0: 0cf8 353b 272d 053a 35d2 f6bb 2490 6dbb

network_body._body_endoder.seq_layers.0.weight f4 [128, 6]
-0.02672096 0.22757766 -0.009416529 -0.031117003 -0.09116918 0.25518408 0.56478864 -0.0834401
0.014258333 0.6314533 -0.22289844 -0.14351974 0.18883912 0.015718577 -0.27196383 0.4652095
-0.09002528 0.12117289 -0.023955338 0.0002730407 -0.17289294 0.46634024 0.12631945 -0.60255045
0.23692743 0.29382825 -0.71103567 0.86385715 -0.014061847 -0.21772487 -0.3566155 -0.25783283
0.10860217 -0.15628296 -0.5119421 -0.10385055 -0.38694602 0.47875383 0.22144957 0.5162983
-0.53677976 0.11254245 -0.20065472 -0.6697695 0.24447685 0.37370571 0.21969895 0.11506664
0.14767596 0.12902121 0.20302078 0.5917269 -0.47350675 0.64782745 -0.23442997 -0.2471084
-0.046077546 0.50697726 -0.11699432 0.25141007 -0.22490631 -0.21263954 -0.39671966 0.30766916
-0.37438357 -0.45998147 0.10041109 0.50929874 0.038990635 0.08263562 -0.099374056 1.1350627
0.7931645 -0.27775365 0.29353544 0.7874022 0.0737711 -0.14671658 -0.17814574 0.99462825
-0.33835354 0.0512886 0.4780359 0.47221288 -0.27953961 0.2989687 0.2756775 0.2439887
-0.034163736 0.27852407 -0.11191314 0.44525114 0.28480068 0.21524142 -0.48906925 0.288869
-0.16039735 0.11213012 0.46977943 0.21627726 0.23502944 0.20879725 -0.02482317 0.13987523
0.15795933 0.5940101 0.45650095 0.42913517 -0.07447438 -0.0035435688 -0.15523079 0.40132573
-0.3961962 0.13953762 0.015648358 -0.23667145 0.33952004 0.88876253 0.09087568 -0.33331537
-0.47346133 0.65482575 0.29687113 -0.2003937 -0.39431858 -0.012289561 0.22806025 -0.31841338
0.4816998 0.28384537 -0.48529166 -0.16425489 0.6030977 -0.27505085 -0.13097104 0.23000635
-0.25679693 -0.22668265 -0.0053215805 0.004254718 0.037490033 -0.077022225 0.35913667 -0.19676924
-0.18302917 -0.43665165 -0.28742763 -0.08269796 -0.8204212 0.26184422 -0.77227366 0.8160279
0.36517388 -0.4028767 0.110184595 -0.3262925 -0.02122973 0.31387842 0.09015542 -0.22408296
0.3460528 0.33674043 0.4209707 0.2074513 0.15092444 0.30135876 0.95089465 0.31163147
-0.6270669 0.11148339 -0.10444062 0.51261675 0.2568333 0.5092228 -0.10080276 -0.08624845
0.3014182 0.13207313 0.015065633 -0.67861956 -0.6609661 0.044793 -0.5814896 -0.5940181
0.23305418 0.13333371 0.21624748 -0.3357793 0.15045232 -0.7380252 -0.069704264 -0.5018988
-0.5944722 -0.055552185 0.14445159 0.38622323 0.45218506 -0.16892685 -0.019113757 -0.17796305
-0.7927331 -0.21137553 0.31633738 -0.620553 -0.58196616 -0.3309887 0.19807853 0.39193818
-0.4192093 -0.32804927 0.121346645 -0.4485668 -0.7164275 0.28585657 0.13605663 -0.19573002
-0.07303774 -0.4095241 -0.5716952 0.1421501 0.44807696 -0.46569565 0.21454197 -0.17652607
-0.062122885 0.24965896 -0.012387727 -0.73234165 0.074383184 -0.8096426 -0.15997499 -0.26007536
0.32363445 0.2398677 0.25168535 0.018073954 0.05849633 -0.19346617 -0.44753632 0.00010194362
0.32994422 0.41214207 0.02444781 0.9702166 0.049323503 1.277421 0.44191048 0.4833252
0.15194137 -0.10018252 0.13314413 0.71204937 -0.7262266 -0.4364404 0.53906846 -0.15614991
00000000: eae5 dabc 1e0a 693e c947 1abc 16e9 febc
00000010: e8b6 babd 7da7 823e fd95 103f a5e2 aabd
00000020: c89b 693c eca6 213f 7d3f 64be d7f6 12be
00000030: 0b5f 413e 3fc4 803c d83e 8bbe f12f ee3e
00000040: 2d5f b8bd 7e29 f83d fc3d c4bc e726 8f39
00000050: d90a 31be 26c4 ee3e e359 013e bf40 1abf
00000060: 1b9d 723e a870 963e 6f06 36bf be25 5d3f
00000070: a963 66bc 45f3 5ebe 4f96 b6be aa02 84be
00000080: d16a de3d a408 20be a30e 03bf 99af d4bd
00000090: ca1d c6be 391f f53e adc3 623e 202c 043f
000000a0: 666a 09bf a87c e63d 6e78 4dbe 0476 2bbf
000000b0: 2458 7a3e 5b56 bf3e c3f8 603e 0fa8 eb3d
000000c0: 5e38 173e 231e 043e aee4 4f3e 6a7b 173f
000000d0: 7a6f f2be 05d8 253f 690e 70be fc09 7dbe
000000e0: cfbb 3cbd 43c9 013f b89a efbd d2b8 803e
000000f0: d74d 66be 2ebe 59be d71e cbbe d086 9d3e
00000100: 34af bfbe b182 ebbe 54a4 cd3d 6761 023f
00000110: a5b4 1f3d dd3c a93d a084 cbbd bc49 913f
00000120: d40c 4b3f ba35 8ebe 474a 963e 3193 493f
00000130: 4d15 973d df3c 16be d66b 36be f59f 7e3f
00000140: ad3c adbe ff13 523d 1fc1 f43e e3c5 f13e
00000150: d11f 8fbe 6d12 993e 9a25 8d3e 2cd8 793e
00000160: 46ef 0bbd b59a 8e3e b732 e5bd f5f7 e33e
00000170: 65d1 913e 3f68 5c3e 4967 fabe a3e6 933e
00000180: 343f 24be 7aa4 e53d ee86 f03e c977 5d3e
00000190: 8fab 703e f2ce 553e f659 cbbc 743b 0f3e
000001a0: 17c0 213e 0c11 183f 7eba e93e 9bb7 db3e
000001b0: 0686 98bd 383b 68bb d2f4 1ebe 917a cd3e
000001c0: 3ada cabe f3e2 0e3e fc30 803c 005a 72be
000001d0: 92d5 ad3e f185 633f 071d ba3d 50a8 aabe
000001e0: 8669 f2be a9a2 273f 7eff 973e 0234 4dbe
000001f0: 20e4 c9be 285a 49bc a088 693e 1407 a3be
00000200: 5ba1 f63e 2e54 913e 2678 f8be 6f32 28be
00000210: 9c64 1a3f 77d3 8cbe 461d 06be c986 6b3e
00000220: e37a 83be 7f1f 68be a760 aebb 296b 8b3b
00000230: 268f 193d d4bd 9dbd c3e0 b73e e07d 49be
00000240: 006c 3bbe ce90 dfbe b729 93be 8c5d a9bd
00000250: 2007 52bf 7210 863e bab3 45bf 34e7 503f
00000260: 12f8 ba3e db45 cebe 76a8 e13d d00f a7be
00000270: f9e9 adbc acb4 a03e 68a3 b83d 0176 65be
00000280: d52d b13e 3e69 ac3e 7989 d73e 1d6e 543e
00000290: f08b 1a3e b24b 9a3e d56d 733f 298e 9f3e
000002a0: 7587 20bf 6751 e43d f7e4 d5bd da3a 033f
000002b0: a87f 833e 6d5c 023f ad71 cebd 07a3 b0bd
000002c0: 7c53 9a3e 2e3e 073e d8d5 763c 03ba 2dbf
000002d0: 1335 29bf dd78 373d 81dc 14bf 9211 18bf
000002e0: c1a5 6e3e a288 083e fb6f 5d3e 44eb abbe
000002f0: 2c10 1a3e 38ef 3cbf 1cc1 8ebd 717c 00bf
00000300: 552f 18bf b08a 63bd 1eeb 133e 0dbf c53e
00000310: cd84 e73e 29fb 2cbe 7494 9cbc f23b 36be
00000320: 8ef0 4abf d472 58be f9f6 a13e 90dc 1ebf
00000330: bcfb 14bf 5a77 a9be 19d5 4a3e 1fac c83e
00000340: 9aa2 d6be 13f6 a7be 9784 f83d 8caa e5be
00000350: cb67 37bf cb5b 923e 6e52 0b3e 736d 48be
00000360: d094 95bd 25ad d1be 9e5a 12bf cc8f 113e
00000370: 586a e53e a96f eebe e4b0 5b3e 40c3 34be
00000380: 9174 7ebd 99a6 7f3e e5f5 4abc be7a 3bbf
00000390: 3656 983d bd44 4fbf 7cd0 23be 9928 85be
000003a0: 6ab3 a53e e19f 753e e7dc 803e d40f 943c
000003b0: d999 6f3d ff1b 46be 7b23 e5be 90ca d538
000003c0: 73ee a83e 4904 d33e c646 c83c 1d60 783f
000003d0: 7107 4a3d 8882 a33f 1742 e23e 6776 f73e
000003e0: 8596 1b3e 7e2c cdbd ef56 083e de48 363f
000003f0: fde9 39bf 1e75 dfbe 6400 0a3f c3e5 1fbe

network_body._body_endoder.seq_layers.2.bias f4 [128]
0.0072339675 0.015075239 -0.00041353263 -0.0041124793 0.00015812086 0.0013283208 0.015204424 -0.0023334723
0.009733036 -0.009436561 0.006883371 -0.0049110292 0.00071121653 -0.0077091632 0.0032642442 0.010957748
0.001463304 0.011748179 -0.00095064065 -0.0047894483 -0.0042929603 0.0072318898 0.0015866853 0.0061720507
-0.014553227 -0.0037503021 0.0014271308 -0.004441336 -0.0042427736 0.0010203716 -0.0017117554 0.004408372
0.0020577887 -0.0035071506 -0.005080621 -0.0007659725 -0.0015414477 -0.0044899997 -0.0026432462 -0.005187431
-0.0020691468 -0.009078431 0.004860845 -0.0032036717 -0.00020916782 -0.0012691023 -0.008358061 0.010402237
1.18840935e-05 0.0036779363 -0.0074615255 -0.0053135096 0.0011534366 0.0012644223 -0.00011010987 0.0020153564
0.0064418945 0.0011147347 -7.6276806e-06 -0.0034806116 -0.0028287952 0.006297597 0.003393497 0.002124006
-0.001385048 0.008850297 0.0032981245 -0.0014414013 0.005251068 0.004269343 -0.0057691466 -0.0052203676
0.0017256574 0.0023811492 0.0009561953 -0.0037699207 -0.0037057993 0.0052049607 0.005820493 0.0004531218
-0.00020460153 -0.0053226706 0.0016409574 0.006566341 0.0014403085 -0.004056649 0.0042582434 0.0030750872
-0.0027026562 0.004488668 -0.0026023055 -0.003157803 0.0032781432 -0.0023957936 -0.013335663 -0.0014730529
0.0013950187 -0.011066359 0.0012174816 -0.0033441614 -0.009668886 0.01702379 0.00216928 0.0050292397
0.0043250495 0.0048005204 0.010236447 -0.0018037066 -0.001034797 -0.0036278847 0.00332726 0.0081142215
-0.006340936 -0.0032017636 -0.005285875 -0.0046585514 0.0048204632 -0.0031589745 -0.006944883 -0.010045013
0.0012143273 -0.0047694556 0.006453912 -0.0052950066 -0.00039795006 -0.006154366 0.0012016983 0.0037802947
00000000: eb0a ed3b 23fe 763c 69cf d8b9 fac1 86bb
00000010: 3fcd 2539 0d1b ae3a fa1b 793c 2bed 18bb
00000020: 5077 1f3c ce9b 1abc e78d e13b b3ec a0bb
00000030: ef70 3a3a 269d fcbb eeec 553b 2088 333c
00000040: 56cc bf3a 6f7b 403c 6a34 79ba cef0 9cbb
00000050: f6ab 8cbb 7df9 ec3b 53f8 cf3a ea3e ca3b
00000060: a970 6ebc a1c7 75bb 900e bb3a a088 91bb
00000070: f706 8bbb fdbd 853a fb5c e0ba 1b74 903b
00000080: f7db 063b 39d8 65bb 577b a6bb 8bcb 48ba
00000090: 670a caba d920 93bb 503a 2dbb 53fb a9bb
000000a0: 869a 07bb b3bd 14bc b947 9f3b b1f4 51bb
000000b0: 0f54 5bb9 0258 a6ba 40f0 08bc 256e 2a3c
000000c0: cb61 4737 8809 713b d07f f4bb f31c aebb
000000d0: e92e 973a f9ba a53a c9ea e6b8 1214 043b
000000e0: 8716 d33b 4a1c 923a 47f1 ffb6 f91a 64bb
000000f0: 4f63 39bb 135c ce3b 6f65 5e3b e832 0b3b
00000100: 808a b5ba d600 113c 5925 583b 67ed bcba
00000110: 2711 ac3b d8e5 8b3b 1c0b bdbb 9e0f abbb
00000120: 742f e23a 0e0d 1c3b 2ea9 7a3a c610 77bb
00000130: ffdc 72bb 608e aa3b d6b9 be3b fa90 ed39
00000140: 4e8a 56b9 cc69 aebb 6515 d73a 762a d73b
00000150: bcc8 bc3a a3ed 84bb bc88 8b3b 6787 493b
00000160: 0c1f 31bb ad15 933b 718b 2abb 25f3 4ebb
00000170: 1ed6 563b bf02 1dbb d37d 5abc 7413 c1ba
00000180: 0fd9 b63a ac4f 35bc e793 9f3a b829 5bbb
00000190: 3f6a 1ebc 7a75 8b3c 7b2a 0e3b 52cc a43b
000001a0: 25b9 8d3b af4d 9d3b c5b6 273c 5a6a ecba
000001b0: 07a2 87ba cec1 6dbb 290e 5a3b 83f1 043c
000001c0: a0c7 cfbb aed4 51bb 2235 adbb c3a6 98bb
000001d0: faf4 9d3b cc06 4fbb e791 e3bb d793 24bc
000001e0: 102a 9f3a 1849 9cbb 567b d33b bc81 adbb
000001f0: f4a3 d0b9 90aa c9bb 4e82 9d3a d2be 773b

network_body._body_endoder.seq_layers.2.weight f4 [128, 128]
0.017497404 0.09025656 -0.10604431 0.004293731 -0.19496682 -0.12092761 0.12658373 0.12162121
-0.0704424 -0.06242662 -0.043707933 0.0273672 -0.13850683 0.050569344 -0.043777306 0.0005941259
0.005386829 0.11723777 -0.1401674 0.047128715 0.0679968 -0.05891795 -0.080040745 0.010344427
-0.017699534 -0.14591075 -0.015374996 -0.054989573 -0.006119327 -0.1526389 0.14768833 0.15597785
0.19533096 -0.026923794 -0.092370026 -0.062879875 -0.12598625 0.11569641 -0.012983928 0.03603724
0.012108974 -0.082511574 -0.033311788 -0.035773154 -0.08919234 -0.060089115 -0.070971675 -0.052261833
0.030681808 0.033475913 0.07018517 0.043455597 0.041467384 -0.087887 -0.09449702 0.0034693878
-0.055902585 0.1169411 -0.028532438 -0.23142639 0.08838434 0.024950579 0.11899421 0.047400586
-0.18221712 0.0661622 -0.00891489 0.0068170917 -0.12220897 -0.01547633 -0.0017940645 0.14819424
0.05487268 -0.18854605 -0.13097279 0.08956072 -0.006920611 0.12365792 -0.15524279 -0.032670293
-0.03950507 0.09043618 0.08560027 0.041109156 -0.046993986 0.10078567 0.113127045 -0.09570891
-0.25718206 -0.025145039 0.13342357 0.0122404685 -0.008620434 0.032788135 -0.0066380943 -0.018925617
-0.12195663 0.09562453 0.13615762 0.15741295 0.1094714 -0.007134504 0.12919188 -0.009353816
0.18824863 0.0030764027 -0.0069320835 -0.01933237 0.054009978 -0.006914982 -0.09927523 0.02613049
0.048721462 0.1961149 -0.01829848 -0.123268224 0.018594489 -0.11481283 -0.012833471 -0.15270649
-0.14616227 0.009160405 0.0015399408 0.025079759 0.031024667 0.039786026 -0.111189954 -0.15434426
0.09065314 0.038480714 -0.032216273 -0.09538183 0.055514537 0.1370716 -0.13934071 -0.045449775
-0.06096549 -0.10522647 -0.07850168 -0.041511133 0.12587936 -0.07326385 -0.2137248 -0.07282419
-0.02324095 -0.0029927273 -0.039874792 -0.13899934 0.0052312515 -0.069405206 -0.1084666 -0.01869742
0.013680871 0.009925442 -0.04363515 -0.039391156 0.020385552 -0.11232839 -0.08498172 -0.056260772
-0.0080461195 -0.1836778 0.15841351 0.06119748 0.11078857 -0.08208897 0.073694915 -0.11716274
0.00652525 -0.009816395 0.10341622 -0.06431948 -0.103214815 0.10638104 -0.077601835 -0.1820784
0.24396855 -0.068597354 -0.107182704 0.04743658 0.2051196 -0.10374148 0.09314447 0.07346916
-0.013639665 0.08855379 -0.010719148 -0.09645336 0.042779114 0.0072070383 0.015113057 -0.12537178
-0.115176626 -0.20640972 -0.0033082142 0.055438843 0.052647796 0.07501816 0.10158562 -0.010387301
-0.1759986 0.07126481 -0.049171723 -0.035738494 -0.171993 0.06944171 -0.1202496 -0.031521827
-0.041721493 -0.0865265 0.13188559 0.08305365 0.017823804 -0.038059287 0.14034143 0.06410559
-0.3010617 -0.13492568 0.008806648 -0.123959325 0.06375763 0.005202695 -0.048413638 0.008422066
0.05747244 -0.014215533 -0.016318833 -0.038801666 -0.07376694 -0.06641393 0.0015077146 0.013707473
0.14683583 -0.09487336 0.08817251 0.08884584 0.0789194 0.09112876 0.106186494 -0.1367488
-0.01348896 -0.062763095 0.023903918 -0.034769475 -0.08245956 0.06984356 0.11177255 0.16184941
0.0019489137 0.123668484 0.09932901 0.0026315236 0.03330433 -0.08725918 -0.03751499 0.04135586
00000000: b756 8f3c 6ed8 b83d c22d d9bd 6db2 8c3b
00000010: 62a5 47be e5a8 f7bd 2a9f 013e 8a14 f93d
00000020: 1b44 90bd 0eb3 7fbd 1707 33bd 2e31 e03c
00000030: bcd4 0dbe cd21 4f3d d54f 33bd 1dbf 1b3a
00000040: ff83 b03b 5b1a f03d 0b88 0fbe 0a0a 413d
00000050: e841 8b3d f353 71bd 67ec a3bd ac7b 293c
00000060: 9dfe 90bc a169 15be 68e7 7bbc bf3c 61bd
00000070: a384 c8bb 5f4d 1cbe 9c3b 173e a8b8 1f3e
00000080: d704 483e 4a8f dcbc 7f2c bdbd 2ac7 80bd
00000090: 8a02 01be 3df2 ec3d 8bba 54bc c99b 133d
000000a0: b864 463c d4fb a8bd f171 08bd df86 12bd
000000b0: 79aa b6bd 0120 76bd 9959 91bd 8110 56bd
000000c0: 6a58 fb3c 0a1e 093d 3ebd 8f3d 7ffe 313d
000000d0: b4d9 293d 19fe b3bd a787 c1bd ab5e 633b
000000e0: 1cfa 64bd d17e ef3d dcbc e9bc 0afb 6cbe
000000f0: d902 b53d 2865 cc3c 3db3 f33d 1e27 423d
00000100: 2097 3abe 0c80 873d c20f 12bc e961 df3b
00000110: b248 fabd 6f90 7dbc d126 ebba 3bc0 173e
00000120: 2dc2 603d 3712 41be bb1d 06be 9c6b b73d
00000130: 4bc6 e2bb 5d40 fd3d f7f7 1ebe 49d1 05bd
00000140: 11d0 21bd 9b36 b93d 324f af3d 1362 283d
00000150: c47c 40bd b868 ce3d 27af e73d 0803 c4bd
00000160: 5ead 83be f8fc cdbc 30a0 083e 3f8c 483c
00000170: b93c 0dbc da4c 063d 5f84 d9bb e509 9bbc
00000180: 66c4 f9bd cbd6 c33d e76c 0b3e dc30 213e
00000190: 8b32 e03d 8fc8 e9bb e04a 043e bf40 19bc
000001a0: 40c4 403e 799d 493b 8826 e3bb eb5e 9ebc
000001b0: 9139 5d3d 1397 e2bb d050 cbbd 9c0f d63c
000001c0: 2890 473d 58d2 483e b2e6 95bc 0d74 fcbd
000001d0: 7853 983c fd22 ebbd 7b43 52bc 175f 1cbe
000001e0: 90ab 15be 8615 163c d7d7 c93a 1174 cd3c
000001f0: 7127 fe3c acf6 223d 8fb7 e3bd 6c0c 1ebe
00000200: 5aa8 b93d f49d 1d3d 36f5 03bd 8d57 c3bd
00000210: 3663 633d 7f5c 0c3e 55af 0ebe 8b29 3abd
00000220: f3b6 79bd fa80 d7bd 7dc5 a0bd 9407 2abd
00000230: 85e6 003e 5b0b 96bd adda 5abe d924 95bd
00000240: ce63 bebc a221 44bb c053 23bd d855 0ebe
00000250: eb6a ab3b 5124 8ebd bd23 debd 552b 99bc
00000260: bb25 603c 529e 223c c5ba 32bd 9f58 21bd
00000270: 9aff a63c 6d0c e6bd e50a aebd b271 66bd
00000280: dfd3 03bc 0916 3cbe 2737 223e 35aa 7a3d
00000290: 1ee5 e23d 431e a8bd 5ced 963d 05f3 efbd
000002a0: c4d1 d53b f2d4 20bc e2cb d33d eeb9 83bd
000002b0: 4a62 d3bd 4dde d93d b6ed 9ebd c372 3abe
000002c0: e4d2 793e c57c 8cbd 9b82 dbbd dc4c 423d
000002d0: df0a 523e 6a76 d4bd 87c2 be3d 0077 963d
000002e0: e778 5fbc b05b b53d 5e9f 2fbc 5789 c5bd
000002f0: 2739 2f3d 0529 ec3b c19c 773c 7661 00be
00000300: b9e1 ebbd 125d 53be a0ce 58bb d713 633d
00000310: 37a5 573d 1fa3 993d 1f0c d03d 802f 2abc
00000320: fa38 34be 49f3 913d 4a68 49bd 8762 12bd
00000330: ef1e 30be 7537 8e3d 6c45 f6bd 081d 01bd
00000340: 28e4 2abd ce34 b1bd 040d 073e 0818 aa3d
00000350: 3a03 923c 0ee4 1bbd aab5 0f3e cb49 833d
00000360: c224 9abe f529 0abe c249 103c 63de fdbd
00000370: 5c93 823d 5e7b aa3b 614d 46bd b5fc 093c
00000380: 3968 6b3d 44e8 68bc 13af 85bc 7fee 1ebd
00000390: 1f13 97bd 0704 88bd 829e c53a 4f95 603c
000003a0: 225c 163e f74c c2bd ca93 b43d cff4 b53d
000003b0: 7fa0 a13d b7a1 ba3d 4e78 d93d e107 0cbe
000003c0: cd00 5dbc f089 80bd 26d2 c33c 706a 0ebd
000003d0: 8fe0 a8bd 240a 8f3d 02e9 e43d dabb 253e
000003e0: b172 ff3a e745 fd3d 026d cb3d a475 2c3b
000003f0: 1f6a 083d f1b4 b2bd 51a9 19bd c364 293d
