MLAgentsProject/results/MoveToGoal2/MoveToGoal/MoveToGoal-123371.pt (torch, 439199 bytes, 36 tensors)

network_body._body_endoder.seq_layers.0.weight f4 [128, 6]
0	0xbcdae5ea	-0.02672096
1	0x3e690a1e	0.22757766
2	0xbc1a47c9	-0.009416529
3	0xbcfee916	-0.031117003
4	0xbdbab6e8	-0.09116918
5	0x3e82a77d	0.25518408
6	0x3f1095fd	0.56478864
7	0xbdaae2a5	-0.0834401
8	0x3c699bc8	0.014258333
9	0x3f21a6ec	0.6314533
10	0xbe643f7d	-0.22289844
11	0xbe12f6d7	-0.14351974
12	0x3e415f0b	0.18883912
13	0x3c80c43f	0.015718577
14	0xbe8b3ed8	-0.27196383
15	0x3eee2ff1	0.4652095
16	0xbdb85f2d	-0.09002528
17	0x3df8297e	0.12117289
18	0xbcc43dfc	-0.023955338
19	0x398f26e7	0.0002730407
20	0xbe310ad9	-0.17289294
21	0x3eeec426	0.46634024
22	0x3e0159e3	0.12631945
23	0xbf1a40bf	-0.60255045
24	0x3e729d1b	0.23692743
25	0x3e9670a8	0.29382825
26	0xbf36066f	-0.71103567
27	0x3f5d25be	0.86385715
28	0xbc6663a9	-0.014061847
29	0xbe5ef345	-0.21772487
30	0xbeb6964f	-0.3566155
31	0xbe8402aa	-0.25783283
32	0x3dde6ad1	0.10860217
33	0xbe2008a4	-0.15628296
34	0xbf030ea3	-0.5119421
35	0xbdd4af99	-0.10385055
36	0xbec61dca	-0.38694602
37	0x3ef51f39	0.47875383
38	0x3e62c3ad	0.22144957
39	0x3f042c20	0.5162983
40	0xbf096a66	-0.53677976
41	0x3de67ca8	0.11254245
42	0xbe4d786e	-0.20065472
43	0xbf2b7604	-0.6697695
44	0x3e7a5824	0.24447685
45	0x3ebf565b	0.37370571
46	0x3e60f8c3	0.21969895
47	0x3deba80f	0.11506664
48	0x3e17385e	0.14767596
49	0x3e041e23	0.12902121
50	0x3e4fe4ae	0.20302078
51	0x3f177b6a	0.5917269
52	0xbef26f7a	-0.47350675
53	0x3f25d805	0.64782745
54	0xbe700e69	-0.23442997
55	0xbe7d09fc	-0.2471084
56	0xbd3cbbcf	-0.046077546
57	0x3f01c943	0.50697726
58	0xbdef9ab8	-0.11699432
59	0x3e80b8d2	0.25141007
60	0xbe664dd7	-0.22490631
61	0xbe59be2e	-0.21263954
62	0xbecb1ed7	-0.39671966
63	0x3e9d86d0	0.30766916
64	0xbebfaf34	-0.37438357
65	0xbeeb82b1	-0.45998147
66	0x3dcda454	0.10041109
67	0x3f026167	0.50929874
68	0x3d1fb4a5	0.038990635
69	0x3da93cdd	0.08263562
70	0xbdcb84a0	-0.099374056
71	0x3f9149bc	1.1350627
72	0x3f4b0cd4	0.7931645
73	0xbe8e35ba	-0.27775365
74	0x3e964a47	0.29353544
75	0x3f499331	0.7874022
76	0x3d97154d	0.0737711
77	0xbe163cdf	-0.14671658
78	0xbe366bd6	-0.17814574
79	0x3f7e9ff5	0.99462825
80	0xbead3cad	-0.33835354
81	0x3d5213ff	0.0512886
82	0x3ef4c11f	0.4780359
83	0x3ef1c5e3	0.47221288
84	0xbe8f1fd1	-0.27953961
85	0x3e99126d	0.2989687
86	0x3e8d259a	0.2756775
87	0x3e79d82c	0.2439887
88	0xbd0bef46	-0.034163736
89	0x3e8e9ab5	0.27852407
90	0xbde532b7	-0.11191314
91	0x3ee3f7f5	0.44525114
92	0x3e91d165	0.28480068
93	0x3e5c683f	0.21524142
94	0xbefa6749	-0.48906925
95	0x3e93e6a3	0.288869
96	0xbe243f34	-0.16039735
97	0x3de5a47a	0.11213012
98	0x3ef086ee	0.46977943
99	0x3e5d77c9	0.21627726
100	0x3e70ab8f	0.23502944
101	0x3e55cef2	0.20879725
102	0xbccb59f6	-0.02482317
103	0x3e0f3b74	0.13987523
104	0x3e21c017	0.15795933
105	0x3f18110c	0.5940101
106	0x3ee9ba7e	0.45650095
107	0x3edbb79b	0.42913517
108	0xbd988606	-0.07447438
109	0xbb683b38	-0.0035435688
110	0xbe1ef4d2	-0.15523079
111	0x3ecd7a91	0.40132573
112	0xbecada3a	-0.3961962
113	0x3e0ee2f3	0.13953762
114	0x3c8030fc	0.015648358
115	0xbe725a00	-0.23667145
116	0x3eadd592	0.33952004
117	0x3f6385f1	0.88876253
118	0x3dba1d07	0.09087568
119	0xbeaaa850	-0.33331537
120	0xbef26986	-0.47346133
121	0x3f27a2a9	0.65482575
122	0x3e97ff7e	0.29687113
123	0xbe4d3402	-0.2003937
124	0xbec9e420	-0.39431858
125	0xbc495a28	-0.012289561
126	0x3e6988a0	0.22806025
127	0xbea30714	-0.31841338
128	0x3ef6a15b	0.4816998
129	0x3e91542e	0.28384537
130	0xbef87826	-0.48529166
131	0xbe28326f	-0.16425489
132	0x3f1a649c	0.6030977
133	0xbe8cd377	-0.27505085
134	0xbe061d46	-0.13097104
135	0x3e6b86c9	0.23000635
136	0xbe837ae3	-0.25679693
137	0xbe681f7f	-0.22668265
138	0xbbae60a7	-0.0053215805
139	0x3b8b6b29	0.004254718
140	0x3d198f26	0.037490033
141	0xbd9dbdd4	-0.077022225
142	0x3eb7e0c3	0.35913667
143	0xbe497de0	-0.19676924
144	0xbe3b6c00	-0.18302917
145	0xbedf90ce	-0.43665165
146	0xbe9329b7	-0.28742763
147	0xbda95d8c	-0.08269796
148	0xbf520720	-0.8204212
149	0x3e861072	0.26184422
150	0xbf45b3ba	-0.77227366
151	0x3f50e734	0.8160279
152	0x3ebaf812	0.36517388
153	0xbece45db	-0.4028767
154	0x3de1a876	0.110184595
155	0xbea70fd0	-0.3262925
156	0xbcade9f9	-0.02122973
157	0x3ea0b4ac	0.31387842
158	0x3db8a368	0.09015542
159	0xbe657601	-0.22408296
160	0x3eb12dd5	0.3460528
161	0x3eac693e	0.33674043
162	0x3ed78979	0.4209707
163	0x3e546e1d	0.2074513
164	0x3e1a8bf0	0.15092444
165	0x3e9a4bb2	0.30135876
166	0x3f736dd5	0.95089465
167	0x3e9f8e29	0.31163147
168	0xbf208775	-0.6270669
169	0x3de45167	0.11148339
170	0xbdd5e4f7	-0.10444062
171	0x3f033ada	0.51261675
172	0x3e837fa8	0.2568333
173	0x3f025c6d	0.5092228
174	0xbdce71ad	-0.10080276
175	0xbdb0a307	-0.08624845
176	0x3e9a537c	0.3014182
177	0x3e073e2e	0.13207313
178	0x3c76d5d8	0.015065633
179	0xbf2dba03	-0.67861956
180	0xbf293513	-0.6609661
181	0x3d3778dd	0.044793
182	0xbf14dc81	-0.5814896
183	0xbf181192	-0.5940181
184	0x3e6ea5c1	0.23305418
185	0x3e0888a2	0.13333371
186	0x3e5d6ffb	0.21624748
187	0xbeabeb44	-0.3357793
188	0x3e1a102c	0.15045232
189	0xbf3cef38	-0.7380252
190	0xbd8ec11c	-0.069704264
191	0xbf007c71	-0.5018988
192	0xbf182f55	-0.5944722
193	0xbd638ab0	-0.055552185
194	0x3e13eb1e	0.14445159
195	0x3ec5bf0d	0.38622323
196	0x3ee784cd	0.45218506
197	0xbe2cfb29	-0.16892685
198	0xbc9c9474	-0.019113757
199	0xbe363bf2	-0.17796305
200	0xbf4af08e	-0.7927331
201	0xbe5872d4	-0.21137553
202	0x3ea1f6f9	0.31633738
203	0xbf1edc90	-0.620553
204	0xbf14fbbc	-0.58196616
205	0xbea9775a	-0.3309887
206	0x3e4ad519	0.19807853
207	0x3ec8ac1f	0.39193818
208	0xbed6a29a	-0.4192093
209	0xbea7f613	-0.32804927
210	0x3df88497	0.121346645
211	0xbee5aa8c	-0.4485668
212	0xbf3767cb	-0.7164275
213	0x3e925bcb	0.28585657
214	0x3e0b526e	0.13605663
215	0xbe486d73	-0.19573002
216	0xbd9594d0	-0.07303774
217	0xbed1ad25	-0.4095241
218	0xbf125a9e	-0.5716952
219	0x3e118fcc	0.1421501
220	0x3ee56a58	0.44807696
221	0xbeee6fa9	-0.46569565
222	0x3e5bb0e4	0.21454197
223	0xbe34c340	-0.17652607
224	0xbd7e7491	-0.062122885
225	0x3e7fa699	0.24965896
226	0xbc4af5e5	-0.012387727
227	0xbf3b7abe	-0.73234165
228	0x3d985636	0.074383184
229	0xbf4f44bd	-0.8096426
230	0xbe23d07c	-0.15997499
231	0xbe852899	-0.26007536
232	0x3ea5b36a	0.32363445
233	0x3e759fe1	0.2398677
234	0x3e80dce7	0.25168535
235	0x3c940fd4	0.018073954
236	0x3d6f99d9	0.05849633
237	0xbe461bff	-0.19346617
238	0xbee5237b	-0.44753632
239	0x38d5ca90	0.00010194362
240	0x3ea8ee73	0.32994422
241	0x3ed30449	0.41214207
242	0x3cc846c6	0.02444781
243	0x3f78601d	0.9702166
244	0x3d4a0771	0.049323503
245	0x3fa38288	1.277421
246	0x3ee24217	0.44191048
247	0x3ef77667	0.4833252
248	0x3e1b9685	0.15194137
249	0xbdcd2c7e	-0.10018252
250	0x3e0856ef	0.13314413
251	0x3f3648de	0.71204937
252	0xbf39e9fd	-0.7262266
253	0xbedf751e	-0.4364404
254	0x3f0a0064	0.53906846
255	0xbe1fe5c3	-0.15614991

network_body._body_endoder.seq_layers.0.bias f4 [128]
0	0xbb6797bb	-0.003533824
1	0x3c8caee2	0.017173234
2	0x3ac22dfb	0.0014814729
3	0x3d12b9ad	0.035821605
4	0x3c70cee6	0.014697766
5	0xbb87a911	-0.0041400273
6	0xbbb20859	-0.005433124
7	0xbab4831d	-0.0013771985
8	0xbba6138e	-0.005068249
9	0xbbdcdf26	-0.0067404686
10	0x3cdff5b3	0.027338838
11	0xbbba6021	-0.005687729
12	0x3ba60ad0	0.005067207
13	0xbb761d54	-0.0037554102
14	0x3bae73d5	0.005323867
15	0xba61e6dd	-0.000861747
16	0x3b61003b	0.0034332413
17	0x3ba44aca	0.0050137984
18	0x3ac35996	0.0014904018
19	0xbc33a47c	-0.010964509
20	0x3bdf381b	0.006812108
21	0xbc26ebf6	-0.010188093
22	0x3ca54a9b	0.020177176
23	0x3c5cd732	0.013479041
24	0x3ba266fc	0.0049561244
25	0x3c577bd5	0.013152082
26	0xba671478	-0.0008815001
27	0x3b15001d	0.0022735663
28	0xbbc38238	-0.005966451
29	0xbc050c4e	-0.008120609
30	0x3c206162	0.009788843
31	0xbc0c8718	-0.008577131
32	0xbb49d9cc	-0.0030799983
33	0x3bdfa24d	0.0068247677
34	0xbbca713b	-0.006178049
35	0xbb4ca392	-0.0031225425
36	0xbb6544f5	-0.0034983729
37	0x3babd381	0.005243719
38	0xbb6a6a2a	-0.0035768845
39	0xbb0cf1f2	-0.0021506515
40	0xbb599722	-0.0033201654
41	0xbb8ba1d8	-0.0042612366
42	0x3c0be06a	0.008537391
43	0x3c1aa754	0.009439308
44	0x3c870bf6	0.016485196
45	0xbabee08f	-0.0014562773
46	0x3abddefc	0.001448601
47	0x3b032125	0.002000877
48	0xbbeed044	-0.007288011
49	0x3b202087	0.002443345
50	0xbb201a14	-0.0024429606
51	0xbad4a123	-0.0016222339
52	0xbbc8a2e4	-0.0061229337
53	0xbbac4473	-0.005257183
54	0x399342d9	0.0002808783
55	0x39ee7655	0.00045483062
56	0x3c267184	0.0101589
57	0x3c75e450	0.015008047
58	0xbb462907	-0.0030236857
59	0xbb4629b7	-0.0030237266
60	0x3b7c8439	0.003853096
61	0xbbd8fa0d	-0.0066216053
62	0xbb784426	-0.0037882417
63	0x3a258d73	0.0006315328
64	0xbb72dec1	-0.0037059041
65	0xbb2a3cb6	-0.0025976128
66	0xbc0026bc	-0.007821735
67	0xbb50f1b2	-0.0031882343
68	0x3b564853	0.0032696917
69	0x3cb7794b	0.022396704
70	0xbc968871	-0.018375607
71	0x3be80302	0.0070804367
72	0x3cb307cd	0.021854306
73	0x3c5ec28b	0.013596187
74	0x3b9124b7	0.0044294256
75	0x3c24768f	0.010038032
76	0x3b56d46b	0.003278042
77	0xbb82e271	-0.003994279
78	0xbc4644b1	-0.012101338
79	0xb967fb58	-0.0002212351
80	0xb8ba279a	-8.8765475e-05
81	0xbc043759	-0.008069837
82	0x3b2bba6b	0.0026203643
83	0x3b81233d	0.0039409683
84	0xba9c19ae	-0.0011909509
85	0xbc7bc02b	-0.015365641
86	0xbb6dd366	-0.0036289333
87	0xbc27a47f	-0.01023209
88	0xbb80aa04	-0.0039265174
89	0x3a489377	0.00076513685
90	0xbc0e26d8	-0.008676253
91	0x3ba24897	0.004952501
92	0x3c21074e	0.009828402
93	0x3b8e52d6	0.004343371
94	0x3b716997	0.0036836618
95	0x3bce8430	0.006302379
96	0xbb9adafb	-0.0047258115
97	0x3c2757f4	0.010213841
98	0x3984950a	0.00025288045
99	0xbb2ecf98	-0.0026674028
100	0x3b8641fb	0.004097221
101	0xba62d4d6	-0.0008652931
102	0xbbe04414	-0.006844053
103	0x3bb5033a	0.0055240663
104	0x39d7c4f8	0.0004115475
105	0xba1bc12b	-0.0005941565
106	0xbb8ef691	-0.004362889
107	0x3b8c80d2	0.0042878175
108	0x3c0f1331	0.008732603
109	0x3b585190	0.00330076
110	0xbb05c5ea	-0.0020412155
111	0x3b950d9d	0.004548742
112	0xbbb3f130	-0.0054913983
113	0xbb0c9858	-0.0021453109
114	0x3bdc65d7	0.0067260074
115	0x3b3bd703	0.0028662093
116	0xbb312787	-0.0027031617
117	0x3b0fd881	0.0021949115
118	0x3bbbd997	0.005732726
119	0x3bf3f54e	0.007445014
120	0x3b163a95	0.0022923101
121	0x3ab20ea1	0.0013584682
122	0xbbfaadb9	-0.007650104
123	0x3b96fcc6	0.0046077697
124	0x3b35f80c	0.0027766256
125	0x3a052d27	0.00050802756
126	0xbbf6d235	-0.007532383
127	0xbb6d9024	-0.0036249245

network_body._body_endoder.seq_layers.2.weight f4 [128, 128]
0	0x3c8f56b7	0.017497404
1	0x3db8d86e	0.09025656
2	0xbdd92dc2	-0.10604431
3	0x3b8cb26d	0.004293731
4	0xbe47a562	-0.19496682
5	0xbdf7a8e5	-0.12092761
6	0x3e019f2a	0.12658373
7	0x3df9148a	0.12162121
8	0xbd90441b	-0.0704424
9	0xbd7fb30e	-0.06242662
10	0xbd330717	-0.043707933
11	0x3ce0312e	0.0273672
12	0xbe0dd4bc	-0.13850683
13	0x3d4f21cd	0.050569344
14	0xbd334fd5	-0.043777306
15	0x3a1bbf1d	0.0005941259
16	0x3bb083ff	0.005386829
17	0x3df01a5b	0.11723777
18	0xbe0f880b	-0.1401674
19	0x3d410a0a	0.047128715
20	0x3d8b41e8	0.0679968
21	0xbd7153f3	-0.05891795
22	0xbda3ec67	-0.080040745
23	0x3c297bac	0.010344427
24	0xbc90fe9d	-0.017699534
25	0xbe1569a1	-0.14591075
26	0xbc7be768	-0.015374996
27	0xbd613cbf	-0.054989573
28	0xbbc884a3	-0.006119327
29	0xbe1c4d5f	-0.1526389
30	0x3e173b9c	0.14768833
31	0x3e1fb8a8	0.15597785
32	0x3e4804d7	0.19533096
33	0xbcdc8f4a	-0.026923794
34	0xbdbd2c7f	-0.092370026
35	0xbd80c72a	-0.062879875
36	0xbe01028a	-0.12598625
37	0x3decf23d	0.11569641
38	0xbc54ba8b	-0.012983928
39	0x3d139bc9	0.03603724
40	0x3c4664b8	0.012108974
41	0xbda8fbd4	-0.082511574
42	0xbd0871f1	-0.033311788
43	0xbd1286df	-0.035773154
44	0xbdb6aa79	-0.08919234
45	0xbd762001	-0.060089115
46	0xbd915999	-0.070971675
47	0xbd561081	-0.052261833
48	0x3cfb586a	0.030681808
49	0x3d091e0a	0.033475913
50	0x3d8fbd3e	0.07018517
51	0x3d31fe7f	0.043455597
52	0x3d29d9b4	0.041467384
53	0xbdb3fe19	-0.087887
54	0xbdc187a7	-0.09449702
55	0x3b635eab	0.0034693878
56	0xbd64fa1c	-0.055902585
57	0x3def7ed1	0.1169411
58	0xbce9bcdc	-0.028532438
59	0xbe6cfb0a	-0.23142639
60	0x3db502d9	0.08838434
61	0x3ccc6528	0.024950579
62	0x3df3b33d	0.11899421
63	0x3d42271e	0.047400586
64	0xbe3a9720	-0.18221712
65	0x3d87800c	0.0661622
66	0xbc120fc2	-0.00891489
67	0x3bdf61e9	0.0068170917
68	0xbdfa48b2	-0.12220897
69	0xbc7d906f	-0.01547633
70	0xbaeb26d1	-0.0017940645
71	0x3e17c03b	0.14819424
72	0x3d60c22d	0.05487268
73	0xbe411237	-0.18854605
74	0xbe061dbb	-0.13097279
75	0x3db76b9c	0.08956072
76	0xbbe2c64b	-0.006920611
77	0x3dfd405d	0.12365792
78	0xbe1ef7f7	-0.15524279
79	0xbd05d149	-0.032670293
80	0xbd21d011	-0.03950507
81	0x3db9369b	0.09043618
82	0x3daf4f32	0.08560027
83	0x3d286213	0.041109156
84	0xbd407cc4	-0.046993986
85	0x3dce68b8	0.10078567
86	0x3de7af27	0.113127045
87	0xbdc40308	-0.09570891
88	0xbe83ad5e	-0.25718206
89	0xbccdfcf8	-0.025145039
90	0x3e08a030	0.13342357
91	0x3c488c3f	0.0122404685
92	0xbc0d3cb9	-0.008620434
93	0x3d064cda	0.032788135
94	0xbbd9845f	-0.0066380943
95	0xbc9b09e5	-0.018925617
96	0xbdf9c466	-0.12195663
97	0x3dc3d6cb	0.09562453
98	0x3e0b6ce7	0.13615762
99	0x3e2130dc	0.15741295
100	0x3de0328b	0.1094714
101	0xbbe9c88f	-0.007134504
102	0x3e044ae0	0.12919188
103	0xbc1940bf	-0.009353816
104	0x3e40c440	0.18824863
105	0x3b499d79	0.0030764027
106	0xbbe32688	-0.0069320835
107	0xbc9e5eeb	-0.01933237
108	0x3d5d3991	0.054009978
109	0xbbe29713	-0.006914982
110	0xbdcb50d0	-0.09927523
111	0x3cd60f9c	0.02613049
112	0x3d479028	0.048721462
113	0x3e48d258	0.1961149
114	0xbc95e6b2	-0.01829848
115	0xbdfc740d	-0.123268224
116	0x3c985378	0.018594489
117	0xbdeb22fd	-0.11481283
118	0xbc52437b	-0.012833471
119	0xbe1c5f17	-0.15270649
120	0xbe15ab90	-0.14616227
121	0x3c161586	0.009160405
122	0x3ac9d7d7	0.0015399408
123	0x3ccd7411	0.025079759
124	0x3cfe2771	0.031024667
125	0x3d22f6ac	0.039786026
126	0xbde3b78f	-0.111189954
127	0xbe1e0c6c	-0.15434426
128	0x3db9a85a	0.09065314
129	0x3d1d9df4	0.038480714
130	0xbd03f536	-0.032216273
131	0xbdc3578d	-0.09538183
132	0x3d636336	0.055514537
133	0x3e0c5c7f	0.1370716
134	0xbe0eaf55	-0.13934071
135	0xbd3a298b	-0.045449775
136	0xbd79b6f3	-0.06096549
137	0xbdd780fa	-0.10522647
138	0xbda0c57d	-0.07850168
139	0xbd2a0794	-0.041511133
140	0x3e00e685	0.12587936
141	0xbd960b5b	-0.07326385
142	0xbe5adaad	-0.2137248
143	0xbd9524d9	-0.07282419
144	0xbcbe63ce	-0.02324095
145	0xbb4421a2	-0.0029927273
146	0xbd2353c0	-0.039874792
147	0xbe0e55d8	-0.13899934
148	0x3bab6aeb	0.0052312515
149	0xbd8e2451	-0.069405206
150	0xbdde23bd	-0.1084666
151	0xbc992b55	-0.01869742
152	0x3c6025bb	0.013680871
153	0x3c229e52	0.009925442
154	0xbd32bac5	-0.04363515
155	0xbd21589f	-0.039391156
156	0x3ca6ff9a	0.020385552
157	0xbde60c6d	-0.11232839
158	0xbdae0ae5	-0.08498172
159	0xbd6671b2	-0.056260772
160	0xbc03d3df	-0.0080461195
161	0xbe3c1609	-0.1836778
162	0x3e223727	0.15841351
163	0x3d7aaa35	0.06119748
164	0x3de2e51e	0.11078857
165	0xbda81e43	-0.08208897
166	0x3d96ed5c	0.073694915
167	0xbdeff305	-0.11716274
168	0x3bd5d1c4	0.00652525
169	0xbc20d4f2	-0.009816395
170	0x3dd3cbe2	0.10341622
171	0xbd83b9ee	-0.06431948
172	0xbdd3624a	-0.103214815
173	0x3dd9de4d	0.10638104
174	0xbd9eedb6	-0.077601835
175	0xbe3a72c3	-0.1820784
176	0x3e79d2e4	0.24396855
177	0xbd8c7cc5	-0.068597354
178	0xbddb829b	-0.107182704
179	0x3d424cdc	0.04743658
180	0x3e520adf	0.2051196
181	0xbdd4766a	-0.10374148
182	0x3dbec287	0.09314447
183	0x3d967700	0.07346916
184	0xbc5f78e7	-0.013639665
185	0x3db55bb0	0.08855379
186	0xbc2f9f5e	-0.010719148
187	0xbdc58957	-0.09645336
188	0x3d2f3927	0.042779114
189	0x3bec2905	0.0072070383
190	0x3c779cc1	0.015113057
191	0xbe006176	-0.12537178
192	0xbdebe1b9	-0.115176626
193	0xbe535d12	-0.20640972
194	0xbb58cea0	-0.0033082142
195	0x3d6313d7	0.055438843
196	0x3d57a537	0.052647796
197	0x3d99a31f	0.07501816
198	0x3dd00c1f	0.10158562
199	0xbc2a2f80	-0.010387301
200	0xbe3438fa	-0.1759986
201	0x3d91f349	0.07126481
202	0xbd49684a	-0.049171723
203	0xbd126287	-0.035738494
204	0xbe301eef	-0.171993
205	0x3d8e3775	0.06944171
206	0xbdf6456c	-0.1202496
207	0xbd011d08	-0.031521827
208	0xbd2ae428	-0.041721493
209	0xbdb134ce	-0.0865265
210	0x3e070d04	0.13188559
211	0x3daa1808	0.08305365
212	0x3c92033a	0.017823804
213	0xbd1be40e	-0.038059287
214	0x3e0fb5aa	0.14034143
215	0x3d8349cb	0.06410559
216	0xbe9a24c2	-0.3010617
217	0xbe0a29f5	-0.13492568
218	0x3c1049c2	0.008806648
219	0xbdfdde63	-0.123959325
220	0x3d82935c	0.06375763
221	0x3baa7b5e	0.005202695
222	0xbd464d61	-0.048413638
223	0x3c09fcb5	0.008422066
224	0x3d6b6839	0.05747244
225	0xbc68e844	-0.014215533
226	0xbc85af13	-0.016318833
227	0xbd1eee7f	-0.038801666
228	0xbd97131f	-0.07376694
229	0xbd880407	-0.06641393
230	0x3ac59e82	0.0015077146
231	0x3c60954f	0.013707473
232	0x3e165c22	0.14683583
233	0xbdc24cf7	-0.09487336
234	0x3db493ca	0.08817251
235	0x3db5f4cf	0.08884584
236	0x3da1a07f	0.0789194
237	0x3dbaa1b7	0.09112876
238	0x3dd9784e	0.106186494
239	0xbe0c07e1	-0.1367488
240	0xbc5d00cd	-0.01348896
241	0xbd8089f0	-0.062763095
242	0x3cc3d226	0.023903918
243	0xbd0e6a70	-0.034769475
244	0xbda8e08f	-0.08245956
245	0x3d8f0a24	0.06984356
246	0x3de4e902	0.11177255
247	0x3e25bbda	0.16184941
248	0x3aff72b1	0.0019489137
249	0x3dfd45e7	0.123668484
250	0x3dcb6d02	0.09932901
251	0x3b2c75a4	0.0026315236
252	0x3d086a1f	0.03330433
253	0xbdb2b4f1	-0.08725918
254	0xbd19a951	-0.03751499
255	0x3d2964c3	0.04135586

network_body._body_endoder.seq_layers.2.bias f4 [128]
0	0x3bed0aeb	0.0072339675
1	0x3c76fe23	0.015075239
2	0xb9d8cf69	-0.00041353263
3	0xbb86c1fa	-0.0041124793
4	0x3925cd3f	0.00015812086
5	0x3aae1b0d	0.0013283208
6	0x3c791bfa	0.015204424
7	0xbb18ed2b	-0.0023334723
8	0x3c1f7750	0.009733036
9	0xbc1a9bce	-0.009436561
10	0x3be18de7	0.006883371
11	0xbba0ecb3	-0.0049110292
12	0x3a3a70ef	0.00071121653
13	0xbbfc9d26	-0.0077091632
14	0x3b55ecee	0.0032642442
15	0x3c338820	0.010957748
16	0x3abfcc56	0.001463304
17	0x3c407b6f	0.011748179
18	0xba79346a	-0.00095064065
19	0xbb9cf0ce	-0.0047894483
20	0xbb8cabf6	-0.0042929603
21	0x3becf97d	0.0072318898
22	0x3acff853	0.0015866853
23	0x3bca3eea	0.0061720507
24	0xbc6e70a9	-0.014553227
25	0xbb75c7a1	-0.0037503021
26	0x3abb0e90	0.0014271308
27	0xbb9188a0	-0.004441336
28	0xbb8b06f7	-0.0042427736
29	0x3a85bdfd	0.0010203716
30	0xbae05cfb	-0.0017117554
31	0x3b90741b	0.004408372
32	0x3b06dbf7	0.0020577887
33	0xbb65d839	-0.0035071506
34	0xbba67b57	-0.005080621
35	0xba48cb8b	-0.0007659725
36	0xbaca0a67	-0.0015414477
37	0xbb9320d9	-0.0044899997
38	0xbb2d3a50	-0.0026432462
39	0xbba9fb53	-0.005187431
40	0xbb079a86	-0.0020691468
41	0xbc14bdb3	-0.009078431
42	0x3b9f47b9	0.004860845
43	0xbb51f4b1	-0.0032036717
44	0xb95b540f	-0.00020916782
45	0xbaa65802	-0.0012691023
46	0xbc08f040	-0.008358061
47	0x3c2a6e25	0.010402237
48	0x374761cb	1.18840935e-05
49	0x3b710988	0.0036779363
50	0xbbf47fd0	-0.0074615255
51	0xbbae1cf3	-0.0053135096
52	0x3a972ee9	0.0011534366
53	0x3aa5baf9	0.0012644223
54	0xb8e6eac9	-0.00011010987
55	0x3b041412	0.0020153564
56	0x3bd31687	0.0064418945
57	0x3a921c4a	0.0011147347
58	0xb6fff147	-7.6276806e-06
59	0xbb641af9	-0.0034806116
60	0xbb39634f	-0.0028287952
61	0x3bce5c13	0.006297597
62	0x3b5e656f	0.003393497
63	0x3b0b32e8	0.002124006
64	0xbab58a80	-0.001385048
65	0x3c1100d6	0.008850297
66	0x3b582559	0.0032981245
67	0xbabced67	-0.0014414013
68	0x3bac1127	0.005251068
69	0x3b8be5d8	0.004269343
70	0xbbbd0b1c	-0.0057691466
71	0xbbab0f9e	-0.0052203676
72	0x3ae22f74	0.0017256574
73	0x3b1c0d0e	0.0023811492
74	0x3a7aa92e	0.0009561953
75	0xbb7710c6	-0.0037699207
76	0xbb72dcff	-0.0037057993
77	0x3baa8e60	0.0052049607
78	0x3bbeb9d6	0.005820493
79	0x39ed90fa	0.0004531218
80	0xb9568a4e	-0.00020460153
81	0xbbae69cc	-0.0053226706
82	0x3ad71565	0.0016409574
83	0x3bd72a76	0.006566341
84	0x3abcc8bc	0.0014403085
85	0xbb84eda3	-0.004056649
86	0x3b8b88bc	0.0042582434
87	0x3b498767	0.0030750872
88	0xbb311f0c	-0.0027026562
89	0x3b9315ad	0.004488668
90	0xbb2a8b71	-0.0026023055
91	0xbb4ef325	-0.003157803
92	0x3b56d61e	0.0032781432
93	0xbb1d02bf	-0.0023957936
94	0xbc5a7dd3	-0.013335663
95	0xbac11374	-0.0014730529
96	0x3ab6d90f	0.0013950187
97	0xbc354fac	-0.011066359
98	0x3a9f93e7	0.0012174816
99	0xbb5b29b8	-0.0033441614
100	0xbc1e6a3f	-0.009668886
101	0x3c8b757a	0.01702379
102	0x3b0e2a7b	0.00216928
103	0x3ba4cc52	0.0050292397
104	0x3b8db925	0.0043250495
105	0x3b9d4daf	0.0048005204
106	0x3c27b6c5	0.010236447
107	0xbaec6a5a	-0.0018037066
108	0xba87a207	-0.001034797
109	0xbb6dc1ce	-0.0036278847
110	0x3b5a0e29	0.00332726
111	0x3c04f183	0.0081142215
112	0xbbcfc7a0	-0.006340936
113	0xbb51d4ae	-0.0032017636
114	0xbbad3522	-0.005285875
115	0xbb98a6c3	-0.0046585514
116	0x3b9df4fa	0.0048204632
117	0xbb4f06cc	-0.0031589745
118	0xbbe391e7	-0.006944883
119	0xbc2493d7	-0.010045013
120	0x3a9f2a10	0.0012143273
121	0xbb9c4918	-0.0047694556
122	0x3bd37b56	0.006453912
123	0xbbad81bc	-0.0052950066
124	0xb9d0a3f4	-0.00039795006
125	0xbbc9aa90	-0.006154366
126	0x3a9d824e	0.0012016983
127	0x3b77bed2	0.0037802947

action_model._continuous_distribution.log_sigma f4 [1, 2]
0	0x3cf17cf6	0.029478531
1	0xbce2a9ae	-0.0276688

action_model._continuous_distribution.mu.weight f4 [2, 128]
0	0xbc912032	-0.017715547
1	0xbd4d4ed5	-0.05012401
2	0x3c2d0b74	0.010561813
3	0xbc4c63bb	-0.0124749495
4	0xbbedb8b9	-0.0072546867
5	0xbb48ec95	-0.0030658592
6	0xbd21da26	-0.039514683
7	0xba5e1d03	-0.0008472951
8	0xbcd27625	-0.025691101
9	0xbc0e0236	-0.008667519
10	0xbcc40df0	-0.023932427
11	0xbc8cce75	-0.01718829
12	0x3beb62cf	0.0071834098
13	0x3c1574de	0.009122102
14	0x3c499bd2	0.012305217
15	0xbc455a6a	-0.012045482
16	0x3cf2fc9f	0.029661475
17	0xbc4d40d1	-0.0125276605
18	0xbc98959b	-0.018626025
19	0xbcf01de8	-0.029311135
20	0xbce24721	-0.027621808
21	0xbc9f5cd1	-0.019453438
22	0xbcc966c2	-0.024585132
23	0x3d131c3d	0.035915602
24	0x39810992	0.00024611928
25	0xbca8461f	-0.020541249
26	0x3c9db4a8	0.019251183
27	0xbc8ddf79	-0.017318474
28	0xbac1c236	-0.0014782611
29	0xbd028aba	-0.03187058
30	0x3c70e529	0.014703074
31	0xbc530fd7	-0.0128821945
32	0xbca54632	-0.020175073
33	0xbc630170	-0.013855323
34	0xbc9f541a	-0.019449282
35	0x3cc9b03e	0.024620172
36	0xbc721212	-0.014774816
37	0xbd2c17a3	-0.04201473
38	0xbc90a236	-0.017655473
39	0xbc94e88c	-0.018177293
40	0xbc3ca9d6	-0.011515101
41	0xbc6817de	-0.014165847
42	0x3cc4dee3	0.024032062
43	0xbbdd6f4b	-0.006757652
44	0xbce9376f	-0.028468816
45	0x3c3b43ec	0.011429768
46	0x3ca6f906	0.020382416
47	0x3c3695cb	0.011144112
48	0x3b99aeec	0.0046900418
49	0x3cf6bb7a	0.030118693
50	0x3d4c4dd9	0.04987893
51	0xbbf7aa20	-0.0075581223
52	0x3c0a3e15	0.008437653
53	0xbc144a92	-0.009050982
54	0x3c1f298c	0.009714495
55	0x3d2026b3	0.039099406
56	0x3b720823	0.003693112
57	0xbc83bc69	-0.016081052
58	0x3ad7090f	0.0016405898
59	0x3a923b9f	0.0011156684
60	0xbc37be69	-0.011214831
61	0xbd3f770b	-0.046744388
62	0xbb5b9f23	-0.00335116
63	0x3b894d8a	0.0041901516
64	0x3b5208d5	0.0032048721
65	0xbd232af0	-0.03983587
66	0x3b53ba04	0.003230692
67	0xbd102bdb	-0.035198074
68	0x3ccf03bc	0.025270335
69	0x3cb5287e	0.022114035
70	0xbc7e5086	-0.015522128
71	0xba1e5bbd	-0.0006040892
72	0x3c8e6e8d	0.0173867
73	0xbab17d2f	-0.0013541336
74	0xba4ded89	-0.0007855525
75	0x3b86939c	0.004106952
76	0x3c4875cf	0.012235119
77	0xbcf2128a	-0.029549856
78	0xbd24bb88	-0.040217906
79	0xbc1ab796	-0.009443184
80	0x3bc37ebd	0.005966036
81	0x3cb5140f	0.022104291
82	0x3c26ff73	0.01019274
83	0x3ce77b93	0.028257167
84	0xbca4fddc	-0.02014058
85	0x3ba84be5	0.0051360005
86	0x3c9b1ddb	0.018935135
87	0xbcf7e07a	-0.030258406
88	0xbc9fdaaa	-0.019513447
89	0x3d038928	0.032113224
90	0xbb690dea	-0.0035561272
91	0x3b5520c6	0.0032520755
92	0x3c0b9214	0.008518714
93	0xbcf7b357	-0.030236883
94	0x3c9cc1e3	0.019135421
95	0xbcb1f757	-0.021724386
96	0xbcd131a6	-0.02553637
97	0xbc331b04	-0.010931734
98	0xbd155e9e	-0.036467187
99	0xbceae375	-0.028672913
100	0xbc7ec435	-0.015549709
101	0xbd04ba44	-0.0324042
102	0xbb2651d6	-0.0025378368
103	0xbd1f73ee	-0.03892892
104	0x3c87196b	0.016491612
105	0xbbaad89c	-0.00521381
106	0xbc90ddc5	-0.017683873
107	0x3ca3f319	0.020013379
108	0x3bbfe5b1	0.005856239
109	0xbc5a3bb7	-0.013319901
110	0xbce4a13d	-0.027908916
111	0x3d5144c2	0.051090963
112	0xbbfa7036	-0.007642771
113	0xbc3f4767	-0.0116747385
114	0xbc8e5346	-0.017373692
115	0x3c2ffaee	0.010740979
116	0xbc8f10ef	-0.01746413
117	0x3bea0302	0.007141472
118	0x3c1bd0d0	0.009510234
119	0xbc2fa7ff	-0.010721206
120	0x3bc00dcb	0.0058610193
121	0xbcf25086	-0.029579412
122	0x3cbb7436	0.022882562
123	0xbc2626b0	-0.01014106
124	0xbc11358b	-0.008862863
125	0xbbd74554	-0.006569544
126	0xbb3f7eb5	-0.002921981
127	0x3d374f2d	0.044753242
128	0x3bac6786	0.0052613644
129	0x3bbcbba9	0.0057596755
130	0x3c236a8f	0.009974136
131	0x3cdaf0a9	0.026726084
132	0x3c10e45f	0.00884351
133	0xbc3e24f0	-0.011605486
134	0x3cb3972b	0.021922668
135	0x3d0a0ec3	0.033705484
136	0x3aafb846	0.0013406358
137	0x3cd600c9	0.026123421
138	0xbb87f098	-0.004148554
139	0x3cb27649	0.021784918
140	0x3ca59f7e	0.020217653
141	0xbc8c69cd	-0.017140293
142	0xbc1e98bc	-0.009679969
143	0x3cdf438c	0.027253889
144	0xbbb67ddd	-0.0055692033
145	0x3c9fb11a	0.019493628
146	0xbc80c5cd	-0.015719319
147	0x3ba19a1e	0.0049317023
148	0xbae9963d	-0.0017821264
149	0xbc7b82a5	-0.015350972
150	0x3c8f3445	0.017480979
151	0x3c36f53e	0.011166869
152	0x3b24b11c	0.002512998
153	0x3ca43623	0.020045346
154	0x3c335b1c	0.010947015
155	0xbaa73141	-0.0012755768
156	0xbd1fe346	-0.039035104
157	0x3c82ed7d	0.015982384
158	0x3cf1ee4f	0.02953258
159	0xbcb76989	-0.02238919
160	0x3c423297	0.011852882
161	0x3c5e4511	0.013566271
162	0x3c73e3e2	0.014885874
163	0xba876d01	-0.0010332168
164	0xbbb09e56	-0.005389969
165	0xbb81d5c7	-0.003962252
166	0x3b8898a3	0.0041685863
167	0xbbc38886	-0.0059672026
168	0xbc11d6d2	-0.008901315
169	0x3c1cd597	0.009572408
170	0x3b54a6c6	0.0032448038
171	0x3cd8ffae	0.026489105
172	0xbcb004c7	-0.021486653
173	0xbabe7fbc	-0.0014533917
174	0x3cbac609	0.022799509
175	0xbd3baf86	-0.04582169
176	0x3cadbebb	0.021209111
177	0xbcdb298b	-0.026753208
178	0xbc096d70	-0.008387908
179	0x3c24a301	0.010048629
180	0xbc33ad87	-0.010966665
181	0x3c501319	0.012699866
182	0x3c60e0a8	0.013725437
183	0x3c5b52fe	0.013386486
184	0x3c27aa6c	0.010233503
185	0xbcf5344a	-0.02993216
186	0xbaad5371	-0.001322372
187	0x3d078546	0.033086084
188	0x3b7d105a	0.0038614483
189	0x3cd62d9b	0.026144793
190	0xbd094b19	-0.033518884
191	0xbc76f2f7	-0.015072576
192	0x3c876cac	0.016531311
193	0xbd10bca4	-0.03533615
194	0xbb4b402f	-0.0031013598
195	0xbc19b7dd	-0.009382215
196	0x3af432ed	0.00186309
197	0xbc9671b7	-0.01836477
198	0x3c59dbdd	0.013297048
199	0x3b9d447d	0.004799424
200	0xbb3b272f	-0.002855729
201	0xbc9bf9eb	-0.019040069
202	0xbb39de79	-0.0028361364
203	0x3c641498	0.013920926
204	0x3c787c53	0.01516636
205	0x3cb4b23a	0.022057641
206	0x3c4e894b	0.012605975
207	0xbcc508dc	-0.024052076
208	0x3ba0e860	0.0049105138
209	0xbc35c539	-0.011094385
210	0xbb49c937	-0.00307901
211	0xbcbb7b3a	-0.022885907
212	0xbc809cd1	-0.015699776
213	0xbc182b12	-0.0092876125
214	0xbc219789	-0.009862789
215	0x3d08489c	0.03327237
216	0x3c9dc6fb	0.01925992
217	0xbd11c675	-0.035589654
218	0xbcecbcb2	-0.02889857
219	0x3cf811f9	0.030282008
220	0xbba83ded	-0.0051343353
221	0xbc8210fd	-0.015877241
222	0xbb25c08c	-0.0025291769
223	0x3bb70dd2	0.0055863643
224	0x3b345b15	0.002752011
225	0xbc141917	-0.009039185
226	0x3cfcaafd	0.030843252
227	0x3c4ccb0d	0.012499583
228	0xb961c0e7	-0.00021529534
229	0x3c236c01	0.009974481
230	0xbca5778d	-0.020198608
231	0xbd1f67d7	-0.03891739
232	0xbcac7b21	-0.021054806
233	0x3ccd34bc	0.02504956
234	0xbcb3bc76	-0.021940451
235	0x3c2efb63	0.010680052
236	0x3c91ec06	0.01781274
237	0xbc0157b8	-0.007894449
238	0x3ce0e59a	0.027453233
239	0xbd04e2f4	-0.032443002
240	0xbca1bfaa	-0.019744713
241	0x3a734829	0.0009280467
242	0x3ba212fa	0.00494611
243	0x3ce7aac6	0.028279673
244	0x3cc944f2	0.024569008
245	0x3ce1b51a	0.027552176
246	0xbca20666	-0.019778442
247	0x3bf41353	0.0074485927
248	0x3cb48f93	0.022041118
249	0xb9e7eb9d	-0.000442353
250	0x3d219e02	0.03945733
251	0xbca9f799	-0.020747947
252	0xbc589ab2	-0.013220476
253	0x3c3a0ea2	0.011356028
254	0xbbb129d8	-0.0054065995
255	0x3a1062a5	0.0005507863

action_model._continuous_distribution.mu.bias f4 [2]
0	0x3b84669c	0.0040405523
1	0xbb4fa162	-0.0031681885

exp_avg f4 [128, 6]
0	0x3b052a60	0.0020319447
1	0x38b74089	8.7381406e-05
2	0x3a144a25	0.00056568003
3	0x3a6c03a8	0.00090032304
4	0x38b711ec	8.729458e-05
5	0x3b1a1bfa	0.002351521
6	0x39bf9bff	0.00036546585
7	0xb8298a73	-4.042168e-05
8	0xb9dfc31e	-0.00042679248
9	0xbad71438	-0.0016409224
10	0xb8295f33	-4.03814e-05
11	0xbabdc6ac	-0.0014478764
12	0xba1053b1	-0.0005505635
13	0x36257aec	2.4658466e-06
14	0x39008104	0.00012255093
15	0x39b3808f	0.00034237324
16	0x36254e1c	2.4632382e-06
17	0x399b676b	0.00029640956
18	0xb8652ce2	-5.4639655e-05
19	0xb684565c	-3.94396e-06
20	0xb7acdab6	-2.0605843e-05
21	0xb8c80d83	-9.53926e-05
22	0xb68434a2	-3.940034e-06
23	0xb8ec5189	-0.00011268544
24	0x398b4a4e	0.00026567507
25	0x371eccd3	9.465223e-06
26	0x38c2455d	9.263561e-05
27	0x398d6cf3	0.0002697479
28	0x371ea49f	9.455863e-06
29	0x393a275d	0.00017753006
30	0x393d86eb	0.00018074705
31	0xb7013584	-7.701459e-06
32	0xb94879cc	-0.00019118859
33	0xb8f37607	-0.00011609127
34	0xb7011410	-7.69367e-06
35	0xb9b138b5	-0.0003380232
36	0xba03348d	-0.0005005084
37	0xb5a88628	-1.255602e-06
38	0x3920fda4	0.00015353278
39	0xb9d8990b	-0.00041312756
40	0xb5a85faa	-1.2544817e-06
41	0x39330ac6	0.00017074784
42	0x3aa3885a	0.0012476549
43	0xb830994e	-4.2104446e-05
44	0xba817737	-0.0009877448
45	0xba4f2173	-0.00079014077
46	0xb8306be3	-4.2062147e-05
47	0xbb0ba319	-0.002130693
48	0xba056e1a	-0.0005089954
49	0x388efbc4	6.817983e-05
50	0x3a50a5e2	0.0007959289
51	0x3ad19495	0.0015989715
52	0x388ed74a	6.811188e-05
53	0x3b194e11	0.0023392478
54	0xba1d9316	-0.0006010992
55	0x380d8f17	3.3750282e-05
56	0x3a3b729a	0.0007150561
57	0x3a046edc	0.000505192
58	0x380d6aef	3.371661e-05
59	0x3ac5ec8a	0.0015100401
60	0xb73d4288	-1.1280768e-05
61	0xb54e5490	-7.6864035e-07
62	0xb686ae91	-4.0138334e-06
63	0xb7a07c84	-1.9131468e-05
64	0xb54e2001	-7.678755e-07
65	0xb7bdf77e	-2.2645803e-05
66	0xba660819	-0.00087750104
67	0x3791aae3	1.7364922e-05
68	0x39c084de	0.00036720088
69	0x3a1d3584	0.0005997049
70	0x37918566	1.7347465e-05
71	0x3a4f127f	0.00078991795
72	0xb9268857	-0.00015881784
73	0xb7ac41fe	-2.0534728e-05
74	0xb86e3f9a	-5.6802855e-05
75	0xba53fa20	-0.0008086283
76	0xb7ac1613	-2.0514277e-05
77	0xba02952d	-0.00049813354
78	0x3a47ac79	0.0007616948
79	0x382416f0	3.912201e-05
80	0x39ab319e	0.0003265263
81	0x39899725	0.00026243288
82	0x3823ed25	3.9083086e-05
83	0x3a9ae08c	0.0011816188
84	0x3a969672	0.0011488928
85	0xb7550623	-1.2697218e-05
86	0xb9ade037	-0.00033164184
87	0xba066b7e	-0.0005127712
88	0xb754ceed	-1.2684363e-05
89	0xba2c977b	-0.00065838516
90	0x389545a6	7.117847e-05
91	0x382083f9	3.826988e-05
92	0x39c9e7ab	0.00038510314
93	0x3a57a56c	0.0008226249
94	0x38205af6	3.8231687e-05
95	0x3ab6d4fd	0.0013948974
96	0xb8feaaeb	-0.000121435
97	0xb7ba926c	-2.224111e-05
98	0xb95dcb0c	-0.00021151843
99	0xb867063a	-5.508049e-05
100	0xb7ba62ac	-2.2218876e-05
101	0xba2f60fc	-0.0006690172
102	0xb6b08d5b	-5.2616647e-06
103	0xb81a6777	-3.681282e-05
104	0xb95b8721	-0.00020935807
105	0xba8c9e8e	-0.0010728405
106	0xb81a404b	-3.677634e-05
107	0xba8339a2	-0.0010011683
108	0x380955a9	3.2743123e-05
109	0x375fc36d	1.3337337e-05
110	0xb7a514bc	-1.9679188e-05
111	0x39a9c44a	0.0003238044
112	0x375f8a4d	1.3324036e-05
113	0x39b02a63	0.00033600917
114	0xb922e02e	-0.00015533037
115	0x3718d12f	9.10861e-06
116	0x3989c4f2	0.00026277412
117	0x38fcf26c	0.00012061451
118	0x3718a98d	9.099383e-06
119	0x39efaf99	0.00045716463
120	0xb7f46f4a	-2.913889e-05
121	0x362779f5	2.4955928e-06
122	0x3883b93a	6.281068e-05
123	0x38a525a9	7.874828e-05
124	0x36274e09	2.4930362e-06
125	0x390bf697	0.00013347935
126	0xba05d2c7	-0.00051049556
127	0xb692dda1	-4.37694e-06
128	0x380919ee	3.2687494e-05
129	0x39b9b469	0.00035420366
130	0xb692b7b7	-4.3725263e-06
131	0x3719d21a	9.168429e-06
132	0x39bbd6d8	0.0003582749
133	0x37e331b3	2.7083652e-05
134	0x38b27936	8.510279e-05
135	0x39d38567	0.0004034445
136	0x37e2f7cd	2.705669e-05
137	0x3a1ac301	0.00059036916
138	0xb807d64f	-3.23861e-05
139	0xb5c8944c	-1.4944321e-06
140	0xb6ce2ca2	-6.1444744e-06
141	0xb81a93b4	-3.685402e-05
142	0xb5c8615b	-1.4929495e-06
143	0xb7e823bb	-2.7673193e-05
144	0x38872581	6.444287e-05
145	0xb815a75d	-3.5680237e-05
146	0xb9a3d937	-0.0003125162
147	0xbaa085a8	-0.0012246864
148	0xb815811b	-3.5644607e-05
149	0xbaaec7d8	-0.0013334705
150	0x397dee6e	0.00024216782
151	0xb75002e9	-1.2398444e-05
152	0xb985fc5f	-0.00025555768
153	0xb8b3263f	-8.542509e-05
154	0xb74fcdaf	-1.2386051e-05
155	0xba0005f3	-0.0004883699
156	0xba666228	-0.000878843
157	0x375b5beb	1.30748185e-05
158	0x398a7ae6	0.00026412978
159	0x3a2110a9	0.0006144145
160	0x375b23d8	1.3061763e-05
161	0x3a27b6be	0.0006397775
162	0xbaa53cfe	-0.0012606678
163	0x3752d207	1.2565876e-05
164	0x3a1870f1	0.00058151694
165	0x39305988	0.00016818021
166	0x37529ae7	1.2553041e-05
167	0x3a86dad1	0.0010288601
168	0x37fb9360	2.9990159e-05
169	0xb822f53b	-3.88522e-05
170	0xb9c60324	-0.00037767843
171	0xba48995c	-0.0007652247
172	0xb822cb74	-3.881329e-05
173	0xbaa7ac6a	-0.0012792472
174	0x35b1f30b	1.3258262e-06
175	0x33d0f620	9.730525e-08
176	0x357d296f	9.431014e-07
177	0x35d94415	1.6187574e-06
178	0x33d0c09e	9.7207916e-08
179	0x363ab9fb	2.7824415e-06
180	0x39e6a627	0.00043992812
181	0xb7b60db5	-2.1702474e-05
182	0xb9fa5b57	-0.0004775177
183	0xb903a4d1	-0.00012554532
184	0xb7b5defd	-2.1680718e-05
185	0xba7e689c	-0.0009704919
186	0xb808a38f	-3.2577253e-05
187	0xb596bb16	-1.123032e-06
188	0xb7096a01	-8.190517e-06
189	0x3605adad	1.9919637e-06
190	0xb59694d0	-1.1219181e-06
191	0xb8065994	-3.2031516e-05
192	0xb902104c	-0.00012403837
193	0x37b88170	2.1994783e-05
194	0x39ad462b	0.0003304941
195	0x39e09972	0.00042838935
196	0x37b8525b	2.1972859e-05
197	0x3a6d9abb	0.0009063889
198	0xb0a9b227	-1.2347002e-09
199	0xaf41a9f6	-1.761363e-10
200	0x30cc49af	1.4863896e-09
201	0xb2247a95	-9.573928e-09
202	0xaf417878	-1.7596047e-10
203	0xb13ea6c2	-2.774343e-09
204	0xb9014bde	-0.00012330661
205	0x37181f21	9.067154e-06
206	0x392388b7	0.00015595822
207	0x393e44eb	0.00018145486
208	0x3717f821	9.058073e-06
209	0x39c4ce9e	0.00037537975
210	0x3802f132	3.1219046e-05
211	0x35838b83	9.800864e-07
212	0x36b155d7	5.285004e-06
213	0x3749b9c1	1.2023783e-05
214	0x35836a9a	9.791286e-07
215	0x3797c7cb	1.8093639e-05
216	0x345039a1	1.9392475e-07
217	0xb23208e6	-1.0362987e-08
218	0xb3d2198f	-9.783536e-08
219	0xb507bb56	-5.056403e-07
220	0xb231dbfe	-1.0352776e-08
221	0xb4ed53cb	-4.4205657e-07
222	0xb6b8e5f6	-5.5103983e-06
223	0xb4493c10	-1.8741434e-07
224	0xb576ca31	-9.193637e-07
225	0xb69dd6cd	-4.7039707e-06
226	0xb44908b0	-1.8722744e-07
227	0xb6abc840	-5.1195093e-06
228	0x393c5a06	0.00017962613
229	0x379fc4d1	1.9045927e-05
230	0x39ab76c9	0.00032704163
231	0xb901b14f	-0.00012368451
232	0x379f9bd1	1.9026835e-05
233	0x3a46c08d	0.0007581793
234	0xb90bbb9b	-0.00013325961
235	0xb719a36c	-9.15756e-06
236	0xb93cf400	-0.00018019974
237	0xb7a7f511	-2.002207e-05
238	0xb7197c12	-9.148398e-06
239	0xb9a2c8a4	-0.00031048537
240	0x390af199	0.00013250708
241	0x368a2d6f	4.1180097e-06
242	0xb8b7e062	-8.7679146e-05
243	0x395a5fa1	0.00020825725
244	0x368a0a9f	4.113957e-06
245	0xb87b5a16	-5.9926962e-05
246	0xba806e06	-0.0009798415
247	0xb70f0135	-8.523745e-06
248	0x39326368	0.00017012435
249	0x386c2ecd	5.631037e-05
250	0xb70edd7a	-8.515426e-06
251	0x394f8748	0.00019791455
252	0x3985189a	0.00025386066
253	0xb6d97354	-6.48053e-06
254	0xb84d50b1	-4.895096e-05
255	0xb9a68e69	-0.0003176809

exp_avg_sq f4 [128, 6]
0	0x37b2a83b	2.1297592e-05
1	0x33a74360	7.788799e-08
2	0x379208a4	1.740858e-05
3	0x36d9d7e5	6.4922374e-06
4	0x33a6edfc	7.7732665e-08
5	0x38f2d509	0.0001157914
6	0x35ae1001	1.2968668e-06
7	0x31973a8c	4.4013344e-09
8	0x3557fb62	8.045955e-07
9	0x35c9f47f	1.5046825e-06
10	0x3196ed6e	4.392567e-09
11	0x36e4f083	6.8229288e-06
12	0x35a5eddc	1.2362684e-06
13	0x31506e5f	3.0330722e-09
14	0x35427d07	7.245257e-07
15	0x352bd0a6	6.400609e-07
16	0x31500407	3.0270273e-09
17	0x3699d6f8	4.584781e-06
18	0x2fb26ebf	3.24567e-10
19	0x2bd9480e	1.5438777e-12
20	0x2ef1f7c7	1.1003425e-10
21	0x30863fe9	9.767948e-10
22	0x2bd8d94d	1.5408036e-12
23	0x30bb013c	1.3606392e-09
24	0x3504c3b7	4.9458635e-07
25	0x30b7d078	1.3374253e-09
26	0x33f329bc	1.1323161e-07
27	0x3527749f	6.2382054e-07
28	0x30b772c8	1.3347625e-09
29	0x360ed052	2.1280907e-06
30	0x3531e132	6.626534e-07
31	0x31108af1	2.1033737e-09
32	0x35abdfd9	1.2805641e-06
33	0x34305758	1.6423053e-07
34	0x311040da	2.0991622e-09
35	0x364a2956	3.0124406e-06
36	0x34f686ab	4.5919055e-07
37	0x31918ad9	4.2358406e-09
38	0x35bfd160	1.4291545e-06
39	0x347993d1	2.3243707e-07
40	0x31914058	4.2273705e-09
41	0x36d3de1c	6.314147e-06
42	0x35e3ea5c	1.6981026e-06
43	0x32822ce0	1.5154399e-08
44	0x36b5d6ec	5.4192406e-06
45	0x35959719	1.114534e-06
46	0x3281ea31	1.5124074e-08
47	0x37ba34d2	2.2197524e-05
48	0x370c1c54	8.351246e-06
49	0x32e42a91	2.656205e-08
50	0x36bb4a3e	5.581677e-06
51	0x36533245	3.147071e-06
52	0x32e3b633	2.6509133e-08
53	0x3828c729	4.0239804e-05
54	0x3607e2c4	2.0248563e-06
55	0x32ccab7b	2.3826706e-08
56	0x36f972ac	7.434128e-06
57	0x35d300d5	1.5720967e-06
58	0x32cc42c7	2.3779092e-08
59	0x3816be55	3.5940047e-05
60	0x2d40c6be	1.0958066e-11
61	0x29dd1b82	9.8191434e-14
62	0x2ca866cb	4.7862595e-12
63	0x2e8de4e3	6.452596e-11
64	0x29dcaad8	9.799599e-14
65	0x2ed01ff6	9.464422e-11
66	0x363fc364	2.857495e-06
67	0x321479b4	8.642406e-09
68	0x35fe90d8	1.896663e-06
69	0x350bbdbe	5.2057646e-07
70	0x32142e02	8.625195e-09
71	0x375a0e68	1.2997167e-05
72	0x36ac0892	5.126997e-06
73	0x3243a30f	1.1387569e-08
74	0x35e43c86	1.7004938e-06
75	0x360a3aa7	2.0597743e-06
76	0x32433f5d	1.1364901e-08
77	0x37974cd6	1.8036382e-05
78	0x360a5f71	2.0619157e-06
79	0x31ba2a67	5.418133e-09
80	0x35a25698	1.2095143e-06
81	0x34fa0633	4.657064e-07
82	0x31b9cb67	5.407333e-09
83	0x3707e26b	8.099344e-06
84	0x36487a4c	2.9873509e-06
85	0x3209b642	8.01589e-09
86	0x35cd1609	1.5280103e-06
87	0x357352e3	9.064517e-07
88	0x32096ff4	7.999905e-09
89	0x37495303	1.1999861e-05
90	0x3542b803	7.2538404e-07
91	0x318274c6	3.7967736e-09
92	0x359fd599	1.1908588e-06
93	0x3539a255	6.9154095e-07
94	0x31823225	3.7891987e-09
95	0x36bd9305	5.6497543e-06
96	0x356164c3	8.396566e-07
97	0x3120b8e4	2.3388163e-09
98	0x3553e353	7.8934426e-07
99	0x348a48d5	2.5757495e-07
100	0x312066d3	2.3341513e-09
101	0x36656e98	3.4188033e-06
102	0x36c8bfd6	5.982797e-06
103	0x32d30cee	2.4569513e-08
104	0x36d3e661	6.3151097e-06
105	0x362f1b0b	2.6092773e-06
106	0x32d2a137	2.452053e-08
107	0x381c862e	3.7318263e-05
108	0x352b9c5c	6.3929997e-07
109	0x31240e79	2.3873368e-09
110	0x353707c7	6.818413e-07
111	0x34ef1e1d	4.453913e-07
112	0x3123ba95	2.3825681e-09
113	0x3678db04	3.7082364e-06
114	0x340ab161	1.2916782e-07
115	0x2f9c54f9	2.8436611e-10
116	0x33bde176	8.8420094e-08
117	0x33c17fd9	9.010518e-08
118	0x2f9c052f	2.8379918e-10
119	0x34d3f261	3.9478167e-07
120	0x33eaf143	1.09403594e-07
121	0x305ebb98	8.1029716e-10
122	0x34bd5d3f	3.527184e-07
123	0x342ebf0b	1.6274514e-07
124	0x305e4988	8.0867624e-10
125	0x35a35410	1.2168912e-06
126	0x35f4ccda	1.8239036e-06
127	0x3172830c	3.5290126e-09
128	0x35bb7189	1.3965629e-06
129	0x34f8d8cb	4.6351337e-07
130	0x3172071c	3.5219676e-09
131	0x36a8de52	5.0326717e-06
132	0x37977c52	1.8058494e-05
133	0x329ef629	1.8505562e-08
134	0x35e844ef	1.7305409e-06
135	0x35b3a310	1.3383997e-06
136	0x329ea552	1.84688e-08
137	0x37e5e57e	2.7405793e-05
138	0x32b4077d	2.0958163e-08
139	0x2e66bc0e	5.246297e-11
140	0x32573bd3	1.25282495e-08
141	0x314af9dc	2.9536897e-09
142	0x2e66465c	5.2358437e-11
143	0x33949dea	6.9205115e-08
144	0x356b4dce	8.765754e-07
145	0x31969de2	4.3835238e-09
146	0x3588fbf1	1.0206114e-06
147	0x35784f14	9.2502273e-07
148	0x31965107	4.3747863e-09
149	0x36e45799	6.805127e-06
150	0x3468f4b8	2.1695712e-07
151	0x3031c5ea	6.467348e-10
152	0x34c34fbb	3.6379592e-07
153	0x336c34b9	5.4995983e-08
154	0x30316ac4	6.454395e-10
155	0x3581b5f4	9.664204e-07
156	0x3645555c	2.9404973e-06
157	0x3217b270	8.829929e-09
158	0x35f692e9	1.8371185e-06
159	0x35bd9683	1.4125402e-06
160	0x321764eb	8.812303e-09
161	0x3762db04	1.3521643e-05
162	0x36baaec3	5.563577e-06
163	0x330f1222	3.3311274e-08
164	0x3736e3f9	1.0901124e-05
165	0x363b1013	2.7874528e-06
166	0x330ec8ee	3.3244696e-08
167	0x384daf7e	4.903925e-05
168	0x356bee1a	8.7890805e-07
169	0x31c62f77	5.7679546e-09
170	0x360a194e	2.0578332e-06
171	0x3562f59b	8.4548964e-07
172	0x31c5c9f2	5.756413e-09
173	0x3713d782	8.81206e-06
174	0x2f29eb24	1.5453999e-10
175	0x2b11851a	5.1699064e-13
176	0x2fa05f01	2.9171335e-10
177	0x2eddf63e	1.0093658e-10
178	0x2b113a7d	5.1595517e-13
179	0x30040e3d	4.8041554e-10
180	0x34c2d266	3.62884e-07
181	0x313f350b	2.782431e-09
182	0x356bc1a8	8.782613e-07
183	0x3431702b	1.6525216e-07
184	0x313ed337	2.77687e-09
185	0x3688fd7f	4.0826267e-06
186	0x3213ba80	8.598931e-09
187	0x2ce9adac	6.6415397e-12
188	0x30343f30	6.5573413e-10
189	0x300b3e93	5.065683e-10
190	0x2ce936e7	6.6283537e-12
191	0x3206bbdc	7.842541e-09
192	0x348f549d	2.669739e-07
193	0x310648b7	1.95409e-09
194	0x354c4cab	7.610749e-07
195	0x34f0e2d0	4.486851e-07
196	0x310603d7	1.950175e-09
197	0x36494031	2.9988698e-06
198	0x26863fa8	9.315372e-16
199	0x230d39ce	7.655866e-18
200	0x258c2b87	2.4315624e-16
201	0x25f324d7	4.2178744e-16
202	0x230cf1e2	7.640636e-18
203	0x27e256fe	6.282192e-15
204	0x3487ec0a	2.531745e-07
205	0x30871777	9.829212e-10
206	0x3513dc5f	5.508245e-07
207	0x346f2f10	2.2275731e-07
208	0x3086d24a	9.809551e-10
209	0x35af5ae0	1.3064964e-06
210	0x32323196	1.0372238e-08
211	0x2db86411	2.0962817e-11
212	0x30a2574e	1.1811865e-09
213	0x3224c7af	9.591459e-09
214	0x2db8064d	2.0921176e-11
215	0x32d6526d	2.4950362e-08
216	0x2b3100e1	6.288425e-13
217	0x2741c657	2.689165e-15
218	0x29cf13af	9.196061e-14
219	0x2bb7abf7	1.3050662e-12
220	0x27416404	2.683835e-15
221	0x2c2a70a5	2.4220983e-12
222	0x2dff015e	2.899075e-11
223	0x2916b12d	3.3460366e-14
224	0x2c87235e	3.8408573e-12
225	0x2d62f114	1.2900143e-11
226	0x291664ad	3.3394013e-14
227	0x2dfa462e	2.8452875e-11
228	0x355ebb58	8.2974066e-07
229	0x30b0dada	1.2867887e-09
230	0x345f3e8b	2.0791246e-07
231	0x33b71db3	8.527004e-08
232	0x30b080d5	1.2842302e-09
233	0x3602db6d	1.9499232e-06
234	0x363f5895	2.851278e-06
235	0x31de5c02	6.4715104e-09
236	0x3569f8e2	8.7161436e-07
237	0x34cd2d85	3.8217345e-07
238	0x31ddeaa8	6.458624e-09
239	0x37221047	9.659742e-06
240	0x35172a4b	5.631343e-07
241	0x30d8596b	1.5741483e-09
242	0x35181b15	5.666382e-07
243	0x3417346c	1.4082042e-07
244	0x30d7eab4	1.5710016e-09
245	0x3618f627	2.2793045e-06
246	0x36247d4e	2.4510841e-06
247	0x32368264	1.0623442e-08
248	0x3630db89	2.635383e-06
249	0x35c28742	1.4493492e-06
250	0x32362509	1.0602215e-08
251	0x3785cac5	1.5949257e-05
252	0x35d04a17	1.5518771e-06
253	0x3186183b	3.902668e-09
254	0x35560500	7.972849e-07
255	0x34937bb2	2.7470884e-07

exp_avg f4 [128]
0	0x393711ea	0.00017458913
1	0xb8a95f32	-8.0762795e-05
2	0x36a54e0c	4.926469e-06
3	0xb70434a2	-7.880068e-06
4	0x379ea4a0	1.8911727e-05
5	0xb781140d	-1.5387335e-05
6	0xb6285f8b	-2.5089564e-06
7	0xb8b06be4	-8.41243e-05
8	0x390ed74a	0.00013622377
9	0x388d6aee	6.743321e-05
10	0xb5ce2001	-1.535751e-06
11	0x38118563	3.469492e-05
12	0xb82c161b	-4.1028583e-05
13	0x38a3ed25	7.816617e-05
14	0xb7d4ceed	-2.5368727e-05
15	0x38a05af6	7.646337e-05
16	0xb83a62af	-4.4437762e-05
17	0xb89a404c	-7.3552685e-05
18	0x37df8a4c	2.6648071e-05
19	0x3798a989	1.8198758e-05
20	0x36a74e09	4.9860723e-06
21	0xb712b7b8	-8.7450535e-06
22	0x3862f7d1	5.4113396e-05
23	0xb6486158	-2.9858984e-06
24	0xb895811e	-7.1289236e-05
25	0xb7cfcdb0	-2.4772104e-05
26	0x37db23e2	2.6123544e-05
27	0x37d29ada	2.510606e-05
28	0xb8a2cb72	-7.7626566e-05
29	0x3450c0a2	1.9441589e-07
30	0xb835defc	-4.3361433e-05
31	0xb61694d1	-2.2438364e-06
32	0x3838525b	4.3945718e-05
33	0xafc1787a	-3.51921e-10
34	0x3797f81d	1.811614e-05
35	0x36036a8f	1.9582546e-06
36	0xb2b1dbf6	-2.0705539e-08
37	0xb4c908af	-3.7445486e-07
38	0x381f9bcb	3.8053648e-05
39	0xb7997c11	-1.8296794e-05
40	0x370a0a9d	8.227912e-06
41	0xb78edd73	-1.703084e-05
42	0xb7593afb	-1.294794e-05
43	0xb7e3e047	-2.7164946e-05
44	0xb6502136	-3.1013747e-06
45	0xb8153ee3	-3.5582936e-05
46	0xb8483d72	-4.774094e-05
47	0xb57a69bd	-9.3286127e-07
48	0xb81af4b1	-3.6944348e-05
49	0x3780099f	1.526327e-05
50	0x387313bb	5.795409e-05
51	0x379eae70	1.8916297e-05
52	0x37b81db4	2.194834e-05
53	0x38cde85b	9.818441e-05
54	0x38023014	3.103919e-05
55	0xb800e860	-3.0733994e-05
56	0xb7824dba	-1.5533402e-05
57	0xb6112f4b	-2.1634212e-06
58	0x3832ac3c	4.2598913e-05
59	0x38e5adf1	0.0001095197
60	0xb844ac39	-4.6890436e-05
61	0xb81b6cf2	-3.7056343e-05
62	0x37e7a153	2.7612468e-05
63	0xb89dde26	-7.527722e-05
64	0x389a0036	7.3433315e-05
65	0x36c79a07	5.9485933e-06
66	0xb7fb4fae	-2.9958635e-05
67	0x38365e4f	4.3480013e-05
68	0xb727a17d	-9.991575e-06
69	0xb713dd70	-8.81344e-06
70	0x34ebed28	4.3944715e-07
71	0xb65757d3	-3.2088617e-06
72	0xb6963b7b	-4.477273e-06
73	0xb7d56d11	-2.5442367e-05
74	0xb7c5e286	-2.3589713e-05
75	0x38e6031f	0.00010967836
76	0xb7c73b5d	-2.3750292e-05
77	0x377f58f2	1.5219894e-05
78	0x370208f4	7.750688e-06
79	0xb6d1cadb	-6.252301e-06
80	0x32dac481	2.54679e-08
81	0x385da596	5.284472e-05
82	0x3353190d	4.915005e-08
83	0xb72a20f7	-1.0140465e-05
84	0x38656444	5.4691234e-05
85	0xb62d6b1c	-2.5841355e-06
86	0x350e97e0	5.312013e-07
87	0x375aa386	1.3031886e-05
88	0x38341703	4.2936776e-05
89	0xb84d2164	-4.8906906e-05
90	0xb8480681	-4.7689773e-05
91	0xb8a5700d	-7.888684e-05
92	0xb5ebf902	-1.7581335e-06
93	0x355e5de5	8.283808e-07
94	0xb60fa52e	-2.1404808e-06
95	0xb89a5265	-7.3586394e-05
96	0x3803ad5a	3.139428e-05
97	0xb8979eef	-7.229845e-05
98	0x3892406a	6.9738206e-05
99	0xb850ae16	-4.9753195e-05
100	0xb8c16045	-9.220889e-05
101	0xb59652f2	-1.1200011e-06
102	0x38851dcc	6.347484e-05
103	0x3805e746	3.192506e-05
104	0xb7aa410e	-2.0295873e-05
105	0x3908c454	0.00013043109
106	0x3875d506	5.8610945e-05
107	0xb89e8426	-7.558642e-05
108	0x37164982	8.957812e-06
109	0xb7e73db0	-2.7566071e-05
110	0xb88fa494	-6.8494264e-05
111	0x322c331a	1.0023337e-08
112	0x38a58b77	7.8937905e-05
113	0xb7feb7b9	-3.0364712e-05
114	0x381d7007	3.753605e-05
115	0xb72f0b06	-1.0433379e-05
116	0x37c9f2b4	2.4074085e-05
117	0x3639b598	2.767285e-06
118	0x37f8dad3	2.9665802e-05
119	0xb84e0a91	-4.9124068e-05
120	0xb877bf7f	-5.9067734e-05
121	0xb8110a62	-3.4580364e-05
122	0x3917091e	0.00014403879
123	0x3662ab50	3.3776341e-06
124	0xb91fdd51	-0.00015245868
125	0xb8a91166	-8.061789e-05
126	0x38a193af	7.7045865e-05
127	0x380af825	3.3132867e-05

exp_avg_sq f4 [128]
0	0x34a6edfd	3.109307e-07
1	0x3296ed6b	1.7570263e-08
2	0x32500407	1.2108109e-08
3	0x2cd8d94c	6.163214e-12
4	0x31b772c8	5.33905e-09
5	0x321040d9	8.396648e-09
6	0x32914058	1.6909482e-08
7	0x3381ea31	6.04963e-08
8	0x33e3b634	1.0603654e-07
9	0x33cc42c7	9.511637e-08
10	0x2adcaad5	3.919839e-13
11	0x33142e03	3.4500783e-08
12	0x33433f5d	4.5459604e-08
13	0x32b9cb64	2.1629326e-08
14	0x33096ff4	3.199962e-08
15	0x32823224	1.5156793e-08
16	0x322066d2	9.336604e-09
17	0x33d2a136	9.808211e-08
18	0x3223ba96	9.5302735e-09
19	0x309c0531	1.1351969e-09
20	0x315e4987	3.2347047e-09
21	0x3272071c	1.408787e-08
22	0x339ea553	7.3875206e-08
23	0x2f66465b	2.0943373e-10
24	0x32965107	1.7499145e-08
25	0x31316ac5	2.5817581e-09
26	0x331764eb	3.524921e-08
27	0x340ec8ef	1.329788e-07
28	0x32c5c9f2	2.3025652e-08
29	0x2c113a7c	2.0638205e-12
30	0x323ed338	1.1107481e-08
31	0x2de936e7	2.6513415e-11
32	0x320603d8	7.8007005e-09
33	0x240cf1df	3.0562534e-17
34	0x3186d24a	3.9238204e-09
35	0x2eb8064b	8.368469e-11
36	0x28416405	1.07353405e-14
37	0x2a1664ab	1.3357603e-13
38	0x31b080d6	5.136921e-09
39	0x32ddeaa9	2.5834497e-08
40	0x31d7eab5	6.2840066e-09
41	0x3336250a	4.2408864e-08
42	0x3285d3da	1.5579577e-08
43	0x309b1c23	1.1285731e-09
44	0x31e58fda	6.681131e-09
45	0x31a4a577	4.7918394e-09
46	0x33b0fee4	8.242003e-08
47	0x308fb516	1.0456087e-09
48	0x3310d701	3.3723158e-08
49	0x31674b00	3.3657557e-09
50	0x335f1b26	5.1945925e-08
51	0x32ee24a4	2.7723509e-08
52	0x3384a3e2	6.176539e-08
53	0x32b7928d	2.1370647e-08
54	0x32bd02f3	2.2003837e-08
55	0x321872dd	8.873681e-09
56	0x310bccb8	2.0343531e-09
57	0x2dfe3fcc	2.8904788e-11
58	0x32bceb95	2.199321e-08
59	0x330095b2	2.993847e-08
60	0x331343e2	3.4287844e-08
61	0x3224f79c	9.602356e-09
62	0x33ecc6c6	1.1025763e-07
63	0x332a6c78	3.967986e-08
64	0x335f8081	5.2038107e-08
65	0x31a67223	4.8442117e-09
66	0x3267335d	1.3457648e-08
67	0x321dcb63	9.1848475e-09
68	0x32343923	1.049037e-08
69	0x2dccef53	2.3298396e-11
70	0x2f8f4436	2.6060015e-10
71	0x32c239a6	2.2610788e-08
72	0x2f618441	2.0510617e-10
73	0x328f0f7a	1.6654429e-08
74	0x32e7b667	2.6974886e-08
75	0x33e39145	1.05969356e-07
76	0x2f05705e	1.21362e-10
77	0x30be7557	1.385767e-09
78	0x305fb280	8.138059e-10
79	0x32b91ad7	2.154904e-08
80	0x2b094086	4.876172e-13
81	0x3329536e	3.9424258e-08
82	0x2a8f4489	2.5449459e-13
83	0x32ea23db	2.725749e-08
84	0x322173a3	9.397726e-09
85	0x2f1e63ba	1.4405446e-10
86	0x3332d2aa	4.1635452e-08
87	0x3084e1c6	9.668433e-10
88	0x336819d1	5.404019e-08
89	0x30ee4d08	1.7338673e-09
90	0x322c3f9a	1.0026179e-08
91	0x34171a65	1.4072573e-07
92	0x2dab73cf	1.9491879e-11
93	0x33867d73	6.26268e-08
94	0x3119558b	2.2313056e-09
95	0x31e48d6e	6.651752e-09
96	0x335c8cea	5.1350902e-08
97	0x32c2055e	2.2587013e-08
98	0x3393577d	6.861135e-08
99	0x320f34b7	8.3356815e-09
100	0x34102fcc	1.3428433e-07
101	0x305b1586	7.970232e-10
102	0x33bae661	8.7032056e-08
103	0x334ebd6c	4.813539e-08
104	0x31e44d62	6.6444708e-09
105	0x33a9456e	7.882305e-08
106	0x32a8997f	1.9627576e-08
107	0x33f1abca	1.1253685e-07
108	0x32412dd3	1.1244498e-08
109	0x32b6c936	2.1279089e-08
110	0x3325fa68	3.86448e-08
111	0x2b5112a7	7.42776e-13
112	0x3275049a	1.4261923e-08
113	0x33399c34	4.3215735e-08
114	0x3346b9a5	4.626931e-08
115	0x32e5bbd6	2.6744527e-08
116	0x32ecb954	2.7558293e-08
117	0x3269603c	1.3584266e-08
118	0x32479fc0	1.16196475e-08
119	0x304c418f	7.430793e-10
120	0x3394cdc6	6.929217e-08
121	0x32c7ca40	2.3258622e-08
122	0x33cf0c0a	9.6413785e-08
123	0x339ef0da	7.401259e-08
124	0x33da4e97	1.01657115e-07
125	0x33493786	4.6849458e-08
126	0x32db2407	2.5511339e-08
127	0x3323c33a	3.8128952e-08
